models/three_layers/bad_validaton/threeLayerModel_mumu_corrCut_0.9.pt (torch, 690597 bytes, 6 tensors)

model.0.weight f4 [512, 77]
0.011633817 -0.018661657 -0.25247353 -0.20437263 0.10917322 -0.15521775 0.03363955 0.23139761
0.24415474 0.185721 0.01923714 0.29109466 -0.08214105 -0.112086445 -0.074202195 0.06340002
-0.010656371 0.06719212 0.22898263 0.176563 -0.0028669236 0.13288367 0.018167093 -0.059312567
0.27746454 -0.11570857 0.016574444 0.4491086 0.09475519 -0.17878634 0.09453151 0.061799876
0.06357519 -0.020085277 0.028472442 -0.113446645 -0.121826135 0.025700338 -0.07124118 0.11805788
0.1137 -0.12047229 -0.13863577 0.19306959 0.2298579 0.0032279529 -0.32846045 -0.19853623
0.020202877 -0.055580124 -0.040072773 0.19269755 -0.17919496 -0.07292521 -0.0026731503 -0.09959087
-0.048968963 0.038601995 0.052984692 -0.042674016 0.051472485 0.14003913 -0.026831863 -0.24418853
-0.01751576 -0.11888387 0.23299527 0.124005236 0.2262392 -0.11799215 -0.22920826 -0.37924662
-0.30714968 0.22519113 0.2724598 -0.18753664 0.048671763 0.0030457773 -0.17781411 -0.107309416
0.13738583 0.18483527 0.035865575 0.22345869 0.3089779 0.16383414 -0.151956 -0.26930988
-0.063798845 -0.06971782 0.08992615 -0.0659651 -0.0018085485 -0.25476024 0.0389148 -0.15353404
-0.03977153 0.025626643 -0.106244944 -0.13394684 -0.107857466 0.029358417 0.14621982 -0.29387745
-0.05343263 0.042575616 0.0872413 -0.059209406 0.29884678 0.08385924 0.11703718 -0.14297242
0.118788816 0.048202783 -0.12957615 -0.15414955 -0.09662418 -0.14102961 -0.008304713 -0.18382001
0.10565205 0.05183844 -0.17226848 0.32019517 -0.09927039 0.07833114 0.08145208 0.1543889
-0.05553813 0.08361454 -0.0238719 0.23303369 0.0059403745 0.06415997 -0.1505297 -0.008189303
-0.04712281 -0.03238184 -0.2712065 -0.2049032 0.05269321 -0.007367173 -0.021767028 0.17954534
0.16037267 0.2596671 -0.04614369 -0.19620143 -0.068715274 -0.25526923 -0.48835355 0.06558824
-0.101992086 0.1536701 0.095204815 0.0789018 -0.26553452 0.13422476 0.23013568 0.04688083
-0.27535143 0.2517475 -0.3951983 0.2508719 -0.16747503 -0.19810213 -0.22430757 -0.16853921
-0.12258112 0.12246668 0.07303955 -0.21573754 0.09809003 0.010837904 0.26470628 0.35985994
0.021905204 -0.19035289 0.3251426 0.24428079 -0.14402136 -0.18926835 -0.1636953 0.15706648
0.2182715 -0.0844654 -0.17195086 -0.040732224 -0.03355888 0.2710394 -0.1282337 0.052530788
-0.049738888 0.16683863 -0.092457 0.08042723 -0.049753822 -0.09400125 0.1495512 0.04124509
-0.09774846 -0.002306936 -0.019459518 0.0039745164 -0.24406801 0.22332305 -0.17658794 0.009768233
-0.043725472 -0.1484616 0.012642702 -0.17069945 -0.11834368 -0.08338894 -0.14716834 0.051714465
-0.07666248 -0.07494099 0.20258364 0.09025297 0.276106 0.22369292 0.56905526 0.34743702
0.16247194 0.6328179 0.39405617 -0.75746894 0.22033246 0.21223369 0.28195143 -0.036354132
0.12985988 0.10780483 -0.02347346 0.12188878 -0.20213361 -0.09765957 -0.21503286 -0.30550906
-0.117338285 -0.14250664 0.022658212 -0.057103034 -0.1031835 -0.22296417 -0.10482541 0.27002925
0.030646326 0.12117666 -0.119557045 0.19687076 -0.31901416 0.13403131 0.14924715 -0.16926342
00000000: c49b 3e3c 55e0 98bc 3644 81be 0f47 51be
00000010: 3696 df3d 67f1 1ebe a0c9 093d 7ff3 6c3e
00000020: b303 7a3e a52d 3e3e 3597 9d3c 5c0a 953e
00000030: 9139 a8bd 948d e5bd 52f7 97bd dfd7 813d
00000040: 0f98 2ebc 069c 893d 6c7a 6a3e eecc 343e
00000050: ffe2 3bbb a812 083e 28d3 943c bcf1 72bd
00000060: d50f 8e3e 9df8 ecbd 21c7 873c 90f1 e53e
00000070: 020f c23d c413 37be bc99 c13d de21 7d3d
00000080: b633 823d e189 a4bc 0a3f e93c b756 e8bd
00000090: fb7f f9bd 8489 d23c e5e6 91bd 54c8 f13d
000000a0: 8cdb e83d 2dba f6bd 89f6 0dbe 09b4 453e
000000b0: df5f 6b3e 108c 533b f82b a8be 154d 4bbe
000000c0: 8180 a53c fca7 63bd 5923 24bd 8252 453e
000000d0: e27e 37be d059 95bd 0530 2fbb 4cf6 cbbd
000000e0: ae93 48bd 201d 1e3d 7a06 593d f3ca 2ebd
000000f0: d0d4 523d 6b66 0f3e 7fce dbbc 8f0c 7abe
00000100: 367d 8fbc 6379 f3bd 5096 6e3e 75f6 fd3d
00000110: 40ab 673e dea5 f1bd 92b5 6abe 9d2c c2be
00000120: b942 9dbe 8198 663e da7f 8b3e 9b09 40be
00000130: 0b5c 473d aa9b 473b e714 36be 0ac5 dbbd
00000140: dfae 0c3e 7545 3d3e c8e7 123d 5bd2 643e
00000150: 5a32 9e3e 23c4 273e 5b9a 1bbe fce2 89be
00000160: f8a8 82bd 37c8 8ebd 342b b83d b618 87bd
00000170: d10c edba ef6f 82be 2065 1f3d 0738 1dbe
00000180: 79e7 22bd f7ee d13c f396 d9bd 5c29 09be
00000190: 60e4 dcbd 1081 f03c a6ba 153e 1b77 96be
000001a0: 2cdc 5abd c563 2e3d 91ab b23d 9085 72bd
000001b0: 7202 993e 65be ab3d 30b1 ef3d 5d67 12be
000001c0: 8d47 f33d 4870 453d 9caf 04be 61d9 1dbe
000001d0: e6e2 c5bd 116a 10be 7e10 08bc 503b 3cbe
000001e0: 1a60 d83d 8b54 543d 2667 30be 9ff0 a33e
000001f0: 464e cbbd 146c a03d 59d0 a63d 2018 1e3e
00000200: f37b 63bd 1a3e ab3d 018f c3bc 62a0 6e3e
00000210: 79a7 c23b 4d66 833d 7524 1abe 6d2c 06bc
00000220: d903 41bd d2a2 04bd 94db 8abe 25d2 51be
00000230: d6d4 573d 5468 f1bb c450 b2bc bcda 373e
00000240: bc38 243e 16f3 843e 2a01 3dbd 07e9 48be
00000250: 98ba 8cbd a6b2 82be 7a09 fabe 2153 863d
00000260: 3ae1 d0bd b25b 1d3e befa c23d 4497 a13d
00000270: 24f4 87be 3772 093e b0a8 6b3e 1d06 403d
00000280: ddfa 8cbe 0ce5 803e 6e57 cabe 4872 803e
00000290: 937e 2bbe 49db 4abe e2b0 65be 8b95 2cbe
000002a0: cf0b fbbd d0cf fa3d c295 953d 4dea 5cbe
000002b0: 6de3 c83d 7791 313c 9587 873e 903f b83e
000002c0: 8b72 b33c deeb 42be 1779 a63e be24 7a3e
000002d0: 567a 13be 90cf 41be be9f 27be 09d6 203e
000002e0: 9082 5f3e 32fc acbd e313 30be d5d6 26bd
000002f0: 0975 09bd adc5 8a3e b24f 03be 862a 573d
00000300: 01bb 4bbd bfd7 2a3e 185a bdbd 08b7 a43d
00000310: aaca 4bbd ba83 c0bd f323 193e 9df0 283d
00000320: 5830 c8bd f72f 17bb 9169 9fbc a93c 823b
00000330: f7ec 79be ccae 643e 78d3 34be f00a 203c
00000340: 7b19 33bd 5106 18be 5623 4f3c d6cb 2ebe
00000350: 2c5e f2bd d2c7 aabd 4cb3 16be 8cd2 533d
00000360: 3801 9dbd a97a 99bd 1672 4f3e 8dd6 b83d
00000370: c45d 8d3e c20f 653e 9bad 113f 44e3 b13e
00000380: 0b5f 263e 5b00 223f bbc1 c93e 7ce9 41bf
00000390: d59e 613e ca53 593e f05b 903e 12e8 14bd
000003a0: fdf9 043e c7c8 dc3d 6a4b c0bc d3a0 f93d
000003b0: 1dfc 4ebe be01 c8bd 9331 5cbe af6b 9cbe
000003c0: 0e4f f0bd 43ed 11be b79d b93c dfe4 69bd
000003d0: df51 d3bd b850 64be b4ae d6bd 4641 8a3e
000003e0: 010e fb3c 782b f83d 53da f4bd 7d98 493e
000003f0: d355 a3be 813f 093e 3fd4 183e 6453 2dbe

model.0.bias f4 [512]
-0.012745286 -0.12712403 -0.0896111 -0.02306306 -0.030235205 0.022091942 -0.019733319 -0.11165588
0.045808475 0.08226333 -0.07526248 0.18458389 0.043328047 -0.060131285 -0.023856875 0.039248586
-0.010479979 0.024914054 -0.01355407 0.11682066 -0.13946658 0.05325082 -0.021694321 0.029839076
0.1192363 0.03640619 -0.098003425 -0.064057805 0.053364884 0.10868241 -0.17861702 0.03846869
0.082157336 0.075936496 -0.034199476 0.013540126 -0.13706519 0.00013452405 -0.014777318 0.114904724
0.11435586 0.17661837 0.09205167 -0.053870067 0.022572232 0.13853866 -0.13494991 0.100544535
-0.04039216 0.0035448584 -0.1211183 0.082198225 -0.08445531 -0.14641957 0.120212026 0.050258715
-0.06771756 0.009937948 -0.1016829 0.06933679 -0.07919085 -0.09160545 -0.079307646 -0.13922824
0.12089301 -0.07550827 -0.24602479 -0.0014048802 -0.084851496 -0.017428333 -0.034911145 0.019779796
0.21674769 0.10775454 0.12146353 0.08880011 -0.05459114 0.04520292 -0.16354486 -0.068364754
-0.008918728 -0.0029789214 -0.013418376 -0.01243889 0.12379333 0.078567564 -0.12024519 0.0047500907
0.037115816 0.008100188 0.053122398 0.12630764 0.13294679 -0.055338103 -0.081991725 0.18115318
0.21963014 -0.11354542 -0.16407397 -0.07211482 0.019286988 -0.15214589 -0.10620615 -0.015291773
-0.016336853 -0.07854782 -0.08604393 0.044776287 0.045786005 0.013228427 0.07769242 0.13371523
0.1704992 -0.045243397 0.03775111 0.13791186 -0.13980478 0.213712 0.087875865 -0.06193422
-0.040124398 0.051910266 -0.1393842 0.0007806332 -0.04009212 -0.19372216 0.038687553 -0.00880641
-0.050056137 0.0010968904 0.078604 -0.031986024 -0.050224084 -0.053239077 0.08277589 -0.19533148
-0.12238104 -0.03603404 0.07318273 -0.02661729 0.1632828 -0.018959312 -0.012044714 -0.08060626
-0.10592771 -0.08981646 -0.12591998 0.24208097 0.041738275 -0.101630576 0.07257076 0.13178825
0.03770707 -0.07952469 0.1798655 -0.12360219 -0.14491436 -0.08261993 0.1295254 -0.060733624
0.066840984 -0.085226476 -0.11920996 0.14806123 0.04137468 -0.042918097 -0.015550405 0.034274586
0.10787612 0.10452312 0.2477868 0.09248595 -0.0620245 -0.030726371 -0.27888563 0.08216908
-0.17899075 0.14016935 -0.04309511 0.12769945 -0.1041563 -0.10378595 -0.32757446 -0.02935007
-0.07435771 0.031015025 -0.03522528 0.0960339 -0.17660163 0.042220827 0.1705612 -0.05766478
-0.025183994 0.0056607905 0.0024799774 -0.17488834 -0.008412938 0.0070122792 -0.14500995 0.06818572
0.044502832 -0.10775872 -0.0169224 0.07452993 0.006208813 -0.06224783 0.047653046 0.12345871
-0.095127635 0.13849005 -0.075363 0.16433036 0.07763619 -0.042401183 0.052791357 -0.11341784
0.14153567 -0.047446214 -0.11068735 -0.018250253 0.0071183606 -0.0214906 0.06267715 0.0186911
0.19530024 -0.12570709 -0.22782204 -0.09444042 -0.027044307 -0.09365738 -0.08575563 0.008806932
-0.008980233 0.07568556 0.067390375 0.18269147 -0.005712931 -0.12256574 -0.09125759 0.12684835
0.054393295 -0.063491724 0.15413335 0.014858235 0.052030977 -0.41258493 0.027636647 0.060027696
0.021947537 0.11604195 -0.004154368 -0.13205041 0.013986004 -0.15300876 -0.010618989 -0.07252812
00000000: 9bd1 50bc cd2c 02be 0686 b7bd beee bcbc
00000010: d2af f7bc 29fa b43c c5a7 a1bc d7ab e4bd
00000020: aba1 3b3d ad79 a83d 3723 9abd 8f03 3d3e
00000030: c078 313d 394c 76bd 7e6f c3bc 20c3 203d
00000040: 38b4 2bbc 8f18 cc3c e411 5ebc ac3f ef3d
00000050: 54d0 0ebe 881d 5a3d 4ab8 b1bc 1471 f43c
00000060: 2932 f43d a81e 153d 05b6 c8bd bd30 83bd
00000070: 2395 5a3d e294 de3d 61e7 36be 5891 1d3d
00000080: 1b42 a83d 9884 9b3d c014 0cbd 68d7 5d3c
00000090: d15a 0cbe 060f 0d39 901c 72bc 2b53 eb3d
000000a0: 6833 ea3d 72db 343e 9685 bc3d dca6 5cbd
000000b0: 67e9 b83c 14dd 0d3e 4f30 0abe 4bea cd3d
000000c0: 4072 25bd db50 683b df0c f8bd 8b57 a83d
000000d0: e8f6 acbd 03ef 15be b931 f63d 15dc 4d3d
000000e0: 81af 8abd c6d2 223c 203f d0bd 7200 8e3d
000000f0: d02e a2bd a39b bbbd 0c6c a2bd d991 0ebe
00000100: c196 f73d 14a4 9abd eced 7bbe f523 b8ba
00000110: 9fc6 adbd ddc5 8ebc fdfe 0ebd 3d09 a23c
00000120: 1bf3 5d3e 6aae dc3d dfc1 f83d d5dc b53d
00000130: f69a 5fbd b226 393d 4e78 27be d202 8cbd
00000140: db1f 12bc 023a 43bb c0d8 5bbc 7ccc 4bbc
00000150: 5b87 fd3d 08e8 a03d 1c43 f6bd a6a6 9b3b
00000160: c106 183d a7b6 043c df96 593d ca56 013e
00000170: 3423 083e 35aa 62bd 47eb a7bd 3880 393e
00000180: b9e6 603e 808a e8bd 0203 28be efb0 93bd
00000190: bfff 9d3c 22cc 1bbe 9c82 d9bd 588a 7abc
000001a0: ddd4 85bc aedd a0bd cd37 b0bd 5767 373d
000001b0: 1b8a 3b3d 0bbc 583c 341d 9f3d a5ec 083e
000001c0: 5897 2e3e 2451 39bd e8a0 1a3d c438 0d3e
000001d0: fc28 0fbe 52d7 5a3e 43f8 b33d bdae 7dbd
000001e0: 7b59 24bd dc9f 543d bbba 0ebe 68a3 4c3a
000001f0: a337 24bd 1a5f 46be d776 1e3d c348 10bc
00000200: aa07 4dbd 89c5 8f3a 22fb a03d c703 03bd
00000210: c5b7 4dbd 3811 5abd 6886 a93d fa04 48be
00000220: e9a2 fabd 6e98 13bd d4e0 953d 810c dabc
00000230: 9b33 273e 8f50 9bbc 3157 45bc e514 a5bd
00000240: a1f0 d8bd b1f1 b7bd 2bf1 00be 13e4 773e
00000250: c1f5 2a3d b123 d0bd fb9f 943d 80f3 063e
00000260: bb72 1a3d d7dd a2bd a92e 383e 2523 fdbd
00000270: 6e64 14be a334 a9bd 4ea2 043e d2c3 78bd
00000280: ede3 883d 388b aebd 5a24 f4bd 5d9d 173e
00000290: 7f78 293d e3ca 2fbd 20c7 7ebc 8263 0c3d
000002a0: 28ee dc3d 3810 d63d d3bb 7d3e 4669 bd3d
000002b0: 670d 7ebd dfb5 fbbc 19ca 8ebe 4348 a83d
000002c0: 5a49 37be 8e88 0f3e 8084 30bd a5c3 023e
000002d0: e64f d5bd ba8d d4bd d7b7 a7be 8f6f f0bc
000002e0: db48 98bd 3913 fe3c 6248 10bd 6cad c43d
000002f0: 0fd7 34be bfef 2c3d 98a7 2e3e e831 6cbd
00000300: aa4e cebc 277e b93b 1e87 223b ee15 33be
00000310: 6bd6 09bc 43c7 e53b 7d7d 14be f4a4 8b3d
00000320: 9a48 363d 9bb0 dcbd d8a0 8abc 26a3 983d
00000330: 4c73 cb3b 95f7 7ebd d72f 433d ecd7 fc3d
00000340: 47d2 c2bd 56d0 0d3e eb57 9abd 3846 283e
00000350: b9ff 9e3d ddac 2dbd c03b 583d 9d47 e8bd
00000360: baee 103e f656 42bd 0db0 e2bd 8e81 95bc
00000370: 2341 e93b 0e0d b0bc e15c 803d 141e 993c
00000380: c9fc 473e 5cb9 00be 2e4a 69be fb69 c1bd
00000390: 068c ddbc 71cf bfbd a6a0 afbd f34a 103c
000003a0: d421 13bc 0801 9b3d f703 8a3d 7913 3b3e
000003b0: 8a33 bbbb bf03 fbbd 42e5 babd 89e4 013e
000003c0: 81cb 5e3d f307 82bd 22d5 1d3e f46f 733c
000003d0: 6f1e 553d 553e d3be 4066 e23c 9adf 753d
000003e0: 52cb b33c 67a7 ed3d 5d21 88bb 3938 07be
000003f0: 8d25 653c 54ae 1cbe 45fb 2dbc 9f89 94bd

model.2.weight f4 [256, 512]
-0.08357366 0.18844286 -0.30923706 0.21315454 -0.12836652 -0.2400389 -0.015762258 -0.20918415
0.12810118 -0.042483214 0.12810464 0.13962273 0.1175176 0.5259361 0.15603246 0.100028396
-0.93431604 0.21032481 -0.12368433 -0.20928279 0.05465118 0.029266365 -0.5368045 0.112294
0.19911851 0.20829408 -0.5227105 -0.12791684 0.0139734205 -0.12330984 -0.041536458 0.1512548
0.2808687 0.24579881 0.119920425 -0.63299865 -0.47437862 -0.17736848 -0.03155054 -0.45965767
0.27000576 0.27456847 -0.33386526 -0.10223682 -0.13615419 -0.031457085 0.4415814 0.05444399
-0.1505266 -0.4369073 -0.05877173 0.0039413604 0.21984182 0.18768135 0.21174331 0.38314635
0.26230398 0.18357755 -0.11689487 -0.1422999 -0.17436431 -0.044769485 0.07542422 -0.14310747
-0.38659176 -0.37454346 -0.06697126 0.07538836 -0.1312115 0.40880615 0.104075104 0.03815358
-0.20307304 -0.230195 0.056971863 -0.18269733 0.66456723 -0.27028644 0.15645045 0.38480583
-0.39523277 -0.22723565 0.13802257 -0.123070434 -0.38396156 -0.44519803 -0.037752334 0.36631435
-0.10376312 0.3309398 -0.31869775 0.56772906 0.5865318 -0.027363278 -0.23054393 -0.26036024
0.3167065 0.12936082 -0.12213163 -0.19297355 0.66438633 0.36884373 0.04329432 -0.51466703
0.053756762 0.21137138 0.01027025 0.11258802 -0.08222197 -0.5611317 -0.042937428 0.20069644
-0.391564 0.3036824 -0.058313273 0.16989341 -0.3331425 -0.2560367 -0.13501585 0.014261254
-0.12040006 0.20179038 0.027782083 -0.0092344675 0.022926522 0.07683712 0.0540174 0.3406339
0.06857994 -0.07924901 0.14065188 -0.14957374 -0.19514109 0.05864708 -0.11935108 -0.16192585
0.1432228 0.40853733 -0.019223506 -0.15555914 0.19868042 0.042791463 0.07517729 0.07649859
0.058570758 0.25568146 -0.11445468 -0.08704086 0.07991233 -0.05303801 0.49383548 0.028012866
0.059337664 0.050726343 -0.44430646 0.13944553 0.07170906 0.1910563 0.28896344 -0.030956225
-0.14057471 0.25472128 0.18448207 -0.36975175 -0.24752407 0.08828457 0.1610449 0.17322104
-0.29470226 0.34390026 0.14007828 0.27113664 0.18166147 0.017280899 0.09846732 0.0808156
0.20233011 -0.25704437 0.25872245 0.028554413 0.13798141 0.30061376 0.06538412 -0.060823206
0.4022993 0.063253224 0.2077547 0.43598294 0.06007878 0.0041544824 -0.42111367 -0.16700694
0.14877166 0.09534304 -0.11627707 -0.06835498 -0.29954523 -0.04813027 -0.1553716 0.081904165
0.03728491 -0.29754362 -0.20228218 -0.12506735 0.26553467 0.46164715 0.37406632 -0.089680314
-0.09508326 -0.035290807 0.543138 0.1021696 0.66128564 -0.23698586 -0.13747148 -0.74918383
0.019647468 0.09044374 0.27964732 -0.32578516 0.07711646 -0.15200327 -0.1269641 -0.09940466
-0.34173942 -0.48262304 0.57718855 0.11048954 -0.20943405 0.05808831 -0.14252503 -0.2189141
0.13651572 -0.020185266 0.25143328 -0.1224544 0.07143941 0.26250577 -0.22377734 0.20433907
-0.18073289 0.09320314 -0.3745208 0.21942665 -0.004142405 0.03703716 -0.010035092 0.008218108
0.4133281 -0.015991075 -0.13065785 0.15377674 -0.20926921 -0.6430001 -0.024635978 -0.3108326
00000000: ab28 abbd 2af7 403e 5254 9ebe 2f45 5a3e
00000010: 8372 03be c2cc 75be da1f 81bc 5f34 56be
00000020: f52c 033e e102 2ebd dd2d 033e 43f9 0e3e
00000030: 11ad f03d c0a3 063f f9c6 1f3e b0db cc3d
00000040: 562f 6fbf 635f 573e 364e fdbd 3a4e 56be
00000050: ead9 5f3d 04c0 ef3c 056c 09bf 66fa e53d
00000060: b9e5 4b3e 0b4b 553e 5bd0 05bf a2fc 02be
00000070: c6f0 643c df89 fcbd 2222 2abd 8ae2 1a3e
00000080: 06ce 8f3e afb2 7b3e d798 f53d 330c 22bf
00000090: c1e1 f2be 15a0 35be 243b 01bd 4058 ebbe
000000a0: 323e 8a3e 3d94 8c3e 63f0 aabe 8a61 d1bd
000000b0: 016c 0bbe 25d9 00bd f516 e23e a900 5f3d
000000c0: a523 1abe 50b2 dfbe a0ba 70bd 8726 813b
000000d0: 371e 613e 8a2f 403e 3dd3 583e c22b c43e
000000e0: b54c 863e c1fb 3b3e 9466 efbd 11b7 11be
000000f0: 8f8c 32be 3560 37bd 0378 9a3d c48a 12be
00000100: 5bef c5be 29c4 bfbe 3a28 89bd 3665 9a3d
00000110: 4f5c 06be 0a4f d13e 5425 d53d ee46 1c3d
00000120: 61f2 4fbe 3db8 6bbe 545b 693d 0215 3bbe
00000130: 1421 2a3f fc62 8abe 8c34 203e 4505 c53e
00000140: f35b cabe 76b0 68be ca55 0d3e 5a0c fcbd
00000150: 9c96 c4be fff0 e3be 31a2 1abd 8e8d bb3e
00000160: c281 d4bd f170 a93e 5a2c a3be b156 113f
00000170: f326 163f f428 e0bc b513 6cbe f04d 85be
00000180: 5b27 a23e 2a77 043e 2620 fabd dc9a 45be
00000190: 3915 2a3f 16d9 bc3e 6355 313d 38c1 03bf
000001a0: 0d30 5c3d bd71 583e 8d44 283c 8c94 e63d
000001b0: fe63 a8bd 54a6 0fbf 28df 2fbd 5e83 4d3e
000001c0: 147b c8be 427c 9b3e e6d9 6ebd 8af8 2d3e
000001d0: a791 aabe 3e17 83be 9841 0abe 09a8 693c
000001e0: 4f94 f6bd 23a2 4e3e 4097 e33c 2a4c 17bc
000001f0: 67d0 bb3c c85c 9d3d 5941 5d3d 9167 ae3e
00000200: a473 8c3d 4e4d a2bd 0c07 103e dc29 19be
00000210: 11d3 47be ec37 703d 576e f4bd e4cf 25be
00000220: ffa8 123e ce2b d13e 9d7a 9dbc e54a 1fbe
00000230: e172 4b3e 1a46 2f3d 8df6 993d 4bab 9c3d
00000240: e4e7 6f3d aee8 823e 3767 eabd 7a42 b2bd
00000250: 13a9 a33d 623e 59bd 01d8 fc3e 3d7b e53c
00000260: 0d0c 733d 6dc6 4f3d 237c e3be cfca 0e3e
00000270: 33dc 923d 43a4 433e 04f3 933e e997 fdbc
00000280: d1f2 0fbe d46a 823e dee8 3c3e 1a50 bdbe
00000290: f376 7dbe 8ace b43d f4e8 243e db60 313e
000002a0: 37e3 96be b213 b03e ae70 0f3e 6cd2 8a3e
000002b0: 7705 3a3e ac90 8d3c 3ca9 c93d a682 a53d
000002c0: a02f 4f3e 529b 83be 4577 843e f2ea e93c
000002d0: 004b 0d3e 0cea 993e 1ce8 853d c121 79bd
000002e0: 2dfa cd3e e88a 813d a6bd 543e 2839 df3e
000002f0: 2b15 763d 5322 883b 369c d7be de03 2bbe
00000300: 9957 183e 3643 c33d ac22 eebd b2fd 8bbd
00000310: fe5d 99be 3f24 45bd bc19 1fbe 5fbd a73d
00000320: 10b8 183d a357 98be 0f23 4fbe a811 00be
00000330: 29f4 873e 045d ec3e 9f85 bf3e 50aa b7bd
00000340: 03bb c2bd 188d 10bd 180b 0b3f 4c3e d13d
00000350: 044a 293f 6cac 72be 53c5 0cbe 83ca 3fbf
00000360: baf3 a03c 913a b93d ef2d 8f3e 50cd a6be
00000370: 3cef 9d3d bfa6 1bbe e102 02be ac94 cbbd
00000380: 78f8 aebe 5e1a f7be a1c2 133f 5748 e23d
00000390: e175 56be 02ee 6d3d 15f2 11be 052b 60be
000003a0: c7ca 0b3e 925b a5bc ddbb 803e 5fc9 fabd
000003b0: d34e 923d 2867 863e e325 65be 433e 513e
000003c0: 0b12 39be 4ae1 be3d 31c1 bfbe 61b1 603e
000003d0: 03bd 87bb 47b4 173d 3a6a 24bc 3ea5 063c
000003e0: be9f d33e b7ff 82bc 2ccb 05be a677 1d3e
000003f0: ab4a 56be a89b 24bf 64d1 c9bc 7325 9fbe

model.2.bias f4 [256]
-0.009312862 -0.008414373 0.027784875 -0.0023926604 0.08328187 0.041598175 -0.18070216 0.14224507
-0.05397962 0.022427771 -0.032457568 0.10570456 0.031614974 0.07295587 -0.0015315494 -0.029870756
0.2169886 0.1465043 -0.061298426 0.0004414073 -0.029675703 -0.039565098 0.14711422 0.0065230257
-0.008916878 0.09260533 0.024992302 0.024234785 0.013216136 0.024658332 0.31853148 -0.03338885
0.011748535 -0.03524077 -0.075751744 0.004709676 -0.063324876 -0.04076384 -0.10524996 0.021851126
0.012283912 0.053139642 0.046873976 0.04988917 0.02095387 -0.112045966 -0.09192321 -0.00095371885
0.017234355 0.012546062 -0.007247585 -0.070680775 0.00110573 -0.052674983 0.08787545 -0.0105974255
0.020761762 0.05078457 0.040359806 0.17572127 -0.0018648029 -0.034474235 0.05753656 0.010112313
0.07455143 -0.1238227 -0.061292205 0.036830302 0.05140504 -0.100829914 0.06867509 -0.097430155
0.079530016 0.1498079 -0.039436467 -0.036648516 0.0016614202 -0.07312853 0.015018734 -0.015304688
0.091498144 0.021217428 -0.13749959 0.0433844 0.08597597 0.009365404 -0.1290239 0.3382585
0.09018264 0.10034913 -0.08594934 -0.17027567 0.053042732 -0.019252097 -0.06534859 0.0452597
0.33434504 -0.085034005 0.082795724 -0.07927965 0.027760826 -0.062382024 -0.07267855 0.11777581
0.24958006 -0.026829394 0.083571084 0.40915743 -0.010810647 0.038460728 -0.036802407 0.018343361
-0.009774861 -0.024513287 0.038749337 -0.060974613 0.025244145 0.013626218 -0.23889917 0.01905571
-0.06371703 -0.06002432 0.30260047 -0.0376878 0.041854654 -0.015368031 -0.006022268 0.018647056
0.017635394 -0.012149034 0.086082645 0.0164794 0.100600876 -0.011525416 0.05129706 -0.045167174
0.018264383 -0.14051917 -0.010703485 0.24325292 0.30107915 0.14657502 -0.10806345 0.026901292
0.014817892 0.08576161 -0.08595019 -0.047655005 0.016489046 -0.050130725 -0.10495876 -0.023794224
0.08212545 0.32897 0.17844519 0.066744104 -0.10882254 -0.029179756 0.0026121142 0.06836377
-0.06258575 0.09051859 -0.057703268 -0.046912573 0.022833105 0.023080671 0.027029492 -0.026776804
0.10813233 0.039904725 0.043122824 0.11917781 0.074737564 -0.035994187 0.078212336 -0.022858141
-0.05731649 0.33138418 0.079009265 -0.012231278 -0.05590685 0.09035892 0.13261552 -0.019552013
0.022386555 -0.1812555 0.19292252 0.108548224 0.24208677 0.05788004 -0.061441395 0.04122272
-0.02094425 0.0148633765 0.02921618 0.027385723 0.07575963 0.03738054 0.08680289 -0.16833796
-0.10418954 -0.15167663 -0.01770293 0.012339083 0.017923465 0.0051514576 0.09625161 0.0015651309
0.03538888 -0.027844792 -0.009118581 -0.16225736 0.1040789 0.09499962 -0.0015857886 0.034319967
0.049209233 -0.05984989 0.18742768 -0.017983267 0.12774034 0.03725997 0.020732079 -0.013781316
0.23455495 0.2911156 0.18084031 -0.010882693 0.031361464 0.015556693 -0.105419405 -0.04751421
0.024122654 -0.030166445 -0.078340024 0.02918422 0.0029830441 -0.048466846 -0.07014024 0.054402824
0.004445202 0.012298118 -0.0472508 0.053025823 0.021139381 -0.010096888 -0.053779483 -0.038616028
0.06493323 0.052027266 -0.08805775 -0.001826386 -0.0031458745 0.107335694 -0.047473427 0.3213706
00000000: f994 18bc 70dc 09bc 1b9d e33c 2ece 1cbb
00000010: af8f aa3d d962 2a3d fd09 39be b1a8 113e
00000020: bc19 5dbd 72ba b73c 3af2 04bd a27b d83d
00000030: b47e 013d e369 953d 45be c8ba 84b3 f4bc
00000040: 4232 5e3e 3905 163e 0f14 7bbd af6c e739
00000050: 761a f3bc 030f 22bd 1ca5 163e 1bbf d53b
00000060: 1918 12bc dda7 bd3d a8bc cc3c 0788 c63c
00000070: 7e88 583c 4500 ca3c 8f16 a33e bfc2 08bd
00000080: ed7c 403c a058 10bd bb23 9bbd a053 9a3b
00000090: 79b0 81bd fcf7 26bd 4b8d d7bd 2201 b33c
000000a0: 7642 493c f4a8 593d edfe 3f3d 9658 4c3d
000000b0: 73a7 ab3c 5b78 e5bd 3c42 bcbd fd02 7aba
000000c0: 102f 8d3c ff8d 4d3c 267d edbb 15c1 90bd
000000d0: 24ee 903a b9c1 57bd 0bf8 b33d d3a0 2dbc
000000e0: 9214 aa3c 7b03 503d 5350 253d 47f0 333e
000000f0: 676c f4ba db34 0dbd 75ab 6b3d 1dae 253c
00000100: 6cae 983d c196 fdbd 890d 7bbd 5fdb 163d
00000110: 178e 523d ea7f cebd 87a5 8c3d 7689 c7bd
00000120: a2e0 a23d 3e67 193e 2288 21bd c11c 16bd
00000130: 03c4 d93a 69c4 95bd 2311 763c 84c0 7abc
00000140: 6163 bb3d 2cd0 ad3c b1cc 0cbe d7b3 313d
00000150: 2b14 b03d 5a71 193c d71e 04be 3830 ad3e
00000160: adb1 b83d d883 cd3d 3506 b0bd bf5c 2ebe
00000170: 5643 593d 93b6 9dbc 7bd5 85bd 3c62 393d
00000180: 462f ab3e 4f26 aebd ce90 a93d 5e5d a2bd
00000190: ac6a e33c 4b84 7fbd 7ed8 94bd 7234 f13d
000001a0: ea91 7f3e 51c9 dbbc 5127 ab3d 157d d13e
000001b0: 241f 31bc ff88 1d3d 1fbe 16bd d144 963c
000001c0: bd26 20bc 17d0 c8bc a0b7 1e3d 84c0 79bd
000001d0: cfcc ce3c 8040 5f3c fca1 74be b81a 9c3c
000001e0: 137e 82bd 10dc 75bd 73ee 9a3e 865e 1abd
000001f0: c96f 2b3d 32ca 7bbc 7256 c5bb b6c1 983c
00000200: 1a78 903c be0c 47bc 194c b03d cfff 863c
00000210: d507 ce3d 19d5 3cbc de1c 523d 3701 39bd
00000220: 309f 953c 42e4 0fbe ac5d 2fbc 4b17 793e
00000230: 0c27 9a3e c317 163e 5f50 ddbd 1960 dc3c
00000240: bec6 723c c8a3 af3d a706 b0bd e531 43bd
00000250: 0914 873c e055 4dbd 9ef4 d6bd 1bec c2bc
00000260: 6331 a83d c16e a83e 56ba 363e 22b1 883d
00000270: 5ade debd 620a efbc 0130 2b3b 4e02 8c3d
00000280: f52c 80bd cf61 b93d 435a 6cbd 6627 40bd
00000290: 7e0c bb3c ad13 bd3c f46c dd3c 075b dbbc
000002a0: 7c74 dd3d 2373 233d 8fa1 303d 7f13 f43d
000002b0: 0210 993d a46e 13bd ca2d a03d ff40 bbbc
000002c0: b2c4 6abd 30ab a93e 9ccf a13d b365 48bc
000002d0: 95fe 64bd 190e b93d 5dcc 073e 8b2b a0bc
000002e0: 0264 b73c 0b9b 39be 7b8d 453e 884e de3d
000002f0: 98e5 773e 9f13 6d3d f9a9 7bbd 28d9 283d
00000300: 4793 abbc 8585 733c c556 ef3c 0658 e03c
00000310: dd27 9b3d 561c 193d b7c5 b13d c960 2cbe
00000320: 5361 d5bd 1e51 1bbe bc05 91bc dd29 4a3c
00000330: 3bd4 923c 8fcd a83b 901f c53d 1425 cd3a
00000340: eef3 103d c31a e4bc 1a66 15bc cb26 26be
00000350: 5127 d53d 298f c23d 3cda cfba 1893 0c3d
00000360: 9f8f 493d 2925 75bd 0bed 3f3e a551 93bc
00000370: 5dce 023e e99d 183d 52d6 a93c 07cb 61bc
00000380: 2c2f 703e 1b0d 953e 342e 393e 534d 32bc
00000390: e174 003d 80e1 7e3c 21e6 d7bd 439e 42bd
000003a0: df9c c53c 9f1f f7bc bc70 a0bd bf13 ef3c
000003b0: 2d7f 433b 2c85 46bd b0a5 8fbd 7fd5 5e3d
000003c0: 0fa9 913b 0c7e 493c 0e8a 41bd 9b31 593d
000003d0: 7f2c ad3c 6b6d 25bc e047 5cbd d72b 1ebd
000003e0: b7fb 843d 8b1a 553d 9f57 b4bd 5863 efba
000003f0: 042b 4ebb d1d2 db3d 7f73 42bd b08a a43e

model.4.weight f4 [3, 256]
0.71502036 -0.44969663 -0.27605948 2.7277658 -0.7598735 -0.47006214 0.5915212 -1.9468127
-4.203634 1.5338624 0.953461 0.083763294 -0.50359887 1.1517957 2.3896072 -1.7824237
0.38850963 0.29369196 -1.8853337 1.0400342 1.4309552 0.8967498 -3.3393972 0.2401176
-0.7944282 -1.2998779 -1.0639973 1.6015993 0.38593462 -5.1689563 0.30253592 -0.19093162
2.907561 -1.6587113 -2.9765146 1.4070103 0.19476192 0.74088967 0.13200682 0.7781516
1.114388 3.9595287 0.89850336 -0.066775426 2.236251 1.7141477 0.99916106 -0.8218051
0.71385896 -0.12267887 1.1143109 2.3274744 -0.36315405 0.5781254 0.4028793 2.7317548
5.8507314 0.4199933 6.0487876 -0.4709339 -1.1067744 1.0856458 -0.73968655 0.77941567
-0.029482216 1.6418842 1.2342144 -2.00782 0.48447424 -0.705139 0.6580077 0.5921982
-1.8461479 -0.1761257 1.0011026 0.85659516 0.012334239 1.2243418 1.1546731 -0.11684354
-0.1425969 -0.26728147 6.1825895 1.1638663 -5.7800393 -2.0257509 1.5080678 0.20465043
-1.7087169 0.054317575 2.3915062 2.363844 -4.070714 -2.2884896 -2.1125717 0.53357714
0.40768707 1.4477141 -2.8239923 1.4877021 0.7939121 6.104306 0.014556444 0.26861662
0.36023882 5.557692 -3.9931102 0.32562634 1.3135394 -0.61731607 3.6859984 -1.867494
-2.2495732 -0.07611878 -3.1022227 0.98949856 0.17052728 -0.51675475 -1.5808488 1.2754382
1.1307838 0.13248259 0.17040704 0.5832087 -1.4738172 0.38557717 -0.77241 1.8275744
0.54054374 4.202909 -1.6918736 -2.4966633 -0.4839482 0.75156397 0.6921121 -3.2304888
-0.4219541 2.529964 6.243241 0.29220346 0.30516118 0.47010344 0.35062996 -2.2222073
-1.0287967 1.1461085 1.5166337 4.2965393 0.034278437 0.3081567 1.2155031 0.47156325
-1.0058562 0.23209926 0.2174493 -1.6038209 0.22499949 0.9606656 1.0235391 1.7686946
-1.2292508 -1.1372445 -1.2211856 -0.47868657 -2.5926735 1.3608134 0.06918365 -1.7663094
-0.7388289 -1.9576688 -1.2590992 -0.5649103 -1.0618446 1.1596882 -0.4154275 0.9976905
3.1937656 0.3525682 0.2822164 -1.4425123 0.64524674 -4.962028 0.056281313 0.11993968
2.6256573 2.4884589 -2.4892573 -1.6755183 0.17516059 0.6729323 1.2026609 2.402985
-0.46485776 -0.11046441 0.94712067 1.5812098 -0.2998176 -1.7779605 4.4957047 2.5665762
4.671728 -1.8464799 -1.5702299 1.1941941 -0.26299128 -2.5253682 0.1268115 -1.7439171
1.3769038 1.342917 -0.24189006 -1.6982458 -2.5507538 -0.9323661 -0.29918224 -2.954523
-0.56702673 4.4576464 0.1528613 6.4877663 -0.8711446 0.968364 0.88387877 7.53772
0.28729245 0.27625495 0.28610167 -1.0333802 -4.1861954 -3.127919 -0.6735605 -0.20457913
-7.0045996 2.0118873 7.074855 -0.4241914 0.5668054 5.1995425 0.24092513 0.12272506
-1.2169619 -0.24721214 0.44794992 -0.7449187 -0.62575483 1.7463255 -0.25840044 -3.5375779
0.18540736 -0.10700866 0.5804448 -0.045436267 -2.879242 0.12579574 0.5996995 0.2723561
00000000: 930b 373f a33e e6be ab57 8dbe b793 2e40
00000010: 1287 42bf fcab f0be ef6d 173f 2931 f9bf
00000020: 2b84 86c0 9a55 c43f 0516 743f 178c ab3d
00000030: dbeb 00bf 0b6e 933f 53ef 1840 7626 e4bf
00000040: bcea c63e cb5e 963e 9d52 f1bf d71f 853f
00000050: 8a29 b73f 6591 653f afb8 55c0 63e1 753e
00000060: a65f 4bbf 6662 a6bf 1031 88bf 3501 cd3f
00000070: 3999 c53e 1768 a5c0 fde5 9a3e 9483 43be
00000080: 7b15 3a40 a750 d4bf 377f 3ec0 ea18 b43f
00000090: ab6f 473e f2aa 3d3f cc2c 073e f134 473f
000000a0: 44a4 8e3f eb68 7d40 5104 663f 8ec1 88bd
000000b0: bd1e 0f40 3169 db3f 05c9 7f3f d261 52bf
000000c0: 76bf 363f 0f3f fbbd bda1 8e3f 57f5 1440
000000d0: 54ef b9be 0700 143f 3246 ce3e 12d5 2e40
000000e0: 3139 bb40 5d09 d73e ab8f c140 401e f1be
000000f0: c9aa 8dbf 71f6 8a3f 195c 3dbf c987 473f
00000100: b084 f1bc 4329 d23f bdfa 9d3f 1f80 00c0
00000110: 020d f83e fd83 34bf 3173 283f 4d9a 173f
00000120: 934e ecbf 4c5a 34be 2124 803f d249 5b3f
00000130: 8c15 4a3c 3bb7 9c3f 54cc 933f aa4b efbd
00000140: ec04 12be 1ed9 88be c6d7 c540 92f9 943f
00000150: 15f6 b8c0 e7a5 01c0 5e08 c13f e28f 513e
00000160: 3cb7 dabf 1b7c 5e3d 700e 1940 3849 1740
00000170: 4a43 82c0 9d76 12c0 6034 07c0 8398 083f
00000180: 5cbc d03e b24e b93f 4abc 34c0 066d be3f
00000190: d33d 4b3f 7a56 c340 277e 6e3c 1e88 893e
000001a0: 3971 b83e 9dd8 b140 1e8f 7fc0 7fb8 a63e
000001b0: 0f22 a83f 6d08 1ebf 66e7 6b40 0b0a efbf
000001c0: 02f9 0fc0 2ae4 9bbd d18a 46c0 c74f 7d3f
000001d0: b49e 2e3e 0a4a 04bf 4159 cabf 8f41 a33f
000001e0: 86bd 903f 84a9 073e 2f7f 2e3e 2a4d 153f
000001f0: 0ba6 bcbf 5f6a c53e a9bc 45bf f5ed e93f
00000200: 1361 0a3f 3b7e 8640 508f d8bf 55c9 1fc0
00000210: 0fc8 f7be 7f66 403f 422e 313f 54c0 4ec0
00000220: 5e0a d8be eeea 2140 a1c8 c740 b19b 953e
00000230: 163e 9c3e 66b1 f03e c585 b33e a538 0ec0
00000240: 9caf 83bf afb3 923f 0e21 c23f 407d 8940
00000250: 8c67 0c3d b7c6 9d3e 9b95 9b3f bd70 f13e
00000260: e5bf 80bf 6eab 6d3e 08ab 5e3e 014a cdbf
00000270: 4466 663e 2eee 753f 5403 833f 9664 e23f
00000280: 1758 9dbf 3a91 91bf cf4f 9cbf 6816 f5be
00000290: 5dee 25c0 222f ae3f 28b0 8d3d 6d16 e2bf
000002a0: e423 3dbf e494 fabf 2a2a a1bf f69d 10bf
000002b0: 86ea 87bf aa70 943f eab2 d4be a568 7f3f
000002c0: a866 4c40 d283 b43e ab7e 903e 3ea4 b8bf
000002d0: e42e 253f efc8 9ec0 3c87 663d efa2 f53d
000002e0: c50a 2840 e942 1f40 fe4f 1fc0 6277 d6bf
000002f0: 4c5d 333e 4b45 2c3f cbf0 993f 82ca 1940
00000300: d601 eebe 2a3b e2bd 8076 723f 1565 ca3f
00000310: b181 99be 3694 e3bf d0dc 8f40 c942 2440
00000320: cc7e 9540 7459 ecbf 4bfd c8bf 5adb 983f
00000330: cba6 86be a29f 21c0 e0da 013e ad38 dfbf
00000340: 623e b03f b4e4 ab3f 07b2 77be 1e60 d9bf
00000350: 8d3f 23c0 8baf 6ebf 6a2e 99be e816 3dc0
00000360: aa28 11bf 0aa5 8e40 ac87 1c3e c89b cf40
00000370: 5503 5fbf b4e6 773f e145 623f 0135 f140
00000380: ff17 933e 4a71 8d3e eb7b 923e cd45 84bf
00000390: 50f5 85c0 d32f 48c0 766e 2cbf 317d 51be
000003a0: ae25 e0c0 c3c2 0040 3665 e240 9d2f d9be
000003b0: 291a 113f a762 a640 14b5 763e 4757 fb3d
000003c0: 68c5 9bbf 2e25 7dbe b159 e53e feb2 3ebf
000003d0: 7831 20bf 9887 df3f 104d 84be ad67 62c0
000003e0: 6ddb 3d3e 5b27 dbbd 0898 143f 611b 3abd
000003f0: 8045 38c0 99d0 003e e885 193f 4272 8b3e

model.4.bias f4 [3]
-0.09264169 0.06683324 0.0053404844
00000000: edba bdbd dedf 883d 3bff ae3b
