models/three_layers/bad_validaton/threeLayerModel_emu_corrCut_0.9.pt (torch, 690597 bytes, 6 tensors)

model.0.weight f4 [512, 77]
0.035367694 0.1492807 0.017615719 -0.10421799 0.255416 0.19313349 -0.30272952 0.122578286
-0.044210006 -0.084715724 0.04373584 -0.034175467 0.046627764 -0.045562785 0.1515048 0.016297076
0.07202814 0.08462095 0.22338085 0.12341559 0.20832823 0.02097728 -0.06614308 -0.11090865
-0.20596592 -0.19413047 0.17510822 -0.14894006 -0.17683297 0.020584272 0.019357659 -0.117184706
0.032009687 0.071539104 -0.05653977 0.1318099 0.026079826 -0.0030089319 0.083202854 0.0060858484
0.019794514 -0.1320864 -0.14984185 0.070524305 -0.028368192 0.08231894 -0.25596017 -0.14012285
-0.083384246 -0.08725298 -0.05561254 0.06421101 0.038089477 0.15291788 0.22407494 0.024096621
-0.090872645 -0.16507488 -0.07951293 0.049415547 -0.01631909 -0.14986414 -0.16294788 -0.0026723952
0.052471947 0.05084856 0.16806775 0.28856936 0.18367545 -0.071607314 -0.34936687 -0.24400076
0.12879062 -0.55378246 -0.10659956 -0.10146947 0.25251016 0.15690169 0.108408496 -0.24938536
-0.17514758 -0.056318127 -0.102537155 -0.09740793 0.09407607 0.17852868 -0.054048326 -0.17359157
-0.06883358 -0.11841063 -0.09616998 0.068630636 -0.093195684 0.06884267 -0.16418263 0.017277816
0.13964719 -0.023865191 -0.091740154 -0.085077 0.037445944 0.14931914 0.09649268 -0.006974572
0.009214463 -0.15439005 -0.09322279 -0.2666138 0.14213401 -0.067533284 0.09587152 0.069252685
-0.044184294 0.15269741 0.015058607 0.22989191 0.09165589 0.100672476 -0.16739011 0.14999205
-0.027598111 0.16023971 0.17750716 0.04233491 0.11782818 0.16064344 0.103844315 -0.09784239
0.0523766 -0.03752809 -0.17880183 0.06984966 0.0553541 0.14776073 -0.19996138 -0.05319556
-0.096506 0.008976927 -0.17429106 -0.036133435 0.04166084 0.12887226 -0.08719762 -0.0007137917
0.114107266 -0.18933788 0.02964751 -0.15508504 0.031267688 0.03892853 -0.5421233 -0.13878839
0.0352179 0.1365423 -0.14044622 0.28134164 0.11777685 -0.22382663 0.22577785 -0.24085185
-0.17150953 0.17635709 -0.022565637 -0.028561026 -0.046063922 -0.00646656 -0.07080467 0.245194
-0.026756018 0.07385875 0.16696218 0.023196813 0.11697949 -0.14735804 0.0029678177 -0.031182827
0.01364655 -0.033052467 0.12515685 0.044128552 -0.13939719 -0.19427003 0.27076924 0.048004746
-0.023206435 -0.03113117 -0.1258457 0.028526358 0.04108975 0.11278544 -0.15030591 0.052019324
-0.023112016 0.22815146 -0.07220024 0.023052447 0.135223 0.13271183 0.123668686 -0.15904786
0.029030018 0.028816259 -0.09183072 -0.03237728 0.08968751 -0.08633202 0.11724727 -0.014202313
0.049018614 -0.20003727 -0.032485623 -0.21215773 0.048135195 -0.017612658 -0.021382207 -0.14036201
-0.0407619 -0.016130257 -0.10003799 0.04993628 -0.13507442 -0.1331176 0.31767595 0.11104402
0.006515421 0.010541855 -0.22858053 0.08686819 -0.20665473 -0.209887 -0.18289612 0.39204147
0.33279985 -0.0418698 -0.13593328 0.36769316 0.00035962497 -0.24602906 0.34180498 -0.11955635
-0.31911296 -0.30311248 -0.35793424 0.05996539 -0.18076846 -0.078361146 0.28064767 -0.0048398906
-0.1758198 0.5059419 0.4765857 -0.053556267 -0.3063274 0.30107224 0.044329625 -0.19228184
00000000: b7dd 103d 0add 183e d74e 903c 3e70 d5bd
00000010: e3c5 823e c9c4 453e 5dff 9abe 530a fb3d
00000020: 8d15 35bd 707f adbd 5a24 333d 93fb 0bbd
00000030: c1fc 3e3d 0ba0 3abd 1324 1b3e 7281 853c
00000040: 7d83 933d c04d ad3d f3bd 643e 50c1 fc3d
00000050: ff53 553e 8bd8 ab3c 0676 87bd 1324 e3bd
00000060: bbe8 52be 23ca 46be 924f 333e be83 18be
00000070: b413 35be 59a0 a83c f493 9e3c 89fe efbd
00000080: 971c 033d 1883 923d 3f96 67bd 2df9 063e
00000090: 5ca5 d53c 8031 45bb 4266 aa3d cc6b c73b
000000a0: 1b28 a23c a841 07be 2470 19be 0c6f 903d
000000b0: 6964 e8bc d596 a83d 360d 83be 5d7c 0fbe
000000c0: 5cc5 aabd b1b1 b2bd fac9 63bd 1081 833d
000000d0: b603 1c3d 8196 1c3e e773 653e 4766 c53c
000000e0: 701b babd 6409 29be add7 a2bd f567 4a3d
000000f0: 9daf 85bc fc75 19be cfdb 26be 5a23 2fbb
00000100: d3ec 563d 9446 503d f419 2c3e 5dbf 933e
00000110: 6b15 3c3e dba6 92bd 37e0 b2be 56db 79be
00000120: b0e1 033e b0c4 0dbf df50 dabd 3acf cfbd
00000130: 0349 813e d6aa 203e 4605 de3d e05e 7fbe
00000140: e359 33be d6ad 66bd 00ff d1bd cf7d c7bd
00000150: f4aa c03d 39d0 363e c761 5dbd fdc1 31be
00000160: 9ff8 8cbd 4681 f2bd c4f4 c4bd 388e 8c3d
00000170: 61dd bebd 63fd 8c3d 7e1f 28be 358a 8d3c
00000180: acff 0e3e ef80 c3bc 43e2 bbbd da3c aebd
00000190: eb60 193d 1ee7 183e f49d c53d f38a e4bb
000001a0: 42f8 163c 6d18 1ebe 97eb bebd 9b81 88be
000001b0: 948b 113e e44e 8abd 4a58 c43d 5ad4 8d3d
000001c0: 97fa 34bd b65c 1c3e 60b8 763c c968 6b3e
000001d0: 15b6 bb3d 5f2d ce3d 5068 2bbe 8497 193e
000001e0: 6f15 e2bc e115 243e 70c4 353e 5f67 2d3d
000001f0: e74f f13d b77f 243e 54ac d43d 9761 c8bd
00000200: d988 563d 0eb7 19bd d417 37be 570d 8f3d
00000210: fbba 623d 974e 173e adc2 4cbe 96e3 59bd
00000220: f0a4 c5bd f613 133c 5b79 32be a700 14bd
00000230: 8fa4 2a3d 17f7 033e aa94 b2bd c01d 3bba
00000240: 12b1 e93d cae1 41be 56df f23c 9dce 1ebe
00000250: 8c12 003d 8673 1f3d 98c8 0abf 8b1e 0ebe
00000260: a540 103d bfd1 0b3e 22d1 0fbe 030c 903e
00000270: fd34 f13d cf32 65be 4f32 673e dea1 76be
00000280: 32a0 2fbe f496 343e 92db b8bc d0f8 e9bc
00000290: 86ad 3cbd 70e5 d3bb 0a02 91bd 2314 7b3e
000002a0: 702f dbbc 4243 973d 22f8 2a3e 3e07 be3c
000002b0: f192 ef3d 07e5 16be b87f 423b 2173 ffbc
000002c0: c795 5f3c 0662 07bd 1e29 003e 24c0 343d
000002d0: 23be 0ebe b9ee 46be 44a2 8a3e a0a0 443d
000002e0: 6c1b bebc cc06 ffbc b2dd 00be 1cb0 e93c
000002f0: ba4d 283d 0efc e63d cbe9 19be 3712 553d
00000300: 6955 bdbc 89a0 693e b8dd 93bd 7cd8 bc3c
00000310: e677 0a3e 9ce5 073e 0246 fd3d 71dd 22be
00000320: 5cd0 ed3c 1310 ec3c bf11 bcbd 0a9e 04bd
00000330: 16ae b73d d8ce b0bd 561f f03d d1b0 68bc
00000340: bec7 483d 92d6 4cbe a50f 05bd e03f 59be
00000350: 6929 453d 6c48 90bc bd29 afbc 0fbb 0fbe
00000360: f3f5 26bd 9a23 84bc b8e0 ccbd fc89 4c3d
00000370: f350 0abe fb4f 08be 6ca6 a23e 0c6b e33d
00000380: 507f d53b bfb7 2c3c 0411 6abe f3e7 b13d
00000390: 4c9d 53be 9eec 56be 1f49 3bbe a9b9 c83e
000003a0: be64 aa3e ab7f 2bbd 1832 0bbe 4742 bc3e
000003b0: 0c8c bc39 0bef 7bbe 1001 af3e f6d9 f4bd
000003c0: c662 a3be 8f31 9bbe 2843 b7be 459e 753d
000003d0: 5e1b 39be cf7b a0bd 0db1 8f3e f297 9ebb
000003e0: 1b0a 34be 6985 013f 0a03 f43e d15d 5bbd
000003f0: f2d6 9cbe 2426 9a3e fb92 353d 88e5 44be

model.0.bias f4 [512]
0.03492303 -0.014833328 -0.08256735 -0.032726713 0.039030824 -0.18393104 0.11169938 0.055481907
0.011416078 -0.023172496 -0.003081771 -0.11680067 -0.04494049 0.034394518 0.07448971 -0.10158002
-0.108905815 -0.024463665 0.14226198 0.08087918 -0.071732156 -0.06405216 0.029171994 -0.1049569
-0.11014804 -0.120459735 -0.08956617 -0.062858455 -0.13487457 -0.06336176 0.047901217 -0.053601805
-0.19592504 -0.16177863 -0.00059206196 -0.07974041 -0.13217312 0.1092483 -0.1076757 -0.02976723
-0.11067816 -0.03379326 -0.10787864 0.025918007 0.046594605 0.059268598 0.00049276964 -0.06470971
-0.036622144 -0.1621634 -0.080700345 0.072669245 0.047250718 -0.120037325 -0.022689136 -0.05465644
-0.049742695 0.07233568 0.019846028 0.071591556 0.06330555 -0.018518964 -0.060159706 -0.02489721
-0.108626366 -0.09203528 0.22109507 -0.04215218 -0.13579232 -0.113219775 0.051065266 0.028589483
0.13073955 0.0061838846 0.02344918 -0.12275413 -0.043682795 -0.07477905 -0.07071099 -0.0032745975
0.07573712 -0.078679055 0.034565352 -0.0029714121 -0.043988984 0.01120967 0.038150422 -0.080115825
0.0417958 -0.032448787 0.14950381 0.08193953 0.051939555 0.13267885 -0.09195645 -0.0032468385
0.075947076 0.022045873 -0.031389624 0.051595148 0.068583995 -0.09364897 -0.009498715 -0.02895603
0.06241798 -0.1879014 0.010127392 0.09103557 0.0203042 0.09886329 0.10423504 0.10408151
0.06366162 -0.059886575 0.086481914 0.17901468 -0.051201172 0.056862243 -0.03170001 0.019733377
-0.06540993 0.080432795 -0.06922351 0.077015705 0.07605644 0.019567192 -0.15961951 0.10797997
-0.11368469 0.04185009 -0.15073785 -0.027853083 -0.059945386 0.095051125 0.076186255 -0.1273223
0.031308938 -0.07308843 -0.105115324 0.1018461 0.2907231 -0.004920653 -0.03526685 0.100366585
0.16351666 -0.019483374 0.04636956 -0.052752208 0.114327915 -0.033215526 0.062849954 0.027342722
0.16231547 0.026628142 0.10528101 -0.015936177 0.008065333 -0.046679523 0.0013011121 -0.059398346
0.02438068 -0.012109425 0.1088642 0.0068598352 -0.11208316 0.10272152 -0.013534546 0.037980672
-0.10292851 -0.015613098 -0.06567321 0.11300477 -0.0210253 -0.24840865 0.07856987 -0.08941343
-0.06204602 -0.03151477 0.042835005 0.0536749 0.106649205 -0.04192734 -0.00076486456 -0.08753401
-0.1034972 0.1277609 -0.12521254 -0.094954334 -0.07789692 -0.028927958 0.028398575 0.041081693
-0.050734863 0.055513833 -0.10545931 -0.120738335 0.008243016 -0.15467478 0.03326248 -0.005339354
0.03864769 -0.07359046 0.21705964 0.07459701 -0.10146501 0.01043346 -0.11757628 0.05414296
-0.06456619 0.06352863 -0.0046976786 -0.023647657 0.011550613 0.0319739 -0.07260726 0.06557824
-0.026139718 -0.003234565 0.04927306 0.022062566 -0.11439853 0.13436982 0.05241721 -0.042622402
-0.116282605 -0.10042584 0.034106784 0.14633064 0.03466869 0.032280806 -0.08022388 0.03954919
-0.10844516 0.059609223 0.07412384 0.023541637 -0.03415308 0.11521087 -0.06854311 0.036235765
0.041408412 -0.07792748 0.13287075 -0.115835056 -0.038189426 0.02022402 -0.106601804 -0.05277257
0.09586634 0.071648054 -0.111336306 0.107262604 -0.12631015 0.050606884 0.038767986 0.06938569
00000000: 730b 0f3d 7d07 73bc 1219 a9bd 720c 06bd
00000010: c9de 1f3d 6b58 3cbe a5c2 e43d ff40 633d
00000020: 800a 3b3c 3fd4 bdbc 8af7 49bb 3135 efbd
00000030: 8513 38bd 44e1 0c3d 108e 983d 2f09 d0bd
00000040: 030a dfbd 0668 c8bc 20ad 113e fca3 a53d
00000050: 4fe8 92bd c72d 83bd 1bfa ee3c a5f3 d6bd
00000060: 4c95 e1bd 98b3 f6bd 786e b7bd efbb 80bd
00000070: 8f1c 0abe cfc3 81bd 1134 443d 918d 5bbd
00000080: 93a0 48be 4ca9 25be 9b34 1bba f14e a3bd
00000090: 6458 07be 93bd df3d 1485 dcbd 68da f3bc
000000a0: 3bab e2bd cd6a 0abd 7aef dcbd 0052 d43c
000000b0: fcd9 3e3d a1c3 723d 362d 013a 8686 84bd
000000c0: 1a01 16bd 2a0e 26be 3946 a5bd 9dd3 943d
000000d0: f889 413d 21d6 f5bd 91de b9bc 6edf 5fbd
000000e0: ffbe 4bbd bb24 943d 2394 a23c 989e 923d
000000f0: 57a6 813d 15b5 97bc 066a 76bd 3cf5 cbbc
00000100: 8077 debd fe7c bcbd bf66 623e c4a7 2cbd
00000110: 240d 0bbe c5df e7bd d029 513d 7e34 ea3c
00000120: 97e0 053e 2fa2 ca3b 7f18 c03c 8466 fbbd
00000130: bbec 32bd c225 99bd ecd0 90bd a19a 56bb
00000140: 101c 9b3d 7c22 a1bd 6694 0d3d 06bc 42bb
00000150: cb2d 34bd c4a8 373c 9e43 1c3d c413 a4bd
00000160: 1332 2b3d 05e9 04bd 8717 193e eacf a73d
00000170: 92be 543d f7dc 073e aa53 bcbd e9c8 54bb
00000180: 248a 9b3d 8c99 b43c 6892 00bd 6f55 533d
00000190: c475 8c3d 08cb bfbd 80a0 1bbc 3235 edbc
000001a0: ffa9 7f3d 3969 40be 5ced 253c db70 ba3d
000001b0: fe54 a63c d678 ca3d 2e79 d53d b028 d53d
000001c0: 0661 823d a04b 75bd 6e1d b13d a04f 373e
000001d0: 52b8 51bd 62e8 683d dfd7 01bd e4a7 a13c
000001e0: a4f5 85bd f3b9 a43d 0ec5 8dbd 69ba 9d3d
000001f0: 7bc3 9b3d 604b a03c 4c73 23be 9a24 dd3d
00000200: 85d3 e8bd 006b 2b3d 065b 1abe 262c e4bc
00000210: 4b89 75bd 2aaa c23d 8a07 9c3d c760 02be
00000220: cd3d 003d 63af 95bd b446 d7bd b094 d03d
00000230: a8d9 943e 6e3d a1bb f973 10bd ff8c cd3d
00000240: e970 273e 999b 9fbc 02ee 3d3d b312 58bd
00000250: c124 ea3d 010d 08bd 7ab7 803d d8fd df3c
00000260: 0736 263e 4323 da3c 929d d73d 968c 82bc
00000270: 7524 043c 0733 3fbd 148a aa3a ae4b 73bd
00000280: feb9 c73c 9c66 46bc 32f4 de3d 78c8 e03b
00000290: db8b e5bd a95f d23d 00c0 5dbc 9f91 1b3d
000002a0: 2fcc d2bd 14ce 7fbc ad7f 86bd 0b6f e73d
000002b0: 403d acbc d65e 7ebe 3de9 a03d 631e b7bd
000002c0: f823 7ebd a215 01bd c273 2f3d 36da 5b3d
000002d0: e66a da3d 01bc 2bbd 3181 48ba 0845 b3bd
000002e0: 57f6 d3bd c1d3 023e b737 00be 6b77 c2bd
000002f0: 6c88 9fbd 53fa ecbc 21a4 e83c 4745 283d
00000300: 5ccf 4fbd 7962 633d 0dfb d7bd a945 f7bd
00000310: b70d 073c 1163 1ebe 3d3e 083d bff5 aebb
00000320: 0a4d 1e3d 98b6 96bd e244 5e3e 51c6 983d
00000330: e3cc cfbd 1af1 2a3c d5cb f0bd 02c5 5d3d
00000340: 473b 84bd 4c1b 823d fcee 99bb bbb8 c1bc
00000350: c83e 3d3c 10f7 023d 1db3 94bd e24d 863d
00000360: f622 d6bc fffa 53bb 8cd2 493d 8ebc b43c
00000370: c749 eabd 3e98 093e 6eb3 563d d494 2ebd
00000380: 9325 eebd 10ac cdbd 8eb3 0b3d b3d7 153e
00000390: c200 0e3d e138 043d 6b4c a4bd 55fe 213d
000003a0: 7f18 debd cd28 743d 3dce 973d 64da c03c
000003b0: 1ae4 0bbd adf3 eb3d 5460 8cbd f46b 143d
000003c0: de9b 293d 7198 9fbd 450f 083e ee3a edbd
000003d0: 846c 1cbd d8ac a53c 0c52 dabd 0d28 58bd
000003e0: 9255 c43d 37bc 923d 4a04 e4bd 7fac db3d
000003f0: 7357 01be 2a49 4f3d 2ecb 1e3d 161a 8e3d

model.2.weight f4 [256, 512]
0.07335541 -0.154784 -0.1617836 -0.12846717 0.43974447 0.100220345 -0.12224144 0.15866604
-0.024033466 0.5290962 -0.038926505 -0.07222163 0.36926305 -0.046055317 -0.22551887 -0.2577546
0.10277675 -0.116431065 0.30672133 -0.009497051 -0.0874625 0.3446126 -0.06613339 0.17720826
0.16326086 0.09009477 -0.2841009 -0.12844953 0.8136365 0.20008133 -0.53794277 0.29965344
0.06473328 0.0649827 -0.25455573 -0.18264894 0.12884565 0.260932 -0.11103521 0.08424675
-0.51215035 0.45345902 0.49953726 0.008923136 0.1307704 0.38955432 0.27557474 0.20395185
0.16806129 0.112903066 -0.10379036 -0.12941672 0.22457671 -0.14394072 0.14684036 -0.12830766
-0.0017314804 0.09956897 -0.16356534 0.05162846 -0.19842093 0.11706591 0.046180375 -0.083298
-0.19551836 0.15114586 -0.14556846 0.082792714 0.17255995 -0.14651917 0.19350097 -0.10304576
0.040514942 0.88442636 -0.115554914 0.5480582 0.052188985 -0.10118557 0.014213862 -0.01378221
0.10845087 0.031657077 0.084701024 -0.3113874 0.58111197 -0.11310198 0.27501285 0.08080619
0.48365718 0.035515897 -0.034735188 0.09674048 -0.15153758 0.016463026 0.55371886 -0.039271884
0.015910018 -0.18182604 -0.06226647 0.25297526 -0.12668678 -0.02179354 0.5100547 0.10360479
-0.2459641 -0.7513577 -0.19456306 0.12309756 0.11794803 0.046325784 0.029271595 -0.13847688
-0.19567858 0.13809735 -1.1047777 0.02559706 -0.025703993 -0.0036628416 -0.3755186 -0.034813702
-0.09210965 -0.80842733 -0.06698489 -0.10508206 0.25725108 0.04142914 -0.009525355 0.04737754
0.24400342 -0.16672562 0.34615746 -0.19131507 -0.24670893 -0.18314856 0.08121422 0.06394595
-0.035541017 0.11241602 -0.1222661 -0.005337655 -0.12038703 0.45441037 0.067357816 -0.35432556
0.5161309 0.3060338 0.15510894 0.11466445 -0.07347736 -0.15894379 -0.12992474 0.26539555
0.14136887 -0.30692154 -0.26788986 0.13196987 -0.013396424 0.073287375 -0.22443023 0.15537144
-0.28851 -0.38662887 -0.23829861 -0.16789833 0.01820366 -0.6060221 -0.1250459 0.22026819
0.2834025 -0.007268457 0.2034407 0.06927388 -0.06808218 0.084456235 0.10528997 0.15650508
-0.40603387 0.11204238 -0.27531105 0.12420976 -1.0962838 -0.020462887 0.07539232 -1.0323329
-0.0042456677 -0.006824731 0.24538676 0.015698617 0.19761217 0.0814075 0.4245289 -0.26383832
-0.14371267 0.13881409 -0.22365849 0.14861687 0.014147334 0.12085089 0.5269507 -0.008432518
-0.34377697 0.17455506 0.21247086 -0.1505612 0.395098 0.09103339 -0.19035344 -0.30544809
-0.14907612 0.14032288 -0.07313501 0.056978837 -0.64168 -0.31075996 0.19778831 -0.4171623
-6.5984284e-05 0.18819296 0.13564734 0.3174742 0.15533204 -0.072991125 0.3989071 -0.076167755
0.092029326 0.14935182 0.019035438 -0.34366325 0.014240144 -0.37644723 0.16175139 -0.21756865
-0.04731317 -0.102937885 0.041252136 0.18531664 0.22865134 0.081891924 0.16465402 -0.34953701
0.35441962 0.043667223 0.12671567 0.042016085 0.2894074 0.17941011 0.4169707 0.5161867
0.08898605 0.03796408 0.03371998 -0.007810527 -1.0114899 0.041184995 -0.06784953 0.073699415
00000000: 5c3b 963d b27f 1ebe 9aaa 25be e68c 03be
00000010: 3026 e13e 5340 cd3d b859 fabd 5a79 223e
00000020: d5e1 c4bc d972 073f 6671 1fbd efe8 93bd
00000030: 0c10 bd3e 80a4 3cbd 6bee 66be 69f8 83be
00000040: 9e7c d23d 6973 eebd 940a 9d3e 8599 1bbc
00000050: 8a1f b3bd 1071 b03e f170 87bd 1576 353e
00000060: db2d 273e 9b83 b83d ac75 91be 4688 03be
00000070: 7b4a 503f 1fe2 4c3e 9eb6 09bf 2d6c 993e
00000080: e292 843d a615 853d 2155 82be 5308 3bbe
00000090: 1df0 033e e198 853e 6e66 e3bd 8f89 ac3d
000000a0: 491c 03bf c82b e83e 59c3 ff3e 5832 123c
000000b0: ade8 053e aa73 c73e 2218 8d3e c1d8 503e
000000c0: 4218 2c3e b939 e73d 0a90 d4bd d185 04be
000000d0: 70f7 653e 3265 13be 525d 163e 1563 03be
000000e0: d7f2 e2ba d1ea cb3d ac7d 27be 5d78 533d
000000f0: db2e 4bbe 40c0 ef3d a227 3d3d 2498 aabd
00000100: f735 48be fbc5 1a3e e60f 15be 3a8f a93d
00000110: 8eb3 303e 1f09 16be 1e25 463e a809 d3bd
00000120: fff2 253d c469 623f 0ea8 ecbd 8b4d 0c3f
00000130: 1ec4 553d 613a cfbd 42e1 683c c7ce 61bc
00000140: 7d1b de3d daaa 013d bb77 ad3d 2b6e 9fbe
00000150: c1c3 143f 03a2 e7bd 7cce 8c3e b77d a53d
00000160: eaa1 f73e 1e79 113d 7c46 0ebd df1f c63d
00000170: ab2c 1bbe 78dd 863c 85c0 0d3f 8edb 20bd
00000180: ba55 823c 9b30 3abe 200b 7fbd f985 813e
00000190: 2eba 01be 5e88 b2bc f292 023f c02e d43d
000001a0: 03de 7bbe fa58 40bf 8a3b 47be 931a fc3d
000001b0: bd8e f13d 1bc0 3d3d fcca ef3c e2cc 0dbe
000001c0: f75f 48be 6469 0d3e 5b69 8dbf edb0 d13c
000001d0: 2e91 d2bc 490c 70bb f943 c0be d098 0ebd
000001e0: fca3 bcbd 18f5 4ebf 602f 89bd 4335 d7bd
000001f0: 6ab6 833e 9ab1 293d 3c10 1cbc f40e 423d
00000200: 08dc 793e 1fba 2abe 8d3b b13e 19e8 43be
00000210: 44a1 7cbe 4c8b 3bbe a453 a63d 18f6 823d
00000220: 7593 11bd 5f3a e63d a666 fabd 7fe7 aebb
00000230: 7a8d f6bd 7aa8 e83e e5f2 893d 296a b5be
00000240: 2821 043f 76b0 9c3e e1d4 1e3e 32d5 ea3d
00000250: 4c7b 96bd 29c2 22be fe0a 05be ede1 873e
00000260: 00c3 103e d224 9dbe dc28 89be 1c23 073e
00000270: ad7c 5bbc b117 963d 0ad1 65be b119 1f3e
00000280: 95b7 93be 38f4 c5be 8d04 74be 8aed 2bbe
00000290: d81f 953c 4424 1bbf 080c 00be fc8d 613e
000002a0: 221a 913e 3d2c eebb c252 503e 77df 8d3d
000002b0: ac6e 8bbd 64f7 ac3d 45a2 d73d de42 203e
000002c0: ace3 cfbe 7a76 e53d 92f5 8cbe b061 fe3d
000002d0: 0753 8cbf c9a1 a7bc 4a67 9a3d 7c23 84bf
000002e0: 3e1f 8bbb fea1 dfbb ab46 7b3e 639a 803c
000002f0: d85a 4a3e fab8 a63d da5b d93e d115 87be
00000300: 6a29 13be 4825 0e3e bb06 65be 052f 183e
00000310: 38ca 673c ac80 f73d 3ee6 063f 8b28 0abc
00000320: 8903 b0be 90be 323e f691 593e b72c 1abe
00000330: 494a ca3e b76f ba3d 03ec 42be b163 9cbe
00000340: 69a7 18be cdb0 0f3e cfc7 95bd a462 693d
00000350: 2445 24bf ee1b 9fbe 0589 4a3e 4c96 d5be
00000360: 0b61 8ab8 a8b5 403e 23e7 0a3e fa8b a23e
00000370: 5d0f 1f3e 5f7c 95bd 8d3d cc3e d7fd 9bbd
00000380: df79 bc3d afef 183e 35f0 9b3c a1f4 afbe
00000390: 7e4f 693c b1bd c0be 28a2 253e 51ca 5ebe
000003a0: 74cb 41bd 19d1 d2bd 00f8 283d a5c3 3d3e
000003b0: 9423 6a3e f4b6 a73d 109b 283e 84f6 b2be
000003c0: 7d76 b53e 67dc 323d c1c1 013e 0f19 2c3d
000003d0: 352d 943e 49b7 373e 2f7d d53e d024 043f
000003e0: 513e b63d 3980 1b3d f61d 0a3d 73ef ffbb
000003f0: 8078 81bf 99b1 283d b2f4 8abd b8ef 963d

model.2.bias f4 [256]
0.0760997 -0.021586804 0.06386644 0.020633979 0.021981867 -0.0362749 -0.03131687 0.02986027
0.048385136 0.121478 0.0028883365 0.085404396 -0.0006497618 0.06980263 0.056692276 0.06020856
0.08540534 0.002717734 0.047326833 0.048923526 0.04983963 0.050791435 -0.050743546 -0.012845271
-0.050819017 0.020295957 0.032093283 -0.06497721 0.09701285 0.03103196 0.048594996 0.04591733
-0.0034152807 0.026551832 0.05345626 7.126749e-05 -0.033849474 -0.033129882 -0.004453942 0.012946221
0.05810751 -0.02198517 0.056262437 0.010894714 0.07273178 0.042308867 -0.010119984 0.035732146
-0.105675906 0.06477476 -0.06654151 0.04461 0.038752638 0.03144354 -0.06008098 0.01654235
0.03526144 -0.102417134 0.06282407 0.0012679524 0.004484372 0.012381922 -0.009095264 -0.0059506088
-0.02767685 -0.0636351 0.008330196 -0.0004732516 -0.020566734 0.004685434 0.006847915 0.004270709
0.0092100045 0.07890055 -0.013747363 -0.030796096 0.008713917 -0.02662316 -0.03490754 0.047510296
0.0025452394 -0.0049283174 -0.05346398 0.012274073 -0.04208297 0.07388214 0.014951247 -0.024228353
-0.010517432 0.10843493 -0.02659165 -0.05146021 -0.0139303375 0.0059056175 -0.020252261 0.052076165
0.031541247 0.066411905 0.034772705 0.04963751 -0.04511643 0.10346848 0.06344549 -0.004568677
-0.041108146 -0.080634356 0.0049728877 -0.007900921 0.040539626 -0.14083219 -0.04456495 0.011023348
-0.0111738695 -0.011412549 -0.005259403 0.03535301 0.036446955 0.08243638 0.056937464 0.017091464
-0.04526176 0.026707893 0.013493285 -0.041146353 -0.00070040283 0.018201444 0.0032928023 0.06551392
-0.005496015 0.028194059 0.037298422 0.017464682 0.04189132 0.029328046 0.045998905 -0.022241676
0.05783843 0.017228203 0.041524485 -0.005043078 -0.012994795 0.07600113 0.061338212 -0.008338824
0.023193078 0.026721252 -0.07837229 0.058851182 0.04432341 -0.0034366532 -0.0031205069 -0.018782206
0.066850424 -0.005494863 -0.019252539 0.0040097972 0.05715227 -0.12191181 -0.02979919 0.108696826
0.046807274 -0.00024604963 -0.032076478 0.013280364 -0.03409436 0.008632715 0.023717066 -0.010791408
0.046846267 0.015545486 0.005274716 -0.03888524 -0.011452549 0.06717027 -0.11431555 0.038326357
0.016760467 0.07128382 -0.035285246 0.08575683 0.045761976 -0.024234474 -0.014279699 -0.018623007
-0.023052745 0.046997324 -0.03912109 -0.013424227 0.05426294 -0.02000457 0.017260302 0.0068807118
-0.011604437 0.053058315 -0.023094928 0.03319787 -0.1344731 0.015898986 0.01512558 0.058121856
0.003956074 0.016424859 0.016897341 0.025584389 0.044491082 0.02769095 -0.0071797045 0.057524744
-0.03797531 -0.041534424 -0.04366565 0.037579753 0.034071714 0.08006565 0.035523742 0.019491538
0.0653225 -0.008757531 0.043540746 -0.027657816 -0.095374025 -0.035218276 0.06373108 0.018115489
-0.006910457 -0.0029263243 -0.074666604 5.5193734e-05 0.0053513357 -0.027698757 -0.004708728 0.048581827
-0.065589026 0.05116136 0.009655634 0.035391547 -0.04532036 0.006485867 0.04544214 0.011022424
0.06664231 0.02942258 0.027516818 0.045088936 0.034598187 0.066363044 0.016025415 -0.03581078
-0.008351813 -0.05109869 0.03957972 0.010731877 -0.034684636 -0.0824831 0.11723821 0.009994892
00000000: 29da 9b3d cfd6 b0bc 68cc 823d 9708 a93c
00000010: 5113 b43c fd94 14bd 1e46 00bd 869d f43c
00000020: 7e2f 463d 75c9 f83d 3f4a 3d3b 80e8 ae3d
00000030: c754 2aba aef4 8e3d 2936 683d 409d 763d
00000040: ffe8 ae3d 031c 323b c8d9 413d 0964 483d
00000050: a424 4c3d ae0a 503d 77d8 4fbd f974 52bc
00000060: 9a27 50bd b543 a63c 3f74 033d c512 85bd
00000070: acae c63d bd36 fe3c 8c0b 473d cf13 3c3d
00000080: e7d2 5fbb 3a83 d93c f4f4 5a3d 7175 9538
00000090: bfa5 0abd 33b3 07bd 60f2 91bb 631c 543c
000000a0: 2402 6e3d 3e1a b4bc 7173 663d be7f 323c
000000b0: 66f4 943d 104c 2d3d 4ace 25bc df5b 123d
000000c0: 9c6c d8bd a1a8 843d ea46 88bd fab8 363d
000000d0: 16bb 1e3d f1ca 003d 7917 76bd d383 873c
000000e0: 4d6e 103d 13c0 d1bd e8a9 803d 6c31 a63a
000000f0: a4f1 923b 8cdd 4a3c 4d04 15bc 53fd c2bb
00000100: 90ba e2bc 1f53 82bd 607b 083c c11e f8b9
00000110: 917b a8bc 4588 993b 7964 e03b 4ef1 8b3b
00000120: 8fe5 163c 9d96 a13d 9f3c 61bc 1848 fcbc
00000130: d1c4 0e3c d018 dabc 35fb 0ebd 289a 423d
00000140: 08ce 263b b97d a1bb 0cfd 5abd 3219 493c
00000150: 315f 2cbd 854f 973d 13f6 743c 8a7a c6bc
00000160: 4f51 2cbc 2213 de3d bbd6 d9bc f1c7 52bd
00000170: 123c 64bc e983 c13b 12e8 a5bc d14d 553d
00000180: 6531 013d f702 883d d36d 0e3d b450 4b3d
00000190: 01cc 38bd 48e7 d33d b6ef 813d d7b4 95bb
000001a0: 0461 28bd a023 a5bd 9bf3 a23b dd72 01bc
000001b0: e10c 263d 5036 10be bd89 36bd 469b 343c
000001c0: 9b12 37bc b3fb 3abc 1257 acbb 51ce 103d
000001d0: 6749 153d 68d4 a83d 4237 693d 6603 8c3c
000001e0: 6564 39bd 83ca da3c f012 5d3c 1489 28bd
000001f0: 3d9b 37ba 321b 953c 0ecc 573b 292c 863d
00000200: ea17 b4bb 3af7 e63c 3bc6 183d 1812 8f3c
00000210: 3c96 2b3d 5f41 f03c 5969 3c3d 2d34 b6bc
00000220: fde7 6c3d 2922 8d3c 9415 2a3d 6840 a5bb
00000230: 1fe8 54bc 7ba6 9b3d c73d 7b3d 909f 08bc
00000240: 69ff bd3c 87e6 da3c a781 a0bd f00d 713d
00000250: 778c 353d 7939 61bb 6b81 4cbb 24dd 99bc
00000260: e0e8 883d 400e b4bb 80b7 9dbc 9e64 833b
00000270: 8018 6a3d e6ac f9bd 6e1d f4bc 719c de3d
00000280: fcb8 3f3d 3900 81b9 a062 03bd e295 593c
00000290: 87a6 0bbd 3b70 0d3c 4b4a c23c 72ce 30bc
000002a0: dfe1 3f3d 7eb2 7e3c 86d7 ac3b 2146 1fbd
000002b0: 79a3 3bbc 9190 893d 451e eabd 19fc 1c3d
000002c0: 3f4d 893c 40fd 913d 4387 10bd 47a1 af3d
000002d0: e970 3b3d 6087 c6bc 66f5 69bc 478f 98bc
000002e0: 1cd9 bcbc 4480 403d 703d 20bd 4af1 5bbc
000002f0: d142 5e3d a0e0 a3bc 7a65 8d3c 9877 e13b
00000300: 8920 3ebc ad53 593d 9331 bdbc 7dfa 073d
00000310: 51b3 09be 973e 823c 48d1 773c 2f11 6e3d
00000320: f4a1 813b 6d8d 863c 4b6c 8a3c 5a96 d13c
00000330: 483c 363d 22d8 e23c ba43 ebbb 119f 6b3d
00000340: 008c 1bbd 0020 2abd c1da 32bd 3aed 193d
00000350: c88e 0b3d 76f9 a33d 5881 113d b8ac 9f3c
00000360: cec7 853d bf7b 0fbc c857 323d a592 e2bc
00000370: 7553 c3bd 0a41 10bd 7185 823d ef66 943c
00000380: 1d71 e2bb 93c7 3fbb ceea 98bd d27f 6738
00000390: 425a af3b 81e8 e2bc ac4b 9abb bdfd 463d
000003a0: 8a53 86bd 938e 513d aa32 1e3c baf6 103d
000003b0: d8a1 39bd 6587 d43b 8a21 3a3d 6697 343c
000003c0: c37b 883d 9f07 f13c f36a e13c 2daf 383d
000003d0: d4b6 0d3d 59e9 873d bb47 833c 53ae 12bd
000003e0: 0bd6 08bc dc4c 51bd 581e 223d c1d4 2f3c
000003f0: 7a11 0ebd e6ec a8bd 961a f03d 9ec1 233c

model.4.weight f4 [3, 256]
-0.859939 0.16485512 0.12893212 -1.0015017 0.15000942 0.16922508 3.727963 0.6928573
0.042674646 0.0425831 0.30330482 0.3152808 4.1127234 0.34631267 0.15132469 -1.8997004
-0.05530119 0.48125082 -1.7067033 -0.0019665062 0.027206676 0.628414 0.2408837 0.12862614
0.45896804 -1.1627786 -0.45845705 4.2873225 -0.4506327 0.17672051 -1.0305352 -0.03938138
1.4289589 0.2584545 -0.0087485695 -0.31888303 0.64700866 -1.3355725 -1.913001 0.16047229
0.26251727 3.6751087 -0.51870847 -0.72701305 -0.4851493 -1.8010553 -4.7821484 -0.0014293338
0.44037423 0.15541515 0.44786566 -0.8425955 0.2934003 0.10223265 -0.5238634 0.13121481
0.4488079 0.6059766 -2.619736 1.8501277 0.121679164 -0.10159675 0.3062833 1.3876297
-0.75616217 5.7007394 0.098280534 -3.3411074 0.6514371 2.4592128 -0.47101453 -3.8577325
-1.0120025 -1.9395602 0.67267627 0.17468108 -0.09968438 -0.51959604 -1.5781878 1.6003808
4.322718 2.9231882 2.0121987 0.95345694 -0.53347546 1.4332867 1.1832533 0.76799965
2.117478 -0.012733493 0.122723065 -1.5434704 -1.0005611 -0.38552767 -2.0711143 -0.25744247
-0.32570273 -0.24338982 0.010788898 -4.5592732 -0.61717296 0.06290724 -0.7685557 0.299854
5.4330544 0.12535323 -4.8916974 -0.70538044 0.27892023 0.55642563 0.7195046 0.013926302
0.7816481 -0.07372828 3.0792286 0.2319801 0.2050989 -0.28478128 0.13170345 -2.6361496
1.7925715 0.32404393 0.51125926 0.60582334 -1.5055561 -1.4211272 -0.042623837 -0.48277938
0.49912372 0.30686554 0.59045154 -1.3437624 0.9905901 0.7057487 -0.1845002 1.0806319
-0.24952996 1.804121 0.43136886 0.6464498 -0.962254 -0.79865754 -0.003398239 0.660539
-1.5817797 0.1375043 1.9902384 0.19341703 0.074680015 1.2281672 -0.4107039 0.44205382
0.6483651 0.7298266 -1.2445264 1.4443269 0.5583334 0.6626625 -1.3597162 -0.05740308
0.021428784 0.39286244 -1.61475 3.5368996 0.6700557 0.08301795 -0.058381133 4.0317073
0.61967766 0.19471548 3.1213322 1.4903333 -0.29249683 0.2641773 0.65816146 0.27523512
0.4808498 0.3699975 2.0505345 -0.008356105 -4.4414964 0.55860484 -1.056137 0.6128246
0.17640397 -2.0605488 4.334 -1.6921259 -0.4481354 -0.07505309 -0.02139347 1.8959123
0.009705775 0.5811492 2.0726435 -1.0939953 0.4994383 3.868024 0.38597426 -0.5791548
0.9233613 0.53206277 0.20393759 -0.033914696 -0.5296101 -0.78603476 0.44078436 -0.95272183
5.1480594 1.2579 -0.3316787 -0.116920285 0.45239902 0.3644203 0.3763053 0.56230277
0.5948648 -2.0565345 -0.6250257 0.51136297 -1.6740811 0.13473608 -0.8493362 0.46077996
1.7658074 0.29100838 2.9717255 0.0056048674 0.3974649 -0.48372462 0.045494538 -1.6795287
-1.5368268 1.3791549 1.3471211 -0.23763278 0.9088242 0.36178792 -1.7123011 0.668129
-0.6048528 -0.1638511 0.26066014 0.9181321 -0.36333045 -4.4156976 -3.2946897 0.37885392
0.89972687 0.8923673 0.8063078 -0.841561 2.991603 0.045910604 -0.7938198 2.301315
00000000: f624 5cbf c8cf 283e c806 043e 3531 80bf
00000010: 129c 193e 5749 2d3e f296 6e40 195f 313f
00000020: 9ccb 2e3d 9e6b 2e3d c54a 9b3e 7c6c a13e
00000030: 6e9b 8340 e54f b13e dcf4 1a3e 6229 f3bf
00000040: 8083 62bd 8266 f63e 4175 dabf 80e0 00bb
00000050: 89e0 de3c bddf 203f 37aa 763e 92b6 033e
00000060: dcfd ea3e eed5 94bf e2ba eabe bf31 8940
00000070: 54b9 e6be 39f6 343e 94e8 83bf 5f4e 21bd
00000080: 20e8 b63f 2654 843e 2956 0fbc a344 a3be
00000090: 5ca2 253f 0af4 aabf 37dd f4bf d952 243e
000000a0: aa68 863e fb34 6b40 14ca 04bf 871d 3abf
000000b0: 7d65 f8be fb88 e6bf 5c07 99c0 7c58 bbba
000000c0: bb78 e13e 2625 1f3e a64e e53e 57b4 57bf
000000d0: 9038 963e 5a5f d13d e91b 06bf 2d5d 063e
000000e0: 26ca e53e 4821 1b3f c1a9 27c0 fcd0 ec3f
000000f0: ed32 f93d f511 d0bd 2ad1 9c3e da9d b13f
00000100: d893 41bf 756c b640 4e47 c93d b4d4 55c0
00000110: 95c4 263f be63 1d40 d128 f1be 17e5 76c0
00000120: 4c89 81bf 8243 f8bf 8334 2c3f 99df 323e
00000130: 5327 ccbd 3f04 05bf 0f02 cabf 47d9 cc3f
00000140: b553 8a40 8415 3b40 ddc7 0040 c115 743f
00000150: d991 08bf f075 b73f d874 973f a09b 443f
00000160: c284 0740 24a0 50bc 3b56 fb3d 7090 c5bf
00000170: 6312 80bf e263 c5be 238d 04c0 80cf 83be
00000180: 82c2 a6be 2e3b 79be ebc3 303c 91e5 91c0
00000190: 0cff 1dbf 83d5 803d 11c0 44bf 7786 993e
000001a0: 95db ad40 995c 003e c988 9cc0 d093 34bf
000001b0: a2ce 8e3e e971 0e3f 7431 383f 252b 643c
000001c0: 171a 483f dafe 96bd 1512 4540 318c 6d3e
000001d0: 7205 523e dace 91be 45dd 063e adb6 28c0
000001e0: fc72 e53f 16e9 a53e e3e1 023f 3d17 1b3f
000001f0: 10b6 c0bf 7fe7 b5bf 5596 2ebd dc2e f7be
00000200: 258d ff3e 7b1d 9d3e d527 173f 6800 acbf
00000210: 5097 7d3f f2ab 343f 9fed 3cbe 2552 8a3f
00000220: c884 7fbe 70ed e63f 61dc dc3e bc7d 253f
00000230: 4756 76bf d274 4cbf fdb4 5ebb 1519 293f
00000240: c277 cabf edcd 0c3e 22c0 fe3f 1d0f 463e
00000250: d6f1 983d 9534 9d3f c847 d2be e154 e23e
00000260: 41fb 253f ebd5 3a3f a44c 9fbf b4df b83f
00000270: f0ee 0e3f 40a4 293f 2e0b aebf 7e1f 6bbd
00000280: 6b8b af3c 4425 c93e 21b0 cebf 905c 6240
00000290: c588 2b3f 5105 aa3d 0e21 6fbd bf03 8140
000002a0: 32a3 1e3f 7f63 473e e8c3 4740 3ec3 be3f
000002b0: 25c2 95be 3f42 873e 457d 283f 9eeb 8c3e
000002c0: f231 f63e 5070 bd3e f53b 0340 0be8 08bc
000002d0: bd20 8ec0 ba00 0f3f 7f2f 87bf 13e2 1c3f
000002e0: 3ea3 343e 08e0 03c0 21b0 8a40 9597 d8bf
000002f0: 0172 e5be 6fb5 99bd 5c41 afbc 41ad f23f
00000300: f904 1f3c 32c6 143f 31a6 0440 0a08 8cbf
00000310: 60b6 ff3e b58d 7740 6b9e c53e 7d43 14bf
00000320: 6861 6c3f 4435 083f 04d5 503e 23ea 0abd
00000330: 8794 07bf 9339 49bf 7dae e13e 94e5 73bf
00000340: e7bc a440 de02 a13f cad1 a9be e773 efbd
00000350: d8a0 e73e 4c95 ba3e 17ab c03e 13f3 0f3f
00000360: 0f49 183f 439e 03c0 af01 20bf afe8 023f
00000370: 4a48 d6bf 41f8 093e 196e 59bf 5aeb eb3e
00000380: fa05 e23f 0dff 943e c030 3e40 09a9 b73b
00000390: 8580 cb3e c1aa f7be 7b58 3a3d ccfa d6bf
000003a0: beb6 c4bf 2688 b03f 776e ac3f 0256 73be
000003b0: b4a8 683f 443c b93e af2c dbbf 810a 2b3f
000003c0: a2d7 1abf 95c8 27be 3f75 853e b50a 6b3f
000003d0: 7306 babe 654d 8dc0 32dc 52c0 24f9 c13e
000003e0: 8054 663f 2f72 643f 306a 4e3f 8b70 57bf
000003f0: 6c76 3f40 c20c 3c3d c637 4bbf bf48 1340

model.4.bias f4 [3]
-0.07595183 0.010138478 -0.059988398
00000000: a28c 9bbd dc1b 263c 65b6 75bd
