models/three_layers/testthreeLayerModel_ee_corrCut_0.8.pt (torch, 701100 bytes, 18 tensors)

model.0.weight f4 [512, 74]
000000 af 2c e1 bd d5 93 80 bd d8 99 e1 3c 6b 5e 5e 3c
       -0.10994851 -0.06278197 0.027539179 0.013572316
000010 87 bc 33 bd 00 f5 a3 3d dd 4b 86 bd 4d aa f5 3d
       -0.043880966 0.080057144 -0.065574385 0.11995373
000020 6f b4 d5 3d ce bc 08 3d 55 c0 0a bd 25 58 cf bb
       0.104348056 0.033383183 -0.03387483 -0.0063276463
000030 71 0e 8e 3d 7b 21 96 bc d4 40 f5 b9 6e 9e c5 bd
       0.06936348 -0.018326512 -0.00046778342 -0.09649359
000040 d7 42 3a bd 48 f0 13 3d 36 58 ff bc 15 3d 42 3b
       -0.0454739 0.036117822 -0.031169992 0.0029638459
000050 86 71 88 bc d6 7c a8 3d e1 dc 20 bd cb 03 b6 bd
       -0.016655695 0.082269356 -0.039273147 -0.08887442
000060 a2 bc 70 bd 9f 14 53 bc 92 aa 3e 3c 10 e2 b0 3d
       -0.058773644 -0.012883334 0.011637347 0.08636868
000070 1e a2 b2 bd a5 e3 ee bc 34 1b a1 3c 8a d9 92 bd
       -0.08722328 -0.029161284 0.019666292 -0.071703985
000080 c9 f7 e0 bd 2a e1 b3 3d 47 85 0b 3d 71 48 74 3b
       -0.10984761 0.08783181 0.03406265 0.0037274624
000090 bb 69 df 3d b3 82 9a bd 07 d0 d4 3d 36 0a 21 bd
       0.10908838 -0.0754446 0.103912406 -0.03931638
0000a0 6c a2 b3 3d a6 20 52 bd bf f8 d6 3d 5e 49 18 bd
       0.08771214 -0.051300667 0.10496663 -0.037179343
0000b0 71 05 02 3d d3 2a c3 bd 07 25 92 bd 92 e5 55 bc
       0.03174347 -0.095296524 -0.07135969 -0.013055222
0000c0 5a 25 45 bc 87 28 b1 3d 82 55 a5 3c c2 3a 76 bd
       -0.012032831 0.08650308 0.020182375 -0.06011463
0000d0 f4 a4 e0 bd a4 d1 77 3d 2a 24 aa ba 60 64 61 3d
       -0.10968962 0.060502663 -0.0012980748 0.055027366
0000e0 dd f9 a1 bd cc c6 f8 3d 9b e3 bc 3d 4f bf 1e bd
       -0.07908986 0.121472925 0.092231 -0.038756665
0000f0 65 a7 d1 3d 6c f9 96 bd fa a2 a0 3d ad fb c2 3d
       0.10237006 -0.07371792 0.07843585 0.095206596
000100 02 08 00 3d d1 57 e2 3d e0 17 bd 3c 9a 1a 97 bc
       0.031257637 0.11051906 0.023082674 -0.018445302
000110 84 99 bb 3d 9b 0a 97 3d a5 38 8a 3d b9 9d 9c 3d
       0.0916014 0.0737507 0.06749085 0.07647271
000120 67 b6 9c bd b8 cb e5 3d 4a 24 ff bd e7 15 6c 3d
       -0.07651978 0.11220497 -0.124580935 0.057638075
000130 9e 53 47 bd 81 9d a5 3c ca b1 52 3d 3a d2 05 3c
       -0.048663728 0.020216705 0.051439084 0.008167798
000140 99 fd 96 3c c8 c7 a1 bd 5c 76 d6 3d 19 d3 8b 3d
       0.018431472 -0.078994334 0.10471794 0.06827373
000150 42 29 8b bd 43 3b a4 bd 92 8b a5 bd 0d aa c6 bd
       -0.06794979 -0.08019116 -0.080832615 -0.09700403
000160 f5 50 24 bd 34 e1 b0 bd 02 6f 11 bd 7c ca 2a bc
       -0.04011627 -0.08636704 -0.035506256 -0.010424253
000170 5f 13 e7 3d 18 96 69 bd 12 61 d5 3c b1 fd 91 bc
       0.112829916 -0.057027906 0.026047263 -0.017821165
000180 4b 0d 11 bd af 1d ce bd 3c 41 4a 3d 46 39 ea bd
       -0.035413068 -0.100642554 0.04937862 -0.11436705
000190 18 d4 ba bb b1 99 be bc 33 99 8f 3d 12 cd a7 bb
       -0.005701553 -0.023266645 0.07011642 -0.005120882
0001a0 a2 82 7a bd 13 2a 8b 3d f2 9f 24 3d e7 1f 59 bd
       -0.061159737 0.067951344 0.0401916 -0.05300894
0001b0 43 bf a2 3c 1e 6e 98 bd f7 66 aa 3d 3b 38 b5 bd
       0.019866591 -0.07442878 0.0832042 -0.08848616
0001c0 55 42 a8 3d 1c f6 94 bd 03 b1 62 3d 17 32 cf 3c
       0.08215777 -0.07273504 0.055344593 0.02529244
0001d0 7c 48 a1 bd 23 89 d0 bd 97 0f 8e 3d 02 73 d5 bd
       -0.078751534 -0.10182407 0.06936567 -0.104223266
0001e0 92 ee ef 3d 2d f8 96 3d cc 1d 18 bb ac c1 4f bd
       0.117154256 0.073715545 -0.002321112 -0.05072181
0001f0 c2 9f e7 bd 3f d0 34 3d d7 52 b7 3d 5a 43 b7 bc
       -0.11309768 0.04414391 0.08951347 -0.022370983
000200 b6 c7 67 3d 02 1b a1 3d a0 81 8f 3d 11 96 b1 3d
       0.056586944 0.078664795 0.07007146 0.08671201
000210 97 3c c4 bc 0a 84 10 bd 85 dc c7 bd 78 4a 00 bc
       -0.023954673 -0.035282172 -0.09758858 -0.007830255
000220 d1 36 a6 3d 05 90 ce 3d 10 c6 f4 3b 39 b6 98 bd
       0.08115924 0.10086063 0.0074699 -0.07456631
000230 93 e6 5e bd 9a 13 c5 bc d9 91 d5 3c 3b c3 37 3d
       -0.05441911 -0.024057198 0.026070522 0.04486392
000240 90 51 c2 3d 07 93 5e 3d 52 a5 ce 3d 2e 72 4c bd
       0.09488213 0.054339435 0.10090126 -0.049913578
000250 90 c4 93 bd 55 93 ac bd 3f 6a fa bc 36 c1 d6 3d
       -0.07215226 -0.08426539 -0.03056824 0.10486071
000260 b8 26 c4 3d cb 15 dc bc 7a 68 81 bd 5b ca 8e 3c
       0.095776975 -0.02686586 -0.063187554 0.017430475
000270 f6 5f 3c bd 5f ec 66 3d d0 be df 3c 58 08 00 3a
       -0.045989953 0.056377765 0.027312666 0.0004884056
000280 61 b2 9c 3c 9e cb d2 bd ad 1f 07 bd ca a0 d8 3d
       0.019128026 -0.10292743 -0.032989193 0.10577543
000290 1b 2e c2 bd ef 73 b7 bd 16 0e 70 3d e4 96 e6 3c
       -0.0948145 -0.089576595 0.058607183 0.028148122
0002a0 76 67 49 3d 2e 44 41 3d 53 be dc bd ed a1 3f bd
       0.049170934 0.04718416 -0.10778489 -0.046785284
0002b0 85 7d 86 bd bb 03 31 bd 21 46 96 3d 9e ec 58 3d
       -0.0656691 -0.04321645 0.07337595 0.05296003
0002c0 dd 67 99 3d 5f 28 f3 bc d4 05 d9 3d 21 c0 87 3d
       0.074905135 -0.029682336 0.10596815 0.066284426
0002d0 8b 67 5d bc b2 bf dc bd ec e1 5f 3c bd cc fa 3b
       -0.013513456 -0.107787505 0.013664704 0.0076538012
0002e0 6d 79 00 be 0d aa b0 bd 7a 4f a2 bd 13 74 d4 bc
       -0.1254632 -0.086261846 -0.07925315 -0.025934255
0002f0 98 d8 a8 bd 3c 20 18 3d 6e da e8 bc e6 2e 87 3c
       -0.08244437 0.037140116 -0.028424468 0.016501855
000300 d1 cd df bd ee 94 ce bd dd 59 84 bc 41 d7 c6 bd
       -0.10927928 -0.10087 -0.016156131 -0.09709025
000310 c5 c0 3b 3d 57 cf b5 3d 45 91 1f 3d 10 73 ee bd
       0.045838136 0.088774376 0.0389569 -0.1164304
000320 9e 08 d0 bd dd af 3b bc 42 8e fa 3b d9 f4 6c bd
       -0.101578936 -0.011455503 0.007646353 -0.057850692
000330 a2 d8 d2 3d a9 96 3c 3d aa 02 1a bc 1a 5b ce bb
       0.10295226 0.04604212 -0.009400049 -0.0062974812
000340 3c 5b ea bb 02 e7 89 bc 83 bf 5d 3c c0 84 d2 bd
       -0.0071519893 -0.016833786 0.0135344295 -0.10279226
000350 3a 29 c9 bd c2 ba 9f ba bd 4e f0 3c 5a 99 0d bd
       -0.098223165 -0.0012186395 0.02933442 -0.034570076
000360 b8 72 81 3d 30 2e da 3d cb ef e4 3c 0c 55 b5 3d
       0.06320709 0.10653341 0.027946373 0.08854112
000370 d5 7b 3e bc 73 f2 95 3d b6 60 ca bc dd dd b5 3d
       -0.011626204 0.07321634 -0.024704318 0.08880208
000380 dd 1d 12 bd 71 7a c9 bd 37 2f fb bc d3 dc fa bc
       -0.03567301 -0.09837807 -0.030662162 -0.030622875
000390 ff 68 61 3d d6 db 4a 3d 8b 55 b1 3d 42 68 9e bc
       0.055031773 0.04952606 0.08658894 -0.019336823
0003a0 f8 e1 be 3d 68 22 c8 bd 43 11 ab bd 9c 64 ac 3d
       0.09320444 -0.097721875 -0.08352902 0.08417627
0003b0 e2 6c 84 3d 63 77 1a 3d 99 0f b0 3d 29 da bd 3d
       0.0646608 0.037711512 0.08596725 0.092701264
0003c0 28 9e 29 3d 3c 63 45 bd 6f d3 c6 3c 12 ea a5 3d
       0.041410595 -0.04819034 0.024270741 0.08101286
0003d0 0d 26 de bc bc 68 ae bc 9b f5 8c 3b 4f 38 36 3d
       -0.027117753 -0.021290176 0.0043017394 0.044487294
0003e0 8c 2d 80 3d d2 73 8a bd 1d f6 e7 3d 77 88 c7 3d
       0.062586874 -0.06760372 0.11326239 0.097428255
0003f0 70 af 86 3d b3 c1 82 3d 26 58 31 3d dc 6e 95 3d
       0.06576431 0.063846014 0.043296956 0.072965354

model.0.bias f4 [512]
000000 18 ca f4 3d aa dd ad 3d bd 02 c7 3d b2 da e9 bd
       0.11952609 0.08489545 0.09717319 -0.11418666
000010 02 9e 3a bc 48 4a a7 bd 1a eb b7 3a b3 6b b0 3d
       -0.011390211 -0.08168465 0.0014031858 0.08614292
000020 06 83 d2 bd 55 a7 36 3d 95 c4 e3 bd df 94 c2 3d
       -0.10278897 0.044593174 -0.111214794 0.09501051
000030 c2 72 22 bd 8e 53 6a bd e9 cc a5 3d 31 34 9f 3c
       -0.039660223 -0.05720859 0.08095724 0.019434066
000040 9d b6 74 bd 37 a8 0a 3d 93 72 b2 bd 72 7b 14 bb
       -0.059744466 0.03385183 -0.087132595 -0.0022656587
000050 ba f2 80 bd b6 60 a3 bc 30 19 db 3d e0 76 e3 3d
       -0.062962964 -0.019943576 0.106981635 0.11106658
000060 5c cf a3 bd 1b 14 ea 3d 79 05 24 3b 23 2c de 3d
       -0.07998535 0.11429616 0.0025027676 0.10848262
000070 63 bc 50 3d d8 fb f3 3d 62 50 40 bd 03 de ec 3d
       0.05096091 0.1191327 -0.04695166 0.11565783
000080 db 46 87 3c 8c 7e 1b bd 35 d1 17 3c ad f8 9c 3d
       0.016513279 -0.03796248 0.009266187 0.07664619
000090 af 72 8c 3d 34 72 e5 3d be 4b 35 bd eb e0 a8 3d
       0.06857812 0.11203423 -0.044261687 0.08246025
0000a0 3f 38 ef bd 85 91 90 3d 2f 49 d8 bd 6a 15 f0 bd
       -0.1168065 0.07059006 -0.10560834 -0.117228344
0000b0 cb c3 d0 bd 60 60 a9 3d f8 04 1d 3d d0 7e ac bd
       -0.101935945 0.08270335 0.038334817 -0.08422625
0000c0 1e fb c7 bd dc 22 62 3c d6 fa 1a 3b cf cd 00 bd
       -0.09764694 0.013802256 0.0023648045 -0.031446274
0000d0 ba 5d 80 3d 62 24 46 bc 96 eb 92 3c ea 49 c4 3d
       0.06267877 -0.012093635 0.017934602 0.095844105
0000e0 21 58 c5 3d 87 ae 35 bb a1 ab ae bc 5b 99 ba bd
       0.0963595 -0.0027722435 -0.021322073 -0.091112815
0000f0 2b 1f 0c 3d 9b 36 4b 3c ee 98 cd bc 3c 1d ad 3c
       0.03420941 0.012403156 -0.025097337 0.021132104
000100 cd 94 86 3d ec 1b 0d bd e3 e6 d2 bd 45 92 70 3b
       0.0657135 -0.034450457 -0.102979444 0.0036708277
000110 af 17 08 3d 1f fa 71 3d 98 c5 bb 3d fa 9c a5 3d
       0.03322571 0.059076425 0.091685474 0.080865815
000120 6e 7b 6f bc 80 81 aa bd 26 98 62 3d 54 a9 96 bb
       -0.01461683 -0.083254814 0.05532088 -0.004597822
000130 ec 2f e8 3d 98 f1 c1 bd 7f 04 e3 3d a1 0a 8a bd
       0.11337265 -0.094699085 0.11084842 -0.067403086
000140 94 b2 8e bc 00 e8 3d bd 18 cb fa bc 3a 1d c5 3d
       -0.017419137 -0.04636383 -0.03061442 0.09624715
000150 54 37 b1 3c 12 01 e9 bd e9 7c bf 3d 60 fc 87 bd
       0.021632828 -0.11377157 0.093499966 -0.066399336
000160 4d a9 8a 3d 71 61 e7 bd 1c 62 27 3d 9e b8 82 3d
       0.06770573 -0.11297882 0.04086505 0.06382869
000170 51 48 4e bd d4 e8 e7 3d 02 4a 8b 3d 56 13 bd bd
       -0.050361935 0.11323705 0.06801225 -0.09232204
000180 51 d9 a3 3d f9 90 cd 3d dd 09 a0 bd c4 d6 3c bd
       0.08000434 0.10037417 -0.07814381 -0.046103254
000190 f1 b9 4c 3d f7 79 45 bc 4d f6 28 bd 15 1a 4e bd
       0.049982015 -0.0120530045 -0.041250516 -0.050317843
0001a0 f7 20 d2 3d 3e 68 cd bd 47 36 01 bd 3c fb 98 bd
       0.10260194 -0.10029648 -0.031545904 -0.07469794
0001b0 92 14 de 3d cb 49 8b 3c 15 2e cd 3c 67 16 c6 bd
       0.10843767 0.01700296 0.025046388 -0.09672242
0001c0 a2 3b 80 bd bf ae d8 3d e6 1d 0d 3c 0e c2 cc bd
       -0.06261374 0.10580205 0.008613085 -0.099979505
0001d0 cd c9 be bd 81 91 1d 3d 1a 36 9b bc 64 00 4c 3d
       -0.09315834 0.03846884 -0.018946696 0.04980506
0001e0 0f e7 87 3d 19 99 c9 b9 c9 58 ff bc 10 71 e6 bd
       0.06635868 -0.00038451774 -0.031170266 -0.11252034
0001f0 f1 0e a5 3c 06 02 fd 3c 83 ab aa 3c 25 40 cd bd
       0.020148726 0.030884754 0.020833736 -0.10022
000200 61 b6 9b bd 66 f4 a6 bd fc 76 5c 3d e8 39 cb 3d
       -0.076031454 -0.08152084 0.05382441 0.09923154
000210 6e 57 05 bd 08 74 99 bd 69 81 94 bd 1f 72 7a bd
       -0.032554083 -0.07492834 -0.072512455 -0.06114399
000220 b0 c0 02 bd 20 cd d1 bd 12 1a 76 3d d9 6b a4 3d
       -0.031922042 -0.102442026 0.060083456 0.08028383
000230 0d 9c 0c 3d d2 5e 9d bd 35 fe 91 bc 89 1e 0a 3d
       0.03432851 -0.07684101 -0.01782141 0.033720527
000240 86 7b aa bd be d0 72 bd 95 6f 63 3d 1c 3a 5e bd
       -0.083243415 -0.059281103 0.055526335 -0.054254636
000250 c8 75 eb bd 6c c5 6e bd 01 61 9f bc d2 db 0c 3d
       -0.11497074 -0.058293745 -0.019455435 0.034389324
000260 f3 dd bc 3d 08 55 e5 3d e4 ef ad 3d c4 d6 46 3d
       0.09222021 0.11197859 0.08493021 0.04854466
000270 6d 28 a9 3d 85 d2 e5 3d ee c3 c9 3d 9f 43 b6 bd
       0.08259664 0.11221794 0.09851824 -0.088996165
000280 7e ed a1 bd 46 55 4b 3d c5 32 a1 3d 34 87 c5 3d
       -0.07906626 0.04964187 0.07871012 0.096449286
000290 2e b7 a7 bd f2 f0 ad bd a7 1a 70 3d c9 33 af bc
       -0.08189236 -0.08493222 0.058619168 -0.021386998
0002a0 6b f6 45 bd 61 fb aa bd 72 13 1b bb 15 43 bc bd
       -0.048330706 -0.08348728 -0.0023662713 -0.091924824
0002b0 c7 08 09 3d 60 31 ba bd 81 62 b4 3d 13 fc bb bd
       0.033455636 -0.09091449 0.08807851 -0.09178939
0002c0 34 5d 14 3d 5a 46 ca bc 9d 15 8c bb 27 70 5b bd
       0.036221698 -0.02469175 -0.0042750374 -0.053573754
0002d0 43 3b ce 3d 2c 1c b3 bd 24 4a 16 3b 05 45 16 bb
       0.10069897 -0.08745608 0.0022932375 -0.0022929322
0002e0 2c b5 f5 bc b5 12 f6 3b bc 5d 5f 3d 65 a5 d2 3c
       -0.029993616 0.0075095543 0.05453275 0.025713632
0002f0 79 fa 66 3d c7 d3 c1 bc 19 60 de 3d e8 77 b3 3d
       0.056391213 -0.023660554 0.10858173 0.08763105
000300 60 fd 86 3d 8d a7 a5 3d 65 93 a4 3c 01 31 7a 3d
       0.06591296 0.080885984 0.020089814 0.06108189
000310 41 c8 d5 3c b0 18 39 3c 9f a6 d0 39 61 6b 4e bd
       0.026096465 0.01129739 0.00039796994 -0.050395373
000320 5a 25 7d 3d 88 65 d2 bd d4 63 75 3d 3e 1d ee 3d
       0.0618032 -0.10273272 0.059909657 0.11626671
000330 55 71 ee 3c c1 fb a2 bc 3a d1 31 3c 70 dc 7e 3d
       0.029106775 -0.019895436 0.010853106 0.062221944
000340 72 02 34 3d 71 a5 5e 3d 2a 21 98 bd 7d b5 98 3d
       0.043947645 0.054356996 -0.074282005 0.07456491
000350 45 4b 75 bd 2b 72 a2 3d 24 b4 a3 bd e2 c4 dd bd
       -0.059886236 0.07931932 -0.079933435 -0.10828568
000360 df 10 36 3c 97 2a 77 bd 18 5d e1 3d ab 57 ca bd
       0.011112421 -0.06034335 0.11004084 -0.098800026
000370 ca d6 d9 3d 30 e9 89 bd 32 e0 88 bd 01 38 d4 bb
       0.10636671 -0.0673393 -0.06683387 -0.0064764027
000380 c1 3a 8c bd dc b7 fb 3d 59 be a1 3d a2 71 4a 3d
       -0.06847144 0.12290928 0.07897634 0.049424775
000390 ac 3a ed bd ea 10 ca bd 8b 3c ac ba 4d c3 c0 3d
       -0.115834564 -0.09866507 -0.0013140602 0.09412251
0003a0 3e 33 da bc f0 ea 92 bd ef 2f 1f bd 17 5d 0c bb
       -0.026635762 -0.07173717 -0.038864072 -0.002141779
0003b0 c2 57 68 3d 7e 5f c5 bd 03 da e1 3d 06 7b 18 3d
       0.056724317 -0.09637354 0.110279106 0.0372267
0003c0 11 95 0d bc 6d 92 89 3d 39 94 a8 3d 19 04 3f bc
       -0.008641497 0.067173816 0.08231396 -0.011658692
0003d0 30 27 e5 bd 71 39 87 3d 2c 65 09 3d dc 65 91 bc
       -0.11189115 0.06602753 0.03354375 -0.017748766
0003e0 e3 0c 02 3e 34 93 b5 3d 98 44 d7 3d 0e 07 98 3d
       0.12700228 0.088659674 0.1051113 0.074232206
0003f0 3f 12 d1 3d 43 c9 a6 3d c1 7d a2 bd 52 3f b8 bd
       0.10208558 0.081438564 -0.07934142 -0.089964524

model.1.weight f4 [512]
000000 a6 9d 7d 3f da 7c 7d 3f 70 9f 7e 3f e3 07 7f 3f
       0.9906868 0.99018633 0.9946203 0.9962141
000010 f3 d4 7f 3f 89 42 80 3f ce b8 80 3f 62 94 7f 3f
       0.9993431 1.0020305 1.0056398 0.9983579
000020 ce 1a 7e 3f 2f e3 7f 3f d7 70 80 3f 1e 2a 7f 3f
       0.9925965 0.9995603 1.0034436 0.9967364
000030 62 1a 80 3f 37 bd 80 3f 7b 00 7f 3f 6c 61 7d 3f
       1.0008051 1.0057744 0.9961011 0.9897678
000040 8a d2 7e 3f d7 de 80 3f c5 33 80 3f a8 55 81 3f
       0.9954001 1.0068005 1.0015799 1.0104265
000050 07 cc 81 3f 62 74 7f 3f 1f 5a 7d 3f ab f2 7f 3f
       1.0140389 0.9978696 0.9896564 0.99979657
000060 c2 28 81 3f 60 04 7e 3f d7 3b 7e 3f c1 ec 80 3f
       1.0090563 0.99225426 0.9931006 1.0072252
000070 ae 3a 80 3f bd f6 80 3f fa 99 7f 3f 87 28 7b 3f
       1.0017908 1.0075299 0.99844325 0.98108715
000080 c8 6b 81 3f 15 b9 7e 3f 3c 52 80 3f b2 1d 80 3f
       1.0111017 0.9950116 1.0025096 1.0009062
000090 28 6a 7d 3f 05 55 7e 3f 0e 3f 81 3f fb 8d 7f 3f
       0.98990107 0.9934848 1.0097368 0.9982602
0000a0 86 82 80 3f 85 f9 7e 3f 58 53 7f 3f 02 0d 7f 3f
       1.0039833 0.99599487 0.9973655 0.99629223
0000b0 a0 96 7f 3f c2 ea 7e 3f dc f3 80 3f e9 b8 7e 3f
       0.9983921 0.9957696 1.007442 0.995009
0000c0 5c 43 81 3f a0 1e 80 3f a7 dd 7d 3f dd f3 81 3f
       1.0098681 1.0009346 0.9916634 1.0152546
0000d0 a3 93 7f 3f b8 92 81 3f 6b e8 7e 3f 37 af 7e 3f
       0.9983465 1.01229 0.9957339 0.99486107
0000e0 39 d3 81 3f 43 c0 80 3f 5d 9d 7f 3f e3 1b 80 3f
       1.0142585 1.0058674 0.9984949 1.000851
0000f0 8a 76 7f 3f 75 43 81 3f 7e af 7e 3f 00 3b 81 3f
       0.9979025 1.0098711 0.9948653 1.009613
000100 89 c2 7e 3f f6 2e 81 3f 27 37 80 3f a5 ae 80 3f
       0.9951559 1.0092456 1.0016831 1.0053297
000110 ea 47 7f 3f a2 ba 80 3f e9 1e 80 3f 25 70 80 3f
       0.9971911 1.0056956 1.0009433 1.0034224
000120 c8 61 80 3f bc cf 7e 3f 80 55 7e 3f 8e 36 7d 3f
       1.002984 0.9953573 0.9934921 0.9891137
000130 65 1c 81 3f b4 e8 80 3f c8 42 7f 3f d6 60 7c 3f
       1.008679 1.0071015 0.99711275 0.9858526
000140 02 90 80 3f 56 33 7d 3f 32 fe 7e 3f 46 31 7f 3f
       1.0043948 0.9890646 0.9960662 0.9968456
000150 1e 53 80 3f be e4 80 3f 4e 77 7d 3f 20 d1 80 3f
       1.0025365 1.0069807 0.9901017 1.006382
000160 37 fc 7f 3f 67 4a 7f 3f 8e 89 80 3f 4a 8b 80 3f
       0.99994224 0.99722904 1.0041978 1.0042508
000170 39 7c 7f 3f 30 06 7e 3f 8a 28 80 3f c9 c6 80 3f
       0.99798924 0.9922819 1.0012372 1.0060664
000180 69 cb 80 3f 62 17 80 3f 03 1a 80 3f 48 76 7f 3f
       1.0062076 1.0007136 1.0007938 0.9978986
000190 e5 9f 80 3f c4 70 81 3f 79 7b 80 3f b4 84 7f 3f
       1.0048796 1.0112538 1.0037681 0.99811864
0001a0 af cc 7e 3f c1 9b 80 3f fa 8a 80 3f 6b e4 80 3f
       0.9953107 1.0047532 1.0042412 1.0069708
0001b0 21 01 7f 3f 51 d3 7d 3f 69 f5 7f 3f 90 8b 80 3f
       0.996111 0.9915057 0.9998384 1.0042591
0001c0 5d 91 80 3f 5c 6d 80 3f ef 89 81 3f dc f3 7e 3f
       1.0044361 1.0033374 1.0120219 0.9959085
0001d0 12 c4 7f 3f b0 9a 80 3f 33 fb 80 3f 2c c8 7c 3f
       0.99908555 1.0047207 1.007666 0.9874294
0001e0 83 2e 82 3f 27 0d 7e 3f c1 7f 7e 3f 38 4d 81 3f
       1.0170444 0.9923882 0.99413687 1.010169
0001f0 56 a4 7f 3f 2e 95 80 3f ee f0 7e 3f 29 0a 7f 3f
       0.9986013 1.0045526 0.9958638 0.9962488
000200 23 86 80 3f a9 51 7f 3f 92 f1 80 3f 94 e0 7d 3f
       1.0040935 0.9973398 1.0073721 0.99170804
000210 cf 35 7e 3f 16 d9 7e 3f 6b f4 7d 3f 97 b0 80 3f
       0.99300855 0.99549997 0.9920108 1.0053891
000220 76 62 7d 3f af 63 7e 3f 32 fc 7c 3f d9 d0 7d 3f
       0.98978364 0.99370855 0.9882232 0.991468
000230 cb 68 7e 3f c7 42 7e 3f 07 3d 7d 3f 13 63 7d 3f
       0.9937865 0.99320644 0.98921245 0.989793
000240 70 7e 80 3f 1d f4 7d 3f 26 09 80 3f f3 60 7f 3f
       1.0038586 0.9920061 1.0002792 0.9975731
000250 d4 09 80 3f c9 01 81 3f c7 1f 7f 3f 4f d2 7f 3f
       1.0002999 1.007867 0.99657863 0.9993028
000260 e2 ba 7e 3f 33 db 80 3f ca 34 80 3f af 06 80 3f
       0.9950391 1.0066894 1.001611 1.000204
000270 2d fe 7f 3f ac b9 80 3f 1c 6c 7e 3f 89 2a 7d 3f
       0.99997216 1.0056663 0.9938371 0.9889303
000280 b3 81 7f 3f 14 a9 80 3f b3 8e 7d 3f c5 f6 7e 3f
       0.9980728 1.0051599 0.99045867 0.9959529
000290 38 3d 7f 3f 07 53 80 3f b0 1a 80 3f c8 b0 7d 3f
       0.9970279 1.0025338 1.0008144 0.9909787
0002a0 0b d9 7b 3f d3 8d 7c 3f e8 23 80 3f 19 82 7e 3f
       0.98378056 0.98653907 1.0010958 0.99417263
0002b0 91 59 7e 3f 22 9a 81 3f d7 f7 7f 3f 66 7d 80 3f
       0.9935542 1.0125163 0.9998755 1.0038269
0002c0 11 26 7f 3f 96 d9 7f 3f 60 98 80 3f 9c 58 81 3f
       0.9966746 0.99941385 1.0046501 1.0105166
0002d0 ed 18 80 3f ae fa 7f 3f 70 39 7e 3f 0c 8e 80 3f
       1.0007607 0.9999188 0.9930639 1.0043349
0002e0 bd 19 7d 3f 3f 77 7e 3f ca 94 81 3f aa 35 81 3f
       0.988674 0.99400705 1.0123532 1.0094502
0002f0 66 ff 80 3f ea 42 7f 3f db 68 7e 3f 27 fa 80 3f
       1.0077941 0.9971148 0.99378747 1.007634
000300 bf 9f 80 3f f6 f7 7f 3f f2 e1 7e 3f 7b 13 80 3f
       1.0048751 0.99987733 0.99563515 1.0005945
000310 63 69 7e 3f ec e9 7e 3f c6 14 81 3f 8a 4f 81 3f
       0.9937956 0.99575686 1.0084465 1.0102398
000320 87 64 81 3f d0 07 7f 3f ef a3 80 3f 36 cc 7d 3f
       1.0108804 0.99621296 1.0050029 0.99139726
000330 e6 52 7d 3f b1 b2 7e 3f 6f 82 81 3f db 63 80 3f
       0.9895462 0.9949141 1.011793 1.0030473
000340 58 1e 80 3f 38 f0 80 3f 70 42 80 3f 9a 35 7f 3f
       1.000926 1.0073309 1.0020275 0.99691164
000350 37 02 7e 3f a7 83 80 3f 15 12 7f 3f 5a 45 7f 3f
       0.9922213 1.0040177 0.99636966 0.997152
000360 a0 7d 81 3f 2e 67 7e 3f 07 7e 7f 3f 11 6e 81 3f
       1.0116463 0.9937619 0.9980168 1.0111715
000370 f3 6b 80 3f ea 5e 80 3f 2a ee 7d 3f 15 6a 7d 3f
       1.0032943 1.0028965 0.99191535 0.98989993
000380 e2 ca 7f 3f 68 28 80 3f ce f3 7d 3f 80 21 80 3f
       0.9991895 1.0012331 0.9920014 1.0010223
000390 b0 2d 81 3f 11 d9 80 3f 43 22 81 3f 0c ff 7f 3f
       1.0092068 1.0066243 1.0088581 0.99998546
0003a0 fc 18 7e 3f 0f 95 80 3f f6 2e 81 3f 45 b6 80 3f
       0.99256873 1.0045489 1.0092456 1.0055624
0003b0 8d 82 80 3f d5 22 80 3f 86 25 7e 3f 8b 6f 7d 3f
       1.0039841 1.001063 0.99276006 0.98998326
0003c0 00 12 80 3f a2 57 7f 3f bc 53 7b 3f a1 0a 7f 3f
       1.0005493 0.9974309 0.98174644 0.99625593
0003d0 0e a1 7d 3f 08 c6 80 3f 2e 12 80 3f 80 ed 7d 3f
       0.99073875 1.0060434 1.0005548 0.9919052
0003e0 bc e8 81 3f cb ea 80 3f 21 42 80 3f 67 4b 7b 3f
       1.014915 1.0071653 1.0020181 0.9816193
0003f0 b1 55 7f 3f 11 a5 80 3f 91 d5 80 3f 90 b0 7e 3f
       0.9974013 1.0050374 1.0065175 0.99488163

model.1.bias f4 [512]
000000 77 07 b4 bb df e8 f6 bb 17 0a 30 bb a8 53 27 bc
       -0.005494054 -0.0075350846 -0.0026861483 -0.010212816
000010 9d 8b ed bb ea c5 aa bb ee b7 9f b9 ea 18 a3 ba
       -0.007249309 -0.0052115815 -0.00030463882 -0.0012443338
000020 61 d2 f6 bb 43 4d 3a bb 36 2a 55 3b 01 61 04 bb
       -0.0075324033 -0.00284274 0.003252638 -0.002019942
000030 d7 bf b6 3b 29 56 da 3b ca c5 6d bb 11 04 93 bc
       0.0055770683 0.006663103 -0.0036281222 -0.017946275
000040 eb 42 8c bb 33 ff c8 3a f2 a3 24 3c af 57 16 3c
       -0.004280438 0.0015334844 0.010048853 0.009176179
000050 9d 88 3d 3c 53 b3 c3 bb 1d 03 20 bc ca 6e 1c 3c
       0.011568216 -0.005972305 -0.009766367 0.009547899
000060 f8 80 fd 3b 7b f3 09 bc 92 f0 b3 bb a5 14 96 3c
       0.0077363215 -0.008419867 -0.0054913247 0.018320391
000070 5a ed 0c 3b bd 87 6b bc 1f a5 dd bb 80 c6 48 bc
       0.0021503777 -0.014375624 -0.0067640687 -0.012254357
000080 16 7d ef 3b 98 00 47 bb 60 75 cf ba a3 21 d5 3a
       0.0073086126 -0.0030365344 -0.0015827827 0.0016260635
000090 bb 7c 87 bc d3 3c d1 bb 4f a9 d0 3b ad 38 9f 39
       -0.016538968 -0.0063854246 0.0063678394 0.0003036907
0000a0 99 29 6c 3c 7a ce dc 3b f5 27 c7 bb 2c af 80 3b
       0.0144142145 0.006738481 -0.0060777613 0.003927132
0000b0 33 bd 41 ba f5 e8 a3 bb 55 54 06 3c 07 b3 bf bb
       -0.00073905586 -0.005002136 0.008198817 -0.005850199
0000c0 f7 ad 38 3c bc 76 e4 3b 28 ad 45 bc eb 4a 16 3c
       0.011271945 0.006972162 -0.012065209 0.009173135
0000d0 c3 6b 2b bc d8 2a e7 38 1e 7b ed bb 98 32 cd bb
       -0.010462704 0.000110229186 -0.0072473427 -0.0062621348
0000e0 b5 55 bb 3b 88 d2 42 3b 24 99 90 bb 41 b2 8e ba
       0.005717004 0.0029727537 -0.004412787 -0.0010886864
0000f0 22 1c c9 bb a6 81 6b 39 37 e0 d2 bb b6 a3 3a ba
       -0.006137387 0.00022459644 -0.00643542 -0.0007119732
000100 c4 9e 27 bb 7a 7e 8c 3c f6 b9 4c bb d1 0f a5 3a
       -0.002557681 0.017150152 -0.003123877 0.0012593215
000110 d5 02 d0 bb b0 d1 20 3a 01 8f d5 bb f7 52 98 ba
       -0.006347994 0.00061347615 -0.0065172915 -0.0011621405
000120 df 07 91 3a 2e 42 cb bb 2d 42 15 bc 0e 9c 3a bc
       0.0011064968 -0.0062029576 -0.009110016 -0.011389745
000130 0c 3d 81 3a 87 7f fa 3b 8f c7 3a 3c 9b 17 80 bc
       0.0009860112 0.007644597 0.011400118 -0.015636256
000140 92 9c 04 3c e3 90 29 bc 2a 42 33 ba 32 b4 f5 bb
       0.00809397 -0.010349485 -0.00068381673 -0.0074982876
000150 54 6d 9d 3a 09 c4 95 3b ef 14 57 bc 3a df 8c ba
       0.0012010732 0.0045704884 -0.01312755 -0.0010747679
000160 9b b6 48 3b bc ff 57 3c ff 30 cd ba 52 78 b8 ba
       0.003062642 0.01318353 -0.0015654861 -0.0014073944
000170 bb 89 af 3b a2 72 c1 bb 27 11 62 bc 36 00 46 3c
       0.005356995 -0.005903558 -0.013798035 0.012085011
000180 3c c9 fb 3b 9a aa 2a 3c 5a 69 08 3a 14 da 96 39
       0.007683901 0.010416651 0.0005203687 0.0002877271
000190 46 9c e9 bb 6c b0 b1 3b 6f b1 17 3c 32 75 f7 3b
       -0.007129225 0.0054226425 0.009258612 0.0075518126
0001a0 5a d2 00 bc 8f 2e b7 bb 9e 57 cf 3b 51 a9 96 3b
       -0.007862652 -0.005590267 0.0063275835 0.004597821
0001b0 9c ea bf bb 0b 90 7e bc eb 48 be 3a 39 3d 6a 3a
       -0.005856825 -0.015537272 0.0014517581 0.00089355145
0001c0 82 0b 06 3c a6 6e 06 3b 69 1a 4e 3c 27 c0 15 bc
       0.008181455 0.002051273 0.012579539 -0.009140051
0001d0 cb a7 26 3c fe d6 79 39 bf f1 c2 3a bf ac 27 bc
       0.010171841 0.00023826581 0.0014873071 -0.010234057
0001e0 08 8c ac ba b7 5d 88 bc da ba 61 bb b0 b7 d7 3b
       -0.0013164291 -0.01664625 -0.0034443648 0.0065831766
0001f0 2d 71 c1 ba f6 5a 56 bc 8a 16 1c 39 e1 33 ee 3a
       -0.001475846 -0.01308321 0.00014885716 0.001817342
000200 34 30 ad 3b b5 e0 2b 3b 45 35 47 3c 00 00 a5 3b
       0.0052852873 0.0026226465 0.012158697 0.0050354004
000210 ab f2 3c bc b2 29 6e 3a ec 2a 20 bc e7 e8 9b 3b
       -0.011532466 0.00090851926 -0.009775858 0.0047579887
000220 eb a4 67 bc fb a3 dc bb 73 80 92 bb c4 65 19 bb
       -0.014138441 -0.006733415 -0.0044708787 -0.0023406604
000230 8a 6c 08 3b 7d aa a0 bb 37 ac 11 bc cb 76 b8 39
       0.0020816647 -0.0049031363 -0.008891157 0.00035183723
000240 b0 09 68 b8 1a e1 6c bc ff 71 b2 bb 8e 8d 7f bb
       -5.5322133e-05 -0.014457965 -0.0054457183 -0.0038994285
000250 8f ab f6 ba bb 6e 36 3b 0d bd a5 bb e3 85 87 3b
       -0.0018819439 0.0027836997 -0.005057937 0.0041358336
000260 fb 0a b6 bb d1 5e b2 3b 17 72 92 3b f0 bb 69 38
       -0.005555508 0.005443432 0.004469167 5.572656e-05
000270 22 3b 00 bc d3 ac 73 3c aa ce 13 bc 01 d3 27 bc
       -0.007826598 0.0148727475 -0.0090214405 -0.010243178
000280 5f f4 25 3c b9 df eb 3b 55 50 fe bb 72 1e 03 bc
       0.010129063 0.0071983007 -0.007761041 -0.008002864
000290 d1 f4 de bb a9 ae c4 3a 73 4e f9 bb 2a 93 3f bb
       -0.0068040867 0.0015005666 -0.007608229 -0.0029232004
0002a0 41 65 5a bc 86 2b 16 bc 03 a7 07 3c 5f 97 ff bb
       -0.013329805 -0.00916565 0.008279565 -0.0078000273
0002b0 9d ed 6a bb 66 38 a2 3b 93 29 5b 3c 10 9a c2 3b
       -0.0035847195 0.004950571 0.013376611 0.005938776
0002c0 a5 bf 9b ba 12 aa 95 ba f2 46 cc 39 53 c0 8e 3c
       -0.0011882676 -0.0011418483 0.0003896277 0.017425692
0002d0 5d 12 ae 3a e0 b7 f2 3b 6c a7 87 bb 27 a1 ee 3b
       0.0013280619 0.0074071735 -0.0041398313 0.0072823945
0002e0 cc 3f 91 bb c1 37 20 bc 80 78 8e 38 a6 34 5e 3c
       -0.004432654 -0.009778918 6.7935325e-05 0.013562357
0002f0 60 27 a3 3b 86 29 e6 3b db d3 0d bc aa 51 0b 3c
       0.004979059 0.007023993 -0.008656467 0.008503357
000300 5e 27 86 3b b2 39 f8 3b 55 c9 d6 bb 43 28 16 3b
       0.0040940484 0.007575237 -0.0065547624 0.0022912181
000310 85 e2 0f 3b 34 33 b2 ba b7 ec 28 3b 1e 52 a7 3b
       0.0021955085 -0.0013595582 0.0025775859 0.0051062247
000320 87 91 01 3c 3c b6 c4 3b 8d a8 52 bb 7b 7d 22 bc
       0.007908232 0.0060031693 -0.003214392 -0.009917612
000330 25 0b 7b bc 32 86 e1 bb 49 4b 01 3c d2 ba 14 bc
       -0.015322481 -0.0068824524 0.007891485 -0.009077745
000340 13 9e 00 bb 14 2c 8f 3c 51 c8 6e 3c 3f 7b 97 bb
       -0.001962547 0.017477073 0.014574126 -0.0046228464
000350 48 3b 19 bc 32 be a6 bb 2a 2e 57 3b c5 a4 06 3c
       -0.009352513 -0.005088591 0.0032833912 0.008217995
000360 2d 49 16 3c 6a 76 4c bb c5 df d4 ba b1 a4 b7 3a
       0.00917272 -0.003119851 -0.0016241005 0.0014010874
000370 da 34 60 bb c5 11 0e 3b 21 a8 09 bc 0a 70 23 3b
       -0.003421119 0.0021678072 -0.008401901 0.0024938607
000380 07 8f 0f bc d6 8c cb 3a 74 16 7c bb 7b 53 f5 bb
       -0.008762128 0.0015529643 -0.0038465532 -0.0074867583
000390 54 75 71 3c f5 5d 55 3b c9 6f d1 3b f0 29 20 bb
       0.014737446 0.0032557223 0.0063914997 -0.002443906
0003a0 67 b6 01 bc 40 5b d9 3b cf 30 16 bc 74 e7 f0 bb
       -0.007917023 0.0066331923 -0.00916691 -0.00735181
0003b0 73 57 01 bb e0 91 41 bb de ed 06 bc 8e 57 a4 bb
       -0.0019735962 -0.0029536411 -0.008235423 -0.00501532
0003c0 60 f9 ab 3b b6 13 70 bb c1 fc 4c bc 12 09 c4 3b
       0.0052482337 -0.0036632842 -0.012511433 0.0059825266
0003d0 eb 4e d0 bb 78 35 40 3b e8 b3 3a bc 75 4e 10 bc
       -0.006357064 0.0029328745 -0.011395432 -0.008807768
0003e0 01 5e 76 ba b4 57 83 3b 6e 4b 87 3a bd 5c 08 bc
       -0.0009398163 0.0040082578 0.0010322162 -0.008322892
0003f0 a8 34 49 3b 1d 5d e8 3b b2 64 0e 3a aa a0 9a bb
       0.0030701552 0.007091178 0.0005431875 -0.0047188597

model.1.running_mean f4 [512]
000000 18 1f 64 3e dd 24 63 bd 2b c5 35 be ba e2 cc bb
       0.22277486 -0.055455077 -0.17750995 -0.006252614
000010 0f a2 21 bf 30 18 f0 bd 1e b4 fa bd c4 25 5d 3e
       -0.63137907 -0.117233634 -0.12241386 0.21596438
000020 53 1b 66 3e 92 65 27 be e0 ff 83 be fc 08 f5 bd
       0.22471361 -0.1634734 -0.25781155 -0.11964604
000030 5f 6d 41 be 17 35 bf be d5 94 0c 3f 13 26 56 be
       -0.18889378 -0.37345192 0.549146 -0.20912962
000040 26 8e e2 3d 3a da 1f 3e 2c c8 06 bf 6d 53 07 3f
       0.11062269 0.1561059 -0.5264919 0.5286167
000050 10 e1 06 be 31 46 ac be 9d b4 1f 3e e1 ed bd 3e
       -0.13171792 -0.33647302 0.15596242 0.3709555
000060 35 50 06 be 62 7c 75 3d f4 60 8a bd 2c 5c 58 3e
       -0.13116534 0.059933074 -0.067567736 0.21128911
000070 44 ac 29 3d c7 a7 cc bd 91 e6 40 3d 87 71 37 be
       0.04142405 -0.099929385 0.047094885 -0.17914401
000080 6e c7 11 3f 8f 60 b9 bd 62 93 37 be 03 ab 0f bd
       0.5694493 -0.0905162 -0.17927316 -0.0350752
000090 0c e2 b0 3d b1 27 d3 3e 5a 8b 90 3d 0c 0d da 3d
       0.08636865 0.4124122 0.07057829 0.1064702
0000a0 56 6c 9e 3d 52 7c 8c be d2 10 92 bd 18 ce 02 3d
       0.07735507 -0.274386 -0.071321145 0.031934828
0000b0 bb 16 cb 3c 16 e2 c9 bb 41 37 e5 3d 0d 6a 02 be
       0.024791112 -0.0061609847 0.111921795 -0.12735768
0000c0 e1 60 78 3b 42 21 3d bd 7d 58 8d 3e 3b 66 42 3d
       0.0037899541 -0.046174295 0.27606574 0.047460776
0000d0 98 bd 54 3e c6 68 af be f4 9a 7d bd ae 69 a5 bd
       0.2077545 -0.34259623 -0.061915353 -0.080767974
0000e0 db fb 67 3e 22 87 93 3d f8 5b 35 be fc f0 41 be
       0.22654669 0.07203509 -0.17710865 -0.18939584
0000f0 26 e6 5f 3d 50 f0 c1 3d fb b4 c7 be aa 31 7c 3d
       0.054662846 0.09469664 -0.39005265 0.0615708
000100 68 19 45 3e 3c fa 03 3e a6 1d ef bd 06 62 1f be
       0.19247973 0.12888426 -0.11675577 -0.15564737
000110 a6 80 94 3d 47 26 84 3e c0 bf 91 bd 77 c5 0e 3e
       0.072511 0.25810453 -0.071166515 0.13942514
000120 c5 75 f2 3d f0 44 be be 07 d2 53 3d fe 1b b9 bd
       0.11838869 -0.3716197 0.05171397 -0.09038542
000130 05 dd 8f 3e 49 15 00 be 05 1d 53 3e 39 c1 5b 3e
       0.28098312 -0.1250812 0.20616539 0.21460427
000140 42 42 e0 3c e8 58 32 3d 5f 0b f5 bd 5e 5b b7 3e
       0.027375344 0.04354182 -0.119650595 0.35811895
000150 9b 3f b6 be fc 74 c2 be 3d d5 12 3f 8c 2b c5 3e
       -0.35595402 -0.37979877 0.57356626 0.38509786
000160 9f 54 ea bc 9c 84 fd 3d bf 7b 61 3d de 15 4e 3e
       -0.028604804 0.12378809 0.055049654 0.20125529
000170 31 99 81 be f6 e2 44 3e ba 6c e5 3d 2f ca af 3d
       -0.25312188 0.19227204 0.112023786 0.08583485
000180 62 02 e0 3e d2 fe 93 3e d0 c1 73 be 38 06 d7 bc
       0.43751818 0.2890535 -0.23804402 -0.026248083
000190 3d 5a 6d 3e 0c 76 83 3e cb 31 b0 3d 46 3d 9e be
       0.23178954 0.25676 0.08603247 -0.30906123
0001a0 7a 54 08 3e df 01 97 be 0e 5e 95 3d 09 7d 09 bc
       0.13313475 -0.29493615 0.0729333 -0.008391627
0001b0 91 b2 12 bf 34 f7 ca 3d fa 0a 19 3c b5 54 37 be
       -0.5730372 0.099104315 0.009340996 -0.17903407
0001c0 96 75 94 bd 5d 6e b0 be f9 62 92 3e 5e 4f 98 3e
       -0.0724899 -0.344592 0.28591135 0.29748052
0001d0 37 9a 0a bf e4 13 3d be de ef 57 bd 90 81 de 3e
       -0.54141563 -0.18464619 -0.05271899 0.43458223
0001e0 da ca 8b 3e 7a fd b8 bd 7f d4 97 3e 98 15 82 be
       0.273032 -0.09032722 0.2965431 -0.254071
0001f0 8c 45 0e be a0 f5 75 bd 89 13 2c be ff b4 9e be
       -0.13893718 -0.0600487 -0.16804327 -0.30997464
000200 5b ca 2a 3c 87 9e 7b bb 73 16 9b 3e 50 2e 69 be
       0.010424222 -0.003839405 0.30290565 -0.22771573
000210 de b8 f8 bc 74 d0 f9 bd 4f 9c f2 3e aa 84 90 3e
       -0.030361589 -0.121979624 0.4738488 0.28226215
000220 bc de 38 bd 04 b2 0c bf 36 74 d0 be 0b 55 e8 3e
       -0.04513429 -0.5495913 -0.40713662 0.45377383
000230 30 f4 d6 3d fb af 0a be 20 57 25 3e dd 83 a6 be
       0.10495794 -0.13543694 0.16146517 -0.3252248
000240 1a df 7d 3b f2 32 ef 3d 4b c6 7e be 12 72 9d bd
       0.0038737715 0.11679639 -0.2488033 -0.07687773
000250 3e 4b f5 bc 2a 9f 71 3e b1 21 4b 3e 65 ab bf 3d
       -0.029943105 0.23595873 0.19837071 0.09358863
000260 0f ef ca 3d bb 7b 48 be 15 20 15 bd b3 9a 61 3e
       0.09908878 -0.1957845 -0.03640755 0.2203167
000270 3d e6 18 bf 11 a6 84 bd ba 91 01 3d 3a 04 b4 3e
       -0.59726316 -0.06476987 0.031633116 0.35159475
000280 9f f3 81 3b ac 4c 08 3e 20 be 1b be 6d 97 d6 ba
       0.0039658095 0.13310498 -0.15209246 -0.0016372033
000290 0e 4a 90 3e 65 45 50 be bb 65 57 be 6b a3 87 be
       0.281815 -0.20338972 -0.21034901 -0.26491866
0002a0 d5 4a a9 3b 3a eb 6f bb 7e f5 87 be 1f 7d 06 3e
       0.0051663914 -0.0036608712 -0.26554483 0.13133667
0002b0 b6 f0 a1 3e 42 b6 89 be 3c 23 ad 3e e0 81 25 bf
       0.3162896 -0.26896864 0.33815944 -0.646513
0002c0 9a 07 19 3e 5d 85 bf bd 07 5a d3 3e 79 67 b9 be
       0.14944306 -0.09351609 0.41279623 -0.36211756
0002d0 94 02 e1 3d ad d9 47 be 6c 44 4d bd 24 2d 3b bd
       0.1098682 -0.1951663 -0.05011408 -0.045697346
0002e0 21 d2 3b be 2e e8 81 3e 7e 47 f9 be 06 d7 2a be
       -0.18341877 0.25372452 -0.48687357 -0.16683587
0002f0 25 05 cb 3e 47 47 a3 3e aa 85 9f 3e 1f f8 1b be
       0.39652362 0.31890318 0.31156665 -0.1523137
000300 72 eb 3a 3d 67 96 3a be cf ff b1 3c b5 19 bc be
       0.045634694 -0.18221436 0.021728424 -0.36738363
000310 f4 a4 91 3d f1 b3 44 3e 5d 9b 59 3e 8d 0c b8 3c
       0.071115404 0.19209267 0.21250673 0.022466922
000320 73 a3 da 3d f2 19 28 be db 95 ca bd 94 9b 0c 3e
       0.10675707 -0.16416147 -0.09891864 0.13731223
000330 f3 01 fb 3d 9b cf bb be a4 b6 fb 3d 9a 1d d5 ba
       0.12256231 -0.36681828 0.12290695 -0.0016259432
000340 bf 54 04 3e 37 3b 53 3d 89 b1 37 bc f2 1b ab bd
       0.12922953 0.051570144 -0.011211761 -0.083549395
000350 1c cd 89 3d d0 57 b1 3d 9f ab c6 3d d3 62 67 bc
       0.06728575 0.08659327 0.09700703 -0.014122683
000360 c1 da 7e 3d 3f 35 96 3d 61 8e 43 3e 89 b2 96 be
       0.06222034 0.07334375 0.19097282 -0.29433087
000370 a6 28 a1 3d ff 49 55 3d ae f2 b2 bd 19 fe 26 3e
       0.07869081 0.05207252 -0.08737694 0.16307868
000380 22 d6 96 be a2 10 ad 3e c2 09 27 3e 9e 81 c0 bd
       -0.29460245 0.33801752 0.16312316 -0.093997225
000390 2f 7d b0 bb da d2 46 be c3 3a 35 be 60 93 5f 3e
       -0.005386017 -0.19416371 -0.17698197 0.21833563
0003a0 0f bc 73 be 58 2c 8a be 63 9f ec 3d 6b 07 9d bd
       -0.23802207 -0.26986957 0.11553838 -0.076674305
0003b0 9c 5c 8c 3d 1e c4 06 be e1 da 3a bf 75 79 37 3d
       0.06853601 -0.1316075 -0.7299023 0.044793565
0003c0 b1 8b 76 be 85 84 b9 be 47 db 9f be 45 71 db be
       -0.24076726 -0.36233917 -0.31221983 -0.42859855
0003d0 05 92 02 3c 55 b6 df 3d ac 37 96 bc c6 af 63 be
       0.007969384 0.10923449 -0.018337093 -0.22235021
0003e0 6a 28 1a 3e 22 08 42 be 5b 61 ae bc ed a5 5e 3d
       0.15054479 -0.18948415 -0.021286657 0.054357458
0003f0 5e e2 4e be 53 6e 8f 3d 8e e1 07 bd 40 fc 95 bc
       -0.2020354 0.070034645 -0.03317409 -0.018308759

model.1.running_var f4 [512]
000000 36 fa 3f 3d 15 fa 14 3d 7b 5e 12 3d a7 15 20 3d
       0.04686948 0.03637131 0.035734635 0.03908315
000010 4f 7e 18 3d 9a f2 1b 3d 88 a7 19 3d bc 8a 1f 3d
       0.037229832 0.03807316 0.037513286 0.038950667
000020 cd ee 16 3d ee 3b 1f 3d 9e d1 28 3d 71 03 22 3d
       0.036848832 0.038875513 0.04121553 0.039554063
000030 cf 9e 12 3d a8 8d 0f 3d 60 bc 22 3d 41 ee 1e 3d
       0.035795983 0.035047203 0.03973043 0.038801435
000040 92 18 11 3d bb 5c 1f 3d 7a 58 0d 3d 16 99 13 3d
       0.035423823 0.038906794 0.034508206 0.036034666
000050 b2 c7 19 3d 44 e6 17 3d f7 2b 13 3d 23 62 19 3d
       0.03754396 0.037084833 0.0359306 0.037447106
000060 17 14 21 3d ae 2d 32 3d c3 75 08 3d e1 95 44 3d
       0.0393258 0.043500595 0.03331543 0.0479945
000070 b1 05 0d 3d be 90 1e 3d 1b bd 1f 3d c5 db 1d 3d
       0.034429256 0.038712256 0.038998704 0.038539667
000080 f8 ee 1e 3d 54 0f 1e 3d 31 3d 0f 3d b1 b4 09 3d
       0.038802117 0.038588837 0.034970466 0.033619586
000090 13 f1 16 3d 13 15 2a 3d 86 25 19 3d 83 45 23 3d
       0.036851 0.041524004 0.0373893 0.039861213
0000a0 5a 86 1b 3d 97 8b 2f 3d 9d 21 1d 3d ca 46 15 3d
       0.037969925 0.042857733 0.038362134 0.036444463
0000b0 72 37 10 3d b0 27 17 3d 37 1f 1b 3d c9 8f 1b 3d
       0.035209127 0.036903083 0.037871566 0.03797892
0000c0 00 4d 1b 3d 8a 51 14 3d 93 8d 21 3d 7f bc 0d 3d
       0.03791523 0.036210574 0.039441656 0.034603592
0000d0 cb f7 14 3d 8e c0 16 3d a6 0f 2b 3d be 64 0f 3d
       0.036369126 0.03680473 0.04176297 0.035008185
0000e0 63 5c 16 3d be 64 1e 3d ba 75 14 3d 15 6d 1c 3d
       0.0367092 0.038670294 0.036245085 0.038189966
0000f0 a4 84 0f 3d 4b 51 31 3d 86 13 15 3d df 8b 2d 3d
       0.035038605 0.043290418 0.036395572 0.04236972
000100 22 f0 12 3d 0a e0 18 3d 48 8b 15 3d e7 7f 1c 3d
       0.03587354 0.037323035 0.036509782 0.038207915
000110 c0 73 0a 3d dd 36 19 3d ba 6a 06 3d 60 70 05 3d
       0.033801794 0.037405837 0.032816626 0.032577872
000120 67 c1 1e 3d 04 75 1f 3d a4 b2 0c 3d cf 57 12 3d
       0.03875866 0.038929954 0.034350052 0.035728272
000130 b0 f9 07 3d d6 f7 06 3d 3f 23 13 3d 30 d6 15 3d
       0.033197105 0.0329512 0.035922285 0.03658122
000140 29 5e 1b 3d ba 98 18 3d 40 3e 21 3d 77 2c 29 3d
       0.037931595 0.037255026 0.039366007 0.04130217
000150 30 8a 15 3d 99 c9 15 3d fb cb 3f 3d 53 18 3f 3d
       0.03650874 0.03656921 0.04682539 0.046654057
000160 4a 16 12 3d cb fb 2b 3d 6b 47 22 3d 44 d6 10 3d
       0.035665788 0.041988175 0.03961889 0.03536059
000170 2b bb 32 3d 7a e2 22 3d 2a 5c 15 3d bd 55 0c 3d
       0.04363553 0.039766766 0.036464848 0.034261454
000180 1e 11 2f 3d ee 23 0e 3d 21 36 2a 3d e2 d9 18 3d
       0.042740934 0.034702234 0.041555528 0.037317164
000190 16 21 25 3d f4 3d 11 3d 39 7e 28 3d 31 21 1b 3d
       0.040314756 0.035459474 0.041136 0.03787345
0001a0 63 21 10 3d 2d 9c 0f 3d 97 86 1e 3d be 97 18 3d
       0.03518809 0.03506105 0.038702574 0.037254088
0001b0 41 c8 33 3d 36 04 18 3d 0d 63 15 3d ed fd 20 3d
       0.04389215 0.03711339 0.036471415 0.039304662
0001c0 d0 d5 12 3d 74 ac 15 3d 92 c8 1d 3d 6a 14 28 3d
       0.03584844 0.036541417 0.038521357 0.041035093
0001d0 88 74 21 3d 82 47 21 3d f8 c9 10 3d f0 a6 21 3d
       0.039417773 0.039374836 0.035348862 0.039465845
0001e0 2e 14 11 3d 22 e1 18 3d 2d 40 0e 3d ce b7 16 3d
       0.035419635 0.03732408 0.03472917 0.036796384
0001f0 85 0d 49 3d 2f 48 1b 3d 54 b9 23 3d a3 0f 1e 3d
       0.04908516 0.037910637 0.039971665 0.03858913
000200 b5 c3 26 3d 7e ed 12 3d 83 4d 13 3d d2 a3 12 3d
       0.040713985 0.03587102 0.035962593 0.035800762
000210 65 7c 17 3d 64 d0 2e 3d ae 81 2c 3d 9e 70 12 3d
       0.036983866 0.042679206 0.04211586 0.03575193
000220 73 95 0a 3d b7 45 25 3d d7 3a 2a 3d 70 0b 19 3d
       0.033833932 0.04034969 0.04156002 0.037364423
000230 c8 8f 15 3d 4d b6 15 3d 40 2d 1d 3d 11 98 12 3d
       0.036514074 0.03655081 0.038373232 0.035789553
000240 75 5e 1d 3d 79 04 20 3d 6f f9 1c 3d f3 b7 15 3d
       0.03842016 0.039066765 0.038323816 0.03655238
000250 6c 1d 21 3d 42 99 21 3d e1 b8 25 3d 8d 07 17 3d
       0.0393347 0.0394528 0.040459517 0.036872435
000260 c4 e7 21 3d 54 91 14 3d 35 cf 10 3d 3e 25 1b 3d
       0.03952767 0.03627141 0.035353858 0.037877314
000270 76 df 25 3d db 8e 11 3d 4d 58 14 3d d9 33 1f 3d
       0.040496312 0.03553663 0.036217023 0.038867805
000280 48 a4 0e 3d 78 79 1b 3d 9b 13 1e 3d 1a 1a 1e 3d
       0.03482464 0.03795764 0.038592916 0.03859911
000290 b1 82 20 3d 15 95 22 3d 9c 14 12 3d 21 d8 1a 3d
       0.039187137 0.039692957 0.035664186 0.037803773
0002a0 31 69 1a 3d dc 34 25 3d d1 db 13 3d 97 bd 27 3d
       0.037697975 0.040333614 0.036098305 0.04095229
0002b0 73 a8 13 3d 8f e0 22 3d 44 0d 17 3d 82 e9 28 3d
       0.036049318 0.039764937 0.036877885 0.041238315
0002c0 6d ed 27 3d 24 3f 1a 3d c3 3a 24 3d 4a b2 2d 3d
       0.04099791 0.03765787 0.040095102 0.042406358
0002d0 de 41 2b 3d 1a 5b 14 3d 0d 4e 18 3d 4c 0d 25 3d
       0.041810863 0.036219694 0.03718381 0.040295884
0002e0 e4 20 11 3d a6 55 1c 3d 3c 72 1d 3d 8f 33 15 3d
       0.035431758 0.03816762 0.03843902 0.036426123
0002f0 9e 22 2a 3d e4 4f 14 3d 1a 9b 26 3d fa 6e 1e 3d
       0.04153692 0.036209002 0.04067526 0.038680054
000300 12 95 13 3d 51 00 1d 3d 9f 78 16 3d 15 f4 17 3d
       0.036030836 0.03833038 0.036736127 0.03709801
000310 96 d0 1e 3d 4b 79 1f 3d cc 8a 1c 3d 97 b7 19 3d
       0.03877314 0.038934033 0.038218305 0.0375286
000320 fc 37 13 3d ca 7c 1e 3d de 67 3f 3d 9f 07 1a 3d
       0.035942063 0.038693227 0.046729915 0.037604924
000330 bf de 1e 3d a2 23 14 3d 2c 2f 25 3d 59 a5 0b 3d
       0.038786646 0.036166795 0.04032819 0.034093235
000340 e8 9e 11 3d 0c 17 28 3d ae 43 20 3d 3f 01 11 3d
       0.035551935 0.041037604 0.039127044 0.03540158
000350 a6 ec 23 3d 5c fa 11 3d fe 5e 16 3d 04 66 36 3d
       0.040020607 0.035639152 0.036711685 0.044530883
000360 80 20 11 3d 92 6f 15 3d 46 71 15 3d 6b 6c 13 3d
       0.035431385 0.036483355 0.03648498 0.035992067
000370 10 62 29 3d 11 71 36 3d 68 89 38 3d f1 a1 0d 3d
       0.041353285 0.044541422 0.045052916 0.034578267
000380 bf cb 10 3d 14 2a 26 3d 97 6f 0d 3d 8b b8 0d 3d
       0.035350557 0.040567473 0.03453025 0.034599822
000390 10 3a 1c 3d 1d b3 13 3d ba fa 2c 3d ef e4 16 3d
       0.03814131 0.036059488 0.0422313 0.03683942
0003a0 90 28 1d 3d e3 a9 1d 3d 8c 77 12 3d 7b 6f 1b 3d
       0.03836876 0.038492095 0.03575854 0.037948113
0003b0 b5 70 12 3d ae 98 1d 3d 3c 33 31 3d ee 3b 0a 3d
       0.035752017 0.038475685 0.04326175 0.03374856
0003c0 bc 73 2d 3d b8 34 17 3d 19 01 13 3d 82 4e 31 3d
       0.0423467 0.03691551 0.03588972 0.04328776
0003d0 bb c6 1a 3d d5 5d 14 3d ef 33 1a 3d 5f fa 0b 3d
       0.03778718 0.036222298 0.037647184 0.03417432
0003e0 82 50 16 3d 12 ee 2f 3d 75 26 18 3d 89 36 20 3d
       0.036697872 0.04295165 0.03714605 0.03911451
0003f0 52 93 13 3d 6b 22 13 3d 50 c3 15 3d 52 cb 12 3d
       0.036029167 0.035921495 0.036563218 0.035838433

model.3.weight f4 [256, 512]
000000 45 10 4a bd a2 6b dd 3c 0d cc 47 bd 31 26 ad 3c
       -0.049331922 0.027028862 -0.048778582 0.021136375
000010 18 b5 e2 3c 6a 35 80 3c 9a 5e 19 3c 2c 66 cb 3c
       0.027674243 0.01565047 0.009360934 0.024828993
000020 3e e4 61 bc 40 c2 15 3d 20 63 b2 3c f4 bd 3a bd
       -0.013787327 0.036562204 0.021775782 -0.04559131
000030 a3 0d ac bb 0c b0 2e bd a8 ce 17 bd 0b 1e 24 bd
       -0.005250649 -0.04264836 -0.037062317 -0.040067714
000040 94 40 92 bb 62 b9 00 3d 06 33 60 bc b9 c6 89 3c
       -0.0044632647 0.031426795 -0.01368404 0.016818391
000050 3a c9 f2 bc 17 6d 25 3d 14 09 47 bc f7 50 e7 ba
       -0.029636968 0.04038724 -0.0121481605 -0.0017648031
000060 3b 8f 34 bd 54 8a 0e 3c 59 b5 c0 bb b7 ba 13 3d
       -0.044081908 0.008699972 -0.0058809933 0.036066737
000070 b4 41 0f bd 0b ca 5f bb 4e 7e 53 3b 20 42 8a 3c
       -0.03497477 -0.0034147527 0.0032271328 0.016877234
000080 99 8d c1 3b 19 de 44 ba 04 fe c2 3b 99 3a f9 3c
       0.0059067723 -0.0007509902 0.005950691 0.03042345
000090 a8 e7 ce 3c de 10 80 bc 02 62 1a 3d c5 3b b0 3c
       0.025256947 -0.015633043 0.037691124 0.021512875
0000a0 ba 9b 37 3d 19 a2 da 3c 8e c9 ef bc 01 46 6b bc
       0.044826247 0.026688622 -0.029270913 -0.014359952
0000b0 9a 62 4c bc 7a c1 2e 3c e1 90 cf 3c e2 88 e5 bc
       -0.01247468 0.010666246 0.025337638 -0.028019372
0000c0 b6 80 1d 3c 38 a9 2c bd 8f 79 0f bd b0 74 02 bd
       0.009613207 -0.042153567 -0.035028037 -0.031849563
0000d0 10 28 1b 3d 54 63 e6 3c b7 a0 d0 bb 87 da 9f 3c
       0.037880003 0.028123535 -0.006366815 0.019513382
0000e0 d0 c3 62 3c 79 20 05 bd f8 13 40 bd 40 50 c4 3c
       0.013840631 -0.03250167 -0.046894044 0.023964047
0000f0 a9 0b b6 bc df 06 f3 bc 8c 16 3f bd f6 f2 ce 3b
       -0.022222357 -0.029666362 -0.04665236 0.0063155843
000100 de 06 da 3c 2d e4 c9 bc d6 92 ee 3b 10 ee af 3c
       0.026614603 -0.024644936 0.007280688 0.021475822
000110 6d 1c 6d 3b 1a fa 18 bd 7a 5f 2e bd af 06 29 bd
       0.0036180273 -0.03734789 -0.042571522 -0.04126614
000120 39 f2 18 bd 7b b3 8d bc 98 cc ac bc 0e 3c 1c bd
       -0.037340377 -0.017297497 -0.021093652 -0.03814321
000130 79 e3 2b bd c4 b4 0a 3d 20 1d 09 3d 00 35 83 3c
       -0.04196498 0.033863798 0.03347504 0.016016483
000140 b8 f8 2d bd 81 67 12 3d b6 68 a6 3b 13 c1 fe bc
       -0.042473525 0.03574324 0.0050784005 -0.031097924
000150 59 7f f3 3c 10 f5 f7 3c 54 da 39 3c 62 d7 0f bd
       0.02972381 0.030268222 0.011343557 -0.035117514
000160 31 85 5d 3c 0f 20 24 3d 8f 6b a1 3c 1c d5 23 bb
       0.013520525 0.040069636 0.019704608 -0.002499885
000170 15 5e c4 bc 99 be 3e bd 24 04 a3 3c bc 11 00 bd
       -0.023970643 -0.046568487 0.019899435 -0.031266913
000180 98 01 a6 3c 64 ca de 3c 29 5d fa 3c b8 a5 30 bd
       0.020264432 0.027196117 0.030562 -0.04312679
000190 30 dc 98 3b e2 79 dc bc 0e 87 57 bc 54 e7 c4 3c
       0.0046649203 -0.026913587 -0.013154758 0.024036087
0001a0 f8 0b 7f 3c c2 ca 98 3c 6b 8b 43 3d 41 0f 19 3c
       0.015566818 0.01865137 0.04774038 0.009342016
0001b0 fb 1f c9 3c 25 74 13 bc 24 5e cf bc 67 61 0d 3d
       0.024551382 -0.008999859 -0.025313444 0.03451672
0001c0 2a f4 07 ba c7 80 f6 3c d4 74 16 3d 62 c1 b3 3c
       -0.00051862246 0.030090703 0.03673251 0.021942798
0001d0 9c 02 81 ba ac cb 41 bc e7 b7 73 ba 19 aa 46 bb
       -0.0009842697 -0.011828344 -0.0009297118 -0.0030313788
0001e0 95 6e 0e 3d 26 6e 93 bc 80 f1 fb 3c 24 f3 87 bb
       0.034773428 -0.017996859 0.030754805 -0.0041488577
0001f0 3e d1 03 bd a8 43 a1 bc a7 18 8d bc ac ed 0c bd
       -0.03218197 -0.019685581 -0.01722367 -0.03440635
000200 72 95 dc 3c ec 17 15 bd b6 c2 f4 ba 5a 0d 2d bd
       0.02692673 -0.036399767 -0.0018673751 -0.04224906
000210 4b d2 84 bc 6c ea 07 3c b9 fa 32 bd 1a 83 9b bc
       -0.016213557 0.008295637 -0.04369614 -0.018983413
000220 47 e4 27 3d e3 7b 56 3b 74 ce 7a bd a8 3a 32 bc
       0.040989187 0.003272765 -0.061232045 -0.010878243
000230 f4 0a 85 bb ad c5 6e 3c 0e bd 89 bc af 33 bb bb
       -0.0040601436 0.014573497 -0.016813781 -0.0057129483
000240 0b 90 b2 bc f0 5c 09 3d e7 2a 33 3d 33 86 7a bc
       -0.0217972 0.033535898 0.043742087 -0.015290785
000250 56 cf 53 3c 3f f3 12 3a df 40 bb bc ba 8d 59 3d
       0.012927851 0.00056057045 -0.022858081 0.053113677
000260 95 a6 f6 bc d3 de bf 3c b3 32 29 3d 61 ce ee 3b
       -0.03010873 0.02342168 0.041308116 0.007287786
000270 5b 34 55 3c 09 cc e6 3c dd 96 9d 3c 1a e9 37 bc
       0.013012971 0.028173463 0.019236976 -0.011225009
000280 1f 6a 04 bd e6 75 4b 3d 1d f8 d0 ba a8 37 7d 3c
       -0.032327767 0.049672984 -0.0015943084 0.015455164
000290 2a 8d 1c 3d 15 f3 54 3b 05 b2 66 bc 61 29 8f 3c
       0.038220562 0.003249352 -0.014080529 0.017475786
0002a0 8f b2 e2 bc a9 22 00 bd 49 d9 d5 bc 43 38 07 bd
       -0.027673034 -0.031283055 -0.026104586 -0.03301264
0002b0 c8 fd 51 3c 60 ab 16 bd 80 cc be bc 4f a9 36 bd
       0.012816854 -0.03678453 -0.023290873 -0.04459506
0002c0 04 e3 38 3b c8 63 23 3d 4c 61 60 bc 28 b1 16 bd
       0.0028211484 0.03989008 -0.013695072 -0.036790043
0002d0 92 8d 8f bc 89 24 10 bd 65 85 be bb d4 81 d2 bc
       -0.01752356 -0.035191093 -0.0058142417 -0.025696672
0002e0 d8 8b bb 3c e4 b1 8c bc 52 52 b0 3c 2c 15 97 3b
       0.022893831 -0.017174669 0.021523628 0.004610678
0002f0 3a 1a bb 3c 10 b0 a9 3c 36 69 18 3c 8d 30 bf 3c
       0.022839654 0.020713836 0.009302428 0.02333858
000300 61 6a 74 bc 27 b9 f7 3c 2f b6 23 3c f5 05 14 bc
       -0.014917941 0.030239655 0.009992166 -0.009034623
000310 a4 58 8a bc 86 a3 0d bd 15 2b c8 bc 6c c5 23 3d
       -0.01688797 -0.034579776 -0.024434606 0.039983198
000320 16 c1 eb bb c9 67 36 3d c4 f2 df 3c 1c f9 30 bd
       -0.0071946485 0.04453257 0.02733744 -0.04320632
000330 5e 24 3f bd c0 4a 34 3d a8 4a b9 3c b7 eb 1c 3c
       -0.04666554 0.0440166 0.022618607 0.009577683
000340 15 bd e0 3c ca 26 da ba fe ee d1 bb c5 49 9c bc
       0.027433911 -0.001664364 -0.006406664 -0.019078145
000350 00 07 26 bc 05 b1 bc 3b 62 cf 7c bc 35 03 ef bc
       -0.010133505 0.005758407 -0.015430303 -0.029176334
000360 34 7f 0b bc 9c 86 cc bb a1 2c 20 3d 41 8a dd 3c
       -0.008514214 -0.0062416326 0.03910506 0.027043464
000370 44 1f 5c 3c 74 6d 77 bc 9b 74 93 3c dd 72 80 3c
       0.013435189 -0.015101779 0.017999938 0.015679771
000380 6e c2 fe 3c ec 35 20 3d 46 24 d3 bc 7b f4 2d 3d
       0.03109857 0.039113924 -0.025774132 0.042469483
000390 c2 79 b2 bc a3 cf eb 3c 00 cb e7 bc 74 34 0e 3c
       -0.021786574 0.028785532 -0.02829504 0.008679498
0003a0 dd 4b b0 bc f2 23 d1 3c ba 95 d3 bc 3c ff cb bc
       -0.02152055 0.025529835 -0.025828231 -0.024901979
0003b0 a4 93 90 bc 1e a3 06 bd ec b7 1e bd d3 9f 96 3c
       -0.017648526 -0.032870404 -0.03874962 0.018386757
0003c0 7c a9 8a 3c 19 57 3a 3c f4 31 ee 3c af 12 0e 3d
       0.01692652 0.011373305 0.029076554 0.034685787
0003d0 1b 98 0d ba 5d 02 9b bb 2e 2e 34 3b b3 a0 5f 3c
       -0.00054013886 -0.0047305063 0.0027493346 0.0136491535
0003e0 ac 34 51 bb c6 e9 b1 3c 45 ca e3 bc 0b 79 48 bc
       -0.0031922264 0.021717917 -0.02780641 -0.01223589
0003f0 ab 8b 16 bd ba de 17 bb c6 d4 6d bc 4d d6 03 bd
       -0.03675429 -0.0023173527 -0.014516061 -0.032186795
