models/three_layers/threeLayerModel_mumu_corrCut_-1.0_weights_true_drop_0.2_lorentz_no_qg.pt (torch, 579903 bytes, 14 tensors)

model.0.weight f4 [512, 16]
00000000: 818f 37be dd5b 1e3e ccb7 88bd b675 2d3d
00000010: ba4b 6d3e 4568 cbbd 9e41 dabd 3cd4 02be
00000020: 5c48 0a3e 3f30 023e 1905 fb3d e70f 6abd
00000030: 59ff 29bd 1786 343d 33a1 7dbe 17e7 6c3e
00000040: 3039 09be 09fc 463e 2f30 9dbb f779 d13d
00000050: 3f55 493e 406d 43be b657 753e 56da d6bd
00000060: c923 4b3d 5b6e 633c 9bdf 0fbe fe62 b13d
00000070: 930f 0e3e bd48 68bd a336 6cbe e72c 3bbe
00000080: b86b a63a 5c23 503e b87e dfbd a46a 453d
00000090: 8ffc 333e 72cb 12be ff34 63be 7dd7 6a3e
000000a0: 140c 3a3e c060 73be 318b 663d 8a13 683d
000000b0: d327 043e 9f9b 723e e14a 93bd 27d7 a83d
000000c0: cf6b 613a 5bbb 1a3e c1be 503a ef4e 423e
000000d0: 7c7c ca3d d1c4 2dbe 7f8b 633e a6b4 9fbd
000000e0: 6eea a3bd 39e0 44be c9cc 47be bc82 6dbe
000000f0: 1d6d c43c ede9 3a3e a90f 003e d577 483d
00000100: b80e 733e 3a06 7c3e ada7 953d 7519 b23c
00000110: ed59 2ebe d3fc 6c3e 518d 7dbd e945 613e
00000120: 6e49 713d 608f 193e bd0c 6e3e 6b99 d1bb
00000130: 5dd4 04be fcb5 963d 807e 1dbe 431e 073e
00000140: 965a afbb 675f eabd 6017 4f3e ca3f 613e
00000150: a6ee 823d b5b6 643e e09b 463e 1b94 1d3e
00000160: 81c2 40bc 3bd4 4e3d 5f2b 5d3e fec7 243e
00000170: 73c1 393e 0d1a 193e 7ac6 bc3d 6f19 dbbd
00000180: 9ad1 493e e996 8f3c 18b8 5fbe 01f5 e1bd
00000190: eb46 263e 2bc1 543e 3de7 28be 631d b1bd
000001a0: 9043 e83d 089b 833c 645c 673e 1b23 0c3e
000001b0: 6a3f 0c3e 231e 66be 7fd1 b2bd 2b53 293e
000001c0: 1269 11be 3a41 ab3d ff20 65be 72d8 413e
000001d0: 0b53 b13d a281 a5bc 3e5c 313e f6e8 5cbd
000001e0: 8a7c b3bd 6a07 afbd b263 ae3b bc65 a63d
000001f0: ad9b 6f3e 7a03 bb3d 5652 993b 8499 3e3e
00000200: d6e8 753e 2709 ddbd 11ff 4f3e 022e 88bd
00000210: 3a62 373e 28b4 a2bd 6c25 dabc 8968 01be
00000220: a35d e2bd fc74 013e ec90 7c3e 57f2 75be
00000230: c3ac 71bd e1e7 74bd 1274 4d3e f11c 83bd
00000240: 7956 343e 2d49 69bd c9ba 32be 51c8 dabd
00000250: b1a6 4f3e fa8a 843c 43c0 ce3d 4f90 213e
00000260: e17d 2ebe 00ab 09be b1ad 79be 322f e73d
00000270: 6e84 353b 5129 5abe d695 c93d d4cf 8bbd
00000280: 4c5f 22be ffa0 88bd 4113 18be 9435 483e
00000290: 4ec1 b13d 52bd 793e e29d bdbd 5492 49be
000002a0: 0ed6 31be 8f1e bfbd 2cc1 5c3e f32a 5dbe
000002b0: 8920 193e 0cba 62bd 7517 51be 3039 e63d
000002c0: 2944 c53d c42e 7ebd 8b81 a3bd 9a38 57be
000002d0: 6af1 0cbd 2798 243e 4c6f f53d 295a 8cbd
000002e0: 83cc 363e 4abd 3d3e 834d bc3d 2851 7c3e
000002f0: afd9 d13d 49cb 123e e4f5 793e 4469 32be
00000300: aa79 f83d efba e5bd e8d8 603e 53c9 1b3e
00000310: c2b9 da3c e215 41be 352a 303e 3441 7a3e
00000320: 4248 68be e5c6 8f3d a69e 59be 72de 3a3e
00000330: 83d0 07bc 7d75 9fbc 682d 2cbd 8b4a 8cbd
00000340: 3056 95bd b4de 32be 7d89 67be 8ab7 7cbe
00000350: 8e78 debc a455 2a3e 2a07 24be c0ba 7a3e
00000360: 131e 0bbe 6485 06bc a653 f03d d2b1 413e
00000370: 555a 35be ce90 21be 56c6 703e 68f3 acbd
00000380: 1950 51be 4d31 1cbe 3041 2d3e 2931 32be
00000390: e5a6 28be 7f2c a6bd 21cb e0bd 291c 7c3e
000003a0: 5d06 5d3d ea36 c8bd d271 1e3e 19ae 923d
000003b0: 1607 ed3d 8bce cf3d 623a fa3d 166a ce3d
000003c0: f478 74be 7b11 a73d 9b87 523d 870a 773e
000003d0: a717 1d3e 0906 c43d a166 61bd 63fe 81bc
000003e0: e4b4 1e3e c3f4 613d 1c6c ec3d b341 263e
000003f0: 375d 763e cfe5 5cbd c234 7cbe 1898 f9bd
-0.17925836 0.1546473 -0.066756815 0.042348586 0.23173419 -0.09931997 -0.10657047 -0.12776273
0.13504165 0.12713717 0.12256832 -0.057144072 -0.041503284 0.04407319 -0.24768524 0.23135029
-0.13400722 0.19432081 -0.0047970037 0.10228341 0.19661425 -0.19084644 0.2395924 -0.10490863
0.049594674 0.013881291 -0.14050142 0.086614594 0.13873129 -0.056709994 -0.23067717 -0.18278848
0.0012696898 0.20325989 -0.109128416 0.048197404 0.17576812 -0.1433542 -0.22188185 0.22933765
0.1816867 -0.23767376 0.056285087 0.05665926 0.12905817 0.23692177 -0.071920164 0.08244162
0.00085991336 0.15110533 0.0007962995 0.18975423 0.09887025 -0.16969611 0.22221182 -0.07798128
-0.08003698 -0.19226159 -0.19511713 -0.23194402 0.02397781 0.18253298 0.12505974 0.048942406
0.23736084 0.2461175 0.07307372 0.021740654 -0.17026491 0.2314332 -0.061902348 0.21999325
0.05890792 0.149961 0.23247047 -0.0063964627 -0.12971635 0.073589295 -0.15380287 0.13195138
-0.005351375 -0.11443978 0.2022376 0.2199699 0.06393175 0.22335322 0.19395399 0.15388529
-0.011765123 0.050495367 0.21598576 0.16091916 0.18140201 0.14951344 0.09217544 -0.106982104
0.19708863 0.017528014 -0.2184757 -0.11033059 0.1623799 0.20776813 -0.1649446 -0.08648183
0.113410115 0.016065136 0.22593838 0.13685267 0.13696066 -0.22472434 -0.087313645 0.16535632
-0.14200237 0.0836205 -0.22375868 0.18930224 0.08658417 -0.020203415 0.17320344 -0.053933106
-0.08763988 -0.08546336 0.005321943 0.08124873 0.2339923 0.091315225 0.0046790047 0.18613249
0.24014601 -0.10792761 0.20312144 -0.066494 0.17908564 -0.07944518 -0.026629172 -0.12637533
-0.11053016 0.12642282 0.24664658 -0.24018227 -0.05900265 -0.05979145 0.20063809 -0.064020045
0.17611112 -0.05695455 -0.17454065 -0.106827386 0.20278431 0.01617955 0.10095265 0.15777706
-0.17040206 -0.13444138 -0.24382664 0.11288299 0.0027697342 -0.21304823 0.09843032 -0.068267494
-0.15856665 -0.066713326 -0.14851095 0.19551688 0.08679448 0.24388626 -0.092586294 -0.19684726
-0.17366812 -0.093320005 0.21558064 -0.21598415 0.14953817 -0.05535321 -0.20419104 0.112413764
0.09632141 -0.062056318 -0.07983693 -0.21017686 -0.034409918 0.16073667 0.11984119 -0.06853134
0.17851453 0.1852924 0.09194472 0.24640334 0.10246598 0.1433536 0.24410206 -0.17422968
0.121325806 -0.112172954 0.21957743 0.15213518 0.026699904 -0.18856004 0.172036 0.24438936
-0.22683814 0.07020358 -0.21251926 0.18248919 -0.008289459 -0.019465202 -0.04203549 -0.068501554
-0.072918296 -0.17467767 -0.22611041 -0.2467939 -0.027157094 0.16634232 -0.16018358 0.24485302
-0.13585691 -0.008210514 0.11734705 0.1891549 -0.1771024 -0.15777895 0.23513159 -0.084448636
-0.20440711 -0.15253182 0.16919398 -0.17401566 -0.16469915 -0.08113956 -0.10976244 0.24620117
0.053961147 -0.09776099 0.15473107 0.07162113 0.11573617 0.10146817 0.12218167 0.10078828
-0.23874265 0.08157631 0.051398855 0.2412511 0.15341054 0.095714636 -0.055029515 -0.015868371
0.15498692 0.055165064 0.11544058 0.16236 0.24058996 -0.0539301 -0.246295 -0.12187213

model.0.bias f4 [512]
00000000: 0099 67be 2987 16be 0d9c 51be a852 dc3d
00000010: c9b2 e8bd 98e2 d93d 4848 163c 49d8 093e
00000020: 073d 4fbe 2156 523e c205 143d 3804 a83d
00000030: 2d1a 543d 510c 96bd 058a 4d3e 9f2c 503e
00000040: e8f4 3a3e 6d47 afbc 94ce 7dbe a8fa e53d
00000050: 2575 273c b5e2 cfbc ec2c 733e b020 a23c
00000060: 4646 80bd 2c18 3d3b 2df7 7dbe c8d3 4ebe
00000070: 5ccf 743c be3f 603d d909 013e af1a 9dbd
00000080: 9d00 9d3d 0a93 8c3d 2cef 3d3e cfb2 f0bc
00000090: d8e7 29be 2cee 8c3d 887b 30bd 0ad3 0cbe
000000a0: cabb 13be 9fc5 603e 8ad6 5b3e d669 5fbd
000000b0: 57b5 0ebe b021 bf3d bb15 a43d ce87 073d
000000c0: b69a 493e 8c3c 483e 132e 0f3e 0120 473e
000000d0: cb89 263e d7d5 fcbd 1047 6fbd fbff c635
000000e0: ff1b 0bbe ac3d 1f3e b51a 6a3e 50d8 00bd
000000f0: fd2c 213e 3d08 753e a150 d63d 56d8 c83d
00000100: f4fe 52be f1d8 b63d 6857 083e 8a14 ca3d
00000110: ee54 083d afa9 40bd d732 ce3c da0d e4bd
00000120: eaac 95bd e566 17be 4901 b53d aa45 f83d
00000130: 6999 5d3e 320d 3a3e 27bd 89bd 4310 31bc
00000140: b2bc 803d 7f91 373d 05e2 563e 6879 633d
00000150: 7685 d03d eae7 42be a33d 653e 1a07 973d
00000160: 1042 1bbe 6344 563e e808 82bc 1991 c5bd
00000170: 6992 1abe adab 663d 4d12 8cbd 7863 703e
00000180: f8ed 25be 26c8 c2bb 94bd 043e 00a2 67be
00000190: 7449 873c b577 53be 33b8 3f3d b8a4 67be
000001a0: 89fb 803d c4c1 8bbd ea7f 3d3e 231a 68be
000001b0: 1a01 533d 484a 42bc 6dbe ecbd 9fe9 0ebe
000001c0: b234 223e b052 67be a1f0 4c3d 36f8 6bbe
000001d0: 1528 6dbe 1ce5 72be 5f85 263e f694 dabc
000001e0: f9a0 663d 24ea 7bbe 1a27 823d 35f2 85bc
000001f0: d582 dc3d 4019 043d 932b bbbd 8dcf a63d
00000200: 6c91 f83d 7635 163e 13d1 0dbe 52a0 393e
00000210: 6e65 103e dc3b 0a3c 47f7 893b 56ef 4bbd
00000220: 979b 263e 900e 5abe 2d58 8e3d cc4e 54be
00000230: 985a ba3d 9864 843c 8739 60bd 4da0 6abe
00000240: 4429 ebbd 508d c23d 2fee 3f3d f7d4 89bd
00000250: a91d 69bd 81b3 91bc 71fa 27be 5518 443e
00000260: 151b 04be 015d 993d f44b 79be 1b6d dcbd
00000270: e5f2 5f3d 3c60 dfbd d4c1 e83d 47d0 973d
00000280: d8b7 363c 4477 a63d 8c20 78be 500b 7cbd
00000290: 5ff2 09be dd31 d0bd ccd3 f2bd a799 b93d
000002a0: c6f5 30be db40 76be 777a 2f3e ff89 403e
000002b0: a53c 043d fdca 86bd fef0 34be 659e febd
000002c0: 4e18 173e 2d55 d2bd 1b62 3abe a946 7b3e
000002d0: a8aa 50bd fde4 923c 53b3 6a3e ce97 7c3e
000002e0: 03b8 213e e5e7 56bd 89ae 313e 8bf4 663d
000002f0: 77ab d33d 1e61 ba3d e922 70be d5ce 7a3c
00000300: 852a c53c 3745 913d c50e 463e 5455 eabd
00000310: 1f76 60be 3898 59be 4372 32be 115f 253e
00000320: 5c1e 56bd f997 413e 1ce7 1b3e eb1f 3f3d
00000330: 8742 03be 273b afbd 0280 dcbd 0a8a a2bd
00000340: e2be 7fbe 699d 3f3e 3e90 413e a075 a6bd
00000350: 793d 9a3d 60d7 503d 2202 503d 5e52 6b3d
00000360: 2ca1 43bd dd72 0ebe bb48 0d3e a4f3 933d
00000370: 40e5 d8bc c945 8a3d ff43 633e fb03 193d
00000380: b872 703e a920 dfbd 69b6 1abe ae2b cabd
00000390: 2d8a 903d 44f4 c4ba bff5 373e 357f 463d
000003a0: 673e a5bc b171 dfbd 15a4 333e 6e5f 3c3c
000003b0: f302 a9bd 2314 413e e229 03be fdea 103d
000003c0: 3ded 02be bbf0 81bd 95b7 66be 5eec 4c3d
000003d0: 6f15 1d3e 329f e93d 38e7 6fbe 7eb9 153e
000003e0: 1835 23be c3c9 eebd 3f53 4e3e e433 dcbc
000003f0: a61e 14bd 223f 303d 69f9 22be 7a5e 72bd
-0.22616959 -0.14699997 -0.20469685 0.10757953 -0.113622256 0.106389225 0.009172507 0.13461412
-0.20238124 0.20540668 0.036138304 0.0820393 0.051782776 -0.07326568 0.20072182 0.20329522
0.18257487 -0.021396363 -0.24785835 0.112294495 0.0102208005 -0.025376657 0.23747605 0.019790977
-0.062634036 0.002885352 -0.24801321 -0.20197976 0.014942016 0.05474829 0.12601413 -0.07671105
0.076661326 0.06863983 0.18548268 -0.029382138 -0.16592348 0.06881365 -0.04308656 -0.1375238
-0.14427105 0.21950386 0.21468559 -0.054544292 -0.13936363 0.09332597 0.08011957 0.033088498
0.19687924 0.19554347 0.1398242 0.19445802 0.16263501 -0.12345474 -0.05841738 1.482665e-06
-0.13584898 0.1555087 0.2286175 -0.03145629 0.15739818 0.23928924 0.104645975 0.09806888
-0.2060507 0.08928097 0.13314593 0.09867199 0.03328412 -0.047036823 0.025170727 -0.111354545
-0.07308371 -0.14785345 0.08838136 0.12122662 0.21640553 0.18169096 -0.06725531 -0.0108071
0.06285991 0.04481649 0.20984657 0.055535704 0.10181706 -0.1903378 0.22386794 0.073744014
-0.1516192 0.20924525 -0.015873387 -0.09646816 -0.15094914 0.056316067 -0.06839428 0.23475444
-0.16204059 -0.0059442697 0.12962943 -0.22620392 0.016514517 -0.20651133 0.046806525 -0.22621429
0.062979765 -0.06824067 0.18505827 -0.2266622 0.051514722 -0.01185853 -0.11559758 -0.13956307
0.15840414 -0.22590137 0.05003417 -0.23043904 -0.23159821 -0.23720211 0.16261815 -0.026682358
0.05630586 -0.24601036 0.06355114 -0.016350845 0.10767142 0.032250643 -0.091391705 0.08145056
0.12137112 0.14668831 -0.13849287 0.18127564 0.14101192 0.008437123 0.004210386 -0.049788795
0.1627029 -0.21294618 0.06950412 -0.20733184 0.09099311 0.016161248 -0.054742362 -0.22912712
-0.1148248 0.094996095 0.04685801 -0.06730073 -0.05691305 -0.01778579 -0.1640413 0.19149907
-0.12900956 0.07488442 -0.2434538 -0.10762998 0.054675 -0.10907027 0.11365095 0.074127726
0.01115223 0.08128217 -0.24231166 -0.061534226 -0.13471363 -0.10165761 -0.11856803 0.0906251
-0.17281255 -0.24048178 0.1713656 0.18802641 0.032284398 -0.06581686 -0.17670056 -0.12432555
0.14755365 -0.10270152 -0.18201487 0.24538673 -0.050944 0.017931456 0.2291997 0.24667284
0.15792851 -0.052467246 0.17351736 0.056385558 0.10335439 0.09100555 -0.23450817 0.015308102
0.024068126 0.0709328 0.19341572 -0.11442056 -0.2192006 -0.21249473 -0.174264 0.16149546
-0.052275047 0.18905629 0.1522488 0.0466613 -0.12818347 -0.08556204 -0.10766603 -0.07936485
-0.2497516 0.18712391 0.1890268 -0.08127904 0.07531256 0.050986648 0.050783284 0.0574516
-0.047761127 -0.13911004 0.13797276 0.07224205 -0.026476502 0.06751592 0.22193907 0.03735731
0.23481262 -0.10894901 -0.15108646 -0.098716125 0.07057605 -0.001502641 0.17964838 0.048461158
-0.020171357 -0.10910357 0.17543061 0.011497362 -0.08252516 0.18855338 -0.12808946 0.035380352
-0.12785812 -0.06344744 -0.22530968 0.050030105 0.15340208 0.11407317 -0.23428047 0.14621541
-0.15938222 -0.11659577 0.20148943 -0.026880212 -0.03616204 0.04302896 -0.15915455 -0.05917213

model.1.weight f4 [512]
00000000: d511 803f dbee 7f3f 6699 7f3f ee20 803f
00000010: 9c0b 803f 74ed 7f3f c0c6 7f3f 0a1b 803f
00000020: 42ea 7f3f ee55 7f3f e5e8 7f3f 63f9 7f3f
00000030: eb31 803f 24f3 7f3f 0eac 7f3f d483 7f3f
00000040: e0f9 7f3f c5a5 7f3f e413 803f 2097 7f3f
00000050: c8ab 7f3f 4421 803f 2448 803f 1440 803f
00000060: c903 803f bb0c 803f 9fcf 7f3f 12a6 7f3f
00000070: 4946 803f fdad 7f3f 243a 803f ac18 803f
00000080: 8df2 7f3f 7ead 7f3f bd2e 803f cfaa 7f3f
00000090: 9a01 803f bd24 803f 7f10 803f ea32 803f
000000a0: 703a 803f 238c 7f3f 360b 803f 59c0 7f3f
000000b0: 6cf1 7f3f 8b24 803f 1f9d 7f3f 3bca 7f3f
000000c0: 8702 803f 4c6c 7f3f d71f 803f 0003 803f
000000d0: 6f19 803f 5d1c 803f 1e87 7f3f 9cdb 7f3f
000000e0: 9224 803f 621c 803f fdbf 7f3f 10a7 7f3f
000000f0: 1fa4 7f3f bc27 803f 0b1e 803f a4eb 7f3f
00000100: f4af 7f3f d00a 803f a646 803f e2ea 7f3f
00000110: 55cc 7f3f 3a08 803f a61c 803f ce45 803f
00000120: 77b1 7f3f 372f 803f 29fe 7f3f c9c0 7f3f
00000130: 1f97 7f3f 0b29 803f 8a20 803f 610c 803f
00000140: 28de 7f3f 0f20 803f eb09 803f d425 803f
00000150: e307 803f 5525 803f 6614 803f d10a 803f
00000160: 7688 7f3f bb14 803f c02f 803f 3173 7f3f
00000170: fa4d 803f ab06 803f 9a16 803f bb43 803f
00000180: 80b8 7f3f 0301 803f ca3d 803f 5844 803f
00000190: 03ad 7f3f fa19 803f 6192 7f3f 3b30 803f
000001a0: 410e 803f 17b8 7f3f ff2d 803f ab85 7f3f
000001b0: d2d2 7f3f 4dae 7f3f 4302 803f b1b0 7f3f
000001c0: d424 803f d06d 7f3f 3091 7f3f 703e 803f
000001d0: 8fb5 7f3f be24 803f ebf6 7f3f 0bbd 7f3f
000001e0: 75fa 7f3f cf36 803f b5cc 7f3f 7eef 7f3f
000001f0: a803 803f aee0 7f3f 41ff 7f3f 951a 803f
00000200: 9656 803f 8125 803f f72c 803f f124 803f
00000210: 9e3e 803f 0a06 803f 5f43 803f ffd1 7f3f
00000220: e193 7f3f f995 7f3f 3ca9 7f3f 34d1 7f3f
00000230: 551e 803f b4cf 7f3f 9e76 7f3f b627 803f
00000240: 9609 803f bc9e 7f3f feb3 7f3f 7d26 803f
00000250: 04e4 7f3f 6803 803f 1395 7f3f 04ab 7f3f
00000260: beea 7f3f 8efd 7f3f 85db 7f3f 050b 803f
00000270: ad38 803f b1e0 7f3f 04bd 7f3f 9dfa 7f3f
00000280: 7be6 7f3f 314f 803f 292b 803f 29ad 7f3f
00000290: 6f45 803f 9c3e 803f 6411 803f a8f7 7f3f
000002a0: 01f9 7f3f 73f4 7f3f de06 803f dfd4 7f3f
000002b0: fcb9 7f3f 9527 803f 8fd0 7f3f 3e28 803f
000002c0: 0149 803f 3776 7f3f 9dc0 7f3f 3f1e 803f
000002d0: 881a 803f c0b0 7f3f 0c45 803f 816d 7f3f
000002e0: 6735 803f 213a 803f 16aa 7f3f 421e 803f
000002f0: c533 803f 8e7b 7f3f 5638 803f f01e 803f
00000300: 26d2 7f3f 704e 803f b988 7f3f b1d9 7f3f
00000310: a25c 803f bb93 7f3f 1ce5 7f3f 94d9 7f3f
00000320: 5d9a 7f3f 4f0b 803f 9f0a 803f 0be1 7f3f
00000330: 4e3e 803f 858d 7f3f 15de 7f3f db3c 803f
00000340: d333 803f 9cf0 7f3f 6eeb 7f3f 77b8 7f3f
00000350: 7437 803f ddc1 7f3f 4d2c 803f 0898 7f3f
00000360: 6c44 803f 1c21 803f e126 803f c501 803f
00000370: 0524 803f a1be 7f3f 299a 7f3f e7f2 7f3f
00000380: ebf8 7f3f 9d35 803f e3d1 7f3f ce6a 7f3f
00000390: 1d54 7f3f 1012 803f 26b5 7f3f d91f 803f
000003a0: 191f 803f 5b46 803f f4e0 7f3f bc8d 7f3f
000003b0: 55d2 7f3f 122f 803f a9d0 7f3f 9535 803f
000003c0: 67c8 7f3f a190 7f3f bf07 803f 9ae5 7f3f
000003d0: b996 7f3f bfc0 7f3f 0243 803f 48c8 7f3f
000003e0: 560c 803f ad06 803f 281c 803f a432 803f
000003f0: 4e0d 803f bb40 803f ba1f 803f 9df2 7f3f
1.0005442 0.9997384 0.9984344 1.0010049 1.0003543 0.999717 0.99912643 1.0008252
0.99966824 0.99740493 0.99964744 0.9998991 1.0015234 0.9998038 0.9987191 0.9981053
0.99990654 0.9986232 1.000607 0.99839973 0.9987149 1.0010152 1.0022016 1.0019555
1.0001155 1.0003885 0.9992618 0.9986278 1.0021449 0.9987486 1.0017743 1.0007529
0.9997948 0.99874103 1.0014263 0.9987001 1.0000489 1.0011212 1.0005034 1.0015538
1.0017834 0.99823207 1.0003421 0.99902874 0.99977756 1.0011152 0.9984912 0.99917954
1.0000771 0.9977462 1.0009717 1.0000916 1.0007762 1.0008656 0.9981555 0.9994447
1.001116 1.0008662 0.99902326 0.9986429 0.99859804 1.0012126 1.0009168 0.99968934
0.9987786 1.00033 1.002156 0.9996778 0.9992116 1.000251 1.0008743 1.0021303
0.99880165 1.0014409 0.9999719 0.9990354 0.9983997 1.0012525 1.000993 1.0003778
0.9994836 1.0009784 1.0003027 1.0011544 1.0002407 1.0011393 1.0006225 1.0003301
0.998176 1.0006326 1.0014572 0.99785143 1.0023797 1.0002035 1.0006897 1.002067
0.998909 1.0000309 1.0018857 1.0020857 0.9987337 1.0007927 0.9983273 1.0014719
1.000435 0.99890274 1.0014037 0.99813336 0.9993106 0.99875337 1.000069 0.99878985
1.0011239 0.99776936 0.99830914 1.0019054 0.9988641 1.0011213 0.9998614 0.9989783
0.9999154 1.0016726 0.99921733 0.9997481 1.0001116 0.9995221 0.9999886 1.0008112
1.0026424 1.0011445 1.0013722 1.0011274 1.0019109 1.0001843 1.002056 0.99929804
0.9983502 0.99838215 0.99867606 0.99928594 1.0009257 0.99926305 0.9979037 1.0012119
1.0002925 0.99851584 0.9988402 1.0011746 0.999573 1.000104 0.99836844 0.99870324
0.99967563 0.9999627 0.99944335 1.0003363 1.0017296 0.99952227 0.9989779 0.9999178
0.9996106 1.0024167 1.0013171 0.99873596 1.002119 1.0019107 1.0005307 0.9998727
0.99989325 0.99982375 1.0002096 0.9993419 0.99893165 1.001208 0.9992761 1.0012281
1.0022279 0.99789757 0.9990328 1.000923 1.0008097 0.99879074 1.0021071 0.99776465
1.0016297 1.001774 0.99868906 1.0009234 1.0015799 0.99797904 1.0017192 1.0009441
0.99930036 1.0023937 0.99818 0.99941546 1.0028269 0.99834794 0.9995897 0.9994137
0.99844915 1.0003451 1.0003241 0.99952763 1.0019014 0.99825317 0.99948245 1.0018572
1.0015815 0.99976516 0.9996861 0.99890846 1.0016923 0.99905187 1.001352 0.99841356
1.0020881 1.0010104 1.0011865 1.000054 1.0010992 0.9990025 0.99844605 0.99980015
0.99989194 1.0016361 0.99929637 0.99772346 0.9973772 1.0005512 0.99885786 1.0009719
1.000949 1.0021471 0.99952626 0.99825644 0.99930316 1.0014365 0.99927765 1.0016352
0.99915165 0.9983006 1.0002364 0.9995972 0.9983936 0.9990348 1.0020449 0.9991498
1.0003765 1.0002037 1.0008593 1.0015454 1.000406 1.0019754 1.0009682 0.99979573

model.1.bias f4 [512]
00000000: 679a 27b9 bfa0 373a cdc5 5b3a c81f 6f3a
00000010: 9534 aeba 2de4 ffb9 1c39 dcba 06c1 b8ba
00000020: 94e2 173a f5cb f4ba ab3b 4ab9 8227 e8b9
00000030: e766 483a 102b 9539 de2b 9fba 0aaa b039
00000040: 3a6c a339 8671 c8ba 0252 a839 4c47 9c37
00000050: 383e 71ba 0822 c53a 1956 5039 1d64 a63a
00000060: b182 053a 5d14 213a a114 df39 e955 02bb
00000070: 11d5 9c3a f866 21ba 9913 0d3a c35b 7b38
00000080: f4e4 df39 2c39 47ba 0bee ea3a b2a5 38ba
00000090: a97a da38 e1e9 ba38 e7ea 103a 89bf 863a
000000a0: 5156 c03a c275 ddb9 66e4 f5b8 a382 99ba
000000b0: d67f f5b9 017a 673a cede afba f4e8 07bb
000000c0: 8423 a8b6 a913 08bb 816c 87ba 452e 8239
000000d0: d817 73b9 00db 7233 52b3 abba d418 65ba
000000e0: 0096 943a 17e5 863a 2372 51ba 6305 84b9
000000f0: 285a 9bba be6b c13a 28e2 913a aded 8bba
00000100: a111 3bba 4601 2f3a fb3c 153b 9c3a 20ba
00000110: 61a1 fcb9 de69 1539 8c79 a939 7a7a dc3a
00000120: ea91 bbba c344 4fba 4551 fe38 9086 76ba
00000130: d659 d139 16fb b03a 3acb 073a 1f18 1eb8
00000140: d202 aeb9 a973 8f3a f108 85ba f7d8 263a
00000150: 132f 74b8 ec7a c63a 9ecc 693a 18e5 4139
00000160: 62c0 9bba a452 de3a 4b8f ad3a 3cc3 b0ba
00000170: 652f 423a b7bf abb9 b7a0 253a 3147 cf3a
00000180: 1157 82ba 05ee 43ba bd4a 7e3a 6111 313a
00000190: 491e 2aba 0f4e 25ba 56c9 c5ba 027f e039
000001a0: d27c 9bb6 5457 98ba d497 00b9 8622 daba
000001b0: b147 14ba becf 07ba 06cb 8139 d087 f0ba
000001c0: 093b af3a eac2 f8ba 9951 06ba 93b0 27b9
000001d0: a4ff 5839 4b0f af3a f522 87b9 da9d 98ba
000001e0: 47f4 72ba d88c 9c3a 84bd 94b9 641f ceba
000001f0: c69a 98b9 7f50 46ba c3b6 9939 f06d 003b
00000200: cd93 0b3b d41d aa3a ebfc d53a c40f 9e3a
00000210: 7b9b 4f3a 4dd6 98ba 4342 cb3a 5a33 8bba
00000220: c00c ffba 0239 adba d5df 89ba 7ef8 a1ba
00000230: 802e 38ba 7535 aaba ea80 e6ba 43d8 a63a
00000240: e755 67ba 2e70 6aba 1640 6aba ee3f 0d3a
00000250: 1686 32ba 89ae 373a 44c8 98ba baf8 96ba
00000260: 4642 d7b9 d2cf 3139 6384 c439 5ae9 063a
00000270: 644a 513a a0d1 87ba 618a 31ba e0cc 4eb9
00000280: 467c 49ba 8dea 24b9 c716 95ba 9654 e5ba
00000290: 92c3 c8b9 f109 253a f2ee c0b9 2231 98b9
000002a0: c993 78ba 34c7 503a 181d 403a 0018 e2ba
000002b0: 0c5d 4bba becb 683a e350 a4ba cb09 1f3a
000002c0: 1885 963a 3156 92ba 5705 a9ba 3b9d cfb9
000002d0: 6125 033a c9c5 93ba 8ece 3d3a 32c1 b4ba
000002e0: ce78 ac3a 7cca b73a 3a39 ecba a5ff 413a
000002f0: 52fb dfb9 21a0 89ba b901 463a d803 4539
00000300: 9aa4 fab9 9000 a63a 9e54 87ba fa7c a738
00000310: 633b 903a 1f0e aeba 8285 e8b9 a251 13ba
00000320: f6d1 6cba 4c48 6638 cbb6 dd39 d4a2 55ba
00000330: 6b4a 5f3a 282e 8dba ba9a 9dba 38b4 013b
00000340: c588 843a 8b4f 0039 6ca0 8fba d7cd 64ba
00000350: 5bbe cb3a b9b5 973a 0ad6 8e3a beb9 adba
00000360: 979e 313a 75df 783a 2874 d43a 4f85 7638
00000370: c567 9839 f6d9 70ba cbd3 69ba 1cf2 a2b9
00000380: ae0c 343a 39de b73a a2a7 9cba 14e4 c5ba
00000390: 9bc6 1bbb c2aa d6b7 0021 6fba cb50 a439
000003a0: 563d 7939 9838 a53a 1afa d5b9 3955 52ba
000003b0: 49c7 97ba 67f9 a839 ebfc aaba c6bd ae39
000003c0: d8b0 a9ba 1931 dbb9 ddcd 2bb9 5157 4aba
000003d0: a243 e839 8d97 4aba 1e7c d33a 2423 74b9
000003e0: 1efb a73a 34a2 493a 3481 8339 1c32 2b3a
000003f0: 2ee7 a5b9 f2b3 893a 6cb3 48b9 b42c 80b9
-0.0001598388 0.0007004849 0.00083836616 0.0009121862 -0.0013290817 -0.00048807394 -0.0016801688 -0.0014095611
0.00057939556 -0.0018676507 -0.00019286449 -0.00044279924 0.0007644728 0.0002845158 -0.0012143811 0.00033696025
0.00031170418 -0.0015292622 0.00032104558 1.862985e-05 -0.0009202692 0.0015040049 0.000198685 0.0012694631
0.0005093022 0.0006144697 0.00042549244 -0.0019887632 0.0011965354 -0.0006157006 0.00053816434 5.9928523e-05
0.00042704458 -0.0007599767 0.0017923726 -0.00070437335 0.00010417897 8.9127345e-05 0.0005528167 0.0010280471
0.0014674162 -0.0004224014 -0.00011725053 -0.0011711906 -0.00046825287 0.00088301307 -0.0013417841 -0.0020738216
-5.0109247e-06 -0.0020763671 -0.0010332019 0.00024830006 -0.00023183168 5.6544195e-08 -0.0013099706 -0.00087393564
0.0011336207 0.0010291663 -0.0007989725 -0.00025181015 -0.001185243 0.0014756841 0.0011130022 -0.0010675691
-0.0007136111 0.000667591 0.0022771943 -0.0006112249 -0.00048185422 0.00014249186 0.0003232475 0.0016821169
-0.0014310454 -0.00079066696 0.000121268014 -0.00094042066 0.0003993052 0.0013502564 0.00051801244 -3.76926e-05
-0.00033189968 0.0010944504 -0.001014976 0.0006364728 -5.8217975e-05 0.0015142835 0.0008918735 0.00018491258
-0.0011882896 0.0016961885 0.0013241557 -0.0013485919 0.0007407575 -0.000327585 0.0006318199 0.0015814063
-0.0009944161 -0.00074741273 0.0009700468 0.0006754604 -0.0006489498 -0.0006305882 -0.001508991 0.00042819238
-4.633891e-06 -0.0011622705 -0.00012263592 -0.0016642369 -0.0005656435 -0.00051807973 0.00024756062 -0.0018351022
0.0013369034 -0.0018978987 -0.00051238533 -0.0001599214 0.00020694599 0.0013355998 -0.00025775252 -0.0011643723
-0.00092679675 0.001194383 -0.0002836996 -0.0015725908 -0.00029107014 -0.00075650954 0.00029318602 0.0019596778
0.0021297813 0.001297886 0.0016325986 0.0012059142 0.0007919592 -0.0011660546 0.0015507418 -0.0010620162
-0.0019458756 -0.0013215842 -0.0010518978 -0.0012357382 -0.0007025972 -0.0012985902 -0.0017586027 0.0012729246
-0.0008824751 -0.00089431077 -0.0008935941 0.00053882494 -0.00068101415 0.0007006904 -0.0011656363 -0.0011518218
-0.00041057373 0.00016957454 0.0003748267 0.00051464664 0.00079838024 -0.0010362156 -0.0006772634 -0.00019722013
-0.00076860597 -0.00015727636 -0.0011374586 -0.0017496522 -0.00038292684 0.0006295732 -0.00036799122 -0.00029028306
-0.0009482471 0.0007964254 0.0007328554 -0.0017249584 -0.00077577005 0.00088804576 -0.0012536313 0.0006066828
0.0011483757 -0.0011164603 -0.0012895268 -0.00039599263 0.00050028233 -0.0011274155 0.0007240557 -0.0013790487
0.0013158561 0.0014022137 -0.0018022426 0.000740046 -0.00042721123 -0.0010499993 0.0007553357 0.00018788816
-0.00047806354 0.0012664963 -0.00103249 7.986459e-05 0.0011004027 -0.0013279355 -0.0004434996 -0.0005619769
-0.0009033972 5.4903605e-05 0.00042288596 -0.00081495685 0.0008517864 -0.0010771202 -0.0012024262 0.0019791257
0.0010111561 0.00012236663 -0.0010957844 -0.00087281823 0.0015544401 0.0011574543 0.0010897529 -0.0013254208
0.0006775646 0.0009493747 0.0016208934 5.8775124e-05 0.00029069014 -0.0009187752 -0.0008919804 -0.00031079433
0.00068683445 0.001402802 -0.0011951814 -0.001509788 -0.00237695 -2.5590303e-05 -0.0009122044 0.00031340713
0.0002376934 0.0012605367 -0.00040812866 -0.00080235634 -0.0011579777 0.00032229276 -0.0013045346 0.00033329258
-0.001294638 -0.00041807516 -0.00016384521 -0.00077186996 0.0004430088 -0.00077282713 0.0016135012 -0.00023282744
0.0012815928 0.00076917117 0.0002508253 0.0006530599 -0.00031643495 0.0010505898 -0.00019140326 -0.0002444737

model.1.running_mean f4 [512]
00000000: d490 5cbe 43f6 21bd b9ba 3dbd da8b 043d
00000010: 6570 fb3e b70c 323f 4ec1 923d 99c3 1c3e
00000020: 7007 11be 8c56 813d 6581 adbe 528f b23e
00000030: 1386 bd3e 6d28 8cbe a92f 6c3e 3739 e53e
00000040: 714c 84be b57b a13e d1d3 87bd 8f47 f33d
00000050: b09f 933e c3d2 df3d 8302 8d3e 2b17 843e
00000060: 2368 353e 9a34 50be 2551 d9bd 905d 823c
00000070: 7430 063d 8a78 5a3e 5cfb 4a3e 64a0 9bbd
00000080: 5a44 0b3e 6271 6c3e 113b 25bd d0a8 7bbe
00000090: b36f d93e d7d9 a73e 9a88 c23c e07a 06be
000000a0: 5602 16be 75ab a53b 608f 19be 8ccd 39bf
000000b0: 6a46 623d 7328 9cbe a847 033f 698b c4bd
000000c0: 87c1 833e 8085 043f 384a 133f f50f e43d
000000d0: 4dce 8bbd 6196 debd 8533 ccbe 4227 3e3e
000000e0: 2130 5e3e f7ca b73e a275 a2be e660 68bd
000000f0: 2962 81bd 399a 563e 6c76 f83c e1f5 083e
00000100: 35b7 4cbd 4e14 f3bc 9c8f c53e 9baa 1b3e
00000110: 1b02 3f3e b645 97bd 3794 0c3e da0d 40bf
00000120: a55c 17be 27b0 a33d 9143 333d ca2f 823e
00000130: cc80 dc3e 7785 843e 7c6b f4bd ef11 c9b8
00000140: cdb1 1abe d6e9 023f f723 263e b831 083d
00000150: 8439 8b3e 5c7d 2abe 20ea 8d3e 3e70 c3bc
00000160: b47c 35bd a9f9 f63e f135 8b3d a342 103e
00000170: 7085 14bf e399 e1bc b5a3 573d ad6e f43e
00000180: c67f 053e 8ff4 a93d deae 0c3f f8f6 debe
00000190: 9d23 8fbe a7db d63d 4168 58bb e859 52bd
000001a0: 01f3 903e 6039 a63e b9d9 043f edf4 1dbf
000001b0: 6d9e 3cbe 076e fb3d b593 7e3d cb51 8b3b
000001c0: d206 f93e 30b8 223e 7e2d ac3e b7af d8be
000001d0: ff2c 73be 7bfe 073e fc5c 153e f9be 1fbe
000001e0: 39c5 12bf c3cb f5bd 8201 a7be 536c d3bd
000001f0: d2ee c53e 1932 093d 9c4b 94bd b851 8b3e
00000200: 7939 61be 893f 9c3d eedb 16be 1aaa 68bc
00000210: 62d7 0dbe b452 3c3e f8fc 343e fb72 a83e
00000220: f038 fabe eaf9 23be 298d b6be 40f8 1dbf
00000230: 38e4 823d 8726 153e 221f e1be 05b9 57bd
00000240: 77af e93c 95ca 51bd 4e42 4fbe 2234 6c3d
00000250: c0bf f4be 042b 693e 1c39 3c3e 0136 823e
00000260: c001 4fbe e29c 83be ac97 70be d30c 74be
00000270: aa03 873e 2abe f4bc 5fb0 18be ce8a 16be
00000280: 0b1d 3f3e edc2 d9be 15de 80be f18c 1b3f
00000290: fcdc 4dbd 7df9 c1be 23c9 1b3e 2bcd f93d
000002a0: 87eb c7bd 6da8 c6bc 1f05 adbd 2b11 323f
000002b0: 3ef1 f63d a72e ac3e 90e3 58be 4a87 58be
000002c0: e4ee 25be a038 83bd 2698 25be bd9e e43e
000002d0: b514 95bd 8fa1 dabe 8464 5a3d 7ed9 ac3e
000002e0: cf91 053f 1a6e 93bd 2417 92be 86ca cf3d
000002f0: e5d8 a33d cd95 503e d999 5bbe 1eed c4bc
00000300: ea72 00bf cb2f 25be 5b41 7e3d 2aff e2bc
00000310: a6ca 62be e842 f4be 4aac 3cbe 36fb 393e
00000320: a2d5 1bbd 3202 fc3e c9a5 b63e e8be e3bd
00000330: 29bf 5e3e 6d33 d63c fa96 e7bd 931b a73e
00000340: 7ac7 12bf f392 23bd cf2f fd3d 0391 80be
00000350: e15f 94bd 57a9 c1be 0ad0 0d3d e179 34be
00000360: de31 c4be 18cb efbd 2a0d 4b3e ead9 aa3e
00000370: 465a 25be 45a5 32bc 0814 b43e a8fb adbe
00000380: 9e43 e13c 58d3 9bbe f8b9 d13d 44ca a1be
00000390: aab4 263d fd48 71be ca4c a03e b0f5 8b3e
000003a0: 46c5 f33c c267 63bd d969 2d3e 2864 d0be
000003b0: 9b71 cd3d 1b62 7a3c 9583 67be d66a cd3d
000003c0: 7013 c8bb 17fc 36be 1d7f 06bf b6e9 223e
000003d0: 98f4 a83e e199 b2bc a89a a7bd 9461 71be
000003e0: b194 e43d baec a23e 2b9d a43d 8630 ad3d
000003f0: f665 353e 8271 f03d b963 2abe 3f6e 83bd
-0.21539623 -0.039541494 -0.04632065 0.032359935 0.49109188 0.6955065 0.07165776 0.1530899
-0.14162993 0.06315336 -0.33887783 0.3487497 0.37016353 -0.27374592 0.23065056 0.44770214
-0.2583957 0.31539693 -0.06632198 0.11878883 0.2883277 0.109288715 0.2754098 0.25798926
0.17715506 -0.20332566 -0.1061118 0.015913755 0.032761052 0.21335045 0.19822448 -0.075989515
0.13600293 0.23090127 -0.040339533 -0.24576116 0.42468032 0.32783386 0.023746777 -0.1313281
-0.14649329 0.0050558397 -0.149961 -0.72579265 0.055242933 -0.3049961 0.51281214 -0.09596903
0.25733587 0.51766205 0.57535124 0.11135856 -0.06826458 -0.10868526 -0.39883056 0.18569663
0.21698047 0.35897037 -0.31730372 -0.056733035 -0.06317551 0.20957269 0.030329905 0.13375045
-0.049979407 -0.029672768 0.38586128 0.152018 0.18653147 -0.07386343 0.13728414 -0.75021136
-0.14781435 0.07992583 0.04376561 0.25427085 0.43067014 0.25883076 -0.119345635 -9.587767e-05
-0.15106888 0.51138055 0.16224657 0.03325054 0.27192318 -0.16649383 0.27717686 -0.023857232
-0.04430838 0.4823735 0.06797398 0.1408792 -0.5801611 -0.0275392 0.052646358 0.4774069
0.13037023 0.08298599 0.54954326 -0.43547797 -0.27956858 0.10491114 -0.0033021125 -0.051355273
0.28310397 0.3246565 0.5189472 -0.6170185 -0.1841981 0.122768454 0.062152583 0.004251694
0.48638016 0.15890574 0.33628458 -0.4232156 -0.23747633 0.1328067 0.14586252 -0.15600194
-0.5733219 -0.12001755 -0.32618338 -0.103233956 0.38658768 0.033495042 -0.07240984 0.27210784
-0.2199458 0.07629306 -0.14732334 -0.014200712 -0.13851693 0.18390924 0.17674625 0.32900223
-0.48871565 -0.16013303 -0.35654572 -0.61706924 0.063911855 0.14565478 -0.43969065 -0.052666683
0.028526051 -0.051218588 -0.20240137 0.057666905 -0.47802544 0.22770315 0.1838116 0.25431827
-0.20215511 -0.2570563 -0.23495358 -0.23833017 0.26369983 -0.029875834 -0.1491103 -0.14701387
0.18663423 -0.4253153 -0.25169435 0.60761935 -0.050259575 -0.37885657 0.15213446 0.12197336
-0.0976172 -0.024250234 -0.084482424 0.69557446 0.12057732 0.33629343 -0.21180558 -0.21145359
-0.16204411 -0.06407285 -0.16171321 0.44652358 -0.0727934 -0.42701384 0.053318515 0.33759683
0.5217561 -0.071987346 -0.2853328 0.1014605 0.08000354 0.20369644 -0.21445407 -0.024038848
-0.50175345 -0.16131513 0.062074047 -0.027709562 -0.22147617 -0.47707295 -0.18425098 0.18162236
-0.038045533 0.49220425 0.3567336 -0.11120397 0.2175261 0.026147569 -0.11308093 0.32638225
-0.5733563 -0.039935064 0.123626344 -0.25110635 -0.0724485 -0.3782451 0.03462223 -0.17624618
-0.38319296 -0.11708659 0.1982924 0.3336938 -0.16147718 -0.010903661 0.35171533 -0.3398106
0.027498063 -0.3043468 0.10240549 -0.3159963 0.04069964 -0.23562999 0.31308585 0.27335882
0.029757153 -0.055518873 0.16934909 -0.40701413 0.10031434 0.015282179 -0.22608788 0.10030143
-0.0061058328 -0.17869602 -0.5253771 0.15909466 0.3299911 -0.02180189 -0.08183795 -0.2357238
0.11161173 0.31821233 0.0803779 0.08456521 0.17714676 0.117404 -0.16639604 -0.06417512

model.1.running_var f4 [512]
00000000: 9328 103d 565a 0b3d 3078 163d 1ab4 273d
00000010: 3bec 443d d66c 1c3d 9e2a 323d bf0c 203d
00000020: d6bd 3c3d 477f 233d 6a85 573d ed28 363d
00000030: 0ad5 3a3d 01a4 3f3d 9cfe 293d 0b6c 1a3d
00000040: e314 103d 9056 173d ee9d 083d 2445 243d
00000050: c7e3 ec3c bbc7 2e3d 14b2 363d 25fa 203d
00000060: 84be 143d 8633 373d 5426 143d 700a 253d
00000070: 0adb 103d 8aac 263d 9cc3 423d 39d5 253d
00000080: d656 1e3d 6e2e 043d dcd2 0e3d 50d5 1d3d
00000090: 7860 4a3d 1a7d 2d3d 53b6 1c3d ef6a 063d
000000a0: 7b6e 213d b65d 183d aed6 163d f426 1c3d
000000b0: 7cdf 383d 7351 163d 9dc7 1b3d 5e67 303d
000000c0: 4d18 153d 05ec 1c3d 1cb6 143d 5093 2c3d
000000d0: bc36 103d e2f6 383d e238 163d 0026 0f3d
000000e0: a1bf 253d 10d8 103d 628f 643d ccac 0a3d
000000f0: 4d48 143d 0d22 1d3d e4e9 173d 8528 1d3d
00000100: 5e88 fb3c 8b15 1f3d 87e5 273d 6fcd 063d
00000110: c0c8 263d 3665 273d bc68 103d 8289 3f3d
00000120: 6561 3b3d d9e8 0a3d e75e 2e3d 60d4 123d
00000130: faae 273d 1039 ff3c 4170 173d 2307 363d
00000140: 83a4 323d e60f 363d 4e05 063d 3d75 073d
00000150: b300 2d3d 20d9 2e3d 75fe 4a3d 81d3 2c3d
00000160: 5203 233d 75ff 293d a4b3 133d d74e 253d
00000170: 1e0e 2e3d bc2c 093d c197 173d 0489 2c3d
00000180: 4f27 2a3d 594e 253d bc11 1c3d 98b4 2b3d
00000190: 59bb 243d dee3 393d d38e 243d 6746 233d
000001a0: 58c4 2b3d 325f 343d 0e75 103d d2d3 0a3d
000001b0: 4a91 153d b86e 1d3d 44bc 1a3d 533d 3e3d
000001c0: 5035 173d aabb 433d 05b9 233d 51d2 0a3d
000001d0: 67dc 203d cb69 303d 09d2 283d 5c7b 273d
000001e0: 0917 333d 2b63 2f3d 61aa 1d3d 9569 373d
000001f0: 81c0 073d a818 013d 7129 313d cf8c 2e3d
00000200: aa72 1c3d 4c25 2a3d e4b0 0c3d 7fc3 1b3d
00000210: 01ef 2c3d c86d 163d 107a 223d d7dc 293d
00000220: 65a2 3d3d 2c7c 2a3d 5cf8 373d ef97 1d3d
00000230: 6b19 0d3d b975 233d eaf1 343d 03b7 163d
00000240: 9f8b 0e3d 1702 2f3d 7aae 093d 5896 253d
00000250: 3a1f 1b3d 8133 253d 1fe9 093d c041 103d
00000260: 7527 353d 5c3e 1c3d 2d5e 0f3d 6740 063d
00000270: f10b 213d 70ad 263d c053 1e3d 71a7 363d
00000280: f66f 0a3d 90f8 543d 6167 103d 4a32 313d
00000290: 83e9 193d f850 2e3d d906 463d 988e 333d
000002a0: e2d5 2e3d 6079 163d 8d90 143d 036d 453d
000002b0: ee25 433d 3de5 103d eb68 243d 8217 153d
000002c0: accd 1d3d 6cf0 223d 84ca 163d 2676 233d
000002d0: 4f07 033d 0ef2 183d 2206 133d 5d19 433d
000002e0: 9e51 103d 2f7c 293d 5b4a 2b3d 218f 1a3d
000002f0: c2e8 1e3d 993b 173d 5646 353d 8403 023d
00000300: 489e 233d 3165 1d3d 103a 163d 2b77 223d
00000310: ca58 1b3d 6acb 0b3d b477 1b3d 711e 093d
00000320: be5b 073d db76 163d 3c5e 303d ce20 213d
00000330: 0ff0 313d 0259 293d 8ee6 ff3c cc48 3a3d
00000340: 7478 2b3d 9f09 1f3d a0e7 2d3d 0548 103d
00000350: a222 153d 4648 153d 502c 2b3d c1db 1b3d
00000360: 2bff 5a3d 510d 1c3d 71ff 143d 6e91 2f3d
00000370: 9897 093d 2da9 233d 69d4 103d a8f0 203d
00000380: 6b8a 133d 6d0a 3a3d d0f8 173d 96d6 0b3d
00000390: e74e 213d fb4d 1b3d 72fe 203d 54d5 163d
000003a0: 3189 243d 6c5e 193d 480c 1f3d 8ad4 223d
000003b0: a6a9 2c3d aaed 1e3d a499 273d c25b 243d
000003c0: ff17 0d3d 896b 433d bfc7 253d 1ca6 0d3d
000003d0: 745f 193d e86d 183d bf45 243d 9c13 293d
000003e0: 3ad0 323d ab09 1e3d b0da 4b3d bd8e 1b3d
000003f0: d5d2 253d 29b3 0b3d d062 153d 3987 273d
0.035194945 0.034021698 0.036735713 0.040943243 0.04807685 0.03818973 0.043497674 0.039074656
0.04607948 0.039916303 0.052617468 0.044472624 0.045613326 0.046787266 0.04150258 0.037700694
0.03517617 0.036947787 0.03335374 0.040105 0.028917206 0.042670947 0.044603422 0.039301056
0.036314502 0.04472687 0.036169365 0.040293157 0.035365142 0.04069189 0.04754983 0.040486548
0.038657032 0.03227084 0.03486906 0.03853351 0.049408406 0.042355634 0.038259815 0.032816824
0.039412003 0.037198745 0.03682583 0.038123086 0.045135006 0.03669877 0.038032163 0.04306733
0.03640013 0.038311023 0.036306486 0.042132676 0.03520845 0.04515732 0.03667534 0.03494835
0.040465955 0.035362303 0.055800803 0.0338562 0.036201764 0.03836255 0.03708829 0.03836872
0.030704673 0.038838904 0.04099038 0.03291076 0.040718794 0.040868007 0.035256132 0.046761997
0.04574718 0.033913467 0.042570975 0.035847068 0.040938355 0.03115514 0.036972288 0.0444404
0.04361392 0.044448756 0.032719903 0.03307079 0.042236995 0.042687535 0.049559075 0.042193893
0.03979809 0.04150339 0.03605999 0.04035839 0.042493932 0.033489928 0.03700996 0.042122856
0.041541394 0.04035792 0.03810285 0.041920274 0.04021773 0.045383327 0.04017527 0.039862063
0.041935295 0.044036098 0.035267882 0.033893414 0.03651551 0.038435668 0.0377772 0.046445202
0.036916077 0.047786392 0.03997137 0.03389198 0.039272692 0.043069642 0.04121593 0.04088913
0.04372314 0.042819183 0.038492564 0.044778425 0.03314257 0.031517655 0.043252412 0.042614754
0.03819529 0.041539475 0.034348384 0.038028236 0.04222012 0.03672579 0.03966719 0.041470375
0.04629745 0.041622326 0.04491459 0.038474973 0.03444807 0.03990719 0.04417602 0.036795627
0.03480112 0.042726602 0.03361366 0.040426582 0.037871577 0.04033232 0.033669587 0.035218954
0.044227082 0.038145408 0.035001922 0.032776263 0.03931803 0.040692747 0.03865409 0.04459328
0.03379818 0.05199486 0.03525484 0.04326085 0.03757621 0.042557687 0.048346374 0.04383716
0.042684443 0.036736846 0.036270667 0.048199665 0.047643594 0.03537487 0.04013912 0.036399372
0.038526222 0.039780065 0.036814228 0.039907597 0.031989392 0.037340216 0.03589452 0.04763161
0.035234086 0.041378196 0.041818958 0.037734155 0.038796194 0.03692207 0.04425653 0.031741634
0.03994587 0.03842658 0.036676466 0.03966443 0.037926473 0.034129538 0.037955955 0.033476297
0.033046477 0.036734443 0.04305862 0.039337926 0.04344183 0.04134465 0.031237867 0.04547958
0.04186292 0.038827535 0.042457223 0.035224933 0.03640998 0.03644588 0.041790307 0.03805137
0.053466003 0.038098637 0.03637642 0.042863302 0.033591837 0.03995626 0.03535882 0.039292008
0.036020678 0.0454201 0.03710252 0.034140192 0.039381888 0.037916165 0.039305158 0.03682454
0.0401699 0.037443563 0.03883007 0.039753474 0.042153977 0.038800873 0.040918007 0.04012657
0.034446713 0.047709975 0.040473696 0.034582242 0.037444547 0.03721419 0.040105578 0.041278467
0.04365561 0.03858344 0.049769104 0.037977923 0.04048427 0.034106407 0.036471188 0.040900443

model.4.weight f4 [256, 512]
00000000: 170e 23bc def6 babc 61d9 933b fe8a c8ba
00000010: e27c 25bd 8eba c8bc 01bb 163d b5b7 2939
00000020: 2128 bb3c 7d24 393c 619b 223b e359 bb3b
00000030: effb 10bd c0ce db3c 8ed1 4a3b 2751 da3c
00000040: 927b b93c eb7e 023d 5267 a4bc 8eaa cabc
00000050: 4074 1bbc b02c d33c e5b1 de3c 33e7 223c
00000060: b5db 0cbd 5a50 383b bf82 20bd bd01 16bd
00000070: b824 3b3c cd3d 1abd 61ae c3bc 5020 23bd
00000080: 2a67 c13c 500c d93c 8360 643c 88af 09bd
00000090: b717 673c 6322 2abd 6979 0a3d bc6c 243d
000000a0: ba42 2e3d ca63 fb3b 8f2e 2f3d 1eba 00bb
000000b0: 151c 2dbd e1b8 063d b2fc cfbc d81c a2bc
000000c0: bd48 34bb 4bb6 0e3c 9209 6ebc 1444 afbc
000000d0: 319f 1bbd 3caf c0bc 5df3 25bc 82b4 07bc
000000e0: 2cbf 0f3d 18a2 273c fc51 253d 686e 053d
000000f0: fd54 5fbc 614a 303d e1a6 f0bc 2c2b 31bd
00000100: 447f febc 5ee3 5f3c 403f 23bd d47a 25bd
00000110: 8478 28bc 22ad 073d 4932 e6bc 2fff f63b
00000120: f533 2d3d 2f4f 003d 89c5 aebc b789 763c
00000130: 82c3 ebbb 16bd 99bc b2a3 9dba 2605 9b3c
00000140: 99ac a8bc c760 933c b8d8 12bd 95ea c13c
00000150: a3df 66bb 984c d23c 55f6 17bd 1e44 28bd
00000160: e69d ea3c e48e 07bd 6468 f5bb e572 003d
00000170: 3265 90bc 3ac2 8b3b 2d46 053d 397d b23c
00000180: 5ab7 b63c 7fe4 c9bb a586 04bd a160 1f3c
00000190: 4650 89bb 4d74 d23c 2ad1 acbc 5be0 84bc
000001a0: 971d 4839 125a e93c 736b a33b ca9d 64ba
000001b0: 2c13 043d fd08 c3bc cb13 d6bc 33f0 aabc
000001c0: 833e 13bd 155d 8bbc c39f 813b e022 a33c
000001d0: 3f7a a13c 169e 25bd 4261 2a3d 97c0 0abb
000001e0: 3387 1cbd 0c1c 05bd cff5 08bd bb71 873c
000001f0: a0b6 083c 18e3 30bd c361 8a3c f217 2fbd
00000200: 3fc4 18bd 4f4d 80bc 2c4d c9ba bb4f 1cbd
00000210: b63c 1abd eccb d3bc 8722 71bc e44a 153d
00000220: aa3e fcbc 4cfe 0abd cdb8 c43c c4e3 8a3c
00000230: 7147 28bd 6be8 fdbc 0f89 38bb cc74 2bbd
00000240: 307b 7cba 1b73 9dbc e1de fcbc 7a5a f33c
00000250: 5731 0ebc c105 c93c 27d9 323d 91e3 013d
00000260: 2b07 0ebd 58ef 78bc 251e 323d f650 e83b
00000270: 3f61 1fbd a6cc 0abd 7519 433c bc20 ea3c
00000280: 0375 cfba 7e94 f53c 2fde 623c 35af 933c
00000290: 8034 58bc 9cce 2bbb 930f d13b b653 92bb
000002a0: bc6b 0abd 83a3 1abc ac49 133c 0fd4 8fbc
000002b0: f20d e13b 43c1 ebbb 3351 27bc 2122 88bc
000002c0: ddc2 b03a 1cf2 96bc 7206 1b3d e00f e43c
000002d0: 0567 9abc ff13 31bd a48b 243d c8fd be3c
000002e0: 9e67 1d3d 422b 5e3b f482 8d3c b0df c9bc
000002f0: 6629 a1bc 3519 5ebc b253 023d 473e 1b3d
00000300: 3cf8 2e3d 57c5 a8bc 41ed 563c 7ebb 8bba
00000310: b623 9cbc d9d4 bfbc 4fc8 a9bc 653a 0c3d
00000320: 816a 023d f015 2fbd d02e 08bd 062e b13c
00000330: f9d0 2c3d 2727 203d e8bf 3f3c 8942 28bd
00000340: b7ad 2e3d 1848 babc 35f5 0e3d 7fae c23b
00000350: 289c 0bbc d88a cfbc ea4f c4bc e4f9 e73c
00000360: fbd9 f23c 39b2 183d 29ae 00bd 1cd8 0e3d
00000370: db34 ebba 0481 243c 276a cbbc 5bc1 9abb
00000380: 045c 27bd 5565 5a3c d762 313d e754 303d
00000390: 6fb9 1cbc 7177 f73c 1648 2fbd 5f95 06bc
000003a0: 54c5 e03c 2454 5e3c 93a9 8d3b 3505 bfbc
000003b0: 003e 523c 863a ed3c af20 d23b 0469 2e3d
000003c0: b893 f43b 6b10 33bd 79e4 50bc 68c3 aabc
000003d0: 4292 be3c 1739 21ba ec02 a13b 80d3 75bb
000003e0: 0a4e 1c3d c62a 1dbd e944 003d 8e2b 40bb
000003f0: 2c18 86bc afa7 a4bb c932 32bd 1402 e33c
-0.00995209 -0.022822794 0.0045119976 -0.0015300212 -0.0404023 -0.024503019 0.036799435 0.00016185532
0.022846283 0.011300203 0.0024811851 0.0057175024 -0.035396513 0.026831985 0.0030947658 0.026650025
0.02264193 0.03185932 -0.020068798 -0.02473953 -0.009488165 0.025778145 0.027184436 0.0099428175
-0.034389216 0.0028124065 -0.03918719 -0.03662275 0.011422329 -0.037656594 -0.023886861 -0.039825737
0.023608763 0.026495129 0.013939026 -0.033614665 0.014104775 -0.0415367 0.033807192 0.04014276
0.042544104 0.007671808 0.04276901 -0.0019642184 -0.04226311 0.032891158 -0.02538905 -0.019789144
-0.0027509176 0.008710454 -0.014528649 -0.021394767 -0.037993614 -0.023521058 -0.010128823 -0.0082827825
0.035094425 0.010231517 0.04036139 0.032575995 -0.013631103 0.043039683 -0.029376449 -0.043254063
-0.031066544 0.013665048 -0.03985524 -0.04040034 -0.010282639 0.033124097 -0.02810015 0.0075377445
0.04228588 0.031325515 -0.021334426 0.015047482 -0.007194937 -0.018766921 -0.0012026934 0.018923353
-0.020590113 0.017990483 -0.03585121 0.023671428 -0.0035228513 0.025671288 -0.037100155 -0.041080587
0.028639745 -0.033095255 -0.007489251 0.031359572 -0.017626379 0.004265097 0.032537628 0.021788226
0.022304226 -0.006161272 -0.03235497 0.009727628 -0.0041904775 0.025690222 -0.021095831 -0.016220262
0.0001908451 0.028485332 0.004987174 -0.0008721022 0.032244846 -0.023807997 -0.026132485 -0.020866489
-0.035948288 -0.017012158 0.0039558127 0.01991409 0.019711612 -0.040433966 0.04159666 -0.0021171921
-0.038214874 -0.03249745 -0.033437546 0.016533723 0.008344322 -0.043185323 0.01689232 -0.042747445
-0.03729653 -0.015661864 -0.0015358082 -0.038161974 -0.037655555 -0.025854073 -0.014717705 0.036448374
-0.0307916 -0.033933923 0.024013901 0.01695431 -0.041083757 -0.030994615 -0.0028157865 -0.041859433
-0.00096313935 -0.019219926 -0.030867996 0.029706229 -0.008678756 0.024538876 0.043664124 0.031711165
-0.034674805 -0.015193783 0.04348578 0.0070897294 -0.0389111 -0.033886574 0.011907925 0.028580062
-0.0015827719 0.029978033 0.013846918 0.018027881 -0.013196111 -0.0026215678 0.0063800304 -0.0044655455
-0.03379415 -0.009438398 0.008989733 -0.017557172 0.0068681175 -0.0071946695 -0.0102122305 -0.016617836
0.0013485808 -0.018425994 0.037847944 0.027839601 -0.018847952 -0.04323196 0.040172234 0.023314372
0.038428895 0.0033900295 0.017274357 -0.024642795 -0.01967306 -0.0135558145 0.0318181 0.03790119
0.042717203 -0.020601911 0.013118089 -0.0010660735 -0.019059997 -0.023416923 -0.020725397 0.034235377
0.03183985 -0.04274553 -0.03324777 0.021628391 0.04219148 0.03909984 0.011703469 -0.041079078
0.042646136 -0.022739455 0.034901816 0.0059412117 -0.008521117 -0.02533476 -0.023963887 0.0283174
0.029644957 0.03727934 -0.031416092 0.034874067 -0.0017944829 0.010040525 -0.02483089 -0.004722757
-0.040859237 0.0133298235 0.04330715 0.04304972 -0.009565695 0.030208321 -0.042793356 -0.008214324
0.027437843 0.013569865 0.0043231933 -0.023317913 0.012832165 0.02895857 0.0064125876 0.04258062
0.0074638985 -0.04371683 -0.012749785 -0.02084513 0.0232631 -0.00061501696 0.0049136784 -0.0037510097
0.03816036 -0.03837087 0.031315718 -0.0029322836 -0.016368948 -0.0050248723 -0.043505464 0.027710952

model.4.bias f4 [256]
00000000: 8855 02ba 7a41 903b 5c3e adbc f77a b2bc
00000010: 3145 0fbd 0718 05bd db13 ff3c 052b c03c
00000020: bb91 ba3c 1828 133c 1170 ce3c 865e be3c
00000030: 7e32 2fbb 7328 553c 7ce1 0939 992b 69bc
00000040: 9d45 8b3c bc14 173d a526 f43b 28b5 9abc
00000050: 718e a8bc aa16 edbc b38f 2abd f668 dcbc
00000060: b769 573c 501f 173d 8fcc 0abd cb3c 253c
00000070: 7d5a 2b3d 4ae3 19bd c416 fa3c 6bf4 efbc
00000080: d442 063d 3e64 e53b c923 7b3c 13f9 08bd
00000090: 77af 94bb 546e 6dbc b35a 163d 8f95 9bbb
000000a0: ce35 b83c db72 22bd fefe 993c b760 1bbc
000000b0: 4e6d 12bd c94a dd3c ef27 963c c05a 083d
000000c0: 981f 30bd 8956 0fbd b575 fdbc cf55 65bc
000000d0: bf60 373d 2c99 30bd 5a68 00bd f29b 1cbd
000000e0: 2811 69bc 5485 893c 5930 ae3c ce8d 92bb
000000f0: 00f6 a53c 0bdf 1a3d 3737 0cbd 5ef9 b2bb
00000100: 9b6b 7abb 0869 bbbc d858 2fbc d8cd fbbc
00000110: 003d cf3c 2312 933b 4c4b 363b dcd8 e53c
00000120: bad2 b5bb 2088 f7bc eb8d f43c 242c b6bc
00000130: 23e4 173d de44 2b3d b82b 5f3a 1b76 8ebc
00000140: 9332 d7b9 2d04 f83c b369 32bd 557f 723c
00000150: 1aa1 2fbd a432 9db9 9e1d 22bd 2e2e 873c
00000160: e35b 103d d30d 603c 9ac4 123c b207 78bb
00000170: eb70 0fbd 5ee2 243d 957e 20bd 22d9 4c3c
00000180: 59eb b4bc 353d 2abc da0a 903c ad8c c3bc
00000190: 2fee 363d d7d9 2bbd c8fc 123d 4583 f6bc
000001a0: 9912 1c3d 7aae 1cbc 4ceb a13c 954d 603b
000001b0: 58e2 f9bc 1030 28bd 0a11 06bd a752 e7bc
000001c0: ce66 6fbc f578 06bd e99d 0c3d 47ac bbbb
000001d0: 8db4 6b3b ff61 833b 29e2 14bd b82e ec3c
000001e0: cd04 6ebc bf27 2d3b f483 dc3c 83d2 e53c
000001f0: e156 8cbc 8d06 b6bc a22d 7f3c cb01 2a3c
00000200: ecf9 e1bb 369f 2d3d ec39 2bbd 72af 0d3b
00000210: ac4f 31bc 295c 983b 0741 67bc d02c ddbc
00000220: d8ae 2e3b 77db 0cbd cfed 2c3d 3029 ae3c
00000230: d3ed c83c 1488 2cbd 95ba 033c 8288 15bd
00000240: 661e d4bc 5ad5 1dbd ca67 01bd fc8f babc
00000250: fafd d2ba 0da1 6ebc 5e7e d73c 7fa1 1bbd
00000260: ba98 393d f738 0cbd ac3e 5cbc 946a 573c
00000270: ad45 243d 379e ca3c 02f6 26bd 7299 8c3a
00000280: 867f e13c ca2e fc3c 7727 06bd ca13 00bd
00000290: 81a6 233d 9a04 9abc 5553 25bc 21e9 f3bc
000002a0: e510 b5ba 87aa 323c 0cf4 903c b37f 033d
000002b0: 630e 263c 4e63 bc3b 537e 7c3c 431d 1b3d
000002c0: d261 fdbc ab57 0e3d e526 123d 030f 163d
000002d0: a641 c5bc 8a2e 20bd 0810 323c 718c a53b
000002e0: a4e7 833c edeb 5dbb c871 053d 5a99 e8bb
000002f0: 1db0 b93a c16c e83c 1cc7 e23c e4c7 1a3d
00000300: a3b7 ebbc 3fc2 e13b 261a 21bd 1433 203d
00000310: 91d8 7bbb 5511 0f3d c7b3 713c 22ae febc
00000320: 8d77 3dbc 46eb 3f3c 5ac2 8abc 11bb 8dbb
00000330: 4205 c43c 49dd 2b3d 8415 ca3c 9ac0 183b
00000340: 811b 293d d2f2 1c3a e101 253c 74bb 16bd
00000350: 2d28 94bc 91bb fabc 6fce 10bd 5534 f4bc
00000360: e1c3 85bc 614c b0bc 326d ba3c dd02 e73c
00000370: 4c7f b4bc c4c9 1636 7a96 093d 12ed 003d
00000380: 4c5d 8abc 7712 cc3a 936e eebc c18d f03c
00000390: 8fe2 20bd ed93 8bbb 50aa 033c 2471 0ebd
000003a0: 6b4e 01bd aafc fcbc 3315 1c3d d3cd d2bc
000003b0: 5ad0 1dbd fa49 06bd 2f55 fdbc a79e bbbc
000003c0: d113 89bb d23d 243d 0cd2 183c 3139 5e3c
000003d0: 735a 813c 3dab 27bd aba0 a03c d688 1abc
000003e0: 9ac8 21bd 721d 243d 3cf3 4e3b 832a de3c
000003f0: 70c3 f23c c6bf 2a3d 2ce7 593c 0341 20bd
-0.00049718516 0.0044023367 -0.0211479 -0.02178715 -0.034978095 -0.032493617 0.031137398 0.023458013
0.022774568 0.008981727 0.025199922 0.023238432 -0.0026732977 0.013010132 0.00013149338 -0.014231586
0.017000968 0.03688501 0.007450896 -0.01888521 -0.020575734 -0.028941471 -0.04164095 -0.026905518
0.013147763 0.036895096 -0.03388649 0.010085295 0.041834343 -0.037570275 0.030528434 -0.029291352
0.032778576 0.007000475 0.015328356 -0.03344066 -0.0045375186 -0.014491636 0.03670759 -0.0047480534
0.022486594 -0.039660316 0.018798348 -0.009483508 -0.035748772 0.0270132 0.018329589 0.03328967
-0.04299888 -0.034994636 -0.030939916 -0.013997509 0.04477 -0.043114826 -0.031349517 -0.03823466
-0.014225282 0.016787209 0.021263288 -0.004472471 0.020258904 0.037810367 -0.034232344 -0.005461856
-0.003821111 -0.022877231 -0.010702334 -0.030737802 0.025297642 0.004488246 0.0027815877 0.028057508
-0.005548802 -0.030216277 0.029852828 -0.022237845 0.037082803 0.041813724 0.00085132895 -0.017390301
-0.00041045676 0.030275429 -0.043557834 0.014800866 -0.042878248 -0.00029983104 -0.039579026 0.016501512
0.03524388 0.013675171 0.008958006 -0.0037846384 -0.035019796 0.040254943 -0.039183218 0.01250294
-0.022084879 -0.010390569 0.0175833 -0.02387079 0.044660743 -0.041955795 0.035885602 -0.030091891
0.038103674 -0.009563083 0.019765519 0.003422593 -0.030503437 -0.04106146 -0.032731093 -0.028237654
-0.014611913 -0.032830197 0.034330282 -0.005727324 0.003596577 0.004009485 -0.036348496 0.028830871
-0.014527512 0.0026421396 0.026918389 0.028054481 -0.01713127 -0.02221992 0.015574845 0.010376404
-0.006896248 0.042388164 -0.041803285 0.0021619466 -0.010822218 0.004649658 -0.014114625 -0.026998907
0.0026654508 -0.034388985 0.04221898 0.021259874 0.024527466 -0.04212196 0.00804009 -0.036507137
-0.025893401 -0.038533546 -0.03159312 -0.022773735 -0.001609742 -0.014564765 0.026305374 -0.03799581
0.045311667 -0.034234013 -0.0134426765 0.013147969 0.04010551 0.024733646 -0.040761955 0.0010726883
0.027526628 0.03078403 -0.03275248 -0.031268872 0.039953712 -0.018801022 -0.010090669 -0.02977425
-0.0013814239 0.010904915 0.017694496 0.032104205 0.010135266 0.0057491427 0.015410977 0.037869703
-0.030930433 0.034751575 0.035681624 0.03663541 -0.024079155 -0.039106883 0.01086808 0.0050521423
0.016101666 -0.0033862547 0.032579213 -0.007098359 0.0014166866 0.02837217 0.027682833 0.037788287
-0.028774088 0.006889611 -0.039331578 0.039111212 -0.0038428644 0.03492864 0.014752335 -0.031088892
-0.011564148 0.011713808 -0.016938377 -0.0043252786 0.023928288 0.04195908 0.024668463 0.002330816
0.041285995 0.0005987111 0.010071249 -0.036799863 -0.018085564 -0.030607017 -0.03535312 -0.02981011
-0.016328754 -0.021520795 0.022757147 0.028199608 -0.022033356 2.2469185e-06 0.03359077 0.031476088
-0.01689019 0.0015569468 -0.02910546 0.029364469 -0.039278563 -0.0042595775 0.008036211 -0.034775868
-0.031568926 -0.030882198 0.038106155 -0.02573291 -0.038528778 -0.032785393 -0.030924408 -0.0229028
-0.0041832705 0.04009802 0.009327423 0.01356344 0.0157902 -0.04093479 0.019607862 -0.009432038
-0.03949795 0.040067144 0.0031578084 0.02711988 0.029634207 0.041686796 0.013299745 -0.0391245
