models/three_layers/threeLayerModel_emu_corrCut_0.8cutV3.pt (torch, 676261 bytes, 6 tensors)

model.0.weight f4 [512, 70]
-0.034913737 -0.00062882074 -0.103263356 -0.040117025 0.11027305 -0.057717882 -0.07098462 0.09651316
0.12583125 -0.006173524 0.059102774 0.110790014 0.12720427 0.06744698 -0.008365787 -0.018422622
-0.08723758 -0.09160939 0.03834604 0.060996633 0.11160671 0.08945673 -0.05997441 -0.05196764
0.09769793 -0.02407645 -0.033845715 0.004804484 -0.04780793 -0.007216278 0.03766763 -0.101986766
0.06410949 0.020008117 -0.012544584 0.059436977 -0.06717021 -0.04133226 -0.011169799 -0.066177815
0.064228326 0.1280256 -0.008746185 -0.10528616 -0.084906854 0.110694796 -0.09513902 0.032126423
0.0028071029 -0.056681395 -0.029292637 0.03174067 -0.0038654152 -0.037436064 0.098047785 -0.04965144
-0.06357819 -0.0955877 -0.08892035 -0.1440136 -0.10148167 -0.09304529 0.060289502 -0.030339628
-0.11754201 -0.03401906 -0.0774449 -0.3104072 -0.120239235 0.08191975 -0.053761613 -0.023304522
0.03734575 0.0821287 -0.08257246 -0.045249812 -0.16589256 0.08486014 -0.10012873 -0.024592279
-0.062200382 0.014916919 0.11867647 0.06880378 -0.10166227 -0.110148005 -0.04844051 -0.081805475
0.059359137 -0.021109404 0.06858453 0.028831739 -0.07584926 -0.12482907 -0.0159441 -0.082159616
-0.07061984 -0.048335128 0.11517064 -0.1039463 -0.06581103 0.09021511 0.052327033 0.13087216
0.06058635 -0.09587867 -0.071569175 -0.037094884 -0.09461165 -0.10712254 0.00027722877 0.006447494
0.039840147 0.0664026 0.120994054 0.10617268 -0.05541641 -0.034130175 -0.10596542 -0.08106966
0.05918185 0.07838723 0.017409876 0.062545925 -0.07026187 0.1278645 0.028489433 0.044292513
0.05313897 0.064480625 0.10284402 0.049760673 -0.05616574 -0.068979636 0.022257246 -0.0029388687
0.039949965 -0.2018738 -0.08805291 0.15221299 0.096635066 0.087203756 0.06695093 0.12200933
-0.11471176 -0.096194275 -0.060751088 -0.10268332 -0.014049082 -0.024359774 -0.04633451 0.06673394
-0.021023387 0.019835733 -0.04954741 -0.012303447 -0.029288597 0.008171107 -0.010465855 0.02443362
0.043287992 0.0075500133 0.023340978 0.08229046 0.012659844 -0.08368569 -0.087365255 0.09711124
-0.060902603 -0.08148421 0.120772034 -0.09967823 0.008686086 0.08869137 0.023900969 0.13120548
-0.0960719 -0.038012322 0.08067657 -0.094515525 0.06601972 0.060561344 0.12358825 0.09168626
0.058787305 -0.093523465 -0.049012776 -0.023073561 -0.042169414 0.072500035 -0.053700898 -0.09907508
-0.06465216 -0.048177473 -0.07120869 0.0732797 0.040988974 -0.018000409 0.07621623 -0.075631216
-0.07851977 0.012632962 -0.05557605 0.12929723 0.035940308 0.01904875 0.019624926 -0.30049014
-0.22069179 0.15082039 0.12459067 0.012248342 0.09967558 -0.058237944 0.13050254 -0.113619894
0.061156817 0.061751336 0.0025723313 0.03455116 -0.070380695 -0.004901538 -0.118979745 -0.104217
0.02149735 0.023297828 0.091562614 -0.116962455 0.07874025 0.01583057 -0.034859166 -0.09042006
0.03748775 -0.014395741 -0.0885995 -0.06428036 -0.08564515 -0.09229007 0.041662846 0.017523166
-0.023681156 0.028300378 -0.10706866 0.110531256 0.071363196 -0.031513613 0.077357925 0.0393867
-0.0386642 -0.014672449 0.011736692 0.091224104 0.085714534 0.04762922 0.050192397 -0.104099
00000000: b501 0fbd 72d7 24ba bd7b d3bd c051 24bd
00000010: d6d6 e13d 9669 6cbd 6260 91bd b1a8 c53d
00000020: e8d9 003e 464b cabb c015 723d e0e5 e23d
00000030: d641 023e a421 8a3d a710 09bc 0aeb 96bc
00000040: 9ea9 b2bd b49d bbbd bd10 1d3d 9bd7 793d
00000050: 0f92 e43d 1735 b73d baa7 75bd 05dc 54bd
00000060: da15 c83d fa3b c5bc cea1 0abd ef6e 9d3b
00000070: 3fd2 43bd 8776 ecbb 5f49 1a3d 70de d0bd
00000080: d64b 833d 10e8 a33c cd87 4dbc 3074 733d
00000090: 8990 89bd 044c 29bd 8801 37bc 3c88 87bd
000000a0: 248a 833d 2519 033e 294c 0fbc 45a0 d7bd
000000b0: a5e3 adbd f4b3 e23d 3fd8 c2bd ff96 033d
000000c0: 5ff7 373b c02a 68bd 1df7 efbc 8102 023d
000000d0: e852 7dbb 8f56 19bd 47cd c83d 4f5f 4bbd
000000e0: 4835 82bd 7cc3 c3bd df1b b6bd 4d78 13be
000000f0: 9fd5 cfbd 878e bebd 20f2 763d d08a f8bc
00000100: deb9 f0bd 9257 0bbd 6f9b 9ebd b1ed 9ebe
00000110: fd3f f6bd 8bc5 a73d 2335 5cbd 20e9 bebc
00000120: dbf7 183d 1833 a83d c01b a9bd de57 39bd
00000130: bddf 29be 27cb ad3d 4b10 cdbd bf75 c9bc
00000140: d4c5 7ebd 1866 743c a60c f33d ffe8 8c3d
00000150: 4f34 d0bd 4795 e1bd 8e69 46bd a189 a7bd
00000160: 9122 733d a1ed acbc 0c76 8c3d 8a30 ec3c
00000170: db56 9bbd 62a6 ffbd 349d 82bc 4d43 a8bd
00000180: 22a1 90bd 0efb 45bd 96de eb3d cce1 d4bd
00000190: efc7 86bd b3c2 b83d df54 563d 5a03 063e
000001a0: 6429 783d 095c c4bd dc92 92bd cef0 17bd
000001b0: c1c3 c1bd 1063 dbbd 0459 9139 8045 d33b
000001c0: 6c2f 233d 16fe 873d bbcb f73d 1071 d93d
000001d0: 51fc 62bd 15cc 0bbd 6604 d9bd da07 a6bd
000001e0: ab68 723d 7c89 a03d 289f 8e3c 1418 803d
000001f0: 75e5 8fbd e9ee 023e ac62 e93c 116c 353d
00000200: 40a8 593d 6b0e 843d e39f d23d d9d1 4b3d
00000210: 0c0e 66bd 3245 8dbd d454 b63c 099a 40bb
00000220: 93a2 233d 01b8 4ebe 1655 b4bd b9dd 1b3e
00000230: 9be8 c53d e297 b23d 921d 893d 07e0 f93d
00000240: 00ee eabd 8101 c5bd 22d6 78bd a24b d2bd
00000250: 1f2e 66bc 268e c7bc 41c9 3dbd ceab 883d
00000260: 3d39 acbc 8c7e a23c 3af2 4abd 6694 49bc
00000270: a4ee efbc 1be0 053c fa78 2bbc 0429 c83c
00000280: c04e 313d 1a66 f73b 9435 bf3c e787 a83d
00000290: 3c6b 4f3c 6763 abbd 8eec b2bd 42e2 c63d
000002a0: 0275 79bd 32e1 a6bd 5457 f73d 1a24 ccbd
000002b0: 1650 0e3c d2a3 b53d f7cb c33c bb5a 063e
000002c0: 58c1 c4bd cfb2 1bbd c239 a53d 5b91 c1bd
000002d0: 5935 873d 2c0f 783d d61b fd3d 02c6 bb3d
000002e0: f5ca 703d 3b89 bfbd 9fc1 48bd c404 bdbc
000002f0: d6b9 2cbd e67a 943d 79f5 5bbd e0e7 cabd
00000300: 5a68 84bd be55 45bd ddd5 91bd ab13 963d
00000310: 0ee4 273d 9875 93bc 4117 9c3d 8ae4 9abd
00000320: f9ce a0bd 7cfa 4e3c b6a3 63bd 7e66 043e
00000330: 2536 133d 200c 9c3c 74c4 a03c d8d9 99be
00000340: 07fd 61be a970 1a3e 6529 ff3d 45ad 483c
00000350: b622 cc3d e98a 6ebd 75a2 053e 8cb1 e8bd
00000360: 927f 7a3d f8ee 7c3d 8f94 283b 8485 0d3d
00000370: c123 90bd 159d a0bb a7ab f3bd b96f d5bd
00000380: 361b b03c 16db be3c 2e85 bb3d 038a efbd
00000390: 9142 a13d 1daf 813c 7cc8 0ebd 272e b9bd
000003a0: c18c 193d 1ddc 6bbc a873 b5bd 6ca5 83bd
000003b0: b966 afbd 9402 bdbd a9a6 2a3d be8c 8f3c
000003c0: fcfe c1bc 32d6 e73c d046 dbbd 365e e23d
000003d0: de26 923d 6b14 01bd d56d 9e3d f353 213d
000003e0: 5a5e 1ebd b664 70bc 414b 403c b4d3 ba3d
000003f0: 1a8b af3d db16 433d 8b96 4d3d db31 d5bd

model.0.bias f4 [512]
0.058738243 -0.036203094 -0.058295295 -0.015081701 -0.06374798 -0.0091575915 -0.031306066 0.020673716
0.12369767 -0.03865738 -0.03658953 -0.016415277 -0.00739428 0.095539436 0.0067110513 0.05870031
0.08109589 -0.039150976 -0.08370088 0.0027168249 0.03872096 0.08009857 -0.078622915 -0.03433244
0.03231358 -0.017461263 0.09711718 0.09297734 -0.011792876 -0.10272615 -0.052475583 0.048105832
0.0055693444 0.041699596 0.07883165 0.060477868 0.00092172227 -0.07274113 0.08561366 -0.06327793
-0.07390222 0.032172646 0.063792184 0.09411693 0.06501019 0.030660592 0.09583143 -0.044175602
-0.04422941 0.022147892 -0.06969829 0.04818521 0.033639703 0.06512845 -0.08274309 -0.050581288
-0.082135886 -0.05916413 -0.09502654 0.035372686 0.078133315 -0.03525665 0.037706245 -0.016159363
0.03880176 0.058562275 0.11429437 -0.014451275 0.07336602 0.124376886 -0.092739105 0.096416324
-0.0052509154 -0.119228244 0.09066852 0.085990384 -0.020254029 -0.043762453 -0.03640978 0.060125142
-0.09825387 0.01622334 0.016958956 -0.011474777 0.056805216 0.06603123 -0.06282268 -0.08953576
0.073359124 -0.043404568 -0.06529148 0.04748892 -0.06073379 0.1146776 -0.026697846 0.055090945
-0.030677596 -0.06300271 0.109343454 0.11498655 0.0827132 0.105823845 -0.023082934 -0.04906496
0.0810269 -0.09066286 0.114924036 0.06334779 -0.009792963 -0.06502818 0.02078777 -0.05419431
0.04890715 0.025938602 0.0679765 0.10082111 0.11302751 -0.12496185 -0.022301273 -0.064667985
-0.07604836 -0.07767317 -0.06736029 0.029464778 -0.108413786 0.05703268 -0.11272797 -0.09712637
-0.09557577 -0.076793306 -0.09731188 -0.029781535 0.08725828 0.008547547 -0.0012911565 0.10017628
-0.009351657 -0.0041758553 0.09076708 0.08061822 -0.11788403 0.07020671 0.077685036 -0.07195818
0.02761275 -0.06155433 0.022670358 0.0668721 -0.02461659 0.03251364 0.05663236 -0.106503986
0.021542143 0.050326154 0.0022065167 -0.043929007 0.049143456 0.04449421 -0.09127216 -0.040651668
0.05663734 0.01681411 -0.113594726 0.07663929 0.0939105 0.098871484 -0.04607729 0.08044335
0.03910281 0.021057116 -0.070235126 0.009657881 -0.032663472 -0.10450575 -0.018496329 0.094568685
-0.0219516 -0.06399044 -0.06501426 -0.04830669 -0.014682839 0.077644676 -0.011666984 -0.05516827
-0.10013855 -0.0429807 0.09252004 0.060305167 -0.048913687 0.033435546 -0.08742969 -0.0033629758
-0.033445068 0.06301961 -0.09895012 -0.07293635 -0.08030734 0.04423524 0.039820183 -0.04387681
-0.041298345 0.12170248 -0.011999794 -0.06407999 -0.052861035 -0.11273483 -0.036362726 0.11130891
-0.07345042 -0.010899035 -0.030040959 0.017832212 0.019247713 -0.10066905 -0.10507444 -0.020700319
0.049838416 0.065494455 -0.0017462544 -0.095932394 0.027104743 -0.0543701 -0.01586273 -0.026889885
-0.0532262 0.08812853 -0.017771883 -0.012518313 -0.08385489 0.023939159 -0.06033678 0.102553464
-0.06113167 -0.06354364 -0.033293985 0.007586348 -0.10535463 -0.010515164 -0.05521483 0.11794288
0.070146635 0.08142782 0.07270493 -0.07409816 0.08257759 -0.078979515 0.027029244 0.11380849
-0.033106223 0.100808375 -0.045486655 0.08516886 0.10441322 0.049914543 -0.048852954 0.054516524
00000000: 8397 703d b249 14bd 0cc7 6ebd 3d19 77bc
00000010: 4d8e 82bd b909 16bc ca3a 00bd ed5b a93c
00000020: 3455 fd3d 3357 1ebd e7de 15bd 5579 86bc
00000030: b74b f2bb 2eaa c33d 61e8 db3b bc6f 703d
00000040: 9a15 a63d c65c 20bd 5e6b abbd c20c 323b
00000050: df99 1e3d b80a a43d 0d05 a1bd 2ca0 0cbd
00000060: 3f5b 043d ec0a 8fbc 5fe5 c63d e76a be3d
00000070: e836 41bc 1662 d2bd a3f0 56bd 9f0a 453d
00000080: 0c7f b63b 32cd 2a3d 7d72 a13d a4b7 773d
00000090: bc9f 713a 4df9 94bd 3756 af3d dc97 81bd
000000a0: 0c5a 97bd 77c7 033d 7aa5 823d 61c0 c03d
000000b0: 1024 853d ec2b fb3c 4543 c43d 7af1 34bd
000000c0: e629 35bd 7f6f b53c fabd 8ebd db5d 453d
000000d0: c9c9 093d 1162 853d 3675 a9bd 532e 4fbd
000000e0: dc36 a8bd 1656 72bd 469d c2bd f3e2 103d
000000f0: 5c04 a03d 4769 10bd dd71 1a3d a460 84bc
00000100: 98ee 1e3d ffde 6f3d 2b13 ea3d 0ac5 6cbc
00000110: ed40 963d 4fb9 fe3d 00ee bdbd ec75 c53d
00000120: df0f acbb f02d f4bd 6bb0 b93d ba1b b03d
00000130: c7eb a5bc 4240 33bd 6c22 15bd c845 763d
00000140: 5339 c9bd cfe6 843c 82ed 8a3c b400 3cbc
00000150: 96ac 683d 623b 873d 2da9 80bd 865e b7bd
00000160: 4f3d 963d fdc8 31bd 8ab7 85bd be83 423d
00000170: ffc3 78bd 17dc ea3d 71b5 dabc 0ba7 613d
00000180: 954f fbbc 9107 81bd 76ef df3d 117e eb3d
00000190: 8a65 a93d 2cba d83d 6c18 bdbc 57f8 48bd
000001a0: 6ef1 a53d 73ad b9bd 4b5d eb3d 7cbc 813d
000001b0: aa72 20bc 7f2d 85bd 1d4b aa3c dafa 5dbd
000001c0: dd52 483d 317d d43c 4337 8b3d 4c7b ce3d
000001d0: f87a e73d 00ec ffbd 29b1 b6bc a670 84bd
000001e0: 3ebf 9bbd 1c13 9fbd 31f4 89bd 1e60 f13c
000001f0: 0c08 debd 199b 693d ecdd e6bd 31ea c6bd
00000200: 3bbd c3bd cf45 9dbd 734b c7bd 68f8 f3bc
00000210: 78b4 b23d 030b 0c3c 063c a9ba 3929 cd3d
00000220: b137 19bc 9dd5 88bb 17e4 b93d 2a1b a53d
00000230: 2f6d f1bd 89c8 8f3d 5519 9f3d cf5e 93bd
00000240: 2234 e23c 6520 7cbd 30b7 b93c 3df4 883d
00000250: bba8 c9bc 062d 053d 55f7 673d c31e dabd
00000260: 2679 b03c cc22 4e3d 359b 103b e7ee 33bd
00000270: a64a 493d 903f 363d e6ec babd 5d82 26bd
00000280: 8efc 673d bfbd 893c 5aa4 e8bd 0ff5 9c3d
00000290: 2654 c03d 227d ca3d 8abb 3cbd 7cbf a43d
000002a0: 452a 203d f97f ac3c 6fd7 8fbd 173c 1e3c
000002b0: 22ca 05bd 1c07 d6bd 9d85 97bc 3aad c13d
000002c0: d8d3 b3bc 6b0d 83bd 3226 85bd 3cdd 45bd
000002d0: 4a90 70bc 2c04 9f3d e126 3fbc 20f8 61bd
000002e0: 7115 cdbd 880c 30bd 267b bd3d 8d02 773d
000002f0: b859 48bd b6f3 083d 560e b3bd 5f65 5cbb
00000300: b2fd 08bd 6d10 813d 5ca6 cabd a75f 95bd
00000310: 2d78 a4bd 0330 353d 7d1a 233d 2cb8 33bd
00000320: 7428 29bd 263f f93d c99a 44bc 5f3c 83bd
00000330: d084 58bd 85e1 e6bd 15f1 14bd edf5 e33d
00000340: 2c6d 96bd de91 32bc 7518 f6bc dc14 923c
00000350: 61ad 9d3c 932b cebd 4531 d7bd b793 a9bc
00000360: 5e23 4c3d f521 863d 93e2 e4ba 3478 c4bd
00000370: c40a de3c 2fb3 5ebd 8ef2 81bc 2d48 dcbc
00000380: b703 5abd bb7c b43d 5796 91bc 9c19 4dbc
00000390: 1dbc abbd 0e1c c43c b323 77bd 8d07 d23d
000003a0: 3465 7abd 2b23 82bd 465f 08bd e696 f83b
000003b0: 2bc4 d7bd cb47 2cbc f228 62bd 098c f13d
000003c0: 0aa9 8f3d a1c3 a63d 53e6 943d c7c0 97bd
000003d0: 711e a93d 03c0 a1bd 6f6c dd3c 6d14 e93d
000003e0: 649a 07bd 9f74 ce3d 3750 3abd 036d ae3d
000003f0: 99d6 d53d 3173 4c3d 091a 48bd b84c 5f3d

model.2.weight f4 [256, 512]
0.020986656 0.07540742 -0.039708704 -0.050236225 -0.0038138619 -0.018632561 -0.01581039 0.045061108
-0.042511582 0.042796783 -0.0063633076 -0.054764494 0.0064383433 -0.03998957 -0.0006565648 -0.0120855905
-0.014307334 0.015724108 0.02054697 0.00016716699 -0.022070518 -0.030056842 -0.036955643 -0.04763876
0.0042831493 -0.062049333 0.017775472 -0.026427392 0.008755183 0.035578042 -0.033277974 -0.016946169
0.010460125 -0.030733846 0.0030640701 0.0004501612 -0.02119549 -0.023528052 0.0068474086 0.017488046
-0.008177858 -0.06459495 -0.012217733 0.021347234 -0.014786889 -0.056018226 0.012113336 0.056855634
-0.0071181008 0.03699872 0.057868898 -0.03553667 -0.026188727 -0.012868248 -0.0051001604 0.043436512
-0.00718627 -0.010459549 -0.039534643 -0.03141499 0.013173245 -0.037859544 -0.012991481 -0.021785233
-0.047099486 -0.010816562 0.026734937 0.010736146 -0.03420167 -0.025778545 -0.023243032 -0.008386452
0.03259399 0.001973195 -0.040930927 0.030498201 -0.019796517 -0.0040204986 -0.0013727505 0.028278269
-0.043107945 -0.038923267 0.020333178 0.06948326 0.029376505 0.014034342 -0.016270757 -0.03803153
0.007029379 -0.037332695 0.03831685 -0.0017108604 -0.06174494 -0.04987268 -0.039541464 -0.018608386
0.04068269 -0.0594205 0.01778737 0.022422867 -0.047819857 -0.014421223 0.049258072 -0.04358412
0.0034313276 0.054057535 0.02447286 0.03388819 0.025378618 -0.05494879 -0.012078198 -0.000137581
0.011944563 0.020347143 -0.028111514 -0.0492128 0.012207725 0.0038246142 -0.016037665 0.040346507
-0.006360111 -0.04069212 -0.026858028 -0.03920155 -0.053611062 -0.0030573097 -0.057725374 -0.010851715
0.02403288 0.024325177 -0.027705017 -0.027854338 -0.0098018395 0.010753223 -0.0010606893 -0.06408143
0.038913187 -0.008375121 -0.02522857 0.02343174 -0.018205512 0.06288175 -0.04103953 0.04881642
0.04205193 0.03536965 -0.024247982 0.0625028 0.030308101 -0.004027801 -0.0035923203 0.001992233
0.042428553 -0.02546279 0.022147382 0.02223524 -0.010294035 -0.025858575 0.023358524 0.045687433
0.0054377266 0.035358056 -0.005557737 -0.040793322 0.019939186 -0.027372414 0.032070026 -0.024024365
-0.026660645 -0.0051041488 0.06522022 0.0073662824 0.015196089 0.105394475 -0.023376612 0.022649422
-4.3237065e-05 -0.03269936 -0.021027442 0.042464107 -0.011723565 -0.021814266 -0.017328653 -0.04254992
-0.039896976 -0.032970212 -0.0033383225 0.024934713 0.03130902 0.020862782 0.0114211785 -0.0064344713
-0.085978515 0.00878844 -0.016689086 0.03542164 0.03862936 0.058634438 0.014462506 0.012368492
0.008770318 0.02325253 0.05206663 0.053847663 0.015654264 -0.033048246 -0.025168413 0.015676724
0.034151986 0.015522428 0.050295733 0.025619486 -0.04784359 0.00094903744 -0.012621986 -0.001250937
0.0069749393 -0.043311678 -0.013222874 0.048244737 -0.046740558 0.017147936 -0.0562495 0.031219961
0.026573224 0.011644567 0.012992754 -0.099983 -0.013367212 0.0665871 0.007428634 -0.030979032
-0.032379273 0.0015961989 -0.0145225115 0.03676969 0.039305046 0.005234198 -0.041825913 -0.03907234
0.018499885 0.009650805 0.030822013 0.0535184 -0.019101858 0.03430595 -0.015155506 0.03405368
-0.044016033 -0.0005736642 0.014793438 0.029230785 -0.03303732 0.010559792 -0.03781015 -0.023338515
00000000: 35ec ab3c 356f 9a3d 98a5 22bd 80c4 4dbd
00000010: fcf1 79bb 50a3 98bc ca84 81bc ff91 383d
00000020: a020 2ebd ae4b 2f3d 4b83 d0bb bc50 60bd
00000030: bdf8 d23b 1acc 23bd 511d 2cba a402 46bc
00000040: 4f69 6abc d8cf 803c 1f52 a83c 8c49 2f39
00000050: 3bcd b4bc c439 f6bc cd5e 17bd dc20 43bd
00000060: a959 8c3b 7127 7ebd de9d 913c 427e d8bc
00000070: e671 0f3c 48ba 113d 7c4e 08bd b1d2 8abc
00000080: f260 2b3c 8cc5 fbbc 91ce 483b 9d03 ec39
00000090: 2aa2 adbc e7bd c0bc 3a60 e03b 1743 8f3c
000000a0: 6cfc 05bc 5b4a 84bd e32c 48bc 65e0 ae3c
000000b0: b544 72bc 5e73 65bd 0377 463c 74e1 683d
000000c0: f53e e9bb f88b 173d f007 6d3d e68e 11bd
000000d0: be89 d6bc 58d5 52bc 3f1f a7bb 7cea 313d
000000e0: cd7a ebbb 875e 2bbc 14ef 21bd 01ad 00bd
000000f0: 98d4 573c 9c12 1bbd 39da 54bc f276 b2bc
00000100: 64eb 40bd f337 31bc 3a03 db3c a9e6 2f3c
00000110: 0d17 0cbd 872d d3bc 2c68 bebc 5467 09bc
00000120: 4781 053d b850 013b 30a7 27bd 5dd7 f93c
00000130: 4e2c a2bc 63be 83bb dded b3ba d4a7 e73c
00000140: f591 30bd 016e 1fbd c491 a63c 3d4d 8e3d
00000150: ffa6 f03c 4cf0 653c 404a 85bc f3c6 1bbd
00000160: b456 e63b 2bea 18bd 21f2 1c3d f33e e0ba
00000170: 43e8 7cbd 4c47 4cbd 3bf6 21bd 9d70 98bc
00000180: e4a2 263d e962 73bd d2b6 913c 29b0 b73c
00000190: c1de 43bd fe46 6cbc d5c2 493d 4385 32bd
000001a0: 20e0 603b 6f6b 5d3d 4f7b c83c 58ce 0a3d
000001b0: d2e6 cf3c fc11 61bd a2e3 45bc 9e43 10b9
000001c0: 21b3 433c 0daf a63c 1e4a e6bc 5c93 49bd
000001d0: e902 483c 61a6 7a3b 6c61 83bc 6142 253d
000001e0: 7a68 d0bb c8ac 26bd 5e05 dcbc ce91 20bd
000001f0: 4697 5bbd 255d 48bb 7171 6cbd 64cb 31bc
00000200: 9ae0 c43c 9845 c73c a2f5 e2bc c82e e4bc
00000210: e597 20bc 492e 303c d406 8bba 203d 83bd
00000220: 6f63 1f3d ce37 09bc 25ac cebc ecf3 bf3c
00000230: ba23 95bc 26c8 803d 1119 28bd baf3 473d
00000240: a53e 2c3d c4df 103d b4a3 c6bc 7801 803d
00000250: b248 f83c a5fb 83bb 226d 6bbb 2090 023b
00000260: 90c9 2d3d 5797 d0bc 6d6e b53c ae26 b63c
00000270: 50a8 28bc 5dd5 d3bc 605a bf3c bf22 3b3d
00000280: f52e b23b 9cd3 103d ad1d b6bb e616 27bd
00000290: 8157 a33c 1d3c e0bc dc5b 033d bfce c4bc
000002a0: 6d67 dabc b440 a7bb 2e92 853d db60 f13b
000002b0: 04f9 783c 0fd9 d73d 4f80 bfbc 488b b93c
000002c0: 7259 35b8 c4ef 05bd be41 acbc d8ee 2d3d
000002d0: 3214 40bc d5b3 b2bc d2f4 8dbc d348 2ebd
000002e0: 036b 23bd c60b 07bd c2c7 5abb e243 cc3c
000002f0: e33d 003d 6de8 aa3c e51f 3b3c 42d8 d2bb
00000300: 8115 b0bd 64fd 0f3c 8db7 88bc 4816 113d
00000310: d239 1e3d aa2a 703d 26f4 6c3c 37a5 4a3c
00000320: 61b1 0f3c 177c be3c d243 553d 5e8f 5c3d
00000330: 5f3d 803c 995d 07bd fd2d cebc 796c 803c
00000340: f4e2 0b3d c851 7e3c e602 4e3d f5df d13c
00000350: a4f7 43bd d3c8 783a 72cc 4ebc 7bf6 a3ba
00000360: 088e e43b 9667 31bd c1a4 58bc 469c 453d
00000370: 0773 3fbd d479 8c3c e065 66bd 01c1 ff3c
00000380: 17b0 d93c dbc8 3e3c 8fdf 543c e3c3 ccbd
00000390: 2702 5bbc d15e 883d e66b f33b bdc7 fdbc
000003a0: 21a0 04bd 8c37 d13a d4ef 6dbc d19b 163d
000003b0: 54fe 203d a383 ab3b a651 2bbd 510a 20bd
000003c0: 128d 973c 691e 1e3c 727e fc3c 1c36 5b3d
000003d0: 807b 9cbc 6584 0c3d cd4e 78bc df7b 0b3d
000003e0: 284a 34bd f461 16ba 2d60 723c 6675 ef3c
000003f0: 2452 07bd fa02 2d3c d1de 1abd 6a30 bfbc

model.2.bias f4 [256]
0.025818208 -0.030974401 0.032907434 0.052600894 -0.03576612 -0.0071532447 0.025371032 -0.008952051
0.051127624 -0.0022064436 0.043181427 0.017020477 -0.03390338 -0.02726471 0.05028015 -0.02703968
0.04285051 0.039470833 -0.028698547 -0.012432681 -0.01624974 0.023159774 -0.0019425862 -0.022810267
0.030557062 -0.017082235 -0.03130505 0.01838447 -0.0018642048 0.015466365 -0.015575918 0.017440116
-0.027049543 -0.040983222 -0.039625794 0.046107892 0.008432668 -0.029759815 0.010689096 0.024937028
0.011265624 0.03654143 -0.034585714 0.042696416 -0.0054239514 0.0030839918 0.015319621 -0.039820306
-0.015937747 0.016067913 0.013453812 -0.025405647 0.019136157 -0.020880476 -0.024864849 -0.040176652
0.0027776905 0.018974284 -0.0108764 0.0009964622 -0.020015992 -0.049196735 0.009045972 -0.011292016
0.016551487 0.007550811 0.0014330306 -0.04602863 0.0006473553 -0.01174611 -0.002660853 0.037335463
-0.03103601 0.03031171 0.020854289 0.041136295 -0.02700122 -0.0101487655 0.035300143 -0.007611794
0.025066346 -0.020327382 -0.008531928 -0.026163196 0.0084746545 0.03145153 0.036708444 -0.023347072
0.017032234 -0.013743595 -0.03925994 -0.018083286 0.035946254 -0.07041062 0.005971161 -0.045944586
-0.014693522 -0.027600799 -0.048208445 0.03412659 -0.03317842 0.03075584 0.044239007 0.010989853
-0.0017463927 -0.019684106 -0.021193128 0.041898698 -0.046790134 -0.01745272 0.03222774 -0.0022053656
0.0024631678 0.0063773273 0.008040509 -0.020729648 -0.034781214 -0.0173584 0.008825165 0.0029957646
0.0013557051 -0.030550228 0.020320732 0.021638189 0.049279276 0.023873739 -0.018066496 -0.02547185
0.053167038 0.046376806 -0.017505532 0.0119333025 -0.018703464 -0.042069368 0.033544686 -0.034361545
-0.008982747 0.022778783 0.0029173426 0.052040752 0.01942999 0.0022043942 -0.031206615 -0.013942148
-0.0046956013 -0.03830373 0.03418414 0.006863735 0.036507938 0.02691154 -0.037640892 0.011289615
0.032630034 -0.0124436645 -0.037964147 -0.013214939 -0.050271466 -0.016962817 0.042977713 -0.027293306
-0.040320154 -0.019471642 -0.040804584 -0.015413452 -0.036730096 0.01117787 -0.049462438 -0.03734051
-0.010008793 0.03980643 -0.034258943 -0.029474802 0.024595702 -0.015758233 -0.0077290563 0.0005726188
-0.025915079 -0.05375177 0.00801816 -0.029097114 0.036940996 0.021149913 -0.0180152 0.0100194635
0.03758343 0.0071434733 0.022275351 0.025021173 0.02372746 0.018322973 0.033867553 -0.013299546
-0.028603401 -0.008226168 0.011530476 -0.005944337 0.007969972 0.04316712 -0.0009758384 -0.009388664
-0.008718423 -0.036924 0.01877943 0.036292024 -0.033245083 -0.0045897816 0.025780689 0.055221625
0.0013293852 -0.0059275446 -0.017664865 -0.02401255 0.027050482 -0.02172302 -0.016068524 0.005528216
-0.014967963 0.024119109 -0.014483855 0.0189858 0.007865903 -0.0077142147 -0.03313413 0.040826034
-0.009000981 0.027414704 0.022727955 0.042314153 -0.02671433 0.012118608 0.027333602 0.0205642
0.0152502125 0.025975378 0.0039831633 -0.04343431 0.0333222 -0.026328007 -0.018501393 -0.01996543
-0.005873723 0.03469152 0.03191103 -0.0085488185 0.012057917 -0.049761727 0.018400604 0.04595419
-0.008324461 0.0052908724 -0.016461337 0.0045512724 0.038482163 0.048468262 0.015999427 -0.0053074965
00000000: b580 d33c 07be fdbc f2c9 063d 0974 573d
00000010: 7f7f 12bd c465 eabb e9d6 cf3c a0ab 12bc
00000020: 336b 513d fb99 10bb 02df 303d 876e 8b3c
00000030: 45de 0abd 3e5a dfbc 8ff2 4d3d 5282 ddbc
00000040: 0484 2f3d 2bac 213d 3719 ebbc 72b2 4bbc
00000050: 2d1e 85bc 91b9 bd3c 609e feba 99dc babc
00000060: ce52 fa3c 0bf0 8bbc b939 00bd 079b 963c
00000070: 5558 f4ba a366 7d3c 2332 7fbc 93de 8e3c
00000080: 0197 ddbc 06de 27bd a84e 22bd a1db 3c3d
00000090: 2c29 0a3c dbca f3bc 5121 2f3c bd48 cc3c
000000a0: 7493 383c 77ac 153d c0a9 0dbd 70e2 2e3d
000000b0: 67bb b1bb cc1c 4a3b 26ff 7a3c 9e1a 23bd
000000c0: e18f 82bc dba0 833c 616d 5c3c 811f d0bc
000000d0: 6ec3 9c3c 880d abbc 5eb1 cbbc 4690 24bd
000000e0: ea09 363b f56f 9b3c ee32 32bc b99b 823a
000000f0: 94f8 a3bc 8482 49bd 8e35 143c 2602 39bc
00000100: fc96 873c cb6c f73b 87d4 bb3a 8488 3cbd
00000110: 47b3 293a c272 40bc b561 2ebb 12ed 183d
00000120: 3b3f febc 4350 f83c 9dd6 aa3c 887e 283d
00000130: aa31 ddbc 0247 26bc e296 103d 5b6c f9bb
00000140: f057 cd3c 9c85 a6bc 80c9 0bbc 3354 d6bc
00000150: 47d9 0a3c 52d3 003d 985b 163d 5c42 bfbc
00000160: 2f87 8b3c d12c 61bc 08cf 20bd 6623 94bc
00000170: 613c 133d 7133 90bd bba9 c33b 6430 3cbd
00000180: 19bd 70bc 121b e2bc 3876 45bd 53c8 0b3d
00000190: 18e6 07bd acf3 fb3c f633 353d c90e 343c
000001a0: 37e7 e4ba 9040 a1bc 369d adbc f89d 2b3d
000001b0: 03a7 3fbd 02f9 8ebc 3c01 043d e587 10bb
000001c0: 196d 213b e6f8 d03b 57bc 033c 39d1 a9bc
000001d0: bf76 0ebd 3433 8ebc 6d97 103c 9754 443b
000001e0: eab1 b13a 7944 fabc aa77 a63c 9242 b13c
000001f0: 11d9 493d dc92 c33c 3000 94bc 57aa d0bc
00000200: aec5 593d 9bf5 3d3d c367 8fbc e683 433c
00000210: 0238 99bc ee50 2cbd 2766 093d b1be 0cbd
00000220: 5f2c 13bc 929a ba3c e330 3f3b af28 553d
00000230: a42b 9f3c 9977 103b 04a5 ffbc 9b6d 64bc
00000240: 8fdd 99bb 5fe4 1cbd ab04 0c3d 2fe9 e03b
00000250: 5989 153d 9775 dc3c 562d 1abd 14f8 383c
00000260: 12a7 053d 83e0 4bbc 4b80 1bbd 7983 58bc
00000270: 74e9 4dbd 9bf5 8abc 6609 303d 3696 dfbc
00000280: bf26 25bd fe82 9fbc b522 27bd b488 7cbc
00000290: 4c72 16bd 6323 373c 2099 4abd 5df2 18bd
000002a0: ecfb 23bc 110c 233d 1b53 0cbd 2475 f1bc
000002b0: ed7c c93c 6917 81bc 0644 fdbb cc1b 163a
000002c0: dc4b d4bc d12a 5cbd 9a5e 033c 125d eebc
000002d0: 714f 173d 9542 ad3c 9d94 93bc ad28 243c
000002e0: 15f1 193d cc13 ea3b cc7a b63c 34f9 cc3c
000002f0: 1760 c23c 0f1a 963c b4b8 0a3d 57e6 59bc
00000300: ae51 eabc 0dc7 06bc 52ea 3c3c b7c8 c2bb
00000310: 7c94 023c 02d0 303d 68cf 7fba e9d2 19bc
00000320: b7d7 0ebc 9f3d 17bd 52d7 993c f2a6 143d
00000330: ff2b 08bd e165 96bb 0632 d33c 1230 623d
00000340: c43e ae3a d93b c2bb e8b5 90bc f8b5 c4bc
00000350: f998 dd3c 7af4 b1bc 23a2 83bc 0926 b53b
00000360: 303c 75bc 7095 c53c b14d 6dbc 1c88 9b3c
00000370: fddf 003c 86c7 fcbb a7b7 07bd 3339 273d
00000380: da78 13bc cd94 e03c fa2f ba3c 9b51 2d3d
00000390: 03d8 dabc 208d 463c b8ea df3c 4176 a83c
000003a0: 07dc 793c 51ca d43c 3285 823b 2de8 31bd
000003b0: dc7c 083d d5ad d7bc 3c90 97bc 8b8e a3bc
000003c0: 5c78 c0bb b218 0e3d 24b5 023d 5810 0cbc
000003d0: 928e 453c f4d2 4bbd ddbc 963c 763a 3c3d
000003e0: 5263 08bc 0e5f ad3b edd9 86bc d722 953b
000003f0: 799f 1d3d a886 463d 3b11 833c 82ea adbb

model.4.weight f4 [3, 256]
-0.025871826 0.09575564 -0.03383123 0.02088093 -0.06691974 0.011390956 0.022073127 0.051572498
0.017941168 0.040845167 0.055291858 0.06255445 -0.056520846 0.0052858186 0.020905599 0.017389216
0.026198532 -0.00026220892 0.050071444 0.06551142 0.058047254 0.01824385 -0.041866783 -0.038177643
0.057185568 -0.007663455 0.023576714 -0.082785755 -0.05511801 0.042312335 -0.10672645 0.1357904
0.058857877 -0.046570074 -0.017682124 0.07043377 0.07492059 0.08896697 -0.07013944 0.06350103
0.053778555 -0.13157704 0.14591536 0.016819227 -0.05672185 -0.041353837 -0.014334226 -0.009701495
-0.008967907 0.07291267 -0.035715573 0.01874655 -0.059857097 -0.09359592 0.026230229 -0.06713798
0.014636686 -0.062289238 -0.037958622 -0.07423414 -0.061681747 -0.17748302 0.05528257 -0.048518773
-0.007228179 0.042436324 0.025495457 -0.176242 0.0073492914 0.05475454 -0.00681045 0.06305738
0.15938619 0.058694452 0.0024527318 0.026330711 0.073262595 -0.12429888 0.07467456 -0.058899194
-0.018472787 0.021767657 -0.060772803 0.020121258 0.038404543 -0.04521306 0.03555213 -0.045094594
0.021048402 0.063140444 0.020072868 0.036333546 0.040220276 -0.05927933 0.03955433 -0.01556765
-0.061922975 0.05592284 -0.034312017 -0.029740846 -0.04156252 -0.06094783 -0.0397192 -0.044211287
-0.029543107 0.066621386 0.044743888 -0.040198408 -0.038055617 -0.012514237 0.01445136 0.048932858
-0.10022975 -0.013266674 -0.018098867 0.072867766 0.028092174 0.048944775 0.0053491704 0.055982262
-0.050156463 0.0011463233 0.015415472 -0.032082576 0.05173929 -0.1251579 0.09639051 0.03463972
0.07652551 0.019555891 -0.11563644 -0.028843736 0.023148319 -0.06937294 0.0541848 0.0021914404
0.004601847 -0.063915856 0.021161476 -0.023548571 -0.025833484 -0.05595993 0.05131969 0.014252133
0.09169609 -0.03544974 -0.17653795 -0.060551833 -0.021965168 -0.030943552 0.0024560625 -0.05875011
-0.041582964 -0.025959846 0.020627318 -0.071463235 -0.19430259 -0.015234902 -0.028834606 0.020071164
-0.028410245 0.035004508 0.040584307 -0.034910496 0.06976237 -0.0740014 -0.12936658 -0.061498433
-0.055113215 0.033925172 -0.039164875 -0.05741486 0.089263186 0.04168944 0.00096559327 0.05792836
0.12976739 -0.062984005 -0.054615885 0.07097354 -0.05091354 -0.018643547 0.06565869 0.06336064
0.0731751 -0.00015981136 0.027232962 0.10331176 -0.008033895 -0.026307499 -0.007831961 0.03664999
0.021538025 0.029065633 -0.011704501 -0.019294238 -0.022350242 0.058973268 -0.043616887 0.030512214
-0.05678931 -0.029301906 0.045935713 0.032962076 -0.0064231665 -0.011252231 -0.08657618 0.07384903
0.068047434 0.05754249 0.051222082 0.022660494 -0.0069608353 -0.055420227 -0.06838532 -0.023257706
-0.14075395 -0.0021685709 0.112721935 -0.02518089 0.031589773 0.039953757 0.06665858 0.07356477
0.046326723 -0.036447946 0.08843425 0.011478352 0.03779143 -0.21615541 0.06012603 0.045873147
0.027376289 -0.020558124 0.050192032 -0.060977288 0.09857656 -0.0019902596 -0.17502011 -0.021004686
0.053303637 0.01743944 -0.04564594 0.002489446 -0.06059531 0.0014477214 -0.046220724 0.067737214
-0.02323451 0.022193106 -0.006004363 0.06148163 -0.081989415 0.012511671 -0.07235386 -0.21572272
00000000: 27f1 d3bc 881b c43d 9e92 0abd 7c0e ab3c
00000010: 370d 89bd 22a1 3a3c b4d2 b43c af3d 533d
00000020: 5bf9 923c 434d 273d b779 623d 8c1c 803d
00000030: 6782 67bd a934 ad3b 3842 ab3c d473 8e3c
00000040: 4e9e d63c 1679 89b9 b717 4d3d da2a 863d
00000050: f5c2 6d3d 2074 953c 817c 2bbd 2960 1cbd
00000060: 6a3b 6a3d b81d fbbb f423 c13c 948b a9bd
00000070: 6cc3 61bd b34f 2d3d 6693 dabd a30c 0b3e
00000080: f514 713d 43c0 3ebd 1ada 90bc 953f 903d
00000090: f76f 993d 5134 b63d 44a5 8fbd d40c 823d
000000a0: e746 5c3d 22bc 06be d66a 153e 7ac8 893c
000000b0: 2c55 68bd a462 29bd 1ada 6abc 05f3 1ebc
000000c0: 21ee 12bc 3d53 953d 7e4a 12bd 5d92 993c
000000d0: b72c 75bd 38af bfbd c7e0 d63c a37f 89bd
000000e0: b6ce 6f3c 0023 7fbd 807a 1bbd 1208 98bd
000000f0: 00a6 7cbd 1cbe 35be fa6f 623d 9fbb 46bd
00000100: 5cda ecbb b6d1 2d3d d9db d03c c878 34be
00000110: 53d2 f03b 4c46 603d 322a dfbb 3a24 813d
00000120: 2236 233e 9869 703d 03be 203b 81b3 d73c
00000130: b30a 963d 6990 febd faee 983d 4840 71bd
00000140: 3e54 97bc 1652 b23c e7ec 78bd 56d5 a43c
00000150: 154e 1d3d 5431 39bd 1c9f 113d 1cb5 38bd
00000160: b36d ac3c c74f 813d db6f a43c 7cd2 143d
00000170: 04be 243d e2ce 72bd b903 223d 750f 7fbc
00000180: f2a2 7dbd 590f 653d c28a 0cbd 13a3 f3bc
00000190: 763d 2abd 6fa4 79bd 9ab0 22bd e516 35bd
000001a0: 6304 f2bc cb70 883d 5e45 373d 16a7 24bd
000001b0: 35e0 1bbd 8408 4dbc 66c5 6c3c d26d 483d
000001c0: 4145 cdbd 775c 59bc 1344 94bc b23b 953d
000001d0: 8f21 e63c 517a 483d 1848 af3b a84d 653d
000001e0: dd70 4dbd 3a40 963a 2d91 7c3c 0569 03bd
000001f0: 94ec 533d 6429 00be 6368 c53d 61e2 0d3d
00000200: 68b9 9c3d ad33 a03c ccd2 ecbd b349 ecbc
00000210: 8ba1 bd3c 6613 8ebd e1f0 5d3d 459e 0f3b
00000220: 17cb 963b 51e6 82bd d55a ad3c efe8 c0bc
00000230: bea0 d3bc 3d36 65bd 9834 523d c781 693c
00000240: 29cb bb3d bf33 11bd 5dc6 34be 3305 78bd
00000250: 4cf0 b3bc 557d fdbc e4f5 203b f5a3 70bd
00000260: e652 2abd bea9 d4bc 9ffa a83c 515b 92bd
00000270: 42f7 46be cf9b 79bc 8d36 ecbc 486c a43c
00000280: 9abc e8bc e360 0f3d bb3b 263d 4ffe 0ebd
00000290: 93df 8e3d 0c8e 97bd ac78 04be c8e5 7bbd
000002a0: 65be 61bd 1ff5 0a3d 596b 20bd d82b 6bbd
000002b0: 9ecf b63d 8cc2 2a3d de1f 7d3a 4a46 6d3d
000002c0: bee1 043e c2fd 80bd e8b4 5fbd 935a 913d
000002d0: b78a 50bd 5aba 98bc 1078 863d 39c3 813d
000002e0: d4dc 953d 0993 27b9 a917 df3c 1e95 d33d
000002f0: 99a0 03bc d382 d7bc a051 00bc 4d1e 163d
00000300: 8370 b03c 0d1b ee3c 3cc4 3fbc f30e 9ebc
00000310: db17 b7bc f48d 713d 9fa7 32bd c0f4 f93c
00000320: e89b 68bd 8d0a f0bc 1627 3c3d 3e03 073d
00000330: 6d79 d2bb 475b 38bc da4e b1bd 293e 973d
00000340: 745c 8b3d adb1 6b3d 3fce 513d 80a2 b93c
00000350: b817 e4bb 5200 63bd 9a0d 8cbd f286 bebc
00000360: ce21 10be 951e 0ebb c2da e63d 2748 cebc
00000370: 4764 013d 8da6 233d 4b84 883d 20a9 963d
00000380: 17c1 3d3d 714a 15bd 041d b53d b30f 3c3c
00000390: 30cb 1a3d d857 5dbe b646 763d 7be5 3b3d
000003a0: 3d44 e03c 8369 a8bc 2996 4d3d 52c3 79bd
000003b0: 82e2 c93d 046f 02bb 7938 33be 0512 acbc
000003c0: ea54 5a3d 28dd 8e3c 3df7 3abd f925 233b
000003d0: ca32 78bd 78c1 bd3a f151 3dbd cfb9 8a3d
000003e0: 4d56 bebc 51ce b53c 3fc0 c4bb 29d4 7b3d
000003f0: 11ea a7bd c0fd 4c3c 432e 94bd 6be6 5cbe

model.4.bias f4 [3]
-0.005695543 0.033867456 -0.04683725
00000000: ada1 babb 9ab8 0a3d 6bd8 3fbd
