models/three_layers/threeLayerModel_ee_corrCut_0.9_weights_false.pt (torch, 707244 bytes, 18 tensors)

model.0.weight f4 [512, 77]
-0.006355566 -0.10289232 -0.006983704 -0.08140227 -0.09536934 0.04139727 0.09747408 0.002870937
0.036804095 -0.0055956384 0.0038485383 0.044220123 0.018664528 0.019428253 -0.07182495 0.1082946
0.047412954 0.06842108 0.09768725 -0.08037935 0.056107704 0.036383923 0.07287741 0.058481846
0.09300919 -0.08907478 -0.1115081 -0.08086645 0.049827825 -0.031660434 -0.04283342 0.0642943
-0.021108644 0.038876157 0.092437334 -0.024868924 0.0041128346 0.053684648 -0.038338326 -0.075250894
-0.0047644232 0.06841785 0.024986671 0.03670408 -0.018502228 0.055496812 0.07062906 0.0922129
-0.04096192 -0.059013072 0.0015809787 0.023361234 -0.02301336 -0.048600845 0.029599316 -0.010035982
0.0066417335 0.019706681 -0.010227939 -0.09333167 -0.03552091 0.022123782 -0.01561799 0.08766797
0.061798844 0.024701249 -0.024873076 -0.043151077 -0.08569296 -0.091262124 -0.08833357 0.09164399
0.048000015 0.07428328 0.052978102 -0.051140163 -0.012391545 -0.00031394087 -0.07598664 0.046381023
-0.031206742 -0.10048235 -0.07646892 -0.018438732 -0.103685334 0.0977894 0.07246776 -0.09668845
0.03563942 0.03929737 0.07413771 -0.017299764 0.04599173 -0.07414928 -0.05253702 -0.08530444
-0.095724724 0.02251154 -0.0656354 -0.070206985 -0.07554444 0.067349724 0.047707796 0.0714407
0.055264946 -0.07322381 0.021392936 0.034268435 -0.06253714 0.09784121 0.08604873 -0.110000774
-0.02072135 0.010561441 -0.09630745 -0.0015416978 0.024865512 0.025342157 -0.041333165 0.046153884
0.10930761 -0.009697697 0.0600973 0.03607361 -0.0139783025 -0.09136863 0.04484382 0.02797896
0.08718122 0.05155575 0.041728552 -0.061376378 0.08250231 0.07929367 -0.09352243 0.07421946
-0.07997217 0.036679532 -0.028289925 -0.08810513 -0.107426405 -0.105753645 0.0019197393 0.0806968
0.006173599 0.016653081 0.06992658 0.10663368 -0.066843964 0.023038723 -0.117894225 -0.014633234
0.09158807 0.08011787 -0.0013510126 0.04947248 0.10703132 -0.027447835 0.051259432 0.030739205
0.112165816 0.09262949 0.032462332 -0.06440868 0.096193016 -0.039721154 -0.007495167 0.058419522
0.092833504 0.088639416 -0.10082159 -0.10283018 0.019241156 -0.09498271 0.11150039 0.026143622
-0.047545798 0.098763004 -0.089591086 0.05406189 -0.06009339 -0.044476107 -0.04333103 0.0033381823
0.11417116 -0.00407603 -0.09175598 0.11397736 0.08856667 -0.026585976 -0.013895902 -0.021681726
0.114300095 0.07505172 0.032413345 0.026367294 -0.015210054 0.051739354 -0.10303246 -0.040502783
-0.07943775 0.08462486 0.09585171 -0.029050758 0.044830605 -0.074556515 0.09536447 0.07318096
0.10815138 0.10331387 -0.013497204 0.03073403 0.04728828 -0.05075388 -0.022826063 0.036986046
-0.0019815445 -0.053054385 -0.046461463 0.036054254 0.06281861 0.02857586 0.05932342 0.016844038
0.08934424 0.06527316 -0.11735046 0.06555383 -0.007627762 -0.046093907 -0.017227646 0.08439557
0.11149323 -0.029326934 -0.043818366 0.07088263 -0.03137353 0.014518167 0.102175444 -0.0154000865
0.081439175 0.09223758 -0.10321953 0.07108675 0.102349855 -0.061231434 0.057264417 0.10513459
-0.025367735 -0.092098355 0.0533729 -0.055587 0.06898178 -0.10848279 0.067218795 0.042979345
00000000: 5a42 d0bb 35b9 d2bd 8ed7 e4bb 3cb6 a6bd
00000010: 0051 c3bd 2f90 293d 7ea0 c73d 5526 3c3b
00000020: e4bf 163d 9e5b b7bb c237 7c3b 2920 353d
00000030: 5ae6 983c 0028 9f3c f618 93bd 8fc9 dd3d
00000040: 1634 423d 5a20 8c3d 4110 c83d ee9d a4bd
00000050: 31d1 653d 4f07 153d c040 953d a98a 6f3d
00000060: 9a7b be3d d76c b6bd 5c5e e4bd 4f9d a5bd
00000070: 4318 4c3d 5fae 01bd 1972 2fbd bbac 833d
00000080: 09ec acbc 9b3c 1f3d c94f bd3d eab9 cbbc
00000090: f5c4 863b 6fe4 5b3d a608 1dbd 241d 9abd
000000a0: e11e 9cbb a81e 8c3d d9b0 cc3c 0457 163d
000000b0: fc91 97bc a050 633d f8a5 903d 1eda bc3d
000000c0: b0c7 27bd b1b7 71bd d838 cf3a 0f60 bf3c
000000d0: 8486 bcbc ae11 47bd 447a f23c f66d 24bc
000000e0: e6a2 d93b e86f a13c 1693 27bc ad24 bfbd
000000f0: 607e 11bd ef3c b53c 99e2 7fbc 448b b33d
00000100: c920 7d3d 465a ca3c 9fc2 cbbc 2fbf 30bd
00000110: ca7f afbd a3e7 babd 3be8 b4bd d8af bb3d
00000120: aa9b 443d d521 983d 91ff 583d 5978 51bd
00000130: e805 4bbc 6e98 a4b9 e29e 9bbd 07fa 3d3d
00000140: 48a5 ffbc b1c9 cdbd bd9b 9cbd d30c 97bc
00000150: fa58 d4bd cf45 c83d fa69 943d 9804 c6bd
00000160: a4fa 113d 47f6 203d 83d5 973d 3cb8 8dbc
00000170: d361 3c3d 94db 97bd 0f31 57bd 18b4 aebd
00000180: 530b c4bd 1f6a b83c da6b 86bd aec8 8fbd
00000190: 0bb7 9abd a7ee 893d 4069 433d 804f 923d
000001a0: 7f5d 623d 5df6 95bd 3d40 af3c 0f5d 0c3d
000001b0: 7913 80bd f960 c83d 513a b03d 1648 e1bd
000001c0: d2bf a9bc e509 2d3c d73c c5bd cb12 caba
000001d0: c2b2 cb3c 5b9a cf3c f74c 29bd db0b 3d3d
000001e0: abdc df3d 17e3 1ebc 9628 763d ecc1 133d
000001f0: 4005 65bc 7a1f bbbd 27ae 373d 2234 e53c
00000200: 118c b23d 1f2c 533d 8feb 2a3d cc65 7bbd
00000210: f9f6 a83d b864 a23d b088 bfbd 5f00 983d
00000220: 73c8 a3bd 473d 163d 46c0 e7bc 7670 b4bd
00000230: 6002 dcbd 5e95 d8bd c39f fb3a 5d44 a53d
00000240: e74b ca3b 0b6c 883c ab35 8f3d c262 da3d
00000250: 7de5 88bd b4bb bc3c 8772 f1bd 3bc0 6fbc
00000260: 8792 bb3d d614 a43d 7614 b1ba a8a3 4a3d
00000270: 3d33 db3d 48da e0bc 69f5 513d c9d0 fb3c
00000280: 31b7 e53d 88b4 bd3d 39f7 043d b3e8 83bd
00000290: d800 c53d a6b2 22bd 059a f5bb 4f49 6f3d
000002a0: 7e1f be3d 9588 b53d 8d7b cebd a198 d2bd
000002b0: a19f 9d3c 4c86 c2bd 515a e43d 262b d63c
000002c0: 62bf 42bd 4244 ca3d 887b b7bd 0070 5d3d
000002d0: 7d24 76bd 942c 36bd e17b 31bd 68c5 5a3b
000002e0: 92d2 e93d 3890 85bb 8fea bbbd f66c e93d
000002f0: 7162 b53d d5ca d9bc a3ab 63bc e09d b1bc
00000300: 2b16 ea3d b7b4 993d dbc3 043d 3900 d83c
00000310: 9733 79bc a5ec 533d af02 d3bd 3fe6 25bd
00000320: 42b0 a2bd cc4f ad3d e74d c43d dbfb edbc
00000330: 4ca0 373d 16b1 98bd 724e c33d e6df 953d
00000340: 797e dd3d 3996 d33d 6023 5dbc efc5 fb3c
00000350: 5bb1 413d 4de3 4fbd b9fd babc ae7e 173d
00000360: cddc 01bb 8e4f 59bd 604e 3ebd a0ad 133d
00000370: 0ba7 803d ec17 ea3c 1dfd 723d 82fc 893c
00000380: 1dfa b63d efad 853d 7055 f0bd 1641 863d
00000390: 4ef2 f9bb f7cc 3cbd fe20 8dbc 96d7 ac3d
000003a0: 9056 e43d 0a3f f0bc e37a 33bd ea2a 913d
000003b0: 8881 00bd 9bdd 6d3c 5c41 d13d a550 7cbc
000003c0: 95c9 a63d 0ee7 bc3d c364 d3bd ee95 913d
000003d0: cd9c d13d d0cd 7abd 188e 6a3d ce50 d73d
000003e0: ffcf cfbc 109e bcbd 8b9d 5a3d 32af 63bd
000003f0: 5246 8d3d 3a2c debd 02aa 893d 1c0b 303d

model.0.bias f4 [512]
-0.083325066 -0.11089804 -0.11302722 0.0055379258 0.031657957 -0.036414698 -0.06662318 -0.04775324
0.033074334 -0.059686147 -0.045246642 -0.08746152 0.0052922308 0.07651646 -0.041339405 -0.05403698
-0.00864745 0.03751422 -0.06024785 -0.03787661 -0.08507552 0.111537196 -0.011218951 0.054100994
-0.09434392 0.09731787 0.06353365 0.10559333 -0.08549463 0.038901955 -0.08198012 0.113130614
0.011361823 -0.034842577 -0.04798495 0.06573817 0.097849235 -0.08417219 0.07202947 -0.042579032
-0.08635536 0.07041493 0.03551472 0.10076325 -0.013809672 -0.0010984214 0.016036903 0.011960847
0.04394579 0.11334558 0.053820353 0.05698624 -0.04872689 -0.10058738 0.015656829 0.06150625
-0.10699146 -0.10439597 -0.09806142 0.023838244 0.02390209 0.036873143 0.095681295 -0.018904395
-0.003778426 -0.04701846 0.08000428 -0.096671015 -0.020521954 -0.10303875 -0.017854014 0.08633099
-0.08184697 0.014032317 0.04212834 -0.01955773 -0.078119345 0.01688561 -0.07291106 0.0013204291
0.018679406 -0.03271008 -0.081048176 0.08770928 0.06354388 0.1111 0.054219373 -0.03174494
-0.012290164 0.05354861 0.0025496767 -0.097955234 -0.04902014 -0.02690437 0.02911378 -0.025747888
-0.048310447 0.0714726 -0.05725929 0.091225736 0.021101132 -0.05572739 0.07360321 0.07491927
0.043111198 -0.042976163 -0.09808798 0.10512149 0.004388118 -0.040526945 -0.08458891 -0.09369337
0.008299055 -0.10336869 0.021334998 -0.043129135 -0.07215367 0.020677658 -0.09835193 0.102468036
-0.04226613 0.019772425 0.003595656 -0.028442563 0.08485404 -0.08801749 -0.10833985 0.10523307
0.08435499 -0.1108228 -0.017841073 0.02896678 0.008900808 -0.10781311 -0.07193373 -0.064645804
0.024258917 0.08957541 0.081314474 0.08493643 -0.06272049 0.040685788 0.09282889 0.057415042
0.052378602 -0.09269042 -0.038866427 -0.08350939 -0.07724575 0.056686096 -0.09090194 -0.050379302
0.060227167 -0.11157105 -0.014790931 0.05794978 -0.09691551 -0.021071354 0.11573354 0.00222552
0.026925588 0.106910035 0.093516394 0.03909136 0.07748069 0.022569299 -0.035340294 0.00899928
-0.017499387 0.026122497 0.062027935 -0.10277614 -0.08198735 -0.10758484 -0.080467924 -0.011659535
-0.10783498 -0.03271565 -0.051377643 0.036355577 -0.06318926 0.043396857 -0.09467436 -0.10207271
0.07478162 -0.056054074 0.054716054 0.042906955 -0.10322374 -0.09893001 -0.01306996 -0.06692841
-0.075990476 0.0453528 -0.11160404 0.09470468 -0.06737412 -0.0636718 -0.010097594 -0.040836353
-0.0008348214 0.10316288 0.060010932 0.028105281 -0.021918023 0.07359858 -0.027489426 -0.10871993
0.04333213 -0.08186562 -0.023867948 0.008482571 0.06131396 -0.08291597 -0.023244584 -0.11254038
-0.056671903 0.05820297 -0.047677144 -0.07706643 -0.0056735277 -0.11075562 -0.097793944 0.010411337
-0.06761761 -0.09894323 -0.029401418 -0.09378849 -0.010898797 -0.063488536 0.09683573 0.106878266
-0.08840215 -0.053014252 -0.028157428 0.034974705 0.048981275 0.083892 -0.05902179 -0.009716188
0.019394707 0.051175382 0.099779025 -0.034139615 0.07847056 0.021844402 -0.09792109 -0.018037608
-0.09841236 -0.010883531 -0.090906605 0.007693838 0.03472267 -0.022668898 0.072627716 0.023521
00000000: 55a6 aabd 831e e3bd d17a e7bd 7d77 b53b
00000010: c6ab 013d 9427 15bd bc71 88bd e798 43bd
00000020: f478 073d 7679 74bd 8b54 39bd 071f b3bd
00000030: 736a ad3b a9b4 9c3d 8253 29bd e155 5dbd
00000040: 09ae 0dbc 83a8 193d 73c6 76bd 8124 1bbd
00000050: 133c aebd 9d6d e43d b1cf 37bc 0199 5d3d
00000060: 6337 c1bd 974e c73d ee1d 823d 5141 d83d
00000070: cf17 afbd a857 1f3d 31e5 a7bd 06b1 e73d
00000080: f126 3a3c 17b7 0ebd de8b 44bd bca1 863d
00000090: 2e65 c83d 7862 acbd 3084 933d 5a67 2ebd
000000a0: 14db b0bd b435 903d e277 113d f65c ce3d
000000b0: f641 62bc e8f8 8fba d35f 833c 6ef7 433c
000000c0: 8000 343d ba21 e83d bb72 5c3d 676a 693d
000000d0: d995 47bd c200 cebd c042 803c faed 7b3d
000000e0: 571e dbbd 8ecd d5bd 6dd4 c8bd 6c48 c33c
000000f0: 51ce c33c 4b08 173d 8ef4 c33d 64dd 9abc
00000100: 789f 77bb 6e96 40bd 49d9 a33d 74fb c5bd
00000110: a81d a8bc fb05 d3bd 9542 92bc 4dce b03d
00000120: 629f a7bd cee7 653c c48e 2c3d 8837 a0bc
00000130: 09fd 9fbd b153 8a3c 6552 95bd 4012 ad3a
00000140: 8e05 993c 01fb 05bd 96fc a5bd eca0 b33d
00000150: 4b23 823d 6688 e33d 2215 5e3d fb06 02bd
00000160: af5c 49bc ca55 5b3d 7a18 273b c19c c8bd
00000170: 58c9 48bd 8e66 dcbc 0680 ee3c 3ced d2bc
00000180: 2de1 45bd 3a60 923d b888 6abd 8fd4 ba3d
00000190: 48dc ac3c 6742 64bd 48bd 963d 466f 993d
000001a0: 5e95 303d c607 30bd 5ae2 c8bd f049 d73d
000001b0: 34ca 8f3b 95ff 25bd f33c adbd 4fe2 bfbd
000001c0: c2f8 073c f7b2 d3bd bcc6 ae3c 2da8 30bd
000001d0: 4ec5 93bd 3164 a93c bd6c c9bd c3da d13d
000001e0: 401f 2dbd c8f9 a13c 19a5 6b3b 6100 e9bc
000001f0: f4c7 ad3d 8442 b4bd 49e1 ddbd 7084 d73d
00000200: 4fc2 ac3d 10f7 e2bd 7127 92bc be4b ed3c
00000210: b2d4 113c 1fcd dcbd fe51 93bd 0565 84bd
00000220: a3ba c63c 5073 b73d 3488 a63d 27f3 ad3d
00000230: 9a73 80bd 24a6 263d 131d be3d 092c 6b3d
00000240: f28a 563d 7ad4 bdbd 6732 1fbd f906 abbd
00000250: 0533 9ebd ae2f 683d cc2a babd 875a 4ebd
00000260: c3b0 763d 5d7f e4bd a955 72bc c05c 6d3d
00000270: a47b c6bd d59d acbc b505 ed3d 08da 113b
00000280: 0d93 dc3c a6f3 da3d 8685 bf3d 431e 203d
00000290: 32ae 9e3d 40e3 b83c fcc0 10bd b771 133c
000002a0: e05a 8fbc d9fe d53c 0111 7e3d 4c7c d2bd
000002b0: fce8 a7bd 7155 dcbd 5ecc a4bd a207 3fbc
000002c0: 96d8 dcbd d800 06bd 5d71 52bd 96e9 143d
000002d0: 5f69 81bd e7c0 313d a1e4 c1bd 7f0b d1bd
000002e0: 1b27 993d f598 65bd f11d 603d 34bf 2f3d
000002f0: f866 d3bd d19b cabd 6323 56bc c311 89bd
00000300: e5a0 9bbd dcc3 393d a990 e4bd 87f4 c13d
00000310: 71fb 89bd 5c66 82bd 6170 25bc 0544 27bd
00000320: ead7 5aba 0f47 d33d 06ce 753d 0c3d e63c
00000330: 6d8d b3bc daba 963d 8131 e1bc 8ea8 debd
00000340: 087d 313d 2aa9 a7bd b786 c3bc 7bfa 0a3c
00000350: 5924 7b3d d9cf a9bd 6d6b bebc 927b e6bd
00000360: cc20 68bd 3d66 6e3d 1c49 43bd 01d5 9dbd
00000370: 00e9 b9bb d8d3 e2bd 3148 c8bd 5094 2a3c
00000380: 1a7b 8abd c0a2 cabd 3edb f0bc 2e14 c0bd
00000390: de90 32bc 4706 82bd d051 c63d fee2 da3d
000003a0: 300c b5bd 7925 59bd 68aa e6bc a341 0f3d
000003b0: 97a0 483d 92cf ab3d d5c0 71bd a530 1fbc
000003c0: a6e1 9e3c 479d 513d f258 cc3d fbd5 0bbd
000003d0: 2cb5 a03d 08f3 b23c da8a c8bd 9bc3 93bc
000003e0: 6b8c c9bd d650 32bc 3e2d babd 971c fc3b
000003f0: 5c39 0e3d 20b4 b9bc d7bd 943d 1daf c03c

model.1.weight f4 [512]
1.0007415 0.99867356 1.0037538 1.0005558 0.99990773 0.99980396 1.0000709 1.0016662
1.0021513 1.0014712 0.9995178 1.0000427 0.9978975 0.99907625 1.0031924 0.99790365
0.9991636 0.9982756 0.9991551 1.0032039 0.9987464 0.9991106 0.99872965 1.0007974
1.0008402 1.0008932 1.0014346 0.9981335 0.9974227 1.0030789 1.0026311 1.001951
1.0007695 0.99845576 1.000185 0.9988217 1.0006312 0.9978205 1.0027645 0.9970962
0.9999096 1.0031116 0.9976648 1.0024338 0.9980909 0.99849916 1.0018629 0.9983231
1.000779 1.0010456 0.9988911 0.99965465 1.0003 1.0049855 1.0009729 0.99736106
0.99837744 0.99911946 1.0010756 1.0017892 0.9979689 0.9973439 1.0029224 0.99962336
0.99833244 1.0003145 1.000408 1.0024085 1.001813 0.99841875 1.0031735 1.0003335
1.0018687 0.99797654 1.0023485 0.997838 1.0030184 0.9965333 0.9984612 1.0013337
1.0026102 0.9969896 0.995838 0.9971388 1.0009732 0.99783313 0.9976275 0.99737155
1.0018526 0.9962422 1.0025043 0.99846196 0.9983555 1.0026448 1.0002372 1.0018723
1.0005853 1.0010327 1.0012457 1.0026945 1.0008451 1.0032222 1.0015094 1.0006348
0.99550724 1.0016756 0.9997443 1.0040101 1.0023127 0.99844134 0.99747664 0.9984989
0.99548167 1.0016257 0.9994735 0.9974421 1.003018 0.9994462 1.0000174 1.0021095
1.0014207 1.0029945 1.0015143 1.0024794 0.9987135 1.0007731 0.99864495 1.0037445
1.0022944 1.000366 0.9993012 0.997542 0.998079 1.000344 1.00153 1.0028921
0.9992698 1.0032526 1.0033165 1.0000563 0.9987408 1.0003146 0.9975422 0.9991967
1.0014397 0.99947333 1.0019096 0.99872935 0.99813414 1.0020653 0.9972841 1.0016329
0.998194 1.0018837 1.0021629 0.9990793 1.0040089 1.0009369 0.9987197 0.9986618
0.9980052 0.9976671 1.0005959 1.0028138 1.0033896 0.9995909 0.9989296 1.0006934
1.004092 0.99912333 0.9977834 0.99976844 0.9970582 0.99927586 1.004352 0.9985142
0.9996812 1.0012784 0.9985419 1.0037576 0.99897164 1.0006733 0.9973376 1.0008225
1.0015172 0.9975395 0.99741375 0.9991579 0.9984462 0.9981219 0.99721324 0.99885195
0.99898285 1.003589 0.9975479 1.003314 1.0017347 1.0019547 0.9986483 0.9997829
0.99735373 0.99720454 0.9976041 0.9985036 0.99839115 0.9991629 0.99894357 0.9983435
0.99835664 1.0006285 1.000092 0.9989911 0.99981076 1.0005245 0.9981995 1.0020646
1.0019412 0.99649554 1.0037128 1.0025789 0.9994759 1.0002315 1.0021777 0.998971
0.9997274 1.0028502 1.0017306 0.99954367 0.99847054 0.9965252 1.0006144 0.9969037
1.0033697 0.9987028 1.0028261 1.0001171 0.99652284 0.9976201 1.0023464 0.99772745
1.0014623 0.99918157 1.0011492 1.0004776 1.0017133 1.0030837 1.0009536 0.9991617
1.0016384 0.99828225 1.0018419 0.9968629 0.999034 0.99860775 1.0028396 1.0013964
00000000: 4c18 803f 12a9 7f3f 017b 803f 3612 803f
00000010: f4f9 7f3f 27f3 7f3f 5302 803f 9936 803f
00000020: 7e46 803f 3530 803f 66e0 7f3f 6601 803f
00000030: 3676 7f3f 76c3 7f3f 9c68 803f 9d76 7f3f
00000040: 30c9 7f3f fd8e 7f3f a1c8 7f3f fc68 803f
00000050: d8ad 7f3f b6c5 7f3f bfac 7f3f 211a 803f
00000060: 881b 803f 451d 803f 022f 803f ad85 7f3f
00000070: 1857 7f3f e464 803f 3756 803f ee3f 803f
00000080: 3719 803f cc9a 7f3f 1006 803f c7b2 7f3f
00000090: af14 803f 2a71 7f3f 965a 803f b241 7f3f
000000a0: 13fa 7f3f f665 803f f666 7f3f c04f 803f
000000b0: e382 7f3f a49d 7f3f 0b3d 803f 1a92 7f3f
000000c0: 8719 803f 4322 803f 54b7 7f3f 5ee9 7f3f
000000d0: d509 803f 5da3 803f e11f 803f 0e53 7f3f
000000e0: aa95 7f3f 4bc6 7f3f 3f23 803f a13a 803f
000000f0: e47a 7f3f ee51 7f3f c35f 803f 51e7 7f3f
00000100: b792 7f3f 4e0a 803f 5f0d 803f ec4e 803f
00000110: 693b 803f 5f98 7f3f fd67 803f ee0a 803f
00000120: 3c3d 803f 647b 7f3f f54c 803f 5072 7f3f
00000130: e862 803f ce1c 7f3f 279b 7f3f b42b 803f
00000140: 8855 803f b63a 7f3f 3def 7e3f 7d44 7f3f
00000150: e41f 803f fe71 7f3f 8464 7f3f be53 7f3f
00000160: b53c 803f bb09 7f3f 1052 803f 349b 7f3f
00000170: 3a94 7f3f aa56 803f c607 803f 5a3d 803f
00000180: 2e13 803f d721 803f d228 803f 4b58 803f
00000190: b11b 803f 9669 803f 7631 803f cd14 803f
000001a0: 90d9 7e3f e836 803f 3eef 7f3f 6783 803f
000001b0: c84b 803f da99 7f3f a15a 7f3f a09d 7f3f
000001c0: e3d7 7e3f 4535 803f 7fdd 7f3f 5e58 7f3f
000001d0: e562 803f b5db 7f3f 9200 803f 2045 803f
000001e0: 8e2e 803f 2062 803f 9f31 803f 3f51 803f
000001f0: b0ab 7f3f 5519 803f 32a7 7f3f b37a 803f
00000200: 2f4b 803f fe0b 803f 34d2 7f3f ea5e 7f3f
00000210: 1b82 7f3f 460b 803f 2332 803f c55e 803f
00000220: 25d0 7f3f 956a 803f ad6c 803f d801 803f
00000230: 7aad 7f3f 4f0a 803f ed5e 7f3f 5bcb 7f3f
00000240: 2d2f 803f 7cdd 7f3f 933e 803f baac 7f3f
00000250: b885 7f3f ad43 803f 034e 7f3f 8235 803f
00000260: a489 7f3f ba3d 803f e046 803f a9c3 7f3f
00000270: 5d83 803f b31e 803f 18ac 7f3f 4da8 7f3f
00000280: 457d 7f3f 1c67 7f3f 8713 803f 345c 803f
00000290: 126f 803f 30e5 7f3f dab9 7f3f b916 803f
000002a0: 1686 803f 8cc6 7f3f bc6e 7f3f d3f0 7f3f
000002b0: 353f 7f3f 8bd0 7f3f 9b8e 803f a09e 7f3f
000002c0: 1beb 7f3f e429 803f 71a0 7f3f 217b 803f
000002d0: 9bbc 7f3f 1016 803f 8451 7f3f f41a 803f
000002e0: b731 803f c05e 7f3f 8256 7f3f d0c8 7f3f
000002f0: 2c9a 7f3f eb84 7f3f 5e49 7f3f c3b4 7f3f
00000300: 57bd 7f3f 9b75 803f 4d5f 7f3f 986c 803f
00000310: d838 803f 0d40 803f 6aa7 7f3f c6f1 7f3f
00000320: 9352 7f3f cc48 7f3f fb62 7f3f ef9d 7f3f
00000330: 9096 7f3f 24c9 7f3f c4ba 7f3f 7193 7f3f
00000340: 4d94 7f3f 9814 803f 0403 803f e1bd 7f3f
00000350: 99f3 7f3f 3011 803f 018a 7f3f a743 803f
00000360: 9c3f 803f 551a 7f3f a979 803f 8154 803f
00000370: a7dd 7f3f 9607 803f 5c47 803f 90bc 7f3f
00000380: 23ee 7f3f 655d 803f b538 803f 18e2 7f3f
00000390: c49b 7f3f 471c 7f3f 2214 803f 1535 7f3f
000003a0: 6b6e 803f fdaa 7f3f 9b5c 803f d603 803f
000003b0: 1f1c 7f3f 0864 7f3f e34c 803f 116b 7f3f
000003c0: eb2f 803f 5dca 7f3f a825 803f a60f 803f
000003d0: 2438 803f 0c65 803f 3f1f 803f 10c9 7f3f
000003e0: b035 803f 6d8f 7f3f 5b3c 803f 6832 7f3f
000003f0: b1c0 7f3f c2a4 7f3f 0c5d 803f c22d 803f

model.1.bias f4 [512]
-0.0010259015 -0.0019418506 0.0016346725 0.00084619905 0.0011745411 0.00074251 -0.0011416124 0.0022949239
-0.00019786641 -0.0027274308 -0.00076583505 -0.002430083 -0.0024408197 6.182317e-05 0.003134242 -0.0041052955
-0.0008009795 -0.0019190869 -0.0030537667 0.0037399626 -0.0024198343 -0.00019124144 0.00039606437 0.00040655475
0.0006531906 0.0008542755 0.0019999288 -0.0008497604 -0.0038745962 0.00234758 -0.0013692118 0.001956365
0.00047314813 -0.0022922382 0.00093956455 -0.001183994 0.0019066836 -0.0018721045 0.0036613222 -0.0014289032
0.0017176948 0.002784704 -0.0017257943 -0.0026732692 -0.00024001577 -0.0009757037 0.0030153692 -0.0014132708
0.0012249767 0.00021223059 -0.0031257113 -0.0016503677 0.00055064855 0.0023757874 0.0011097735 0.0010942373
-0.001857336 -0.0007108249 0.0020816503 0.0002376 -0.002485855 -0.0012700974 -0.0010205153 -0.00030101233
-0.00091802736 0.00087405654 0.00021353108 0.0019771184 -0.0023100695 -0.0013865414 0.0015179575 0.0010086084
0.001864168 -0.0021360605 0.0024065934 -0.0016005045 0.004226051 -0.0034832158 -0.0021612 0.002375957
0.0046743075 -0.00073470094 -0.0030923486 -0.002718024 0.0008430058 -0.0016848141 -0.0020836687 -0.0017684542
-0.003841462 0.004299314 0.0021450357 0.0019081848 -0.001488362 0.00024408061 -0.0010707629 0.0011474157
0.0033770038 0.0017571695 0.00044567426 0.0023357896 0.0016376058 0.0018385537 0.0012265035 -0.0009380272
-0.0034769834 0.0014156613 0.0004122337 -0.0022825147 0.002254002 -0.0012151811 -0.0022182737 0.0014381091
-0.003150264 0.0026598645 -0.00081666524 -0.0019369081 0.0012833208 -0.0019212909 -0.0015472245 0.0011930605
0.001585532 0.00329549 0.0012943066 0.0013791644 0.0025115167 0.00032113562 -0.0018177284 0.0019850996
0.0020779122 0.0024196845 -0.0025206413 -0.001671371 -0.0015453625 -0.0013302673 0.0005421396 0.002905038
0.0011148446 0.002830927 0.00045210042 0.0007499238 -0.0009071666 0.0019211222 -0.0021048381 -0.0016133536
0.0015192388 -0.0021124126 0.0029375677 -0.002903004 -0.0017887026 0.0024291486 -0.002080688 0.0026658054
0.00041686688 -0.0010620039 0.002371833 0.00042325776 0.0007560772 0.0017482227 -0.0028698056 -0.00033866958
0.00023554584 -0.0006205026 0.0005195427 0.0029160148 0.0015138685 0.0010759629 0.00013516341 0.0022713256
0.0013341008 -0.000593399 -0.0032404994 -0.00011941738 -0.0013443545 0.0029083078 0.00081192754 -0.0034591733
-0.0009274856 0.0032513055 -1.6728343e-05 0.0019980278 0.002760606 -0.000904817 -0.0029475843 0.00016360577
-0.0017631988 -0.002287842 -0.002160467 -0.00046232878 -0.0020481227 -0.0016407622 -0.00020571993 2.9237679e-05
-0.0026484448 0.002345529 -0.0026904615 0.0041811294 0.0021160261 0.0018902346 -0.0010391797 0.0011966644
-0.0006956355 -0.00303615 -0.0015948407 -0.0015924445 -0.0018964766 -0.0023485369 -0.0028791504 -0.0014874806
-0.0019338673 0.0023015584 0.000110347755 -0.0014172533 -0.0035846962 -0.0005268168 -0.0011694098 0.0012162576
0.0023186204 -0.003819981 0.0036056116 0.00040871522 -0.0005047911 0.002441353 0.00034156576 -0.00028829888
0.0011319849 0.0010478217 0.0027129622 -0.002437523 -0.0007788496 -0.0029266346 0.0006197885 -0.0015382029
0.0020223013 0.000833626 0.0031433871 0.0016415257 -0.0031041526 -0.0007611969 0.0003949134 -0.0020025598
0.0018695252 -0.0012477778 0.0032291643 0.00031721668 -3.514615e-07 0.0029207692 0.0008374602 -0.0008326112
0.0021018195 -0.0021526243 0.0029693847 -0.0031669992 -0.0019500543 0.0018555418 0.0022658964 0.0013116535
00000000: 8b77 86ba b285 feba 8242 d63a 75d3 5d3a
00000010: 0ff3 993a 01a5 423a 28a2 95ba 6f66 163b
00000020: 5c7a 4fb9 b2be 32bb 52c2 48ba 0742 1fbb
00000030: 29f6 1fbb 10a7 8138 db67 4d3b b785 86bb
00000040: d3f8 51ba df89 fbba b421 48bb 291a 753b
00000050: 1596 1ebb fc87 48b9 dca6 cf39 db26 d539
00000060: e13a 2b3a 75f1 5f3a 3d11 033b 75c2 5eba
00000070: f0ec 7dbb dbd9 193b 2077 b3ba 5c36 003b
00000080: de10 f839 6039 16bb 1c4d 763a 3f30 9bba
00000090: afe9 f93a 6761 f5ba cbf2 6f3b 094a bbba
000000a0: 4624 e13a 957f 363b 0c34 e2ba 0432 2fbb
000000b0: beac 7bb9 5ec6 7fba 809d 453b 803d b9ba
000000c0: 668f a03a 378a 5e39 bcd8 4cbb 2751 d8ba
000000d0: 6659 103a 19b3 1b3b d275 913a 836c 8f3a
000000e0: db71 f3ba a756 3aba 4c6c 083b 4424 7939
000000f0: bae9 22bb 6679 a6ba d0c2 85ba 31d1 9db9
00000100: c6a7 70ba f120 653a 50e7 5f39 8b92 013b
00000110: 8964 17bb 9cbc b5ba 34f6 c63a 4833 843a
00000120: 1957 f43a 26fd 0bbb f0b7 1d3b 05c8 d1ba
00000130: af7a 8a3b aa46 64bb eba2 0dbb f2b5 1b3b
00000140: ef2a 993b f298 40ba 00a9 4abb e020 32bb
00000150: 29fd 5c3a fbd4 dcba 298e 08bb 7acb e7ba
00000160: 0ac1 7bbb 43e1 8c3b ba93 0c3b 0f1c fa3a
00000170: 2415 c3ba e4ef 7f39 d758 8cba e264 963a
00000180: b950 5d3b d350 e63a 63a9 e939 0c14 193b
00000190: efa4 d63a a0fb f03a a1c2 a03a f1e5 75ba
000001a0: 1ade 63bb b68d b93a 1221 d839 3e96 15bb
000001b0: e1b7 133b b646 9fba 7560 11bb ef7e bc3a
000001c0: a974 4ebb 1f51 2e3b 7a15 56ba dadf fdba
000001d0: 1a35 a83a d3d3 fbba 3dcc caba 7860 9c3a
000001e0: a0d1 cf3a 26f9 573b b9a5 a93a 14c5 b43a
000001f0: 4298 243b 185e a839 d840 eeba 7218 023b
00000200: 952d 083b 9293 1e3b 5831 25bb e811 dbba
00000210: c38d caba 5d5c aeba 5f1e 0e3a 7362 3e3b
00000220: fa1f 923a 1387 393b e407 ed39 8996 443a
00000230: ecce 6dba 2ace fb3a 53f1 09bb 2a77 d3ba
00000240: 3221 c73a 6770 0abb 3584 403b 5340 3ebb
00000250: e672 eaba 5a32 1f3b 275c 08bb cbb4 2e3b
00000260: ed8e da39 f032 8bba c170 1b3b b2e8 dd39
00000270: 7b33 463a 9f24 e53a 5913 3cbb 768f b1b9
00000280: dbfc 7639 39a9 22ba ec31 083a 9c1a 3f3b
00000290: ff6c c63a 5307 8d3a a7ba 0d39 85da 143b
000002a0: ffdc ae3a 558e 1bba 8f5e 54bb b86f fab8
000002b0: 0d35 b0ba 4f99 3e3b 89d7 543a 4cb3 62bb
000002c0: 8122 73ba db13 553b d853 8cb7 58f1 023b
000002d0: 48eb 343b 3e31 6dba 422c 41bb 978d 2b39
000002e0: 221b e7ba 9fef 15bb 9f96 0dbb b864 f2b9
000002f0: cc39 06bb d80e d7ba 86b6 57b9 7043 f537
00000300: 8891 2dbb 72b7 193b 7452 30bb db01 893b
00000310: 07ad 0a3b c0c1 f73a 1635 88ba 65d9 9c3a
00000320: 4f5b 36ba 25fa 46bb f909 d1ba 92b9 d0ba
00000330: 3293 f8ba e9e9 19bb 21b0 3cbb 91f7 c2ba
00000340: d279 fdba bed5 163b 806a e738 21c3 b9ba
00000350: 39ed 6abb 141a 0aba e246 99ba d56a 9f3a
00000360: fff3 173b a558 7abb 204c 6c3b d448 d639
00000370: f553 04ba 1bff 1f3b 2e14 b339 d226 97b9
00000380: 1c5f 943a 1057 893a f4cb 313b dabe 1fbb
00000390: b62b 4cba c8cc 3fbb 4d79 223a 869d c9ba
000003a0: 9688 043b b287 5a3a 4901 4e3b 7628 d73a
000003b0: 0a6f 4bbb 0f8b 47ba 610c cf39 613d 03bb
000003c0: db0a f53a 7a8c a3ba 63a0 533b 1a50 a639
000003d0: 80b0 bcb4 606a 3f3b 0189 5b3a 9743 5aba
000003e0: aebe 093b 0b13 0dbb 029a 423b 6e8d 4fbb
000003f0: f798 ffba a735 f33a 6f7f 143b caeb ab3a

model.1.running_mean f4 [512]
0.13844854 -0.10500748 0.28713077 -0.20749788 0.015101994 -0.18332878 -0.26738638 0.1487889
0.13463931 0.026926609 0.31683382 -0.1947062 -0.013755311 0.2994675 -0.15733166 0.16343054
0.06116096 0.032453585 0.027835088 -0.29955328 0.16527358 -0.002145176 -0.24578618 -0.016608369
-0.14756191 0.07678421 0.2818647 0.18672791 -0.0044113877 0.15929149 -0.37267485 0.1007008
0.19999695 0.048127174 -0.10143733 0.07625744 0.02432088 -0.11134889 0.16022721 0.2468452
-0.4203296 0.23692903 0.08044325 0.23930903 -0.17403087 -0.05426087 0.22439574 0.004105813
0.083918475 -0.0674427 0.28675735 -0.043102577 -0.4136857 0.023923969 0.22490792 -0.05619187
-0.07373901 -0.23960704 -0.04953284 0.3772234 0.63525635 0.19548486 0.22590716 0.110062465
-0.046529636 -0.1540358 0.2680966 -0.35906652 0.31186235 -0.23696104 0.24641225 0.13239764
-0.08551778 0.14800586 -0.10043096 0.040985383 0.14509645 0.07643369 0.14868493 0.025656022
0.028775841 -0.124071196 0.45910767 -0.01039146 0.04856734 -0.1496526 -0.06721746 -0.079763435
-0.2730729 0.7061685 -0.3354206 -0.352634 -0.23390195 0.12349069 0.12625131 0.09796422
-0.04603057 0.19396746 -0.13891482 -0.24623439 -0.0835772 -0.77504826 -0.18400672 0.06473189
-0.036014453 -0.040794715 -0.47378463 0.26199248 -0.1911844 -0.105077244 -0.047638092 -0.40637803
0.06375252 -0.09019244 -0.31220376 0.06304259 -0.27696043 -0.2282545 -0.08398978 0.1560834
-0.35577682 -0.10470728 -0.15411587 -0.31918406 0.22122736 -0.19554017 -0.18528754 -0.034241628
-0.025713021 -0.19890942 -0.14885645 -0.19740811 -0.1786239 -0.11636822 -0.08557427 -0.50737774
0.017039532 0.4015939 0.29824543 -0.17936343 0.22085196 -0.025781918 0.23902361 0.11200703
-0.15931119 -0.11828066 0.11958299 -0.08936627 0.43269607 0.028195612 -0.14481576 0.0339039
-0.10912837 -0.24039848 0.39701667 0.12114413 -0.052925475 -0.20609875 0.09172829 -0.09167072
0.38676685 0.054504413 0.11357901 0.17966071 0.2672941 0.24755438 -0.45868546 0.29382983
-0.1937128 -0.08729661 -0.04814876 0.094390176 0.10117313 -0.15531163 -0.19681033 -0.10667496
-0.4601247 0.030186798 0.092604674 -0.098955914 -0.05447087 0.2783264 -0.06346419 0.0519548
0.0003677994 -0.3088974 -0.2850498 -0.2183893 -0.14790213 0.119023636 -0.18334346 -0.0638709
-0.047302883 0.48304403 0.10169671 0.06529323 -0.14555544 -0.017102513 -0.10741203 -0.016203342
0.18100838 0.14232746 -0.0803343 -0.38333517 0.3010081 -0.038663853 -0.15601322 -0.29373586
0.043056406 0.064293444 -0.06657511 0.037984937 0.01455525 0.2513462 0.12877041 -0.033351902
-0.17847256 -0.10224111 0.16809727 0.07521413 -0.11630689 -0.0032463241 0.21710551 -0.20232712
0.03929793 -0.0042722435 -0.19393456 -0.2744923 -0.16925761 0.026087089 -0.2957843 0.15617286
-0.3158946 -0.23572981 -0.2147603 0.09283206 -0.08604917 0.1612612 -0.049270652 0.24230058
-0.43813744 0.27558833 -0.108985275 0.05551884 0.5978783 -0.07949132 -0.066043064 -0.07436592
0.51423174 0.14620446 -0.16969168 -0.1562088 0.3348254 -0.19085722 -0.08165814 0.22302376
00000000: 74c5 0d3e 290e d7bd ce02 933e 537a 54be
00000010: 5b6e 773c 8aba 3bbe dee6 88be 1e5c 183e
00000020: e3de 093e 3195 dc3c 0b38 a23e 1061 47be
00000030: f55d 61bc ce53 993e 8d1b 21be 565a 273e
00000040: ea83 7a3d 0dee 043d 6906 e43c 0c5f 99be
00000050: 7a3d 293e 1596 0cbb 5faf 7bbe 460e 88bc
00000060: 781a 17be 0a41 9d3d 9250 903e 9a35 3f3e
00000070: 678d 90bb 4f1d 233e 3dcf bebe 393c ce3d
00000080: 00cc 4c3e 0021 453d 60be cfbd dc2c 9c3d
00000090: 953c c73c e30a e4bd 9a12 243e fdc4 7c3e
000000a0: 7135 d7be 869d 723e 6ebf a43d 6d0d 753e
000000b0: 2635 32be a540 5ebd ffc7 653e 0e8a 863b
000000c0: 73dd ab3d 661f 8abd dcd1 923e 548c 30bd
000000d0: 9dce d3be 33fc c33c 434e 663e 7229 66bd
000000e0: 7a04 97bd 8c5b 75be f2e2 4abd 6d23 c13e
000000f0: 29a0 223f 2f2d 483e 3554 673e 6e68 e13d
00000100: dc95 3ebd 90bb 1dbe f543 893e 91d7 b7be
00000110: 6cac 9f3e eaa5 72be 7e53 7c3e 3f93 073e
00000120: f223 afbd d98e 173e bfae cdbd 4ae0 273d
00000130: 2a94 143e 4489 9c3d dd40 183e 942c d23c
00000140: 50bb eb3c 0a19 febd 2910 eb3e f140 2abc
00000150: 8cee 463d 883e 19be 4fa9 89bd 035b a3bd
00000160: 36d0 8bbe 75c7 343f 40bc abbe 728c b4be
00000170: fe83 6fbe b0e8 fc3d 0648 013e 77a1 c83d
00000180: 8d8a 3cbd 689f 463e b03f 0ebe de24 7cbe
00000190: 862a abbd 9069 46bf 426c 3cbe 2792 843d
000001a0: e483 13bd 5c18 27bd e693 f2be e123 863e
000001b0: d8c5 43be bd32 d7bd 2920 43bd c810 d0be
000001c0: ae90 823d d0b6 b8bd 2cd9 9fbe 791c 813d
000001d0: c2cd 8dbe 8cbb 69be d502 acbd 54d4 1f3e
000001e0: 6128 b6be c570 d6bd 8dd0 1dbe 186c a3be
000001f0: 6d89 623e af3b 48be 04bc 3dbe f340 0cbd
00000200: 1da4 d2bc e9ae 4bbe d36d 18be 5a25 4abe
00000210: 2fe9 36be 7652 eebd 9041 afbd 82e3 01bf
00000220: 7d96 8b3c b79d cd3e a0b3 983e 0cab 37be
00000230: 0427 623e 9a34 d3bc 9bc2 743e f163 e53d
00000240: 7922 23be 213d f2bd ede7 f43d aa05 b7bd
00000250: 578a dd3e 7cfa e63c 954a 14be d1de 0a3d
00000260: b27e dfbd 052b 76be c545 cb3e 6a1a f83d
00000270: 62c8 58bd 8d0b 53be 0bdc bb3d dcbd bbbd
00000280: 4e06 c63e 0540 5f3d 1d9c e83d faf8 373e
00000290: c6da 883e e57e 7d3e d2d8 eabe dd70 963e
000002a0: a65c 46be 91c8 b2bd a237 45bd a34f c13d
000002b0: dc33 cf3d 030a 1fbe a688 49be 6778 dabd
000002c0: 7795 ebbe 4e4a f73c 85a7 bd3d 66a9 cabd
000002d0: d91c 5fbd cc80 8e3e 83f9 81bd 8ece 543d
000002e0: 33d5 c039 cd27 9ebe 0cf2 91be 72a1 5fbe
000002f0: a873 17be aac2 f33d 63be 3bbe bfce 82bd
00000300: abc0 41bd 8c51 f73e 5d46 d03d 75b8 853d
00000310: 7c0c 15be 921a 8cbc d7fa dbbd dfbc 84bc
00000320: 435a 393e 4abe 113e 4f86 a4bd 8244 c4be
00000330: bc1d 9a3e fd5d 1ebd eec1 1fbe 8c64 96be
00000340: ea5b 303d 48ac 833d 8858 88bd 1896 1b3d
00000350: 2579 6e3c 73b0 803e 64dc 033e 019c 08bd
00000360: 83c1 36be c963 d1bd b121 2c3e de09 9a3d
00000370: 4f32 eebd 48c0 54bb e850 5e3e d72e 4fbe
00000380: def6 203d 2dfe 8bbb c896 46be 418a 8cbe
00000390: de51 2dbe 97b4 d53c 0a71 97be c7eb 1f3e
000003a0: f0bc a1be 2863 71be 20ea 5bbe bc1e be3d
000003b0: 8c3a b0bd a821 253e 06d0 49bd a51d 783e
000003c0: 8d53 e0be ea19 8d3e ac33 dfbd b967 633d
000003d0: 8d0e 193f 58cc a2bd 9641 87bd 294d 98bd
000003e0: b1a4 033f 9fb6 153e a8c3 2dbe 33f5 1fbe
000003f0: 3c6e ab3e 1370 43be 623c a7bd 5760 643e

model.1.running_var f4 [512]
0.010903479 0.014452692 0.013776122 0.010100284 0.011573688 0.013336069 0.009506275 0.0106847165
0.01589023 0.011698403 0.015566884 0.017552232 0.011194556 0.011783536 0.014290273 0.012564953
0.012218804 0.012205479 0.011457053 0.012751204 0.010959544 0.01514463 0.009674241 0.012049437
0.01531419 0.010701555 0.010198774 0.013708503 0.010298977 0.0113209775 0.011296836 0.014885885
0.016642787 0.01489601 0.023145985 0.0124141695 0.015950387 0.015678892 0.009164667 0.014586855
0.009480439 0.01622302 0.011970837 0.009385804 0.011020564 0.015030822 0.011692018 0.010939165
0.016955705 0.011859179 0.010266085 0.009116082 0.014654967 0.011579113 0.018285 0.014278291
0.014637895 0.015333262 0.017877087 0.01510809 0.014713879 0.014129186 0.015394722 0.014076836
0.017157953 0.009432837 0.012774911 0.01005177 0.014269942 0.01318119 0.010573576 0.012380323
0.011253284 0.015345195 0.011519836 0.014068194 0.008834815 0.013121965 0.010775868 0.013037565
0.013620721 0.020577285 0.015312181 0.014023779 0.01774947 0.016920498 0.018617796 0.017192926
0.011868913 0.017635372 0.0138366595 0.014155428 0.010417393 0.012881512 0.016515698 0.010292803
0.010611157 0.0132264355 0.021529052 0.014313032 0.013563474 0.01409237 0.022522368 0.015439265
0.014529461 0.013102567 0.016385183 0.011910943 0.011550488 0.010124062 0.016209155 0.0106826825
0.010884558 0.010559012 0.0083931815 0.0123832505 0.011017689 0.011910297 0.013615957 0.009652593
0.013406307 0.012259384 0.0112998495 0.014075844 0.0168259 0.0137011 0.018725673 0.012959552
0.02533914 0.019545484 0.012640391 0.012356713 0.015197045 0.012814519 0.0155803235 0.015115273
0.014691209 0.014077633 0.0126372995 0.012837129 0.016055305 0.0112074325 0.012174977 0.015578499
0.011219351 0.018160878 0.01077638 0.014280923 0.01180518 0.01372367 0.009821928 0.012758534
0.014158531 0.01467124 0.008807221 0.012362698 0.02415922 0.011063524 0.012345946 0.015375587
0.013437833 0.011965939 0.0129396655 0.013785999 0.015082867 0.0116108125 0.012999899 0.020415852
0.012299177 0.012551001 0.0091929175 0.012831233 0.009795546 0.018177038 0.012160465 0.018027682
0.0151322745 0.012104653 0.018366547 0.01513617 0.011374856 0.013103529 0.015549554 0.011963332
0.010701297 0.015644336 0.013952937 0.011246552 0.011794026 0.016741302 0.016555838 0.013486074
0.01536528 0.012981001 0.02081664 0.014107645 0.010265217 0.013151987 0.012745231 0.013445837
0.01300481 0.00848127 0.013093405 0.010321249 0.013599053 0.013056309 0.012018594 0.013208661
0.013129927 0.012294398 0.013087928 0.009058593 0.013967991 0.013148489 0.013456372 0.014890183
0.017559743 0.010824451 0.016338876 0.010710522 0.020732583 0.012614047 0.011166155 0.0133242905
0.013464828 0.010643587 0.009494478 0.016323477 0.011636287 0.022199038 0.010897129 0.011331471
0.013015554 0.017809864 0.011423805 0.010026342 0.01538574 0.009011849 0.01601498 0.012502169
0.012146468 0.010122287 0.009409603 0.021152597 0.013905317 0.010570942 0.012275201 0.0148513885
0.021485437 0.011017828 0.013299088 0.013940627 0.016063262 0.011331504 0.015166145 0.015587416
00000000: 81a4 323c fcca 6c3c 3eb5 613c a97b 253c
00000010: 919f 3d3c 877f 5a3c 35c0 1b3c f30e 2f3c
00000020: 3a2c 823c a9aa 3f3c 3e0c 7f3c b3c9 8f3c
00000030: 5f69 373c bb0f 413c c021 6a3c 3cdd 4d3c
00000040: 6131 483c 7df9 473c 5db6 3b3c 6dea 503c
00000050: a98f 333c 2f21 783c b580 1e3c 006b 453c
00000060: 5ee8 7a3c 9355 2f3c c218 273c a199 603c
00000070: 0abd 283c 9f7b 393c 5d16 393c ede3 733c
00000080: 7456 883c 650e 743c a69c bd3c cd64 4b3c
00000090: 63aa 823c 0571 803c 6627 163c b4fd 6e3c
000000a0: d853 1b3c 24e6 843c 5421 443c eac6 193c
000000b0: 988f 343c d643 763c e18f 3f3c 2f3a 333c
000000c0: b1e6 8a3c 004d 423c 1533 283c 9f5b 153c
000000d0: 631b 703c 52b6 3d3c 6dca 953c 7eef 693c
000000e0: c8d3 6f3c 5d38 7b3c f872 923c ec87 773c
000000f0: 7b12 713c 1a7e 673c 253a 7c3c 88a2 663c
00000100: d68e 8c3c 308c 1a3c dc4d 513c 2eb0 243c
00000110: 7acc 693c ebf5 573c cb3c 2d3c d7d6 4a3c
00000120: b25f 383c 6a6a 7b3c b2bd 3c3c 487e 663c
00000130: e6bf 103c 83fd 563c 448d 303c 839b 553c
00000140: 7229 5f3c b291 a83c f1df 7a3c fec3 653c
00000150: 5667 913c db9c 8a3c 5984 983c 2ed8 8c3c
00000160: d475 423c 0e78 903c 28b3 623c 2bec 673c
00000170: b7ad 2a3c fa0c 533c ee4b 873c 25a3 283c
00000180: 6bda 2d3c b1b3 583c b25d b03c 3581 6a3c
00000190: 5539 5e3c afe3 663c d480 b83c f9f4 7c3c
000001a0: fa0c 6e3c 26ac 563c 383a 863c 1e26 433c
000001b0: 423e 3d3c 65df 253c 10c9 843c 6b06 2f3c
000001c0: 2555 323c b5ff 2c3c 8e83 093c 1ee3 4a3c
000001d0: 8983 343c 6823 433c 7715 5f3c e925 1e3c
000001e0: 21a6 5b3c 95db 483c 0123 393c 5e9e 663c
000001f0: 78d6 893c 947a 603c 9566 993c 4d54 543c
00000200: 0794 cf3c da1d a03c a419 4f3c d073 4a3c
00000210: 07fd 783c fdf3 513c 9d44 7f3c 0da6 773c
00000220: 66b3 703c dfa5 663c ad0c 4f3c d252 523c
00000230: 6a86 833c 619f 373c 8e79 473c f63c 7f3c
00000240: 5ed1 373c 1fc6 943c 6a8f 303c 88fa 693c
00000250: 846a 413c 3ed9 603c 27ec 203c 2c09 513c
00000260: 2ff9 673c a45f 703c 2a4c 103c ea8c 4a3c
00000270: 8ee9 c53c c843 353c a746 4a3c e3e9 7b3c
00000280: 5b2a 5c3c c90c 443c e400 543c acde 613c
00000290: 211e 773c 473b 3e3c 87fd 543c 253f a73c
000002a0: 7d82 493c b7a2 4d3c e49d 163c 183a 523c
000002b0: 7f7d 203c 03e8 943c b03c 473c caae 933c
000002c0: 5ced 773c 9852 463c 7175 963c b3fd 773c
000002d0: 9b5d 3a3c 2fb0 563c 8ec3 7e3c da01 443c
000002e0: 7e54 2f3c 8d28 803c dc9a 643c 7543 383c
000002f0: bb3b 413c 0e25 893c 1ca0 873c b2f4 5c3c
00000300: a8be 7b3c 44ae 543c a987 aa3c c023 673c
00000310: 712f 283c 6f7b 573c 60d1 503c ee4b 5c3c
00000320: 2012 553c 06f5 0a3c b985 563c 751a 293c
00000330: 90ce 5e3c 21ea 553c a3e9 443c 2469 583c
00000340: e81e 573c 716e 493c c06e 563c 7e6a 143c
00000350: 00da 643c c36c 573c 1d78 5c3c f4f5 733c
00000360: 73d9 8f3c 0a59 313c 1bd9 853c 2f7b 2f3c
00000370: 61d7 a93c 26ab 4e3c 40f2 363c 204e 5a3c
00000380: 959b 5c3c 7162 2e3c ba8e 1b3c d0b8 853c
00000390: 20a6 3e3c c2da b53c df89 323c a2a7 393c
000003a0: 313f 553c fee5 913c e92a 3b3c 8745 243c
000003b0: 7914 7c3c 6fa6 133c d931 833c e6d5 4c3c
000003c0: fb01 473c f3d7 253c bc2a 1a3c 3648 ad3c
000003d0: 20d3 633c bf31 2d3c ed1d 493c 3d53 733c
000003e0: 3a02 b03c 1f84 343c 6be4 593c 3a67 643c
000003f0: 1a97 833c c6a7 393c 6c7b 783c 5c62 7f3c

model.3.weight f4 [256, 512]
-0.013554305 -0.0045380928 0.0028945934 -0.020540807 0.017216267 -0.0419282 -0.029544665 -0.029555356
-0.017901164 0.037308343 -0.018439448 0.023767775 -0.04214576 0.016668031 0.039451845 0.040396586
-0.013384677 0.046585638 0.028444715 0.0061791223 0.024540178 -0.008894727 -0.012850168 -0.043682266
-0.030000044 0.007654694 0.02107575 0.033496104 0.00023398298 -0.0018623983 0.019599868 -0.042586513
-0.00048456033 0.008785243 -0.023060113 -0.013570151 -0.03755911 -0.020599285 -0.0136485975 -0.03642854
0.009586311 -0.033856187 0.006968516 -0.029027268 -0.0026631532 0.010906686 0.012168447 -0.007119922
0.031935073 0.025952963 0.021275422 0.011604189 0.030508678 -0.0095793065 0.024686288 0.006272805
0.039318115 0.027014386 0.031852406 0.023108905 -0.034323927 0.031478137 0.023461489 -0.013493039
-0.015314521 0.0445917 0.039397944 0.042988643 0.022381105 0.030047432 0.038938157 -0.01579459
-0.02849585 0.04220727 -0.03857369 -0.007981475 -0.035052367 -0.04188052 -0.041720837 0.013321148
-0.017639179 -0.03573605 0.015118012 -0.028410163 0.0109011065 -0.013618959 0.03961804 0.013698854
0.018355418 -0.014678734 0.03565082 -0.015057698 -0.007410305 -0.04026936 0.03371428 0.021097966
-0.009543908 -0.0017728982 0.008396981 0.04113397 -0.014669908 -0.022863545 -0.023043713 -0.0074046827
0.0047613527 -0.03531362 -0.0009158183 0.02964181 0.0042289323 -0.040942732 -0.01308325 -0.022680612
0.03920891 0.028393034 -0.027809165 0.023315739 -0.017935557 -0.02032285 0.026629759 -0.00024219952
0.031265344 0.014034634 0.038606394 0.003910926 0.0031587314 0.0069185323 0.023014275 -0.029078824
0.010589667 0.027078042 -0.022762029 0.0069019166 0.019491797 -0.0017228707 1.4140398e-05 -0.019585371
-0.012554756 -0.001238584 0.016662145 -0.032410692 0.03406623 -0.010834857 -0.001585071 0.039964233
-0.033046752 -0.026880478 0.0042338306 0.027385259 0.024066439 -0.016036833 -0.01058016 -0.0069492282
-0.026015293 0.01053613 -0.040923014 -0.0054367892 0.038010325 0.0400633 -0.005786302 -0.028674543
-0.03817287 0.0064250114 -0.018223906 -0.029401388 0.019564738 -0.011090209 0.01656665 -0.027481636
0.04221538 0.001438087 0.028867554 -0.013813998 -0.0060337973 0.00976757 -0.034720417 0.033056255
-0.04068284 0.018425414 0.008832084 -0.0011289808 0.015934756 0.034021687 0.006180702 -0.008318579
-0.0058506336 -0.0024753443 -0.0126715405 0.021417469 0.037854504 0.03132652 0.021614749 -0.03472684
-0.012565284 0.044561245 0.0071321423 -0.025710294 0.0048134443 0.028539581 0.017166147 0.008514854
0.01127984 0.027387157 -0.019223444 0.025343694 0.040459346 -0.04066342 0.001856864 -0.021887442
0.0036171405 -0.034051154 -0.039018277 -0.03522659 0.030593796 0.011851784 0.014887044 0.010660077
-0.042620003 -0.015500308 -0.023415307 0.04258405 -0.016662715 -0.010153273 0.041451577 -0.014043107
-0.018893458 0.020712739 -0.0019425821 0.016837731 -0.0075246873 -0.03932456 0.010004672 0.021966126
-0.0221379 -0.020959647 -0.028762484 0.034019712 -0.00902234 0.010310261 -0.039861854 -0.031750772
-0.034914374 -0.0112307705 0.030986553 0.018287499 0.0018671968 -0.034429457 0.03502774 -0.024387788
-0.025763968 0.0150643 -0.040053036 -0.0051731737 0.02858278 0.011848061 -0.003814252 -0.014597965
00000000: e012 5ebc 48b4 94bb 38b3 3d3b 3245 a8bc
00000010: 2109 8d3c e7bc 2bbd a707 f2bc 131e f2bc
00000020: 76a5 92bc a2d0 183d 530e 97bc a3b4 c23c
00000030: 08a1 2cbd 658b 883c 4298 213d e476 253d
00000040: 674b 5bbc 95d0 3e3d e404 e93c 3c7a ca3b
00000050: 7c08 c93c 30bb 11bc 8389 52bc 2dec 32bd
00000060: a7c2 f5bc 3ad4 fa3b 0da7 ac3c 3633 093d
00000070: 5459 7539 b81b f4ba e78f a03c 326f 2ebd
00000080: 960c feb9 fbef 0f3c 90e8 bcbc 5755 5ebc
00000090: 95d7 19bd d5bf a8bc 5e9e 5fbc 1836 15bd
000000a0: e70f 1d3c c9ac 0abd 2658 e43b 98ca edbc
000000b0: 4c88 2ebb f5b1 323c 2a5e 473c 3c4e e9bb
000000c0: 5ace 023d 4f9b d43c cb49 ae3c 7f1f 3e3c
000000d0: 56ed f93c 86f2 1cbc e63a ca3c 1a8c cd3b
000000e0: 080c 213d 464d dd3c ab77 023d e34e bd3c
000000f0: 3f97 0cbd 38ef 003d 4f32 c03c e811 5dbc
00000100: c2e9 7abc c9a5 363d bd5f 213d dc14 303d
00000110: 9458 b73c 0826 f63c 9e7d 1f3d a863 81bc
00000120: 2170 e9bc 88e1 2c3d 72ff 1dbd bcc4 02bc
00000130: 1293 0fbd e88a 2bbd 78e3 2abd f240 5a3c
00000140: 0a80 90bc f75f 12bd 8ab1 773c 6ebc e8bc
00000150: 8e9a 323c 0e22 5fbc 8746 223d 2871 603c
00000160: 1a5e 963c 137f 70bc 9806 123d 90b4 76bc
00000170: 25d2 f2bb 7cf1 24bd fc17 0a3d a4d5 ac3c
00000180: 0d5e 1cbc 9860 e8ba 7e93 093c 187c 283d
00000190: 0e5a 70bc 544c bbbc 2bc6 bcbc fba2 f2bb
000001a0: 1f05 9c3b 04a5 10bd 8713 70ba 62d3 f23c
000001b0: db92 8a3b 91b3 27bd 215b 56bc b1cc b9bc
000001c0: 8699 203d 8298 e83c 0cd0 e3bc a600 bf3c
000001d0: 97ed 92bc 1b7c a6bc a726 da3c f0f6 7db9
000001e0: 1710 003d 86f1 653c bd21 1e3d 3a27 803b
000001f0: b802 4f3b dbb4 e23b 6f88 bc3c b736 eebc
00000200: 4880 2d3c c5d2 dd3c 6f77 babc 7929 e23b
00000210: 43ad 9f3c f3d1 e1ba 8c3c 6d37 8071 a0bc
00000220: 77b2 4dbc fc57 a2ba 0d7f 883c 13c1 04bd
00000230: 0889 0b3d af84 31bc 28c2 cfba 89b1 233d
00000240: 085c 07bd 7334 dcbc f2bb 8a3b 0d57 e03c
00000250: fb26 c53c ad5f 83bc 6858 2dbc 5ab6 e3bb
00000260: 061e d5bc bb9f 2c3c e49e 27bd 1827 b2bb
00000270: b7b0 1b3d 6a19 243d 059b bdbb e0e6 eabc
00000280: 285b 1cbd e788 d23b 4d4a 95bc 2edb f0bc
00000290: 3b46 a03c b5b3 35bc c8b6 873c 2b21 e1bc
000002a0: 09ea 2c3d 317e bc3a a67b ec3c 1b54 62bc
000002b0: 29b7 c5bb 2808 203c ff36 0ebd ff65 073d
000002c0: 0da3 26bd e5f0 963c 72b4 103c 4ffa 93ba
000002d0: 9b89 823c 535a 0b3d 7c87 ca3b a64a 08bc
000002e0: acb6 bfbb 6339 22bb 4b9c 4fbc b073 af3c
000002f0: 530d 1b3d 3d50 003d 6a11 b13c bb3d 0ebd
00000300: 9fde 4dbc da85 363d bfb4 e93b 659e d2bc
00000310: 19ba 9d3b d7cb e93c 05a0 8c3c e381 0b3c
00000320: 14cf 383c 085b e03c 7c7a 9dbc 949d cf3c
00000330: b3b8 253d b08e 26bd 0462 f33a 4b4d b3bc
00000340: 8c0d 6d3b 3979 0bbd a1d1 1fbd c249 10bd
00000350: d79f fa3c fc2d 423c cae8 733c 9ba7 2e3c
00000360: 5092 2ebd 01f5 7dbc 75d1 bfbc 9d6c 2e3d
00000370: 3f80 88bc ea59 26bc 21c9 293d 0f15 66bc
00000380: 74c6 9abc c3ad a93c 3d9e feba 48ef 893c
00000390: a791 f6bb ca12 21bd a3ea 233c 4ef2 b33c
000003a0: 8b5a b5bc 91b3 abbc 4d9f ebbc 4158 0b3d
000003b0: 70d2 13bc 5eec 283c 2f46 23bd 190d 02bd
000003c0: 6002 0fbd 4401 38bc 83d7 fd3c aacf 953c
000003d0: babc f43a e705 0dbd 3f79 0f3d e6c8 c7bc
000003e0: f50e d3bc 41d0 763c a70e 24bd ba83 a9bb
000003f0: 6f26 ea3c 5f1e 423c 88f8 79bb 4e2c 6fbc
