models/three_layers/threeLayerModel_mumu_corrCut_0.9_weights_no-neg.pt (torch, 707244 bytes, 18 tensors)

model.0.weight f4 [512, 77]
0	0xbca37edb	-0.01995795
1	0x3c0efe26	0.008727586
2	0x3db0e7bb	0.08637949
3	0x3c0bb87a	0.008527869
4	0xbdc77e7f	-0.09740924
5	0x3d8270de	0.06369184
6	0xbccc8cb4	-0.024969436
7	0x3c431d3c	0.0119088255
8	0x3d82a2af	0.06378686
9	0x3d088096	0.033325754
10	0x3d806328	0.062689126
11	0xba0dd40d	-0.0005410321
12	0x3da6f853	0.08152833
13	0x3d81ea7c	0.063435525
14	0xba649e9f	-0.0008721146
15	0xbb74f67d	-0.0037378364
16	0xbde2c29d	-0.11072276
17	0xbce7a21f	-0.028275548
18	0xbd892642	-0.0669675
19	0xbd3e38b3	-0.04644079
20	0xbda44f82	-0.080229774
21	0x3bdd761c	0.0067584645
22	0xbdc09ec1	-0.0940528
23	0x3d915fb4	0.07098332
24	0x3ba4b321	0.0050262366
25	0x3d7f7344	0.062365785
26	0xbd274ecb	-0.040846627
27	0x3c22b30c	0.009930383
28	0xbc066372	-0.008202421
29	0x3d9cbfe7	0.0765379
30	0xbd4a8ee9	-0.049452696
31	0xbdad12cf	-0.08450853
32	0xbd21f18b	-0.039536994
33	0x3b493497	0.0030701512
34	0x3d69864c	0.05701284
35	0x3c0b8200	0.008514881
36	0x3caff5d0	0.021479517
37	0xbc446fab	-0.011989514
38	0x3cc4e846	0.024036538
39	0xbd73fe72	-0.05956883
40	0x3d892bc3	0.066978
41	0x3d5ab730	0.053397357
42	0xbd233a1e	-0.039850347
43	0xbd25cadd	-0.04047667
44	0x3d09a2a5	0.033602376
45	0xbdd6d37a	-0.10489555
46	0xbc1e8a37	-0.009676508
47	0xbcafce8a	-0.02146079
48	0xbd6526fb	-0.055945378
49	0x3d373005	0.04472353
50	0xbd7da530	-0.061925113
51	0x3cc6d208	0.024270073
52	0xbc512d15	-0.012767096
53	0xbda01485	-0.07816414
54	0x3c7d8704	0.015474085
55	0xbda9b6c2	-0.082868114
56	0xbd1a2652	-0.0376342
57	0x3cc430b9	0.023949014
58	0x3b40c0a1	0.002941169
59	0xbd6984e1	-0.05701149
60	0xbd7f5ea7	-0.062346127
61	0xbd59a0df	-0.053131934
62	0xbd49f341	-0.04930425
63	0x3d8a49fe	0.06752394
64	0x3d2bd9df	0.041955825
65	0xbd4d834d	-0.050174046
66	0xbdc20692	-0.094739094
67	0xbb6ee3bf	-0.0036451665
68	0xbda2c214	-0.07947174
69	0xbdcb6f11	-0.099332936
70	0x3de77bcf	0.113029115
71	0xbcf8a075	-0.03034995
72	0xbd989860	-0.07450938
73	0xbd477e97	-0.04870471
74	0x3d9ba7ee	0.076003894
75	0x3b48572b	0.0030569534
76	0xbda6ed88	-0.08150774
77	0x3d9bf234	0.07614556
78	0x3cbaee75	0.022818783
79	0x3d7c4593	0.06158979
80	0x3c4ace1f	0.012378245
81	0x3d6fe077	0.058563676
82	0x3d083faa	0.03326384
83	0xbdc680d9	-0.096925445
84	0xbb365914	-0.002782409
85	0x3d2cc8e6	0.04218378
86	0x3d880cca	0.06643064
87	0x3dd8a21e	0.105777964
88	0x3dd81f1b	0.10552808
89	0xbde98ada	-0.11403437
90	0x3d948518	0.07251948
91	0xbdd265c6	-0.10273318
92	0xbc51ac6f	-0.012797459
93	0xbd9b1b17	-0.07573526
94	0x3d9aa82c	0.075516075
95	0x3b5be5be	0.0033553685
96	0x3de28aa3	0.11061599
97	0xbd881770	-0.06645095
98	0x3db797f0	0.08964527
99	0xbd60de46	-0.054899476
100	0x3d974d1c	0.07387754
101	0xbd7086c9	-0.05872229
102	0x3d9a8316	0.07544534
103	0x3c2fa32a	0.010720054
104	0xbd91961e	-0.07108711
105	0x3ce82f88	0.028342977
106	0x3de6af85	0.112639464
107	0x3dab885f	0.0837562
108	0x3d1b9c5d	0.037990917
109	0xbcad57e1	-0.021160068
110	0xbcb804e0	-0.022463262
111	0x3d910df9	0.07082743
112	0xbd84a7f9	-0.06477351
113	0xbb9a71d0	-0.0047132745
114	0x3d755a2b	0.059900444
115	0xbc72e221	-0.014824421
116	0xbdb470fd	-0.08810613
117	0xbdddff0a	-0.108396605
118	0xbcf3a3d2	-0.029741202
119	0x3c7841d7	0.015152416
120	0xbd348742	-0.044074304
121	0x3de91351	0.113806374
122	0xbd8464e9	-0.064645596
123	0x3cd0cf44	0.025489457
124	0xbde86be5	-0.11348704
125	0x3c82cd0c	0.015966915
126	0x3d8a3a05	0.067493476
127	0x3d785c72	0.060635038
128	0x3dad096b	0.08449062
129	0x3d87ad49	0.066248484
130	0x3cef2e44	0.029196866
131	0x3c126ab4	0.008936573
132	0x3c3178e6	0.010832047
133	0x3dc4e274	0.09613505
134	0xbdc34238	-0.095341146
135	0xbc210bd0	-0.0098294765
136	0xbc5d6941	-0.013513864
137	0xbd8882cb	-0.06665572
138	0x3d581ce1	0.052761916
139	0x3d7aee81	0.06126261
140	0xbd9f6cb8	-0.07784408
141	0xbd4f7206	-0.05064585
142	0x3d2cb228	0.04216209
143	0xbc83d44e	-0.016092446
144	0x3c2558af	0.010091945
145	0x3d31c3ae	0.043399505
146	0xbddabd03	-0.106805824
147	0xbb0af6af	-0.0021204164
148	0xbcc6440d	-0.024202371
149	0xbd08e678	-0.033422917
150	0xbcd37c0a	-0.025815982
151	0xbcd5b806	-0.026088726
152	0x3d217435	0.039417464
153	0x3d3d46d0	0.04621011
154	0x3d131f48	0.035918504
155	0x3d9f1718	0.07768077
156	0x3dd6a035	0.10479776
157	0x3db8a33b	0.09015509
158	0xbca11913	-0.019665277
159	0x3cfc0ed0	0.030768782
160	0xbd67d001	-0.056594852
161	0xbd2fb1ac	-0.04289405
162	0x3dcb4c4a	0.0992666
163	0x3dac70a2	0.084199205
164	0x3c3dffce	0.011596633
165	0xbda48b58	-0.0803439
166	0xbd739af3	-0.059473943
167	0xbd769048	-0.06019619
168	0x3d98de9a	0.07464333
169	0x3ce85b01	0.028363707
170	0x3d92ac56	0.07161777
171	0xbdc4549f	-0.09586453
172	0xbdb2cf45	-0.0873094
173	0xbd8980be	-0.06714009
174	0x3cee32ba	0.029076923
175	0xbc5259d2	-0.012838798
176	0x3db92cba	0.09041734
177	0xbd6f594d	-0.058434773
178	0x3dadb89a	0.084824756
179	0x3d8dbc1a	0.06920643
180	0x3d95f3af	0.073218696
181	0x3d051e8c	0.032499835
182	0x3da816eb	0.08207496
183	0x3dc98cfe	0.09841345
184	0xbd740364	-0.059573546
185	0x3dd861d4	0.10565534
186	0xbdab6fef	-0.08370959
187	0x3dae7087	0.08517557
188	0xbdeaca03	-0.11464312
189	0xbdd96857	-0.10615604
190	0x3d4f0c8c	0.050549075
191	0x3ccb589a	0.024822522
192	0xbcae2546	-0.021258008
193	0x3d89ac37	0.067223005
194	0xbd07b66f	-0.033132967
195	0x3dc64767	0.09681588
196	0x3c3b06f8	0.011415236
197	0x3dd5ff1a	0.104490474
198	0x3dab4b0e	0.08363925
199	0x3cb329ca	0.021870513
200	0x3d3b3ec9	0.045714173
201	0x3d843c37	0.064567976
202	0xbd8775ca	-0.06614263
203	0x3d0f825a	0.035036422
204	0xbdcb4036	-0.09924357
205	0xbd68a0ee	-0.0567941
206	0xbb7e4a99	-0.0038801788
207	0x3dcf619d	0.1012604
208	0xbde26133	-0.110536955
209	0xbc53597a	-0.012899751
210	0xbb632336	-0.0034658439
211	0xbd53854a	-0.051640786
212	0x3dc4cdca	0.09609564
213	0x3dd49a48	0.10380989
214	0xbd365a97	-0.044519987
215	0x3aef31fa	0.0018249147
216	0x3d0526fd	0.032507885
217	0xbcd9d92f	-0.026592819
218	0xbd1d71c3	-0.03843857
219	0xbdb024c6	-0.08600764
220	0xbcc560bd	-0.02409398
221	0x3d8b68b0	0.06807077
222	0xbd979042	-0.07400562
223	0xbdc0afc3	-0.09408524
224	0xbda3ed89	-0.080042906
225	0xbdbf30e4	-0.09335497
226	0x3dc29389	0.09500796
227	0xbb435d4d	-0.002981025
228	0x3b8ad9a9	0.004237373
229	0xbcd4b236	-0.025963884
230	0xbda328e7	-0.07966786
231	0x3da50c1c	0.0805895
232	0x3d639216	0.05555924
233	0xbcbbd60c	-0.022929214
234	0x3d6acf40	0.057326555
235	0x3d0241ff	0.03180122
236	0xbd07e870	-0.033180654
237	0x3d8050a1	0.06265379
238	0xbdb1f846	-0.086899325
239	0xbcd941c3	-0.026520615
240	0x3d4fea2d	0.050760437
241	0x3dc56465	0.09638289
242	0xbd273948	-0.040826112
243	0x3d2f2c44	0.042766824
244	0xbdab1604	-0.083538085
245	0xbbaa5154	-0.0051976833
246	0x3d9ca793	0.0764915
247	0x3b17fa65	0.0023190018
248	0x3dc7c50d	0.09754381
249	0x3c0b78f7	0.008512727
250	0x3dafa588	0.085764945
251	0xbdaebedf	-0.085324995
252	0x3dc0a02c	0.0940555
253	0x3cc97124	0.024590082
254	0xbcfccfd7	-0.030860825
255	0x3d8cd038	0.06875652

model.0.bias f4 [512]
0	0xbdc7980b	-0.09745797
1	0xbcae84db	-0.021303585
2	0x3d05cf0a	0.03266815
3	0xbdad9e31	-0.08477438
4	0x3d8c3cfa	0.06847568
5	0xbd1808a1	-0.037117604
6	0x3da970ad	0.08273444
7	0x3d9e1601	0.07719041
8	0xbdde7099	-0.1086132
9	0xbd8104ad	-0.0629972
10	0x3db7925b	0.08963462
11	0x391482f9	0.00014163171
12	0xbd5adc26	-0.053432606
13	0x3dc163a1	0.09442831
14	0x3d8f5219	0.06998081
15	0x3bb4492e	0.0055018878
16	0x3dba84a1	0.09107328
17	0x3cdf54fb	0.027262202
18	0x3d92923f	0.071568005
19	0xbdcf525d	-0.101231314
20	0x3cf28544	0.029604562
21	0xbc897587	-0.016779674
22	0x3cc6ef4a	0.024284024
23	0xbdbae39c	-0.09125444
24	0x3da5c464	0.08094099
25	0x3d3c2d8a	0.045941867
26	0x3d70786b	0.05870859
27	0x3d815113	0.06314292
28	0xbd9d81ed	-0.07690797
29	0xbd63fec0	-0.05566287
30	0x3d23103f	0.039810415
31	0xbd6c9126	-0.05775561
32	0xbd6d3aaa	-0.057917275
33	0xbdb3df2d	-0.08782802
34	0x3d89fa53	0.06737199
35	0x3d06f162	0.032945044
36	0xbc2b2d13	-0.010447758
37	0xbdbb070e	-0.09132205
38	0xbdde61be	-0.108584866
39	0xbdbadef6	-0.09124558
40	0xbdc9db00	-0.09856224
41	0xbdbb3a15	-0.09141938
42	0xbd18d420	-0.037311673
43	0xbd8efc0e	-0.06981669
44	0x3db3597b	0.087573014
45	0xbcedea22	-0.029042307
46	0xbd760e33	-0.060072135
47	0xbdbf75ad	-0.09348617
48	0xbdc9aea8	-0.09847766
49	0x3d7c7bc3	0.061641466
50	0x3daab9bc	0.08336207
51	0x3d04805b	0.03234897
52	0xbdb77cd8	-0.08959359
53	0x3d8b434b	0.067999445
54	0x3db3431c	0.087530345
55	0x3d206817	0.039161768
56	0x3b4c6540	0.003118828
57	0x3cac7842	0.021053437
58	0x3d066417	0.032810297
59	0xbd853c2b	-0.06505617
60	0xbdae9fd3	-0.08526578
61	0x3dd8ed35	0.10592119
62	0x3bd81829	0.006594677
63	0x3d54f4ce	0.051991276
64	0xbd6da345	-0.058017034
65	0x3d984071	0.07434166
66	0xbd3292fe	-0.043597214
67	0x3d82cc61	0.063866384
68	0x3d7bf98f	0.061517294
69	0x3d25d247	0.04048374
70	0xbcdeb30c	-0.027184986
71	0x3d96a1b1	0.07355059
72	0x3dc548b4	0.09633008
73	0x3d4e76fd	0.050406445
74	0xbc4fc397	-0.01268091
75	0x3d8d90f1	0.06912411
76	0xbd8dce95	-0.06924168
77	0xbd95295c	-0.07283279
78	0xbc791651	-0.015203075
79	0xbc25429e	-0.010086684
80	0xbd68648d	-0.056736518
81	0x3d88c3b1	0.0667795
82	0xbd574fb9	-0.052566264
83	0x3dcab1d7	0.098972015
84	0xbbd93736	-0.006628896
85	0x3d31de05	0.043424625
86	0xbc7e3542	-0.015515627
87	0xbbb01229	-0.0053732586
88	0x3dd473ad	0.10373626
89	0xbc89e4e2	-0.016832773
90	0x3d662fc4	0.056197897
91	0xbcd20143	-0.025635367
92	0xbd856419	-0.06513233
93	0x3d59cc17	0.05317315
94	0xbd84917b	-0.06473061
95	0x3d1fd801	0.039024357
96	0xbdde8ee8	-0.10867101
97	0x3c34d7ec	0.011037808
98	0xbcbb0c28	-0.022832945
99	0xbd5505f7	-0.05200764
100	0xbd08b42b	-0.033374947
101	0x3da679bc	0.08128688
102	0x3d98d747	0.07462936
103	0xbd160036	-0.036621295
104	0xbcbac00c	-0.022796653
105	0x3d7b1a94	0.061304644
106	0x3cfc5f31	0.03080711
107	0xbd8eb5cc	-0.06968269
108	0xbdbf1b81	-0.09331418
109	0x3d6edaa6	0.05831399
110	0xbd215226	-0.039384983
111	0x3d8a19ba	0.06743188
112	0xbd6824dd	-0.05667578
113	0xbd954c0f	-0.07289898
114	0xbd0af08b	-0.033920806
115	0x3d047971	0.032342378
116	0x3d17708a	0.03697256
117	0x3d8c5c34	0.06853524
118	0xbdb3c5ab	-0.087779365
119	0xbdeaadcf	-0.114589326
120	0x3d60561d	0.054769624
121	0x3db5279d	0.08845446
122	0x3ceec0a8	0.0291446
123	0xbd0025ac	-0.031285927
124	0xbdcd18a4	-0.100144655
125	0x3dafc6b8	0.085828245
126	0xbda57b24	-0.08080128
127	0x3de9c3b1	0.11414278
128	0x3d942d8a	0.072352484
129	0x3d930e9f	0.07180523
130	0xbb1be49b	-0.0023787383
131	0x3c5b8863	0.013399216
132	0x3dd53c13	0.10411849
133	0xbd22c088	-0.039734393
134	0x3d3ba7ac	0.0458142
135	0x3ce77f4d	0.028258944
136	0xbdac2447	-0.08405357
137	0xbca76768	-0.02043505
138	0x39a4fa18	0.00031466852
139	0x3d40ee97	0.047102537
140	0xbbf4a00c	-0.007465368
141	0xbdd43aad	-0.10362754
142	0xbd9e4ff0	-0.077300906
143	0xbd41b7da	-0.047294475
144	0x3ddf79af	0.10911881
145	0xbd9bbb49	-0.07604081
146	0xbddbdd33	-0.1073555
147	0xbdbcdc17	-0.09221666
148	0xbd3a9141	-0.04554868
149	0xbca43c87	-0.020048393
150	0xbdb52e75	-0.088467516
151	0x3d173a2a	0.036920704
152	0xbd4cc26c	-0.049990103
153	0x3c6e84fa	0.014558071
154	0xbd018d70	-0.031629026
155	0xbd3443a8	-0.044009835
156	0xbdc355ef	-0.09537875
157	0xbd2c8bff	-0.0421257
158	0x3c7b9762	0.015355917
159	0xbdbed567	-0.09318047
160	0xbdb07604	-0.0861626
161	0x3d7e9837	0.062156882
162	0x3d9aa3bf	0.07550763
163	0xbd7ca720	-0.06168282
164	0x3d0aa322	0.03384698
165	0xbd7a0f01	-0.061049465
166	0x3dac7383	0.084204696
167	0xbd92addd	-0.07162068
168	0x3c36e9f8	0.011164181
169	0xbbd14d4a	-0.0063873874
170	0x3da16260	0.07880092
171	0xbdb8eb9b	-0.09029313
172	0xbcdd4dbd	-0.027014608
173	0xbd616464	-0.05502738
174	0x3c63b9c0	0.013899267
175	0x3d0202c5	0.031740922
176	0xbb0e9bd2	-0.0021760357
177	0xbddcb45a	-0.10776587
178	0xbbed63bd	-0.0072445557
179	0x3cf120ce	0.029434588
180	0xbd614a47	-0.055002477
181	0x3d8aba05	0.06773762
182	0xbd81a6ce	-0.063306436
183	0x3d776dc0	0.0604074
184	0x3d9a47bd	0.07533214
185	0x3d74e980	0.059792995
186	0x3d5228eb	0.051308554
187	0x3c6a1d45	0.014289205
188	0xbdb5f161	-0.0888393
189	0x3de30814	0.11085525
190	0x3d57d439	0.052692626
191	0x3c8330e9	0.016014533
192	0xbd94b49b	-0.0726101
193	0xbce357db	-0.027751854
194	0x39b59627	0.00034634882
195	0x3d6a7276	0.057238065
196	0xbd42fba1	-0.047603253
197	0xbde14f72	-0.11001481
198	0x3d7e82b5	0.06213637
199	0xbd9f4a74	-0.07777873
200	0xb98f01a1	-0.000272763
201	0x3ce8eebd	0.028434152
202	0xbc2506cf	-0.010072424
203	0xbd91ee68	-0.071255505
204	0xbd71029f	-0.05884039
205	0xbde6fa65	-0.11278228
206	0xbd8f0be0	-0.06984687
207	0x3de8b47c	0.1136255
208	0x3d448bae	0.04798477
209	0xbcb6b42f	-0.022302715
210	0xbba71f24	-0.005100148
211	0xba7321be	-0.00092747423
212	0x3c5162d3	0.012779909
213	0x3c866dd5	0.016409794
214	0xbdc1d7bf	-0.094649784
215	0xbde12a09	-0.10994346
216	0xbd7fabbc	-0.062419638
217	0xbd9b78f5	-0.0759143
218	0xbcc7ded0	-0.024398237
219	0x3dbc5ef9	0.09197802
220	0xbcc9ce67	-0.024634553
221	0x3c67de82	0.014152171
222	0xbd3948c7	-0.04523542
223	0xbddfb435	-0.10923044
224	0xbdd1f315	-0.10251442
225	0xbdbb65e7	-0.09150296
226	0x3d66aab8	0.056315154
227	0xbd8cef45	-0.068815745
228	0xbdddfd33	-0.108393095
229	0x3d643934	0.055718616
230	0xbc5c8e8e	-0.013461722
231	0xbdce828a	-0.10083492
232	0x3d5b24af	0.05350178
233	0x3d086ccc	0.03330688
234	0xbc4c7d78	-0.012481086
235	0xbd3701ad	-0.044679333
236	0xbd825bdf	-0.06365179
237	0xbdd6bac2	-0.1048484
238	0xbd23897f	-0.03992605
239	0x3d552ee7	0.052046683
240	0xbc2ceeec	-0.01055501
241	0x38b657e2	8.694806e-05
242	0x3dbd0ac2	0.092305675
243	0xbdac3cb0	-0.08410013
244	0xbdd0146d	-0.10160146
245	0x3dc2e1fa	0.09515758
246	0x3d1fc946	0.03901031
247	0x3dba3900	0.09092903
248	0xbd93ff73	-0.072264574
249	0xbcc22993	-0.023701465
250	0x3da2ef05	0.079557456
251	0xbdb3d990	-0.08781731
252	0x3d88483d	0.06654403
253	0x3db0001c	0.08593771
254	0x3de3e1b4	0.11127034
255	0xbddf32e0	-0.108983755

model.1.weight f4 [512]
0	0x3f7f8690	0.998147
1	0x3f800614	1.0001855
2	0x3f7fce2a	0.99923956
3	0x3f7f935d	0.99834234
4	0x3f802e9a	1.0014222
5	0x3f802924	1.0012555
6	0x3f7fb4f8	0.9988551
7	0x3f7f8aae	0.99820983
8	0x3f7f9a62	0.99844944
9	0x3f807459	1.0035506
10	0x3f80102d	1.0004936
11	0x3f80110b	1.0005201
12	0x3f7f4e11	0.99728495
13	0x3f804d52	1.0023596
14	0x3f7fd240	0.9993019
15	0x3f7f7ec6	0.99802816
16	0x3f7fb0db	0.99879235
17	0x3f7f267a	0.99668086
18	0x3f801305	1.0005804
19	0x3f8004cf	1.0001467
20	0x3f7fbb90	0.9989557
21	0x3f80448a	1.0020916
22	0x3f7fe22f	0.99954504
23	0x3f8047bf	1.0021895
24	0x3f7fd8a3	0.99939936
25	0x3f7ff9b2	0.9999038
26	0x3f7f3b92	0.9970027
27	0x3f80a831	1.0051328
28	0x3f809e08	1.0048227
29	0x3f801c07	1.0008553
30	0x3f802603	1.00116
31	0x3f8039f7	1.001769
32	0x3f7fdf36	0.9994997
33	0x3f7f83c5	0.9981044
34	0x3f7fe553	0.99959296
35	0x3f801d19	1.000888
36	0x3f7f37f5	0.9969476
37	0x3f7fc312	0.9990703
38	0x3f807524	1.0035748
39	0x3f7fe728	0.9996209
40	0x3f804ccf	1.002344
41	0x3f7fea7b	0.99967164
42	0x3f801b53	1.0008339
43	0x3f801b13	1.0008262
44	0x3f7fcd9d	0.99923116
45	0x3f7f885f	0.9981746
46	0x3f800f36	1.0004642
47	0x3f7f4f6a	0.9973055
48	0x3f7efeb9	0.99607426
49	0x3f80196f	1.0007762
50	0x3f806a57	1.0032452
51	0x3f7f65c2	0.99764645
52	0x3f806ec6	1.0033805
53	0x3f8039a2	1.0017588
54	0x3f7f9526	0.9983696
55	0x3f805bfc	1.0028071
56	0x3f7f9084	0.9982989
57	0x3f800f02	1.000458
58	0x3f7f3667	0.99692386
59	0x3f7fcd94	0.9992306
60	0x3f8013d2	1.0006049
61	0x3f8036ca	1.001672
62	0x3f7f575f	0.9974269
63	0x3f804546	1.002114
64	0x3f80158b	1.0006574
65	0x3f7f628e	0.9975976
66	0x3f7fd63b	0.99936265
67	0x3f802a45	1.00129
68	0x3f80065c	1.0001941
69	0x3f7fb16d	0.99880105
70	0x3f7fd6c2	0.9993707
71	0x3f7fbccb	0.9989745
72	0x3f8061fd	1.0029904
73	0x3f805521	1.0025979
74	0x3f8076f4	1.0036302
75	0x3f8054f4	1.0025926
76	0x3f7fecff	0.99971
77	0x3f80543d	1.0025707
78	0x3f803ecf	1.0019168
79	0x3f7fc544	0.9991038
80	0x3f8020e0	1.0010033
81	0x3f8047a9	1.0021869
82	0x3f805530	1.0025997
83	0x3f7f2caf	0.99677557
84	0x3f7f6e59	0.9977775
85	0x3f803e48	1.0019007
86	0x3f80292c	1.0012565
87	0x3f7f7efe	0.9980315
88	0x3f800a22	1.0003092
89	0x3f7faa1e	0.99868953
90	0x3f8030da	1.0014908
91	0x3f7f496c	0.9972141
92	0x3f80516c	1.0024848
93	0x3f800b9c	1.0003543
94	0x3f7fd7f3	0.9993889
95	0x3f7f8dfd	0.9982603
96	0x3f801d6c	1.0008979
97	0x3f7ff4c8	0.9998288
98	0x3f803ca0	1.0018501
99	0x3f7fca03	0.9991762
100	0x3f7ff22c	0.999789
101	0x3f7fa4b3	0.99860686
102	0x3f7f46ca	0.9971739
103	0x3f801189	1.0005351
104	0x3f803b6a	1.0018132
105	0x3f7f78e6	0.9979385
106	0x3f7fc526	0.999102
107	0x3f805435	1.0025698
108	0x3f7f10b7	0.9963488
109	0x3f7fece3	0.99970835
110	0x3f7fe12f	0.9995298
111	0x3f7fce2f	0.99923986
112	0x3f7ed766	0.9954742
113	0x3f7f64ae	0.99763
114	0x3f804b4e	1.0022981
115	0x3f7f5c59	0.99750286
116	0x3f804737	1.0021733
117	0x3f7faa97	0.99869674
118	0x3f7f646e	0.9976262
119	0x3f802270	1.001051
120	0x3f7e8d25	0.9943412
121	0x3f80024c	1.0000701
122	0x3f7fac90	0.99872684
123	0x3f7fc003	0.9990236
124	0x3f801552	1.0006506
125	0x3f800a48	1.0003138
126	0x3f800e1b	1.0004305
127	0x3f800ec6	1.0004508
128	0x3f7fbfd2	0.9990207
129	0x3f8015b6	1.0006626
130	0x3f805ccd	1.002832
131	0x3f801ccb	1.0008787
132	0x3f807b73	1.0037674
133	0x3f801608	1.0006723
134	0x3f80111e	1.0005224
135	0x3f800fd6	1.0004833
136	0x3f8009d2	1.0002997
137	0x3f806ae5	1.0032622
138	0x3f7f6540	0.9976387
139	0x3f7f92a5	0.99833137
140	0x3f80234c	1.0010772
141	0x3f7eb60a	0.9949652
142	0x3f800561	1.0001642
143	0x3f7fca63	0.9991819
144	0x3f7fbe53	0.99899787
145	0x3f801fd6	1.0009716
146	0x3f7f252f	0.9966611
147	0x3f802ab1	1.0013028
148	0x3f800174	1.0000443
149	0x3f805405	1.0025641
150	0x3f7fda6e	0.9994267
151	0x3f806382	1.0030367
152	0x3f8014c8	1.0006342
153	0x3f804623	1.0021404
154	0x3f7ff7d3	0.99987525
155	0x3f7f5b27	0.9974846
156	0x3f7fb856	0.9989065
157	0x3f8030e5	1.0014921
158	0x3f805bda	1.0028031
159	0x3f8016fe	1.0007017
160	0x3f7fef9f	0.9997501
161	0x3f8014a7	1.0006303
162	0x3f7f26c5	0.9966853
163	0x3f802eb8	1.0014257
164	0x3f7fca19	0.9991775
165	0x3f805c5e	1.0028188
166	0x3f8035d5	1.0016428
167	0x3f802ae1	1.0013086
168	0x3f807997	1.0037106
169	0x3f7f55aa	0.9974009
170	0x3f800336	1.000098
171	0x3f803082	1.0014803
172	0x3f8033b9	1.0015785
173	0x3f802309	1.0010692
174	0x3f7fbf4f	0.9990129
175	0x3f7f31c0	0.9968529
176	0x3f802e37	1.0014104
177	0x3f7fdd9e	0.99947536
178	0x3f803493	1.0016044
179	0x3f7fe48b	0.99958104
180	0x3f807387	1.0035256
181	0x3f7fae19	0.99875027
182	0x3f7fcf60	0.99925804
183	0x3f7f9517	0.9983687
184	0x3f80672d	1.0031487
185	0x3f804896	1.0022151
186	0x3f802b50	1.0013218
187	0x3f802599	1.0011474
188	0x3f800cea	1.0003941
189	0x3f7fa18e	0.9985589
190	0x3f7f8f5c	0.99828124
191	0x3f7fbbb8	0.9989581
192	0x3f803f5f	1.0019339
193	0x3f7f5a7d	0.9974745
194	0x3f80336a	1.001569
195	0x3f7fd0a7	0.99927753
196	0x3f7fc358	0.99907446
197	0x3f7f9004	0.99829125
198	0x3f80155c	1.0006518
199	0x3f7fcf83	0.9992601
200	0x3f8049aa	1.002248
201	0x3f7fd87a	0.9993969
202	0x3f803b73	1.0018142
203	0x3f7ff78a	0.9998709
204	0x3f7f231d	0.99662954
205	0x3f8013aa	1.0006001
206	0x3f801ce6	1.0008819
207	0x3f804031	1.001959
208	0x3f8028e1	1.0012475
209	0x3f7fd145	0.99928695
210	0x3f8023be	1.0010908
211	0x3f806ec5	1.0033804
212	0x3f805945	1.0027243
213	0x3f7f8089	0.99805504
214	0x3f804e33	1.0023865
215	0x3f80298d	1.001268
216	0x3f7fc94e	0.9991654
217	0x3f7feae3	0.99967784
218	0x3f7f6087	0.99756664
219	0x3f7fa449	0.99860054
220	0x3f80202a	1.0009816
221	0x3f7f789b	0.99793404
222	0x3f7f0bfa	0.9962765
223	0x3f7fd815	0.9993909
224	0x3f801da9	1.0009052
225	0x3f7fe585	0.99959594
226	0x3f7fa478	0.99860334
227	0x3f7fab0b	0.99870366
228	0x3f7f6bc7	0.9977383
229	0x3f800185	1.0000464
230	0x3f807dca	1.0038388
231	0x3f7f38f3	0.9969627
232	0x3f7edadf	0.9955272
233	0x3f803d86	1.0018775
234	0x3f8004c8	1.0001459
235	0x3f800d28	1.0004015
236	0x3f80a3b7	1.0049962
237	0x3f800323	1.0000957
238	0x3f7f7943	0.99794406
239	0x3f7fe743	0.9996225
240	0x3f80228a	1.001054
241	0x3f804733	1.0021728
242	0x3f805fd2	1.0029242
243	0x3f7fd3c8	0.9993253
244	0x3f807801	1.0036622
245	0x3f802a31	1.0012876
246	0x3f7f37f5	0.9969476
247	0x3f8001d3	1.0000557
248	0x3f7ff8a0	0.99988747
249	0x3f7f7c6e	0.9979924
250	0x3f7f744e	0.9978684
251	0x3f7fb9ea	0.9989306
252	0x3f806e8b	1.0033735
253	0x3f7f955f	0.998373
254	0x3f804b78	1.0023031
255	0x3f7ffb46	0.9999279

model.1.bias f4 [512]
0	0xbb3dbb80	-0.002895087
1	0xbb5d1253	-0.0033732846
2	0xbb02650d	-0.0019896657
3	0xbb14b834	-0.0022692801
4	0x3a19612c	0.00058509666
5	0xbb167013	-0.0022954985
6	0xbabb5170	-0.0014291238
7	0xbb1da9ea	-0.0024057576
8	0xba6ff26b	-0.00091532496
9	0x3b5d3ef1	0.003375944
10	0xbb10fb39	-0.0022122397
11	0x3a12d1e5	0.0005600735
12	0xbb1b65f2	-0.0023711887
13	0x35b8ba9c	1.3763379e-06
14	0xba0a91f7	-0.00052860327
15	0xbaa1386c	-0.001230014
16	0xba1cdc33	-0.000598374
17	0xbb950778	-0.0045480095
18	0xbaff0936	-0.0019457701
19	0x3a77cabb	0.00094525114
20	0xbb75cb84	-0.0037505338
21	0x3b240a41	0.0025030526
22	0xbb2cef6c	-0.0026387824
23	0x3a913f12	0.0011081418
24	0xba902a37	-0.0010998909
25	0x3a361a03	0.0006946625
26	0xbb35d6a5	-0.0027746346
27	0x3b44ad52	0.0030010534
28	0x3afe997e	0.0019424406
29	0x3b2da9d9	0.0026498942
30	0x3b926ab9	0.0044682887
31	0x3b2c9da8	0.0026339088
32	0xb94aa0fd	-0.00019324194
33	0xbb229625	-0.0024808731
34	0xbaa90414	-0.0012894892
35	0x3b2fe18b	0.0026837315
36	0xbb80a116	-0.003925453
37	0xba9f9270	-0.0012174379
38	0x3b8d72b9	0.0043166545
39	0x3ab43e61	0.00137515
40	0x3b78b841	0.003795162
41	0x3baf8a68	0.0053570755
42	0xbb22bba1	-0.0024831074
43	0x39f6d6b1	0.00047080734
44	0xb9198e8c	-0.0001464432
45	0x3b088c2b	0.00208355
46	0xba207626	-0.0006121121
47	0xbb196f9d	-0.0023412474
48	0xbab6ef11	-0.0013956745
49	0x3aa01762	0.0012214
50	0x3ae136cb	0.0017182467
51	0xbb505c53	-0.003179331
52	0x392e2446	0.00016607446
53	0x3a9de8cb	0.0012047527
54	0xbb969cd3	-0.0045963316
55	0x3b7f08d8	0.0038915183
56	0xbb06d8d4	-0.0020576017
57	0x39c5332d	0.00037612897
58	0xbb12dc2f	-0.0022409072
59	0xbb114c9e	-0.0022170912
60	0x3a1b6dd9	0.00059291493
61	0x3b092fec	0.0020933105
62	0xbb1e8762	-0.002418958
63	0x3b46bf11	0.0030326287
64	0x3a5af32b	0.0008352275
65	0xba723f36	-0.00092409865
66	0xba8c4583	-0.0010701868
67	0x3b14064a	0.0022586756
68	0x3aa036ae	0.0012223327
69	0xbb620627	-0.003448853
70	0xba372b0a	-0.00069873093
71	0xba82d67f	-0.0009982138
72	0x3b7b6ceb	0.003836448
73	0xb9debe66	-0.00042484998
74	0x3b200c40	0.0024421364
75	0x3b039dcc	0.0020083068
76	0x3a04d47b	0.00050670624
77	0x3b4548f6	0.0030103303
78	0xbb08a66d	-0.002085115
79	0x38cefcd2	9.869937e-05
80	0x3981a235	0.0002472565
81	0x3b27d46c	0.002560879
82	0xba534566	-0.00080593524
83	0xbb0c25d3	-0.002138485
84	0xbb8063f1	-0.003918164
85	0x3b148512	0.0022662324
86	0x3a8c2d44	0.0010694643
87	0xbb18d90c	-0.002332273
88	0x39f4bdce	0.00046680722
89	0x3b829072	0.0039845044
90	0x385e022f	5.293096e-05
91	0x3a26cb5a	0.0006362699
92	0x3b21b9ab	0.0024677317
93	0x3a901602	0.0010992887
94	0xbaccbcdd	-0.001562025
95	0xba9abc78	-0.0011805436
96	0x3b41bd99	0.0029562472
97	0x38d2a614	0.00010044515
98	0x3b15842b	0.0022814374
99	0x3a3cda67	0.00072041753
100	0xbadf019d	-0.0017014031
101	0x39a7968f	0.00031964897
102	0xbaa55894	-0.0012614899
103	0xbadd8cef	-0.0016902963
104	0x3b41c5fd	0.0029567473
105	0x3aa7c11d	0.0012798641
106	0xba5cdbbf	-0.00084250787
107	0x3aa92b67	0.0012906612
108	0xbb284d38	-0.0025680792
109	0xbaa56df0	-0.0012621265
110	0x3ad97de0	0.00165933
111	0xba22ed02	-0.00062151265
112	0xbba35dc3	-0.0049855425
113	0xbab48115	-0.001377138
114	0x3bc126bb	0.0058945096
115	0x3a7620c2	0.00093890366
116	0xba52a2b2	-0.0008035108
117	0xbb951d14	-0.0045505855
118	0xbb1e8582	-0.0024188464
119	0x382cf606	4.1237123e-05
120	0x399334a3	0.00028077242
121	0x3b800585	0.003906908
122	0xbb04010d	-0.0020142228
123	0x3b545eea	0.0032405206
124	0xbb1ce5b8	-0.0023940634
125	0x3a1dce47	0.00060198124
126	0x3b56fdcf	0.003280509
127	0x3a88b80d	0.0010430828
128	0xbb03a6d5	-0.0020088453
129	0xbb4053c1	-0.0029346796
130	0x396716f6	0.0002203843
131	0xb9d9fac2	-0.00041576294
132	0x3b0fef33	0.0021962642
133	0xba7bac7c	-0.00096005923
134	0xba049b8a	-0.00050585775
135	0xb996413e	-0.0002865884
136	0xb98ddd91	-0.00027058696
137	0x3b72cf15	0.00370497
138	0xba9acf88	-0.0011811117
139	0x39ea6018	0.00044703553
140	0xba38b3f1	-0.00070458563
141	0xbb20c298	-0.002453005
142	0xbafe7f1d	-0.0019416545
143	0xba92eec1	-0.001121007
144	0x3a8d2c89	0.0010770719
145	0x3abd9fcb	0.0014467178
146	0xbb0302ca	-0.0019990676
147	0x3b33020d	0.0027314455
148	0xbab8c2de	-0.0014096161
149	0xba62cc60	-0.000865167
150	0xba339369	-0.0006850274
151	0x3ae80901	0.0017702879
152	0x3ae923a7	0.0017787114
153	0x3b5623a1	0.0032675045
154	0xbae1d7f7	-0.00172305
155	0xb9a94094	-0.00032282306
156	0x3b071fbe	0.0020618285
157	0x3a8b4866	0.0010626435
158	0x3b6ce917	0.0036149675
159	0xba299034	-0.00064683263
160	0x39bca3de	0.00035980245
161	0x3922a76d	0.00015511895
162	0xba8c4f08	-0.0010704705
163	0x3a30f7be	0.00067507837
164	0xba9a06e7	-0.0011751325
165	0x3b3aa88f	0.0028481816
166	0x3ad6be0c	0.0016383543
167	0x3a12dcba	0.0005602349
168	0x3b8bda74	0.004267985
169	0xbb190bc0	-0.002335295
170	0x3a40e99e	0.00073590304
171	0x3af3cb92	0.0018600097
172	0x3aa8bf93	0.0012874476
173	0xbacb569e	-0.0015513485
174	0xba89af66	-0.0010504543
175	0x393dae6e	0.00018089425
176	0x3aa9a1f7	0.0012941946
177	0x3a2eb345	0.00066642865
178	0xba8ec22f	-0.0010891611
179	0xb9eb070a	-0.00044827937
180	0x3b3326c7	0.0027336346
181	0x39a9b08a	0.00032365724
182	0x3a38c63e	0.00070485834
183	0xba58a7f9	-0.0008264776
184	0x3b01e39b	0.0019819501
185	0xba96bcba	-0.0011500337
186	0x3af6feec	0.0018844283
187	0xba7fc6d4	-0.0009757106
188	0x38e44602	0.00010884927
189	0xb9f2d824	-0.00046318874
190	0x3af21b54	0.0018471279
191	0xba90b25a	-0.0011039481
192	0x3b51f350	0.0032035895
193	0xb82ec377	-4.1666874e-05
194	0x3af43dc1	0.0018634127
195	0xbb0b56a9	-0.002126137
196	0x39b6dccc	0.00034878252
197	0xbb13d6a6	-0.002255836
198	0x3b0d0d52	0.0021522832
199	0xbaa7b0b2	-0.0012793748
200	0x3b89d617	0.0042064297
201	0xb9f7c9f3	-0.00047261975
202	0x3b2dfdc5	0.0026548964
203	0xbaf9cd4e	-0.0019058378
204	0xbb600a5f	-0.003418587
205	0x3ab5189a	0.0013816536
206	0x3b3d5040	0.0028886944
207	0x3988b5da	0.0002607543
208	0x3999e331	0.00029351705
209	0xbaa21b00	-0.0012367666
210	0xb991acbd	-0.00027785255
211	0x3a163d89	0.00057312154
212	0x39e67398	0.00043955143
213	0xbb87be20	-0.0041425377
214	0x3b96dea7	0.004604179
215	0x3b4d2ff3	0.0031309098
216	0xbaf6ff84	-0.001884446
217	0xbaf88ad3	-0.0018962271
218	0xbb2006d2	-0.0024418128
219	0xbb07008b	-0.002059969
220	0x3b13801d	0.0022506781
221	0xbb669129	-0.0035181737
222	0xba785cc0	-0.000947427
223	0x3a1ca4ec	0.0005975503
224	0x3b6a6906	0.0035768165
225	0xbb6aeb01	-0.003584564
226	0xba93043d	-0.0011216473
227	0x3b102c2e	0.002199899
228	0xbb304874	-0.0026898654
229	0x39abf276	0.0003279631
230	0x3a64daec	0.00087301317
231	0xbb5cf114	-0.003371303
232	0xbb39de34	-0.0028361203
233	0x3a82e340	0.0009985939
234	0xbb709ddf	-0.0036715192
235	0x3aca9bdc	0.0015457827
236	0x3b6cc442	0.003612772
237	0x3bac7609	0.0052630943
238	0xba8f5bd8	-0.0010937406
239	0x3b019452	0.0019772244
240	0x3b25e5cd	0.0025313974
241	0x3b7581f6	0.0037461496
242	0x3af07287	0.0018344679
243	0xbace2cd5	-0.0015729914
244	0x3b6acbad	0.0035826967
245	0x3a161503	0.0005725177
246	0xbb4f117b	-0.0031596113
247	0x3aa32b63	0.0012448843
248	0xba379388	-0.000700288
249	0xbb32f9e9	-0.0027309603
250	0xbb1db1b1	-0.002406221
251	0x3aa6ecf7	0.0012735416
252	0x3abbe67e	0.001433566
253	0xbaf5d97b	-0.0018756831
254	0x3a07b122	0.0005176236
255	0x3b7b141f	0.0038311554

model.1.running_mean f4 [512]
0	0xbecb3922	-0.39692026
1	0x3e3744f7	0.17897402
2	0x3e8d2b70	0.27572203
3	0x3de08876	0.10963528
4	0x3dcb827a	0.09936996
5	0xbe92f845	-0.2870504
6	0xbbd176a6	-0.006392318
7	0x3c08b541	0.008343996
8	0x3d2c1946	0.04201629
9	0xbdc7a26a	-0.09747775
10	0xbdca8572	-0.09888734
11	0xbd4d4d36	-0.050122462
12	0x3e4e22ba	0.20130435
13	0x3f07b336	0.5300783
14	0x3f03f1dd	0.5154093
15	0xbe82382a	-0.25433475
16	0x3f03e69e	0.5152377
17	0xbdad4e09	-0.0846215
18	0x3dbfa371	0.09357346
19	0xbed05093	-0.40686473
20	0x3e2ca516	0.1685985
21	0x3ee0784a	0.43841773
22	0xbd2eec12	-0.042705603
23	0xbea8f070	-0.3299594
24	0xbd3c051f	-0.04590332
25	0x3e85640c	0.26052892
26	0xbc80e89b	-0.015735915
27	0x3e365fa9	0.17809929
28	0xbed5b7f9	-0.41741922
29	0xbe938223	-0.28810224
30	0xbf11f796	-0.5701841
31	0xbe311339	-0.17292489
32	0xbe201329	-0.15632309
33	0xbe5dd07e	-0.21661565
34	0x3e84b2b8	0.25917602
35	0xbe2c9dbf	-0.1685705
36	0xbe8aa480	-0.2707863
37	0x3e202378	0.1563853
38	0xbeac473e	-0.33648103
39	0xbdb2639c	-0.08710405
40	0xbe385572	-0.18001345
41	0xbe5aae0a	-0.21355453
42	0xbe416017	-0.18884312
43	0x3ce22cd4	0.027609266
44	0x3e214c60	0.15751791
45	0xbd83d692	-0.064374104
46	0xbef64f62	-0.4810744
47	0xbecd8111	-0.40137532
48	0xbe497807	-0.19674693
49	0x3dbb0a30	0.091328025
50	0x3eb777b2	0.35833508
51	0x3d0997ce	0.033592038
52	0x3e647073	0.22308521
53	0x3decc40d	0.11560831
54	0xbdba80a9	-0.09106571
55	0xbdd42e0e	-0.10360347
56	0x3d46349c	0.048390016
57	0xbd48c589	-0.04901651
58	0x3d9928e8	0.074785054
59	0x3d93a007	0.07208257
60	0xbe7dace4	-0.24772984
61	0x3dd218c8	0.10258633
62	0x3ec5628d	0.3855175
63	0x3db08be2	0.086204305
64	0xbc4a5a4b	-0.012350629
65	0x3db95995	0.090502895
66	0x39d157ec	0.00039929093
67	0xbe3843a8	-0.17994559
68	0x3e80c266	0.25148314
69	0xbeabcbac	-0.33553827
70	0x3dd9969e	0.10624431
71	0x3e159553	0.14607744
72	0x3e3f2b62	0.18668893
73	0x3e20240a	0.15638748
74	0x3e2013ce	0.15632555
75	0x3ecab8e1	0.39594176
76	0x3dd4384b	0.103622995
77	0xbdc6ac84	-0.097008735
78	0x3e90ba10	0.28266954
79	0xbe3ba879	-0.18325986
80	0x3c070436	0.00824075
81	0xbe3323e4	-0.1749416
82	0xbee7c3cb	-0.45266566
83	0xbe167269	-0.14692082
84	0x3efacc72	0.48984104
85	0xbc1786c6	-0.009248441
86	0xbec454e2	-0.3834601
87	0x3c8329e8	0.016011193
88	0x3d401f19	0.046904657
89	0xbd2b33aa	-0.041797318
90	0xbdfc1c5c	-0.123100966
91	0xbe8715c7	-0.26383802
92	0x3d38af51	0.04508907
93	0x3e3a9925	0.18222483
94	0xbbbabb17	-0.0056985724
95	0x3dc8fb5d	0.09813569
96	0xbeaed7b3	-0.3414894
97	0xbd248063	-0.0401615
98	0x3c91ed6e	0.01781341
99	0x3ec9a775	0.39385572
100	0x3e4a6eb5	0.19768794
101	0x3e697812	0.2279971
102	0xbde2611d	-0.11053679
103	0xbda33586	-0.07969193
104	0x3e0e76c2	0.1391249
105	0x3e8d8231	0.2763839
106	0xbe73b2be	-0.23798653
107	0xbe529757	-0.20565544
108	0x3e6e6fd5	0.23284848
109	0xbe089b03	-0.13340382
110	0x3dade2b2	0.08490504
111	0x3e8faa35	0.28059545
112	0xbe84b8ea	-0.25922328
113	0xbea26113	-0.31714687
114	0xbe8a9f84	-0.27074826
115	0x3e0c1caf	0.13682817
116	0x3eb02348	0.34401917
117	0x3e6ea9f4	0.2330702
118	0x3d0a320b	0.03373913
119	0x3cbc7570	0.023005217
120	0xbe27f5c5	-0.16402347
121	0x3edb5bd4	0.42843497
122	0x3e71dcaa	0.23619333
123	0xbf0c64c4	-0.54841256
124	0xbd8430eb	-0.06454643
125	0x3dd03d9c	0.10168001
126	0xbe5e7bbb	-0.21726887
127	0x3cac4cde	0.021032747
128	0x3e39d07c	0.18145937
129	0xbe573a04	-0.21018225
130	0xbc2741ae	-0.01020853
131	0xbeb93981	-0.36176684
132	0x3e36e84f	0.17862056
133	0x3dcfcc1f	0.10146355
134	0x3f00b8ab	0.5028178
135	0xbecbfb49	-0.39840153
136	0xbe4382cc	-0.19092864
137	0x3bda233e	0.006657033
138	0x3de45dd1	0.111507066
139	0xbee40ef8	-0.4454267
140	0x3d420ba6	0.04737439
141	0xbe29b645	-0.16573437
142	0xbe8b1d34	-0.27170718
143	0xbe150095	-0.14551003
144	0x3f203cea	0.6259295
145	0xbe1cac2b	-0.15300052
146	0xbe5f107c	-0.21783632
147	0x3e295f0b	0.16540162
148	0xbe13184a	-0.14364734
149	0x3eb35c95	0.35031572
150	0xbe7e5e9b	-0.24840777
151	0x3e1bd215	0.15216859
152	0xbde20acd	-0.11037216
153	0x3db2aac5	0.08723978
154	0x3c233403	0.009961131
155	0x3bc0dae2	0.005885468
156	0xbf4217b0	-0.75817394
157	0xbe0373d4	-0.12837154
158	0xbdb7bf6b	-0.08972057
159	0xbeb7bb29	-0.3588498
160	0xbe416761	-0.18887092
161	0x3d929233	0.071567915
162	0x3e9d81ba	0.30763036
163	0x3d4b1637	0.049581733
164	0x3f2ab9c1	0.6668969
165	0xbea0fdf4	-0.3144375
166	0xbd15c76e	-0.036567144
167	0xbe1fcb31	-0.15604855
168	0xbe5c6915	-0.2152446
169	0x3e1b8f49	0.15191378
170	0xbdd37068	-0.10324174
171	0x3d0e7db4	0.03478785
172	0x3df164ed	0.11786828
173	0xbea9074a	-0.33013374
174	0x3ed9efd7	0.42565796
175	0x3eae9932	0.34101254
176	0x3e506901	0.20352556
177	0xbe23d1d3	-0.1599801
178	0x3df09778	0.1174764
179	0xbc1ab136	-0.009441664
180	0x3d08bb3e	0.033381693
181	0x3d831f9a	0.06402512
182	0xbe82a060	-0.2551298
183	0x3d9adaf8	0.07561296
184	0xbe7c81b9	-0.2465886
185	0x3df421fa	0.11920543
186	0x3db75c7e	0.08953188
187	0xbdbf4725	-0.093397416
188	0xbe374964	-0.1789909
189	0x3e8353ea	0.2564996
190	0x3ca7781e	0.020443019
191	0xbd1e7444	-0.0386851
192	0xbe4f028f	-0.2021582
193	0x3e25410e	0.16138098
194	0x3cce3397	0.025171084
195	0x3b40e3ab	0.0029432576
196	0xbe77164b	-0.24129598
197	0xbdf2f012	-0.11862196
198	0xbe1308eb	-0.1435887
199	0xbe5f909f	-0.21832512
200	0x3d3bc0c4	0.045838133
201	0x3e9dbafa	0.30806714
202	0x3d954a92	0.07289614
203	0x3e2a46b1	0.16628529
204	0xbddb1912	-0.10698141
205	0x3de5d3e0	0.112220526
206	0xbea8b74c	-0.32952344
207	0x3e53532c	0.20637196
208	0x3e1e01d5	0.15430386
209	0x3d09452f	0.033513244
210	0xbf0a81ba	-0.541042
211	0xbce49117	-0.027901215
212	0x3e2bac6d	0.16764994
213	0xbd305bbe	-0.043056242
214	0xbe81de27	-0.253648
215	0xbe88783b	-0.2665423
216	0xbe2e98e5	-0.17050512
217	0xbe80bafc	-0.25142658
218	0xbe81c4a0	-0.25345325
219	0x3ebe86f7	0.37212345
220	0x3e120dde	0.14263102
221	0xbf0ab412	-0.54181015
222	0xbe149074	-0.1450823
223	0x3edbd72b	0.42937598
224	0xbe886ac3	-0.26643953
225	0x3d9fb65e	0.07798456
226	0x3cf39d7f	0.029738186
227	0xbd1b7492	-0.037952967
228	0xbdd29de5	-0.10284022
229	0x3d677583	0.056508552
230	0xbe7289ab	-0.23685329
231	0xbe1bd01d	-0.15216108
232	0xbdb8bbb6	-0.09020178
233	0xbec0d44a	-0.37661964
234	0xbe440229	-0.19141449
235	0x3e3c0a35	0.18363269
236	0xbe93853f	-0.28812596
237	0x3e9071f1	0.2821193
238	0xbe0881bb	-0.13330738
239	0x3d3f48b7	0.046700206
240	0x3d9e861d	0.07740424
241	0xbc082fde	-0.008312194
242	0x3e0e6301	0.13904954
243	0xbe7769db	-0.24161474
244	0xbc8efe18	-0.017455146
245	0x3ecdc5a6	0.40189856
246	0x3e02a1ca	0.1275703
247	0x3dd3409c	0.10315058
248	0x3ef38c0a	0.4756778
249	0xbe759de3	-0.2398601
250	0x3eb122aa	0.3459676
251	0xbcb115cd	-0.02161684
252	0x3e0036e3	0.12520938
253	0x3e0f2cb0	0.1398189
254	0x3e7d2c28	0.24723876
255	0xbe384e78	-0.17998683

model.1.running_var f4 [512]
0	0x3c065735	0.008199503
1	0x3c45797d	0.012052891
2	0x3c3f39aa	0.011671463
3	0x3be73fcd	0.007057166
4	0x3c811a0b	0.015759489
5	0x3c27ab2b	0.010233681
6	0x3c2823e4	0.010262463
7	0x3c4f1da8	0.012641348
8	0x3c2beff7	0.010494224
9	0x3ca281bb	0.019837251
10	0x3c15e8cc	0.009149741
11	0x3c62be82	0.013839366
12	0x3c11ec1a	0.008906389
13	0x3c3033b4	0.0107545145
14	0x3c60ad52	0.013713198
15	0x3c610a3f	0.013735353
16	0x3c83e002	0.016098026
17	0x3c911577	0.01771043
18	0x3c40d7cb	0.011770199
19	0x3c6becf1	0.014399753
20	0x3be13ef0	0.006873958
21	0x3c24eafd	0.010065791
22	0x3c390ad6	0.011294087
23	0x3c34cb34	0.0110347755
24	0x3c4cb87e	0.012495158
25	0x3c7f5fcb	0.015586804
26	0x3c1fd36a	0.009754995
27	0x3c3448d8	0.011003695
28	0x3c7aeab6	0.0153147485
29	0x3c35c56f	0.011094435
30	0x3c6f6ba9	0.0146130705
31	0x3c7fcd68	0.0156129375
32	0x3c5a2d2f	0.013316437
33	0x3c2cd4bf	0.0105487695
34	0x3c8c0d23	0.017096108
35	0x3c63c41c	0.013901737
36	0x3c32b53e	0.010907469
37	0x3c4b5ac9	0.012411782
38	0x3c2f2613	0.01069023
39	0x3c24f3d3	0.010067898
40	0x3c2f409c	0.010696556
41	0x3c1073b7	0.008816651
42	0x3c0ed8f4	0.008718718
43	0x3c5bbe54	0.013412077
44	0x3c4e2237	0.0125814
45	0x3c000e0c	0.007815849
46	0x3c672f3b	0.014110382
47	0x3c0fa08a	0.008766303
48	0x3c21a802	0.009866716
49	0x3c676c3f	0.014124929
50	0x3c617b57	0.013762317
51	0x3c625ace	0.013815595
52	0x3c3aef28	0.011409558
53	0x3c7a7d03	0.015288594
54	0x3c9b4728	0.018954828
55	0x3c67b828	0.014143027
56	0x3c1e3385	0.009655838
57	0x3c6587bb	0.014009411
58	0x3c5b7540	0.013394654
59	0x3c3a3f1f	0.011367588
60	0x3c4081d4	0.011749703
61	0x3c616fee	0.013759596
62	0x3c4c83f9	0.012482637
63	0x3c4a67de	0.012353865
64	0x3c46dfe7	0.012138343
65	0x3c330bcd	0.0109281065
66	0x3c6b053f	0.0143445125
67	0x3c023a57	0.00794848
68	0x3c84a12f	0.01619014
69	0x3c270021	0.010192902
70	0x3c520ae3	0.012819978
71	0x3c216ddc	0.009852853
72	0x3c7a956b	0.015294413
73	0x3c2e79ad	0.010649127
74	0x3c0ed295	0.008717199
75	0x3c070ed2	0.0082432795
76	0x3c9457b8	0.018108234
77	0x3c209458	0.009800993
78	0x3c7295f0	0.014806256
79	0x3ca1ecb6	0.019766193
80	0x3c5b1dd3	0.01337381
81	0x3c486f50	0.01223357
82	0x3c770c6b	0.015078644
83	0x3c37c9d3	0.011217552
84	0x3c6e6c3a	0.01455217
85	0x3c168a81	0.009188295
86	0x3c2ce4b6	0.010552576
87	0x3c63fbe2	0.013915034
88	0x3c899429	0.016794281
89	0x3c2e24c2	0.010628881
90	0x3c57b456	0.013165554
91	0x3c48f314	0.012264986
92	0x3c5dc4c8	0.013535686
93	0x3ca2e0a6	0.019882511
94	0x3c9c11ac	0.019051395
95	0x3c60efa2	0.013729008
96	0x3c8e10f6	0.017342072
97	0x3c6b84e5	0.014374946
98	0x3c22fb85	0.009947662
99	0x3c5b3cda	0.013381207
100	0x3c8a8112	0.016907249
101	0x3c35a4d2	0.0110866595
102	0x3c2339bb	0.0099624945
103	0x3ca259cf	0.019818215
104	0x3c3907e6	0.011293387
105	0x3c53b71b	0.012922074
106	0x3c59f635	0.013303329
107	0x3c2d8ea1	0.010593087
108	0x3c65def7	0.01403021
109	0x3c5d76eb	0.013517122
110	0x3c5039d6	0.012709102
111	0x3c51b591	0.012799636
112	0x3bf2f739	0.007414725
113	0x3c384c5e	0.011248676
114	0x3c7ab14a	0.015301058
115	0x3c880e1d	0.016608292
116	0x3c30708e	0.010769023
117	0x3c6770f9	0.014126056
118	0x3c4d9cf2	0.012549626
119	0x3c4579dd	0.01205298
120	0x3c63414d	0.013870549
121	0x3c8f8ea8	0.017524078
122	0x3c06f8da	0.008238042
123	0x3c207ab4	0.00979488
124	0x3c841cf5	0.016127089
125	0x3ca6e419	0.020372437
126	0x3c539d2e	0.0129158925
127	0x3c3455a0	0.011006743
128	0x3c433822	0.011915239
129	0x3c287a65	0.010283087
130	0x3c8f969f	0.017527876
131	0x3c6f7f0d	0.014617694
132	0x3c1d1985	0.009588604
133	0x3c278a0a	0.010225782
134	0x3c93d2fc	0.018044941
135	0x3c33f284	0.010983113
136	0x3c79d020	0.015247375
137	0x3c3e8af0	0.011629805
138	0x3c2b81af	0.010467931
139	0x3c537c43	0.012908044
140	0x3c59f7e8	0.013303734
141	0x3c6b0a68	0.014345743
142	0x3c445e3b	0.011985357
143	0x3c2c95ba	0.0105337445
144	0x3c3f9e09	0.011695393
145	0x3c657954	0.014005978
146	0x3c7ac7db	0.015306438
147	0x3c42999b	0.011877443
148	0x3c65cd58	0.014026009
149	0x3c971273	0.018441414
150	0x3cb1d035	0.021705726
151	0x3c83ce89	0.016089695
152	0x3c3c8d91	0.011508361
153	0x3c2d7b67	0.010588503
154	0x3c2d0e09	0.010562428
155	0x3c171e1c	0.009223487
156	0x3c2d7d83	0.010589006
157	0x3c353b78	0.011061542
158	0x3c2b2958	0.010446869
159	0x3c8a93a9	0.016916113
160	0x3c4ea337	0.012612156
161	0x3c183b53	0.009291488
162	0x3ca6fc64	0.020384021
163	0x3c5d86c9	0.013520905
164	0x3c4317ef	0.011907562
165	0x3c8f998b	0.01752927
166	0x3c803194	0.01564864
167	0x3c39ab38	0.011332326
168	0x3c2a3f41	0.0103910575
169	0x3c5e4d3d	0.01356822
170	0x3c6d34b7	0.0144779
171	0x3c3f5e14	0.011680145
172	0x3c420778	0.011842601
173	0x3c6312f5	0.0138595
174	0x3c5fdf48	0.013664074
175	0x3c2c987c	0.010534402
176	0x3c23995b	0.009985293
177	0x3c620ab7	0.0137965
178	0x3c1a491e	0.009416847
179	0x3c59a171	0.01328312
180	0x3c2da05d	0.010597316
181	0x3c6b2c22	0.014353784
182	0x3c2a6525	0.010400091
183	0x3c489ad1	0.012243942
184	0x3c2d2733	0.010568428
185	0x3c1989e7	0.009371257
186	0x3c6ba787	0.014383203
187	0x3c96fc8c	0.01843097
188	0x3c330375	0.010926117
189	0x3c224e38	0.009906344
190	0x3c2f4cf4	0.010699499
191	0x3c0d3d9c	0.008620646
192	0x3c164bb3	0.009173322
193	0x3ca3bb91	0.0199869
194	0x3c7aa853	0.015298921
195	0x3c228230	0.009918734
196	0x3c3bc4cb	0.011460493
197	0x3c20aea3	0.009807262
198	0x3c47cce3	0.012194845
199	0x3c1a7530	0.009427354
200	0x3c668160	0.014068931
201	0x3c3e2517	0.011605523
202	0x3bedb889	0.0072546643
203	0x3c885921	0.016644062
204	0x3c64ae6f	0.013957604
205	0x3c1c74c5	0.009549324
206	0x3c6f8e7e	0.014621375
207	0x3c377fd3	0.011199909
208	0x3c43a79e	0.0119418185
209	0x3c54918a	0.012974152
210	0x3c5cbadd	0.013472286
211	0x3c61334f	0.013745143
212	0x3c33065a	0.010926807
213	0x3c89acec	0.016806088
214	0x3c7f81b5	0.015594889
215	0x3c3a29cf	0.011362507
216	0x3c5bcea3	0.013415965
217	0x3c92c9ac	0.01791843
218	0x3c57b246	0.013165062
219	0x3c6076f0	0.013700232
220	0x3c659a17	0.014013789
221	0x3c630659	0.013856494
222	0x3c829308	0.01593925
223	0x3c680ad5	0.014162739
224	0x3c57fc2c	0.013182681
225	0x3c39268a	0.011300692
226	0x3c157fe9	0.009124734
227	0x3c84c2c4	0.016206153
228	0x3c07f331	0.008297727
229	0x3c483d2a	0.012221614
230	0x3c6aeaaf	0.0143381795
231	0x3c3f1d3f	0.011664688
232	0x3c245018	0.010028861
233	0x3c33bdce	0.010970546
234	0x3c88c428	0.016695097
235	0x3c330388	0.010926135
236	0x3c85a925	0.016316006
237	0x3c3c7c63	0.0115042655
238	0x3c5ad756	0.013357004
239	0x3c4dba7b	0.012556667
240	0x3c2abed5	0.010421474
241	0x3c57adc0	0.013163984
242	0x3c771c16	0.01508238
243	0x3c8150ea	0.015785653
244	0x3c889631	0.01667318
245	0x3c924162	0.017853443
246	0x3c4c8fa9	0.012485423
247	0x3c3fbe9d	0.011703161
248	0x3c738878	0.01486408
249	0x3c57bd97	0.01316776
250	0x3c5af0f7	0.013363115
251	0x3c26389c	0.010145333
252	0x3c287065	0.010280703
253	0x3c89b281	0.01680875
254	0x3c4e0fa8	0.012576975
255	0x3ca15aca	0.019696612

model.3.weight f4 [256, 512]
0	0x3cda0c18	0.026617095
1	0xbad9d0bc	-0.0016617994
2	0x3a0fa118	0.0005479022
3	0x3d09a5fd	0.033605564
4	0xba93d3ef	-0.0011278371
5	0xbcfccfc6	-0.030860793
6	0xbd330e83	-0.04371501
7	0xbd05ca8e	-0.032663874
8	0xbd197eb8	-0.037474364
9	0xbc01f6eb	-0.007932405
10	0xbcf7b3e1	-0.03023714
11	0x3cc37e8d	0.023864055
12	0xbd02aa61	-0.031900767
13	0x3c7c8404	0.015412334
14	0x3d259764	0.04042758
15	0xbc4ba657	-0.012429795
16	0x3ac83718	0.0015275208
17	0x3d238b5e	0.039927833
18	0x3b80283a	0.0039110454
19	0x3d218d7e	0.039441578
20	0xbd2260a3	-0.03964294
21	0xbca3f5a6	-0.020014595
22	0xbd39661c	-0.045263395
23	0x3d2530b6	0.040329657
24	0x3d1dbce9	0.038510237
25	0xbc0f16b3	-0.008733439
26	0xbd09d505	-0.033650417
27	0x3c7fad41	0.015605272
28	0x3b711209	0.0036784431
29	0x3c5a415b	0.013321246
30	0xbad6a976	-0.0016377408
31	0x3cd0aaff	0.025472162
32	0x3c8d2af7	0.017232401
33	0xbd10d477	-0.035358872
34	0xbcc69e11	-0.024245294
35	0x3cbe7e84	0.023253687
36	0xbc7f6cab	-0.015589873
37	0x3cd18aa4	0.025578804
38	0xba0bad9f	-0.0005328301
39	0x3d0bff29	0.034178887
40	0xbc8403a0	-0.01611501
41	0x3b8a304d	0.0042171837
42	0xbcc88a88	-0.02448012
43	0xbc5d807c	-0.013519403
44	0x3befae2d	0.0073144645
45	0x3d276531	0.040867988
46	0xbb539cd8	-0.003228953
47	0xbd014a24	-0.031564847
48	0xbae7b763	-0.0017678555
49	0x3c8a1a75	0.016858319
50	0x3d2a397c	0.041558728
51	0x3d0d471c	0.034491643
52	0x3c4b0b73	0.012392866
53	0x3d38d79d	0.0451275
54	0x3c89fd0d	0.016844297
55	0xbca1717b	-0.019707432
56	0xbcde4415	-0.027132073
57	0xbcf85a1b	-0.030316403
58	0xbcb8e3dd	-0.022569591
59	0xbd168f52	-0.036757775
60	0xbc8186fa	-0.015811432
61	0x3d13fd09	0.036129985
62	0xbd208642	-0.03919054
63	0x3c89d9ca	0.016827483
64	0x3d2c6ae8	0.04209414
65	0x3ba8d133	0.0051518916
66	0xbb21e96a	-0.0024705776
67	0xbd2d07d6	-0.0422438
68	0x3d0b1b28	0.033961445
69	0x3cd76151	0.026291521
70	0xbcbec0a2	-0.023285214
71	0xbc9f7ca6	-0.019468617
72	0x3d27384e	0.04082518
73	0x3cc50f08	0.024055019
74	0x3ce8bff1	0.028411837
75	0x3c0a5199	0.008442306
76	0xbd14849f	-0.03625929
77	0x3d0304f8	0.03198716
78	0x3c957948	0.018246308
79	0xbd2201ea	-0.039552607
80	0xbd06ef05	-0.03294279
81	0x396398cd	0.0002170533
82	0x3c965a16	0.018353503
83	0x3d2894a0	0.041157365
84	0xbd3aebd6	-0.045635067
85	0x3cecbf21	0.028899731
86	0xbb2210f1	-0.0024729336
87	0x3d2f3be9	0.042781744
88	0xbc4a1611	-0.012334363
89	0x3c8ee8e1	0.01744503
90	0xbd1a393c	-0.03765224
91	0xbb9c96e2	-0.004778729
92	0xbcffae2a	-0.031210978
93	0xbc6fcf63	-0.014636847
94	0xbd2198f5	-0.03945251
95	0xbb84c00a	-0.004051213
96	0xbd13a2e2	-0.03604401
97	0xbcfb4a1a	-0.030674983
98	0xbc852397	-0.016252322
99	0x3c173849	0.009229728
100	0xbc53f060	-0.012935728
101	0x3cbd70f1	0.023125144
102	0xbc4c07da	-0.012453044
103	0x3c5283a8	0.012848772
104	0x3b657dd6	0.003501763
105	0x3c944ae4	0.018102117
106	0x3c882aba	0.016621936
107	0xbd2d0de6	-0.042249583
108	0x3d157659	0.03648982
109	0xbcef396b	-0.029202184
110	0x3cc857b2	0.024455879
111	0x3c9371e6	0.017998647
112	0xbd19ca59	-0.03754649
113	0x3d0c1753	0.03420193
114	0x3cf80375	0.030275086
115	0x3d15b6a3	0.03655113
116	0x3c1d9a4b	0.009619306
117	0x3b532f74	0.003222433
118	0xbc634982	-0.013872506
119	0xbd27fabf	-0.041010614
120	0x3c6b9de8	0.0143809095
121	0x3d0a2ce4	0.033734217
122	0xbd0a6e59	-0.033796642
123	0x3c962a63	0.018330758
124	0xbcc7d764	-0.024394698
125	0xbcc7bde5	-0.024382541
126	0x3bb16cb4	0.0054145698
127	0xbd0ca293	-0.03433473
128	0xbbf5ab55	-0.007497231
129	0x3c8cb0ef	0.017174212
130	0x3c1d2409	0.009591111
131	0x3d088b99	0.033336256
132	0xbd2efa53	-0.042719197
133	0x3b1fc073	0.0024376183
134	0x3bb3c01b	0.0054855472
135	0xbcaae9b7	-0.020863397
136	0x3d09080e	0.033454947
137	0x39141a9f	0.00014124297
138	0xbbdaeec7	-0.0066812965
139	0xbca8bcfb	-0.020597925
140	0x3bfedd87	0.007777873
141	0x3d0b71da	0.034044124
142	0xbbf789c1	-0.0075542633
143	0xbd3dbb4f	-0.04632121
144	0xbc836890	-0.01604107
145	0xbc850165	-0.016236017
146	0xbcfbc63e	-0.030734178
147	0x3d111e3b	0.03542922
148	0xbc2a47b3	-0.010393071
149	0xbc92177b	-0.017833462
150	0xbb093fec	-0.0020942641
151	0x3d2198c1	0.039452318
152	0x3d358658	0.044317573
153	0x3c14ab59	0.009074056
154	0xbc4ca9d8	-0.012491666
155	0x3d28ca29	0.04120842
156	0xbd14477e	-0.036200993
157	0xbc49c12a	-0.01231412
158	0x3c91ff1a	0.017821837
159	0xbc999e30	-0.018752187
160	0xbcc12c5e	-0.023580726
161	0x3c9b35be	0.018946525
162	0x3d080819	0.033210848
163	0xbc8ab334	-0.016931154
164	0x3d0219ea	0.031762995
165	0xbce4ebad	-0.02794441
166	0x3d0ed03a	0.03486655
167	0x3c4fe66c	0.012689214
168	0x3cc03e2a	0.023467142
169	0x3d3dbaaf	0.046320613
170	0xbc817b15	-0.01580576
171	0x3cf281a9	0.029602842
172	0xbc8d3f9c	-0.017242245
173	0x3c6de511	0.014519946
174	0xbcbd9dce	-0.023146536
175	0xbbf55ba7	-0.0074877325
176	0xbcd1a8ac	-0.025593124
177	0xbc9e6bf2	-0.019338582
178	0x3cfed4a2	0.03110725
179	0x3c8015cc	0.015635394
180	0x3d108e64	0.035292044
181	0xbbdbd03f	-0.0067081745
182	0x3cac01ae	0.020996895
183	0xbd213003	-0.03935243
184	0x3c29a349	0.010353872
185	0xbbef60b3	-0.0073052286
186	0x3c370b4a	0.011172125
187	0xbd0cd127	-0.03437915
188	0xbd108352	-0.035281487
189	0xbbd06816	-0.0063600643
190	0x3b8b47e3	0.004250513
191	0xbd22202e	-0.03958147
192	0x3c211764	0.009832237
193	0x3cbe1ca9	0.023207026
194	0x3b84f8b0	0.004057966
195	0x3c4336e6	0.011914944
196	0xbb69b3bf	-0.0035660116
197	0x3c474be0	0.012164086
198	0x3bfbe547	0.007687244
199	0x3c2fd149	0.01073105
200	0x3c07edf3	0.008296478
201	0x3d0c5413	0.034259867
202	0xbc466471	-0.012108908
203	0x3d03f594	0.032216623
204	0xbced4279	-0.02896236
205	0x3d297074	0.04136701
206	0x3cda84b4	0.026674606
207	0xbd0dc5e5	-0.034612555
208	0x3ceac368	0.02865763
209	0x3cd6474f	0.02615705
210	0x3bd869cc	0.006604409
211	0xbcfc46f1	-0.030795546
212	0xbc51ac4a	-0.012797425
213	0x3c9ba836	0.019001108
214	0x3d306310	0.043063223
215	0x3cc06fdc	0.023490839
216	0xbcc479e2	-0.0239839
217	0x3ccb0c9e	0.02478629
218	0x3c1f2d05	0.009715323
219	0xbce573f6	-0.028009396
220	0xbd391990	-0.045190394
221	0xbce758bd	-0.028240556
222	0xbcc8adfc	-0.024497025
223	0x3cc6c7f4	0.024265267
224	0xbd4328ea	-0.04764644
225	0xbcce7328	-0.025201395
226	0xbcb8063e	-0.022463914
227	0xbc152b3a	-0.009104544
228	0xbd2848d2	-0.04108507
229	0x3d24f906	0.04027655
230	0x3d30fd88	0.043210536
231	0x3ce49c6e	0.027906623
232	0x3c25240c	0.010079395
233	0x3d0c63f0	0.034274995
234	0xbc4dec05	-0.0125684785
235	0xbd069e1f	-0.03286564
236	0xbc252637	-0.010079912
237	0xbd1741a4	-0.036927834
238	0xbce97b67	-0.028501226
239	0x3b8d36f5	0.00430953
240	0x3cc8fbbc	0.024534099
241	0x3d17d282	0.03706599
242	0x3c87b7ae	0.016567077
243	0x3c81a878	0.015827402
244	0x3b96d382	0.0046028504
245	0xbccfecd1	-0.025381478
246	0x3d2b8ccb	0.041882318
247	0xbd31914d	-0.04335146
248	0xbcc8be1e	-0.024504717
249	0x3cdd886a	0.027042586
250	0xbd018d88	-0.031629115
251	0x3cf8464d	0.03030696
252	0x3d090bda	0.03345857
253	0xbd144e37	-0.036207404
254	0xbbba3e43	-0.0056836917
255	0xbca516cf	-0.020152478
