models/three_layers/threeLayerModel_mumu_corrCut_0.9_weights_true_drop_0.5.pt (torch, 705855 bytes, 14 tensors)

model.0.weight f4 [512, 77]
000000 2b 08 5f bd 1f c0 ef bc 6d 38 2c bb 0d cf 67 bb
       -0.05445115 -0.029266415 -0.002627875 -0.0035371215
000010 0a a6 43 bc 6a 21 4a bd 20 15 c5 3d b5 b7 08 3c
       -0.011941442 -0.049348272 0.0962317 0.00834458
000020 19 12 31 3d 4d 1a 8b bd 85 ad a6 bc 84 9f b4 3d
       0.04323015 -0.06792126 -0.020346412 0.08819488
000030 a5 09 99 3c 63 58 d3 3d 21 55 56 3d 7c 67 91 3c
       0.018681357 0.10319593 0.05232728 0.01774954
000040 0a 9a 11 3c 5f 10 a3 3c a8 fc 54 3d ee b2 a3 bd
       0.008886823 0.019905267 0.051998764 -0.079931125
000050 b6 0b 96 3d 8b 47 ea bc b9 f5 d1 bd 2a f6 ad bd
       0.073264524 -0.028598567 -0.10251946 -0.08494218
000060 8a 99 3d bd e7 61 6e 3b 35 f4 19 3d df 36 df 3c
       -0.046289004 0.0036374272 0.03758641 0.027247844
000070 94 52 0a 3d 4f a9 7f 3d f3 bf 78 bd 43 ab 39 3d
       0.03377016 0.062417325 -0.060729932 0.045329344
000080 75 38 14 bd 35 c3 84 bd a2 eb b8 bd f6 18 ae bd
       -0.036186654 -0.06482545 -0.090293184 -0.08500855
000090 fe 87 d0 bc 1b 9b d0 3d c0 0e 7d 3d be f8 fd bd
       -0.025455471 0.10185834 0.061781645 -0.124009594
0000a0 cf 26 5f 3c ce 1f 53 bd 1f 69 b7 3d 56 08 5d 3d
       0.0136200925 -0.051544003 0.08955597 0.053963028
0000b0 a6 05 9b 3d 5c be b1 bd e8 e2 54 bd 8e 31 a9 3c
       0.07569437 -0.08678886 -0.051974207 0.020653512
0000c0 63 cf 49 3d 22 b3 1a 3d a8 c7 0b 3c 70 42 33 3d
       0.049270045 0.03776849 0.0085314885 0.04376453
0000d0 7a b2 ad bd c3 ff b0 bd 0d ba e6 bd 88 69 ef 3c
       -0.08481307 -0.08642533 -0.11265955 0.029225126
0000e0 69 95 12 bd a2 54 84 bc e0 d0 75 3d 44 19 e5 bd
       -0.03578702 -0.016153637 0.06001365 -0.1118646
0000f0 61 ff 44 bc 3a 52 62 3d d7 44 19 bd 69 ab 15 bd
       -0.012023778 0.0552542 -0.037419166 -0.036540423
000100 cd 13 ca bd 24 0a 7a bc ae b4 05 3b 22 85 df bc
       -0.09867058 -0.015261207 0.0020401883 -0.027285162
000110 83 c7 a1 3d 55 db df 3d ce 04 68 3d 00 9d 0e bd
       0.07899382 0.10930506 0.056645207 -0.034817696
000120 42 24 82 be ac 67 cf bd 98 8d ce bd 5e de 03 be
       -0.25418288 -0.10127196 -0.100856006 -0.12877795
000130 24 3a 0e 3d 71 de 68 3d 03 85 a1 3d 92 35 03 bd
       0.034723416 0.05685276 0.07886698 -0.03203351
000140 ab dc 52 3d ef bf dc 3d cd 14 41 bd 6a a1 a2 bd
       0.051479977 0.10778796 -0.047138978 -0.079409435
000150 be f0 7c bc d1 d9 c5 bd 4d 3f a3 3d 7a 2f eb bd
       -0.015438257 -0.09660686 0.07971058 -0.11483665
000160 b6 72 f4 bb 2d d1 56 3d 07 c5 bf bd c2 4a d7 bd
       -0.0074599637 0.05244558 -0.09363752 -0.10512306
000170 9a be 69 3c 6a d3 07 bc 40 3d 6e 3d 2d 72 36 bc
       0.014266634 -0.008290151 0.05816388 -0.01113562
000180 ef 82 f7 bc a6 71 a2 3a 0c 0d 1b bd fd 71 cf bd
       -0.030213801 0.0012393489 -0.03785424 -0.101291634
000190 60 3e 49 bd 0f dc 04 3e a9 53 37 bc c1 9b 52 bb
       -0.04913175 0.1297457 -0.01118938 -0.0032136294
0001a0 26 f6 38 bd e7 bf af bd 93 71 3a bd fe 40 6c bd
       -0.04515662 -0.08581524 -0.04551847 -0.05767917
0001b0 5d e9 ba 3d 6a c3 db bd 84 b7 cc 3d 84 fd ad bd
       0.09126542 -0.10730632 0.0999594 -0.0849562
0001c0 2c 92 f8 bd b9 e2 66 bd a4 31 67 3c 2c f2 82 3b
       -0.12137255 -0.056368563 0.014110956 0.0039961543
0001d0 98 07 f6 bd ea 0e 47 3d 1f ac d8 bd 0d 63 72 3d
       -0.12013167 0.048598208 -0.105797045 0.059176493
0001e0 64 d9 3f 3d ff db d0 3d 93 cd 75 3d 8c 12 37 3d
       0.04683818 0.10198211 0.060010504 0.044695422
0001f0 9c e6 b0 bd 67 6f b8 3d 01 25 b0 3c 76 cb a9 bd
       -0.08637735 0.09005623 0.02150202 -0.0829076
000200 d7 0f e7 bc fe 97 5c 3c ff 6c 8f 3d 40 1f 21 bd
       -0.028205795 0.013463972 0.07003211 -0.039336443
000210 43 df b4 3d fc d6 09 3d a3 30 dc 3d c9 d6 ca 3d
       0.08831646 0.03365229 0.10751464 0.09904248
000220 6e 38 88 3d 90 cd aa bd f3 10 37 3c 8f a5 2e 3c
       0.06651388 -0.08339989 0.011173475 0.010659589
000230 59 be 0f 3c 85 bc d3 bc a7 80 bf 3d 42 39 83 3d
       0.00877341 -0.025846729 0.0935071 0.064074054
000240 05 34 83 3c 02 e6 3d 3d 68 43 0e 3d 02 75 18 bd
       0.016016016 0.04636193 0.034732252 -0.037220962
000250 42 d5 dc bc 2f 9e b3 bd 1d 2f c3 3d 0b 32 aa 3d
       -0.026957158 -0.087704055 0.095304705 0.08310326
000260 51 a5 e9 bd e1 ef 00 3d ab 4e a5 bd d1 d4 2b 3d
       -0.11408485 0.031478766 -0.08071645 0.041951004
000270 ad 19 e3 bd 82 7f cd bc de 50 7d bd 24 fe a9 3c
       -0.11088882 -0.025085215 -0.0618447 0.020751067
000280 a1 56 9b bd b3 a3 d4 3d 0e 91 ce bd b5 20 b5 bc
       -0.075848825 0.10382786 -0.10086261 -0.022110322
000290 2a d9 cf 3d c7 aa 7e bd 5c 1b c0 bd d7 e8 04 bd
       0.10148843 -0.062174585 -0.093802184 -0.032448616
0002a0 3f 21 ed 3c 09 09 15 bd c8 8f b3 bd 26 5b 22 bd
       0.028946517 -0.03638557 -0.087676585 -0.039637707
0002b0 5c 6d ce bd 65 1c 95 bd 5e a1 93 3d b2 f8 e9 3c
       -0.100794524 -0.072808065 0.07208513 0.02856097
0002c0 c8 b6 24 bd 7d 37 d0 bb 29 f1 df bc 24 a1 ef bc
       -0.040213376 -0.006354271 -0.027336674 -0.029251643
0002d0 a7 08 d5 bd 22 29 fa bc b4 e7 69 bd 64 c0 31 3d
       -0.10402041 -0.030537192 -0.057105735 0.04339637
0002e0 45 12 f4 bc 5f 10 db bd 2a 8b 75 bd b3 08 a8 bd
       -0.029793868 -0.10696482 -0.05994717 -0.08204784
0002f0 ed a4 2b 3d e5 d5 ab 3d e4 28 a6 bc 5a f4 18 3d
       0.041905332 0.083904065 -0.02028317 0.037342407
000300 65 55 db 3c b9 d8 ee 3d a9 a4 82 bc 50 85 ca 3d
       0.026774118 0.1166243 -0.015947657 0.098887086
000310 ca b8 5a 3d 30 c5 a7 bd fd 5a 4c 39 0f b7 1d 3d
       0.053398885 -0.081919074 0.00019488852 0.038504656
000320 d2 3e c2 bd ce 97 ae bd 72 ab 82 3d f5 5f b2 bd
       -0.09484638 -0.08525048 0.06380357 -0.087097086
000330 b5 5a ce 3d bb 3d e7 bb 63 ca ae 3d 38 79 28 bd
       0.10075895 -0.0070569194 0.08534696 -0.04113123
000340 cf 40 ea bc 29 bc f7 bc c8 f8 79 bc 51 8e aa bc
       -0.028595356 -0.030241089 -0.015257068 -0.020819815
000350 97 ba 47 3c 7a d0 31 bc c5 1e 9b bd ad f3 04 3d
       0.012190483 -0.010852927 -0.07574228 0.03245895
000360 65 fd 88 3d 76 7f af bd 8d 0c 6c 3d 50 ba d2 3d
       0.06688956 -0.08569233 0.057629157 0.102894425
000370 91 4b 23 3d a9 d6 c2 bd df d7 95 bd 16 a3 c9 bd
       0.039866988 -0.095135994 -0.07316565 -0.09845559
000380 f8 9a bc bd 70 03 16 3d 65 8e 9d 3d 36 1f b2 3d
       -0.092092454 0.036624372 0.07693175 0.08697359
000390 ba 41 67 bd 8d 23 b9 bd 0e 51 ed 3c 5a 58 ce bd
       -0.056459166 -0.09039984 0.028969314 -0.100754455
0003a0 2b a8 17 bc 35 fb 7b 3c e2 6a 9b 3d 63 b6 c3 bd
       -0.009256403 0.015379717 0.07588746 -0.09556272
0003b0 48 d8 e9 bd 3a ec f1 3d 23 03 f5 bc 9d d7 b7 3d
       -0.114182055 0.11812635 -0.029908722 0.08976672
0003c0 e1 23 1e bd 5f a5 ce 3b ca 50 4b bc 56 0b 29 3d
       -0.038608436 0.006306335 -0.012409398 0.041270576
0003d0 13 fc d3 bd 4d 41 9a bc dc 33 1e 3d 46 6f 77 bc
       -0.10350814 -0.018829966 0.038623676 -0.015102213
0003e0 02 26 3f bc 15 5c 8a 3d 71 7e 79 bd e3 59 36 bb
       -0.011666777 0.067558445 -0.0609116 -0.0027824573
0003f0 04 0b 54 bd 39 53 83 3d 73 dd c9 3d af 87 5c 3d
       -0.051768318 0.06412358 0.09856691 0.053840335

model.0.bias f4 [512]
000000 1b 9c e0 bd b4 01 de bc a7 ad 82 3d f4 6b 40 bd
       -0.10967275 -0.027100421 0.06380778 -0.046977952
000010 aa 42 8a 3d 18 21 d1 bc d3 d4 dd 3d 02 a5 98 bc
       0.067509964 -0.025528476 0.108316086 -0.01863337
000020 85 f9 36 3d 8f 42 dd 3d 2c a6 28 3d 29 80 b6 3d
       0.044671554 0.10803711 0.0411741 0.08911163
000030 b3 ee 0a 3c 1b 0a 2d bd 1c 0a d6 bb 44 09 d2 bd
       0.008479762 -0.042245965 -0.006531967 -0.102556735
000040 86 b6 a5 3d 74 7b 3c bd 39 87 a5 bd 75 f0 27 bd
       0.08091454 -0.04601617 -0.08082432 -0.041000802
000050 b9 3e 1e bd af 19 47 3d 19 7d 90 3d 3a 48 d2 3d
       -0.038634036 0.04860848 0.070551105 0.102676824
000060 e8 8d 1f 3d fd ec 85 3d 6d ab 2e bc ee 38 4e 3b
       0.03895369 0.065393426 -0.010660988 0.0031467038
000070 39 ba c2 3d 90 a1 db 3d 16 95 a8 3c 2d 99 e6 3d
       0.095081754 0.10724175 0.020578902 0.11259685
000080 d4 23 80 3d c7 e8 78 3d c6 93 cb 3d 9e 34 37 3d
       0.06256834 0.06076887 0.09940295 0.044727914
000090 04 0a c0 3d 0f f5 98 3d 3e 87 da 3d c2 c8 99 bd
       0.0937691 0.07468616 0.10670327 -0.07508995
0000a0 6a 2b b5 bd 35 c8 2a 3d 99 81 83 3d 78 7d 2f 3d
       -0.08846171 0.04169484 0.06421203 0.042844266
0000b0 8b fb d4 bd 9e f2 1c bd 56 3f 1f 3d 24 ca c8 3d
       -0.103995405 -0.038317315 0.03887876 0.0980418
0000c0 c5 a2 2f bb 1f 12 8a 3d 73 53 a2 3d 6f cf 72 bd
       -0.00267999 0.067417376 0.07926073 -0.059279855
0000d0 b7 a0 04 3d b0 8a 81 3b c7 78 8a bc c0 12 3e 3c
       0.032379832 0.0039533004 -0.016903294 0.01160115
0000e0 e2 27 fd 3c 5e 99 dc 3d 2a 73 5d bd 21 79 e1 bd
       0.030902807 0.1077144 -0.054064907 -0.11009432
0000f0 6e 35 d5 3d 67 98 86 3d 74 fd 8a bd 38 95 cf 3d
       0.104105815 0.06572037 -0.067866236 0.10135883
000100 95 38 e5 3d 25 a6 af bd 4e 5b 19 3d 0e f5 cf bd
       0.11192433 -0.085766114 0.03744059 -0.10154162
000110 dd 37 24 3d 9b 62 83 3d e1 1b 92 bb 78 ee a8 3d
       0.040092338 0.06415292 -0.00445889 0.08248609
000120 f6 71 c7 bd e0 b6 4b 3d bd 16 01 bd 8c ea c8 bd
       -0.09738533 0.04973495 -0.031515826 -0.09810361
000130 6a 59 dd bd 0d a9 96 3d a0 c0 47 3d 4c 2e a1 3d
       -0.1080807 0.07356463 0.048767686 0.078701586
000140 94 76 7c 3d a8 b3 e6 bd aa ac 76 bd eb fd b5 bd
       0.061636522 -0.112647355 -0.06022326 -0.08886322
000150 2f a9 1f 3d 66 0f 70 bd 00 35 a1 bd d5 d8 92 3d
       0.038979705 -0.058608435 -0.07871437 0.07170264
000160 2b 03 ec bc 75 cf 9d 3d 3d b3 c7 bb 64 9c d3 bd
       -0.028810104 0.07705585 -0.006094365 -0.103325635
000170 5e 0a 8a bc 9c 46 d2 3d a1 0c 9a bd 61 49 49 ba
       -0.016850647 0.10267374 -0.0752194 -0.0007678476
000180 af dd 0c 3d 21 3e d1 bd c4 70 b2 3d a5 19 b1 3d
       0.0343911 -0.10216928 0.087129146 0.086474694
000190 dc bf 23 bd a4 68 83 3d da cd aa bd 34 ac 00 3d
       -0.039977893 0.06416443 -0.08340044 0.031414226
0001a0 3e 76 ca 3d 51 c3 ac 3d ca d5 e6 bd e2 c9 80 bd
       0.09885834 0.08435691 -0.11271246 -0.06288506
0001b0 68 d7 a1 bd 54 3e da 3c eb f5 a0 3d d2 08 13 bd
       -0.079024136 0.026641048 0.07859405 -0.035897084
0001c0 9a 75 a4 bd 2a 9b 5f 3d 0f 9c d8 bd 77 5b 7d 3d
       -0.08030243 0.054591335 -0.10576641 0.061854806
0001d0 28 fc f8 3b fd ec 0f 3c c6 48 d8 bd 94 cd 90 bd
       0.0075984187 0.00878453 -0.105607554 -0.07070461
0001e0 a1 e3 f6 3c b6 6c c7 bd 51 b8 4e 3d 15 2f 88 3c
       0.030137839 -0.09737532 0.050468747 0.016624013
0001f0 af c9 85 bd fd 2d 7b bc 96 23 fa 3b e2 a9 f6 bc
       -0.06532609 -0.015330789 0.0076336367 -0.030110303
000200 58 ab e2 3d 24 67 04 bd 13 69 d6 bd d8 0f 92 bb
       0.110678375 -0.032324925 -0.1046926 -0.004457455
000210 fe f0 d4 3d 54 96 f7 ba 77 b3 50 3d 6e 2a 2b bd
       0.10397528 -0.0018889406 0.0509524 -0.04178851
000220 a7 61 b7 3d 2e 2d e0 bd fa 4a 86 3d 59 9e da bd
       0.089541726 -0.10946117 0.065572694 -0.10674734
000230 ab 50 b9 3c d8 91 ab bc 25 29 f1 bc 98 25 be 3d
       0.022621473 -0.020943567 -0.029438565 0.09284514
000240 72 19 d7 3d 50 31 9e bc b3 b9 4e bd 43 e9 fb bc
       0.105029 -0.019310623 -0.050470065 -0.030750876
000250 7a ed b2 bd f8 90 0e bc c8 03 df 3d 46 29 ad bd
       -0.08736701 -0.008701555 0.10889393 -0.08455138
000260 ce 8d 2f 3d b6 d9 06 3d f8 91 a8 bd ca ca b7 bd
       0.042859845 0.03292247 -0.08230966 -0.08974226
000270 15 dc c2 3d 71 8f 55 bd e5 8f 9c 3d eb 5a 60 3c
       0.095146336 -0.05213875 0.07644633 0.0136935515
000280 84 7b c4 bd 72 22 b0 3d 5c 93 cf bc 33 61 6d bd
       -0.09593871 0.0860032 -0.025338821 -0.057954025
000290 59 98 98 bd 8a ea aa bd af 0d cc bd bd 90 d4 3d
       -0.07450933 -0.08345516 -0.099635474 0.10379169
0002a0 d4 ba d8 3d d8 32 ce bd 94 f9 c2 3c a5 cf c5 3d
       0.1058251 -0.100682914 0.023800649 0.09658746
0002b0 b8 42 13 3d 50 84 8f bd fa a3 5d 3c 9f 00 b2 3d
       0.0359523 -0.070076585 0.013527865 0.08691525
0002c0 cd 7c 56 3b fc f2 51 3d 7e 26 6f bd e6 93 14 3d
       0.0032728196 0.05125712 -0.05838632 0.03627386
0002d0 70 c0 04 3d 3d 2c 3d 3d 04 83 9f 3d 10 ac 0d bd
       0.032410085 0.046184767 0.07788661 -0.03458792
0002e0 76 bd f2 bc 47 f1 c7 3d dd 2f d3 3d 2a 30 1d 3d
       -0.029631358 0.09762817 0.103118636 0.03837601
0002f0 d9 40 ac bd b6 4f 95 3d 63 a3 9a bd d7 16 53 bc
       -0.08410806 0.07290594 -0.07550695 -0.012883863
000300 19 93 72 3c 09 77 6a 3c 72 52 77 3b 68 5f 80 bc
       0.014805579 0.014310607 0.003773835 -0.015670493
000310 fb b9 c0 bd a8 1c 44 3d 7b c1 21 bd f3 5d 14 bd
       -0.09410473 0.04787889 -0.039491158 -0.03622241
000320 dd 91 e3 3d 24 fc 05 3b df 27 b4 3d ce 98 c0 bc
       0.111118056 0.0020444477 0.08796667 -0.023510363
000330 5b be bd bd 54 8b 56 3d 11 15 a8 bd 86 78 0a bd
       -0.09264823 0.052378967 -0.08207143 -0.033806346
000340 e7 42 bf 3d 55 b7 0f 3d bb 70 3e 3c 5f 62 41 bc
       0.093389325 0.03508695 0.011623557 -0.011803239
000350 ee d0 51 bc 53 1a 8e bd b7 8c a0 3d fd 8d b5 3d
       -0.01280616 -0.06938615 0.07839339 0.08864973
000360 3c fc e4 bd 32 43 dd 3c b4 96 49 bd 9b 46 a9 3c
       -0.111809224 0.02700958 -0.049215987 0.02066355
000370 e8 17 65 3c 2e c1 d7 3a 60 17 8c bc a1 48 10 bd
       0.0139827505 0.001646077 -0.01710099 -0.035225514
000380 f3 0a aa bd 5b 44 cf 3d b8 91 18 bd a8 68 91 3d
       -0.0830287 0.1012046 -0.037248343 0.0710004
000390 45 f3 64 3d 03 73 1c 3d cc 08 de 3d ce 55 b0 bd
       0.055896062 0.03819562 0.108415216 -0.08610116
0003a0 59 f2 c3 3d 08 df 98 3d a4 2e 50 bd 4b 7a e8 3d
       0.095677085 0.07464415 -0.05082573 0.113514505
0003b0 80 02 3b bb 0b 01 d6 3d 7d d1 a1 bd 5c 36 9e bd
       -0.0028535426 0.10449418 -0.07901285 -0.07725212
0003c0 32 ce 19 3d 3b b9 90 bc e2 b2 a5 bc 56 50 93 3c
       0.03755016 -0.01766645 -0.0202269 0.017982643
0003d0 78 2a 14 3d ba 52 c8 3a e3 0d 5f 3d 88 89 33 bd
       0.036173314 0.0015283443 0.054456603 -0.043832332
0003e0 29 dd c3 bc 85 b1 b4 bd a0 28 5c bd 39 20 d0 3d
       -0.023909168 -0.08822922 -0.05374968 0.10162396
0003f0 22 3b ab 3d 6d ea a5 bd 9e ef 5c bd 81 2d 01 bd
       0.08360888 -0.08101354 -0.053939454 -0.031537537

model.1.weight f4 [512]
000000 60 2f 82 3f e6 52 7e 3f 6f 8f 7d 3f a7 35 81 3f
       1.0170708 0.9934524 0.9904699 1.0094498
000010 f7 14 81 3f e7 8f 7e 3f 58 14 7f 3f 53 e1 7e 3f
       1.0084523 0.9943833 0.9964042 0.9956257
000020 3e 09 7f 3f 7f 13 7d 3f 34 f5 7f 3f 4f 50 80 3f
       0.9962348 0.98857874 0.99983525 1.0024508
000030 51 4d 80 3f d4 8a 82 3f e1 7c 80 3f 7e 91 7f 3f
       1.0023595 1.0198617 1.003811 0.9983138
000040 b7 28 7f 3f 3d 82 80 3f 55 e2 7c 3f 3d c0 82 3f
       0.996715 1.0039746 0.98782855 1.0214916
000050 7b 17 82 3f 79 46 81 3f 26 1a 7e 3f f1 67 7d 3f
       1.0163416 1.0099632 0.9925865 0.98986727
000060 4f d0 7f 3f 91 37 7d 3f 1f 1b 80 3f 00 76 7d 3f
       0.9992723 0.9891291 1.0008277 0.9900818
000070 ef 6a 81 3f b1 07 7e 3f 5d 7a 82 3f 25 6f 7f 3f
       1.0110759 0.99230486 1.0193592 0.9977897
000080 1f 89 80 3f ca 48 80 3f d1 f0 7c 3f d9 40 80 3f
       1.0041846 1.0022213 0.98804957 1.001979
000090 e0 d8 80 3f ec 2f 80 3f e2 e6 7e 3f 3f 1d 80 3f
       1.0066185 1.0014625 0.9957105 1.0008925
0000a0 a1 90 81 3f 4b e9 7e 3f 0c 4b 81 3f 3e c4 7e 3f
       1.0122262 0.99574727 1.0101027 0.9951819
0000b0 f5 de 80 3f df b0 7d 3f 26 7c 7f 3f 63 53 82 3f
       1.0068041 0.9909801 0.9979881 1.0181698
0000c0 20 d7 80 3f 8c 67 7f 3f 12 46 80 3f bd 9b 80 3f
       1.0065651 0.99767375 1.0021384 1.0047528
0000d0 e5 e5 81 3f b0 88 7e 3f b5 9e 7f 3f 15 5e 81 3f
       1.0148283 0.9942732 0.9985154 1.0106837
0000e0 8b cb 80 3f ff 6c 80 3f 6d 62 83 3f 87 65 80 3f
       1.0062116 1.0033263 1.0264412 1.0030984
0000f0 78 e2 7e 3f d4 cc 7e 3f 7d 7e 7f 3f b6 13 80 3f
       0.99564314 0.9953129 0.9980238 1.0006015
000100 c7 e9 7d 3f 24 95 80 3f 78 2f 82 3f 97 c7 7e 3f
       0.9918484 1.0045514 1.0170736 0.995233
000110 c8 f5 7f 3f 79 6d 7a 3f 1e 6f 80 3f c1 92 7f 3f
       0.9998441 0.9782329 1.003391 0.99833304
000120 e5 f1 7f 3f ed 67 7e 3f 6f 84 7f 3f 28 c0 7d 3f
       0.99978477 0.9937733 0.9981145 0.9912133
000130 22 11 7f 3f b6 67 81 3f 6e 81 7d 3f 27 1d 80 3f
       0.9963552 1.0109775 0.9902562 1.0008897
000140 1a 92 80 3f 50 e0 80 3f 56 33 80 3f 36 b3 80 3f
       1.0044587 1.0068455 1.0015666 1.0054691
000150 3d 10 81 3f b6 94 7e 3f 87 4b 81 3f 51 85 82 3f
       1.008308 0.99445665 1.0101174 1.0196935
000160 92 aa 7e 3f a1 97 7e 3f 45 b2 81 3f a1 45 80 3f
       0.9947902 0.9945012 1.0132529 1.0021249
000170 bf 98 7f 3f 6e 9c 7f 3f f2 2e 82 3f 6c f9 7d 3f
       0.9984245 0.9984807 1.0170577 0.9920871
000180 84 40 80 3f b4 98 80 3f a5 e3 7b 3f 7c 64 81 3f
       1.0019689 1.0046601 0.98394233 1.010879
000190 da 34 7c 3f 00 a2 7d 3f 86 40 7f 3f 3e 14 80 3f
       0.98518145 0.9907532 0.9970783 1.0006177
0001a0 63 62 7c 3f 46 7f 7f 3f 9e b6 7c 3f 8c 13 80 3f
       0.98587626 0.9980358 0.9871615 1.0005965
0001b0 d7 e7 80 3f c8 aa 7e 3f 06 7b 80 3f 12 2e 80 3f
       1.0070752 0.9947934 1.0037544 1.001406
0001c0 f6 1c 7d 3f fd 72 7f 3f 0b 1d 80 3f 50 3d 80 3f
       0.98872316 0.99784833 1.0008863 1.0018711
0001d0 05 1b 7f 3f 95 bd 80 3f 4b de 7f 3f 64 bb 81 3f
       0.99650604 1.0057856 0.9994857 1.0135312
0001e0 83 63 81 3f 44 5c 83 3f 3f 22 82 3f 14 d9 7f 3f
       1.0108494 1.0262532 1.0166701 0.9994061
0001f0 94 cc 7f 3f 2c e1 7b 3f 02 3f 80 3f 51 b4 7f 3f
       0.99921536 0.9839046 1.0019228 0.99884516
000200 f5 ad 7f 3f c0 fd 7e 3f 50 12 80 3f 2d 6b 7b 3f
       0.9987481 0.9960594 1.0005589 0.9821041
000210 c9 0f 7d 3f 6b a6 81 3f 8d c5 7d 3f c1 bb 7d 3f
       0.9885221 1.0128912 0.99129564 0.99114615
000220 89 6a 80 3f 4a e4 80 3f 45 ab 7e 3f f8 65 7d 3f
       1.0032512 1.0069668 0.99480087 0.98983717
000230 e3 57 7e 3f 33 ea 7b 3f ea 75 7d 3f 67 e3 7c 3f
       0.99352854 0.98404235 0.9900805 0.9878449
000240 02 3a 7f 3f 28 07 80 3f 86 e3 7f 3f 20 4b 80 3f
       0.9969789 1.0002184 0.9995655 1.0022926
000250 00 e0 7f 3f 2b 7e 7b 3f 98 3f 81 3f 44 9b 7f 3f
       0.9995117 0.9823939 1.0097532 0.9984629
000260 e3 40 80 3f 36 3a 81 3f bf 09 7d 3f 66 e6 7e 3f
       1.0019802 1.009589 0.98842996 0.9957031
000270 5d 88 7e 3f 23 c3 7d 3f 2d 47 7d 3f e8 4d 7c 3f
       0.99426824 0.9912588 0.9893673 0.98556376
000280 af 48 80 3f 1f a3 7c 3f 26 af 80 3f 42 80 82 3f
       1.0022181 0.98686403 1.0053451 1.0195391
000290 3b 75 7d 3f 38 99 81 3f 4f e0 7d 3f 13 40 7d 3f
       0.99007004 1.0124884 0.9917039 0.98925894
0002a0 f3 f3 7a 3f b9 22 7d 3f c8 24 81 3f db 96 81 3f
       0.98028487 0.9888111 1.008935 1.0124162
0002b0 fa 77 7d 3f d4 32 80 3f 55 7a 7f 3f e5 31 7d 3f
       0.99011195 1.0015512 0.9979604 0.9890426
0002c0 b8 44 80 3f 30 84 7b 3f 87 e4 7f 3f 08 4e 80 3f
       1.0020971 0.9824858 0.9995808 1.0023813
0002d0 27 da 82 3f 3d bb 7e 3f 47 0a 80 3f db 06 7f 3f
       1.0222825 0.9950445 1.0003136 0.99619836
0002e0 46 e0 7f 3f ee 2e 7e 3f ff 33 80 3f 92 d8 7d 3f
       0.9995159 0.9929036 1.0015868 0.99158585
0002f0 e9 91 80 3f 95 d5 7f 3f 8e c3 7d 3f 93 51 80 3f
       1.0044528 0.99935275 0.9912652 1.0024894
000300 00 f0 80 3f a3 97 7f 3f ee 7a 81 3f 12 0a 7c 3f
       1.0073242 0.99840754 1.011564 0.98452866
000310 5e f2 80 3f 74 05 80 3f 85 9d 80 3f f2 50 7b 3f
       1.0073965 1.0001664 1.0048071 0.9817039
000320 6d 27 81 3f 10 ee 80 3f a2 3d 80 3f 36 da 81 3f
       1.0090157 1.0072651 1.0018809 1.0144718
000330 d8 7d 81 3f 45 78 7f 3f 6e 63 80 3f 78 5e 80 3f
       1.011653 0.9979289 1.0030344 1.002883
000340 cf 19 7d 3f c1 f4 7c 3f 95 ec 7d 3f a7 ed 7b 3f
       0.98867506 0.98810965 0.9918912 0.98409504
000350 7b fd 7f 3f b3 59 7f 3f b4 ed 7f 3f b1 9e 7c 3f
       0.99996156 0.99746245 0.9997208 0.98679644
000360 f1 b3 7e 3f 57 65 7f 3f 3a 88 80 3f 04 b4 7e 3f
       0.9949332 0.9976401 1.0041573 0.9949343
000370 c0 a1 7e 3f 14 de 7e 3f 64 81 81 3f 77 5a 80 3f
       0.9946556 0.99557614 1.0117612 1.0027608
000380 64 87 80 3f 5f d5 7d 3f 31 0c 7c 3f d6 91 7e 3f
       1.0041318 0.99153703 0.984561 0.9944128
000390 a8 5f 7d 3f 9a bd 7f 3f f8 9c 7f 3f ad 04 80 3f
       0.98974085 0.99898684 0.9984889 1.0001427
0003a0 0d 27 80 3f 94 32 7e 3f 5d fb 80 3f e5 99 7f 3f
       1.0011917 0.99295926 1.007671 0.998442
0003b0 c7 d9 82 3f 14 d7 7e 3f 4f b1 7e 3f c2 48 81 3f
       1.022271 0.99546933 0.994893 1.0100329
0003c0 68 62 80 3f 31 a9 7b 3f 48 55 80 3f d4 1a 7e 3f
       1.0030031 0.9830504 1.0026026 0.99259686
0003d0 f9 45 82 3f ad 53 7c 3f b3 83 7c 3f 29 cc 7e 3f
       1.0177604 0.9856518 0.9863846 0.99530274
0003e0 12 62 81 3f e3 47 80 3f 08 56 7e 3f 63 d3 7c 3f
       1.0108054 1.0021938 0.99350023 0.9876005
0003f0 0c a0 7f 3f b3 b4 80 3f ef 3d 80 3f 0b 85 7e 3f
       0.9985359 1.0055145 1.0018901 0.9942176

model.1.bias f4 [512]
000000 eb ce 35 3a 4f 91 72 bc e7 cd 84 bc 97 0c 8d bc
       0.0006935435 -0.014805152 -0.016211463 -0.017217917
000010 da 1d e5 ba 77 3a a7 bc 59 75 80 bc 83 dc db bc
       -0.001748021 -0.02041362 -0.015680956 -0.026838547
000020 f0 17 b4 bb b1 ba 79 bc 51 c2 83 bc 59 bb b5 3b
       -0.0054960176 -0.015242265 -0.016083868 0.005546015
000030 77 62 97 bb 13 77 98 bc 62 2d 3e bc ad 7f ce bc
       -0.004619892 -0.018611467 -0.0116075 -0.025207365
000040 f5 49 1c bc a6 11 6f 39 33 c0 e3 bc 8b 1d 45 bb
       -0.009539117 0.0002279939 -0.027801609 -0.0030077423
000050 42 a8 2a bc ea 02 80 bc 82 6c c0 bb f2 2d 37 bc
       -0.010416092 -0.01562639 -0.00587231 -0.011180388
000060 d1 b7 07 bd a3 93 97 bc 27 19 6c bb cc 84 35 bc
       -0.033134285 -0.018503016 -0.0036025734 -0.0110790245
000070 e6 00 bf bc 08 f4 5f bc c7 06 c5 bb d9 7c 03 bc
       -0.023315858 -0.013669021 -0.006012771 -0.0080253715
000080 9d 0f 54 bc b4 1e 77 bc 58 94 9f bc 07 24 ce 39
       -0.012943176 -0.015083004 -0.019479915 0.00039318224
000090 b5 c6 6f bb ee cc 8d 3a 1c 31 93 bc 07 6a a2 bc
       -0.0036586944 0.001081852 -0.017967753 -0.019825948
0000a0 96 c5 34 bd 5b 71 25 bc 2d cf a6 3c 89 06 3d bd
       -0.044133745 -0.010097827 0.020362461 -0.04614881
0000b0 1a 7f 9d bc 16 01 ca bc 40 47 18 bc 43 74 e2 b9
       -0.019225646 -0.024658721 -0.009294331 -0.000431927
0000c0 e8 d3 e3 bc 2d 2c 1f bd f1 19 25 bd fd b0 27 bb
       -0.027811006 -0.03886049 -0.040307943 -0.002558767
0000d0 08 1e db bc 0a 7c 53 bc bb 51 e0 bc df 50 a9 bc
       -0.026747718 -0.012907991 -0.027382722 -0.020668445
0000e0 56 05 af bc 4e 35 84 bc d6 6e b8 3a 4d ff d8 bc
       -0.021364849 -0.016138699 0.0014071118 -0.026488924
0000f0 73 9d 8b bc e6 fc 8b bc 0f 16 47 bc 73 93 53 bd
       -0.017042851 -0.017088365 -0.012151255 -0.05165429
000100 25 11 0a bc a0 f5 90 bc d4 a0 57 bc 34 e8 e3 bc
       -0.008426939 -0.017695248 -0.013160903 -0.027820684
000110 54 c9 56 bd aa 2d b3 bc 19 fc 9f 39 15 02 64 bc
       -0.052438095 -0.02187236 0.0003051467 -0.013916512
000120 5e e4 2a bd d3 06 ef bc 1b 89 f9 bb 00 d4 d7 bc
       -0.041721694 -0.029178059 -0.007615221 -0.026346207
000130 37 21 81 bc a2 a3 8d bc 11 03 2d bd b9 e6 f3 bc
       -0.015762908 -0.01728994 -0.042239252 -0.029773103
000140 4d a3 8c bc 07 af 40 bc 8f 96 f5 bc 30 ea c0 bc
       -0.017167712 -0.01176048 -0.029979018 -0.02354917
000150 09 60 0a bd 71 ae e8 bc df e9 b1 bc 33 ac 85 bc
       -0.033782993 -0.028403493 -0.021717964 -0.016317463
000160 a8 b7 8b bb b1 1a 8b bc 3b af ef bb c7 75 ad bb
       -0.004263837 -0.0169805 -0.0073145903 -0.005293581
000170 d4 e5 d1 bb ea 76 2b 3a e5 ab f9 bc b4 da a3 bb
       -0.0064055715 0.0006540852 -0.030477474 -0.0050004367
000180 e9 ed 3b bc b5 32 f7 bc 47 ad 0e bc 5b 74 11 bd
       -0.011470296 -0.030175546 -0.008708305 -0.035511356
000190 12 01 70 bc 4d 5c e0 bc 85 6b 20 bc be c2 38 38
       -0.014648693 -0.027387762 -0.00979126 4.4050386e-05
0001a0 85 2e 29 bc 35 4a 96 bc cb c1 b8 bc 9d dc 9e 3b
       -0.0103260325 -0.018345932 -0.022553345 0.0048480765
0001b0 71 15 3c bc 4d 8b 10 bc 22 67 0f bd 9d 0f 60 bc
       -0.011479721 -0.008822274 -0.035010464 -0.0136755975
0001c0 60 1b 78 bc 53 4f 0f bd b4 0c b2 bc 75 dd b6 bc
       -0.015143245 -0.03498776 -0.021734573 -0.022322396
0001d0 33 8e da bc 24 10 62 bc cf 97 ac bc a0 0f 8e bc
       -0.026679134 -0.013797794 -0.021068482 -0.017341435
0001e0 e2 56 ab bc cc cb ae bc e2 fc 3a 3a 25 73 5e bc
       -0.020915452 -0.021337412 0.00071330194 -0.013577257
0001f0 18 b1 f2 bc 06 ce 52 bc 8c ad 17 bb 90 ee b4 bc
       -0.02962546 -0.012866503 -0.0023144213 -0.022086412
000200 e6 5f ad ba 5f fa 91 bc e7 11 79 bc 18 69 c1 bc
       -0.0013227433 -0.017819582 -0.015202022 -0.023609683
000210 66 5e 0a bd a7 5f 13 bc ec 2a 15 bc 6f 52 1a 3c
       -0.03378143 -0.008994973 -0.009104472 0.009419068
000220 84 7d b8 bc d1 65 3f bd 34 df ac bb 36 59 a1 b9
       -0.022520788 -0.04672796 -0.0052756313 -0.0003077478
000230 5e 26 10 bc 56 3d 69 bc a0 b9 01 bc 6a 20 cc bc
       -0.00879821 -0.014235815 -0.007917792 -0.0249178
000240 9b eb d3 bb ad 94 12 bc 9c 47 b3 bb 93 c4 1e bd
       -0.0064672953 -0.00894658 -0.005471183 -0.038761687
000250 b0 7b 76 bc 6d 61 40 bc 20 c1 1d bd 87 10 cd bc
       -0.015044138 -0.011741978 -0.038514256 -0.025032295
000260 33 66 89 bc 53 b2 2c bc 97 f3 e9 bc a1 9b 7f bc
       -0.016772365 -0.010540563 -0.028558536 -0.01560107
000270 59 a1 76 bc 5a 30 91 bc ad 65 66 bc 97 e2 98 bc
       -0.015053117 -0.017723251 -0.014062327 -0.018662734
000280 82 99 0b bd b4 c7 b6 bc db ce 7d bc 5e ea b0 bc
       -0.034081943 -0.022312023 -0.015491213 -0.02159613
000290 c2 e7 bb ba 06 1d 8b bc eb 82 cc bc a3 96 2f bd
       -0.0014336037 -0.016981613 -0.02496477 -0.042868268
0002a0 3f 95 96 bc 4a d0 96 bc a0 5b 96 3a fe 1b 0e bd
       -0.018381713 -0.018409867 0.0011471398 -0.034694664
0002b0 b0 b2 1a bc 22 39 95 bc 10 56 16 bd c3 3c a2 bc
       -0.0094420165 -0.01821572 -0.03670317 -0.019804364
0002c0 99 e5 87 bc ff 0a 4f bc c3 09 0a bc 40 86 a7 3c
       -0.016588973 -0.012636899 -0.008425179 0.020449758
0002d0 fb f1 2e bd 4f 9c 92 bc 65 31 18 bd cc 59 72 bc
       -0.04271124 -0.0178968 -0.03715648 -0.014791917
0002e0 51 48 26 bc a2 98 db bc d1 2f 43 bc b0 35 b7 bb
       -0.0101490775 -0.02680618 -0.011913256 -0.005591117
0002f0 bd 3b a0 bc c3 a7 6c bc e5 58 d3 bc f6 fd 09 3c
       -0.019559735 -0.014444294 -0.025799224 0.008422365
000300 46 47 18 bc e5 76 1a bc 93 f3 08 bc 64 23 bf bc
       -0.009294337 -0.009427761 -0.008358854 -0.023332305
000310 3b 3f 9c 3a 40 97 88 bc 8c c2 00 bd ac fe 94 bb
       0.00119207 -0.016673684 -0.031435534 -0.004546961
000320 31 3c 43 bc f7 8a b9 bb 16 98 88 bc ff 52 53 bc
       -0.011916206 -0.005662318 -0.016674083 -0.012898206
000330 4a 19 fb bb aa 83 03 3b 94 0d 43 bc 8b 4b ca bc
       -0.007662927 0.0020067492 -0.011905093 -0.024694225
000340 25 83 9e bc 48 bc e9 bc 56 5c df bc ec 9b 40 bc
       -0.019349644 -0.028532162 -0.027265709 -0.011755925
000350 ab db 32 bb d7 74 d2 bc 99 07 3f bc 9f f5 35 bc
       -0.0027291577 -0.02569048 -0.011659526 -0.011105924
000360 e3 fd 5f bc 13 0d 5d bd 3f 01 ed bc 93 0f de bc
       -0.013671371 -0.053967547 -0.028931258 -0.027107036
000370 d0 e0 92 bc 06 e1 a9 bb 7a 7c 9f 3b 9e 37 f2 ba
       -0.017929465 -0.0051842956 0.0048671337 -0.001847971
000380 18 0c e9 bc f7 02 a5 bc 38 79 1e bc 02 47 13 bc
       -0.02844815 -0.020143015 -0.0096724555 -0.008989098
000390 bb 6a a6 bc 23 d8 f5 bc 05 9b c9 bb 05 40 a0 bc
       -0.020314565 -0.030010289 -0.006152513 -0.019561777
0003a0 98 cf 0e bc d4 f7 8f bc bb 24 06 bd e4 f0 94 bc
       -0.008716486 -0.017574228 -0.032749873 -0.018181272
0003b0 11 ef a8 ba 97 56 e6 bc dd 9c a0 bc 2a e9 8e bc
       -0.001288863 -0.028117461 -0.019606048 -0.017445166
0003c0 0c 47 31 bc 65 de 2a bc 80 f9 ca bc ec ff bd bb
       -0.010820162 -0.010429 -0.024777174 -0.0057983305
0003d0 2f ba ba bc 13 d6 41 bc a9 1f 90 bc 92 22 86 bc
       -0.022793857 -0.011830824 -0.017593222 -0.016373906
0003e0 a1 45 1a 3c e8 8a 60 bb 4d 31 99 bc 92 0a 8c bc
       0.009416015 -0.0034262482 -0.018700266 -0.017094884
0003f0 34 cd 30 3a 7b cf 79 bb 67 37 b2 bc 5d 5e 60 bc
       0.0006744445 -0.0038118053 -0.021754934 -0.013694373

model.1.running_mean f4 [512]
000000 b0 83 99 be ae c6 15 3d b9 e4 9d be 44 bc de be
       -0.29983282 0.03656643 -0.30838564 -0.4350301
000010 88 39 ef bd 01 8e 45 bd d6 43 df 3e 73 2b 23 be
       -0.11680895 -0.04823113 0.43606442 -0.15934543
000020 85 1a f5 3d c2 66 2e 3e 10 ad 27 bd 7e 19 32 3e
       0.11967949 0.17031386 -0.04093653 0.17392537
000030 cc 32 68 be 15 91 75 3d d9 b9 0d 3e cc 2a 90 be
       -0.22675627 0.059952814 0.13840427 -0.2815765
000040 01 af a9 bc 96 16 27 3e 94 8c 39 be d9 df 32 be
       -0.020713331 0.1631721 -0.18120033 -0.17468204
000050 b5 cd c0 3e 10 4b 8b be ed e2 88 be 69 2f e9 3e
       0.37656942 -0.27205706 -0.2673563 0.45543984
000060 f7 86 67 bd be 78 48 3e 17 23 ef bc ea 18 84 3e
       -0.056525197 0.1957731 -0.029191537 0.25800258
000070 69 a2 f9 3d e2 df 04 3e 4e 02 07 3e 47 25 ce 3d
       0.121891804 0.1297603 0.13184473 0.10065704
000080 b5 f0 5a 3e 38 80 b9 be 1e b2 45 bd 4a 15 b0 be
       0.21380885 -0.36230636 -0.04826557 -0.34391242
000090 14 72 a8 be 75 00 8d bd 59 d1 6f 3d 1a f0 04 be
       -0.32899535 -0.06884853 0.05854926 -0.12982216
0000a0 8c c1 40 be a5 94 2b 3d 03 c7 50 be 08 a1 8e be
       -0.18823832 0.041889805 -0.20388417 -0.27857232
0000b0 c4 f3 0c 3d 5a 93 07 3f 8d e3 b1 bb 16 62 fe 3d
       0.03441216 0.52959216 -0.0054287375 0.12421052
0000c0 53 40 bd 3c f0 73 94 bd 9a e3 2b 3d d9 87 98 be
       0.023101961 -0.07248676 0.041965105 -0.29791144
0000d0 bd 9f 61 3d bc e5 82 bd f6 02 a4 3e 36 43 4f 3d
       0.05508398 -0.063914746 0.3203351 0.050601207
0000e0 76 11 38 3d 60 ea 98 bb 03 95 0c be 0b 80 68 3d
       0.044938527 -0.0046666116 -0.13728718 0.056762736
0000f0 6d b3 46 3e c9 37 97 bc 10 61 15 3e e6 b1 e3 3e
       0.19404383 -0.018459218 0.14587808 0.44471663
000100 86 b7 12 3e 02 37 f2 be 7e b4 38 3e f5 47 a8 be
       0.14327821 -0.47307593 0.18037602 -0.328674
000110 17 a8 fa 3d b6 46 1e 3e 07 78 c4 3b 38 f4 20 3e
       0.12239092 0.15456662 0.0059957537 0.15718162
000120 b0 62 20 bd 32 23 37 3d ea 62 0e bf 5e ed a7 be
       -0.039156616 0.0447113 -0.5561968 -0.32798284
000130 52 99 01 bf e3 81 68 bd d8 d7 cd 3e fc ab ca 3e
       -0.50624573 -0.056764495 0.40203738 0.3958434
000140 69 24 b7 3e 6f 11 84 bd fc 34 9f bd 30 bf d1 be
       0.35769966 -0.06448638 -0.07773778 -0.40966177
000150 63 f6 1d 3f 3e 32 f9 bd 42 90 15 3e 43 32 aa 3c
       0.6170408 -0.12167786 0.14605811 0.02077592
000160 15 6f 9a bc a0 db 9c 3a 98 ac ec be b2 32 ca bc
       -0.018851796 0.0011967309 -0.4622543 -0.024682377
000170 06 ae 26 3e af 65 97 3e 22 5d 2c 3c 1e ce a7 bd
       0.16277322 0.29569766 0.0105202515 -0.081936106
000180 cb 55 1c bc e0 f7 c0 3e d4 d2 7c bd ee f2 1e be
       -0.009541939 0.37689114 -0.0617245 -0.15522358
000190 5a 37 ff bd 7d 49 a2 bd 27 ed 27 be b7 20 26 3e
       -0.12461729 -0.07924173 -0.1639906 0.16223417
0001a0 6c a8 48 3e 80 09 60 3e c5 9d 1c bd 2e d2 52 3d
       0.19595498 0.21878624 -0.0382364 0.051469974
0001b0 3e 58 fe bd 8a 13 0b 3d 34 83 c4 bd a4 13 ec 3e
       -0.124191746 0.03395418 -0.095953375 0.46108735
0001c0 b4 a6 7d be 7c 08 27 be 9b 61 67 be 9b ea 59 3e
       -0.24770623 -0.1631183 -0.22595827 0.21280901
0001d0 9b c4 3c 3e b4 61 20 3e 6f 8c 91 3e 5f a5 ba 3d
       0.18434374 0.15662271 0.28427455 0.09113573
0001e0 00 5f e0 3d c5 af 4f be 66 c2 e4 3d 05 3d 85 be
       0.1095562 -0.20281895 0.11169891 -0.26023117
0001f0 00 d5 c3 3e 41 02 da bd 7d be 9e 3e db 59 91 3d
       0.38248444 -0.10644961 0.31004706 0.07097217
000200 7e bc 87 be 92 81 4a be c0 b1 47 be 4d e6 96 be
       -0.26510996 -0.1977599 -0.195014 -0.2947258
000210 6c 4b 03 3f 54 9f 1f 3d 42 9f 3a be e8 9b 2d 3e
       0.5128696 0.038970307 -0.18224815 0.16954005
000220 3f 66 4c 3c c1 ee 91 be e7 75 5d 3e 99 60 4a bd
       0.012475549 -0.28502467 0.21627007 -0.04940853
000230 a6 98 d5 3e 5e 9a f7 be 8c a3 82 3c 99 e0 37 bd
       0.41718024 -0.4835996 0.015947126 -0.044891927
000240 ff 8d 89 bc 99 e4 63 be 76 dc f8 3d 12 14 47 3e
       -0.016791342 -0.22255172 0.121514246 0.1944125
000250 ae 1b 45 bd c2 9f 1f be 5e 7f e8 3e f2 f9 37 be
       -0.0481221 -0.15588287 0.45409673 -0.1796644
000260 e5 50 ed 3d 23 e7 74 3e 8d 2f 08 be 13 42 65 be
       0.11587695 0.23916297 -0.13299389 -0.22388487
000270 e2 9c fd 3c bb bf b3 bd 7b d2 9a 3d 86 33 fe 3e
       0.030958597 -0.08776804 0.07559677 0.49648684
000280 46 b2 1e 3f ab 8d 90 be f6 05 9a be 87 65 01 be
       0.61990774 -0.28233084 -0.30082673 -0.12636386
000290 df 0b ba 3e 42 a0 dd bd 26 1a 58 be ad 54 96 3e
       0.36337182 -0.108215824 -0.21103725 0.29361477
0002a0 9d d0 7c 3e 15 8d 41 3e b3 81 37 3d 2a 96 15 3d
       0.24688955 0.18901475 0.044801425 0.03652016
0002b0 e2 c5 5c 3b b8 66 6b 3d 7e e4 d1 3e e3 7a 2c be
       0.0033687283 0.057471007 0.40994638 -0.16843753
0002c0 64 1f 02 bf 5d 94 69 3e e1 f6 e8 3d 34 fd 5f be
       -0.5082915 0.22810502 0.113752134 -0.21873933
0002d0 92 8c 02 3d e7 e7 ea bd 7a f3 91 3e 58 a1 2d 3e
       0.03187234 -0.11470013 0.2850607 0.16956079
0002e0 70 6f a4 be db bf 64 3e b3 02 19 3b 4d 95 a1 be
       -0.3211627 0.22338812 0.0023347556 -0.3155922
0002f0 1a 75 ee bd 50 aa ce bd ed db 7d bd f3 7c cc 3e
       -0.11643429 -0.10091078 -0.061977316 0.3993908
000300 66 eb ed bd 14 04 0b 3e 00 86 7d be 32 7b d7 bd
       -0.11617164 0.13575774 -0.24758148 -0.105215445
000310 47 42 96 3b 56 9c 9a 3e ad 85 d9 3d 96 33 48 be
       0.0045855376 0.301974 0.106212 -0.19550928
000320 e7 db af 3d 00 9e a7 3e 7f c2 15 3e 89 b2 d6 bb
       0.08586865 0.32737732 0.14624976 -0.006552045
000330 44 78 06 be f2 d4 0f be 3e f0 83 3d c8 ba 27 be
       -0.13131815 -0.14046076 0.06442307 -0.16379845
000340 f4 a5 2f 3e b1 a6 1d be bd be 8e 3e cd a6 8a be
       0.1715315 -0.15395619 0.27879897 -0.27080384
000350 78 68 b4 3e ab 01 01 be df c2 f0 3e 3a 91 1b 3d
       0.35235953 -0.12598293 0.47023675 0.037980296
000360 79 60 e2 be e0 f3 6c 3e 19 4b f6 3d 05 66 1e 3f
       -0.44214228 0.23139906 0.120260425 0.6187442
000370 35 7d ab 3e 66 79 03 3e e5 77 86 bd 5f 84 a2 be
       0.33493963 0.12839279 -0.06565837 -0.31741616
000380 7e e2 41 3e 64 7e aa 3d cb 1c 06 bf df c2 59 bd
       0.18934056 0.08324888 -0.52387685 -0.05316436
000390 6d b7 01 3f 2b de 30 3f a6 65 05 bc 7c e6 f2 3d
       0.5067051 0.69089 -0.008141911 0.11860368
0003a0 7d 6e a7 3c cb 11 aa 3e 47 f5 d7 3d c9 f6 a7 3d
       0.020438427 0.332167 0.1054483 0.082013674
0003b0 98 7b 42 3e 68 74 95 3e 06 d8 46 3e 6d b1 d7 bd
       0.1899246 0.29190373 0.19418344 -0.10531888
0003c0 65 60 06 ba fd 2a ff 3d 94 1b 78 3e 62 a8 dd be
       -0.0005126058 0.12459371 0.2422927 -0.43292528
0003d0 a1 6f ec 3d c6 78 e6 bc 94 2c 06 3e f1 5e 7d bc
       0.11544729 -0.028133761 0.13102943 -0.01546453
0003e0 77 4c fe 3d df 74 b4 3e 36 e1 f2 bd e9 4a c2 3e
       0.12416928 0.35245416 -0.11859362 0.37947777
0003f0 78 1f a9 bd e6 61 bd be 42 e8 0f 3e ad d1 65 be
       -0.08257955 -0.36988753 0.14053443 -0.22443266

model.1.running_var f4 [512]
000000 5c ee 1f 3c 4a 3f 20 3c 16 87 23 3c f6 b4 4a 3c
       0.009761419 0.009780714 0.0099809375 0.012372246
000010 ed 4b f2 3b 9f 7c b1 3c cf c8 33 3c f8 04 1d 3c
       0.007394305 0.02166587 0.0109731695 0.009583704
000020 60 cc 32 3c c4 4c 72 3c 28 b0 49 3c a5 c9 40 3c
       0.010912985 0.01478881 0.012310065 0.011766826
000030 d6 af 70 3c 5d ab 20 3c 3f 52 a8 3c 04 46 0a 3c
       0.01469036 0.009806481 0.02054703 0.008439545
000040 19 6e 70 3c 1c 86 19 3c 41 fb 9c 3c 27 0b 4f 3c
       0.014674687 0.009370353 0.019162776 0.012636936
000050 37 ed 7a 3c 9b 24 01 3c ac fd 73 3c 09 07 63 3c
       0.0153153455 0.007882263 0.014892023 0.013856658
000060 b1 b6 4d 3c 17 69 46 3c f2 64 14 3c 8a 9d 65 3c
       0.012555764 0.012110016 0.00905727 0.014014611
000070 b3 e4 f6 3b d6 0d 5a 3c 8c 1f 4f 3c b6 b7 30 3c
       0.0075345873 0.013308963 0.012641799 0.010785988
000080 d8 62 12 3c 68 c4 52 3c f5 a9 47 3c a9 14 71 3c
       0.008934699 0.01286421 0.012186517 0.014714398
000090 d0 3d 1a 3c ce 31 4c 3c b5 b2 83 3c e3 cb 57 3c
       0.009414151 0.012463046 0.016076425 0.013171169
0000a0 11 17 27 3c 20 d4 3c 3c f3 7e 04 3c c7 19 7c 3c
       0.010198371 0.011525184 0.008086908 0.015387005
0000b0 46 66 69 3c 13 07 81 3c 29 de 27 3c 10 27 3a 3c
       0.014245575 0.015750444 0.010245838 0.011361852
0000c0 2f 7b 14 3c eb 50 39 3c d1 3f 51 3c 86 34 2e 3c
       0.009062572 0.011310796 0.012771563 0.01063264
0000d0 69 d2 12 3c 83 7b 19 3c 0c c8 83 3c 57 49 e3 3b
       0.0089612985 0.009367826 0.0160866 0.006936233
0000e0 e4 cd 01 3c b8 04 5f 3c 59 d0 11 3c 6a 9f 2d 3c
       0.007922623 0.013611965 0.008899772 0.010597089
0000f0 cb 67 06 3c 86 f9 3b 3c 08 26 43 3c 91 23 27 3c
       0.008203457 0.011473065 0.011910923 0.010201351
000100 f4 3b 40 3c 8d b0 8a 3c 65 b5 00 3c 5d 6e f1 3b
       0.011733044 0.01692989 0.007855748 0.0073678927
000110 6d 21 5a 3c b1 53 ac 3c a5 10 4f 3c 8b ea 59 3c
       0.013313633 0.021036 0.012638246 0.013300548
000120 a5 15 69 3c 13 9f 4a 3c af 42 7f 3c 9f 87 a8 3c
       0.014226352 0.012367028 0.015579863 0.020572482
000130 88 69 4e 3c f4 17 0d 3c 91 da 88 3c fa 10 85 3c
       0.012598403 0.008611668 0.016705783 0.016243447
000140 7b bf 23 3c f1 8d 65 3c f7 46 09 3c 84 8d 59 3c
       0.009994383 0.014010892 0.008378736 0.013278369
000150 8e 10 69 3c 11 b4 4a 3c a2 0b 03 3c c6 1c 0e 3c
       0.014225138 0.012372033 0.007998379 0.008673852
000160 5b cc 64 3c ca 66 92 3c c8 eb 1b 3c bc 64 37 3c
       0.013964738 0.01787128 0.009516664 0.011193451
000170 ea b0 5d 3c 9f 88 1f 3c 24 e6 05 3c 9d 3b 5b 3c
       0.013530949 0.009737163 0.008172546 0.013380912
000180 21 36 8b 3c 63 48 84 3c cc a2 4e 3c d1 a9 80 3c
       0.016993584 0.016147798 0.012612056 0.015705975
000190 2a 7c 97 3c d7 82 18 3c df 3a 72 3c 3d 4c ec 3b
       0.018491823 0.009308538 0.014784544 0.0072112367
0001a0 3a 2e 31 3c 05 0d 27 3c 69 43 6d 3c fa b5 3d 3c
       0.010814244 0.010195975 0.014481404 0.011579031
0001b0 0e 11 48 3c 18 3c 8c 3c 46 8f 39 3c 2a 13 88 3c
       0.012211097 0.017118499 0.011325663 0.0166107
0001c0 2f 40 7c 3c 5c c5 1d 3c 2a 68 0d 3c 3f 6c 3b 3c
       0.015396162 0.009629574 0.008630792 0.011439382
0001d0 a2 5e 7a 3c bd 9d 28 3c a9 2c 1f 3c 68 50 17 3c
       0.015281351 0.010291514 0.009715238 0.009235479
0001e0 b3 a9 5a 3c d0 14 30 3c 50 d8 5b 3c 02 e6 64 3c
       0.0133461235 0.01074715 0.013418272 0.013970854
0001f0 72 e7 60 3c 85 e2 74 3c 57 da 50 3c e3 b7 3e 3c
       0.013727056 0.014946585 0.012747369 0.011640522
000200 d3 dc 37 3c de 0c 63 3c 2f 17 0b 3c 30 c7 52 3c
       0.011222082 0.013858048 0.008489414 0.012864873
000210 c8 e8 59 3c 98 a1 05 3c 8a f2 30 3c 27 9b 62 3c
       0.013300128 0.008156203 0.010800013 0.0138309365
000220 89 d4 27 3c 26 2d 8a 3c f8 86 71 3c a8 36 19 3c
       0.010243543 0.016867232 0.014741652 0.00935141
000230 37 ce 66 3c a2 11 6b 3c 6b 25 24 3c bb d5 1a 3c
       0.014087251 0.014347466 0.010018687 0.009450371
000240 5d 04 2c 3c ec be 47 3c 64 81 59 3c cb 5a 0f 3c
       0.010499087 0.012191515 0.013275478 0.008749674
000250 61 4c 0c 3c ab 9c 5c 3c 2b eb c0 3b 4d 08 10 3c
       0.008563132 0.013465087 0.005887409 0.008791042
000260 38 14 49 3c 8e ed 27 3c ef d1 69 3c 48 ce 45 3c
       0.012272887 0.010249509 0.0142712435 0.012073107
000270 3f 0c 94 3c 33 80 04 3c 37 46 1f 3c 2c 15 49 3c
       0.018072246 0.008087206 0.00972133 0.012273114
000280 ba 50 89 3c 0f 6e 88 3c 16 d4 35 3c 68 f6 09 3c
       0.016762126 0.016654043 0.0110979285 0.008420564
000290 d1 a7 50 3c 22 7c 44 3c a6 2b 31 3c 37 b6 3c 3c
       0.012735323 0.011992486 0.010813629 0.011518053
0002a0 d3 da 1e 3c a8 f6 2c 3c 48 d6 99 3c ca db d1 3b
       0.009695726 0.010556854 0.018778935 0.0064043747
0002b0 e8 bc 4c 3c 6a 87 8a 3c 15 03 62 3c 7f a9 44 3c
       0.012496211 0.016910274 0.01379468 0.012003302
0002c0 7d 7f 4c 3c 27 af 94 3c 89 44 56 3c 2f ba 0f 3c
       0.012481567 0.018149925 0.0130778635 0.008772417
0002d0 e5 f0 c2 3b 70 2b 63 3c 7d 1e a4 3c 5c 15 09 3c
       0.005949127 0.013865337 0.02003407 0.008366909
0002e0 1d 9a 87 3c 23 e0 20 3c 00 55 34 3c 6c 57 3c 3c
       0.01655298 0.009819063 0.011006594 0.011495452
0002f0 5a 93 72 3c d3 37 01 3c c7 19 36 3c 0f 99 67 3c
       0.014805639 0.007886845 0.011114544 0.014135613
000300 64 38 2f 3c 57 b3 1c 3c b2 94 1a 3c 7a 19 2b 3c
       0.010694597 0.009564242 0.009434866 0.010443086
000310 90 a7 47 3c 93 62 62 3c 01 bc 70 3c 80 8f a6 3c
       0.012185946 0.013817447 0.014693261 0.020332098
000320 98 6b 07 3c be 39 25 3c 32 a6 7f 3c aa e1 c4 3b
       0.008265398 0.010084568 0.015603589 0.0060083466
000330 45 f7 23 3c ff 4f 52 3c 91 a2 2a 3c e9 ff 19 3c
       0.010007684 0.012836455 0.010414735 0.009399393
000340 56 d4 31 3c dd 5e 26 3c 91 c9 3f 3c 7d 4d 50 3c
       0.0108538475 0.010154453 0.011705772 0.012713787
000350 cd 2d 23 3c fc 67 f8 3b 6d 88 0a 3c 8c d0 42 3c
       0.00995965 0.0075807553 0.008455378 0.011890542
000360 64 aa 57 3c a2 4a 5c 3c b8 52 e5 3b 17 c8 40 3c
       0.013163183 0.013445528 0.0069983862 0.011766455
000370 01 5f 4d 3c 86 29 64 3c 46 20 3b 3c 56 56 76 3c
       0.012534858 0.013925916 0.011421269 0.0150352325
000380 7c 89 61 3c bf 3c 2f 3c 6a a2 5a 3c 5e 90 31 3c
       0.013765689 0.010695635 0.013344387 0.0108376425
000390 a6 8c 27 3c 71 37 5f 3c d0 4f 21 3c 79 c9 19 3c
       0.010226404 0.013624058 0.009845689 0.009386414
0003a0 3e 06 82 3c d7 64 88 3c 7d cb 4f 3c 02 91 7a 3c
       0.015872117 0.016649647 0.012682793 0.015293362
0003b0 8e 2a fc 3b e6 05 62 3c ba c3 98 3c 8c e3 e8 3b
       0.0076955026 0.013795352 0.018648017 0.007107204
0003c0 73 9a 32 3c c7 aa 13 3c d4 99 12 3c 1e 7b 36 3c
       0.010901081 0.009012884 0.008947808 0.011137752
0003d0 b8 bc 0b 3c 66 08 6b 3c 0b ae 1b 3c 27 f9 65 3c
       0.008528881 0.014345264 0.009501944 0.014036453
0003e0 23 4c 7f 3c 2e b9 57 3c a5 70 30 3c cc 0f 5d 3c
       0.015582117 0.013166709 0.010769044 0.013492536
0003f0 e6 71 41 3c b2 ec 18 3c 8d 0a 03 3c 4f 6a 44 3c
       0.011806941 0.009333776 0.007998121 0.011988237

model.4.weight f4 [256, 512]
000000 bb 6a c4 bc 26 dd 35 bd 04 0e 0d 3d c5 82 57 3c
       -0.023976674 -0.044400357 0.034437194 0.0131537365
000010 a0 c8 d0 ba 77 29 e1 3c 71 2a f0 bb be 98 80 3c
       -0.0015928932 0.027485592 -0.007329278 0.015697833
000020 e0 cc be 3c 2c 6b 85 bb 70 98 1c bd 74 fa 9b ba
       0.023291051 -0.004071614 -0.038231313 -0.0011900202
000030 9b ed ff 3c cc f1 19 bc c0 f0 da bc 3c dd 1a bc
       0.031241229 -0.009396028 -0.026726127 -0.00945216
000040 0f 43 1d bd ab 79 e1 3c 45 57 3e 3c 9c d5 16 3d
       -0.03839403 0.027523836 0.011617486 0.036824808
000050 54 9c 02 3b e9 04 1b 3d e5 ef 48 bc 0d d0 cb bc
       0.0019929605 0.03784648 -0.012264227 -0.02487948
000060 4c aa ab bc 5e fb aa bc c3 cb b3 bc 67 73 12 bd
       -0.020955227 -0.020871814 -0.021947747 -0.035754588
000070 f0 0a c7 3c a3 c9 bc 3b 02 e8 11 3d ec e7 15 bd
       0.024297208 0.0057613417 0.03562165 -0.03659813
000080 68 cc eb bb ce 6e 13 bb 48 66 9b bc 53 db 20 3d
       -0.007195998 -0.0022496465 -0.01896967 0.039271664
000090 45 1e a4 3c 81 2f 05 bd 26 1d 01 3d 81 4b 02 3d
       0.020033965 -0.032516006 0.03152194 0.031810287
0000a0 63 be ae ba b6 18 0b bd 47 73 0b bd 87 30 32 3c
       -0.0013331886 -0.033959113 -0.034045484 0.010875828
0000b0 89 15 ef bc ce 02 25 bd 07 65 18 3c af b2 dc bb
       -0.029185073 -0.040285878 0.009301431 -0.006735168
0000c0 c8 00 32 bd 58 9b 17 3d 7f 82 16 3d e8 f0 1c bd
       -0.043457776 0.03701338 0.036745545 -0.038315684
0000d0 27 35 e6 3c 91 58 06 bd 7f 0d d0 3c 4b 58 6e 3c
       0.028101517 -0.032799307 0.02539706 0.014547418
0000e0 42 76 17 bd f6 a7 db bc d5 76 31 3d b6 d7 e1 bc
       -0.036978014 -0.026813488 0.043326218 -0.02756868
0000f0 93 6e 08 3d 50 b5 2c bc b3 30 d7 bb 1b 84 ea bc
       0.033308577 -0.010541275 -0.0065670847 -0.028627446
000100 7c c8 cc 3c ed d8 88 3b 6c 78 33 3c c6 d2 42 bc
       0.024997942 0.00417625 0.010954004 -0.011891073
000110 0b da f5 3c 6d 61 12 3d 16 e0 1b bc 93 e7 95 bc
       0.030011198 0.035737444 -0.0095138755 -0.0182989
000120 a9 be ec 3c 7a 6a 93 bc 11 8c 1f bc 97 00 21 bd
       0.028899508 -0.017995108 -0.009737984 -0.039307203
000130 e7 93 d9 bc 71 c8 42 3b ef 5e 0f 3c 28 dd ba 3c
       -0.026559783 0.0029721523 0.008750661 0.022810534
000140 bd 95 64 bc 15 2c 80 3c d0 10 4d bd f2 3d 0e 3d
       -0.013951716 0.01564602 -0.05006486 0.034727044
000150 c1 16 a9 3c 9b 46 cc bc 28 4c ee 3c 9e 5a d1 ba
       0.020640733 -0.024936011 0.029089049 -0.0015972441
000160 d8 ae a4 bc 17 f2 89 bc 4d 39 18 3d c9 98 ef bb
       -0.020102903 -0.01683907 0.03716402 -0.0073119146
000170 8f 12 09 3d 51 2c 3a 3d f9 b8 3b 3d eb 96 ea 3c
       0.033464964 0.04545242 0.0458307 0.028636416
000180 d2 49 55 bd ea d1 39 bd 4c 9f ac 3c 15 21 a7 3a
       -0.052072354 -0.045366205 0.021072052 0.0012750948
000190 e8 5b a0 bc 54 f4 2a bc 42 e8 0a 3d 6e dd 70 bd
       -0.019575074 -0.010434229 0.033912905 -0.05880492
0001a0 99 f8 dd bc da 14 42 3c 42 04 45 3b ec 99 88 3c
       -0.02709608 0.011845792 0.0030062352 0.016674958
0001b0 43 f3 22 3c 24 d5 76 3b 85 d9 c0 3c b4 cb f7 ba
       0.009945693 0.0037663663 0.023541221 -0.0018905313
0001c0 3f 42 8e bc e5 2d 90 3c 61 4d 36 bd 0d 8b 94 bc
       -0.017365573 0.01760001 -0.044507388 -0.01813271
0001d0 71 94 5e 3c ef 88 05 bd 60 46 92 bc e5 7a 71 bc
       0.013585196 -0.032601293 -0.017855823 -0.014738773
0001e0 6c f5 6e bc f2 a0 2d bd 21 6b 42 3d 44 64 e0 3c
       -0.01458488 -0.042389818 0.047465447 0.02739156
0001f0 c3 c0 9c bc 5c ea 48 3a 79 8b 3e bd ef 6a 0b 3d
       -0.019134885 0.0007664317 -0.04651973 0.034037527
000200 fa 68 ed bc 77 c0 8d bc e5 e2 81 bc 87 c2 10 3d
       -0.02898072 -0.017303688 -0.015855262 0.035341766
000210 a4 7d 4f 3c 88 34 7c ba b9 35 1e bc ad 6c 54 3c
       0.012664232 -0.0009620865 -0.009656363 0.012965363
000220 44 97 72 3c 6b 4c 7c 3c 44 8e 2b 3d b1 af 19 bc
       0.014806572 0.015399079 0.041883722 -0.009380267
000230 43 82 06 3b aa a0 2d bc 2b 1e c7 bc 34 38 c5 bc
       0.002052442 -0.010597387 -0.024306377 -0.024074651
000240 43 63 e0 3c d3 99 76 b9 5d 6d 66 3c 58 b1 0b bc
       0.027391082 -0.00023517692 0.01406416 -0.008526169
000250 e9 3d 25 3c ea d8 ca bc 81 47 0f bd b1 ae df 3c
       0.010085561 -0.024761636 -0.0349803 0.027304979
000260 dd 9c 07 3d 90 54 ca bc 5e 67 21 3d bc 08 19 bd
       0.03310858 -0.024698526 0.03940522 -0.037361845
000270 e1 63 12 bd d9 3e 19 3c 88 bc 0e 3d 79 dd 19 bb
       -0.035739783 0.009353363 0.034847766 -0.0023477955
000280 0a 68 dd 3c 88 69 de 3c 97 9e 86 bb 9c 78 ed bc
       0.027027149 0.02714993 -0.004108261 -0.028988175
000290 d7 40 bf 3c 39 ea 1b bc bf bf 97 3c da 4c c7 3c
       0.023346348 -0.009516292 0.018524049 0.024328638
0002a0 e1 ab 9d 3b 47 31 d8 3c f1 59 08 3d df 3b 6c bc
       0.0048117493 0.026390685 0.0332889 -0.014418571
0002b0 a7 10 1f 3d a5 9b 86 3c 31 54 7e bc cf 89 ea 3c
       0.03883424 0.016431639 -0.0155230025 0.028630165
0002c0 f1 7e b5 bc 4f f9 49 bd 5b f6 a2 3b 79 b0 03 bd
       -0.022155257 -0.049310025 0.0049732155 -0.03215072
0002d0 e2 25 25 3d 57 e5 8f 3c c0 ad d6 bc 41 7c 24 bc
       0.04031933 0.017565412 -0.026205897 -0.01003939
0002e0 19 3a 18 3d 46 12 3c 3c 28 a3 88 3c a7 12 f4 bc
       0.03716478 0.011478966 0.016679361 -0.02979405
0002f0 dc ec 0f bd 6f 9e f5 3c 7e ac 84 3c 24 5a a4 bc
       -0.035137996 0.029982774 0.016195532 -0.020062514
000300 8c 87 aa bc d8 98 64 3b 81 a1 1e bd ca ff bc bb
       -0.020816587 0.003488114 -0.03872824 -0.005767797
000310 ec 1f 4c bb 39 43 21 3d 30 14 da bc 46 88 e2 38
       -0.0031146957 0.03937075 -0.026620954 0.00010801903
000320 bc 84 97 bc be d6 03 bd c5 e6 05 3d da 95 4c bd
       -0.01849591 -0.032187216 0.032690782 -0.049947597
000330 3e 4b cd bc 1b 7f 00 3d 8c f1 3b bd 6f 70 11 bd
       -0.025060292 0.031371217 -0.045884654 -0.035507616
000340 78 ff 8a bc 9e 68 10 bd 01 d6 05 bd c5 6c 4e bd
       -0.01696752 -0.03525602 -0.032674793 -0.0503967
000350 03 b1 33 bd de ea d0 bc 62 a3 8e bb 4f fc 85 3c
       -0.043869983 -0.025502618 -0.004352973 0.016355662
000360 b0 b0 28 bc 2d 09 f6 bc dd 50 59 3c 0b b8 40 bc
       -0.010296032 -0.030033672 0.013263908 -0.011762629
000370 2c aa 46 3d d5 42 ab 3c fb 6b 5c 3b 77 58 bb 3c
       0.048502132 0.020905891 0.0033633697 0.022869332
000380 a3 b6 b8 bc 7c 54 be 3c 1a 49 30 bd b8 cd 16 bd
       -0.022548025 0.023233645 -0.043038465 -0.036817282
000390 1b a7 d2 3c 57 36 bb 3c c0 30 cb bc b6 ec 5d 3c
       0.025714448 0.02285306 -0.02480352 0.013545206
0003a0 44 82 5d bc 05 dd 04 3d 75 47 01 bd c1 63 c5 bb
       -0.013519827 0.032437343 -0.031562287 -0.0060238545
0003b0 67 1c f0 bc 41 52 e0 3c 79 bc 3c bd c7 01 60 3d
       -0.029310418 0.027382972 -0.04607818 0.054689195
0003c0 3a 86 f7 3c 71 fc 33 3c 01 1a 04 bd 53 d9 bb bc
       0.030215371 0.01098548 -0.03225136 -0.022930777
0003d0 44 5f 1b bd 82 02 56 bc f3 8d a6 bb c3 db 26 3c
       -0.03793265 -0.013062121 -0.0050828396 0.010184231
0003e0 78 1b 0c 3b 56 d2 d9 3c 5b a5 d3 3b 0f 20 d1 3c
       0.0021378677 0.026589554 0.006458921 0.025527982
0003f0 43 2d 0f bd 83 08 a7 bc f2 77 2d bb 11 17 8b bc
       -0.034955274 -0.0203898 -0.0026469198 -0.016978772
