models/three_layers/threeLayerModel_emu_corrCut_-1.0_weights_true_drop_0.5_lorentz_mttbar_no_qg.pt (torch, 581951 bytes, 14 tensors)

model.0.weight f4 [512, 17]
-0.16006121 0.22703542 0.0069356775 -0.014187537 0.13598385 0.1377982 -0.0510768 -0.04138568
-0.12543628 0.106714346 -0.012489878 -0.013588903 -0.22939874 -0.017493485 -0.30619976 -0.09189221
0.1599008 -0.10956201 0.18288124 0.20124671 -0.2133926 -0.08767663 0.1114154 0.1382028
0.12502465 -0.012480905 -0.27814287 0.054083776 0.01271009 0.037531763 -0.017486928 -0.07199133
0.22072092 -0.38780963 0.21036586 -0.043289196 0.08470483 0.069987476 0.32091913 0.18632242
-0.17637157 -0.09845114 0.1637911 0.028859632 0.008967743 0.018477848 -0.06997226 -0.15850505
-0.22473639 -0.1721852 0.40908685 -0.11648888 -0.119269 0.10192285 -0.094031975 0.41493118
0.4679576 -0.12725264 -0.21680376 -0.057670012 -0.22848956 0.09999819 5.149152e-05 0.17581609
0.07961978 -0.11850519 0.11459681 0.17530677 -0.07984105 0.14037986 -0.39277712 0.1980734
0.011565271 0.14014214 0.19315122 -0.00798438 -0.22182599 0.11694675 0.11849003 -0.043168377
0.04266907 0.18194123 0.105687805 -0.10112159 -0.038182404 0.037631176 -0.0026319101 -0.3004663
0.29523188 0.014374173 -0.03598775 0.008472518 0.04457449 -0.029842867 -0.034428578 -0.006519867
-0.010649759 -0.094167694 0.012724868 0.11074091 -0.0006739381 0.03655449 0.2247709 -0.08164758
-0.06433987 -0.05048834 0.4424355 0.26801905 0.18624924 0.10119175 0.05703198 0.17011705
-0.009252956 -0.0076815425 -0.21169238 0.020982472 0.022722907 -0.08271852 0.4139476 -0.22189638
-0.13031663 -0.040988445 -0.021407492 -0.07565917 -0.17725077 -0.19993562 0.15940292 -0.13411784
-0.08343255 -0.079892464 0.024504267 -0.030684847 -0.2834728 0.14066848 -0.017515277 -0.2675512
-0.26620662 0.1711722 0.022982694 0.023463123 -0.03563596 0.2915136 -0.06461597 0.26438987
-0.10532224 0.08101364 -0.008801657 -8.5979536e-07 0.15316461 -0.41986623 -0.07730757 -0.14273284
0.20672826 -0.028571263 0.27816397 0.010027033 0.02705613 -0.005142587 0.3781744 0.11733307
0.17397621 -0.10660166 -0.01553569 0.0010205848 0.008425559 -0.37207344 0.061957043 -0.11723326
-0.12073595 -0.33174008 -0.052581746 0.0283764 0.24115548 -0.17456308 0.014028005 -0.41950825
0.076810844 -0.07656298 0.12642354 -0.08298686 0.0712436 -0.14907046 0.090072945 0.095389
0.12835698 -0.18032591 0.25132984 -0.1757937 -0.032500558 -0.024778422 -0.036965005 -0.12305229
-0.123299025 -0.118028805 -0.020604214 0.3085851 -0.10198071 0.0013383798 -0.006804563 0.2639751
-0.5202643 0.27976632 0.110552184 0.16319805 0.015344054 -0.32980093 0.027666796 0.036137056
0.20839626 0.12298863 0.22250254 0.0945895 -0.025643572 0.10068102 0.018169807 0.04039127
-0.3347288 0.0074826907 -0.08758137 0.2003255 0.4106452 -0.098908715 -0.12769634 -0.049588747
0.0066478043 0.2103258 0.20457731 0.08029933 -0.04141474 -0.13573948 -0.113150515 0.026161281
-0.016199365 0.04523627 -0.056790072 -0.12539934 -0.21057266 0.007620995 0.106122166 0.07076143
-0.049388133 -0.08579392 -0.27873254 -0.1761981 0.22271417 0.1701081 -0.06266688 -0.2981428
0.006967547 -0.09586791 -0.1552542 0.33429682 -0.12975717 0.044262007 0.034558397 -0.2764205
00000000: 16e7 23be f97b 683e ae44 e33b d872 68bc
00000010: 5a3f 0b3e f91a 0d3e e835 51bd 0884 29bd
00000020: 5e72 00be 0d8d da3d 58a2 4cbc fda3 5ebc
00000030: 81e7 6abe 7f4e 8fbc 37c6 9cbe fc31 bcbd
00000040: 09bd 233e 0c62 e0bd 3845 3b3e 9e13 4e3e
00000050: 9783 5abe ce8f b3bd c22d e43d 0985 0d3e
00000060: 7606 003e b67c 4cbc be68 8ebe f386 5d3d
00000070: fb3d 503c e8ba 193d bf40 8fbc 3170 93bd
00000080: aa04 623e fc8e c6be 266a 573e 0350 31bd
00000090: ba79 ad3d 9855 8f3d 834f a43e 4ecb 3e3e
000000a0: c09a 34be c0a0 c9bd dbb8 273e 096b ec3c
000000b0: 71ed 123c db5e 973c 9e4d 8fbd 264f 22be
000000c0: 4c21 66be 5151 30be d573 d13e b991 eebd
000000d0: 4e43 f4bd edbc d03d d693 c0bd dc71 d43e
000000e0: 2398 ef3e 844e 02be ce01 5ebe 6437 6cbd
000000f0: 2bf9 69be dacb cc3d 99f8 5738 2209 343e
00000100: b20f a33d d9b2 f2bd bbb1 ea3d 9e83 333e
00000110: b483 a3bd bdbf 0f3e 151a c9be c1d3 4a3e
00000120: 437c 3d3c 6c81 0f3e 6fc9 453e ebd0 02bc
00000130: 5a26 63be c781 ef3d e7aa f23d 53d1 30bd
00000140: c3c5 2e3d cd4e 3a3e d972 d83d d618 cfbd
00000150: 2765 1cbd 2623 1a3d 207c 2cbb b8d6 99be
00000160: a228 973e a781 6b3c e467 13bd 51d0 0a3c
00000170: be93 363d 0779 f4bc fb04 0dbd 9ca4 d5bb
00000180: 547c 2ebc feda c0bd f77b 503c 21cc e23d
00000190: 38ab 30ba 29ba 153d 582a 663e d936 a7bd
000001a0: 9fc4 83bd ddcc 4ebd e886 e23e cb39 893e
000001b0: 1fb8 3e3e 9f3d cf3d 5e9a 693d 2a33 2e3e
000001c0: b699 17bc 73b5 fbbb e3c5 58be 6fe3 ab3c
000001d0: 6425 ba3c 5468 a9bd f1f0 d33e ce38 63be
000001e0: b971 05be 80e3 27bd c45e afbc 32f3 9abd
000001f0: 3a81 35be ecbb 4cbe 853a 233e 3056 09be
00000200: afde aabd a99e a3bd 2cbd c83c ca5e fbbc
00000210: 5923 91be 660b 103e 337c 8fbc 79fc 88be
00000220: 3c4c 88be c447 2f3e 3446 bc3c bc35 c03c
00000230: 03f7 11bd 4541 953e 6155 84bd 1c5e 873e
00000240: 30b3 d7bd 7bea a53d d334 10bc b0cc 66b5
00000250: 2fd7 1c3e b5f8 d6be 6e53 9ebd 8f28 12be
00000260: 93b0 533e 480e eabc 826b 8e3e 6d48 243c
00000270: d1a4 dd3c 2583 a8bb 13a0 c13e 524c f03d
00000280: d226 323e f951 dabd 6889 7ebc 25c5 853a
00000290: 5b0b 0a3c 6980 bebe abc6 7d3d fe17 f0bd
000002a0: 6944 f7bd d6d9 a9be f55f 57bd a075 e83c
000002b0: 76f1 763e aac0 32be b8d5 653c c9c9 d6be
000002c0: 014f 9d3d 0dcd 9cbd 2c75 013e 04f5 a9bd
000002d0: 2ae8 913d eda5 18be 2a78 b83d 4f5b c33d
000002e0: 0370 033e 5ba7 38be 4eae 803e 4403 34be
000002f0: 4e1f 05bd 1efc cabc 9e68 17bd d702 fcbd
00000300: 3384 fcbd 16b9 f1bd 2bca a8bc defe 9d3e
00000310: 43db d0bd 936c af3a d0f8 debb bf27 873e
00000320: 0b30 05bf 883d 8f3e 2f69 e23d 641d 273e
00000330: a165 7b3c abdb a8be 7aa5 e23c 7304 143d
00000340: d465 553e 76e1 fb3d b5d7 633e 24b8 c13d
00000350: 7812 d2bc da31 ce3d d9d8 943c 5171 253d
00000360: 9361 abbe 5c31 f53b dc5d b3bd 2122 4d3e
00000370: 1640 d23e a790 cabd d4c2 02be 921d 4bbd
00000380: d3d5 d93b a65f 573e b77c 513e fa73 a43d
00000390: 81a2 29bd 4aff 0abe 75bb e7bd 2f50 d63c
000003a0: 88b4 84bc ab49 393d b59c 68bd af68 00be
000003b0: 5ca0 57be 8ab9 f93b 9456 d93d 5eeb 903d
000003c0: 364b 4abd b9b4 afbd 08b6 8ebe 466d 34be
000003d0: 2f0f 643e d130 2e3e 7e57 80bd 2ca6 98be
000003e0: 0550 e43b 6556 c4bd f5fa 1ebe f428 ab3e
000003f0: 10df 04be 144c 353d 1b8d 0d3d fd86 8dbe

model.0.bias f4 [512]
0.079059176 -0.16320923 -0.20455557 -0.016762482 -0.007862154 -0.008195092 -0.17353898 0.11825974
-0.22836353 0.051223412 0.22890297 0.08762809 -0.010521248 -0.19567753 0.116192676 0.10082543
-0.014686785 0.20125744 0.17008144 -0.07390396 -0.04435608 -0.09616887 0.09769309 -0.1623445
-0.19248746 0.15705012 0.20037033 0.029711584 -0.19828124 0.17800343 -0.22487396 -0.22785814
0.030214919 0.11896891 0.03792831 -0.22625439 0.119468495 0.10392959 -0.19415009 0.17989242
0.0008765853 0.14445582 0.00193694 -0.2054364 -0.18802938 0.19594675 -0.23681448 -0.0074148905
-0.15390743 -0.07852069 0.16109735 -0.11074582 0.10754847 -0.10930394 0.23296732 -0.039159395
0.10563639 -0.20299467 -0.035704546 -0.09825152 -0.13322294 -0.07400608 0.087097265 -0.1649038
0.23650919 -0.1458917 -0.232658 -0.09698443 -0.24096754 -0.053780045 -0.11696061 0.13552804
-0.18388546 0.102686055 -0.18095288 0.15862931 -0.16805962 -0.12839217 -0.016552282 0.20269261
-0.008057059 -0.23444048 0.004108734 0.07126245 0.19040196 -0.0952828 -0.078122996 0.10550642
-0.15228607 -0.222871 0.14961952 0.08246246 -0.22375867 0.1727862 -0.10516534 0.049162265
-0.056003362 -0.03084701 -0.20353708 0.22863106 0.23906508 0.12749988 0.18004733 0.07451581
-0.20879719 -0.15241753 -0.06520913 0.23530649 0.23608519 -0.09992948 -0.121661976 -0.08654633
-0.11112073 0.17415509 0.17257032 -0.08554698 0.23516686 0.12799203 -0.020033024 -0.22187899
-0.20616907 -0.04374211 0.034373354 0.1522964 -0.06428635 0.23014499 -0.16435231 -0.22983639
0.07099919 0.025505938 0.23516051 -0.20293114 -0.048973285 0.009581176 0.01949149 -0.07312548
-0.10942331 0.22576946 -0.16970745 -0.21946627 -0.09032572 0.21227862 0.12919255 -0.035682708
-0.17964368 -0.17584462 0.21843934 0.1988778 -0.024386695 -0.08146518 0.21112108 0.11888978
0.0033312158 -0.15965833 0.031953663 0.058571335 0.21545805 -0.2247197 0.12781851 -0.17113915
0.109352455 -0.20827095 0.007952991 -0.014142107 -0.058683034 0.16789529 0.054800536 0.23073503
0.16241719 -0.036388718 0.09052288 -0.23905468 -0.13468891 0.22432406 -0.0364752 -0.16001965
0.16810103 -0.09229054 0.0077217724 0.14208117 -0.062144686 0.11962609 0.1023665 -0.19052176
0.08148099 0.11003521 -0.10591072 -0.12896179 -0.06931925 0.054594584 0.08529855 -0.23162147
0.12872629 0.1698833 -0.090434045 -0.091781706 -0.16292642 0.2397197 -0.13079628 -0.1935483
0.08316576 0.1291124 -0.16255392 0.09607965 -0.22171141 0.016453428 0.17630495 0.15173168
0.22896324 0.08168599 -0.15371282 0.1447136 0.002638581 -0.035699572 0.05106682 0.1901406
0.10226343 -0.12465697 -0.012503016 0.15894473 -0.114779115 0.008918263 0.0074176546 0.022248449
0.07402582 0.024985932 -0.0015362005 0.1241632 0.20961967 -0.23639631 0.16865581 0.23634478
0.15457202 0.1136565 0.08802347 -0.10882151 -0.0425772 -0.029482624 -0.20488828 0.15056449
0.1625863 -0.19996029 0.008996727 -0.09472019 0.21904026 0.077390835 0.102199785 -0.056283265
-0.046865158 0.13480702 -0.17075305 0.22370437 -0.21507353 -0.12788698 0.16836283 -0.07207735
00000000: c7e9 a13d 5220 27be 0477 51be 7951 89bc
00000010: 44d0 00bc b544 06bc 34b4 31be 2a32 f23d
00000020: 21d8 69be a4cf 513d 8a65 6a3e 5b76 b33d
00000030: 5061 2cbc b15f 48be 6df6 ed3d 907d ce3d
00000040: d7a0 70bc 6e16 4e3e d429 2e3e f65a 97bd
00000050: b9ae 35bd 2ff4 c4bd 5113 c83d a33d 26be
00000060: 6f1b 45be bfd1 203e e12d 4d3e b565 f33c
00000070: 3d0a 4bbe 8846 363e 5c45 66be a553 69be
00000080: 4785 f73c f9a5 f33d b75a 1b3d 3baf 67be
00000090: e6ab f43d 09d9 d43d 48cf 46be b835 383e
000000a0: a5ca 653a 3aec 133e ece0 fd3a eb5d 52be
000000b0: c68a 40be 44a6 483e 7f7f 72be 9cf8 f2bb
000000c0: e999 1dbe 75cf a0bd b4f6 243e b4ce e2bd
000000d0: 5f42 dc3d beda dfbd fc8e 6e3e 9a65 20bd
000000e0: e457 d83d d6dd 4fbe ee3e 12bd 1838 c9bd
000000f0: 986b 08be 8090 97bd 0d60 b23d 8bdc 28be
00000100: 772f 723e a264 15be e63d 6ebe c69f c6bd
00000110: 32c0 76be 7748 5cbd 0b89 efbd ddc7 0a3e
00000120: 784c 3cbe 114d d23d b64b 39be b96f 223e
00000130: d217 2cbe 3d79 03be a798 87bc a78e 4f3e
00000140: c101 04bc 2a11 70be 8fa2 863b 0cf2 913d
00000150: bbf8 423e a123 c3bd f3fe 9fbd c013 d83d
00000160: e1f0 1bbe 4c38 64be dc35 193e 14e2 a83d
00000170: fe20 65be deee 303e ed60 d7bd 5f5e 493d
00000180: c863 65bd deb2 fcbc 066c 50be 431e 6a3e
00000190: 7acd 743e 548f 023e 545e 383e bf9b 983d
000001a0: eece 55be 5713 1cbe 5d8c 85bd 2ff4 703e
000001b0: 51c0 713e d4a7 ccbd ea29 f9bd 343f b1bd
000001c0: 4493 e3bd b655 323e 46b6 303e 4133 afbd
000001d0: 95cf 703e 5810 033e 4c1c a4bc 3f34 63be
000001e0: fc1d 53be ed2a 33bd 13cb 0c3d 96f3 1b3e
000001f0: 90a8 83bd 21ab 6b3e f94b 28be 3b5a 6bbe
00000200: 0668 913d d4f1 d03c ebcd 703e 2ecd 4fbe
00000210: 3698 48bd 5dfa 1c3c 9eac 9f3c d0c2 95bd
00000220: 5419 e0bd 1c30 673e cac7 2dbe c4bb 60be
00000230: b1fc b8bd 915f 593e 0d4b 043e 0828 12bd
00000240: 83f4 37be 9d10 34be 90ae 5f3e 9fa6 4b3e
00000250: 9bc6 c7bc 37d7 a6bd 2030 583e 7c7c f33d
00000260: 8750 5a3b 797d 23be d8e1 023d 7fe8 6f3d
00000270: 09a1 5c3e ec1c 66be dbe2 023e 1a3f 2fbe
00000280: 2ef4 df3d fb44 55be 434d 023c 4cb4 67bc
00000290: 9f5d 70bd beec 2b3e 8776 603d ce45 6c3e
000002a0: b150 263e 560c 15bd 0f64 b93d c0ca 74be
000002b0: e4eb 09be 35b5 653e 0567 15bd 31dc 23be
000002c0: ad22 2c3e d302 bdbd ec06 fd3b ba7d 113e
000002d0: 6d8b 7ebd 86fe f43d 87a5 d13d 2318 43be
000002e0: 81df a63d 245a e13d b8e7 d8bd 8f0e 04be
000002f0: 40f7 8dbd 929e 5f3d 02b1 ae3d 2e2e 6dbe
00000300: d3d0 033e e3f5 2d3e 7c35 b9bd 0cf8 bbbd
00000310: 2fd6 26be 1579 753e 76ef 05be 8731 46be
00000320: cf52 aa3d 0a36 043e 8974 26be 68c5 c43d
00000330: 5108 63be 57c9 863c 4989 343e 8d5f 1b3e
00000340: 5775 6a3e fc4a a73d e566 1dbe cd2f 143e
00000350: 0bec 2c3b b739 12bd 712b 513d 38b4 423e
00000360: 7d6f d13d 274c ffbd 73d9 4cbc 68c2 223e
00000370: 5011 ebbd e81d 123c cc0f f33b 6142 b63c
00000380: d99a 973d 4caf cc3c 565a c9ba 4749 fe3d
00000390: 8aa6 563e e011 72be 1cb4 2c3e 5e04 723e
000003a0: 2148 1e3e bdc4 e83d a645 b43d d0dd debd
000003b0: 6e65 2ebd 8b85 f1bc 3cce 51be 942d 1a3e
000003c0: 067d 263e 64c2 4cbe 0267 133c a9fc c1bd
000003d0: 174c 603e 167f 9e3d 1f4e d13d 4889 66bd
000003e0: aef5 3fbd da0a 0a3e e3d9 2ebe c212 653e
000003f0: 3c3c 5cbe cef4 02be 4e67 2c3e 4a9d 93bd

model.1.weight f4 [512]
0.97659206 0.92751884 0.8923404 0.87578976 0.93277675 0.9961471 0.9210185 0.9060882
0.98138255 0.9997873 0.91200453 0.8952558 0.9191137 0.8988782 0.9313999 0.8462707
0.98525196 0.9071741 0.94216746 0.95675725 0.9306472 0.96357954 0.9885433 0.94416106
0.9073412 0.9584561 0.8985706 0.9454104 0.99429196 0.9253029 0.9720726 0.91036147
1.0219264 0.92061025 0.9874935 0.89770675 0.97508353 0.87667555 0.8574519 0.9715535
0.9214421 0.9694442 0.9923474 1.0094014 0.995686 0.9936184 0.98795944 0.89161617
0.93464154 1.0148106 0.80370337 0.9038292 1.0116559 0.89903086 0.9376783 0.8607962
0.9758734 1.028019 0.93731326 0.8539509 0.91736585 1.0264577 1.0430591 0.9294558
0.94998205 0.97547483 1.0449097 0.89088535 0.9484055 0.9301127 0.9201284 0.9347686
0.99567443 1.0065675 0.9320906 0.8954984 0.91449183 0.9353743 1.0456235 0.95241606
0.9286219 0.8606678 0.92620474 0.85914046 1.0266148 0.8596381 0.95893127 0.9703993
0.8767492 0.90231836 0.93062633 0.8609642 0.9592481 1.0283495 1.0432773 0.9341653
0.97024405 0.95174515 0.96973467 0.9391356 0.86155725 0.9119104 0.90235287 0.96901613
0.9209719 0.9266655 1.044856 0.9001551 0.9287276 0.90115863 0.9388551 0.90193844
0.9628978 1.0241035 0.9827504 1.03649 0.94566077 0.99393684 0.94888324 0.98183393
0.92866474 0.8958055 0.90566427 0.9399878 0.9848956 0.9550884 0.8869417 0.8905133
0.98823375 0.96405643 0.9523745 1.0016747 0.85862654 0.9010554 0.90424484 0.9786254
0.946473 0.94308794 0.9625478 0.9858019 0.9691387 1.0389407 0.9429781 0.99596655
0.99843323 0.9256154 0.8628991 0.94516003 0.93558896 1.0211607 0.94620025 0.9094622
0.98799396 0.9676601 0.89839756 0.97401774 0.89250225 0.8379849 1.0454154 0.9601541
1.045521 0.9257788 1.0321853 0.9514608 0.9192685 0.89134574 0.9752176 0.9594672
0.9860739 0.92478544 0.9045614 0.8900174 1.037852 0.9938826 0.955033 0.96860975
0.90486544 1.0196333 0.84456706 1.0541673 0.9259439 0.8961649 0.92311555 0.95872945
0.9490722 0.91755533 0.9599889 0.92356616 0.9181785 0.99803907 0.94849455 0.9536691
0.99552953 0.9177656 0.9341112 1.0258187 0.87574214 0.9613245 0.9678718 0.9045006
0.9235635 0.8992265 0.87968063 1.0324644 0.9236635 0.998756 0.9539451 0.87663656
1.0344855 1.0326655 0.8489687 1.0208642 0.9874205 0.8980561 0.8618007 0.9914826
0.8962569 1.0126861 0.89503974 0.927255 0.95098037 1.0091945 0.9918203 1.0302937
0.96705836 0.9537982 0.9803407 0.941667 0.97958213 1.0632601 0.8923616 0.9097373
1.0290428 1.0234256 0.9629189 0.8464025 1.0693818 0.98423237 0.94283694 1.0446466
0.9305029 0.9590344 1.0271361 0.898172 0.9372385 1.056978 0.913123 1.0245351
0.92326444 1.0137542 0.9645195 0.8967453 1.0064534 0.924327 0.92161626 0.935578
00000000: f001 7a3f e071 6d3f 6c70 643f c233 603f
00000010: 75ca 6e3f 7f03 7f3f dec7 6b3f 65f5 673f
00000020: e33b 7b3f 0ff2 7f3f 2179 693f 7c2f 653f
00000030: 094b 6b3f e21c 663f 3970 6e3f 32a5 583f
00000040: 7939 7c3f 903c 683f e331 713f 0bee 743f
00000050: e53e 6e3f 26ad 763f 2c11 7d3f 8ab4 713f
00000060: 8347 683f 615d 753f b908 663f 6a06 723f
00000070: eb89 7e3f a7e0 6c3f c0d9 783f 730d 693f
00000080: 7cce 823f 1dad 6b3f 60cc 7c3f 1cd0 653f
00000090: 139f 793f cf6d 603f f881 5b3f bbb7 783f
000000a0: a1e3 6b3f 7f2d 783f 7b0a 7e3f 1134 813f
000000b0: 47e5 7e3f c75d 7e3f e9ea 7c3f f540 643f
000000c0: ab44 6f3f 50e5 813f 81bf 4d3f 5a61 673f
000000d0: f17d 813f e326 663f af0b 703f 245d 5c3f
000000e0: d7d2 793f 2096 833f c3f3 6f3f 879c 5a3f
000000f0: 7dd8 6a3f f762 833f f682 853f d1f0 6d3f
00000100: 0632 733f b8b8 793f 9abf 853f 1011 643f
00000110: b4ca 723f de1b 6e3f 898d 6b3f ff4c 6f3f
00000120: 85e4 7e3f 34d7 803f 7d9d 6e3f 623f 653f
00000130: 231c 6a3f b174 6f3f fed6 853f 8ad1 733f
00000140: 2aba 6d3f ba54 5c3f c11b 6d3f a1f0 5b3f
00000150: 1d68 833f 3e11 5c3f 857c 753f 176c 783f
00000160: a372 603f 56fe 663f 873d 6e3f 2668 5c3f
00000170: 4991 753f f5a0 833f 1c8a 853f 7525 6f3f
00000180: ea61 783f 92a5 733f 8840 783f 316b 703f
00000190: 048f 5c3f f672 693f 9900 673f 7111 783f
000001a0: d0c4 6b3f f339 6d3f d7bd 853f 9170 663f
000001b0: 18c1 6d3f 55b2 663f cf58 703f 70e5 663f
000001c0: 7880 763f d315 833f 8895 7b3f b4ab 843f
000001d0: d316 723f a572 7e3f 03ea 723f 7859 7b3f
000001e0: f9bc 6d3f 8253 653f 9dd9 673f 0aa3 703f
000001f0: 1e22 7c3f ac80 743f 9c0e 633f aef8 633f
00000200: e3fc 7c3f 67cc 763f d1ce 733f e036 803f
00000210: f3ce 5b3f 91ab 663f 977c 673f 3287 7a3f
00000220: 0e4c 723f 366e 713f 8869 763f 835d 7c3f
00000230: 7919 783f 02fc 843f 0367 713f aaf7 7e3f
00000240: 5299 7f3f 21f5 6c3f f5e6 5c3f 02f6 713f
00000250: c282 6f3f 65b5 823f 2e3a 723f 84d2 683f
00000260: 2ced 7c3f 93b8 773f 62fd 653f 3a59 793f
00000270: 077b 643f 2e86 563f 2cd0 853f a9cc 753f
00000280: a2d3 853f d7ff 6c3f a61e 843f ef92 733f
00000290: 2e55 6b3f 3c2f 643f dca7 793f a49f 753f
000002a0: 576f 7c3f bdbe 6c3f 5691 673f 2ed8 633f
000002b0: 56d8 843f 176f 7e3f 0b7d 743f cff6 773f
000002c0: 43a5 673f 5883 823f 8c35 583f f4ee 863f
000002d0: a90a 6d3f 106b 653f 4d51 6c3f 4b6f 753f
000002e0: 65f6 723f e8e4 6a3f d5c1 753f d56e 6c3f
000002f0: bf0d 6b3f 7d7f 7f3f 8ad0 723f a823 743f
00000300: 06db 7e3f b0f2 6a3f e921 6f3f 074e 833f
00000310: a330 603f 5d19 763f 72c6 773f 5a8d 673f
00000320: a86e 6c3f b533 663f c032 613f cb27 843f
00000330: 3675 6c3f 79ae 7f3f bf35 743f 416b 603f
00000340: 056a 843f 622e 843f 0356 593f aeab 823f
00000350: 97c7 7c3f 01e7 653f f89e 5c3f ced1 7d3f
00000360: 1871 653f b39f 813f 5321 653f 9560 6d3f
00000370: 7373 733f 492d 813f efe7 7d3f aae0 833f
00000380: 2391 773f 1e2c 743f 9cf7 7a3f 1711 713f
00000390: e5c5 7a3f e818 883f cf71 643f 8be4 683f
000003a0: adb7 833f 9cff 823f da81 763f d6ad 583f
000003b0: 81e1 883f a7f6 7b3f c35d 713f fbb6 853f
000003c0: 7035 6e3f 4783 753f 3279 833f 9aee 653f
000003d0: ddee 6f3f 0e4b 873f 6ec2 693f f723 833f
000003e0: 0f5b 6c3f b3c2 813f c0ea 763f 1a91 653f
000003f0: 77d3 803f b2a0 6c3f 0bef 6b3f 0a82 6f3f

model.1.bias f4 [512]
-0.07285393 -0.24064535 -0.23990168 -0.27850714 -0.21791095 -0.32540452 -0.27180442 -0.3486141
-0.16540578 -0.16150273 -0.33173463 -0.5101367 -0.34533155 -0.28557068 -0.2946704 -0.44991025
-0.4898391 -0.16640648 -0.28777567 -0.21131685 -0.12024941 -0.35795957 -0.14055522 -0.40310946
-0.14488903 -0.20610084 -0.37373173 -0.19709323 -0.3986927 -0.10534769 -0.14764532 -0.3381586
-0.20709044 -0.3542825 -0.21864493 -0.38559842 -0.24025597 -0.32043555 -0.23940554 -0.22885892
-0.25595024 -0.13297972 -0.16709663 -0.33653843 -0.22081642 -0.3322517 -0.15350744 -0.30278122
-0.23380448 -0.4256814 -0.5735852 -0.1990116 -0.28681424 -0.1564434 -0.44977042 -0.3708071
-0.12250825 -0.41839305 -0.38049728 -0.62812495 -0.24671322 -0.21958014 -0.40060014 -0.1567547
-0.39004657 -0.4143594 -0.29835838 -0.30018258 0.020536419 -0.12585394 -0.1604822 -0.4404854
-0.35970324 -0.2369276 -0.22883843 -0.5100548 -0.27970168 -0.2967482 -0.11946973 -0.22340037
-0.2907853 0.005189815 -0.13507925 -0.403075 -0.4521048 -0.53727955 -0.19679025 -0.39115807
-0.06707218 -0.37111333 -0.17693298 -0.07221124 0.013912856 -0.38538092 -0.36280724 -0.19677417
-0.17829853 -0.119742446 -0.31193385 -0.13462183 -0.40444025 -0.30956915 -0.09327539 -0.24487379
-0.23529628 -0.2969522 -0.1449859 -0.16529669 -0.427409 -0.25464576 -0.06505095 -0.42071202
-0.18768235 -0.32911998 -0.18501484 -0.09909537 -0.20161295 -0.12836601 -0.28114334 -0.041023254
-0.16115491 -0.2040902 -0.23365416 -0.18234085 -0.32702053 -0.36756536 -0.33887395 -0.29690254
-0.46776962 -0.20789023 -0.3819805 -0.16283411 -0.3465905 -0.27075556 -0.20047855 -0.42660847
-0.21972595 -0.49555477 -0.47533914 -0.14760251 -0.050065648 -0.15937795 -0.26801726 -0.26986805
-0.31329855 -0.02547526 -0.028040532 -0.24376161 -0.16004667 -0.20047091 -0.17394473 -0.23207392
-0.15244386 -0.31126234 -0.2983071 -0.16119543 -0.15203358 -0.39673448 -0.3971891 -0.17809229
-0.3599068 -0.050319258 -0.31375933 -0.18661517 -0.44909906 -0.19933867 -0.20216373 -0.1771967
-0.06802242 -0.38683042 -0.363111 -0.21881066 -0.32917315 -0.23894134 -0.5776432 -0.25389203
-0.18371099 -0.41213694 -0.62612045 -0.31969723 -0.25102627 -0.36712554 -0.20773453 0.015629116
-0.2411418 -0.100987 -0.0678371 -0.07676084 0.006020306 -0.2546587 -0.23599917 -0.32139271
-0.32665372 -0.29272693 -0.04890014 -0.31415635 -0.29695454 -0.3153857 -0.215714 -0.15412149
-0.33676356 -0.15661305 -0.36176458 -0.33754936 -0.2187106 -0.16397241 -0.057619803 -0.15635271
-0.31885207 -0.38005146 -0.0732722 -0.16978648 -0.20255421 -0.36463216 -0.3145185 -0.10184464
-0.19639905 -0.35350204 -0.04203911 -0.4250306 -0.3740331 -0.25748962 -0.3117827 -0.24855167
-0.2512984 0.0027549048 -0.16199294 -0.15283327 -0.36719167 -0.21202284 -0.41130158 -0.28741476
-0.32364094 -0.13295425 -0.2888498 -0.37334284 -0.21895382 -0.16139135 -0.11183014 -0.26205
-0.082728505 -0.40164304 -0.408724 -0.3205139 -0.27727696 -0.25209787 -0.16181 -0.40644065
-0.37064317 -0.16247556 -0.1792727 -0.11236463 -0.2547494 -0.32382447 -0.14192371 -0.11564796
00000000: 7134 95bd bc6b 76be c9a8 75be 7d98 8ebe
00000010: 0c24 5fbe 6c9b a6be f329 8bbe 8c7d b2be
00000020: 2260 29be f960 25be 1fd9 a9be 5298 02bf
00000030: 4ccf b0be 5236 92be 0adf 96be a35a e6be
00000040: 31cc fabe 7666 2abe 5557 93be 7263 58be
00000050: 5345 f6bd 7a46 b7be b5ed 0fbe 5d64 cebe
00000060: ca5d 14be 190c 53be c459 bfbe cfd2 49be
00000070: 7321 ccbe 88c0 d7bd 5630 17be 2023 adbe
00000080: 840f 54be 8464 b5be 75e4 5fbe 286d c5be
00000090: a905 76be 2110 a4be ba26 75be fe59 6abe
000000a0: e90b 83be d62b 08be 611b 2bbe c44e acbe
000000b0: b31d 62be e51c aabe 0e31 1dbe 2406 9bbe
000000c0: 716a 6fbe eaf2 d9be 7bd6 12bf b2c9 4bbe
000000d0: 51d9 92be b332 20be 4f48 e6be 6eda bdbe
000000e0: 9be5 fabd 9d37 d6be 8ad0 c2be cccc 20bf
000000f0: 64a2 7cbe 9ed9 60be 761b cdbe 4e84 20be
00000100: 2fb4 c7be ea26 d4be 6ec2 98be 88b1 99be
00000110: fe3b a83c dbdf 00be 7255 24be 4d87 e1be
00000120: 062b b8be 269d 72be 9f54 6abe f492 02bf
00000130: 0f35 8fbe 61ef 97be 8cac f4bd 11c3 64be
00000140: d0e1 94be 530f aa3b 3752 0abe d95f cebe
00000150: 487a e7be 278b 09bf 6283 49be df45 c8be
00000160: 245d 89bd 9102 bebe eb2d 35be 7de3 93bd
00000170: bff2 633c a650 c5be dfc1 b9be 2b7f 49be
00000180: e493 36be 873b f5bd cbb5 9fbe 4eda 09be
00000190: cb12 cfbe d97f 9ebe 2b07 bfbd 32c0 7abe
000001a0: 82f1 70be 1e0a 98be 2f77 14be 8943 29be
000001b0: 5ad5 dabe ee60 82be 6f39 85bd 9167 d7be
000001c0: cd2f 40be 6a82 a8be 8874 3dbe 83f2 cabd
000001d0: a073 4ebe 6172 03be 05f2 8fbe 0008 28bd
000001e0: cb05 25be 05fd 50be 0943 6fbe 8fb7 3abe
000001f0: 3c6f a7be 8731 bcbe e380 adbe 9c03 98be
00000200: 807f efbe 2de1 54be f392 c3be fcbd 26be
00000210: 4f74 b1be 79a0 8abe 404a 4dbe 6d6c dabe
00000220: d7ff 60be 5bb9 fdbe a75f f3be 1d25 17be
00000230: a311 4dbd f933 23be 8f39 89be 252c 8abe
00000240: ab68 a0be 7eb1 d0bc 42b5 e5bc a59c 79be
00000250: 46e3 23be 3f48 4dbe 911e 32be c9a4 6dbe
00000260: 3e1a 1cbe c75d 9fbe b5bb 98be 6a10 25be
00000270: b1ae 1bbe c820 cbbe 5f5c cbbe d35d 36be
00000280: b445 b8be 911b 4ebd 10a5 a0be 0c18 3fbe
00000290: 50f0 e5be 701f 4cbe 0204 4fbe 0d73 35be
000002a0: 574f 8bbd a30e c6be afe9 b9be e70f 60be
000002b0: 6289 a8be 0aad 74be 6de0 13bf 23fe 81be
000002c0: bc1e 3cbe 9d03 d3be 6e49 20bf 5baf a3be
000002d0: 8486 80be e1f7 bbbe 5cb8 54be a208 803c
000002e0: e0ed 76be 46d2 cebd 2dee 8abd ca34 9dbd
000002f0: fd45 c53b a062 82be c4a9 71be 968d a4be
00000300: 283f a7be 4ee0 95be 834b 48bd 1ad9 a0be
00000310: 6d0a 98be 3c7a a1be 21e4 5cbe 06d2 1dbe
00000320: 466c acbe 2c5f 20be 3539 b9be 45d3 acbe
00000330: acf5 5fbe 62e8 27be be02 6cbd ed1a 20be
00000340: 9440 a3be 1b96 c2be bc0f 96bd 82dc 2dbe
00000350: 5f6a 4fbe 11b1 babe 9208 a1be ec93 d0bd
00000360: d51c 49be 38fe b4be 3431 2cbd 9c9d d9be
00000370: 4481 bfbe aed5 83be fba1 9fbe 5484 7ebe
00000380: 2faa 80be a28b 343b 7ae1 25be 5380 1cbe
00000390: 8c00 bcbe 841c 59be 1f96 d2be 0728 93be
000003a0: 44b4 a5be 2925 08be 1fe4 93be cb26 bfbe
000003b0: 6e35 60be c643 25be 3307 e5bd 6b2b 86be
000003c0: 906d a9bd 28a4 cdbe 4644 d1be 661a a4be
000003d0: 3ff7 8dbe f912 81be 85b1 25be fd18 d0be
000003e0: f1c4 bdbe fe5f 26be 4393 37be 6d1f e6bd
000003f0: 836e 82be 52cc a5be 7354 11be d6d8 ecbd

model.1.running_mean f4 [512]
0.0042729913 -0.105954275 -0.086481296 -0.31031764 0.025440607 -0.0027893793 0.11614208 -0.28274632
-0.2016249 0.25076985 0.21614665 -0.010160125 0.106322646 -0.4477998 0.0854843 -0.118785016
0.014345037 0.21647288 -0.009561533 0.25935283 -0.27016848 -0.010273872 -0.024560826 -0.1005714
-0.110761665 0.100407265 0.35427764 -0.123566955 -0.09859343 0.41658258 -0.1735224 -0.181049
0.11546978 0.41763192 0.04792522 0.18148682 0.26565462 -0.068369865 -0.46558622 0.32536522
0.120805345 0.15114218 0.042771026 -0.33898738 -0.25660586 0.08195153 -0.19272514 -0.69164246
0.007520955 0.04247504 -0.16152908 0.20786044 0.21357283 -0.08591584 0.111552365 -0.6473983
-0.13196112 -0.27372426 0.050579395 -0.081551574 0.4008603 -0.17830515 0.03444071 -0.2608219
0.29066426 -0.12096316 -0.31291342 0.2181627 -0.17917001 -0.09684481 -0.08366764 0.11532224
-0.22785884 0.096196815 -0.09236263 0.19026405 -0.26746312 -0.31317896 0.08331917 0.19409052
0.2686153 -0.17057669 0.046732634 0.061645202 0.12834224 -0.09782195 -0.0034890515 0.18975504
-0.039364066 -0.33606958 0.6258554 -0.053711653 -0.14175425 0.1733916 -0.068372086 -0.29038748
0.02120293 -0.020600906 -0.027283158 0.31432968 -0.12650055 -0.0842553 0.13142572 0.08028509
-0.37574974 -0.1433762 -0.1446577 -0.021564797 0.30239457 -0.33745563 -0.14096756 -0.1755524
0.11452888 0.21191612 0.08335919 -0.13524705 0.27591538 0.12396036 0.043354318 -0.18382433
-0.092529126 -0.10471797 0.5176721 0.21096767 -0.0742286 0.30922893 -0.0736332 -0.52764744
0.035553887 0.07146895 0.30175194 -0.1911192 -0.28347614 -0.29889557 -0.08554386 0.013400486
-0.11219045 0.27403817 -0.18335772 -0.24096763 -0.1307107 0.12908685 0.20813018 0.024053106
-0.21367806 -0.30579612 -0.14952546 -0.056718133 -0.23748364 0.08470402 0.470486 0.4337113
-0.12720315 -0.23434785 -0.36139014 0.009665206 0.36310172 -0.9860444 0.12200795 -0.2427964
0.013380511 -0.3095853 0.012488204 0.023090467 -0.1372653 0.43606088 0.040558614 0.24403042
0.13537578 -0.0038174768 0.14194265 0.2603835 -0.24515668 0.26311618 -0.015269851 -0.12049386
0.4378744 -0.19709703 0.0016302463 0.12545243 0.054668687 0.49992916 -0.024342902 -0.4156531
0.35582483 0.145161 -0.14759031 0.17597374 -0.08971741 -0.0666786 0.13366309 -0.38893098
0.20263304 0.32839137 -0.26686543 -0.18386625 -0.2496962 0.22125615 -0.22247636 -0.19292967
-0.2389327 0.13506326 -0.5354621 -0.045872245 0.20446041 0.0049584648 0.33544043 0.10555619
0.1825001 0.11034357 0.17651224 0.11800617 0.12786274 0.20464829 -0.24262612 0.3306089
0.4016043 -0.23802337 0.1301855 0.24317582 0.07017886 0.022402553 -0.20796455 -0.08843608
0.34980825 -0.0925896 0.02035076 0.10988376 0.20867342 -0.4568932 -0.13413787 0.2749459
0.20143808 0.020506402 -0.07208874 -0.44640785 -0.08707682 0.007477642 -0.52641296 0.07333469
0.3017972 -0.23007745 0.11992707 -0.14973225 0.28854254 0.24208564 0.43806666 0.015503079
-0.085472696 -0.002074496 -0.12733717 0.3162617 -0.467579 0.10381734 0.27908754 0.09532556
00000000: 7304 8c3b 8efe d8bd 1b1d b1bd f4e1 9ebe
00000010: d268 d03c 05ce 36bb e6db ed3d 20c4 90be
00000020: c276 4ebe e864 803e 8c55 5d3e a776 26bc
00000030: b0bf d93d 0446 e5be 6512 af3d 8f45 f3bd
00000040: 7207 6b3c 11ab 5d3e faa7 1cbc e5c9 843e
00000050: 8653 8abe be53 28bc c933 c9bc 61f8 cdbd
00000060: 03d7 e2bd 53a2 cd3d e163 b53e ac10 fdbd
00000070: 5aeb c9bd 504a d53e dbaf 31be e964 39be
00000080: 6c7b ec3d dad3 d53e 3c4d 443d aed7 393e
00000090: e203 883e 8005 8cbd 5161 eebe 4596 a63e
000000a0: cb68 f73d 04c5 1a3e ac30 2f3d c18f adbe
000000b0: d861 83be 34d6 a73d bd59 45be 7b0f 31bf
000000c0: 5872 f63b 4ffa 2d3d e167 25be 5ed9 543e
000000d0: d6b2 5a3e a5f4 afbd 9175 e43d e5bb 25bf
000000e0: d120 07be 9625 8cbe 572c 4f3d 8304 a7bd
000000f0: 903d cd3e a095 36be b411 0d3d 738a 85be
00000100: f2d1 943e 89bb f7bd 3036 a0be 0b66 5f3e
00000110: 5878 37be 9256 c6bd f159 abbd 112e ec3d
00000120: d453 69be d602 c53d 9e28 bdbd 94d4 423e
00000130: edf0 88be fe58 a0be 3ea3 aa3d aabf 463e
00000140: f287 893e a8ab 2ebe b86a 3f3d ae7f 7c3d
00000150: 266c 033e e056 c8bd 92a8 64bb 254f 423e
00000160: 373c 21bd 5011 acbe 0f38 203f c000 5cbd
00000170: 0728 11be 918d 313e aa06 8cbd abad 94be
00000180: c4b1 ad3c 3bc3 a8bc ee80 dfbc d2ef a03e
00000190: 5c89 01be 0b8e acbd 7794 063e 826c a43d
000001a0: 4562 c0be 36d1 12be 2621 14be a8a8 b0bc
000001b0: 76d3 9a3e fcc6 acbe cd59 10be 02c4 33be
000001c0: 1e8e ea3d 8a00 593e 39b8 aa3d 347e 0abe
000001d0: c844 8d3e eede fd3d 4c94 313d 723c 3cbe
000001e0: e97f bdbd 6076 d6bd 2986 043f e907 583e
000001f0: 2a05 98bd 4153 9e3e 01cd 96bd e713 07bf
00000200: f4a0 113d 505e 923d 3b7f 9a3e c0b4 43be
00000210: c923 91be d708 99be 9f31 afbd b68d 5b3c
00000220: 1bc4 e5bd bb4e 8c3e 20c2 3bbe 38c0 76be
00000230: 07d9 05be 582f 043e 1420 553e 050b c53c
00000240: 6cce 5abe 4f91 9cbe 341d 19be 4651 68bd
00000250: e92e 73be 4d79 ad3d 8ae3 f03e 680f de3e
00000260: 8b41 02be e2f8 6fbe 2108 b9be d05a 1e3c
00000270: 78e8 b93e 686d 7cbf 4edf f93d 9f9f 78be
00000280: ee39 5b3c f781 9ebe 539b 4c3c 3828 bd3c
00000290: 468f 0cbe 5f43 df3e ca20 263d 1ce3 793e
000002a0: f39f 0a3e a22e 7abb 6a59 113e fc50 853e
000002b0: 5a0a 7bbe 2ab7 863e 662e 7abc 7cc5 f6bd
000002c0: 1331 e03e ced3 49be fdad d53a 9a76 003e
000002d0: 46ec 5f3d b7f6 ff3e c46a c7bc 7cd0 d4be
000002e0: ac2e b63e 16a5 143e ea21 17be 7632 343e
000002f0: c3bd b7bd ca8e 88bd fade 083e f621 c7be
00000300: 097f 4f3e ea22 a83e 96a2 88be 6f47 3cbe
00000310: 5cb0 7fbe f990 623e d8d0 63be 5b8f 45be
00000320: c6aa 74be 064e 0a3e 0b14 09bf 89e4 3bbd
00000330: 125e 513e 9e7a a23b d9be ab3e d82d d83d
00000340: 4ee1 3a3e cffb e13d a0bf 343e 38ad f13d
00000350: 73ee 023e 528f 513e fb72 78be 9245 a93e
00000360: 149f cd3e 66bc 73be 594f 053e 1503 793e
00000370: efb9 8f3d 8f85 b73c a9f4 54be fa1d b5bd
00000380: 111a b33e 9e9f bdbd a3b6 a63c bd0a e13d
00000390: 7cae 553e e8ed e9be 705b 09be b6c5 8c3e
000003a0: c945 4e3e 0bfd a73c 43a3 93bd 928f e4be
000003b0: 5555 b2bd 0207 f53b 00c3 06bf 7f30 963d
000003c0: 2a85 9a3e 6c99 6bbe 539c f53d 6953 19be
000003d0: d9bb 933e 4ce5 773e 464a e03e a000 7e3c
000003e0: 4f0c afbd 44f4 07bb ad64 02be 0eed a13e
000003f0: 8466 efbe 309e d43d 90e4 8e3e 0c3a c33d

model.1.running_var f4 [512]
0.00342804 0.014587631 0.0069290325 0.013484077 0.024229852 0.017519705 0.008233599 0.011700366
0.0049903453 0.003945022 0.011766522 0.007158038 0.006433784 0.0076890863 0.0060007446 0.017374374
0.002117816 0.010065952 0.0056608636 0.004176176 0.01721511 0.0067956066 0.008888942 0.00488723
0.018237554 0.0033547715 0.009929451 0.010982076 0.0048737996 0.007250148 0.0024581465 0.0050879563
0.0030399438 0.010080702 0.005396266 0.020666787 0.0046590697 0.01098387 0.014047107 0.0047258404
0.003999806 0.0053733415 0.0031291498 0.012657071 0.012804703 0.0067318813 0.016356323 0.014598448
0.005828637 0.002661113 0.024057368 0.010916002 0.0044794963 0.0091693215 0.0035683087 0.013697402
0.004830121 0.014667431 0.0039261626 0.0053187064 0.023317412 0.0029067644 0.018694658 0.0101686595
0.0035336998 0.0021010865 0.016561517 0.01304331 0.0037868419 0.007467831 0.008963944 0.004535164
0.019033598 0.0030260694 0.008457357 0.0024841947 0.0144902095 0.012083649 0.0067803646 0.0053560445
0.0066917706 0.003263958 0.010427476 0.014337248 0.027141517 0.005205024 0.0042927326 0.004788327
0.010909388 0.0065729287 0.024760535 0.009491478 0.0040630014 0.0037526418 0.0027629368 0.008512451
0.0056984965 0.0070620314 0.007427243 0.0044866144 0.01727042 0.0040113665 0.010897825 0.0031312578
0.0050063482 0.00852645 0.012043696 0.008513537 0.0047437055 0.006755505 0.008118889 0.008319905
0.013409563 0.0034404024 0.0039010055 0.0021227086 0.009987106 0.013061194 0.004375216 0.0072622104
0.008020652 0.015098048 0.017520003 0.0068403934 0.022710953 0.0017399268 0.01512206 0.012258838
0.0037318168 0.00819035 0.0050235405 0.004031961 0.017839333 0.0087784575 0.0070880377 0.002460982
0.010108537 0.0035236585 0.0028594816 0.013518943 0.0048318007 0.0035699406 0.014735233 0.0054892837
0.0030040173 0.0049442737 0.016133975 0.0034767846 0.0032251505 0.007818845 0.010307825 0.012981356
0.023648035 0.009097416 0.019196799 0.0073707723 0.010567226 0.02599091 0.013351661 0.0073511405
0.011019905 0.005792772 0.016747316 0.015089979 0.006632611 0.019600606 0.0072262343 0.005138921
0.0058969217 0.0038621174 0.010498347 0.018907784 0.0039370055 0.0012339882 0.0032825498 0.00649283
0.009163773 0.021324923 0.0040257634 0.023022583 0.005331748 0.00985031 0.0045805136 0.004390562
0.009547059 0.009200127 0.0028571968 0.009918552 0.0033919183 0.0039244373 0.005277539 0.007196737
0.016405405 0.0045735342 0.0084937485 0.0026638687 0.012108284 0.0026643663 0.0018820517 0.00489734
0.011009569 0.009814752 0.008830148 0.011395147 0.017733967 0.004235175 0.0035232326 0.008980948
0.009633065 0.020964578 0.005598467 0.007608732 0.0041859588 0.0062583345 0.01870715 0.004202376
0.015356289 0.002335269 0.0077038785 0.017195607 0.005619595 0.0020035957 0.008082761 0.003679892
0.0062902085 0.0039101783 0.008698815 0.005679118 0.0048209694 0.005360581 0.013721178 0.018912097
0.022699233 0.007861079 0.011044721 0.024862671 0.002386116 0.00716954 0.008613049 0.019052003
0.0038926168 0.0038978604 0.0218207 0.0099440655 0.0063843937 0.0037090569 0.013385301 0.021072876
0.010086105 0.009411206 0.001956785 0.0055234446 0.0074646245 0.011885295 0.006600783 0.009986524
00000000: f8a8 603b f600 6f3c f00c e33b 51ec 5c3c
00000010: af7d c63c 7c85 8f3c 38e6 063c e4b2 3f3c
00000020: 0d86 a33b 3e45 813b 5fc8 403c fa8d ea3b
00000030: 7ed2 d23b bbf4 fb3b e5a1 c43b b454 8e3c
00000040: 0ecb 0a3b aaeb 243c c47e b93b 4ed8 883b
00000050: b406 8d3c aead de3b eda2 113c 0f25 a03b
00000060: ec66 953c badb 5b3b 23af 223c 2aee 333c
00000070: 65b4 9f3b a692 ed3b db18 213b dfb8 a63b
00000080: cb39 473b 8729 253c 29d3 b03b 654d a93c
00000090: 1cab 983b b1f5 333c d625 663c 39db 9a3b
000000a0: ce10 833b db12 b03b 6c12 4d3b 9b5f 4f3c
000000b0: d1ca 513c 1d97 dc3b b2fd 853c 542e 6f3c
000000c0: 27fe be3b 1166 2e3b f513 c53c 08d9 323c
000000d0: bdc8 923b ec3a 163c 49da 693b 116b 603c
000000e0: fe45 9e3b aa4f 703c 0aa7 803b 8b48 ae3b
000000f0: 2804 bf3c 6a7f 3e3b 8a25 993c 739a 263c
00000100: a595 673b 62b2 093b 05ac 873c 9bb3 553c
00000110: aa2c 783b b5b4 f43b 82dd 123c b79b 943b
00000120: 59ec 9b3c 0551 463b ba90 0a3c dfcd 223b
00000130: 5868 6d3c 7ffa 453c d22d de3b c281 af3b
00000140: a446 db3b 21e8 553b 01d8 2a3c c7e6 6a3c
00000150: e357 de3c e88e aa3b 0daa 8c3b 66e7 9c3b
00000160: 4abd 323c b961 d73b 9bd6 ca3c 2582 1b3c
00000170: ed22 853b e2ee 753b 6312 353b cf77 0b3c
00000180: 74ba ba3b 9d68 e73b 3b60 f33b 7304 933b
00000190: b27a 8d3c c871 833b ca8c 323c ca35 4d3b
000001a0: 4b0c a43b 86b2 0b3c ec52 453c 5d7c 0b3c
000001b0: 1671 9b3b 495d dd3b 1705 053c 3650 083c
000001c0: c9b3 5b3c 6078 613b 03a8 7f3b 241d 0b3b
000001d0: f5a0 233c 9efe 553c f95d 8f3b d6f7 ed3b
000001e0: 0e69 033c ce5d 773c 1c86 8f3c 6125 e03b
000001f0: 520c ba3c 410e e43a 84c2 773c 4bd9 483c
00000200: 7f91 743b d130 063c 839c a43b 8a1e 843b
00000210: cb23 923c 85d3 0f3c c542 e83b 6d48 213b
00000220: 479e 253c 2eed 663b 2466 3b3b 8f7e 5d3c
00000230: 1554 9e3b aaf5 693b 0c6c 713c 73df b33b
00000240: 0cdf 443b 9303 a23b 662b 843c c4da 633b
00000250: 0c5d 533b 9d1a 003c 27e2 283c c1af 543c
00000260: 86b9 c13c 540d 153c 9b42 9d3c 8586 f13b
00000270: 2922 2d3c e4ea d43c edc0 5a3c d6e1 f03b
00000280: d58c 343c 4bd1 bd3b ab31 893c f63b 773c
00000290: 6056 d93b 7391 a03c 0cca ec3b 6564 a83b
000002a0: f73a c13b 941b 7d3b 4201 2c3c 7fe4 9a3c
000002b0: ff01 813b c6bd a13a 0c20 573b cec1 d43b
000002c0: a623 163c 9bb1 ae3c 8dea 833b db99 bc3c
000002d0: f2b5 ae3b 3263 213c 2218 963b b4de 8f3b
000002e0: 456b 1c3c 21bc 163c cf3f 3b3b 6c81 223c
000002f0: f24a 5e3b 9198 803b 35ef ac3b 9bd2 eb3b
00000300: a164 863c 96dd 953b 5d29 0b3c 4d94 2e3b
00000310: d361 463c a69c 2e3b 2daf f63a de79 a03b
00000320: 7b61 343c 0ece 203c 53ac 103c b6b2 3a3c
00000330: d346 913c 39c7 8a3b 09e6 663b d324 133c
00000340: 01d4 1d3c e8bd ab3c 5873 b73b ac52 f93b
00000350: 5e2a 893b b712 cd3b bd3f 993c 16b4 893b
00000360: f298 7b3c 500b 193b d170 fc3b cddd 8c3c
00000370: 9424 b83b c24e 033b 8f6d 043c 582a 713b
00000380: 181e ce3b f420 803b 7985 0e3c e517 ba3b
00000390: 39f9 9d3b d0a7 af3b cbce 603c 8bed 9a3c
000003a0: bef3 b93c c1cb 003c ebf4 343c cdac cb3c
000003b0: 6260 1c3b 76ee ea3b bf1d 0d3c f212 9c3c
000003c0: 461b 7f3b 3f73 7f3b 53c1 b23c 6fec 223c
000003d0: 2d34 d13b a613 733b 064e 5b3c 06a1 ac3c
000003e0: 3140 253c 7531 1a3c 683d 003b 03fe b43b
000003f0: cf99 f43b 8aba 423c 624b d83b 849e 233c

model.4.weight f4 [256, 512]
-0.032459322 0.015251575 0.013636347 0.057740644 -0.0004399297 -0.0035373948 0.009494508 -0.041156266
-0.0414559 0.006251469 -0.041644778 -0.025662685 -0.034979086 0.009155339 -0.059422158 -0.0264666
-0.03511821 -0.09853941 -0.047657013 0.030110417 -0.000567587 -0.015051698 0.0032591876 -0.02122958
0.005006959 -0.037917152 -0.015567653 0.03385375 -0.028857213 0.018414408 -0.015683874 0.032219008
0.011535814 0.010688976 -0.007031319 -0.012191909 0.016917914 -0.060950294 -0.030152652 0.0550071
-0.011933076 -0.01904784 0.039238118 0.0073621147 -0.019580882 0.058800895 0.013826739 -0.08787023
-0.03436666 0.04469678 -0.020065796 -0.038411092 -0.06213261 -0.052804794 -0.07921755 0.0280204
-0.023546308 0.025477964 -0.007128746 -0.047070537 -0.03332426 -0.08015262 -0.0021786338 0.010833011
-0.019876022 -0.09093674 -0.012736374 0.013099138 -0.011845257 0.018009275 -0.0065122214 0.015775139
-0.011086599 -0.019502224 -0.008706411 0.0035681748 -0.01939699 -0.016656142 -0.025264278 -0.044498075
-0.04060835 0.006877471 0.047829557 -0.038735032 -0.008985816 -0.08693077 -0.013332947 0.0056154355
-0.024404718 -0.020805836 0.033768617 0.02953805 -0.020980503 0.074268535 -0.015263271 -0.013641179
0.028230716 -0.10507811 0.043424487 0.054717034 0.048714843 -0.015685055 -0.07964235 -0.043110207
0.060641497 0.024852574 -0.0014606137 -0.023657084 0.01932875 -0.08295814 0.01322682 -0.02171896
-0.010916552 -0.03549252 0.024009796 -0.006984466 0.028714 0.021020435 -0.033498008 0.0010421313
-0.0055144597 0.029913984 -0.036298405 -0.040304195 0.0190824 -0.011325249 -0.00040324227 0.024621742
-0.06995964 0.008919207 -0.06410652 0.053763576 0.025273176 -0.00033559912 -0.00077441393 0.036552597
-0.021724975 -0.0050038807 -0.11399109 -0.032164093 -0.0014712047 0.03147848 0.011127742 -0.095409594
-0.04714755 -0.008552322 -0.045971863 -0.040971734 0.04026733 -0.02841106 0.01839885 -0.019618645
0.005148887 -0.03825888 0.026744688 -0.040751707 0.012474574 0.045372996 0.015816335 0.011903473
0.020024277 -0.004947972 0.014886436 0.013835614 -0.0012382985 0.024787309 -0.033529215 -0.09606037
0.0030652937 -0.039504256 -0.002316714 3.7107242e-05 0.024015084 -0.029795855 -0.01781127 0.0054752044
-0.05541948 0.04058082 -0.03289479 0.0010203794 0.046237096 0.00091907114 -0.038765114 0.0211702
0.013373311 0.025673926 -0.024341388 -0.0054964926 0.047059078 -0.08343603 -0.021591868 0.0031116386
0.004002546 0.045214664 -0.0510994 0.021741072 -0.012229529 -0.045621876 0.02038518 -0.021558799
0.0077916975 -0.042468283 0.045674242 0.016447047 -0.053178582 -0.047182236 -0.014077937 0.018840732
0.030322015 0.009955911 0.0035951626 -0.053812325 -0.006168936 0.006294404 -0.05946391 0.01695352
0.010990695 0.0419326 -0.017813208 -0.02667001 0.012437976 -0.04569051 0.0045322333 0.004562096
0.010201924 0.0011215518 -0.05501581 -0.0018561106 0.02426362 0.04006515 -0.012572835 -0.013619691
0.039273545 -0.0076954337 0.010385462 0.007231311 -0.028052084 -0.033894703 -0.0052975477 0.039671317
0.022810386 -0.0023937693 0.011042284 0.0036380005 -0.01888154 0.013744833 -0.019093942 -0.004420284
0.021887947 0.011539646 -0.010807899 -0.033957474 -0.08110193 0.036649033 -0.027306745 -0.011186228
00000000: 11f4 04bd bee1 793c fc6a 5f3c 7481 6c3d
00000010: 5da6 e6b9 a3d3 67bb da8e 1b3c 7993 28bd
00000020: a9cd 29bd 1fd9 cc3b b793 2abd 8d3a d2bc
00000030: 3b46 0fbd 4600 163c a664 73bd 7cd0 d8bc
00000040: 1dd8 0fbd 08cf c9bd 0034 43bd 1faa f63c
00000050: 1eca 14ba 669b 76bc 1898 553b a8e9 adbc
00000060: 6b11 a43b 044f 1bbd 780f 7fbc 3baa 0a3d
00000070: f665 ecbc d0d9 963c 787b 80bc 14f8 033d
00000080: b600 3d3c d120 2f3c fb66 e6bb 93c0 47bc
00000090: 7097 8a3c 04a7 79bd b202 f7bc 204f 613d
000000a0: f382 43bc 370a 9cbc 26b8 203d e53d f13b
000000b0: 1668 a0bc 35d9 703d 8c89 623c 4ff5 b3bd
000000c0: 0ec4 0cbd f913 373d 0661 a4bc f354 1dbd
000000d0: c37e 7ebd d749 58bd d03c a2bd 0a8b e53c
000000e0: 30e4 c0bc 2ab7 d03c 4198 e9bb 09cd 40bd
000000f0: 057f 08bd 0f27 a4bd 69c7 0ebb f17c 313c
00000100: 0ad3 a2bc 0b3d babd 39ac 50bc c49d 563c
00000110: 9c12 42bc 3088 933c 7964 d5bb dd3a 813c
00000120: 91a4 35bc 21c3 9fbc 56a5 0ebc 0ad8 693b
00000130: 70e6 9ebc 7672 88bc 08f7 cebc 9d43 36bd
00000140: f154 26bd 695c e13b ede8 433d a0a8 1ebd
00000150: 3e39 13bc c208 b2bd 6f72 5abc b001 b83b
00000160: 67ec c7bc 0071 aabc f650 0a3d c8f9 f13c
00000170: 4edf abbc 1a1a 983d cc12 7abc 407f 5fbc
00000180: 1a44 e73c 3133 d7bd e0dd 313d f81e 603d
00000190: 3789 473d f27d 80bc 871b a3bd 5494 30bd
000001a0: 3863 783d a097 cb3c 1072 bfba 80cc c1bc
000001b0: 5457 9e3c f5e5 a9bd 4eb5 583c f6eb b1bc
000001c0: 56db 32bc 9b60 11bd 31b0 c43c f3dd e4bb
000001d0: 9f39 eb3c 0c33 ac3c 3535 09bd 2098 883a
000001e0: a4b2 b4bb 2c0e f53c a3ad 14bd 0316 25bd
000001f0: b152 9c3c 8a8d 39bc 436a d3b9 89b3 c93c
00000200: 0047 8fbd de21 123c 474a 83bd 3237 5c3d
00000210: b109 cf3c 5af3 afb9 0a02 4bba 2db8 153d
00000220: 93f8 b1bc 98f7 a3bb 2974 e9bd 7fbe 03bd
00000230: 70d5 c0ba 94ef 003d 2251 363c 1b66 c3bd
00000240: ca1d 41bd 0a1f 0cbc fe4c 3cbd fad1 27bd
00000250: 5bef 243d 50be e8bc 2fb9 963c 48b7 a0bc
00000260: ffb7 a83b 58b5 1cbd ad17 db3c 43eb 26bd
00000270: 2862 4c3c 09d9 393d 4291 813c c906 433c
00000280: f409 a43c 9922 a2bb 3de6 733c c5ae 623c
00000290: 674e a2ba c10e cb3c ee55 09bd 4dbb c4bd
000002a0: 18e3 483b 37cf 21bd 03d4 17bb 99a3 1b38
000002b0: 48bb c43c 7016 f4bc f1e8 91bc 5869 b33b
000002c0: 89ff 62bd 1338 263d b0bc 06bd 40be 853a
000002d0: 1c63 3d3d d2ed 703a 2bc8 1ebd 216d ad3c
000002e0: bb1b 5b3c 2052 d23c 9767 c7bc ec1b b4bb
000002f0: 05c1 403d 82e0 aabd 6ee1 b0bc a2ec 4b3b
00000300: ca27 833b 0333 393d 9b4d 51bd 551a b23c
00000310: 5d5e 48bc 01de 3abd d2fe a63c 149c b0bc
00000320: 7f51 ff3b 39f3 2dbd ea14 3b3d f5bb 863c
00000330: c9d1 59bd 2942 41bd 26a7 66bc e157 9a3c
00000340: e065 f83c 1e1e 233c d29c 6b3b 506a 5cbd
00000350: c924 cabb 4a41 ce3b 6e90 73bd 1ce2 8a3c
00000360: 5112 343c 85c1 2b3d 01ed 91bc 117b dabc
00000370: a7c8 4b3c f925 3bbd 2183 943b a37d 953b
00000380: f825 273c 0901 933a 4258 61bd bd48 f3ba
00000390: 80c4 c63c 5b1b 243d 4bfe 4dbc 2025 5fbc
000003a0: 4cdd 203d fa29 fcbb c927 2a3c a2f4 ec3b
000003b0: 7ccd e5bc 2cd5 0abd 0d97 adbb 647e 223d
000003c0: d9dc ba3c c9e0 1cbb b2ea 343c 856b 6e3b
000003d0: 76ad 9abc 0232 613c e66a 9cbc 08d8 90bb
000003e0: 5a4e b33c c910 3d3c 9d13 31bc fe16 0bbd
000003f0: c518 a6bd 4c1d 163d 65b2 dfbc 7146 37bc

model.4.bias f4 [256]
-0.0003628102 -0.052749045 -0.06857413 0.07865102 -0.08997948 0.00902887 -0.077326834 -0.03886095
-0.0052258503 -0.055281032 -0.092305414 -0.05473995 0.06658334 0.007393612 -0.05991961 -0.055405248
-0.057697184 -0.049323034 0.0480175 0.04318485 -0.109060325 -0.10044151 0.042785134 0.07664197
-0.08987628 -0.06738192 -0.18701766 -0.055891607 0.026266612 0.0029929527 0.07336249 -0.0811495
-0.05447201 -0.31510356 -0.115380555 -0.016924398 -0.041514188 -0.08980152 -0.10142865 0.002758263
-0.14583665 -0.2654556 -0.027167954 -0.076518066 0.017900633 -0.03998907 -0.031828757 -0.19820058
-0.07099839 0.012107197 0.04670315 0.15172659 -0.06030548 -0.06346965 -0.07884508 -0.10283111
-0.13768859 -0.08243645 -0.17922479 0.030057339 -0.0859704 -0.07423936 -0.047121175 0.035222933
-0.03871245 -0.060280226 -0.03552853 0.05172287 -0.073579915 -0.050333593 -0.08933076 -0.07523639
-0.0774838 -0.036301345 -0.0012898758 -0.052197486 -0.037538175 -0.051568482 -0.087100014 -0.12515523
-0.028244497 -0.12876913 -0.04893559 0.14786835 -0.07013247 -0.005248905 -0.04833145 0.024468688
-0.060759246 -0.10368915 -0.07986156 -0.10599051 0.03109322 -0.15471303 -0.053107187 0.03753457
0.12083895 0.1301648 -0.092698604 -0.13337398 -0.03263961 -0.08259264 -0.023359476 -0.24124287
-0.053048 -0.017189935 0.071668215 -0.13394074 -0.06734081 -0.030381441 -0.07507954 -0.04108054
-0.06987887 -0.10489148 -0.29737687 -0.008774076 -0.040084347 -0.07025844 -0.15584593 -0.0597116
-0.06265277 -0.00478318 -0.07020279 -0.16149601 -0.12124804 -0.03896115 0.011640269 -0.19810592
-0.10688326 -0.052544665 -0.08333324 0.15253557 0.13587277 -0.39541695 -0.029398633 0.061569475
-0.06660991 0.042888574 -0.063041605 -0.026159327 -0.062082898 -0.06785692 -0.23857284 -0.058949023
-0.06850823 -0.09673723 0.0095322365 0.1438181 -0.057757013 0.07498275 0.029010894 -0.009771885
-0.031632643 -0.07560492 0.0068713175 -0.03704769 -0.16936575 -0.07148128 -0.07978367 -0.06535491
0.12697522 -0.024808599 -0.096244566 -0.0020365852 0.00400721 -0.12212721 -0.0019062471 -0.06257935
-0.063126706 -0.043358028 -0.062289402 -0.028937973 -0.107979156 0.16191387 -0.079619475 0.005267342
-0.0357916 0.07185535 0.035299476 -0.055202805 0.0049809623 -0.14486946 -0.07210549 -0.26432827
-0.20424215 -0.030432465 0.15942757 -0.10920916 -0.11573126 0.09462291 -0.035549395 -0.0355263
-0.043005463 -0.054151397 0.07765236 0.0036618975 -0.07357581 -0.03284543 -0.01656369 -0.00829509
0.03360237 -0.26414946 -0.13524236 0.10466286 -0.011622961 0.13645345 0.050210793 -0.078770824
-0.046205405 -0.15353681 -0.0066177705 -0.0621224 -0.095205404 -0.060688864 -0.014092145 -0.039109845
-0.08052968 0.052304838 -0.022391506 -0.061346244 -0.03864631 -0.06528078 -0.03617026 -0.012137354
-0.22484016 0.009622038 -0.047146745 0.08419 -0.05427096 0.18710612 -0.034364857 -0.1159012
0.02038282 -0.18163398 -0.083838835 -0.07194147 0.005998861 -0.063306056 0.0021964468 -0.13111739
-0.058238238 -0.055538945 -0.0036390063 -0.09471801 -0.023923576 -0.043222193 -0.041352555 -0.08180296
-0.047391973 -0.028893178 -0.016994687 0.1195138 -0.08411048 -0.048464485 0.012792189 -0.13874798
00000000: 9037 beb9 620f 58bd 9870 8cbd c913 a13d
00000010: 2947 b8bd d3ed 133c 885d 9ebd a92c 1fbd
00000020: 9c3d abbb 5d6e 62bd 9f0a bdbd ff36 60bd
00000030: d95c 883d 1d46 f23b 446e 75bd 9df0 62bd
00000040: e253 6cbd f306 4abd 00ae 443d 99e2 303d
00000050: 055b dfbd 47b4 cdbd 773f 2f3d 77f6 9c3d
00000060: 0e11 b8bd 88ff 89bd 8f81 3fbe 99ee 64bd
00000070: 142d d73c 6a25 443b 133f 963d b631 a6bd
00000080: 0b1e 5fbd 4155 a1be a44c ecbd 09a5 8abc
00000090: c80a 2abd dce9 b7bd d3b9 cfbd f9c3 343b
000000a0: 3456 15be cce9 87be 548f debc 81b5 9cbd
000000b0: 59a4 923c 94cb 23bd df5e 02bd 18f5 4abe
000000c0: 9b67 91bd 445d 463c cd4b 3f3d 375e 1b3e
000000d0: e102 77bd 60fc 81bd 8879 a1bd 1e99 d2bd
000000e0: 3dfe 0cbe 71d4 a8bd b486 37be cf3a f63c
000000f0: 4011 b0bd ce0a 98bd 2202 41bd ec45 103d
00000100: f290 1ebd 66e8 76bd 5d86 11bd 5cdb 533d
00000110: 11b1 96bd 992a 4ebd 0cf3 b6bd 8915 9abd
00000120: d4af 9ebd b8b0 14bd 0d11 a9ba 08cd 55bd
00000130: a1c1 19bd 7939 53bd 7e61 b2bd b128 00be
00000140: 0161 e7bc 0edc 03be af70 48bd cd6a 173e
00000150: 9da1 8fbd 02ff abbb 33f7 45bd 8f72 c83c
00000160: b0de 78bd fa5a d4bd 758e a3bd 8d11 d9bd
00000170: 35b7 fe3c 186d 1ebe ec86 59bd d9bd 193d
00000180: 697a f73d ec49 053e c4d8 bdbd 3093 08be
00000190: 1db1 05bd 5426 a9bd 5f5c bfbc 5f08 77be
000001a0: dc48 59bd e8d1 8cbc c9c6 923d c327 09be
000001b0: fbe9 89bd 80e2 f8bc 4dc3 99bd 1144 28bd
000001c0: a71c 8fbd 58d1 d6bd c841 98be 24c1 0fbc
000001d0: 7c2f 24bd a8e3 8fbd 1396 1fbe 2794 74bd
000001e0: 1850 80bd 39bc 9cbb 7bc6 8fbd 365f 25be
000001f0: e450 f8bd ba95 1fbd d4b6 3e3c 47dc 4abe
00000200: 9ce5 dabd 1339 57bd 9eaa aabd 4932 1c3e
00000210: 3b22 0b3e 1774 cabe 67d5 f0bc 4630 7c3d
00000220: c76a 88bd eeab 2f3d f51b 81bd 164c d6bc
00000230: a34a 7ebd 92f8 8abd 704c 74be 8874 71bd
00000240: 0b4e 8cbd 2b1e c6bd 192d 1c3c 0d45 133e
00000250: 9e92 6cbd 8e90 993d 41a8 ed3c 421a 20bc
00000260: 3b91 01bd c1d6 9abd ca28 e13b 52bf 17bd
00000270: 376e 2dbe c764 92bd 9f65 a3bd ccd8 85bd
00000280: cb05 023e 673b cbbc df1b c5bd 3b78 05bb
00000290: ea4e 833b d51d fabd 0adb f9ba 9a29 80bd
000002a0: 9348 81bd 3098 31bd 2c23 7fbd 540f edbc
000002b0: 2d24 ddbd c0cc 253e 890f a3bd ab99 ac3b
000002c0: 369a 12bd e628 933d 2f96 103d 561c 62bd
000002d0: 5737 a33b a958 14be 0bac 93bd 0956 87be
000002e0: db24 51be 814d f9bc fb40 233e 0da9 dfbd
000002f0: 8304 edbd a8c9 c13d 3e9c 11bd 0784 11bd
00000300: 7f26 30bd dbcd 5dbd 3308 9f3d 72fc 6f3b
00000310: eaae 96bd ee88 06bd 93b0 87bc 21e8 07bc
00000320: a4a2 093d 993e 87be f97c 0abe 7b59 d63d
00000330: 3b6e 3ebc 74ba 0b3e d5a9 4d3d 9952 a1bd
00000340: e141 3dbd c138 1dbe e2d9 d8bb 0f74 7ebd
00000350: 0dfb c2bd e394 78bd bde2 66bc a531 20bd
00000360: bfec a4bd 993d 563d 646e b7bc 3346 7bbd
00000370: 984b 1ebd eeb1 85bd 4427 14bd c1db 46bc
00000380: 803c 66be c1a5 1d3c f21c 41bd cf6b ac3d
00000390: 3a4b 5ebd bf98 3f3e 2ac2 0cbd 9c5d edbd
000003a0: dff9 a63c 42fe 39be b2b3 abbd 0d56 93bd
000003b0: 1892 c43b 9ba6 81bd 43f2 0f3b a343 06be
000003c0: 388b 6ebd ce7c 63bd 657c 6ebb 84fb c1bd
000003d0: 60fb c3bc c109 31bd 4c61 29bd 4f88 a7bd
000003e0: 161e 42bd 63b1 ecbc 7138 8bbc a7c3 f43d
000003f0: 1e42 acbd b282 46bd 5496 513c f313 0ebe
