models/three_layers/threeLayerModel_emu_corrCut_0.8.pt (torch, 684453 bytes, 6 tensors)

model.0.weight f4 [512, 74]
0	0xbcf803fa	-0.030275334
1	0xbc50fe4d	-0.0127559425
2	0x3dd2502a	0.10269196
3	0xbdc2c851	-0.095108636
4	0x3d00ecaa	0.0314757
5	0xbc43af07	-0.011943585
6	0xbdcdc885	-0.10048012
7	0xbca4b505	-0.020105848
8	0xbdb0ddb2	-0.08636035
9	0xbde73ed7	-0.112912826
10	0xbdf15bb8	-0.11785072
11	0xbd0c02cd	-0.03418236
12	0x3d6c31b4	0.057664588
13	0xbd8c4f18	-0.068510234
14	0xbd8345b2	-0.06409778
15	0x3d3378af	0.043816265
16	0x3d43c3c3	0.047794115
17	0xbdd7dc46	-0.10540061
18	0x3dff0d78	0.12453741
19	0x3dee9e4b	0.11651286
20	0xbdca4d69	-0.09878046
21	0xbd85d375	-0.06534473
22	0x3d29d4dd	0.041462768
23	0xbc8fc5ad	-0.017550314
24	0xbde24326	-0.11047964
25	0xbdac843f	-0.084236614
26	0x3d1c7ac2	0.03820301
27	0xbd9de13b	-0.07708975
28	0xbd2a46b4	-0.041571334
29	0x3de8fd16	0.11376397
30	0x3ba9304f	0.0051632295
31	0x3ce3d4a9	0.027811365
32	0x3db63a1f	0.088978045
33	0xbce05ac6	-0.027387034
34	0x3b5f47d4	0.0034069913
35	0x3d306f80	0.043075085
36	0x3dd662d0	0.10468066
37	0x3d673003	0.056442272
38	0x3de1ace0	0.110193014
39	0xbcfbb4b6	-0.030725818
40	0xbdc3188d	-0.09526167
41	0x3d0739e6	0.0330142
42	0x3dd290cc	0.10281524
43	0x3cc99c95	0.024610797
44	0x3db2048b	0.08692273
45	0xbc0bebad	-0.008540076
46	0xbd750f54	-0.05982907
47	0x3c2573b8	0.01009839
48	0xbd42977a	-0.04750774
49	0xbd3449db	-0.044015747
50	0xbcbb32e2	-0.022851411
51	0x3dd7ca96	0.10536687
52	0xbdb2a09e	-0.087220415
53	0xbdceb02a	-0.100921944
54	0xbd9c8f85	-0.07644562
55	0xbdadc8a6	-0.08485536
56	0xbc04eeb1	-0.008113549
57	0x3de46860	0.111527205
58	0xbdc56eca	-0.09640272
59	0x3c78e1f9	0.015190595
60	0x3d86c956	0.065813705
61	0xbdbc66ea	-0.09199317
62	0xbde6b753	-0.11265435
63	0xbdf5cf08	-0.12002379
64	0x3bcc7b08	0.0062402524
65	0x3df1c181	0.11804486
66	0x3c8f192b	0.017468056
67	0xbdd385cc	-0.10328254
68	0x3cce288d	0.02516582
69	0xbdbba126	-0.09161596
70	0xbcb905df	-0.022585807
71	0xbe4786e7	-0.19485055
72	0xbe0cec8b	-0.13762109
73	0x3dbbf608	0.09177786
74	0xbde8bfda	-0.11364718
75	0x3d927fa8	0.07153255
76	0xbdd0ae7b	-0.101895295
77	0x3dcd0980	0.100115776
78	0xbdcc86e1	-0.099866636
79	0xbdd1bddc	-0.10241291
80	0xbbe78d6a	-0.0070664184
81	0xbd943dac	-0.072383255
82	0xbca3fe02	-0.020018581
83	0x3ccdb96b	0.025112828
84	0x3d90573c	0.07047889
85	0xbd6aa19f	-0.05728304
86	0xbd8ca89b	-0.068680964
87	0xbcee6e71	-0.029105397
88	0x3d80ba84	0.06285575
89	0xbd3cc834	-0.046089366
90	0xbda6b49a	-0.08139916
91	0x3d065890	0.032799304
92	0x3ddb8d3a	0.10720296
93	0x3cbbd90c	0.022930644
94	0xbd4f3ebc	-0.050596938
95	0xbd62abca	-0.055339612
96	0x3bb55c9f	0.005534723
97	0xbd4197bc	-0.047263846
98	0xbc548554	-0.012971241
99	0xbdc09710	-0.09403813
100	0xbca3a9a5	-0.019978354
101	0x3df66606	0.12031178
102	0xbdaf77b9	-0.08567757
103	0xbc9d3801	-0.019191744
104	0x3d2ffa9d	0.042963613
105	0xbc832f83	-0.016013866
106	0xbc517ef3	-0.012786615
107	0x3de25336	0.110510275
108	0x3d946665	0.07246093
109	0x3db70655	0.089367546
110	0xbdac0bb6	-0.08400671
111	0x3c729a97	0.014807365
112	0xbda78e20	-0.08181405
113	0x3dcdaf4e	0.10043202
114	0x3d9bc861	0.076065786
115	0xbcc89132	-0.024483297
116	0x3d7bee20	0.06150639
117	0x3db1360d	0.086528875
118	0xbda4dad9	-0.080495544
119	0x3d9d4c61	0.07680584
120	0xbca986f8	-0.02069424
121	0xbcb6aabb	-0.022298208
122	0xbd6fa6f1	-0.058508817
123	0x3da30bc1	0.07961226
124	0x3dcfa303	0.10138514
125	0xbd67488e	-0.056465678
126	0xbdc2853b	-0.09498068
127	0x3c9f2c97	0.019430442
128	0xbca14e60	-0.019690692
129	0x3bc3d5c7	0.005976412
130	0xbd34d549	-0.044148717
131	0xbc45a4b8	-0.012063198
132	0x3d0a62be	0.033785574
133	0x3dfdbc04	0.12389377
134	0xbdd5fe5e	-0.10448907
135	0x3d289ca2	0.041165
136	0x3d14503b	0.036209326
137	0xbdddc855	-0.10829226
138	0xbd001d53	-0.031277966
139	0x3d1b2b5f	0.03788316
140	0xbd8ba6b6	-0.06818907
141	0x3d3c5d27	0.045987274
142	0xbe116579	-0.14198865
143	0xbdac7fdc	-0.08422825
144	0x3de237cc	0.11045799
145	0xbe4a8533	-0.19777374
146	0xbd9b29af	-0.0757631
147	0xbbf215bf	-0.0073878462
148	0xbb7ac03a	-0.0038261549
149	0x3cf1d8c3	0.029522305
150	0x3dc5b7b3	0.096541785
151	0x3deaa479	0.11457152
152	0x3b46f32a	0.003035734
153	0xbc870475	-0.016481617
154	0x3ddc2cfe	0.10750769
155	0x3d6732bc	0.05644487
156	0x3a43d763	0.0007470755
157	0x3cbbeb29	0.022939282
158	0xbd994121	-0.074831255
159	0x3db86d81	0.09005261
160	0xbd1c487e	-0.03815507
161	0xbd181157	-0.03712591
162	0x3dd52ecd	0.10409317
163	0x3d22b522	0.039723523
164	0xbde4e54e	-0.11176549
165	0x3d22a06a	0.039703764
166	0x3cb965f6	0.022631627
167	0xbc810176	-0.015747767
168	0xbc1c1b2d	-0.009527964
169	0xbd019a62	-0.03164137
170	0x3c5acc99	0.013354444
171	0x3dae92f6	0.08524124
172	0xbe036b08	-0.12833798
173	0xbc6bb943	-0.014387432
174	0xbded6755	-0.11591975
175	0xbbf07103	-0.007337691
176	0xbd223c97	-0.039608564
177	0x3dc3c358	0.09558743
178	0xbd0132a3	-0.03154243
179	0xbde667ad	-0.11250243
180	0xbd8a0de1	-0.067409284
181	0xbd288ea7	-0.04115167
182	0x3d2b92bb	0.04188798
183	0xbd0c9099	-0.034317587
184	0xbe050c3e	-0.12992951
185	0x3aa29a12	0.0012405536
186	0x3d834bd9	0.06410951
187	0x3d8c8169	0.068606205
188	0xbd59e4fc	-0.053196892
189	0xbc5d9906	-0.013525253
190	0xbd4e6502	-0.050389297
191	0x3d983a8f	0.07433044
192	0xbcfc4aaf	-0.03079733
193	0x3d88bc3b	0.06676527
194	0x3d87d2e1	0.06632019
195	0xbc2a7e6c	-0.010406118
196	0xbbb2b348	-0.005453501
197	0x3cb959fa	0.022625912
198	0x3d1db9d8	0.038507313
199	0xbc6336f3	-0.013868081
200	0x3db69d05	0.08916668
201	0x3d4ad385	0.049518127
202	0x3d6d0e03	0.05787469
203	0xbd2be3e4	-0.04196538
204	0x3d79a650	0.060949624
205	0x3d81c437	0.06336253
206	0xbd80c0c1	-0.06286765
207	0x3d19887f	0.03748369
208	0xbcb52bd4	-0.022115625
209	0x3d56a233	0.05240078
210	0x3d697f43	0.05700613
211	0xbdd5419c	-0.104129046
212	0xbb9ce890	-0.004788466
213	0xbc31776e	-0.010831697
214	0xbd586817	-0.052833643
215	0x3d4a9cb5	0.049465854
216	0xbdf92a66	-0.1216629
217	0x3cbb7957	0.022885008
218	0x3cb09fbf	0.021560548
219	0x3df22102	0.11822702
220	0xbe256731	-0.16152646
221	0xbcf0a60e	-0.029376056
222	0x3a8423ea	0.0010081504
223	0xbd08be4f	-0.033384617
224	0xbc771a9b	-0.015082027
225	0x3c682fd9	0.014171564
226	0x3dc93131	0.09823836
227	0x3d872c6a	0.06600268
228	0x3cef0e47	0.029181613
229	0xbcf1abc8	-0.029500857
230	0xbd01ba6a	-0.03167192
231	0x3dd9d433	0.10636177
232	0xbdb14ae2	-0.08656861
233	0x3d84cc3d	0.06484268
234	0xbdec4f81	-0.11538602
235	0xbdb25ad9	-0.08708734
236	0xbd3e8220	-0.046510816
237	0xbd9126b8	-0.07087463
238	0xbd0efc55	-0.03490861
239	0x3d993fba	0.07482858
240	0xbd89fc26	-0.067375466
241	0xbcda0278	-0.026612505
242	0x3cdf1b54	0.02723471
243	0xbd9a9a63	-0.07548978
244	0xbdf1f4be	-0.11814259
245	0xbdf225be	-0.11823605
246	0x3cb633fb	0.022241583
247	0x3de47ae4	0.11156252
248	0xbda30cb8	-0.0796141
249	0x3ccec170	0.025238723
250	0x3e022c64	0.12712246
251	0xbd8d6d28	-0.069055855
252	0xbce7100a	-0.02820589
253	0xbc3bf0f3	-0.011471021
254	0x3dbba3d4	0.09162107
255	0xbdc559ff	-0.09636306

model.0.bias f4 [512]
0	0xbddcb6f5	-0.10777084
1	0xbdab2521	-0.08356691
2	0x3bca8767	0.006180692
3	0x3c8bc73f	0.017062781
4	0xbcb0e0c1	-0.021591546
5	0xbdb92ca2	-0.09041716
6	0x3d147060	0.03623998
7	0x3d909a92	0.07060732
8	0xbdc7403a	-0.09729047
9	0xbdfc7f7f	-0.123290055
10	0x3db9ba87	0.090687804
11	0x3db59e2a	0.08868058
12	0x3ce52799	0.027972983
13	0xbdff8ec8	-0.12478405
14	0x3c5870e6	0.013210511
15	0x3cbabe7d	0.02279591
16	0x3cc12f94	0.023582257
17	0x3d808019	0.06274433
18	0x3dc45d1f	0.09588074
19	0xbcd8ce04	-0.026465423
20	0x3d7b2a25	0.06131949
21	0x3c2f64ab	0.010705153
22	0xbdd84bd5	-0.10561339
23	0xbce4a82d	-0.027912224
24	0x3beb4fde	0.007181152
25	0xbd5e1493	-0.05421884
26	0xbd0762e3	-0.03305329
27	0x3de9e4bf	0.11420583
28	0x3db083c2	0.08618881
29	0x3dad940a	0.08475502
30	0xbd12c154	-0.035828903
31	0x3dd09269	0.101841755
32	0xbd9f6303	-0.07782557
33	0xbe004f6b	-0.12530296
34	0xbd920113	-0.07129111
35	0xbdb93aa2	-0.090443864
36	0xbdd5755f	-0.104227774
37	0xbc115c74	-0.00887214
38	0x3ce58b5d	0.028020555
39	0x3d0eb1f2	0.03483767
40	0xbd9314bc	-0.07181689
41	0x3d717f85	0.058959503
42	0x3d995d9f	0.0748856
43	0xbd8131e0	-0.06308341
44	0xbe060eb7	-0.13091551
45	0x3c98614e	0.018601086
46	0x3d14fdba	0.036374785
47	0xbd6151b3	-0.055009555
48	0x3d8e6b91	0.069541104
49	0x3d868e70	0.065701365
50	0x3d7225b3	0.059117984
51	0xbcbac7f1	-0.022800418
52	0xbdcdf266	-0.100559995
53	0x3c0ea807	0.008707053
54	0x3c83e54a	0.016100544
55	0xbd78ba7d	-0.060724724
56	0xbde7f99c	-0.11326906
57	0xbc414bf2	-0.011797892
58	0x3d93bc65	0.07213668
59	0x3d25e42c	0.040500805
60	0x3df332c6	0.11874919
61	0xbd5221c9	-0.05130175
62	0xbd9da907	-0.07698255
63	0xbdfe9e4e	-0.12432538
64	0xbd602d16	-0.054730497
65	0x3d9f9b14	0.07793251
66	0xbd9db8f4	-0.07701293
67	0xba682463	-0.00088555197
68	0x3d429a61	0.04751051
69	0xbda52864	-0.080643445
70	0xbc04c5b5	-0.008103778
71	0xbd677256	-0.056505524
72	0xbc9d5568	-0.019205764
73	0x3d526ccd	0.05137329
74	0xbdbbcb12	-0.09169592
75	0xbdada413	-0.0847856
76	0x3c103286	0.008801108
77	0xbc833815	-0.016017953
78	0xbd928a1e	-0.0715525
79	0xbd73bc31	-0.059505645
80	0xbd6cacc3	-0.057781946
81	0xbd7bf2c4	-0.061510816
82	0xbd0ebdf0	-0.034849107
83	0x3d5af89c	0.05345975
84	0xbd86d384	-0.06583312
85	0x3c5349bc	0.012895998
86	0xbd8298c9	-0.06376798
87	0xbd375f27	-0.04476848
88	0x3d698f9f	0.057021733
89	0xbdd1e2df	-0.1024835
90	0x3d6453fe	0.055744164
91	0x3d0e1824	0.03469099
92	0xbde39446	-0.11112265
93	0x3ddfeb53	0.109335564
94	0xbccaf233	-0.024773693
95	0xbc15ca4a	-0.009142468
96	0xbdadced3	-0.08486714
97	0xbdd07abf	-0.10179662
98	0x3dae92ac	0.08524069
99	0x3c297094	0.010341782
100	0x3c6e3480	0.014538884
101	0xbd08bac7	-0.03338125
102	0xbdedab7c	-0.11604974
103	0x3d2625eb	0.040563505
104	0x3d8610a2	0.06546141
105	0xbcebd703	-0.028789049
106	0x3cb5509e	0.022133168
107	0x3d3bd773	0.045859765
108	0xbd97c584	-0.0741072
109	0x3db85996	0.09001462
110	0xbcdb690e	-0.026783492
111	0xbd3d27f8	-0.046180695
112	0xbdb8d3c6	-0.090247676
113	0x3dafb655	0.08579699
114	0x3d84a044	0.06475881
115	0x3d978957	0.07399242
116	0x3c483572	0.012219774
117	0x3d4189bf	0.047250506
118	0x3d2fa606	0.04288294
119	0xbc563461	-0.013074012
120	0x3cb629de	0.02223676
121	0x3cb99858	0.022655651
122	0x3d55fec2	0.05224491
123	0x3da55f72	0.080748454
124	0x3dd25ae8	0.10271245
125	0xbd5a813e	-0.05334591
126	0x3d1fac52	0.038982697
127	0xbcecdb41	-0.028913142
128	0x3b36696f	0.002783384
129	0xbd321bbc	-0.04348348
130	0x3b864d35	0.0040985593
131	0xbd4a0238	-0.049318522
132	0x3cac8617	0.021060033
133	0xbbe7b353	-0.0070709377
134	0x3c38625f	0.011253922
135	0x3c4f60b6	0.012657335
136	0xbab65a2f	-0.0013912375
137	0x3d64f7c8	0.055900365
138	0x3d12ba26	0.035822056
139	0x3cfd9162	0.030953113
140	0xbda1d09a	-0.07901116
141	0xbdb13d76	-0.08654301
142	0x3db3b9d9	0.08775682
143	0x3dd3e5e7	0.10346585
144	0xbd6fd8b2	-0.058556266
145	0xbd9854f8	-0.074380815
146	0xbd9483fc	-0.072517365
147	0x3d17331d	0.03691398
148	0xbcfbe82c	-0.030750357
149	0x3ca172c0	0.019708037
150	0x3cae9a00	0.021313667
151	0x3cbd7f74	0.023132063
152	0x3da72ec6	0.08163218
153	0xba67e3ba	-0.00088458846
154	0xbded4157	-0.11584728
155	0xbd64ea1b	-0.055887323
156	0x3d1d501b	0.038406473
157	0x3d0c7d7e	0.034299366
158	0x3cab598d	0.020916725
159	0xbdcf3962	-0.10118367
160	0x3dc37839	0.09544415
161	0xbd19752a	-0.037465252
162	0xbdd0379d	-0.101668574
163	0x3d9c2a5e	0.076252684
164	0xbdab95ef	-0.08378207
165	0xbdac559c	-0.08414766
166	0x3d95051e	0.07276367
167	0x3d2d54f6	0.042317353
168	0xbd7ee671	-0.062231485
169	0xbc94bbd9	-0.018155979
170	0x3d321d56	0.04348501
171	0x3cd7935a	0.02631538
172	0x3bb4901f	0.0055103446
173	0x3ceedef6	0.02915905
174	0x3cb51ffd	0.02210998
175	0xbd273bcb	-0.040828507
176	0x3b9fb84a	0.004874264
177	0x3da50323	0.08057239
178	0x3d573d8b	0.052548926
179	0xbd5a6c16	-0.053325735
180	0x3cea57e5	0.028606365
181	0xba8063da	-0.0009795383
182	0x3e029987	0.12753879
183	0x3daf7095	0.08566395
184	0x3d24c0ff	0.040223118
185	0xbd8a818d	-0.06762991
186	0xbda7318e	-0.08163749
187	0x3c22e569	0.009942391
188	0xbdc7583d	-0.09733627
189	0xbddbedca	-0.10738714
190	0x3dd4842c	0.10376772
191	0xbd88c686	-0.0667849
192	0xbdc6bcc8	-0.09703976
193	0xbc5cdacc	-0.0134799
194	0xbdc8b1c9	-0.09799535
195	0x3dba3f0c	0.090940565
196	0x3d918f50	0.07107413
197	0x3db4677f	0.08808803
198	0xbc02ccda	-0.007983411
199	0x3d690562	0.0568899
200	0x3c79b273	0.0152402995
201	0x3b9ae10b	0.0047265342
202	0x3cada824	0.02119834
203	0x3cfa0ee6	0.030524682
204	0xbd7eae0c	-0.062177703
205	0xbdea9dad	-0.114558555
206	0xbda70751	-0.08155692
207	0xbd7b92f1	-0.06141943
208	0xbd10d0a1	-0.035355214
209	0x3d9ac59f	0.075572245
210	0x3da548b9	0.08070511
211	0xbdaf43c0	-0.08557844
212	0xbd2d0a41	-0.042246107
213	0xbcbc4ff5	-0.022987345
214	0xbbe7eb39	-0.0070776013
215	0xbd47d7ef	-0.048789915
216	0x3db3c4c4	0.087777644
217	0x3d9b3561	0.075785406
218	0xbd404bc2	-0.04694725
219	0xbd06c129	-0.032899056
220	0x3dbad779	0.091231294
221	0xbd4c6533	-0.0499012
222	0x3cd5c73c	0.026095979
223	0xbc983430	-0.018579572
224	0x3d1181ad	0.03552406
225	0x3d348e02	0.04408074
226	0x3bc60f0e	0.006044275
227	0x3c4ea5a2	0.012612732
228	0xbd2dfbd7	-0.0424765
229	0x3daca875	0.08430568
230	0xbbe9ad17	-0.0071312296
231	0x3de92a55	0.11385027
232	0x3d002499	0.031284902
233	0xbbca8be3	-0.0061812266
234	0x3d3662f1	0.04452795
235	0xbd9775cd	-0.073955156
236	0x3dc4e764	0.09614447
237	0x3d4b4d07	0.049634006
238	0x3d197f44	0.037474886
239	0x3d55d02b	0.052200478
240	0xbdc9868b	-0.09840115
241	0xbdc010b6	-0.09378187
242	0xbd765459	-0.060139034
243	0xbd80fed1	-0.06298602
244	0x3bfe3ee6	0.007758963
245	0xbdd1e713	-0.10249152
246	0x3d3ad12d	0.04560964
247	0x3cdf2977	0.027241452
248	0x3dceaf93	0.10092082
249	0xbdd9e430	-0.106392264
250	0xbc16f697	-0.009214065
251	0x3ccff988	0.02538754
252	0xbdff3bac	-0.124625534
253	0x3c09045a	0.008362854
254	0x3b76a430	0.0037634484
255	0xbc7e14ba	-0.015507871

model.2.weight f4 [256, 512]
0	0xbc9c0af8	-0.019048199
1	0xbbf5872d	-0.007492921
2	0x3c511a6d	0.012762648
3	0x3c85afc9	0.016319172
4	0x3bf9b12e	0.0076199984
5	0xbc9fd84b	-0.019512316
6	0x3c108b65	0.008822297
7	0x3cca512b	0.024696907
8	0xbc292308	-0.0103232935
9	0xbd1e6da6	-0.038678788
10	0xbd1fabc5	-0.03898217
11	0x3d52c0b4	0.051453307
12	0xbd3596ef	-0.044333395
13	0x3cc0a984	0.023518331
14	0x3bf6073c	0.0075081866
15	0xbd636421	-0.055515412
16	0x3ce56a71	0.028004857
17	0x3c8ba1c2	0.017044906
18	0x3d26728e	0.04063659
19	0xbd16ce7e	-0.03681802
20	0xbc1e07e6	-0.009645438
21	0xbd52c195	-0.051454145
22	0xbcd892c2	-0.026437167
23	0xbc12895d	-0.008943883
24	0x3d5c7cdf	0.053830024
25	0x3d59e831	0.05319995
26	0x3d68cd58	0.056836456
27	0xbd35fbee	-0.044429712
28	0x3c0f3548	0.008740731
29	0xbd07a6a5	-0.03311791
30	0xbd6ce647	-0.057836797
31	0x38bff02d	9.152326e-05
32	0xbb4718f6	-0.0030379868
33	0xbd80745a	-0.06272192
34	0xbcb6eaf0	-0.022328824
35	0xbc054941	-0.008135141
36	0x3cd8f966	0.02648611
37	0xbc8d74cd	-0.017267609
38	0xbd531eda	-0.051543094
39	0x3ba3c494	0.004997799
40	0x3d353d87	0.04424813
41	0xbcc91757	-0.024547262
42	0xbcadda37	-0.021222217
43	0x3cef9c53	0.029249346
44	0xbc357d54	-0.011077244
45	0xbc9b74e8	-0.018976644
46	0x3d1a1f18	0.03762731
47	0xbcc3679c	-0.023853116
48	0xbc8a198b	-0.016857883
49	0x3c817a21	0.015805306
50	0x3d34d7af	0.044151004
51	0x3cb9fbd0	0.022703081
52	0xbc978b72	-0.01849911
53	0x3d454c7c	0.048168644
54	0xbb28bf31	-0.0025748725
55	0x3d089cba	0.03335259
56	0x3c5c03fd	0.013428685
57	0x3cda95e0	0.026682794
58	0x3d5946f9	0.0530462
59	0xbd32588b	-0.043541472
60	0xbc28ac3e	-0.010294972
61	0xbd529962	-0.05141581
62	0xbda5c20d	-0.08093653
63	0x3bbb9e42	0.005725653
64	0x3d1fa420	0.03897488
65	0x3c65f806	0.014036184
66	0x3c6b8fdf	0.014377563
67	0xbba79714	-0.0051144455
68	0xbcc84870	-0.024448603
69	0xbca3180e	-0.019908931
70	0xbcb888fe	-0.02252626
71	0xbd9a5339	-0.07535405
72	0xbd439a29	-0.04775444
73	0xbd2c37f1	-0.042045537
74	0x3d1708f9	0.03687379
75	0x3c92f3f0	0.017938584
76	0x3a85d294	0.0010209852
77	0xbae01d1f	-0.0017098523
78	0xbcd555c7	-0.026041878
79	0x3c070b14	0.008242387
80	0xbc4e537b	-0.0125931455
81	0x3d1b0a17	0.03785142
82	0xbce2f19b	-0.027703097
83	0xbd2d19a4	-0.04226078
84	0xbca2b164	-0.019859977
85	0x3c1f2358	0.009713016
86	0xbb9eb9ac	-0.004843911
87	0x3cb3a8fb	0.021931162
88	0xbbeef1e8	-0.007292021
89	0x3c2a9c05	0.0104131745
90	0x3c364923	0.011125836
91	0x3cb97c3a	0.022642244
92	0xbcf66e12	-0.030081782
93	0x3c2185d8	0.009858571
94	0xbc7e9f53	-0.015540916
95	0x3bfe1d93	0.0077549904
96	0xbd4ff311	-0.050768916
97	0xbd30675a	-0.043067314
98	0xbc99c072	-0.018768523
99	0xbd074fe2	-0.033035167
100	0x3ab4439a	0.0013753057
101	0xbb08e644	-0.0020889202
102	0xbc8bedec	-0.017081223
103	0xbc9a46bf	-0.018832562
104	0xbdabc08b	-0.08386334
105	0xbd86af52	-0.065764084
106	0x3d0ff684	0.035147205
107	0x3cc39d70	0.023878783
108	0x3dca056a	0.09864314
109	0x3a183574	0.0005806305
110	0x3bc49bec	0.0060000326
111	0x3d70fbf6	0.05883404
112	0x3ca87cc5	0.020567307
113	0xbd1373e9	-0.035999212
114	0xbd6c3783	-0.057670128
115	0x3d0b02b3	0.03393812
116	0xbcd91a9f	-0.026501952
117	0xbd337c44	-0.04381968
118	0xbcc5abab	-0.02412971
119	0x3c313f87	0.010818369
120	0xbda3cb72	-0.079977885
121	0x3ddc05c6	0.10743289
122	0xbc38d3ca	-0.011280963
123	0xbcf165ef	-0.029467551
124	0xbc012c00	-0.007884026
125	0x3d180b21	0.03711999
126	0x3bb85489	0.0056253118
127	0x3d128e44	0.035780206
128	0x3cdd19f7	0.02698992
129	0xbd62f184	-0.05540611
130	0xbc986c35	-0.018606285
131	0xbe089d74	-0.13341314
132	0xbd163708	-0.036673576
133	0xbd2497b9	-0.040183757
134	0x3d041f4c	0.03225641
135	0xbcc66114	-0.024216212
136	0x3c9cd6e9	0.019145446
137	0xba80bda2	-0.000982214
138	0xbc4e924e	-0.012608124
139	0x3bafef0f	0.005369074
140	0xbce6f081	-0.028190853
141	0xbceca63a	-0.028887857
142	0x3b3441f6	0.0027505136
143	0x3cbdbd3b	0.023161521
144	0xbc46772f	-0.0121133765
145	0x3cca6eeb	0.024711093
146	0x3cee1a5f	0.02906531
147	0xbc641e0b	-0.013923178
148	0xbd4b4a13	-0.04963119
149	0x3cdaf528	0.026728228
150	0x3adf35e8	0.0017029615
151	0x3cd92732	0.026507948
152	0xbbf55e32	-0.0074880356
153	0xbc609dbe	-0.013709484
154	0xbb3b1466	-0.0028546094
155	0x3cee4e26	0.029089998
156	0xbc83f461	-0.01610774
157	0xbc03f4f5	-0.008054008
158	0xbc826489	-0.01591708
159	0xbc085600	-0.008321285
160	0x3b477720	0.0030435994
161	0xbb4b1e28	-0.0030993316
162	0xbd129d3e	-0.03579449
163	0xbbdc19ae	-0.0067169284
164	0x3d37d0e3	0.044876944
165	0xbce49adc	-0.027905874
166	0x3b0a41a2	0.002109625
167	0x3d1e2a36	0.038614474
168	0xbcc14edf	-0.023597179
169	0xbd16d965	-0.036828417
170	0xbd23f77d	-0.040030945
171	0xbd2a0b28	-0.041514546
172	0xbd15d208	-0.036577255
173	0x3ccf60a0	0.02531463
174	0x3c29fb52	0.010374861
175	0x3c617e6f	0.013763054
176	0xbd1a41b6	-0.037660323
177	0xbcb3f934	-0.021969415
178	0xbba6d1a3	-0.0050909086
179	0xbd871b92	-0.065970555
180	0x3d055288	0.03254941
181	0xbd7530bc	-0.05986093
182	0x3cdf8a36	0.027287584
183	0x3d758438	0.059940547
184	0xbd8b625d	-0.06805871
185	0x3d28fb65	0.041255374
186	0xbba154ee	-0.0049234545
187	0x3b86951c	0.0041071307
188	0xbcc23ea6	-0.023711514
189	0x3c947edd	0.0181269
190	0xbd30e120	-0.043183446
191	0x3d64bec9	0.05584601
192	0xbcde0dd4	-0.027106203
193	0x3c1874fb	0.009305234
194	0x3dac7fe2	0.08422829
195	0x3b4c2cf7	0.003115473
196	0xbd0c481d	-0.03424846
197	0x3d318cc6	0.043347143
198	0x3d1bb236	0.038011752
199	0xbdb84836	-0.08998148
200	0xbbf564f3	-0.0074888407
201	0xbcd60d7e	-0.02612948
202	0x3c4a2c0e	0.012339605
203	0xbcc28200	-0.02374363
204	0x3d64cfe4	0.055862322
205	0xbd08f892	-0.03344018
206	0xbbd6802d	-0.0065460415
207	0x3c69722f	0.014248415
208	0xbd8cd117	-0.06875818
209	0xbd4a353c	-0.049367175
210	0xbd32041e	-0.043460958
211	0x3c31d666	0.010854339
212	0x3c5fe1c0	0.013664663
213	0x3d147480	0.036243916
214	0xbbac4296	-0.005256961
215	0xbd3ed3f0	-0.046588838
216	0xbcb1988e	-0.021679189
217	0xbcb42b14	-0.021993198
218	0xbb8a33bb	-0.0042175925
219	0xbc5d16f4	-0.013494242
220	0xbc55d0bc	-0.013050254
221	0xbc7256db	-0.014791216
222	0x3bdda01d	0.0067634718
223	0x3cb091af	0.021553842
224	0x3cf2c7f7	0.029636366
225	0x3be7edb1	0.0070778956
226	0xbcbe7663	-0.02324981
227	0x3d46e8d7	0.048561897
228	0xbd0430e6	-0.032273196
229	0x3cf00e3d	0.029303664
230	0xbd91920b	-0.071079336
231	0xbd2a204d	-0.04153471
232	0x3c0a6846	0.008447712
233	0x3b72d73e	0.0037054564
234	0xbb867ec4	-0.004104467
235	0x3ba6b1f4	0.0050871316
236	0x3bc4499b	0.00599022
237	0x3c1bb171	0.009502755
238	0xbb92fdd5	-0.0044858255
239	0xba73689f	-0.0009285304
240	0xbcae13cd	-0.021249676
241	0x3c94be9d	0.018157298
242	0xbd848be6	-0.06471996
243	0xbd2ec99b	-0.042672735
244	0xbc128d59	-0.008944833
245	0x3c7c0589	0.015382179
246	0xbce50206	-0.027955066
247	0xb9ce9be8	-0.0003940754
248	0x3d8aa0d1	0.067689545
249	0x3cbed616	0.023295444
250	0x3d378ff2	0.04481501
251	0x3d101387	0.035174873
252	0x3c7070e9	0.014675357
253	0x3acbbe0a	0.0015544307
254	0xbc4f7320	-0.012661725
255	0xbb010054	-0.0019684033

model.2.bias f4 [256]
0	0x3d231f68	0.039824873
1	0x3cb86a60	0.022511661
2	0xbd255d2e	-0.040372066
3	0x3d085a1c	0.03328906
4	0xbb59481d	-0.0033154555
5	0x3c90436c	0.017610274
6	0x3d0b6256	0.034029327
7	0xbca309af	-0.019902078
8	0xbd2eba37	-0.042658057
9	0x3d0921d2	0.03347952
10	0xbbf4c7fa	-0.007470128
11	0xbbe1757f	-0.0068804617
12	0x3c11d362	0.008900495
13	0x3cdbfa55	0.026852766
14	0xbc437473	-0.011929619
15	0x3c8dbf6d	0.017303193
16	0x3c69dcf7	0.0142738735
17	0x3a416a0a	0.0007378167
18	0xbcf4ffb4	-0.029907085
19	0xbc6074b5	-0.0136997
20	0x3d02447e	0.0318036
21	0xbc130e46	-0.008975571
22	0x3caa0149	0.020752566
23	0xbd2b8ada	-0.041880466
24	0x3c481e63	0.012214276
25	0x3ae473db	0.0017429547
26	0x3d92fc74	0.07177058
27	0xbcfc614b	-0.030808112
28	0xbb8d3ade	-0.004309996
29	0xbb8c2c3e	-0.004277735
30	0xbced95ee	-0.029002156
31	0xba13a130	-0.0005631624
32	0xbcf6b14f	-0.030113844
33	0x3c184bcb	0.009295414
34	0x3c1237c0	0.008924425
35	0xbce859c4	-0.028363116
36	0xbce7bc3c	-0.028288
37	0x3ca53031	0.020164581
38	0xbcedf460	-0.029047191
39	0xbd001aae	-0.031275444
40	0xbbc86172	-0.006115132
41	0xbcf4f450	-0.029901654
42	0x3c147f2d	0.009063524
43	0xbcb03c77	-0.021513207
44	0xbc1933e0	-0.009350747
45	0xbd28270e	-0.04105287
46	0xba6a7a68	-0.00089446316
47	0x3cb97b23	0.022641724
48	0xbd106e05	-0.035261173
49	0x3ac12731	0.0014736411
50	0xbb977b23	-0.0046228333
51	0xbc33942f	-0.010960623
52	0x3d275f3a	0.0408623
53	0xbce14c51	-0.02750221
54	0xbd06aa8e	-0.032877497
55	0xbca49713	-0.020091569
56	0x3cd24df7	0.025671942
57	0xbc97b1b3	-0.01851735
58	0xbcae3be7	-0.021268798
59	0xbd3c2f6c	-0.045943663
60	0x3cc41fdc	0.023940973
61	0xbc35abae	-0.011088295
62	0xbd2ccaed	-0.042185713
63	0xbcbdf7bc	-0.023189418
64	0xbc737ea0	-0.014861733
65	0x3d02eb53	0.031962704
66	0xbb2309bd	-0.002487763
67	0x3cef7471	0.029230328
68	0xbaa861ce	-0.0012846531
69	0x3d136a27	0.035989907
70	0xbc81b5f8	-0.01583384
71	0x3ca28063	0.01983661
72	0xbd366dad	-0.04453819
73	0x3c14d46e	0.00908385
74	0x3d235d17	0.0398837
75	0x3c84031d	0.016114766
76	0x3d575539	0.05257151
77	0xbc34ff5b	-0.01104721
78	0x3cd66bd2	0.02617446
79	0x3c68271e	0.0141694825
80	0x3bff7a8c	0.007796591
81	0xbc8bd955	-0.017071405
82	0xbca7dc83	-0.02049089
83	0xbd26eec8	-0.040755063
84	0x3d485677	0.048910584
85	0xbd0c9583	-0.034322273
86	0xbccd2b5e	-0.025045093
87	0xbaad4699	-0.0013219892
88	0xbd4e93e6	-0.050434016
89	0x3d301ce2	0.042996295
90	0xbce48a51	-0.027897986
91	0x3c1ba86a	0.009500602
92	0xbd2148fe	-0.03937625
93	0x3cfd8fc8	0.03095235
94	0x3c352bd9	0.011057817
95	0xbc54d436	-0.012990048
96	0xbd277f23	-0.04089273
97	0x3c114814	0.008867282
98	0xbbccf150	-0.0062543526
99	0xbcf2e69d	-0.02965098
100	0xbb329f3f	-0.0027255563
101	0x3d2cbcd4	0.042172268
102	0x3c89e1cd	0.016831303
103	0xbcece514	-0.028917827
104	0x3c484409	0.012223252
105	0xbc81f945	-0.015865931
106	0xbc09cc3c	-0.00841051
107	0x3a069a31	0.00051346706
108	0xbbb02130	-0.00537505
109	0x3cbc4aa8	0.022984818
110	0xbca94382	-0.020662073
111	0xbc490822	-0.012270005
112	0x3cdb1773	0.02674458
113	0x3d20b0eb	0.039231222
114	0x3c63bdf9	0.0139002735
115	0xbc93c1ea	-0.018036801
116	0xb7388e3a	-1.1000369e-05
117	0x3d0259ee	0.031824045
118	0x3cc442d5	0.02395765
119	0xbd3182da	-0.04333768
120	0xbc869d31	-0.016432377
121	0xbd006ad4	-0.03135188
122	0x3be2105b	0.0068989224
123	0x3d09e27f	0.03366327
124	0x3cc8ca33	0.024510479
125	0x3bf176ad	0.0073688836
126	0xbb919bf7	-0.0044436413
127	0x3ce49f61	0.027908029
128	0xbc69d077	-0.014270893
129	0xbcc55ee1	-0.024093093
130	0x3d10d222	0.03535665
131	0x3c51041b	0.0127573265
132	0xbd132320	-0.03592217
133	0xbccb600a	-0.024826068
134	0x3b8448e2	0.0040370086
135	0x3c1027b5	0.008798529
136	0xbd04a78b	-0.032386344
137	0xbce51900	-0.027966022
138	0xbd0cb6e3	-0.034354102
139	0x3d402716	0.046912275
140	0xbbbd6666	-0.005780029
141	0xbc748f83	-0.014926794
142	0x3d2bb76f	0.041922983
143	0x3cb3ec56	0.02196328
144	0x3c67f367	0.014157153
145	0x3bfd2dd6	0.0077264113
146	0x3d0613a3	0.03273357
147	0x3d14abd7	0.03629669
148	0xbc661626	-0.014043367
149	0x3d273d36	0.04082986
150	0x3d36b374	0.044604734
151	0x3c659eaa	0.014014879
152	0x3c81512b	0.015785774
153	0xbb7f3ccb	-0.0038946148
154	0xbbe67eb8	-0.007034149
155	0x3cab835b	0.020936659
156	0xbc18d709	-0.009328612
157	0xbce3cd18	-0.027807757
158	0xbd0a9cdc	-0.033841
159	0x3d046544	0.032323137
160	0xbbeb6fc4	-0.0071849544
161	0x3d110b40	0.03541112
162	0xbc89cf73	-0.016822552
163	0x3d30b298	0.04313907
164	0xbb184d77	-0.0023239532
165	0x3cc20c7d	0.023687596
166	0xbd4755eb	-0.048665922
167	0xbd03cd4d	-0.032178212
168	0x3adfad2a	0.0017065157
169	0x3c71a6a0	0.014749199
170	0x3d03fc5d	0.032223094
171	0x3c90ce7c	0.017676584
172	0xbc753e80	-0.014968514
173	0x3d246660	0.040136695
174	0xbcf1aa41	-0.029500129
175	0xbcce9160	-0.025215805
176	0x3cce44a1	0.02517921
177	0x3b7619de	0.003755204
178	0x3b218cc8	0.0024650563
179	0x3ce3adf3	0.027792906
180	0x3c035f3a	0.008018309
181	0x3ccc10a5	0.02491028
182	0x3d416bfa	0.047222115
183	0x3cd5e39f	0.026109515
184	0xbd309011	-0.043106142
185	0xbbf999cb	-0.0076172105
186	0xbcf2317e	-0.029564615
187	0x3c9a34cf	0.01882401
188	0x3d1476c1	0.036246065
189	0x3c9f3c62	0.019437972
190	0x3d2e85b8	0.042607993
191	0x3d23bdfe	0.039976113
192	0x3c4c37bf	0.012464463
193	0x3cbf20f9	0.023331152
194	0x3c64c480	0.013962865
195	0x3d29e9a6	0.04148259
196	0xbc0f33bc	-0.008740362
197	0xbb73b5cd	-0.003718722
198	0xbc8914e4	-0.016733594
199	0x3cd3cad7	0.025853558
200	0x3d05bdae	0.032651596
201	0xbd31ea5a	-0.043436386
202	0x3d035398	0.032062143
203	0x3d25b020	0.04045117
204	0x3c6bd504	0.014394049
205	0xbd6e4d38	-0.05817911
206	0xbbe19452	-0.0068841362
207	0xbd522a9d	-0.05131017
208	0x3b69cfb0	0.003567677
209	0xbcf82179	-0.030289399
210	0xbd4ccd8f	-0.050000723
211	0x3c0b8417	0.008515379
212	0xbd491979	-0.04909656
213	0x3ce1ce9e	0.027564343
214	0x3ccdc743	0.02511943
215	0xbbbfd1f2	-0.005853885
216	0x3d08b13a	0.03337214
217	0x3cc09058	0.023506328
218	0x3d4a034e	0.049319558
219	0xbc0a258a	-0.008431802
220	0xbd14278e	-0.036170535
221	0xbcfd6f6c	-0.03093692
222	0x3d10598a	0.03524164
223	0xbc5e7d9b	-0.013579751
224	0x3cea63f3	0.028612113
225	0x3c964cfd	0.018347258
226	0x3ca135a2	0.019678894
227	0x3d28fe38	0.041258067
228	0x3bf5c440	0.0075002015
229	0xbd1734ff	-0.036915775
230	0x3d2a3c23	0.041561257
231	0x3cc0d89c	0.023540787
232	0xb9c2dbe9	-0.0003716641
233	0x3c5de873	0.01354419
234	0xbc33f131	-0.0109827975
235	0xbd20b466	-0.03923454
236	0xbd17fe44	-0.03710772
237	0x3d2875a5	0.04112782
238	0xbcdbe38e	-0.026841905
239	0x3c2efc53	0.010680276
240	0xbbb3acca	-0.0054832445
241	0x3c5729e5	0.013132547
242	0x3d24b91e	0.040215604
243	0x3d39f7e9	0.04540244
244	0xbcfb6c74	-0.030691363
245	0x3c07ec54	0.008296091
246	0x3cb867b4	0.022510387
247	0xbc3410e8	-0.010990359
248	0x3cafa199	0.02143936
249	0x3c53f3b1	0.0129365185
250	0x3c4f67b9	0.012659007
251	0xbbc943f4	-0.006142134
252	0xbca1fd1e	-0.019774016
253	0x3cf456ca	0.02982654
254	0x3c914dfc	0.017737381
255	0xbbca7053	-0.006177941

model.4.weight f4 [3, 256]
0	0x3cf9b2b8	0.030480728
1	0x3d8dceb5	0.06924192
2	0x3e01403e	0.12622163
3	0x3d656d91	0.056012694
4	0x3bf85229	0.0075781536
5	0x3d1a91c3	0.037736665
6	0x3b382a6e	0.0028101462
7	0x3c9dd4e2	0.01926655
8	0xbd450392	-0.048099108
9	0x3d6a1a48	0.05715397
10	0x3db49d63	0.08819082
11	0x3d68e3ea	0.05685798
12	0xbd00d9a8	-0.031457573
13	0x3d7a282b	0.061073463
14	0x3d61acee	0.05509656
15	0xbc59be29	-0.013289967
16	0xbd98acc7	-0.0745483
17	0x3c0e9b90	0.008704081
18	0xbe19613f	-0.14978503
19	0x3d1e1349	0.03859261
20	0x3ceb6423	0.028734272
21	0xbd72d693	-0.059286665
22	0x3b431715	0.0029768397
23	0x3c29430e	0.0103309285
24	0x3d293e8a	0.041319408
25	0xbd51272d	-0.05106275
26	0x3d2aad20	0.04166901
27	0xbd31ce37	-0.043409552
28	0x3b98eb06	0.004666689
29	0xbca11fb1	-0.019668432
30	0x3c2e0e19	0.010623478
31	0x3bdd4e52	0.0067537213
32	0xbe06f68c	-0.13179988
33	0x3d94e381	0.072699554
34	0xbd92fbb3	-0.07176914
35	0x3c9d4cc4	0.019201644
36	0xbc82da83	-0.015973335
37	0x3cee29b0	0.029072613
38	0x3d953414	0.07285324
39	0x3d03414e	0.0320447
40	0xbd695ee8	-0.056975275
41	0xbbefd86e	-0.0073195016
42	0xbbc2c7a5	-0.0059442096
43	0x3d761ced	0.06008618
44	0xbc11eabe	-0.008906065
45	0xbcee146c	-0.029062472
46	0xbe092645	-0.13393505
47	0xbc4e598c	-0.012594592
48	0xbc966ead	-0.018363321
49	0x3d3523d4	0.04422362
50	0x3daba44e	0.08380948
51	0x3cfe7cf0	0.031065434
52	0xbc6b58bd	-0.014364419
53	0x3cc6c4cd	0.024263764
54	0x3d47c737	0.04877397
55	0x3d203a2d	0.03911798
56	0xbc13054a	-0.008973429
57	0x3d4a7afe	0.0494337
58	0xbc1ea40d	-0.009682667
59	0xbd0a39af	-0.033746418
60	0x3d5de7f8	0.0541763
61	0x3d22b9b5	0.039727885
62	0xbd0b39ae	-0.033990555
63	0x3cb66cf1	0.022268744
64	0xbd525972	-0.051354833
65	0x3d876ffe	0.06613158
66	0x3ccce3ff	0.02501106
67	0xbd19e87a	-0.037575223
68	0x3d928f1d	0.07156203
69	0x3db6c04d	0.08923397
70	0xbd75d893	-0.060020994
71	0xbd3e71f9	-0.04649541
72	0xbdc68542	-0.09693386
73	0x3cf98fb2	0.030464027
74	0x3dbd2e5b	0.09237357
75	0x3ccfbe67	0.025359346
76	0x3d99abba	0.07503457
77	0x3b0ea4bd	0.0021765672
78	0xbcf8dabe	-0.030377742
79	0x3ccd0dd0	0.025031
80	0x3d095faa	0.033538498
81	0x3d62bc2d	0.05535524
82	0xbd64c051	-0.05584747
83	0x3bfc25cf	0.007694937
84	0x3d58e1c7	0.052949693
85	0x3d23fca0	0.040035844
86	0x3c9dc990	0.019261152
87	0x3cfdafc8	0.030967608
88	0xbd5a3840	-0.0532763
89	0xbd912085	-0.07086281
90	0x3e0c92e9	0.13727917
91	0x3c99c265	0.018769452
92	0x3df1c511	0.118051656
93	0xbd2d8445	-0.04236247
94	0xbe2265c8	-0.15859139
95	0x3dbaabed	0.091148235
96	0x3dbed6f2	0.09318341
97	0xbdcafa30	-0.09911001
98	0xbbdf605e	-0.006816908
99	0x3d907dd6	0.07055251
100	0x3df25364	0.11832312
101	0x3d3912d1	0.04518396
102	0xbcff68cc	-0.0311779
103	0x3cc50986	0.024052393
104	0xbd11c878	-0.035591573
105	0xbbe9b4e2	-0.0071321586
106	0xbd36fe9b	-0.044676404
107	0x3d34bbd7	0.04412445
108	0x3d11a8ea	0.03556148
109	0x3d0eade6	0.03483381
110	0xba7ea5ef	-0.0009714057
111	0x3cbeb9c9	0.023281949
112	0x3b661872	0.0035109785
113	0x3d490ada	0.049082614
114	0x3d117430	0.035511196
115	0x3c95e823	0.018299168
116	0xbd0c1839	-0.034202788
117	0xbc551d44	-0.013007466
118	0x3d4eeeab	0.05052058
119	0xbdff766c	-0.12473759
120	0xbe2d9e91	-0.1695502
121	0xbe41c9b2	-0.18924597
122	0x3d9fb3c6	0.07797961
123	0x3bbec4a1	0.00582178
124	0xbd0ba6c9	-0.034094606
125	0x3ce3fcd0	0.027830511
126	0xbd3a58e4	-0.04549493
127	0x3d166cc2	0.036724813
128	0x3c2778b9	0.010221654
129	0xbdbf92f6	-0.093542024
130	0x3d7da5a6	0.061925553
131	0x3d85b102	0.06527902
132	0xbd6304ad	-0.05542438
133	0xbd874084	-0.06604102
134	0x3cfdc6d9	0.030978607
135	0xbcfa7cd0	-0.030577093
136	0x3d64040f	0.055667933
137	0x3ca267f6	0.019824963
138	0x3e250458	0.16114938
139	0x3d815865	0.06315688
140	0xbd15093f	-0.03638577
141	0xba6d138d	-0.0009043746
142	0x3d93646d	0.07196889
143	0xbd3a7db8	-0.04553005
144	0x3b641cf6	0.00348073
145	0xbd060216	-0.032716833
146	0x3cc3f960	0.023922622
147	0x3db1127a	0.08646102
148	0x3c1c2c11	0.009531991
149	0xbd676cab	-0.05650012
150	0x3d17969d	0.03700887
151	0xbc2d4c5a	-0.010577286
152	0xbddcf1ce	-0.10788308
153	0xbcca48a9	-0.02469285
154	0xbd698c7c	-0.057018742
155	0x3e4115b0	0.1885593
156	0x3a3331f4	0.00068357517
157	0xbd6c2a7a	-0.057657696
158	0xbd03aa4f	-0.03214484
159	0xbd192cf2	-0.03739638
160	0x3d72542a	0.059162296
161	0x3d460f86	0.048354648
162	0xbce1f0c2	-0.027580623
163	0xbcb8844a	-0.022524018
164	0xbe18742e	-0.14888069
165	0xbdb5fc50	-0.088860154
166	0xba16a5a8	-0.00057467306
167	0x3d2bced4	0.041945294
168	0xbd5fbed3	-0.054625344
169	0x3d286e1e	0.04112064
170	0x3d6e523c	0.058183894
171	0xbbf5b2e6	-0.007498133
172	0x3d87b3f6	0.06626122
173	0x3d93731d	0.071996905
174	0x3dced3c8	0.10098988
175	0xbc4b5958	-0.012411438
176	0x3d823935	0.063585676
177	0xbc91f33a	-0.017816175
178	0xba82e497	-0.0009986338
179	0xbd2bdfbe	-0.041961424
180	0xbd93ffe7	-0.07226544
181	0x3d80a40b	0.06281289
182	0x3d1ba857	0.03800234
183	0xbd59a8c2	-0.053139456
184	0xbcc65d05	-0.024214277
185	0x3d8d80cc	0.06909332
186	0x3d12184a	0.035667695
187	0xbd551c58	-0.052028984
188	0x3d6306e3	0.05542649
189	0x3cae3a36	0.021267992
190	0x3b8d1fd4	0.0043067727
191	0xbc9f11a4	-0.019417591
192	0xbe195567	-0.14973985
193	0xbb14d721	-0.0022711235
194	0x3d322089	0.04348806
195	0xbe5d5f02	-0.21618274
196	0x3b2db36e	0.0026504654
197	0xbb0c91f0	-0.002144929
198	0x3d1d7dd1	0.038450066
199	0x3d560a96	0.05225619
200	0xbc0bc946	-0.008531874
201	0x3d37cfb3	0.04487581
202	0x3da4bcbb	0.0804381
203	0xbdbb01c5	-0.09131197
204	0xbe0a1461	-0.13484336
205	0xbe25d63b	-0.16195004
206	0x3b9e240a	0.0048260735
207	0xbcd0058f	-0.025393276
208	0x3d5bb033	0.053634834
209	0xbd74bed5	-0.059752304
210	0xbdbcc2ae	-0.0921682
211	0xbe46ce79	-0.194147
212	0xbcbe0806	-0.023197185
213	0x3d6158a6	0.055016182
214	0xbd5d33a6	-0.054004334
215	0xbcc0720e	-0.023491886
216	0x3e1c0116	0.15234789
217	0xbbf7bede	-0.007560595
218	0x3d33fbf8	0.043941468
219	0xbd8f0412	-0.06983198
220	0xbcadbb00	-0.021207333
221	0xbccdc8aa	-0.025120098
222	0x3d3149ae	0.043283157
223	0xbda0773f	-0.078352444
224	0x3d8ace82	0.067776695
225	0xbcce926f	-0.02521631
226	0xbdac8642	-0.08424045
227	0x3c6557ab	0.013997952
228	0x3c9d8057	0.019226236
229	0xbcc8d9b3	-0.02451787
230	0x3df76b7d	0.12081049
231	0xbe0d1db6	-0.13780865
232	0x3c88d762	0.016704265
233	0x3d9e26f1	0.07722271
234	0x3d43b20d	0.047777224
235	0xbd4096c6	-0.04701879
236	0xbc434865	-0.011919116
237	0x3cf0b28d	0.029382015
238	0x3daded7b	0.084925614
239	0x3d4f876c	0.050666258
240	0xbd5a11ee	-0.053239755
241	0x3db3b87c	0.08775422
242	0x3d35dd71	0.044400636
243	0x3d81ca31	0.06337393
244	0xbd00b291	-0.031420294
245	0xbd735e93	-0.059416365
246	0x3c5e5db3	0.013572144
247	0x3d951893	0.07280078
248	0x3bfa06af	0.0076301913
249	0x3d5f7c85	0.05456211
250	0x3d0cc704	0.034369484
251	0x3aa36a02	0.0012467506
252	0xbd5fca34	-0.054636195
253	0x3afe4573	0.001939936
254	0x3d1196f5	0.035544354
255	0x3ccb8d51	0.024847658

model.4.bias f4 [3]
0	0xbd3e9b84	-0.04653503
1	0xbd681b84	-0.056666866
2	0x3d3baa8d	0.045816947
