models/three_layers/threeLayerModel_ee_corrCut_-1.0_weights_true_drop_0.2_lorentz.pt (torch, 580927 bytes, 14 tensors)

model.0.weight f4 [512, 16]
0.04408989 -0.09555173 0.1890336 -0.13075826 -0.33038586 -0.48798302 -0.14672925 -0.05892788
0.024091804 -0.10088816 0.0871926 0.051081363 0.1184768 0.13001895 0.1199588 -0.35029784
0.11236721 -0.02119836 0.013110252 -0.016606478 0.21885408 -0.015293309 0.1121374 -0.1699001
-0.027600754 -0.05876353 0.0142946 -0.021579873 -0.21142606 -0.35307628 0.28692922 -0.02293302
0.15536734 -0.09165578 -0.039776914 -0.049544465 0.29097798 -0.24502978 0.07382524 0.055188455
-0.01009339 -0.11585528 -0.03248696 -0.11594619 -0.07102751 -0.27909294 -0.19331923 -0.059768282
-0.079204276 0.15027814 -0.035096962 -0.1440555 -0.3386742 -0.00893452 0.0965795 -0.43546402
0.13831453 -0.09818414 0.16183878 -0.08170573 -0.10215356 0.30315286 -0.010146961 0.21743716
-0.14879623 -0.18308909 -0.03526668 0.07491509 0.27582347 0.070085585 -0.18230672 -0.107983544
0.011709506 0.1680274 0.06676233 0.08387343 -0.20320253 0.2191424 -0.20795456 0.26034272
0.0041803974 0.0509897 -0.1690399 -0.205328 -0.19985087 0.036696743 -0.17293803 -0.11871931
-0.14960852 -0.20282732 -0.12826703 -0.20140794 0.039361555 0.3770642 -0.16929968 0.2620309
-0.13030806 0.17344804 0.0076386854 -0.13324384 0.18309432 0.021097062 -0.05669487 0.17298457
0.19570407 0.26296 -0.07489251 -0.1493379 -0.21052486 -0.14067976 0.028078128 0.28713003
0.29401428 -0.16246538 -0.13547824 -0.12860973 -0.18257302 -0.19370595 -0.27330104 0.16546187
-0.029741013 -0.103168406 -0.037340757 -0.07182912 0.20383433 -0.29557493 0.23986122 0.20237298
0.22690533 -0.015472526 -0.085039474 0.13819027 0.22242002 -0.37692916 0.023101551 0.36914185
-0.16775487 0.17353895 0.012044988 0.055132654 0.19433141 -0.030829556 0.050407544 -0.06337831
0.01720445 -0.12704876 0.06638631 -0.024206724 0.05299039 -0.5150851 0.0073720794 0.07255223
0.1555141 0.0105975615 0.045439817 -0.0014031916 -0.010277748 -0.27859408 0.22633502 0.1918767
0.31958988 -0.117574684 -0.07343077 0.0169181 -0.19136256 0.047838982 0.250519 0.009631333
-0.22683407 0.07457069 -0.08464181 0.045561314 0.18053576 0.13897602 0.3061306 0.0778002
-0.13205898 -0.084769115 -0.11047572 0.038399253 0.26838687 -0.16468865 -0.22651273 -0.11162243
-0.15606436 -0.17478165 0.20040952 0.10450748 0.17889589 0.11631393 -0.091183774 0.29601783
0.12481576 0.09095374 0.11610274 -0.07977457 0.12050348 -0.22735263 0.12697822 0.14613916
-0.07360382 -0.08101835 0.012032257 -0.0140998075 0.21510871 0.2522546 0.10038094 -0.3194708
0.05099911 -0.05640454 0.021387935 -0.025263827 -0.10402154 0.19762523 -0.09185626 -0.14393261
0.2082913 0.03426843 -0.091433026 0.03828852 -0.29725698 0.03345894 -0.1449181 -0.13230549
0.1260968 -0.1863249 -0.048205 0.0643907 0.21226986 -0.21814801 0.13866302 0.30327415
0.007673618 -0.0682076 -0.07869459 0.11733564 0.0012026047 -0.23189463 -0.3316451 0.032818563
0.14238648 -0.10488083 0.011301684 0.052361015 -0.264944 0.31568754 -0.15054849 -0.0029626547
0.008730145 -0.12646665 0.007902431 -0.026471045 0.031076059 0.24895531 0.108197756 -0.2748019
00000000: 9a97 343d a0b0 c3bd 0692 413e 7ee5 05be
00000010: 5628 a9be e9d8 f9be 3140 16be 5c5e 71bd
00000020: 2d5c c53c 749e cebd 0992 b23d b13a 513d
00000030: f7a3 f23d b023 053e f6ac f53d 3d5a b3be
00000040: c820 e63d 2fa8 adbc 62cc 563c 4f0a 88bc
00000050: 491b 603e ca90 7abc 4ba8 e53d 4bfa 2dbe
00000060: fa1a e2bc 07b2 70bd e633 6a3c 46c8 b0bc
00000070: 1380 58be 6ac6 b4be 63e8 923e 07de bbbc
00000080: 9e18 1f3e 07b6 bbbd 1eed 22bd 23ef 4abd
00000090: 11fb 943e 16e9 7abe b031 973d 4a0d 623d
000000a0: bf5e 25bc 8845 edbd 0c11 05bd 3275 edbd
000000b0: df76 91bd 45e5 8ebe 7af5 45be 96cf 74bd
000000c0: da35 a2bd 83e2 193e d5c1 0fbd 4983 13be
000000d0: b466 adbe 1862 12bc 79cb c53d 24f5 debe
000000e0: 53a2 0d3e c414 c9bd 11b9 253e 5555 a7bd
000000f0: e335 d1bd da36 9b3e 703f 26bc d9a7 5e3e
00000100: 0a5e 18be b57b 3bbe cb73 10bd 156d 993d
00000110: bc38 8d3e 0889 8f3d 9dae 3abe 7a26 ddbd
00000120: 3ad9 3f3c 600f 2c3e b0ba 883d d5c5 ab3d
00000130: 5314 50be de66 603e 0af2 54be a44b 853e
00000140: b7fb 883b 93da 503d cc18 2dbe 8141 52be
00000150: b5a5 4cbe 534f 163d ab16 31be 1c23 f3bd
00000160: fa32 19be f7b1 4fbe 6f58 03be e23d 4ebe
00000170: 9539 213d 8f0e c13e e55c 2dbe ea28 863e
00000180: 7a6f 05be 5d9c 313e f04d fa3b 1371 08be
00000190: 147d 3b3e bfd3 ac3c e138 68bd de22 313e
000001a0: a666 483e b1a2 863e 3f61 99bd 09ec 18be
000001b0: d493 57be 5b0e 10be 1a04 e63c b502 933e
000001c0: 0a89 963e 535d 26be cfba 0abe 45b2 03be
000001d0: 6cf4 3abe da5a 46be 1dee 8bbe d66e 293e
000001e0: 6da3 f3bc f549 d3bd 9ff2 18bd 251b 93bd
000001f0: f2b9 503e 9955 97be 2e9e 753e dd3a 4f3e
00000200: df59 683e 7a80 7dbc 2d29 aebd c081 0d3e
00000210: 13c2 633e dcfc c0be 773f bd3c 2900 bd3e
00000220: efc7 2bbe 32b4 313e 5758 453c c7d2 613d
00000230: d0fe 463e 448e fcbc 2478 4e3d 7dcc 81bd
00000240: 59f0 8c3c 1219 02be 8cf5 873d 2e4d c6bc
00000250: 740c 593d 9edc 03bf 7c91 f13b 4396 943d
00000260: 173f 1f3e 65a1 2d3c 1a1f 3a3d 4ceb b7ba
00000270: 0064 28bc e2a3 8ebe 5ec4 673e 537b 443e
00000280: 49a1 a33e ffca f0bd df62 96bd d497 8a3c
00000290: 8cf4 43be cff2 433d 0744 803e bdcc 1d3c
000002a0: 3147 68be 85b8 983d af58 adbd 809e 3a3d
000002b0: 5ede 383e bb4f 0e3e 26bd 9c3e b655 9f3d
000002c0: 783a 07be 6e9b adbd 1841 e2bd 8948 1d3d
000002d0: 016a 893e 24a4 28be f4f2 67be 4d9a e4bd
000002e0: 56cf 1fbe f6f9 32be 2738 4d3e 0508 d63d
000002f0: 7c30 373e ff35 ee3d 8fbe babd a68f 973e
00000300: 689f ff3d f445 ba3d 46c7 ed3d da60 a3bd
00000310: 87ca f63d 21cf 68be 9406 023e 81a5 153e
00000320: 99bd 96bd f3ec a5bd f222 453c e102 67bc
00000330: 7545 5c3e 8427 813e 8694 cd3d ad91 a3be
00000340: 71e4 503d 7208 67bd c035 af3c 16f6 cebc
00000350: 3f09 d5bd 455e 4a3e 231f bcbd 1263 13be
00000360: 514a 553e 0e5d 0c3d 3d41 bbbd 6cd4 1c3d
00000370: 1132 98be 3e0c 093d 6965 14be 177b 07be
00000380: 851f 013e f4cb 3ebe 9b72 45bd 45df 833d
00000390: 455d 593e 3162 5fbe aefd 0d3e c046 9b3e
000003a0: f972 fb3b 6db0 8bbd a12a a1bd ab4d f03d
000003b0: b8a0 9d3a c975 6dbe 63cd a9be c26c 063d
000003c0: c3cd 113e c3cb d6bd b32a 393c 8178 563d
000003d0: bda6 87be cca1 a13e 6229 1abe 1929 42bb
000003e0: e208 0f3c 7980 01be 3379 013c ced9 d8bc
000003f0: 3893 fe3c 24ee 7e3e c996 dd3d d6b2 8cbe

model.0.bias f4 [512]
0.105549015 0.108271636 0.089241855 -0.033073593 0.21299343 -0.18121715 0.2013325 -0.1739753
0.14296532 0.087699 -0.13370894 0.143842 -0.079216495 -0.18280026 0.09692567 -0.20952792
-0.052335545 -0.052485794 0.01201729 0.24412885 0.11481367 0.019168917 -0.019522974 -0.022009693
-0.24617511 0.24839707 -0.015224817 -0.22762662 0.10236643 0.055588234 -0.13477132 -0.078865826
-0.09023872 0.008275631 -0.1276088 0.12799065 0.23216216 -0.080560386 -0.11899447 -0.061189745
0.08434501 -0.005686121 0.124954715 -0.039152548 0.16973919 0.2233506 -0.22048153 -0.24428022
-0.1503218 -0.20651054 0.048689622 0.022654952 0.07328622 0.08991817 -0.06734828 0.15387681
-0.1141038 -0.06958561 -0.14210904 -0.13322033 -0.046179097 -0.16394155 -0.13308434 -0.11161816
-0.02879076 -0.012458987 -0.10486429 0.18960233 0.10174734 -0.07324077 0.23578456 0.24791439
0.019324556 -0.1966376 0.23302756 -0.2253938 -0.041757096 -0.07266646 0.1936058 0.122135706
-0.20851159 -0.104728825 0.06804462 0.101917945 -0.08836719 0.06218559 0.102424376 -0.06740554
0.18279837 0.06037564 -0.15708585 -0.18681788 0.17858116 0.23999023 0.07360867 -0.054450955
0.07526138 -0.11822187 -0.18784577 0.08401291 -0.0567259 -0.16489387 0.032621272 0.06368308
-0.20081648 0.027481768 -0.13657075 -0.22786133 0.1782124 -0.06812039 0.19594027 -0.1708032
0.17500667 -0.18180513 -0.17207891 0.24647531 0.22124308 0.026132317 0.007215903 -0.21660733
0.24515831 -0.0071694795 0.14645945 0.021679431 0.009660239 -0.08724262 -0.08678501 0.0047153924
-0.22808014 -0.17743708 0.2341663 -0.11780982 0.022774624 -0.015734885 0.045018557 0.11821727
-0.036710847 -0.14656647 0.06906228 -0.13162877 0.050715882 0.23799036 0.09453646 -0.23517819
0.22807519 -0.040612407 -0.09857612 0.19355884 -0.065755166 0.08174202 0.2293767 -0.015384171
0.06252746 -0.12697904 -0.05564931 -0.16743676 0.22254562 0.204795 0.23368052 0.15573007
0.2108747 -0.065379724 -0.13866709 -0.12269276 0.20886315 0.122933134 -0.086395964 -0.09061789
0.10889875 0.15789846 -0.016622115 0.0058981553 -0.07663048 0.069722936 0.15025999 -0.18422537
0.18844308 0.1253551 -0.17480746 -0.0885187 -0.08014377 -0.104436465 -0.03234652 -0.01963867
0.057406433 0.15107997 0.17307308 0.04920483 0.063119814 -0.21848711 -0.22129725 0.048244353
-0.025674304 -0.093825184 0.23840603 0.045290083 0.035427917 0.21984 0.16489518 0.17539564
0.1278805 0.2067248 0.04945465 -0.17241286 -0.09489455 0.08784806 0.07274568 -0.16096969
0.07263703 0.13379951 0.13065153 0.11860429 -0.22149862 0.04590018 -0.07910124 -0.016407901
0.030318886 -0.16384608 0.23539628 0.22407793 0.15457794 -0.23912096 -0.06598841 -0.18895142
0.03207659 -0.17196152 0.19698691 -0.111221634 0.24440357 0.085180625 -0.17174298 0.18199196
0.20009202 -0.01856446 0.20281732 -0.08881853 0.06846962 -0.044308405 -0.21642803 -0.22965156
0.012802483 0.18088646 0.23726137 -0.032313347 0.1511993 -0.14247642 0.2301961 0.18191496
0.2365815 0.22461797 0.038570527 0.0801576 -0.13607468 -0.067438684 -0.13460019 0.23335785
00000000: 152a d83d 85bd dd3d 6fc4 b63d 2d78 07bd
00000010: f31a 5a3e fd90 39be 1b2a 4e3e 9526 32be
00000020: 8065 123e 899b b33d ffea 08be 514b 133e
00000030: 423c a2bd fe2f 3bbe f780 c63d 7d8e 56be
00000040: cc5d 56bd 58fb 56bd 2be4 443c eafc 793e
00000050: 6e23 eb3d 2208 9d3c a5ee 9fbc ac4d b4bc
00000060: 5415 7cbe cd5b 7e3e 8371 79bc f416 69be
00000070: 7ea5 d13d 7db0 633d 7e01 0abe 6884 a1bd
00000080: 14cf b8bd 8396 073c e2ab 02be fb0f 033e
00000090: ebbb 6d3e d8fc a4bd 5fb3 f3bd 19a2 7abd
000000a0: 14bd ac3d a452 babb 42e8 ff3d 6c5e 20bd
000000b0: 1cd0 2d3e 05b6 643e e9c5 61be 9824 7abe
000000c0: f5ed 19be 8077 53be c56e 473d e196 b93c
000000d0: 1617 963d 0427 b83d e5ed 89bd e291 1d3e
000000e0: 41af e9bd e682 8ebd 0885 11be e96a 08be
000000f0: 4b26 3dbd 4be0 27be 4347 08be 1098 e4bd
00000100: 9ada ebbc c720 4cbc 17c3 d6bd 1d27 423e
00000110: e960 d03d 42ff 95bd 8271 713e 45dd 7d3e
00000120: 884e 9e3c 5e5b 49be c79e 6e3e a2cd 66be
00000130: 7d09 2bbd 27d2 94bd 9940 463e 4922 fa3d
00000140: 1084 55be 117c d6bd fa5a 8b3d 5bba d03d
00000150: dbf9 b4bd 51b6 7e3d dfc3 d13d ea0b 8abd
00000160: 7f2f 3b3e 724c 773d 1ddb 20be 304d 3fbe
00000170: fbdd 363e 00c0 753e 24c0 963d f707 5fbd
00000180: a322 9a3d 4f1e f2bd a45a 40be f60e ac3d
00000190: 6b59 68bd f0d9 28be e29d 053d 466c 823d
000001a0: d6a2 4dbe 7221 e13c 34d9 0bbe 7b54 69be
000001b0: 507d 363e b482 8bbd 91a4 483e 09e7 2ebe
000001c0: f334 333e 202b 3abe 7435 30be 0664 7c3e
000001d0: 8c8d 623e 7113 d63c 6273 ec3b 50ce 5dbe
000001e0: c80a 7b3e f4ed eabb 77f9 153e 1099 b13c
000001f0: fb45 1e3c 42ac b2bd 57bc b1bd 9483 9a3b
00000200: d78d 69be 11b2 35be 4ac9 6f3e 4646 f1bd
00000210: d991 ba3c 72e6 80bc 6165 383d e51b f23d
00000220: 1d5e 16bd 8515 16be 8670 8d3d b1c9 06be
00000230: 75bb 4f3d bfb3 733e 559c c13d 8dd2 70be
00000240: 8b8c 693e 3259 26bd 47e2 c9bd 4a34 463e
00000250: a5aa 86bd 5c68 a73d bae1 6a3e e40d 7cbc
00000260: 660e 803d cb06 02be 88f0 63bd 8b74 2bbe
00000270: 00e3 633e c8b5 513e f249 6f3e b477 1f3e
00000280: 8aef 573e cee5 85bd bffe 0dbe 5746 fbbd
00000290: 39e0 553e 5ec4 fb3d 5ef0 b0bd df95 b9bd
000002a0: 4f06 df3d 22b0 213e 1a2b 88bc 5045 c13b
000002b0: 71f0 9cbd e6ca 8e3d c1dd 193e 93a5 3cbe
000002c0: 39f7 403e 165d 003e ba00 33be 4b49 b5bd
000002d0: 6b22 a4bd c9e2 d5bd c97d 04bd 47e1 a0bc
000002e0: 0223 6b3d b5b4 1a3e 123a 313e 018b 493d
000002f0: f644 813d 16bb 5fbe bf9b 62be df9b 453d
00000300: eb52 d2bc 6b27 c0bd b620 743e 1882 393d
00000310: dd1c 113d bd1d 613e 48da 283e ea9a 333e
00000320: 1bf3 023e aaaf 533e f690 4a3d ff8c 30be
00000330: 1358 c2bd afe9 b33d b0fb 943d 3dd5 24be
00000340: b9c2 943d bd02 093e 84c9 053e cee6 f23d
00000350: 89d0 62be d401 3c3d d5ff a1bd dd69 86bc
00000360: 505f f83c 44c7 27be b90b 713e af74 653e
00000370: ae49 1e3e 20dc 74be ee24 87bd 7b7c 41be
00000380: be62 033d ae16 30be f0b6 493e 2bc8 e3bd
00000390: ee44 7a3e 2e73 ae3d 64dd 2fbe 1a5c 3a3e
000003a0: ece4 4c3e 7f14 98bc 58af 4f3e 7de6 b5bd
000003b0: cd39 8c3d bb7c 35bd 4f9f 5dbe c729 6bbe
000003c0: 81c1 513c 4d3a 393e a5f4 723e 005b 04bd
000003d0: fdd3 1a3e 57e5 11be 87b8 6b3e ea47 3a3e
000003e0: 6c42 723e 4102 663e 21fc 1d3d ab29 a43d
000003f0: 2957 0bbe 4b1d 8abd a2d4 09be 5cf5 6e3e

model.1.weight f4 [512]
0.99538755 1.0434248 1.0221056 0.9503113 0.99440205 0.92494774 0.90995646 0.95103055
0.987896 1.0640982 0.9390975 0.92675674 1.0172881 0.93578935 0.9810005 1.018782
0.97924346 0.9936178 0.95972735 0.9775317 1.004997 0.9831584 0.96908265 0.9778154
0.92664045 0.97903574 0.9990721 0.948342 0.9708922 0.9459131 1.0155681 0.94756013
1.0240548 0.9853198 0.9450918 0.9645474 1.0043713 0.9573068 0.9768 0.9235267
1.0259266 0.92976904 0.9526178 0.93910885 1.0249697 0.9845831 0.9528562 1.015504
0.93464774 0.9796092 0.92737305 1.0139717 1.0217146 1.008397 0.97028345 0.9615429
0.9729394 0.98286307 0.9476523 0.9416938 0.94943774 0.95093685 0.9529962 1.0340389
0.9529024 0.98821187 0.95298606 0.9909715 0.9397383 0.9909494 0.9742891 1.0289623
1.0128975 0.968757 1.0194252 0.99125093 0.93839574 1.0386661 0.9710542 0.92548996
0.98544425 0.99730164 0.98563325 0.9644615 1.0322902 0.9330667 0.9460075 0.9688091
0.9794676 0.98734725 0.97414076 0.93562144 0.9294488 1.0218034 0.986126 1.0045186
0.9745096 0.98816276 1.0453985 0.99415594 0.9819236 0.9693503 0.97070867 0.9361541
0.99015784 0.9750503 0.992874 0.93576086 1.0030352 1.011247 1.0141168 0.97580665
0.99631375 1.104763 0.9334761 0.9391535 0.9619449 0.92277384 0.9915723 0.9753074
1.0186825 0.89936733 0.9894656 0.9691271 0.9632061 0.9755019 0.9644159 0.94055045
0.97519475 1.0471275 0.94195426 0.9327743 1.0040005 1.0598116 0.9410875 0.99329996
0.97552615 0.9840296 0.9812097 1.0059028 0.9580999 0.9837066 0.92724866 0.93621486
0.986242 0.9612319 0.9888595 0.9537398 0.930109 0.98740274 0.9674749 0.950324
0.9986725 0.9388035 1.0078013 0.9155863 0.9496146 0.9445678 1.0157909 0.96376187
0.9919426 0.9473988 1.0150529 0.90706676 0.99390244 1.0011243 0.97807467 0.939736
0.9911342 0.96555316 0.93883866 0.9356711 0.9540608 0.9623219 0.9360098 0.9515393
0.9587462 0.9581132 0.98874384 0.98560244 0.915575 0.93876433 0.9769711 0.9338149
0.9326205 1.0333675 0.93527037 0.93531406 1.0027652 0.9792354 0.9783057 0.96516246
0.94707114 0.9492704 0.9737214 0.98286325 0.9742762 0.97637933 0.9273856 0.94236517
0.9356284 0.9688818 0.9877218 0.9266527 0.9139202 0.985506 1.0000708 0.9334145
1.0578122 0.9607934 0.8964882 0.98229253 0.98529196 0.97119063 0.93372643 0.94455296
0.9700328 0.9832089 0.9135957 1.0005692 0.9187281 0.9840869 0.9357417 0.96406406
0.93853647 0.9042355 0.96070683 0.99857175 0.96154577 1.0326605 0.9395047 0.97747236
0.9717172 0.9754277 1.0073845 0.9963804 0.92826504 0.9603025 0.9551863 0.9499905
1.0054141 0.99195915 0.965824 0.94099826 1.0336121 1.0412811 0.94661856 0.9641945
1.0076896 1.0064791 0.9746184 0.98504764 1.0059053 0.9971055 0.9708877 0.9922276
00000000: b8d1 7e3f f28e 853f 5bd4 823f 9a47 733f
00000010: 2291 7e3f 60c9 6c3f e8f2 683f bd76 733f
00000020: c1e6 7c3f 5f34 883f b268 703f ee3f 6d3f
00000030: 7f36 823f e48f 6f3f d922 7b3f 7367 823f
00000040: b3af 7a3f bc5d 7e3f b1b0 753f 843f 7a3f
00000050: bea3 803f 45b0 7b3f cd15 783f 1c52 7a3f
00000060: 4f38 6d3f 16a2 7a3f 30c3 7f3f 8bc6 723f
00000070: 648c 783f 5c27 723f 23fe 813f 4d93 723f
00000080: 3a14 833f eb3d 7c3f 89f1 713f 94ec 763f
00000090: 3d8f 803f 0f12 753f 910f 7a3f 3f6c 6c3f
000000a0: 9051 833f 5805 6e3f c3de 733f 7069 703f
000000b0: 3532 833f a30d 7c3f 62ee 733f 09fc 813f
000000c0: 1345 6f3f abc7 7a3f 5268 6d3f d3c9 813f
000000d0: 8bc7 823f 2713 813f 7f64 783f ad27 763f
000000e0: 8e12 793f ea9c 7b3f 5799 723f d812 713f
000000f0: 5a0e 733f 9970 733f 8ff7 733f 635b 843f
00000100: 69f1 733f 74fb 7c3f e5f6 733f 4fb0 7d3f
00000110: b092 703f dcae 7d3f 036b 793f 09b5 833f
00000120: a0a6 813f 7500 783f 867c 823f 9fc2 7d3f
00000130: b43a 703f 03f3 843f 0297 783f e9ec 6c3f
00000140: 1346 7c3f 294f 7f3f 7652 7c3f f3e6 763f
00000150: 1622 843f 76dd 6e3f 8c2d 723f e003 783f
00000160: 63be 7a3f cac2 7c3f 4a61 793f e384 6f3f
00000170: 5bf0 6d3f 74ca 823f c172 7c3f 1194 803f
00000180: 7679 793f 3cf8 7c3f 9ecf 853f 0181 7e3f
00000190: 585f 7b3f 5727 783f 5d80 783f cca7 6f3f
000001a0: fc7a 7d3f e59c 793f fe2c 7e3f 068e 6f3f
000001b0: 7563 803f 8b70 813f 94ce 813f 77ce 793f
000001c0: 6b0e 7f3f e068 8d3f 4af8 6e3f 5d6c 703f
000001d0: 0542 763f e83a 6c3f afd7 7d3f bfad 793f
000001e0: 3064 823f f03c 663f 9e4d 7d3f b718 783f
000001f0: ad94 763f 7eba 793f f6e3 763f eac7 703f
00000200: 5da6 793f 4608 863f ea23 713f 4cca 6e3f
00000210: 1783 803f e8a7 873f 1ceb 703f e848 7e3f
00000220: 15bc 793f 5de9 7b3f 8f30 7b3f 6cc1 803f
00000230: 0946 753f 32d4 7b3f 2b60 6d3f c7ab 6f3f
00000240: 5b7a 7c3f 4b13 763f e525 7d3f 4b28 743f
00000250: a01b 6e3f 6dc6 7c3f 6fac 773f 6f48 733f
00000260: 00a9 7f3f 6d55 703f a2ff 803f dd63 6a3f
00000270: f119 733f 32cf 713f 7005 823f 19b9 763f
00000280: f3ef 7d3f ba88 723f 41ed 813f 8735 683f
00000290: 6470 7e3f d724 803f 1a63 7a3f 8a92 703f
000002a0: f9ba 7d3f 7e2e 773f bb57 703f 2488 6f3f
000002b0: 543d 743f ba5a 763f 579e 6f3f 1498 733f
000002c0: 6470 753f e846 753f 511e 7d3f 7150 7c3f
000002d0: 2063 6a3f dc52 703f c71a 7a3f 7e0e 6f3f
000002e0: 38c0 6e3f 6345 843f e16d 6f3f be70 6f3f
000002f0: 9c5a 803f 2caf 7a3f 3e72 7a3f e314 773f
00000300: 4173 723f 6303 733f ce45 793f ed9c 7b3f
00000310: 2a6a 793f fff3 793f 2569 6d3f d83e 713f
00000320: 5885 6f3f a308 783f 56db 7c3f 1d39 6d3f
00000330: adf6 693f 1f4a 7c3f 5202 803f 41f4 6e3f
00000340: 6466 873f 8ef6 753f 4080 653f 8677 7b3f
00000350: 183c 7c3f f39f 783f b208 6f3f 39ce 713f
00000360: 1254 783f 94b3 7b3f 68e1 693f a712 803f
00000370: c431 6b3f 1eed 7b3f c58c 6f3f e7cc 763f
00000380: ed43 703f fa7b 673f e2f0 753f 66a2 7f3f
00000390: dd27 763f 382e 843f 6183 703f a13b 7a3f
000003a0: 75c2 783f a1b5 793f faf1 803f c912 7f3f
000003b0: c7a2 6d3f 62d6 753f 1787 743f 9432 733f
000003c0: 69b1 803f 09f1 7d3f 3e40 773f 43e5 703f
000003d0: 674d 843f b348 853f 9855 723f 73d5 763f
000003e0: f9fb 803f 4fd4 803f 9780 793f 152c 7c3f
000003f0: 81c1 803f 4e42 7f3f 198c 783f a102 7e3f

model.1.bias f4 [512]
-0.16965786 -0.2752787 -0.065889776 -0.1033052 -0.20643097 -0.09018768 -0.016283328 -0.08114724
-0.16573262 -0.11813108 -0.14854167 -0.14303416 -0.19056068 -0.07028009 -0.07002238 -0.13904369
-0.13682877 -0.10739213 -0.09727593 -0.12222744 -0.34359768 -0.023167942 -0.19393833 -0.18320373
-0.18546943 -0.33126393 -0.122433186 -0.3133107 -0.047425512 -0.041814856 -0.21713355 -0.33043975
-0.0460805 -0.3348458 -0.14195153 -0.42805177 -0.095190845 -0.030920455 -0.29730862 -0.15529422
-0.08212624 -0.054875925 -0.1777425 0.0140945325 -0.23120533 -0.2532195 -0.05653437 -0.30778867
-0.022482775 -0.2048985 -0.10885515 -0.22358033 -0.123126484 -0.20062646 -0.1549378 -0.22894467
-0.15499814 -0.2580807 -0.28240812 -0.1555416 -0.19816113 -0.18093379 -0.18422441 -0.10841088
-0.14677067 -0.20747097 -0.12872955 -0.24718513 -0.29109725 -0.28873944 0.04345575 -0.2702712
-0.22770798 -0.21056914 -0.1100367 -0.1818162 -0.10859926 -0.19121543 -0.19791412 -0.08992496
-0.18023211 -0.11385831 -0.09457241 -0.07799377 -0.31588793 0.054449573 -0.13747689 -0.10070427
-0.2938422 -0.30747673 -0.087511286 -0.18465157 -0.24626003 -0.24033801 -0.15420307 -0.19351651
-0.26901367 -0.05840434 -0.15591323 -0.28334713 -0.20923182 -0.08223635 -0.16148725 -0.12233384
-0.43492484 -0.124708965 -0.00800979 -0.14690107 -0.2929928 -0.3018028 -0.06981275 -0.08833261
-0.11608988 -0.27107662 -0.1452488 -0.05631754 -0.06814143 -0.114753336 -0.23222804 -0.18292525
-0.28735247 0.011948956 -0.13806652 -0.27487695 -0.06735919 -0.09567135 -0.12123672 -0.045847267
-0.17700404 -0.1853215 -0.20034634 -0.2397562 -0.058119364 -0.11899598 -0.23385523 -0.14002907
-0.1955767 -0.12998722 -0.1321306 -0.1700328 -0.06500674 -0.12384798 -0.03802465 -0.040219203
-0.08906246 -0.19664608 -0.1886931 -0.080786265 -0.06656032 -0.25753373 -0.10627078 -0.14160857
-0.17541575 -0.24581984 -0.18356125 0.074423194 0.005578782 -0.13516034 -0.021748578 -0.037021447
-0.22998874 -0.20811673 -0.20596345 0.017061014 -0.19948749 0.06275889 -0.10147787 -0.12512653
-0.31063175 -0.20982131 -0.0800514 -0.2078518 -0.04480405 -0.3992478 -0.06290766 -0.16048102
-0.33618575 -0.04590812 -0.18506093 -0.10263107 -0.18471572 -0.13766396 -0.00091189984 -0.029729199
-0.17559965 -0.109062694 -0.056451134 -0.009395756 -0.1483044 -0.03501954 -0.23254405 -0.23157649
-0.378531 -0.2423694 0.0052294326 -0.21085556 -0.055218775 -0.20784026 -0.1526754 -0.1783973
-0.0010365148 -0.28234875 -0.16661423 -0.21340111 -0.14151336 -0.08806195 -0.27949032 -0.16495076
-0.15463878 -0.22214337 -0.20502865 -0.15645783 -0.21201839 -0.07044765 -0.20337929 -0.19461046
-0.018096266 -0.19048703 -0.043433122 -0.1381143 -0.11249483 -0.1336524 -0.098297514 -0.21479729
0.015440583 -0.046118412 -0.14008512 -0.2393362 -0.24990845 -0.33396995 -0.26441336 -0.22511514
-0.37805796 -0.14172393 -0.24532618 -0.20661739 -0.0996871 -0.24046515 -0.1256895 -0.2675503
-0.26620206 -0.05641458 -0.12878059 -0.11252613 -0.19919908 -0.10224341 -0.15473838 -0.16339894
-0.27608877 -0.3119763 -0.15456225 -0.18503207 -0.2024288 -0.2541551 -0.04946847 -0.09612871
00000000: caba 2dbe 54f1 8cbe 38f1 86bd ad91 d3bd
00000010: a462 53be 52b4 b8bd 9d64 85bc 8630 a6bd
00000020: d0b5 29be b5ee f1bd 4f1b 18be 8c77 12be
00000030: 5722 43be 02ef 8fbd e567 8fbd 7861 0ebe
00000040: d71c 0cbe 68f0 dbbd 9a38 c7bd 6152 fabd
00000050: 09ec afbe b2ca bdbc c597 46be c299 3bbe
00000060: b3eb 3dbe 6d9b a9be 40be fabd 436a a0be
00000070: 4141 42bd 0e46 2bbd 4258 5ebe 662f a9be
00000080: e8be 3cbd e970 abbe be5b 11be 9a29 dbbe
00000090: 6bf3 c2bd e54c fdbc d638 98be 7305 1fbe
000000a0: cd31 a8bd 94c5 60bd 2102 36be c1ec 663c
000000b0: 17c1 6cbe fca5 81be 9590 67bd 7a96 9dbe
000000c0: cc2d b8bc ead0 51be 73ef debd 3ef2 64be
000000d0: bd29 fcbd 0671 4dbe 04a8 1ebe 7970 6abe
000000e0: d5b7 1ebe 2723 84be cc97 90be 4c46 1fbe
000000f0: c0ea 4abe b546 39be 53a5 3cbe 8606 debd
00000100: 0d4b 16be 4573 54be aed1 03be 191e 7dbe
00000110: b30a 95be a8d5 93be a8fe 313d fd60 8abe
00000120: 482c 69be 709f 57be ec5a e1bd 072e 3abe
00000130: 4a69 debd facd 43be 00aa 4abe 942a b8bd
00000140: c48e 38be 8c2e e9bd 2eaf c1bd 33bb 9fbd
00000150: 10bc a1be 8406 5f3d bec6 0cbe 0a3e cebd
00000160: 7c72 96be 976d 9dbe 1e39 b3bd 4d15 3dbe
00000170: 972b 7cbe 2b1b 76be 69e7 1dbe 3129 46be
00000180: 29bc 89be 6439 6fbd b8a7 1fbe e012 91be
00000190: de40 56be 886b a8bd ea5c 25be 2a8a fabd
000001a0: 78ae debe 6a67 ffbd 7f3b 03bc 3c6d 16be
000001b0: 2703 96be e685 9abe fdf9 8ebd bae7 b4bd
000001c0: 88c0 edbd 8eca 8abe 1abc 14be 39ad 66bd
000001d0: bc8d 8bbd cc03 ebbd 30cd 6dbe c250 3bbe
000001e0: dd1f 93be 8ec5 433c 4f61 0dbe acbc 8cbe
000001f0: 9df3 89bd 57ef c3bd f54a f8bd 58ca 3bbd
00000200: 8c40 35be ebc4 3dbe 9727 4dbe a682 75be
00000210: 920e 6ebd 2ab4 f3bd bf77 6fbe c863 0fbe
00000220: 4245 48be 5f1b 05be 3e4d 07be 141d 2ebe
00000230: 4122 85bd 02a4 fdbd bcbf 1bbd e4bc 24bd
00000240: 6166 b6bd 975d 49be c438 41be 4573 a5bd
00000250: c750 88bd 76db 83be 7fa4 d9bd d601 11be
00000260: 30a0 33be 32b8 7bbe 7bf7 3bbe 306b 983d
00000270: 37ce b63b 7967 0abe 132a b2bc cda3 17bd
00000280: 2b82 6bbe 8d1c 55be 15e8 52be 8ac3 8b3c
00000290: 7346 4cbe bc87 803d a1d3 cfbd 2b21 00be
000002a0: 200b 9fbe 66db 56be fdf1 a3bd 1ad7 54be
000002b0: 7484 37bd 356a ccbe bbd5 80bd 2355 24be
000002c0: 8a20 acbe 270a 3cbd 9d80 3dbe 3d30 d2bd
000002d0: 1e26 3dbe c8f7 0cbe 900c 6fba a68a f3bc
000002e0: 65d0 33be 435c dfbd 4e39 67bd a8f0 19bc
000002f0: 1cdd 17be a670 0fbd 0720 6ebe 6322 6dbe
00000300: d1ce c1be af2f 78be a95b ab3b 85ea 57be
00000310: 152d 62bd 14d4 54be f156 1cbe c8ad 36be
00000320: aadb 87ba 0490 90be ec9c 2abe d285 5abe
00000330: e1e8 10be d359 b4bd 5b19 8fbe dae8 28be
00000340: a159 1ebe 8d79 63be 08f3 51be 7b36 20be
00000350: 591b 59be dc46 90bd a942 50be f747 47be
00000360: 9f3e 94bc 080f 43be eee6 31bd d66d 0dbe
00000370: b063 e6bd 2ddc 08be 3550 c9bd d2f3 5bbe
00000380: 80fa 7c3c a9e6 3cbd 7972 0fbe 8c14 75be
00000390: 00e8 7fbe 1cfe aabe 3061 87be 9584 66be
000003a0: d090 c1be 1420 11be c936 7bbe 8293 53be
000003b0: c028 ccbd 7f3c 76be c0b4 00be 5afc 88be
000003c0: a34b 88be fa12 67bd 0fdf 03be 1a74 e6bd
000003d0: d8fa 4bbe fe64 d1bd bd73 1ebe 0d52 27be
000003e0: 825b 8dbe 5cbb 9fbe 9145 1ebe 0c79 3dbe
000003f0: 7f49 4fbe 9e20 82be 739f 4abd 21df c4bd

model.1.running_mean f4 [512]
-0.011615521 0.070268765 -0.049083266 -0.18787065 0.12641501 -0.78738755 0.3568611 -0.38013366
0.5094332 0.19383553 0.0144876875 -0.11242383 0.103837065 -0.25212345 0.22653443 -0.2914689
-0.07549343 0.06751414 -0.20456542 0.004184808 0.0392325 0.48273247 0.29900518 -0.044289548
-0.025396021 0.2538336 -0.12801096 -0.14640872 0.21563037 0.33388016 -0.27869058 0.08707729
-0.17941825 -0.03929369 -0.27800822 0.13606226 0.09008084 0.3612228 0.069944814 -0.17928833
-0.06621501 0.42966205 0.123943835 -0.52921355 -0.008671744 0.5118834 -0.292204 -0.3857091
0.13952516 -0.1048264 0.124513865 0.056914967 -0.027354712 0.09858825 -0.27285898 0.28065127
-0.33893934 0.12717843 0.02016661 0.15032865 0.16605802 -0.66029215 0.09983682 0.007879236
-0.046450447 0.15432602 -0.4606569 0.20236047 0.112245075 -0.09653462 -0.020551847 0.28559345
0.0665445 -0.36858475 0.23511918 -0.2838805 -0.16568369 -0.26116845 0.24073273 0.35281903
0.21900843 -0.11971684 0.27336654 0.10587704 -0.096485674 0.5240394 0.20757177 0.036274847
0.29488182 0.1290552 -0.40251088 0.3913806 0.3005833 0.15676081 0.33756977 -0.2659538
0.112749055 -0.36889172 -0.08406094 -0.00027806996 -0.38754398 -0.29726022 -0.34039366 0.023709327
-0.296794 -0.16302933 -0.041187808 -0.9166871 0.22438172 -0.11551987 0.27250758 -0.13134085
0.10868425 -0.17628513 -0.18759155 -0.30488974 0.060701918 0.32866377 -0.10928506 -0.31886572
0.20739478 -0.59874225 0.3299821 0.24283922 0.021085447 0.10209154 -0.16950439 0.022230724
-0.26948613 -0.096894465 0.34470668 0.027528273 -0.1803497 -0.122079305 0.18026443 -0.004839375
-0.11679128 -0.128794 0.21708083 0.22917937 -0.36509302 -0.007855971 -0.07677761 -0.015432255
0.34373832 -0.18375587 -0.3532029 0.13310644 -0.38302934 0.19881216 0.013874125 0.013353494
0.053107098 -0.045591924 -0.096841365 -0.39501345 -0.16809812 -0.07136079 0.1404239 0.57599056
0.17179273 0.13951805 -0.14055994 0.03731139 0.24052227 -0.17799829 -0.04749975 0.06997048
0.12881248 0.012954073 0.5695421 -0.29022333 0.15722887 0.2240574 0.29965562 -0.10027356
0.42193854 0.019529171 -0.1900318 -0.0678959 0.0534693 -0.43134993 -0.23887481 0.4216067
0.2725856 0.14026044 0.034453288 0.33430198 -0.099956214 0.22321346 -0.47479093 -0.13759218
0.051681276 -0.25007752 0.69284654 -0.035086412 0.17552873 0.17117643 -0.15246025 0.35852665
0.45002368 0.30333143 -0.17185622 0.28931177 -0.8854612 0.16358353 0.34784302 -0.12422882
0.1792698 -0.0838553 0.28469357 -0.027578296 -0.46751717 -0.11266325 -0.36922833 -0.14340386
0.39474466 -0.10499188 -0.43926162 -0.19697532 0.52740496 -0.10838547 0.08903565 -0.45057082
0.12378051 0.15038444 0.117657706 -0.051058527 -0.012882505 -0.16466981 -0.13815539 0.15740466
0.27104372 0.05680496 0.008121643 -0.12585522 0.2630397 0.15802437 0.1354616 -0.14815372
-0.13248941 0.3660435 0.42281324 0.07536388 -0.08147509 -0.17576735 0.5435767 0.25394145
0.35143086 0.2557885 -0.0989146 0.10058844 -0.43561238 -0.3770514 -0.38311452 0.23735453
00000000: 074f 3ebc 12e9 8f3d 890b 49bd 2a61 40be
00000010: f072 013e 3b92 49bf 80b6 b63e e1a0 c2be
00000020: 376a 023f d27c 463e c45d 6d3c 773e e6bd
00000030: 87a8 d43d 5316 81be a4f8 673e 693b 95be
00000040: 4d9c 9abd da44 8a3d 9979 51be b720 893b
00000050: 42b2 203d b628 f73e 3517 993e f568 35bd
00000060: 510b d0bc 7af6 813e 4e15 03be 2bec 15be
00000070: 35ce 5c3e 57f2 aa3e 88b0 8ebe 9455 b23d
00000080: 6bb9 37be 6cf2 20bd 1857 8ebe e853 0b3e
00000090: 4e7c b83d 32f2 b83e 3a3f 8f3d 5c97 37be
000000a0: bc9b 87bd aafc db3e 44d6 fd3d 8a7a 07bf
000000b0: ee13 0ebc ca0a 033f c39b 95be aa7b c5be
000000c0: afdf 0e3e 39af d6bd 2001 ff3d ab1f 693d
000000d0: fd16 e0bc a3e8 c93d 2cb4 8bbe 86b1 8f3e
000000e0: 7589 adbe 103b 023e 7234 a53c c1ef 193e
000000f0: 1d0b 2a3e e808 29bf 3f77 cc3d e917 013c
00000100: d342 3ebd a407 1e3e 39db ebbe 9537 4f3e
00000110: bfe0 e53d f1b3 c5bd 595c a8bc 4e39 923e
00000120: 7c48 883d 24b7 bcbe 15c3 703e c958 91be
00000130: fca8 29be dfb7 85be a482 763e b2a4 b43e
00000140: bf43 603e 1a2e f5bd b3f6 8b3e 10d6 d83d
00000150: 489a c5bd 7227 063f b28d 543e ef94 143d
00000160: c0fa 963e 0c27 043e e815 cebe 0a63 c83e
00000170: 0ee6 993e e885 203e f2d5 ac3e 192b 88be
00000180: fae8 e63d 60df bcbe 2428 acbd ebc9 91b9
00000190: 2a6c c6be 7e32 98be 1448 aebe 103a c23c
000001a0: 62f5 97be 29f1 26be 8cb4 28bd 01ac 6abf
000001b0: 52c4 653e ae95 ecbd 1d86 8b3e 377e 06be
000001c0: d995 de3d 1784 34be 0018 40be 821a 9cbe
000001d0: 93a2 783d 9e46 a83e d8d0 dfbd 5e42 a3be
000001e0: 4c5f 543e 2c47 19bf 6af3 a83e d8aa 783e
000001f0: 63bb ac3c 5f15 d13d 8f92 2dbe 351d b63c
00000200: 16fa 89be 9b70 c6bd 657d b03e f982 e13c
00000210: 97ad 38be b704 fabd 3d97 383e 9f93 9ebb
00000220: 4430 efbd 93e2 03be 704a 5e3e ffad 6a3e
00000230: 79ed babe 55b6 00bc 943d 9dbd 92d7 7cbc
00000240: 78fe af3e 802a 3cbe 03d7 b4be 0e4d 083e
00000250: 6c1c c4be 6a95 4b3e 4c50 633c 9dc8 5a3c
00000260: d486 593d 99be 3abd c454 c6bd 343f cabe
00000270: ea21 2cbe 9b25 92bd 48cb 0f3e 1e74 133f
00000280: 6fea 2f3e d2dd 0e3e f2ee 0fbe d4d3 183d
00000290: 784b 763e 2f45 36be 198f 42bd af4c 8f3d
000002a0: 6be7 033e 523d 543c 83cd 113f 2798 94be
000002b0: 9b00 213e 4e6f 653e 766c 993e 395c cdbd
000002c0: 5408 d83e a4fb 9f3c b297 42be 010d 8bbd
000002d0: a002 5b3d e6d9 dcbe 999b 74be d5dc d73e
000002e0: 5790 8b3e 6fa0 0f3e e41e 0d3d a129 ab3e
000002f0: d8b5 ccbd 1292 643e cc17 f3be f7e4 0cbe
00000300: bfaf 533d 290a 80be 645e 313f c5b6 0fbd
00000310: cebd 333e e048 2f3e 8a1e 1cbe ce90 b73e
00000320: 8169 e63e 424e 9b3e 14fb 2fbe ac20 943e
00000330: 96ad 62bf 7182 273e 7b18 b23e ae6b febd
00000340: 8192 373e 54bc abbd 5bc3 913e e1eb e1bc
00000350: 695e efbe fdbb e6bd 7f0b bdbe 76d8 12be
00000360: f91b ca3e fc05 d7bd e6e6 e0be e6b3 49be
00000370: 0304 073f 34f9 ddbd 5358 b63d 38b1 e6be
00000380: a380 fd3d 61fe 193e 86f6 f03d bf22 51bd
00000390: 2411 53bc 349f 28be 9b78 0dbe b02e 213e
000003a0: 3ec6 8a3e 51ac 683d a410 053c 31e0 00be
000003b0: 24ad 863e 24d1 213e 72b6 0a3e 9cb5 17be
000003c0: 4eab 07be 0e6a bb3e fa7a d83e 6158 9a3d
000003d0: 69dc a6bd 5bfc 33be d827 0b3f 9d04 823e
000003e0: bfee b33e b6f6 823e bd93 cabd 5001 ce3d
000003f0: 9608 dfbe e20c c1be 9627 c4be 110d 733e

model.1.running_var f4 [512]
0.008161371 0.0014303591 0.0035919184 0.00939727 0.005175383 0.012753029 0.01309503 0.0073994133
0.00978586 0.0026525618 0.010336748 0.015054754 0.0034295293 0.00476678 0.004864198 0.0022106143
0.0072024236 0.007153277 0.007946198 0.005782354 0.016671577 0.00632881 0.0067985826 0.011912017
0.0038679014 0.013579283 0.010319244 0.014749823 0.0049530664 0.007142758 0.008826013 0.01427196
0.00074613275 0.016468013 0.015346637 0.024928134 0.0056335605 0.0062523796 0.007564616 0.007196783
0.0050317054 0.012770844 0.011663649 0.010662702 0.0109923165 0.008520181 0.008901627 0.008804809
0.0102614425 0.009304487 0.013318815 0.00909837 0.0043500885 0.008127412 0.016543148 0.00871238
0.012466555 0.015464537 0.0058646635 0.011916802 0.015670117 0.012258256 0.013104319 0.005545485
0.0061766054 0.014453768 0.011594111 0.0057466864 0.0046899486 0.0038256573 0.0066396617 0.0024793705
0.005279476 0.00652063 0.0026140003 0.0072971885 0.012400312 0.010907183 0.009815128 0.016426675
0.012295847 0.006639237 0.0051952633 0.009893934 0.0060208547 0.005959239 0.0079442775 0.018647425
0.009529018 0.014824916 0.008251578 0.017411985 0.007952254 0.005236226 0.016730288 0.014049308
0.0074603274 0.009352854 0.0032618751 0.014596435 0.006187028 0.005082158 0.013168436 0.011700298
0.020468578 0.010629232 0.008520423 0.012754194 0.0086993305 0.013335662 0.005539171 0.014234487
0.0059663127 0.0034513127 0.015049289 0.009245857 0.00922535 0.018306509 0.016036956 0.0038026448
0.007527412 0.019549653 0.008776811 0.013946678 0.008236886 0.0054276786 0.006086587 0.004837126
0.005773824 0.006652597 0.010360703 0.014254469 0.005325682 0.0038083007 0.018666007 0.010057744
0.007906932 0.008490919 0.011991377 0.006362265 0.010300285 0.009426849 0.014373307 0.011892869
0.010729679 0.018373009 0.009966193 0.006392246 0.017736072 0.016047455 0.014480084 0.008881331
0.010769204 0.012878453 0.010531563 0.012328294 0.00786059 0.011320039 0.004820415 0.009879286
0.013944871 0.009388828 0.009567826 0.010101338 0.013719917 0.00521029 0.008567238 0.017421965
0.008489205 0.0076506925 0.027907295 0.017602026 0.015555703 0.016442198 0.015189657 0.008867487
0.023024635 0.016096223 0.010451881 0.0046884613 0.0077658757 0.017749513 0.009370787 0.013346578
0.012670336 0.0024454338 0.0067508845 0.0109005775 0.014804822 0.0066957646 0.013791733 0.015378594
0.019314865 0.017783042 0.011075664 0.010205038 0.010003665 0.015641699 0.009374644 0.018720724
0.009843627 0.019241989 0.014747614 0.0082033565 0.012669601 0.0060722018 0.0061579226 0.010378284
0.0015125431 0.011888342 0.011886587 0.014043962 0.014781997 0.0056263315 0.008845179 0.009938245
0.003010219 0.00593214 0.0186813 0.0123810815 0.015461405 0.007165428 0.012453572 0.010586341
0.008286138 0.01573971 0.010579074 0.008952908 0.007853081 0.014401869 0.009632435 0.0059289504
0.018144416 0.009829806 0.012618709 0.015806621 0.012947975 0.014636119 0.021438804 0.015516036
0.017833795 0.0046524787 0.0066086724 0.012418523 0.012953018 0.0026294056 0.0044666477 0.012431617
0.008991994 0.0139724575 0.009699287 0.01999051 0.0027566638 0.01376692 0.013138682 0.008786286
00000000: 45b7 053c e37a bb3a 6466 6b3b 02f7 193c
00000010: 4296 a93b 15f2 503c 898c 563c c776 f23b
00000020: df54 203c 9ad6 2d3b 775b 293c 37a8 763c
00000030: f4c1 603b a632 9c3b da63 9f3b f4df 103b
00000040: 4f02 ec3b 0966 ea3b c530 023c e779 bd3b
00000050: d592 883c e861 cf3b a5c6 de3b 9f2a 433c
00000060: 9e7c 7d3b a47b 5e3c 0c12 293c 3ea9 713c
00000070: 554d a23b cc0d ea3b fb9a 103c f0d4 693c
00000080: 1f98 433a ede7 863c 7670 7b3c 1636 cc3c
00000090: bb99 b83b c3e0 cc3b 99e0 f73b fed2 eb3b
000000a0: 01e1 a43b cd3c 513c e418 3f3c 9db2 2e3c
000000b0: 1e19 343c 3b98 0b3c 21d8 113c 0c42 103c
000000c0: 9c1f 283c d971 183c 2937 5a3c 5411 153c
000000d0: 308b 8e3b d628 053c 7f85 873c 5fbe 0e3c
000000e0: 8640 4c3c f85e 7d3c 5d2c c03b b13e 433c
000000f0: 9e5e 803c dad6 483c 7fb3 563c e6b6 b53b
00000100: 1f65 ca3b 7fcf 6c3c 3af5 3d3c b34e bc3b
00000110: 24ae 993b e1b7 7a3b 8591 d93b ef7c 223b
00000120: 74ff ac3b 02ab d53b a64f 2b3b 411d ef3b
00000130: ae2a 4b3c 0bb4 323c a1cf 203c 3c91 863c
00000140: 8574 493c f58d d93b 073d aa3b 2b1a 223c
00000150: 974a c53b b845 c33b b728 023c 7cc2 983c
00000160: 991f 1c3c 34e4 723c a031 073c 94a3 8e3c
00000170: 2c4a 023c a694 ab3b f50d 893c 122f 663c
00000180: c375 f43b b73c 193c 2fc5 553b e325 6f3c
00000190: 8dbc ca3b 3b88 a63b 6cc0 573c 9bb2 3f3c
000001a0: b8ad a73c 3b26 2e3c 3f99 0b3c f8f6 503c
000001b0: a387 0e3c d27d 5a3c ef81 b53b c437 693c
000001c0: 0f81 c33b 6b2f 623b 4b91 763c ef7b 173c
000001d0: ec25 173c 88f7 953c ef5f 833c cb35 793b
000001e0: 82a8 f63b 9826 a03c 9dcc 0f3c 9b80 643c
000001f0: 01f4 063c abda b13b fe71 c73b c180 9e3b
00000200: 5932 bd3b 07fe d93b f0bf 293c 948b 693c
00000210: 0f83 ae3b af94 793b 74e9 983c 3cc9 243c
00000220: 148c 013c 7f1d 0b3c 7b77 443c 8c7a d03b
00000230: 87c2 283c 1273 1a3c 057e 6b3c 4fda 423c
00000240: 89cb 2f3c fe82 963c 3e49 233c 0c76 d13b
00000250: 3d4b 913c f475 833c e03d 6d3c 0183 113c
00000260: 5171 303c 2600 533c 948c 2c3c 9dfc 493c
00000270: b4c9 003c af77 393c 92f4 9d3b bbdc 213c
00000280: 0779 643c 99d3 193c 5fc2 1c3c 1580 253c
00000290: 81c9 603c 15bb aa3b 9a5d 0c3c 82b8 8e3c
000002a0: 4e16 0b3c a9b2 fa3b d79d e43c 2032 903c
000002b0: 59dd 7e3c cab1 863c 0ade 783c f048 113c
000002c0: 299e bc3c 3adc 833c 5e3e 2b3c aaa1 993b
000002d0: e378 fe3b 6d67 913c ee87 193c 9bab 5a3c
000002e0: 3e97 4f3c 9243 203b 8636 dd3b 5698 323c
000002f0: ed8f 723c 2568 db3b b9f6 613c 80f6 7b3c
00000300: 353a 9e3c bead 913c b476 353c 0833 273c
00000310: 6ae6 233c 0523 803c 1b98 193c 345c 993c
00000320: 2a47 213c 60a1 9d3c fa9f 713c 5f67 063c
00000330: 2894 4f3c 52f9 c63b 66c8 c93b ae09 2a3c
00000340: 8640 c63a 52c7 423c f6bf 423c a518 663c
00000350: 3030 723c 175d b83b 5feb 103c 05d4 223c
00000360: 1847 453b 6662 c23b 8709 993c 05da 4a3c
00000370: d551 7d3c f7cb ea3b 110a 4c3c 5572 2d3c
00000380: 95c2 073c 90f0 803c da53 2d3c 38af 123c
00000390: 36aa 003c d1f5 6b3c 5cd1 1d3c a447 c23b
000003a0: 99a3 943c 320d 213c b4be 4e3c e37c 813c
000003b0: be23 543c 55cc 6f3c 6ea0 af3c f936 7e3c
000003c0: 2e18 923c d273 983b 908d d83b 1077 4b3c
000003d0: e538 543c 1b52 2c3b f55c 923b fbad 4b3c
000003e0: 2853 133c bcec 643c c2e9 1e3c 23c3 a33c
000003f0: 25a9 343b a68e 613c a043 573c 5bf4 0f3c

model.4.weight f4 [256, 512]
0.042376567 -0.031802524 0.024138244 -0.020290276 -0.0051115733 0.0013949876 -0.018135821 0.015341328
0.03702469 0.030332014 0.03639945 -0.026882222 0.020182198 0.047001988 -0.004104496 0.0032203805
0.037316933 -0.02733137 0.030611318 -0.013941825 0.02941087 -0.005517447 0.036332875 -0.0027170107
-0.013322372 -0.02688986 0.025779719 0.008307869 0.048233483 0.018752305 0.030228488 -0.04369585
0.032579206 0.012336846 -0.021211997 -0.014283322 0.0069969893 -0.010424554 -0.026060103 0.011021452
-0.01882461 -0.022113247 0.0027400632 -0.027106917 0.023328146 0.0074333074 0.056921776 0.0011976191
-0.00312164 -0.01716402 0.027178306 -0.022416094 -0.029546175 0.00832916 0.018367477 0.009559157
0.019083094 -0.04665771 -0.026355376 -0.0023827455 0.002404109 -0.009312445 0.029837731 0.018861257
-0.014285753 0.016597258 0.0051609683 -0.014440616 -0.037555378 0.019915171 0.03730556 0.04994327
-0.015028905 -0.03422714 0.0030355325 0.021564338 -0.019104226 0.042429894 -0.007023387 0.014978241
-0.025199555 -0.018864883 -0.018694336 -0.006042251 0.03412997 0.031001257 -0.006691612 -0.01994806
0.004699373 0.022869252 -0.07653323 0.031551037 -0.0511957 -0.019154767 0.01582657 -0.06874686
0.0027372187 -0.047950186 0.028199492 0.015879635 -0.00882943 0.011631864 -0.015749449 -0.011507959
-0.0025335287 -0.020723864 0.01855402 -0.047811396 0.00047958788 0.022531068 -0.0063485047 -0.019658413
0.003089001 -0.033729967 -0.02265518 0.0028413748 -0.03508747 0.00027108414 0.069859564 -0.038201988
-0.017097522 -0.04400219 0.0026893169 0.02904283 0.0024908092 0.012448784 -0.022491453 0.0111148255
0.017124532 0.024693714 -0.00765292 -0.0052536805 -0.037397213 -0.036622033 6.240778e-06 0.038363405
-0.017142726 0.03161759 0.006550526 -0.056132305 -0.0061619757 -0.053626623 0.031862196 -0.0017203223
0.029274514 -0.024484059 -0.021834686 -0.016066026 0.018463342 -0.012882662 -0.034758247 -0.020577924
-0.064639896 -0.0030488668 0.017259013 -0.008872029 0.024682442 -0.019697193 0.034405142 -0.053399656
0.03626661 0.015740052 0.02865462 -0.0050523207 0.018688196 -0.0013660223 0.03474963 -0.023450052
-0.037831783 0.07261053 -0.04525128 -0.016962705 -0.010508612 0.028295819 -0.0025052875 -0.017556667
0.022686375 -0.017478885 0.018933767 0.040685326 0.0045105307 0.045983482 0.031291116 -0.033649478
0.004000557 0.07156852 -0.014442281 0.021857405 -0.07707469 0.020119209 0.026298031 -0.00841656
0.002545825 0.0154568935 -0.028889216 0.038880497 -0.03100283 -0.011747961 0.017325029 -0.045440182
0.004831921 -0.023331657 -0.017526103 0.0027968488 -0.0037449172 -0.042733263 -0.01863247 0.02104524
0.06466329 -0.05766196 0.023597827 -0.0062613636 -0.04155513 0.00876344 0.031044135 0.08497012
-0.012700828 0.009522402 -0.016963173 0.016113773 -0.018274762 -0.0254565 -0.06935435 0.00739602
0.017437963 0.016100148 0.013934906 -0.046606276 -0.0004134036 0.026276814 0.007635579 0.020462764
-0.005181217 -0.0055692587 0.048790246 0.012562764 -0.012894718 -0.02741144 -0.028744187 0.00438492
0.05595166 -0.01443804 -0.04647133 -0.035432793 0.038925126 -0.010925295 -0.03226775 0.028705634
-0.024423288 -0.016550206 -0.0138872955 -0.006492266 0.009781763 0.06134811 -0.030353436 0.0062446063
00000000: 0d93 2d3d 5d43 02bd 91bd c53c cb37 a6bc
00000010: fc7e a7bb 04d8 b63a 9391 94bc 325a 7b3c
00000020: 34a7 173d d87a f83c 9717 153d 1b38 dcbc
00000030: 2355 a53c 2885 403d 027f 86bb 050d 533b
00000040: a4d9 183d 0ae6 dfbc 96c4 fa3c 416c 64bc
00000050: 11ef f03c b3cb b4bb c8d1 143d e00f 32bb
00000060: 1446 5abc 2048 dcbc fd2f d33c ba1d 083c
00000070: 7990 453d 6f9e 993c bca1 f73c 6bfa 32bd
00000080: c671 053d 7c20 4a3c c8c4 adbc 9804 6abc
00000090: 0047 e53b c0cb 2abc ff7b d5bc 5293 343c
000000a0: 1236 9abc d726 b5bc a292 333b 530f debc
000000b0: ab1a bf3c 1a93 f33b cf26 693d 6ef9 9c3a
000000c0: 6e94 4cbb 8f9b 8cbc 0aa5 de3c f5a1 b7bc
000000d0: d20a f2bc 0777 083c 6477 963c 039e 1c3c
000000e0: 2654 9c3c 281c 3fbd 3be7 d7bc d627 1cbb
000000f0: 428e 1d3b 3a93 18bc 426e f43c ec82 9a3c
00000100: ca0e 6abc f9f6 873c 571d a93b 5598 6cbc
00000110: abd3 19bd 2425 a33c b7cd 183d 5091 4c3d
00000120: cc3b 76bc c231 0cbd c9ef 463b b2a7 b03c
00000130: 7780 9cbc f8ca 2d3d 7124 e6bb 4c67 753c
00000140: 4c6f cebc 878a 9abc dd24 99bc 13fe c5bb
00000150: decb 0b3d 59f6 fd3c 4f45 dbbb 1d6a a3bc
00000160: 33fd 993b 4c58 bb3c 74bd 9cbd a93b 013d
00000170: 95b2 51bd 75ea 9cbc b9a6 813c 27cb 8cbd
00000180: e962 333b 6a67 44bd 9f02 e73c 0216 823c
00000190: 50a9 10bc 9393 3e3c fd04 81bc e18b 3cbc
000001a0: 8f09 26bb 18c5 a9bc 9afe 973c e2d5 43bd
000001b0: 3271 fb39 1393 b83c 1e07 d0bb ae0a a1bc
000001c0: d670 4a3b 6f28 0abd 5b97 b9bc 5c36 3a3b
000001d0: e1b7 0fbd 4c20 8e39 8812 8f3d b079 1cbd
000001e0: 1a10 8cbc a43b 34bd 403f 303b 3beb ed3c
000001f0: d83c 233b fcf5 4b3c ff3f b8bc f51a 363c
00000200: bf48 8c3c 794a ca3c 59c5 fabb 1127 acbb
00000210: d22d 19bd fc00 16bd e067 d136 f222 1d3d
00000220: e76e 8cbc 7281 013d cba5 d63b fdea 65bd
00000230: 66ea c9bb 97a7 5bbd ef81 023d 707c e1ba
00000240: 1bd1 ef3c cb92 c8bc a8de b2bc e69c 83bc
00000250: 6f40 973c cd11 53bc aa5e 0ebd 0993 a8bc
00000260: ec61 84bd 7fcf 47bb c662 8d3c fd5b 11bc
00000270: d532 ca3c 025c a1bc 68ec 0c3d 99b9 5abd
00000280: 4c8c 143d 48f1 803c 18bd ea3c f08d a5bb
00000290: fd17 993c 1a0c b3ba a155 0e3d 531a c0bc
000002a0: 80f5 1abd d4b4 943d 6859 39bd 5ff5 8abc
000002b0: 502c 2cbc a2cc e73c c02f 24bb 00d3 8fbc
000002c0: c7d8 b93c e12f 8fbc fd1a 9b3c a8a5 263d
000002d0: 13cd 933b 2d59 3c3d 1d2b 003d 09d4 09bd
000002e0: 1b17 833b 8492 923d 519f 6cbc 4d0e b33c
000002f0: 56d9 9dbd 0ad1 a43c f86e d73c 9ce5 09bc
00000300: dbd7 263b e93e 7d3c 14a9 ecbc 2841 1f3d
00000310: a6f9 fdbc 857a 40bc 38ed 8d3c 7c1f 3abd
00000320: 1755 9e3b 0822 bfbc e792 8fbc 564b 373b
00000330: 496d 75bb 1309 2fbd 1fa3 98bc 1167 ac3c
00000340: 306e 843d f32e 6cbd 3b50 c13c 202c cdbb
00000350: b635 2abd 8894 0f3c 4550 fe3c d004 ae3d
00000360: 2217 50bc d903 1c3c 5af6 8abc 0801 843c
00000370: f4b4 95bc 268a d0bc a709 8ebd 505a f23b
00000380: 0fda 8e3c 75e4 833c 3b4f 643c 39e6 3ebd
00000390: 18be d8b9 7942 d73c e133 fa3b 87a1 a73c
000003a0: 33c7 a9bb 547e b6bb 48d8 473d 0dd4 4d3c
000003b0: 5e44 53bc f58d e0bc ee78 ebbc 60af 8f3b
000003c0: 912d 653d 878d 6cbc b958 3ebd fa21 11bd
000003d0: f46f 1f3d 0200 33bc 302b 04bd 1428 eb3c
000003e0: 5913 c8bc 4c94 87bc 8a87 63bc 13bd d4bb
000003f0: b043 203c 2848 7b3d c5a7 f8bc 8e9f cc3b

model.4.bias f4 [256]
0.014284977 -0.1003144 0.13506885 -0.027939137 -0.06178286 -0.09213217 -0.11391035 -0.011598855
-0.06958892 0.0049205828 -0.014767242 -0.0942797 0.030651223 -0.022545066 -0.025925716 -0.019634143
-0.088264115 -0.04133433 -0.13273537 0.03287631 -0.02332521 -0.027976315 0.1795397 -0.0355844
0.010659681 -0.010220901 0.09172328 -0.0730335 -0.055786908 0.093061276 -0.028404025 0.07526709
0.0895167 -0.10710285 -0.08868052 0.06168565 0.11482459 0.0324839 -0.20515373 0.025185645
0.033098936 -0.21226804 -0.04018552 -0.051641706 0.07996993 -0.016690632 0.061809998 -0.04939798
0.0027301433 0.028899053 -0.03805535 -0.0883857 -0.08493319 0.11151812 0.057696175 0.028553622
-0.01889479 0.049276512 0.005297759 -0.08970211 -0.061316527 -0.10093016 -0.32175577 0.096414566
-0.093091585 0.005831699 -0.027471192 -0.030356219 -0.008103989 -0.02161847 0.0021656454 -0.16325893
0.15497151 0.0692324 -0.01857574 0.04902206 -0.122266166 -0.04989074 0.012648865 -0.034269642
0.21834248 0.011830601 -0.042223502 -0.03915512 -0.05464763 -0.5090897 -0.040416744 -0.042907633
-0.060341842 0.08024207 0.034169108 -0.019679429 -0.044315822 -0.049182244 -0.048532158 0.2474662
0.04760158 0.0014156436 -0.115514405 -0.04600528 -0.059496764 0.073344804 -0.28896418 0.17884381
-0.0037945844 0.2889159 0.10870735 -0.0974459 0.031653907 -0.011811138 0.030455364 -0.024965718
-0.008206803 0.3743355 -0.0051494054 -0.033772033 0.004141423 0.017497247 0.15446694 0.010979153
0.14651543 -0.038693957 -0.35880524 0.025167083 0.005797795 -0.057830587 0.0064672804 0.030442625
0.15700336 0.21697709 0.00988114 -0.45780757 0.0068263756 0.18689181 -0.024845522 -0.5116264
-0.0377255 0.023115037 -0.02150861 -0.014413942 0.08742931 -0.052866843 -0.047004007 -0.11574001
-0.060639407 -0.09978983 -0.026566133 -0.081954315 0.052736837 0.012718194 0.03519254 -0.04209897
0.025052259 0.10135041 0.025667053 0.08309294 -0.041267958 -0.0908583 0.09336101 0.07914111
-0.088868715 0.06333397 -0.030319303 -0.019817246 0.040287174 0.042755626 0.23812494 -0.002779714
0.15461458 0.03889543 0.019140532 0.007243586 -0.21762858 -0.00093684153 -0.014904583 0.063986264
-0.004865058 0.0069332696 -0.011386337 -0.13571705 -0.006499386 -0.026823789 0.013127584 -0.05351403
-0.058345105 0.08587104 0.0075634797 0.06078585 0.19918564 -0.05621493 0.039868724 -0.116776824
0.018804593 -0.0005839938 -0.025431525 -0.038090236 -0.5854371 0.079604514 0.008108404 0.13711956
0.009793533 -0.00015114795 0.14561206 -0.010954281 0.0933131 -0.04242358 -0.07715606 0.011220592
0.047928922 0.05558234 -0.0413817 0.10523375 0.191694 -0.20235407 0.16649468 -0.023726229
-0.057837974 0.04471079 -0.09152934 0.20437121 -0.012939022 -0.071270145 0.09552874 -0.11097907
0.009299634 -0.017767766 -0.31165898 -0.0686108 -0.02761446 -0.08286577 -0.03780863 0.13541304
0.013938189 -0.08423846 -0.032780405 0.22623798 0.12368231 -0.04103843 0.08484537 0.12861057
-0.2238706 -0.038509045 -0.41301692 0.26619226 -0.012212762 0.09546657 -0.05224526 -0.023295268
-0.07301577 -0.0015646239 -0.0070424476 -0.104796804 -0.0031577297 0.08822456 0.0009457574 0.0003565397
00000000: 890b 6a3c a371 cdbd 7d4f 0a3e 9ee0 e4bc
00000010: 0610 7dbd cbaf bcbd d449 e9bd 2009 3ebc
00000020: a384 8ebd d73c a13b 4df2 71bc b715 c1bd
00000030: 4618 fb3c 6eb0 b8bc 2b62 d4bc c8d7 a0bc
00000040: d1c3 b4bd 304e 29bd c8eb 07be 4fa9 063d
00000050: 8314 bfbc 962e e5bc 41d9 373e f3c0 11bd
00000060: f1a5 2e3c 9175 27bc 6ad9 bb3d 9692 95bd
00000070: d080 64bd e996 be3d 8faf e8bc a225 9a3d
00000080: 8854 b73d bd58 dbbd 229e b5bd 18aa 7c3d
00000090: 2829 eb3d d70d 053d d213 52be 2052 ce3c
000000a0: c092 073d cb5c 59be 9299 24bd 4186 53bd
000000b0: 46c7 a33d cbba 88bc 7b2c 7d3d 8955 4abd
000000c0: 34ec 323b b5bd ec3c eddf 1bbd 9003 b5bd
000000d0: 74f1 adbd 9d63 e43d d352 6c3d 49e9 e93c
000000e0: 3fc9 9abc 2bd6 493d d398 ad3b bdb5 b7bd
000000f0: 0a27 7bbd 79b4 cebd 2cbd a4be 0075 c53d
00000100: cda6 bebd d617 bf3b 440b e1bc 9bad f8bc
00000110: 98c6 04bc 3819 b1bc 80ed 0d3b 592d 27be
00000120: dab0 1e3e b7c9 8d3d 262c 98bc 5bcb 483d
00000130: af66 fabd 3c5a 4cbd 2f3d 4f3c 535e 0cbd
00000140: 2c95 5f3e 23d5 413c 8df2 2cbd 1e61 20bd
00000150: 31d6 5fbd b453 02bf 078c 25bd eabf 2fbd
00000160: 0229 77bd f455 a43d e8f4 0b3d c136 a1bc
00000170: 8284 35bd 5273 49bd a8c9 46bd c867 7d3e
00000180: e0f9 423d 1e8d b93a d192 ecbd 0870 3cbd
00000190: e1b2 73bd cd35 963d 1df3 93be d522 373e
000001a0: 90ae 78bb c9ec 933e f6a1 de3d b791 c7bd
000001b0: 87a7 013d 8183 41bc 877d f93c e884 ccbc
000001c0: d475 06bc e7a8 bf3e 58bc a8bb 8b54 0abd
000001d0: c6b4 873b 6356 8f3c 952c 1e3e e8e1 333c
000001e0: 2408 163e 8e7d 1ebd 52b5 b7be 332b ce3c
000001f0: 6efb bd3b c4df 6cbd 7beb d33b d062 f93c
00000200: 7dc5 203e 3e2f 5e3e 81e4 213c c165 eabe
00000210: caaf df3b 9160 3f3e d688 cbbc f3f9 02bf
00000220: 0e86 1abd bf5b bd3c d332 b0bc 7428 6cbc
00000230: 230e b33d e78a 58bd 4687 40bd 1909 edbd
00000240: 0761 78bd 9c5e ccbd 38a1 d9bc aad7 a7bd
00000250: 9502 583d f95f 503c 0e26 103d f86f 2cbd
00000260: 653a cd3c ce90 cf3d b643 d23c a22c aa3d
00000270: 9708 29bd eb13 babd 0f34 bf3d bc14 a23d
00000280: cd00 b6bd 3eb5 813d 3060 f8bc c757 a2bc
00000290: 2a04 253d 8620 2f3d 06d7 733e dd2b 36bb
000002a0: 4953 1e3e d050 1f3d 9bcc 9c3c 9a5b ed3b
000002b0: 07da 5ebe 5f96 75ba 5a32 74bc 3b0b 833d
000002c0: 116b 9fbb 7b30 e33b c28d 3abc 69f9 0abe
000002d0: cdf8 d4bb 90bd dbbc 1415 573c 8731 5bbd
000002e0: 47fb 6ebd 28dd af3d 11d7 f73b 95fa 783d
000002f0: 52f7 4b3e a041 66bd 634d 233d b028 efbd
00000300: 170c 9a3c 2917 19ba c655 d0bc 8204 1cbd
00000310: 35df 15bf b107 a33d 1dd9 043c 1269 0c3e
00000320: 0e75 203c 787d 1eb9 541b 153e 9679 33bc
00000330: f01a bf3d 59c4 2dbd ff03 9ebd 93d6 373c
00000340: 1e51 443d 4faa 633d dc7f 29bd cb84 d73d
00000350: 6f4b 443e e835 4fbe 957d 2a3e 825d c2bc
00000360: 83e7 6cbd a922 373d bc73 bbbd b046 513e
00000370: 31fe 53bc 15f6 91bd 92a4 c33d ff48 e3bd
00000380: 7e5d 183c b58d 91bc c491 9fbe d283 8cbd
00000390: b837 e2bc 87b5 a9bd 39dd 1abd b7a9 0a3e
000003a0: 005d 643c 3785 acbd bf44 06bd eeaa 673e
000003b0: 274d fd3d ea17 28bd 69c3 ad3d 7db2 033e
000003c0: 563e 65be a9bb 1dbd f476 d3be 5a4a 883e
000003d0: 0918 48bc fa83 c33d 20ff 55bd b8d5 bebc
000003e0: 4b89 95bd 1114 cdba 55c4 e6bb b59f d6bd
000003f0: eaf1 4ebb 14af b43d b4ec 773a f3ed ba39
