models/three_layers/threeLayerModel_emu_corrCut_-1.0_weights_true_drop_0.2_lorentzdelta.pt (torch, 605503 bytes, 14 tensors)

model.0.weight f4 [512, 28]
00000000: 6665 743d ea0f d6bd 61ce 743d d56f 38be
00000010: 82b1 abbe e8c4 45be 4cd0 8abd dda0 eabb
00000020: 3f3d 0cbd 1735 ed3d fc88 f8bd d949 483e
00000030: c1c0 bb3d 2bae 56be fd78 573e c64c b43d
00000040: 3122 563d c461 95bd 877c f13d 17e8 203d
00000050: 6d19 e5bd 2b15 afbd 2e53 83bc ff4a 943d
00000060: d0b7 34be 593b 493e 8394 75bc 9b2f d83c
00000070: 993d 08be 7622 a93d 8e48 ddbc c90a f4bd
00000080: 873b 8c3e 8434 1e3e 44d6 a53d 1ab1 b63d
00000090: 3961 393d 58ef 0b3c 8d08 133d f68b 1a3e
000000a0: cc98 07be a074 203e 8bb5 8eba 56dc 063d
000000b0: 14d8 bfbd 1c80 44be f95a 363e 25cb be3d
000000c0: aa61 04be ab15 193d 5eb2 bdbd c4e8 a1bd
000000d0: 69bb a8bd 54ee 043e a640 d53d 3472 babd
000000e0: f97a fa3d 54ba 1d3e 66ab e0bd bd5b 343d
000000f0: 7cf2 ed3d 3231 2e3e 3114 223e d636 abbd
00000100: beac 803d 1a22 e93d f4fa 5d3d 1ee2 c8bd
00000110: 1b78 f6bd c1cd a73d ae32 b7be 1d12 7bbe
00000120: 1d66 0fbe bf07 153d e22a 6ebd 3aff 20be
00000130: 996e 97bd f8c1 023e b6e0 193d be2e d8bd
00000140: 765d 033d 16c2 ea3d 977d 183e 746d 67bd
00000150: 2b35 23bd 1e30 21be c413 bbbd e7bc 92bd
00000160: 7c6f b0be 7acd 88be d323 30be 7669 453e
00000170: ca59 92bb 193b d23d 99e8 96bd ae80 1a3e
00000180: e02b 7ebd 94d5 063d e7e6 9e3d 9d47 3b3d
00000190: 8890 f83c add1 e23c 2142 8fbd 1bac c4bd
000001a0: 1cb2 24bd fea8 573c 34ed dcb9 e19b 5cbd
000001b0: 0eb8 1bbe 0102 c93d b0f4 913d 7f8d 3abd
000001c0: e1c3 813d 6e5f 123d 11d0 483d 7d1a 113e
000001d0: eca5 93be 7c14 60be 1fe2 3c3c 9965 0b3e
000001e0: 457b e6bd 89ff 2f3d aa6f 063d e739 50be
000001f0: cc5f 39be 5a47 09be 6203 a8bd 9108 7ebd
00000200: b6d4 9d3d f9ca a7bb b3b3 edbc 6b9f d3bc
00000210: cf6b 18be 83e6 a63d a2a4 153c f19f 8fbc
00000220: 5dc4 e1bb 0777 1bbe 0b7e a5bd e28b a5bd
00000230: c4ab c2bd 279d 93bd bf0d c93d 455a 1c3e
00000240: f5f3 a03d 72ed 6ebb 433c 69bd 2330 e3bc
00000250: 8a69 08be 5b6d 2e3e 990d 233e 9dfe 443e
00000260: 0473 29be 7e9f 783e bafb 363c db92 3e3e
00000270: 6cc2 283e b4d7 463d aa93 1ebd 58c1 413e
00000280: 44cb b33d 2a81 5bbd 466e 05be d544 5a3d
00000290: 955e a0bd 1264 0a3e dfa3 013e a271 72bc
000002a0: 0856 23be 14f0 e1bc ac35 243e 912d d63c
000002b0: 4ab8 60bc 5a5c 403e d3bb 023e ef92 a9bd
000002c0: c4e8 9ebc 264d a63d 6e50 bbbd afe5 d6bd
000002d0: db0d 3d3e 5362 65be fb6a 76be 967e 86be
000002e0: 71d3 34bd 8ed8 29be 397f c53d cf6c 073d
000002f0: a5be ee3c 034f b6bd 2d39 6abb 7f51 f53c
00000300: f0bb 37be 9ed8 0d3e 2f8b 9abd eb48 b7bd
00000310: 40dd 22bd 9481 e63d 7ed3 e4bd 3c7a 183e
00000320: 4d35 54bd a612 adbd e710 71bd 9783 6dbd
00000330: e5a4 11be 20d4 3e3e b88c 8ebd 7d00 843d
00000340: 9b85 1c3e 1514 633e 72d3 1e3e 2101 6fbd
00000350: e8ee 733d 65a3 b2bd 54a1 473e 2be2 54bd
00000360: e979 d13d 4b2c 2ebe ed24 cf3d 4025 d83d
00000370: 0cb3 f63d 50cd 9dbd 1935 173e 119b d63d
00000380: 521f 95bd 9765 223e d7bc 463d 36a0 0cbd
00000390: fa99 e6bd 7aec 21be 3fcb ddbd cce7 08be
000003a0: 8215 2dbe f67b ce3d f5f2 db3c a34c 8bbd
000003b0: 3735 cfbe 336b ddbe 67f0 c2bd 463d 5abe
000003c0: 8889 e2bd 46f3 533d c750 0c3e c0b0 2a3e
000003d0: 6d06 d3bd 03e9 acbc fc5b 8a3c 19c4 fbbd
000003e0: e7f8 2bbe a710 e53c f769 773d a9cb 3dbd
000003f0: 3310 15be 5d8f 0d3e e372 e4bd 73cb f63d
0.059667014 -0.10452254 0.05976713 -0.1801141 -0.33533865 -0.19313395 -0.06778011 -0.0071602897
-0.034238096 0.11582392 -0.12135503 0.1955942 0.09167624 -0.20964877 0.21042247 0.08803706
0.0522787 -0.07294038 0.1179133 0.039283838 -0.1118649 -0.08548959 -0.016030874 0.07240867
-0.17648244 0.19651546 -0.014989021 0.026389888 -0.13304748 0.08258526 -0.027012136 -0.119161196
0.27389166 0.1544972 0.080975085 0.08920498 0.045258734 0.008540951 0.035896827 0.15092453
-0.13241881 0.15669489 -0.0010887844 0.032924972 -0.093673855 -0.19189495 0.17808141 0.093160905
-0.12927881 0.03737418 -0.092625365 -0.07905725 -0.08238871 0.1298154 0.10412721 -0.09103814
0.122304864 0.1540311 -0.10970192 0.0440328 0.11618516 0.17010954 0.15828015 -0.083600685
0.06282948 0.113834575 0.054194406 -0.098087534 -0.12034627 0.08193541 -0.35780853 -0.24518628
-0.14003797 0.03638434 -0.058146365 -0.15722361 -0.07394142 0.12769306 0.037567817 -0.1055579
0.032071553 0.114628 0.14891659 -0.056500867 -0.039845627 -0.15741012 -0.09134629 -0.071649365
-0.34460056 -0.26719266 -0.17201166 0.19278511 -0.00446627 0.10265178 -0.07368583 0.1508815
-0.06205356 0.032918528 0.07758885 0.045722593 0.030342355 0.027687872 -0.06995035 -0.09603139
-0.04020892 0.0131628495 -0.000421384 -0.053859595 -0.1520693 0.09814835 0.071267486 -0.045545097
0.06336189 0.03573554 0.049026553 0.1417026 -0.28837526 -0.21882814 0.011528521 0.13612975
-0.112539805 0.042968307 0.032821335 -0.20334588 -0.1810295 -0.13406125 -0.0820377 -0.06201989
0.07706587 -0.005120632 -0.029016351 -0.025832852 -0.14884876 0.08149435 0.00913349 -0.01753232
-0.0068898634 -0.15182124 -0.080806814 -0.08083321 -0.09505418 -0.07207709 0.09817075 0.1526881
0.07859031 -0.0036457446 -0.056942236 -0.027732914 -0.1332151 0.17033903 0.15923156 0.19237752
-0.16547781 0.24279591 0.011168415 0.18610708 0.16480416 0.048545554 -0.038715042 0.18921411
0.08779004 -0.053589977 -0.13030347 0.0532883 -0.0783054 0.13514736 0.12660168 -0.0147976
-0.15950787 -0.027580298 0.16036099 0.026144775 -0.013715813 0.1878523 0.12766962 -0.082799785
-0.0193981 0.08120184 -0.091462 -0.104930274 0.18462317 -0.22400789 -0.24064247 -0.26268452
-0.04414696 -0.16586515 0.096434064 0.033062752 0.02914364 -0.08901789 -0.0035739646 0.029946087
-0.17942786 0.13852164 -0.075460784 -0.08949455 -0.03976178 0.11255184 -0.111731514 0.14890379
-0.051808644 -0.084508225 -0.05885401 -0.057986822 -0.14223059 0.18635607 -0.06960434 0.06445406
0.15285341 0.2217563 0.15510347 -0.058350686 0.05955401 -0.08722571 0.19495136 -0.051973503
0.10228331 -0.17009084 0.10114465 0.1055398 0.12045869 -0.07705176 0.14766349 0.10478795
-0.072813645 0.15859066 0.048519935 -0.034332477 -0.112598374 -0.15812865 -0.10829782 -0.13369673
-0.16902736 0.100822374 0.02684925 -0.06801727 -0.40470287 -0.4324585 -0.09518509 -0.21312436
-0.11061388 0.051745676 0.13702689 0.16668987 -0.1030396 -0.021107202 0.016889565 -0.12293262
-0.16794167 0.027962042 0.06040379 -0.046336804 -0.14556961 0.1382422 -0.111547254 0.120505236

model.0.bias f4 [512]
00000000: 0176 1f3e 291f 063e 718f bcbd 245f 05bd
00000010: 40d4 bdbd d9c5 713d b35d aebd 81cd cabd
00000020: 7c9a 083e 53bf 8a3d 5835 16be e763 fcbd
00000030: 7a61 0abe fd44 b43c c3ce 023e 436c 733c
00000040: e6e2 103e 990d ac3d bd08 403e 9b3e 2bbe
00000050: 2041 f53b bd95 2f3e 8fc2 ebbd 7c29 353e
00000060: ecf7 3a3e da04 433c 3c4e 1d3c 0cb1 d1bd
00000070: 72a3 aabd 71a4 13bc dcff 81bc 1c90 ac3d
00000080: b10d 5d3c 5372 1dbe 7071 473d 783e 173d
00000090: bc19 0c3d 432e 00be 1451 533b 2b51 f1ba
000000a0: 11b4 acbd ca93 9cbd 0227 c4bb 53cb 06be
000000b0: bae6 e13d 542f 3f3e e0b0 c0bc da68 af3c
000000c0: e539 303d 6c53 aa3d 66b7 42ba 276b d0bd
000000d0: 797e b9bc a28b 1c3e 7ac7 283e 061c d8bd
000000e0: 6b03 33be c79b 0b3e 75d5 cdbc 75ea 7e3c
000000f0: 2ad6 3b3e 50ef 133e 0757 99bd 62b9 37be
00000100: 74a3 233e 9a06 cdbc 350c 1cbe ab06 77bd
00000110: 9250 34bd 620a 083e 1164 3dbe dd1b 8f3d
00000120: 2817 f83d 954f 7fbc 192b f33b 4010 e03d
00000130: f1e6 303d f89e d73d 3b12 9c3d 0d9f cebd
00000140: f7ad 29be cc6a e93c 23fc 4abd 78e7 b83d
00000150: 2ed5 01bc dc3e 2b3e 9a5b 3a3e a223 8cbd
00000160: 938f 87bc f9df 5e3d f147 86bb 08be 163e
00000170: f627 383c 166c 0b3e 97df 39bc 05f4 0a3e
00000180: 50e7 33bc 775b a73d de1a 1e3e a281 2bbe
00000190: e30f 50bd 3e0e 0ebe cc19 1cbe 27d6 59bd
000001a0: 069a bf3d dde4 34be f244 26be abd0 9fbd
000001b0: aa95 38bc 1038 c43c 903b 07bd a96c 18bd
000001c0: e71e 34be 2c0b 08be 60fb 34be 5f95 36be
000001d0: acbe 06be ce28 b83c 1554 ff3d 9a8c 12be
000001e0: e5fb 073e 8c32 b7bd 8044 343e 12ff c13c
000001f0: f3ae 2cbe 84ca 243e 315a 183e 039a a33d
00000200: 1788 28bd 9495 09be cd79 0c3e 3301 e7bd
00000210: 1018 e3bc e5b9 283e a790 273e 99bd 56bd
00000220: 9239 cabc fb8f aabc 319c 0fbe 2878 e13b
00000230: 23d2 743d ea0d d13b 6e9d babd e38d 6abd
00000240: c0b4 39be 7c98 6fbd 6304 0b3e ea38 e13c
00000250: ba40 29be a81e 11bd 8647 103e 619a f3bc
00000260: 3d13 e9bd 947f 3c3c bbe5 123e 74e6 103e
00000270: 6331 13be db13 9cbd d778 093d 558c a43d
00000280: 31f0 823d a7bf 32bd 9120 f5bd 62a5 843d
00000290: e22c 193e 6323 1abe 1ea5 ccbd a122 dd3d
000002a0: 9fe5 163e 0a5c 3c3d 15e4 9fbd d76c 2ebe
000002b0: 3ae0 f8bd b91a d8bd 7619 31bd 3403 7bbd
000002c0: b914 ffbd de7f 39bd a2f6 b53b 9e31 03be
000002d0: b8a2 aabd c7a7 93bd cc85 183e a5f4 debd
000002e0: 2d10 8ebd b937 d6bd 5dbf 20be b1f2 afbd
000002f0: 1640 ca3d ef77 d6bd 9da5 c43d 477a 08bd
00000300: aa4b 8a3d e943 1cbe d606 a3bd 6677 93bc
00000310: 1f3f 6fbd a3f3 2ebc c4b9 813d 719a 18be
00000320: 1cb8 f83d 4ec7 973d c3a8 133e 87e6 113e
00000330: 6d88 10bd 7325 2c3e da02 823d 059b f83d
00000340: af13 303e 8c69 e7bd a480 0f3e cf7a de3c
00000350: 0ebc ddbd a77b 3f3e ceeb 84bc 4514 b1bd
00000360: ead1 d9bc de25 b3bd a3c8 3c3d 2862 26be
00000370: 8aec e83d f16b 363e ae8b ad3d 8bb8 273e
00000380: 0809 5c3c 1989 03be 603b 3abd 592f 9f3d
00000390: 2788 3abd 8ba5 edbc ffe6 24be a466 e1bd
000003a0: 8bc4 30be 177b 1c3e edf5 88bd 89e3 223e
000003b0: e0df a8bd 5615 0a3e 8afe 8fbd b9e6 c13d
000003c0: 669a 223d 1465 09be 1efc 353d c0f9 83bd
000003d0: f9a3 28bc 4954 d43d 9d22 403d 4517 013e
000003e0: 67d0 be3d 973f e6bd 2626 1b3e 23a1 803d
000003f0: b3c4 f8bd 669a d13c 72bf debd 95bf e8bb
0.15572359 0.13097824 -0.09207047 -0.032561436 -0.09268999 0.059026573 -0.085139655 -0.09902478
0.13340181 0.067747734 -0.14668787 -0.12323742 -0.13513747 0.022005552 0.12774186 0.014857355
0.14149055 0.08401031 0.18753333 -0.16723101 0.00748457 0.17146964 -0.115117185 0.17691606
0.18258637 0.011903012 0.009601172 -0.10238847 -0.08331956 -0.009011374 -0.015869074 0.08425924
0.013492034 -0.15375642 0.048692167 0.03692481 0.03420423 -0.12517647 0.0032244371 -0.0018411031
-0.084327824 -0.07645376 -0.0059860954 -0.131635 0.11030336 0.18670398 -0.02352184 0.021412302
0.043023963 0.08316693 -0.0007427841 -0.10176688 -0.022643315 0.1528764 0.16482344 -0.1055222
-0.17481773 0.13633643 -0.025126198 0.015558829 0.18343416 0.14446759 -0.07487302 -0.17941812
0.15980321 -0.025027562 -0.15239032 -0.060309093 -0.04402215 0.1328521 -0.18495204 0.069877364
0.12113792 -0.015582939 0.007420909 0.109405994 0.043188993 0.10528368 0.07620665 -0.1008893
-0.16570269 0.028493308 -0.049556863 0.09028524 -0.007924361 0.16723198 0.18199006 -0.06842734
-0.016547954 0.054412816 -0.0040979316 0.14720929 0.011239996 0.1361545 -0.011344812 0.13569649
-0.010980442 0.081717424 0.15439937 -0.1674867 -0.0507964 -0.1387262 -0.15244216 -0.053182747
0.093555495 -0.1766543 -0.16237238 -0.07803472 -0.011266151 0.023952514 -0.033015788 -0.037213
-0.17589913 -0.13285512 -0.17674017 -0.17830418 -0.13158673 0.022480395 0.12467209 -0.14311448
0.13279684 -0.08945188 0.17604256 0.023681197 -0.16863613 0.16092879 0.14878155 0.0798836
-0.04114541 -0.13435966 0.13718338 -0.112795256 -0.027721435 0.16477163 0.16363774 -0.05242691
-0.024685655 -0.020820608 -0.14024426 0.006880779 0.059770714 0.0063798325 -0.091120586 -0.05726422
-0.18135357 -0.05849503 0.13575892 0.027492959 -0.16528597 -0.035429627 0.14089784 -0.0297367
-0.113806225 0.011505026 0.14345448 0.14150411 -0.14374308 -0.07620975 0.033562507 0.08034579
0.06393469 -0.043639805 -0.11969102 0.06476857 0.14958528 -0.15052561 -0.09992431 0.107976206
0.14736031 0.045986213 -0.07807175 -0.17033707 -0.12152143 -0.10551972 -0.043237172 -0.06128235
-0.124551244 -0.04528796 0.0055530826 -0.12811896 -0.083318174 -0.07209735 0.1489479 -0.10886506
-0.06936679 -0.10459847 -0.15698 -0.085912116 0.09875505 -0.10472094 0.09601901 -0.033319738
0.06752713 -0.1526028 -0.07960288 -0.01800127 -0.058409806 -0.010678205 0.0633426 -0.14902665
0.12144491 0.07411061 0.14419846 0.14248095 -0.035286356 0.1681116 0.063482 0.12138943
0.17195009 -0.11299428 0.14013916 0.02715817 -0.10826884 0.18699513 -0.016225722 -0.08646444
-0.026589353 -0.08747457 0.04608978 -0.16248381 0.11373241 0.17814614 0.084739074 0.16378991
0.013429888 -0.12845267 -0.04546678 0.07772703 -0.04554 -0.029009601 -0.16103743 -0.11005905
-0.17262475 0.1528133 -0.066875316 0.1590711 -0.08245826 0.13484702 -0.07030971 0.09467835
0.039698027 -0.13417464 0.04442989 -0.064441204 -0.010293 0.103676386 0.04690801 0.12606533
0.09317093 -0.112425976 0.15151271 0.062807344 -0.121468924 0.025586318 -0.10876359 -0.0071029165

model.1.weight f4 [512]
00000000: 28fc 7e3f d6ac 823f ab0b 7e3f 8aa8 7d3f
00000010: 736b 803f dee2 783f dfd9 803f a356 803f
00000020: a35e 853f 753b 783f e1fe 7c3f 1217 7e3f
00000030: ffe3 813f cf81 7e3f 6c49 833f 3cc7 793f
00000040: b688 803f 09cd 773f a48a 813f a1e8 7b3f
00000050: 4e31 7a3f ffec 7a3f aa8c 843f 0a86 813f
00000060: 730c 7a3f 8b43 7a3f 05dc 803f 2d6f 853f
00000070: 0bda 7b3f bc2e 7e3f f3ac 833f 6d48 813f
00000080: 479c 863f 77c4 7b3f f0e4 743f 788f 7e3f
00000090: 1eb4 7f3f 61c2 733f 2f3d 7f3f c936 863f
000000a0: bdf5 783f da7e 853f f108 7c3f e575 833f
000000b0: 7bb1 803f a694 7b3f 8c9f 823f 8e12 853f
000000c0: 39d3 783f 2405 813f 1040 7a3f aa48 7b3f
000000d0: 22af 843f 08b0 7d3f d4ab 7c3f 3b59 803f
000000e0: d508 7f3f 89f7 873f 3150 7e3f a9db 843f
000000f0: 6167 813f 8f7a 793f 2b5f 793f 0d12 7f3f
00000100: 8b38 7e3f 056c 813f ce53 7d3f 3c92 883f
00000110: 95ae 753f 308e 793f 2b0a 7c3f 3ba0 803f
00000120: 7d51 7c3f c64f 773f a379 7d3f ba78 7c3f
00000130: 88a8 7f3f 0e8b 803f 5ef5 763f 8e21 823f
00000140: 1dcb 763f 5b72 743f 5a83 823f f16c 7e3f
00000150: e1fe 803f 2b5c 7e3f ef5e 793f 0c7c 7a3f
00000160: f643 7c3f 477d 773f 0ed0 783f cd9f 7c3f
00000170: 12d8 773f 3643 803f 00d5 7b3f eb79 803f
00000180: da61 7e3f 4fc9 7c3f 6f62 713f ef72 7c3f
00000190: f140 833f 39ff 7f3f efc1 753f b42e 813f
000001a0: 2d1d 893f 8ca6 7f3f 4e1b 7d3f a34c 803f
000001b0: e57b 7f3f c26e 823f 813b 833f 1ac3 783f
000001c0: e620 763f d24c 803f 938d 783f 2b26 823f
000001d0: 460f 803f 6a06 813f decd 813f 10fa 7a3f
000001e0: 5346 823f 3f4c 833f 7ff9 783f 943f 833f
000001f0: 5f93 773f 1381 823f b99d 7c3f fad8 803f
00000200: d31a 823f 098f 7e3f 7d11 7c3f 1326 813f
00000210: fd3c 7f3f 0969 7a3f 01ee 793f fc85 833f
00000220: f83d 853f 81de 833f 32f3 823f 8f5e 753f
00000230: 33a3 7c3f 4a11 7f3f d2cd 7c3f 8917 803f
00000240: 34f7 7b3f 5272 7a3f 6c0d 7d3f a02c 793f
00000250: b36f 7f3f 8923 813f e30c 813f 65c9 813f
00000260: fddc 813f 1b3c 7e3f bc29 773f 55d3 843f
00000270: 1538 813f 902a 7b3f 7552 763f ae4d 7a3f
00000280: 4591 7e3f 6d36 7c3f 993d 7c3f 71d3 803f
00000290: 9cab 803f aa9b 803f 890f 893f a16f 823f
000002a0: 849d 7a3f 31ab 7d3f 561f 823f ac38 7f3f
000002b0: 2894 883f 8a05 793f 0da0 703f d6c0 823f
000002c0: c078 7b3f 3961 803f d511 803f 1608 7f3f
000002d0: ea4b 7f3f 49a3 7f3f 0d0c 783f b5a5 7b3f
000002e0: e043 7f3f 56a5 823f c56d 7a3f faf9 783f
000002f0: 42d7 7d3f bf91 803f ab3a 853f e446 753f
00000300: 3794 7c3f 4b25 7c3f b24d 853f 2139 7b3f
00000310: 00d9 7e3f 11ee 783f 5b46 7f3f 3f43 7f3f
00000320: 7d1c 7f3f 1975 7f3f f72c 813f 0e71 803f
00000330: 2eaf 773f 0f24 7a3f 35de 803f 0e5e 803f
00000340: 992e 7e3f 0471 7d3f b515 7e3f 85d0 803f
00000350: 72af 773f 91d2 7f3f 60d7 7e3f 18a2 7f3f
00000360: fb1a 773f bca7 803f 2396 803f e384 7f3f
00000370: 7c88 7d3f f8c6 7d3f 82e4 743f 4bf0 7d3f
00000380: 55f6 7c3f 3650 753f c63e 7b3f cf46 7b3f
00000390: c477 7d3f 9146 7d3f 90d0 7e3f 8a89 7a3f
000003a0: c39e 803f e2e2 7b3f a661 7f3f 62d0 7f3f
000003b0: 4a8d 7e3f cf1d 843f 666e 7d3f e756 773f
000003c0: 77f8 7c3f 6196 783f dfa1 773f baf0 813f
000003d0: e958 803f 4161 743f c276 7c3f 2819 853f
000003e0: bead 783f e094 7e3f 2ca8 773f f2ae 803f
000003f0: 43a2 793f 6f7c 7b3f 28ed 893f 45ea 7a3f
0.9960351 1.0208995 0.99236554 0.99085295 1.0032791 0.9722117 1.0066489 1.002644
1.0419506 0.96965724 0.98826414 0.9925395 1.0147704 0.9941682 1.0256782 0.9756963
1.0041721 0.96797234 1.0120435 0.9840184 0.97731483 0.9801788 1.0355427 1.011903
0.97675246 0.9775931 1.0067145 1.0424553 0.9837958 0.9929006 1.0287155 1.0100228
1.0516442 0.98346657 0.9566183 0.99437666 0.9988421 0.95218474 0.99702734 1.0485469
0.97249967 1.0429337 0.98451144 1.0270354 1.0054163 0.98273695 1.020494 1.0396287
0.971973 1.0079694 0.97754 0.9815775 1.0365946 0.9909673 0.9869969 1.0027231
0.9962285 1.0622417 0.9934111 1.0379535 1.0109674 0.97452635 0.9741084 0.9963692
0.9930503 1.011109 0.98956 1.0669627 0.95969516 0.97482586 0.98453015 1.0048898
0.9856184 0.966061 0.9901373 0.98621714 0.99866533 1.0042436 0.9646815 1.016649
0.96403676 0.9548699 1.0196335 0.9938498 1.0077783 0.9935939 0.9741048 0.9784553
0.985412 0.96675533 0.97192466 0.98681337 0.9681407 1.0020511 0.9837189 1.0037206
0.9936806 0.9874467 0.9429082 0.98612875 1.0254194 0.99998814 0.95999044 1.0092378
1.0712029 0.99863505 0.9886979 1.0023388 0.99798423 1.0190051 1.0252534 0.971727
0.9614395 1.0023444 0.97091025 1.0167898 1.0004661 1.0080082 1.0140951 0.98037815
1.0177711 1.0257643 0.972557 1.0253778 0.96709245 1.019564 0.98678166 1.0066216
1.0164436 0.99437004 0.98464185 1.0089744 0.99702436 0.9781652 0.9762879 1.0275264
1.0409536 1.0302278 1.0230467 0.9584741 0.9868652 0.99635756 0.98751557 1.0007182
0.9842408 0.9783069 0.98848605 0.9733372 0.99779814 1.008897 1.0082058 1.0139586
1.0145565 0.99310464 0.96548057 1.0376993 1.009524 0.9811182 0.9621957 0.9777478
0.99440414 0.9852055 0.9853149 1.0064527 1.0052371 1.0047505 1.0707866 1.0190316
0.978966 0.9908934 1.0165813 0.9969585 1.0670214 0.97274077 0.9399422 1.0215099
0.98231125 1.002967 1.0005442 0.99621713 0.9972521 0.9985853 0.9689339 0.98299724
0.99712944 1.0206707 0.97823745 0.97256434 0.9915658 1.0044478 1.0408529 0.95811296
0.9866366 0.98494405 1.0414336 0.98134047 0.99549866 0.9723826 0.9971673 0.99711984
0.99652845 0.9978805 1.0091847 1.0034502 0.9675168 0.9771127 1.0067812 1.0028703
0.9928985 0.99000573 0.9925187 1.0063635 0.96752083 0.99930674 0.99547386 0.9985671
0.96525544 1.0051188 1.0045818 0.99812144 0.99036384 0.9913173 0.95661175 0.9919478
0.9881337 0.9582552 0.9814266 0.9815492 0.9901087 0.989358 0.9953699 0.9786612
1.004845 0.9839307 0.99758375 0.9992734 0.9943434 1.0321597 0.9899658 0.9661698
0.9881663 0.9710446 0.9673137 1.0151589 1.0027133 0.954609 0.9861871 1.0398302
0.9714011 0.99445915 0.96740985 1.0053389 0.97513217 0.98236746 1.0775499 0.98013717

model.1.bias f4 [512]
00000000: 04a2 80bd ae08 1c3c 0365 f6bd e725 c4bd
00000010: 31a9 c6bd a92d 92bd cd8f 58bd a3a7 d0bd
00000020: 2889 2bbd badf 45bd 7834 173c 5ee8 91bd
00000030: 32ad 56bd 0793 e2bd ebe0 3dbd f548 debd
00000040: c080 bdbd 79ba debc d965 aebd 5701 4dbd
00000050: 92fc b1bd 9c07 78bd cbee 39bd a4e0 a1bd
00000060: 2dab ccbd 699a a0bd 32c4 08bd 8bc4 babd
00000070: 3229 3dbd f8c6 46bd 5e3e 70bd 98a7 aebc
00000080: 90a9 0abd 79dd 2cbb cc3b 42bd d7f9 17bd
00000090: 4167 a4bd b1d8 f6bc ed91 efbc 7484 d1bd
000000a0: 0976 cebd f72d 59bd beb6 0cbd 83f9 a6bd
000000b0: 3b5c 89bc 49a6 25bb ecdc 55bd 78eb 2fbd
000000c0: cf2e 50bd fe74 e2bd 6ad1 0fbd c3cd 89bd
000000d0: 3a43 4dbc 7b29 d8bd d760 8dbd c099 f5bc
000000e0: 0ef5 97bd 7787 9cbd 8696 87bd d3ec bebd
000000f0: dbdf 61bd b996 84bd 4e83 91bd ab14 f3bc
00000100: b6de 84bd e6a3 8dbd 9681 73bd 6fa3 00be
00000110: babb e7bd d364 5dbd d373 3dbd 03d1 b5bd
00000120: 480f c2bd 27b3 fdbc 0eaf 9cbd b4ce 8bbd
00000130: 5602 cabd 2c57 43bc 97d6 d7bd 0f54 f43a
00000140: c896 0bbd 6ed9 e0bc d6c1 14bb 142f 1ebd
00000150: 52c7 83bd 8041 8ebd 4a8b abbd e359 f6bd
00000160: ce7c eebc b741 81bd bfe2 5ebd a1ba 85bd
00000170: 2486 6ebd 9e1b 8abd 6d74 efbd 4854 56bd
00000180: f088 1cbd e2d2 013c 4953 9dbd 810a 22be
00000190: da43 7fbd b88a 61bd 6fb7 79bd 0f73 b2bd
000001a0: 4a24 0dbd 65d1 97bd 9cc6 85bd 9a30 84bd
000001b0: 1652 81bd 5bee 65bd 9f5c 6ebd 7e76 a8bd
000001c0: 5059 84bd 9465 b93a d5e5 81bd aed3 33bd
000001d0: 6161 62bd 00e1 10bd 0a14 89bd 1702 f6bd
000001e0: b58d babd 4ff9 02be d6aa 473b 425b c7bc
000001f0: b758 15bd 9ea1 cbbd 2181 57bc 6f26 ebbc
00000200: 0135 3abd f92f 91bc c2a8 f3bd b947 c7bd
00000210: 394e dcbd b437 cebd 8ee1 7cbd 16b1 7fbd
00000220: 0893 b4bd 57e2 e9bd 0dec 1e3c c5ff acbd
00000230: fe75 d2bd 5d2f f3bc 14e3 e0bd e15c f5bc
00000240: bd8d 8abd febd 50bd 9934 bdbd 5af6 a7bd
00000250: d7f9 21bd 0238 b9bd f7df 24bd 891d 4abd
00000260: 4ba8 94bd 7034 2dbd a8fd 5abd 269f 20bd
00000270: d22a 89bd 7e4e e2bc a7f3 88bd e80d 93bd
00000280: 3297 fdbd 546f b3bc cece debd 6d3c a5bd
00000290: 78db 4cbd 236d 8ebd 3ab6 95bd 3eaa 32be
000002a0: b5c2 a1bd ee51 e5bc 501a a4bd 7242 68bc
000002b0: d118 01be d368 a5bc dcf7 68bd d6d8 56bd
000002c0: dcdf b1bd d135 03be a240 37bd 2381 83bd
000002d0: 3303 aebd 05ad 3cbd 9863 a4bd 20b2 fcbd
000002e0: f438 5fbd 00f2 63bc c89d 9abd 580c 44bd
000002f0: 3d78 abbd ff60 8ebd 196e 57bc d149 83bd
00000300: ae4b bebc 8ca7 e8bd 72eb d1bd e50b babc
00000310: 098e 8bbd 4102 7cbd 2490 7bbc 9447 a3bd
00000320: 0f78 bfbd 5ff6 81bd e874 b7bd 0f84 cbbd
00000330: 9b35 86bd 0061 a1bd 1c50 43ba cced b1bd
00000340: 22de e4bd 740b 20ba 8c06 b93b ef2d 07bd
00000350: 0fae febc e285 c7bd 7fcc 6abd fe17 c2bc
00000360: 7660 8bbd 4d9a d1bd cd43 c5bd 68e5 9fbc
00000370: f59c ccbc c58f cbbd b373 c2bc 48d1 90bd
00000380: 35c2 abbd 79cd d1bc 7469 59bd 5c70 9ebd
00000390: 21e9 78bd 6d39 98bd 9f59 a0bd f8b7 30bd
000003a0: e54d dabd d5cc dd3b bb9b 31bd 70b5 04be
000003b0: fee6 b3bd 8dc9 17be 82f4 2bbd b8b1 44bd
000003c0: e175 57bb bf07 95bd 3147 97bd c493 96bd
000003d0: e804 ebbd 8e5c c1bc e8d9 70bd 6fa3 943b
000003e0: c3b2 52bd 275d e1bc 3608 2dbc cd72 5cbd
000003f0: 53b2 82bd c9b4 55bd dbae 9bbd dd13 acbc
-0.06280902 0.009523554 -0.12030985 -0.09577542 -0.097002394 -0.07137615 -0.052871514 -0.10188224
-0.04187885 -0.048309065 0.009228818 -0.07124399 -0.052411266 -0.110631995 -0.046357077 -0.10853759
-0.09253073 -0.027188526 -0.0851552 -0.050050106 -0.08690752 -0.060554132 -0.045393746 -0.07904175
-0.09993587 -0.078419514 -0.03339023 -0.09119519 -0.046181865 -0.048529595 -0.058653228 -0.02132015
-0.033853114 -0.0026377125 -0.047420308 -0.0371035 -0.080275066 -0.030132623 -0.029244388 -0.102303416
-0.10081107 -0.05302235 -0.034353964 -0.08153059 -0.016767612 -0.0025276116 -0.05221264 -0.04294917
-0.05082589 -0.11057471 -0.035111822 -0.06728699 -0.012528235 -0.10554787 -0.06903236 -0.02998054
-0.07419787 -0.07643025 -0.06620507 -0.093225144 -0.055145126 -0.064740606 -0.071051225 -0.029672941
-0.06487791 -0.06916027 -0.059449755 -0.12562345 -0.11315103 -0.05405123 -0.046253037 -0.088777564
-0.09475571 -0.030969216 -0.076505765 -0.06826535 -0.09863727 -0.011922639 -0.10538977 0.0018640774
-0.034079343 -0.027447429 -0.0022698543 -0.038619116 -0.06434502 -0.06946087 -0.08376177 -0.12028863
-0.029112246 -0.06311362 -0.05441546 -0.06529737 -0.058233395 -0.06743549 -0.11692128 -0.05232647
-0.03821653 0.007923814 -0.07681901 -0.1582432 -0.062320568 -0.055063933 -0.06096595 -0.08713352
-0.034458436 -0.07412986 -0.06532022 -0.064545825 -0.06314485 -0.056135517 -0.0581938 -0.082257256
-0.064623475 0.0014144653 -0.06342665 -0.043903045 -0.05526865 -0.035370827 -0.06693275 -0.12012117
-0.0910906 -0.12790416 0.0030466816 -0.024335507 -0.03646156 -0.099429354 -0.013153345 -0.02870485
-0.045460705 -0.01772307 -0.118974224 -0.09730477 -0.10757107 -0.10069218 -0.061738543 -0.06242474
-0.088171065 -0.11420124 0.009699834 -0.08447222 -0.102764115 -0.02968567 -0.10980812 -0.029951515
-0.06765316 -0.05096244 -0.09238548 -0.08201285 -0.039544906 -0.09043886 -0.040252652 -0.049344573
-0.07258662 -0.042286336 -0.05346456 -0.039214276 -0.066976205 -0.027625319 -0.06687098 -0.07180387
-0.12382354 -0.021903671 -0.108792886 -0.08068166 -0.05001399 -0.0695441 -0.073101476 -0.17447755
-0.078984655 -0.027993169 -0.08012831 -0.014175998 -0.12607123 -0.020191586 -0.056877002 -0.052452885
-0.08685276 -0.12813498 -0.044739373 -0.06421115 -0.08496704 -0.04606344 -0.080268085 -0.12338662
-0.054497674 -0.013912678 -0.07549626 -0.047863334 -0.08372543 -0.06952094 -0.013148808 -0.06410564
-0.023229446 -0.11360082 -0.10249986 -0.02271075 -0.068142004 -0.061525587 -0.01535419 -0.07972637
-0.09349071 -0.0634582 -0.08957845 -0.099372976 -0.06553193 -0.078798294 -0.0007450597 -0.08687934
-0.11175181 -0.0006105222 0.0056465324 -0.03300279 -0.031088857 -0.09742333 -0.05732393 -0.023693081
-0.06805508 -0.10234509 -0.096320726 -0.01951857 -0.024977187 -0.09939531 -0.02373681 -0.07071167
-0.083866514 -0.025610672 -0.053079084 -0.077362746 -0.060769204 -0.07432828 -0.07829594 -0.043144196
-0.106593885 0.0067688026 -0.043361407 -0.12959838 -0.08784293 -0.1482298 -0.041981228 -0.04802105
-0.0032876658 -0.07276868 -0.073866256 -0.07352403 -0.11475545 -0.023603704 -0.05880156 0.0045360844
-0.05144001 -0.027510239 -0.01056104 -0.05382042 -0.06381669 -0.052174363 -0.076017104 -0.021005565

model.1.running_mean f4 [512]
00000000: 3dae 083e c59e 5b3e cc35 263d 3f70 87be
00000010: 69ae 8abe 4870 ed3e 78a1 90be 37b0 813e
00000020: 3ab7 0fbe d9cb 3abc 3eaa cebe 24c7 b1be
00000030: 5c9c 45be 6d90 9f3c 5223 203e c465 4f3d
00000040: 69bd 053e 8d31 f83e ab24 4d3e 052b e3be
00000050: 841a a13e b419 383f 9c24 82ba 2618 7c3d
00000060: df51 143f 1566 abbd 9b2e f73e b29e 0fbe
00000070: 1d59 14be a034 11be 89d7 b4bc e295 853d
00000080: 10b0 783e 444f b4be daf9 71bd b789 d3be
00000090: ac1f 13be c8fe 74bc 2b0b 11be d24b a4bd
000000a0: c884 873e 827c 003e 263d 83be 48d4 2abe
000000b0: a649 913e f8f2 993c 43a4 b83b 8591 f7be
000000c0: b645 43bd 41b8 183e 1b61 2abe 7c16 0abd
000000d0: fc02 99be 14fe ee3d 9808 0c3f 3ce6 b03e
000000e0: 2800 87be 36e8 203e fda1 41be a7c9 1dbd
000000f0: e38e 703e adff 523e e8c6 1dbf 437d 15be
00000100: 0ec3 033f 244c f2bc 4616 24be e925 ddbc
00000110: de67 7c3d af70 34be 2370 7dbe 77fa 693e
00000120: 66b4 0d3e ca2c 343d 8987 04be 8a8c 413d
00000130: efb9 003f 00bc 873d 9c30 edbd 0e98 83be
00000140: c394 f7bd 1a4d 64bc db3b 6cbe c222 d23e
00000150: 6c65 ffbe 0f65 46be c7c1 aa3e 3ae8 e4be
00000160: 838b e13e 8ac0 febd 6a0a e13c a4bb 1b3f
00000170: c428 693c 56fa 04be 9879 a3bd 800a 48be
00000180: 7d1a c63d 841a 1bbb 3108 a33b f216 053d
00000190: 78a2 93be c539 ecbe d655 16be 91b1 a4be
000001a0: f912 adbd 53ba d8bd 0d91 a9be cc92 dbbe
000001b0: 2cf9 88be 372f eabe c558 79bc 729b 8cbd
000001c0: 89a8 993e e226 1fbe 3a4c 05be 51c1 c5be
000001d0: 62db 8ebe 1bd1 5dbd 9dd6 e03e 85d7 92be
000001e0: 3e7d 96bd 6f94 92bd eb69 e53d 7d84 283e
000001f0: 6f55 253e 886c 133e bad1 bd3e c7e4 91be
00000200: ef9c a63c 1aec 9a3c 8f6d ebbb 8e2e d7bd
00000210: 1851 0ebe 558f aa3e 03f0 8dbd 0e19 253e
00000220: 3ee0 3e3e 968f 7abe 5eac 02bf 3faa 9b3d
00000230: fad5 df3e 9d3e 183d de32 bb3e 3833 01bf
00000240: 4aad 80bd 4c11 1c3e eb13 75be a63f a1bd
00000250: 989e a5be 6751 663e acee 853c 7cf0 86be
00000260: dbb3 f2be 0ce7 f5bd fc72 34be 1bf1 0e3d
00000270: e76c d33c 0b7c abbb 66df 51bf 72be f93d
00000280: e78b 553e 3b88 d23e 7342 debe 8791 25be
00000290: 97a4 0d3e 2b4d 15be 3fa0 43be e3dd a33e
000002a0: f88d 2e3f feec 87be a631 e0bc 2034 31bc
000002b0: 79a1 6a3b a8b0 ec3d e4dd 173e 8c9d a43e
000002c0: 3980 ebbd 6e90 193e 19a2 3d3e f088 813e
000002d0: bed9 a5be 26dd c73e 23ad 4dbe 5f89 d5bb
000002e0: 567d 2ebd 8de5 0cbf 7c96 fa3d 70ea 82be
000002f0: 8874 39be 8518 883e b862 473e 2379 5fbf
00000300: 0250 883c 1e6f b73d 5a5f 99bd 3734 8abd
00000310: e648 123e 34d2 103b 4c58 923d dde0 a4be
00000320: f1f0 a83e c645 483e 2168 9fbc acb9 5a3e
00000330: 3a32 b13e 3283 0e3f 3aa7 f33d d3db 683e
00000340: 6866 183f 94ed 50bd 7826 76be 7b31 653d
00000350: a177 c2bc 6a56 2a3f fb9a bebe a258 c3bd
00000360: 692e 7dbe a212 523e 826d 523d 6ca9 27be
00000370: 326e 07be 9444 883e 30c0 dc3e d997 173e
00000380: a809 993e 9d1a 903e a176 5ebe 197d 02be
00000390: 939c 86be f49d 1fbe f6a6 f7be 6532 f13d
000003a0: 8dc1 dcbe b7a9 423e 1e29 7ebe 0ff4 713e
000003b0: e8c6 9a3e 0da2 523e 6ed9 72be 3b50 d33b
000003c0: 7247 39bc b98e f3bd 533e debd cfeb 9cbe
000003d0: 44ff d73d a7f1 87bd db95 10be 0088 f43d
000003e0: f856 4b3e c237 26be d27f efbc 802e 833e
000003f0: 6d26 303e ba7e 163e 3687 6cbe ee7b 873c
0.13347717 0.21447285 0.04057865 -0.26452824 -0.2708619 0.46374726 -0.2824819 0.25329754
-0.14034739 -0.01140114 -0.4036426 -0.34722245 -0.19297928 0.019478047 0.15638474 0.05063416
0.13060535 0.48475304 0.20033519 -0.4436876 0.31465542 0.7191422 -0.0009929123 0.061546467
0.57937425 -0.0836908 0.48277745 -0.14025381 -0.14487119 -0.14180231 -0.022075431 0.065227285
0.24285913 -0.35216725 -0.059076168 -0.41316006 -0.1436755 -0.014953323 -0.14164416 -0.08022274
0.26468492 0.12547496 -0.2563259 -0.16682541 0.28376502 0.018792614 0.005634816 -0.4835321
-0.047673903 0.14914037 -0.16638605 -0.03371285 -0.2988509 0.11669555 0.54700613 0.34550655
-0.26367307 0.15713581 -0.1890945 -0.03852239 0.23492007 0.20605345 -0.6163163 -0.14598565
0.51469505 -0.029577322 -0.16024122 -0.026995616 0.061622493 -0.1762111 -0.24749808 0.22849451
0.13838348 0.043988027 -0.12942328 0.04725317 0.5028371 0.06627655 -0.11581537 -0.25701946
-0.12088921 -0.013934398 -0.23069708 0.41042143 -0.49882066 -0.19374488 0.33350965 -0.44708425
0.44051751 -0.12439068 0.027470786 0.6083319 0.014230911 -0.1298612 -0.079821765 -0.19535255
0.09673021 -0.0023666928 0.0049753417 0.032492585 -0.2883489 -0.46137825 -0.14681181 -0.32166722
-0.08450884 -0.105824135 -0.33118477 -0.42885435 -0.26752603 -0.45739147 -0.015218918 -0.06865586
0.30011395 -0.15542176 -0.1301736 -0.3862405 -0.2790175 -0.054154497 0.43913737 -0.28680053
-0.07348107 -0.07157218 0.11201843 0.1645679 0.16145872 0.1439687 0.3707407 -0.28494856
0.020338504 0.01891141 -0.0071846913 -0.105069265 -0.13898122 0.3331248 -0.06930544 0.16122839
0.18640229 -0.24468836 -0.5104426 0.07600831 0.4371794 0.037169088 0.36562246 -0.5046878
-0.06283052 0.15240973 -0.2393338 -0.07873468 -0.3234756 0.2249199 0.01634916 -0.2635535
-0.47402844 -0.12006959 -0.17621988 0.034897905 0.025808765 -0.005233293 -0.81981504 0.12194528
0.2085415 0.4111956 -0.43410072 -0.16168796 0.13832317 -0.14580218 -0.19104098 0.32005224
0.6818538 -0.26547998 -0.027367424 -0.01081565 0.0035801812 0.11557132 0.14830738 0.3215145
-0.11499066 0.14996502 0.18518867 0.25299788 -0.32392687 0.3903591 -0.20085578 -0.00651662
-0.0426 -0.55037767 0.12235734 -0.25569487 -0.1811086 0.26581207 0.19471252 -0.87294215
0.016639713 0.08956741 -0.0748889 -0.067482404 0.14285621 0.0022097947 0.071457475 -0.32202807
0.32996324 0.19557866 -0.019458832 0.2135989 0.34608632 0.5566894 0.1189713 0.22740106
0.5953126 -0.051007822 -0.24038112 0.05595539 -0.023738684 0.6653811 -0.37227616 -0.0953839
-0.24724735 0.2051492 0.051373966 -0.16373223 -0.1322563 0.2661482 0.43115377 0.14804019
0.2989018 0.28145304 -0.21724941 -0.12743033 -0.26291332 -0.15587598 -0.4836957 0.1177719
-0.43116418 0.19010054 -0.24820372 0.23628257 0.30229878 0.2056963 -0.23715755 0.006448773
-0.011308538 -0.118924566 -0.10851731 -0.30648658 0.10546735 -0.066378884 -0.14119665 0.119400024
0.19857395 -0.16232207 -0.029235754 0.25621414 0.17202158 0.1469678 -0.23098454 0.016538586

model.1.running_var f4 [512]
00000000: dee5 983c 035d 0e3c 4e7b 3a3c b975 103c
00000010: 5df2 5f3c 005f 3c3c c674 263b f1de 2e3c
00000020: 3c2d ba3b f97c 093c b57c f73c 5828 503c
00000030: c700 9a3b 59b5 333c 19ed 063b ff87 e43b
00000040: bdef f23b 32cd 493c d6cf 3f3c 8bf6 603c
00000050: 983d 3b3c 8892 0b3c 5628 b93b 82a3 1f3c
00000060: 12c4 513c 40aa 053c 70a8 493c d37c 613b
00000070: 0fa8 123c 2af5 2b3c dd54 e33b b6b8 2c3b
00000080: 1885 c33b 72b7 ec3b 4036 3e3c 5afd 183c
00000090: 0b2e d43b 7ead 7e3c 4933 383b 33e8 943b
000000a0: b5e7 413c 9ba5 9c3b 367d 2f3c 36bd 563c
000000b0: 3bff ec3b 4f20 0d3c 91a0 173c 6f29 0f3c
000000c0: 1c3e 0b3c 3c8f 933b 9a7e eb3b c86b 273c
000000d0: a82d 213c af38 233c cdf3 833c f69e 293c
000000e0: 2622 c83c c860 5f3b 94b3 b93b 9393 c13b
000000f0: e2b2 053c 8db2 073c 64e1 893c 1157 a13c
00000100: 012b 323c 7a21 ac3b 1782 e53b 2904 193b
00000110: 62be 3c3c 40d2 fc3b 1a7b 473c 659b 603b
00000120: f63b 083c a290 c43c ba15 323c 1f3a 493c
00000130: 20de 623c 7c51 023c 0aed 343c 64f2 c33c
00000140: 8af1 293c 7f46 c63c 602a b93b a9e8 ad3c
00000150: 7251 883b 4435 c83b 9edf 833c 00ed 6d3c
00000160: 5f32 583c c339 c83b 1ee2 343c e9e5 1b3c
00000170: 86c5 5e3c 5ab3 db3b 0caf f23c 10a9 593c
00000180: 1133 bf3b baf2 0a3c 05e8 563c b765 1d3c
00000190: 3f00 cc3b 54bb c73b 22ef 5a3c 3496 0a3c
000001a0: 0210 a83b 31e4 443c b442 0c3c 7917 233c
000001b0: b5c2 813b 8138 e83b 16e4 943b 5745 353c
000001c0: 0aca b53c 0bed 893b 4ff6 313c f97c 513c
000001d0: 6924 2e3c 2f8b 743c 10fd 503b 183e 553c
000001e0: dd87 b43b 53ee 4e3b ce33 cb3b 34b6 a83b
000001f0: 039b 5e3c c211 bc3b b0e7 803c 5f66 e03b
00000200: 818f 763c 41e7 613c 1653 263c 0d72 cd3b
00000210: b9f4 c93b 17ef 2e3c 1124 3d3c 5e50 803b
00000220: 8bb0 833b 4ad1 5c3b 3682 803b bc06 573c
00000230: b446 2f3c 91ca 3f3c 120d ec3b 9ac6 503c
00000240: fcde 613b 599d 263b dcbc 293c 7274 ab3b
00000250: 20bd 8e3b 8a7a 2b3c 2ca5 e03b e2d6 ed3b
00000260: 2a94 e63b 998c eb3b 5501 6e3c d109 e63b
00000270: 91bc bc3b 36d5 683c 0e29 e63c 0c51 903c
00000280: 9c8e a33b c87e 293c 6f07 b03b 3f11 293c
00000290: 37d2 5f3c ced3 d33b 462f f93b e1a7 8e3b
000002a0: 4f1b 683c 2297 383c 47d1 d93b 1f2d 063c
000002b0: 06b2 013b 753e 243c c110 a43c bc30 033b
000002c0: 4bd6 d83b 7cde 1d3c 4f38 703c 58c0 e63b
000002d0: 9523 d23c d595 213c 9ddc 633c 432a ce3c
000002e0: bf38 c53b 149d 483c edbd 7e3c 4531 653c
000002f0: 4605 163c c01b ce3b 62b7 313c a2af 843c
00000300: 0ec5 7d3c e7ff 2f3c 5e39 673b 1e19 183c
00000310: ad9e 5f3c 2746 293c 2802 453b 0679 913b
00000320: 63d6 a63b cf99 db3b 56f3 803b bc6c c53b
00000330: 905b 1f3c 06c9 8d3c ae3a fe3b 55a5 dd3b
00000340: 91b0 443c 64bc c43b 24e9 593c d468 913b
00000350: a524 2a3c 6d3c e53b a33a ab3c 9211 8f3c
00000360: 09f1 8f3c bf35 7b3b ca8c 683c 2c39 c03c
00000370: 749b b73b 40cd 2c3c 21d4 f13c 70e8 a13c
00000380: 790d a63b b916 883c df35 853c 88e7 4c3c
00000390: 43d6 f83c 19fe 063c 0d64 ea3b b1d2 7e3c
000003a0: a6f3 e73b 3d60 8e3c 1712 e33b bf59 933b
000003b0: 0d52 893c 4cd7 663b 152d ba3b 8bc7 6d3c
000003c0: 43a1 953c 5314 c53c a21e 583c c18d 183c
000003d0: c930 d83b b8b4 1f3c 8b3f 823b 95db 203c
000003e0: dbb3 453c bb90 a93b de2a 3b3c 7c3f aa3b
000003f0: 00a6 643c b011 433b e64d 823b 0536 193c
0.018664297 0.008689168 0.011381937 0.00881713 0.013668624 0.011497259 0.0025399192 0.010673271
0.005681662 0.008391612 0.030210832 0.012704931 0.0046997997 0.01096853 0.0020588099 0.00697422
0.007413833 0.012316989 0.011707267 0.013730655 0.011428259 0.0085188225 0.0056505604 0.009743573
0.012803094 0.008158267 0.012308225 0.0034406676 0.008951201 0.010495463 0.0069376067 0.0026355213
0.0059667937 0.007224017 0.011609614 0.0093377475 0.0064752153 0.015544293 0.002810674 0.004544282
0.011835028 0.004780484 0.010711005 0.013106635 0.0072325743 0.00861366 0.009254591 0.008737906
0.008498695 0.004503159 0.007186723 0.010218568 0.009837545 0.009962245 0.016107464 0.010352841
0.024430346 0.0034084786 0.0056671593 0.005907485 0.008160325 0.008282316 0.016831107 0.019694837
0.010874511 0.005253014 0.0070040333 0.0023348427 0.01152 0.0077154934 0.012175346 0.003427231
0.008315077 0.023994748 0.010869438 0.012281924 0.013846904 0.007953998 0.011042843 0.023919292
0.010372529 0.024203537 0.0056508034 0.021229105 0.0041600997 0.0061098654 0.01609784 0.014521837
0.013195603 0.0061104014 0.011040239 0.009515264 0.013596898 0.00670473 0.029624484 0.013284937
0.005834945 0.008480722 0.013116841 0.00960677 0.0062256153 0.0060953293 0.013362678 0.008458663
0.0051288614 0.012017296 0.008560825 0.009954327 0.0039599785 0.007086814 0.0045437915 0.011063895
0.022191066 0.004209166 0.010861947 0.012786143 0.010628798 0.014925762 0.0031889118 0.013015293
0.00550936 0.0031575158 0.006201244 0.0051486734 0.013586762 0.0057394216 0.015735477 0.006848141
0.015048862 0.013788045 0.010151645 0.0062696994 0.0061632064 0.010677121 0.011544243 0.0039158305
0.0040188483 0.0033694082 0.0039217724 0.013124164 0.010698009 0.01170601 0.0072037065 0.012742663
0.0034465184 0.0025423376 0.010359969 0.005232387 0.0043560416 0.010466227 0.0068556275 0.007258282
0.0070367055 0.0071883914 0.014526685 0.007020213 0.0057597836 0.01421099 0.028095748 0.017616771
0.0049913656 0.010345168 0.00537198 0.010319053 0.013660959 0.006464458 0.0076045124 0.004353509
0.014166667 0.011266502 0.0066472623 0.008189469 0.0019789948 0.010024657 0.02002752 0.0020018062
0.0066173426 0.009635564 0.0146618625 0.007041972 0.025651732 0.009862383 0.013907579 0.025166636
0.0060187276 0.012244482 0.0155482115 0.013988798 0.009156531 0.006289929 0.0108469445 0.01619703
0.015488876 0.010742164 0.0035281996 0.009283332 0.013648671 0.010331667 0.00300611 0.004439476
0.005091475 0.006701685 0.003935258 0.006024925 0.00972642 0.01730777 0.00775846 0.006764094
0.012004987 0.006003903 0.013300214 0.0044375453 0.010384713 0.0069957287 0.020901984 0.017464433
0.01757099 0.0038331596 0.014193723 0.023464762 0.0056032483 0.010546982 0.029520096 0.019764155
0.005067524 0.016612398 0.01626104 0.012506373 0.030375605 0.008239293 0.0071530403 0.015553162
0.0070786057 0.017379874 0.0069296467 0.0044967826 0.016762758 0.0035223542 0.0056816437 0.014512907
0.018265372 0.024057543 0.013190897 0.0093111405 0.0065976125 0.009747677 0.00397486 0.009817977
0.012066807 0.005174724 0.011423795 0.005195556 0.013955593 0.0029765181 0.0039765714 0.009351258

model.4.weight f4 [256, 512]
00000000: 0dea 1dbd 9377 233d 8d63 ef3c f7bd 463b
00000010: eeae 393d 7a54 273b c930 f8bc 832e 7f3b
00000020: 42a7 a9bc 929f c8bc ed02 3ebc 338e a8bc
00000030: c91f 04bd 7a55 ce3c ee85 7d3c e3be 80bd
00000040: 80f6 bbbc 8fb1 513b 346f cdbc 2bbc 163d
00000050: bbbf 943c 4e86 adbb 6832 b53b 630d 19bd
00000060: 93bc b5bc 4e13 17bd b86c 16bb bed0 c23c
00000070: 207a b03c 3662 e8bb 3e3b 1ebd 0b81 d63c
00000080: 1ee6 763b 41df c5bc 65b7 e33c d7b7 d53c
00000090: 78a1 053d f034 1e3b 146b 333d 4a8c b73c
000000a0: 5aeb 853c 28d2 943b 9092 443d ff66 78bc
000000b0: 4f0b 9a3b f46a 2abc 0cbc 1f3d 18d7 45bd
000000c0: 5106 1bbb 8619 99bb 8c14 32bd 5f25 4fbd
000000d0: 1b2e 5ebb 95d9 24bd 6360 debc 00f9 04bc
000000e0: 0d9e debc 9a33 43bd 4ca0 c43c bc58 30bd
000000f0: 1de8 ab3c 6e1d be3b 859a ef3c 76b2 6c3a
00000100: 038f d03c eb2e 143c bcbe 40bc e237 b2bd
00000110: ce60 103d 8b2d 7ebb 9c03 6f3c 7a0c 62bd
00000120: 081c eebc b6a8 933b d318 273d 3b10 223c
00000130: 0d4f aabc 42c1 613c 76fb aabc 13f0 fbbc
00000140: f86e 153d eff5 223d fa6e 12bc 3d86 18bc
00000150: 7ee8 183d 7039 a8bc 064e dbbc 41b6 2dbc
00000160: 70cc 17bd f696 e63c 1217 ed3c 9cba 33bc
00000170: 4db9 153c a5fa b5bc 1125 b13b 62fa ce3c
00000180: 062e ac3c 09a3 59bd 4d38 78bc 371b eabc
00000190: b909 bd3b ed91 29bd 8d6c 1abc b852 2fbd
000001a0: b78c 883c 0aa3 d13c ee36 f0bc eca3 a9bc
000001b0: a539 8c3b bac0 c0bc feda 24bb 69cf e7bc
000001c0: 6bc6 8abb fd0e 373d 693b 3dbc ac38 70bd
000001d0: 998c 2ebd 444e e2bc 1357 c1bc 3990 8cbb
000001e0: dffd 4abc c3c2 6ebb 1de4 43bc 9515 21bc
000001f0: 5cfd 533c 81ab 89bd 32f4 123c f0e4 02bc
00000200: fb07 51bd 8e41 15bd 3f66 6abc b0b0 13bd
00000210: beb2 07bc d207 e93c cd01 6f3c 0f94 b03b
00000220: 2a98 d8bc a44a b43c dad3 ec3c 5dcd 00bb
00000230: 12e1 36bd edfd 9f3c 948d f93c c947 21bd
00000240: 476a 7abc a678 303c 36af 78bd d7ac a7bc
00000250: 7b17 ea3c 94c1 ce3c 5327 273d 6f6a d6bb
00000260: 85bd 03bd 6790 873c b9a5 9ebc 7c26 27bd
00000270: 286c f1bc 9957 313d 4f59 433d af5d b0bc
00000280: 43ee 29bc 59a8 85bc c951 fd3b 9e61 823c
00000290: 685c 053d 15ae 9d3c c03a b3bc 74b1 15ba
000002a0: 48e8 883c 9e41 dc3c ec95 15bd c658 1b3d
000002b0: 1c96 263c a0d3 bd3b 85d5 d6bc 538e b6bb
000002c0: daca 54bc 9ae3 1e3d 330f c33c 16c1 57bd
000002d0: ebf1 56bc 23f6 82bb 0d87 c7bb 353c 1b3d
000002e0: c803 ea3c b541 10bd fc42 44bd 7b99 403c
000002f0: 1dda 503b 8ce2 a03c 72ca c63b 444d 393c
00000300: 0f67 e8bc 0c74 f3bc 97f6 58bc e925 87bc
00000310: 59b9 dd3c f42f e3bc bde9 903c 1f42 013d
00000320: 7206 b8bc 6f23 3b3c c9ac 4b3c 538c 8c3c
00000330: a662 903b 4b3e 673d 422c ffbb e2ff 32bc
00000340: e9f0 5ebb 2b50 043d 6eb9 08bd b7fd 57bc
00000350: 1947 783c 12c5 2bbc cef0 06bd b377 373c
00000360: 9cb2 b0bb aad9 9f3c 3a10 28bc e583 4e3c
00000370: ad0b 1d3d 397e 37bc 94b1 633b ba6e b6bc
00000380: 0b5c 413c 7327 0539 a353 31bc 3bcb 553d
00000390: 6ce6 053d 5f5c 03ba 7864 65bc 90a7 64bc
000003a0: da1d 743c e8dc 023d ef60 6abc 6eb2 2ebc
000003b0: 5f36 22bd 69c5 9bbc 290e 8e3c 36b5 0a3d
000003c0: 3a53 52bd 09a8 0bbc 6831 aa3c 00e8 c43c
000003d0: 877b 403b 31b6 9dbc bc0e c23c e6a5 063d
000003e0: 03d9 09bd d707 4f3c eac2 2bbd fe51 823c
000003f0: 2af6 083d 13bc 47bc 4d31 963c c9b3 75bc
-0.038553286 0.039908957 0.029222274 0.003032563 0.04533284 0.002553253 -0.0302967 0.0038937635
-0.020709638 -0.024490152 -0.011597377 -0.020575618 -0.032256875 0.025187243 0.015473826 -0.06286409
-0.022944689 0.0031996702 -0.02507744 0.036800545 0.01815783 -0.0052955514 0.0055296905 -0.037366282
-0.022184646 -0.036883645 -0.0022952985 0.023781177 0.021542609 -0.007091786 -0.038630717 0.02618458
0.0037673782 -0.024154307 0.02779741 0.026088638 0.03262469 0.002414044 0.04380329 0.022405762
0.016347576 0.004541654 0.047991335 -0.015161275 0.004701055 -0.010401476 0.038997695 -0.048300833
-0.0023654888 -0.004672232 -0.043476626 -0.05057275 -0.0033901993 -0.040246565 -0.02714557 -0.008116007
-0.027174974 -0.047656633 0.024002217 -0.043053374 0.020984704 0.005801848 0.029248485 0.00090292783
0.025458818 0.009044389 -0.011764225 -0.08702065 0.03524857 -0.003878447 0.014588263 -0.05518768
-0.0290661 0.004506196 0.04079516 0.009891565 -0.020789647 0.013778986 -0.020871859 -0.030754125
0.03648278 0.03978532 -0.008937592 -0.009309349 0.037331097 -0.0205352 -0.026770603 -0.010602535
-0.0370602 0.028148156 0.028941665 -0.010969784 0.009138417 -0.022214243 0.00540603 0.025265876
0.02101804 -0.053133998 -0.015150142 -0.02857743 0.0057689813 -0.04139893 -0.009425295 -0.042803496
0.01666866 0.025590438 -0.029323068 -0.020708047 0.0042793327 -0.0235294 -0.0025154944 -0.028297143
-0.004235079 0.04469203 -0.011549809 -0.058647797 -0.042614553 -0.02762521 -0.02360109 -0.0042896536
-0.012389629 -0.0036432005 -0.011956242 -0.009831806 0.012938824 -0.06722165 0.0089693535 -0.007989153
-0.051033 -0.03643947 -0.014306604 -0.036057174 -0.008282362 0.028446112 0.014587832 0.0053887437
-0.026439745 0.022008248 0.028909612 -0.0019653656 -0.044648238 0.019530261 0.030463018 -0.0393751
-0.015284128 0.010770952 -0.06071397 -0.020468159 0.02857565 0.02523879 0.040808987 -0.0065434496
-0.03216316 0.016548349 -0.019366132 -0.040808186 -0.029470518 0.04329643 0.047692593 -0.021529047
-0.010371747 -0.016315626 0.007730697 0.015915688 0.03255883 0.019248048 -0.0218786 -0.00057103415
0.016712323 0.026886757 -0.03651993 0.037926458 0.010167625 0.00579305 -0.02622486 -0.0055711656
-0.012987817 0.038791277 0.023810958 -0.052674375 -0.013119201 -0.003996627 -0.0060890974 0.037899215
0.028566256 -0.035218913 -0.047915444 0.011755343 0.0031868287 0.019639276 0.006066614 0.0113099255
-0.028369455 -0.029718421 -0.013242385 -0.01649757 0.02706592 -0.027732827 0.01768958 0.0315572
-0.02246401 0.011422022 0.012431332 0.017156756 0.004406291 0.05645589 -0.0077872584 -0.010925265
-0.0034018105 0.032303017 -0.033379965 -0.013183049 0.01515367 -0.010483997 -0.032944493 0.011197972
-0.0053923856 0.01951297 -0.010257775 0.012604688 0.038341213 -0.011199527 0.0034743296 -0.022269595
0.01180173 0.00012698564 -0.010823163 0.05219577 0.03269045 -0.0005011018 -0.014001004 -0.013955966
0.014899695 0.031948954 -0.014305337 -0.010662658 -0.039602634 -0.019015031 0.017340736 0.033864222
-0.051348902 -0.008523949 0.020775512 0.024036407 0.0029370503 -0.019251915 0.023688667 0.032873057
-0.033654224 0.0126361465 -0.04193393 0.015908238 0.033437885 -0.0121908365 0.018334055 -0.014996477

model.4.bias f4 [256]
00000000: 7a34 14bc 32ab 4ebc ddfa 7abd 5ed9 1cbd
00000010: 69dc fb3c 87c7 143d 149a 07bc 6307 3fbb
00000020: fa99 d1bd eb50 ed3c 85cf d93c 4202 acbb
00000030: b66e abbd fb5d bdbb 1232 ba3c 997e 9c3d
00000040: 9449 e03c 6f70 f2bb c632 a7ba f6a5 b03b
00000050: be57 2bbd 6fb5 98bd edfa d6bc 3afb d23b
00000060: 5bda e43c de2d 35bd d19f 683c c5c2 80bc
00000070: 8da5 b93c 63f5 dcbc b94a 493c 6ce7 e5bb
00000080: e7ef 15bd 9db0 a2bc 48a0 4e3c 7fc1 08bd
00000090: fdb5 86bc 94f4 0c3d 2bcf 373c dceb e53c
000000a0: 5866 983c 6a7d b2bc 442c 103c 4395 99bc
000000b0: 17fe 783d c393 943a ab06 30bd 2105 213c
000000c0: 193b ab3c 294e 8d3d 98ec 0dbd 78a6 ae3b
000000d0: be3e c23c 5fab bebc 2206 9bbc 506e 913c
000000e0: aee6 17bd b4d2 273d 04f2 d6bc 61be 213d
000000f0: 8d1e febc b84c 653c 34d6 a5bd bac4 57bd
00000100: f285 3bbd 397f 9c3c aa53 9d3c 7c48 b3bc
00000110: 5af5 103d 52a9 d1bc bb07 7bbc 96c1 473d
00000120: 2fdf a1bc adfb a9bb f069 82bd cd6e e43c
00000130: 729b 183a e131 a63c ba9d 243d 8f4b ffbc
00000140: cb7b 6abd e372 41bc 87fb a7bb 296f 503d
00000150: 575b 1c3d 022b 5abc 9221 593c 8401 83bc
00000160: e361 0ebc 8bcd b4bd 3ca0 923c 3f53 2e3c
00000170: 46b5 53bd eef2 0abd 8661 673c 100a 99ba
00000180: adb3 dabd 6408 3fbc 9016 c4bb 0add d2bb
00000190: 2fe6 e9bc 2fbc f13c 8bc0 c03c 2892 fd3b
000001a0: 58b8 70bd 5e06 fa3c 16a6 07bb 1dbc f6bc
000001b0: 8bfa c83c 25e2 493d 0cad d9bc cd6a 15bd
000001c0: 7917 d83b 5da4 90bb c811 0c3d 5fd3 b0bd
000001d0: e8a3 1dbb 9f2e 9cbd ea09 73bc c640 b5bd
000001e0: f6c2 8a3a b2f6 983c d780 4b3c 1615 073d
000001f0: 746a 40bd a261 a33c b518 a1bc 255e e6bc
00000200: 7510 a9bc 1248 ca3c a00d 5fbc 6426 893c
00000210: b630 fcbc 30f0 febc 8a8f f9bc 928e 57bc
00000220: 8521 cd3b 7d9f 85bd 1a6a 7d3c df02 8339
00000230: 6dec 36be dd3a f43a dd8d 0cbd ebb6 803c
00000240: af06 13bd 4413 a6bc 0a4e a63b c536 073c
00000250: f3ca fbbc 6712 43bd a43a 6bbd da7b aebd
00000260: bfc2 0b3d 07b3 8dbc c2f3 373c a6df bf3c
00000270: ea6a adbb 52aa 2c3d c5ac 2ebd 102a 6a3c
00000280: 8358 3fbd 698a a43c 86c2 bd3c 6f0b 213d
00000290: d1d4 c4bc 43e8 513d ad28 243d 2287 0c3d
000002a0: e02c 093d 1c62 75bc 12c1 03bd 3e30 363c
000002b0: fced 2ebc bd40 89bd 64b1 09bb bac7 2a3d
000002c0: 39db edbc 2c4c 9f3c e1ca ac3c 0a09 c63a
000002d0: ce03 0fbe e834 be3c 73c2 f43b d4a9 99bc
000002e0: 286c 80bd a572 1ebc 3897 21bc 3f5b d3bd
000002f0: 8e46 833c acd0 dcbc 166d 8ebc 8f23 a3bb
00000300: 59d9 043d 75ab a73c 4825 7bbd 1091 28bd
00000310: c407 28bc 724c e3bc 84da 9ebc 768d 8f3c
00000320: 8be0 c0bc 3929 aebc 9a7c b9bb 307e 85bd
00000330: 94f8 d33c e871 a33a 7709 42bd caa3 363d
00000340: a3f5 0f3d 8499 7c3a bd17 4cbb 0a85 873c
00000350: f172 b9bc dc0f 8bbc 1013 8cbd d5e3 dbbc
00000360: 8e29 44bd f459 303d 13aa 0ebd a62c d93c
00000370: 894b 863c 5648 3f3c ee18 a0bc dae6 acbb
00000380: 9b70 00bd b276 85bd 31df 3bbc 3605 843c
00000390: c2a8 58b7 6944 3ebc 42b1 87ba f81f 2d3c
000003a0: d296 bb3c 7e88 9e3a d00d af3d a5f7 ad3c
000003b0: 0925 573c 1a7a 513c 4373 bfbc 4dd8 013c
000003c0: 96fe e1bd 8fde 2dbd 70f0 9cbb 2721 413d
000003d0: ed83 a4bc 1312 753d 801a d6bc e9f4 5dbd
000003e0: fbda 5b3c af3b 30bd 2d29 aa3c 128e a6bd
000003f0: e55e 073d cd22 6b3d 68f6 fdbc 443a 9abd
-0.0090457145 -0.012614058 -0.061274398 -0.038293235 0.030744748 0.036323097 -0.008276481 -0.002914869
-0.10234447 0.028969249 0.02658821 -0.0052492926 -0.08370726 -0.0057790256 0.022728954 0.07641334
0.027378835 -0.007398657 -0.001275622 0.005390878 -0.041831724 -0.07456481 -0.026242698 0.00643864
0.027936151 -0.044233195 0.014198259 -0.015717873 0.022661949 -0.026972478 0.012285882 -0.007016113
-0.03660574 -0.019859606 0.012611456 -0.033387657 -0.0164442 0.034412935 0.011218826 0.028066568
0.018603489 -0.021788318 0.008799616 -0.018747931 0.060789194 0.001133554 -0.04297511 0.009827883
0.020902203 0.068996735 -0.03464946 0.005329903 0.023711558 -0.023275075 -0.018923823 0.017752796
-0.037085228 0.040972427 -0.026238449 0.0394882 -0.031020427 0.013995342 -0.08097497 -0.052677847
-0.045782037 0.019103633 0.019204933 -0.02188515 0.035390235 -0.025593434 -0.015321667 0.048768602
-0.019759743 -0.005187473 -0.06367862 0.027884865 0.0005821503 0.020287456 0.040189482 -0.031163959
-0.057246964 -0.011807176 -0.00512642 0.05088726 0.038173046 -0.013315918 0.013252633 -0.015991934
-0.00869033 -0.08828267 0.017898671 0.010639965 -0.051686548 -0.033923082 0.0141223725 -0.0011675972
-0.10678802 -0.011659715 -0.005984135 -0.0064350413 -0.028552143 0.029508678 0.023529312 0.0077383704
-0.058769554 0.030520614 -0.002069836 -0.030118996 0.02453353 0.049287934 -0.026571773 -0.036478806
0.006594595 -0.004414125 0.034196645 -0.08634066 -0.0024053995 -0.0762608 -0.014833907 -0.08850245
0.0010586667 0.018672321 0.0124208545 0.032979093 -0.04697652 0.019944016 -0.019665102 -0.028121063
-0.02063773 0.024692569 -0.013614088 0.016741939 -0.030784946 -0.03112039 -0.030463953 -0.01315655
0.0062600994 -0.065245606 0.015467191 0.00024988406 -0.17863627 0.0018633265 -0.03431498 0.015712222
-0.035895046 -0.020272858 0.005075221 0.008252804 -0.030736422 -0.04762497 -0.05742897 -0.085197166
0.03412127 -0.017297281 0.01122755 0.023422074 -0.005292286 0.042154618 -0.042645235 0.014292255
-0.04671527 0.02008553 0.023164045 0.039317545 -0.02402726 0.051246893 0.040077854 0.03430856
0.03349006 -0.014977004 -0.032166548 0.0111199 -0.010676857 -0.06701801 -0.0021010274 0.04169438
-0.029035198 0.019445501 0.021092834 0.0015108895 -0.13966295 0.023218587 0.007469469 -0.018757738
-0.06270629 -0.009670888 -0.0098627135 -0.10320138 0.016024854 -0.026954971 -0.017386 -0.004978604
0.03243384 0.0204675 -0.06131485 -0.041153967 -0.010255758 -0.027746413 -0.019391306 0.017523509
-0.02354457 -0.02125989 -0.0056606056 -0.06518209 0.025875367 0.001246986 -0.047372308 0.044589795
0.035146367 0.0009635913 -0.0031142079 0.01654293 -0.022637816 -0.016975336 -0.068395734 -0.026842037
-0.047891192 0.043054536 -0.034830164 0.026510548 0.01639344 0.011674961 -0.019543137 -0.005276543
-0.03135739 -0.0651678 -0.011466787 0.016115766 -1.2913895e-05 -0.01161299 -0.001035251 0.010566704
0.022899065 0.0012095121 0.085475564 0.02123625 0.013131388 0.012785459 -0.02337039 0.007925105
-0.110348865 -0.042448577 -0.0047894046 0.047150757 -0.020082438 0.05983169 -0.026135683 -0.054188643
0.013418908 -0.04302567 0.020771587 -0.081325665 0.033049483 0.057406235 -0.031001285 -0.075306445
