models/three_layers/threeLayerModel_emu_corrCut_0.9_weights_true.pt (torch, 707244 bytes, 18 tensors)

model.0.weight f4 [512, 77]
00000000: ac7f 4d3d a897 bebd f197 d0bd 436d d73d
00000010: a117 9cbc 93ed 32bd c700 f2ba 8030 5c3d
00000020: cce5 2d3d 5cf2 c5bd e7bf ae3c fe26 413d
00000030: 1987 34bd 495e de3c d606 68bd a005 84bc
00000040: 1335 9ebd b85a a3bd 887e 5d3c 47a0 6cbb
00000050: 83e4 cebd 29c2 9dbd 00e4 c3bd b7fa b53d
00000060: f8e5 d8bd d02e d5bd 00c6 7ebd a8e7 7c3c
00000070: e90e aebd b331 7b3b c523 b5bd f853 aa3d
00000080: 20c7 583d f94e f3bc 88b9 b0bd fd1f e5bc
00000090: 42aa a43d b51f 0bbd cf78 90bd eb1d 383b
000000a0: 7977 f9bc 975a 98bd 59b0 ecbc 68e4 aabd
000000b0: 1245 41bd d8e2 ce3d 27a2 173d 093d dfbd
000000c0: d7fb 44bd d467 d73d f00e ae3c 2709 dcbd
000000d0: 7c4c be3c a009 eebb fd9b 16bc b803 91bc
000000e0: 5222 3f3d 1db7 84bd fe45 313b 2c04 673d
000000f0: 081d 90bc 48c0 253d 2b40 c7bc d68e e93d
00000100: 647e 913b 17b6 b4bd a901 4f3c 600a b73d
00000110: 7ee9 833d 7047 693c 6ebe febc ccf0 debd
00000120: 48e9 36bd 257b 243d 5d07 24bd 2bc9 d6bd
00000130: 320c 50bc a507 ad3d 4c47 b83d b265 aebd
00000140: abb4 b4bc d682 90bd 51d3 11ba 7c89 a9bd
00000150: 8574 693c c3a1 d4bd 1742 a43d 84fb bdbd
00000160: 3030 acbc 885d 2f3d dfee f53c c9f2 983c
00000170: d418 54bd aab6 57bd 66ba 0e3d 5ba6 21bd
00000180: ecde 5a3d 29f9 213d fad2 8ebd a954 003b
00000190: ee2d bfbc f0e6 dbbc c771 7dbc d895 7abd
000001a0: 76e6 ee3d f9c0 d23d 2a13 b43d cca1 ccbd
000001b0: c29c bebd 8d0a ee3d f4fe 013b cda7 df3d
000001c0: 863f d93d b15a 53bd eca7 71bd b173 983d
000001d0: 049f 613d 1f17 ae3d 2ad8 5a3d ec79 c13b
000001e0: 83ff 493d 3522 bd3d 85f2 dbbd 8e69 5a3d
000001f0: 3937 24bb 17aa 86bd 51b1 cf3c 4601 90bd
00000200: 0c0c ab3d b601 5f3c 444e dd3d d55c 2f3d
00000210: d3a6 ee3c 1395 4bbd 1cec 6dbd f9cb 32bc
00000220: 0a5c babc 9d76 733d 2736 b9bd 1939 f9bc
00000230: 3af6 2bbd 24e2 653d 5a22 ca3d 39d4 b3bd
00000240: b75b 2a3d 2c2c a1bc da44 f9bc d961 cebd
00000250: 610b 55bd e971 eebd 1d53 9f3d 6c4c 3cbd
00000260: c227 5bbd a68f 9a3d 94f1 18bd 15c7 c0bd
00000270: d5a7 713d 90a2 cd3d 85b4 ddbd 08a9 cebd
00000280: d60e 4dbd 3b00 aabd c743 2b3d 9d97 a3bc
00000290: fc5e 153d 8cb7 b83d 16dd cfbc 249c a6bd
000002a0: 96f3 afbd 23a2 b9bd 1314 6b3d 85ae 333d
000002b0: 6386 9cbb a327 ce3d ce47 523c 1bf5 b43d
000002c0: 714c b9bd 5837 ce3d c5ec 633d 5370 cc3d
000002d0: 32ba e53c e999 a1bc efec ae3d dda8 28bd
000002e0: b8f0 9e3d 1e58 c43b 2515 293d ca00 55bd
000002f0: b1c8 9bbd ff6a e53c 0f39 173c 7456 86ba
00000300: 8cc0 2a3d d8cb 49bc 7a2e c8bd 3dbf d23d
00000310: 0bac 203d c35b 983d 4f4c c43d f2d3 063d
00000320: 2bd0 523c 0b61 5c3d a365 9f3d 6e79 2bbd
00000330: 1ae2 94bd 0490 623c 23c9 c23b 28ec 88bc
00000340: 2ab0 823b e69d 86bd 0ad2 19bd 8b6b 213d
00000350: 7391 0cbc 155b 2abd d3ab a1bd 908c 853d
00000360: 1dc9 6dbd 3521 e7bc e326 8c3d 6347 1d3d
00000370: 1ec7 d9bd 9a14 46bd 8e6d 72bc 1662 9dbd
00000380: 7db9 dcbd bb2a 7d3c 7db7 fcbd a172 0bbd
00000390: c695 753d f5ae 873d 8f1a 8d3d 8404 3f3d
000003a0: 6aed 0cbd b633 4a3d 8dc6 be3d c739 953d
000003b0: 10ee 83bd 0192 c5bd 1ef2 6abd 5dbd cf3d
000003c0: a5d9 223d 8ace 78bd ef76 423d e4ef 18bc
000003d0: 7cb8 a5bd 5dab 8d3d 6803 b8bd b817 4a3d
000003e0: b596 edbc e814 8cbd 8ccf 91bc c397 283d
000003f0: 55a9 3ebd 95ba 3fbd c1ff 8c3c 0eb0 aa3d
0.050170586 -0.0930627 -0.101852305 0.10518887 -0.019054236 -0.0436836 -0.0018463366 0.05375719
0.04245548 -0.09665367 0.02133174 0.047156326 -0.04407415 0.027144568 -0.056647144 -0.016115963
-0.07724967 -0.079762876 0.013518937 -0.0036106275 -0.10102179 -0.07703049 -0.09564972 0.08885711
-0.10590738 -0.104093194 -0.062200546 0.0154360905 -0.08498938 0.0038329184 -0.08844713 0.08316797
0.052924275 -0.029700743 -0.08629137 -0.027969355 0.080402866 -0.033965785 -0.070542924 0.0028094004
-0.030452477 -0.07439154 -0.028892683 -0.08344346 -0.04718501 0.10101861 0.037019875 -0.109003134
-0.048091736 0.105178505 0.021247357 -0.10743933 0.02322983 -0.007264331 -0.009192464 -0.017701969
0.04666359 -0.064802386 0.0027049775 0.056400463 -0.017591968 0.040466577 -0.02432259 0.11404197
0.0044401158 -0.088237934 0.012634673 0.08937526 0.064410195 0.014238223 -0.031096663 -0.10885772
-0.044656068 0.040156502 -0.040046085 -0.104875885 -0.01269822 0.08448724 0.08997974 -0.085154906
-0.022058805 -0.07056205 -0.00055627996 -0.08278176 0.014248972 -0.10382416 0.08020418 -0.092764884
-0.021019071 0.042813808 0.03002113 0.018670456 -0.05178149 -0.052664436 0.034845732 -0.03946529
0.05343525 0.03954426 -0.06973834 0.0019581711 -0.02333733 -0.026843518 -0.015469021 -0.06117806
0.11665051 0.10290713 0.08792718 -0.09991798 -0.09307243 0.11623106 0.0019835802 0.10920677
0.10607819 -0.051600162 -0.058998033 0.074439414 0.05508329 0.08500504 0.053428806 0.005904427
0.04931594 0.0923504 -0.10739616 0.05332332 -0.002505733 -0.06575411 0.025353106 -0.07031493
0.08351907 0.013611248 0.108059436 0.04281314 0.029132282 -0.049702715 -0.0580865 -0.010912889
-0.022748966 0.05943929 -0.09043532 -0.030422734 -0.041982867 0.056123868 0.09869833 -0.08780713
0.041591372 -0.019674383 -0.030428339 -0.10077257 -0.052012805 -0.116428204 0.077795245 -0.04597132
-0.053504713 0.0754693 -0.03733976 -0.09412972 0.058997948 0.10040772 -0.10825447 -0.10090834
-0.050062977 -0.08300825 0.041812684 -0.019969756 0.036467537 0.09019384 -0.025373977 -0.0813525
-0.08591382 -0.09064128 0.05739219 0.043867607 -0.0047767623 0.10066154 0.012834502 0.08835813
-0.09047783 0.1006915 0.055645723 0.09982362 0.028042886 -0.01972671 0.08541285 -0.041176666
0.07760757 0.0059919497 0.04127993 -0.052002706 -0.07606638 0.028005121 0.009229912 -0.0010249154
0.041687533 -0.012316667 -0.0977449 0.10290382 0.039226573 0.07439377 0.09584867 0.03291697
0.012867014 0.053803485 0.077830575 -0.04186385 -0.07269688 0.013828281 0.0059443875 -0.01671417
0.0039882855 -0.065730855 -0.037553824 0.0394092 -0.0085796 -0.04159077 -0.07894101 0.06520951
-0.058053125 -0.028214077 0.068433546 0.038398158 -0.10633682 -0.04835949 -0.014796628 -0.07684724
-0.107775666 0.015452082 -0.12339685 -0.034044866 0.05995729 0.06625167 0.06889831 0.046635166
-0.034406103 0.04936572 0.09315214 0.07286411 -0.06441891 -0.09646989 -0.057359807 0.1014354
0.039758343 -0.060743846 0.047476705 -0.009334538 -0.08091828 0.069174506 -0.08985025 0.049339026
-0.029002527 -0.06839925 -0.017799161 0.041160356 -0.046548206 -0.046808798 0.017211797 0.08334361

model.0.bias f4 [512]
00000000: 0ed2 223d b7e4 a7bd 9911 9fbd 7bd5 4fbd
00000010: 8fd4 333d 84fe 193d 84b7 9fbd d75a f33c
00000020: 601f 37bd 6243 e2bc d243 a0bd d1f9 e83d
00000030: 86e6 8dbd 5a24 e3bd 35b5 37bd bfef dc3d
00000040: 9616 89bd 5293 b73d 81f9 2abd 70ad 9b3d
00000050: 4ebe 453d 7842 e33d 8424 603d 3fa2 a6bb
00000060: b8c8 92bd 3bdb 39bd 05d4 5d3d b1fb 42bd
00000070: e7b1 303d b387 52bd 5cea b23d ff1b bf3d
00000080: da4c dc3c 7df1 0dbd e81e e03d 6871 ddbd
00000090: e3e6 a83c b8fe a33d 861c debd b1b1 c8bd
000000a0: b677 d93d b625 72bc d01d a5bd 791e 47bd
000000b0: 6c05 923d 2a69 99bd e86e 69bc c881 8f3c
000000c0: eafa 64bd f4c3 88bc b551 913d 60b5 98bd
000000d0: 28fe 963d e68d bd3c 0a18 b03d 0329 863d
000000e0: 11ce be3d ebd7 70bd 6db6 3e3c a76f 043d
000000f0: 2c4d a43d 7e6c 5dbb 3c33 c8bc b624 73bd
00000100: be68 a9bd 241d 8d3c 5179 9a3d 1ce3 afbd
00000110: 9fc6 d5bd c877 0a3d b463 b03d 2d3e c4bc
00000120: cb17 e23d 18de 15bb c7b7 56bd 0523 50bd
00000130: 7688 503c d425 dd3c 85a9 afbc e95b 9e3c
00000140: 1ff8 913c a4ab cbbb d773 453d f226 e0bd
00000150: ca56 a6bd 0590 16bc f8a8 abbd 4d68 973d
00000160: 7696 033d b9b2 8ebd 4608 0bbd 23a3 25bd
00000170: f886 953b d725 d23d 39ba bc3d 343c a0bd
00000180: 6540 963d 5641 2dbd 48dc d8bd 9cce d6bd
00000190: 8d73 a4bd b8c9 4abd 8c3b a63d 69e3 3d3d
000001a0: 98e5 213d cf37 753b 0edb 94bd 76d1 89bb
000001b0: 535c f63c 9f0b 8ebd 83b2 bb3d 5872 b9bd
000001c0: 9941 8b3d 2dac d53d 057c 3ebd 63cd 19ba
000001d0: 4168 cbbd b286 a33d 0b9b d6bd 2fb2 1a3d
000001e0: 1442 d1bd 38ed d3bc 11dd d1bd 8e23 883d
000001f0: 6bd1 0bbd 8265 003d f4bf 39bd bbfb d93d
00000200: dd26 d83d f6ae 753d 6d57 86bd 99c0 4e3d
00000210: 72ae 93bd f142 74bd 50b2 893b 7b2e 81bd
00000220: af76 b1bd 0dc0 a2bd 75ff bb3d 453d cc3d
00000230: 2b49 78bd bfd2 25bc 6241 063d 3e9a d1bd
00000240: f3b3 3e3d 5635 6dbd 8b27 7cbd b2c9 7cbc
00000250: b2fc af3c b954 37bd 03d1 03bd 483d 9b3d
00000260: ad48 083d 9ae2 c2bd eb38 843c 2f45 95bc
00000270: 3633 58bd 0386 94bc 4bca 753d 7e3a c83c
00000280: 39df 933b b10c c7bd a117 9abd 5623 0fbd
00000290: c1df 3a3d 8ae5 7c3d 9f49 373d 1507 c53d
000002a0: b0f5 a7bd 1ed2 50bd f4ce 6f3d 5ba1 b33d
000002b0: 4369 473c 4251 e9b9 0d4b 32bd cb57 10bd
000002c0: 28d8 9b3d 5661 813d 3f3f 683d e4a9 6cbd
000002d0: ca0f 98bd 9541 473c 3f48 813c e6a1 15bd
000002e0: 322b e6ba 8aee 90bc d1c0 dc3d ebaf 453d
000002f0: 0569 a03d c604 d53c 85e5 babd c4e0 cfbd
00000300: a255 58bd 7fac 2abd 88d8 04bd 1d86 bc3d
00000310: 4087 58bb efe3 e2bd 8bb6 bd3d 4507 7e3d
00000320: 595c 26bd 2b1b ab3d 5ba0 a5bd 799d c53d
00000330: c4f9 6fbc e866 82bd 38d6 05bd aca1 573c
00000340: 2fb1 29bc 8400 e4bb e028 973d 8c30 16bd
00000350: e038 fbbb 5453 4dbd 90ba 303d 1838 153d
00000360: dd15 adbd 8765 d2bd 2230 dfbc 47ba 2d3d
00000370: 02b3 993c ed66 1cbd fae0 5ebd b490 d23d
00000380: ad2d 893d 36b3 1fbd d20f e8bd e1b2 c33d
00000390: 16ce 813d c2dc c73d a766 5dbc 024b 70bd
000003a0: e501 b83d c02b d73d 43c2 933c f3ff 46bd
000003b0: f1e7 5cbd ea3d 143c 3bf2 8ebd 0e60 ccbd
000003c0: fe4a 963c 5aeb 8ebd 1b0e d63d 0b86 c43d
000003d0: 3754 d8bd 8df6 c53b b4bb bdbd f0a2 e4bd
000003e0: 0a13 d0bd c924 6c3d adc6 1ebd 4a19 abbd
000003f0: 1d8d 713c ffad 07ba 22b2 90bd 41e2 bdbd
0.039751105 -0.08197921 -0.07767028 -0.0507407 0.043903884 0.03759624 -0.07798675 0.029706402
-0.044707656 -0.027620021 -0.07825436 0.11375774 -0.069287345 -0.11090918 -0.044850547 0.107879154
-0.06693761 0.08963646 -0.04174185 0.0760144 0.04827719 0.11096662 0.054722324 -0.005085259
-0.0716719 -0.04537509 0.054157276 -0.047603313 0.04313841 -0.051398944 0.08736107 0.09331512
0.026892114 -0.03465413 0.10943395 -0.10812646 0.020617908 0.08007568 -0.10845284 -0.09799517
0.10618536 -0.014779499 -0.08062327 -0.048613045 0.071299404 -0.074907616 -0.0142476335 0.01751794
-0.055903353 -0.016695 0.070956625 -0.074564695 0.07372695 0.023138952 0.08598335 0.06550791
0.09316648 -0.058799665 0.011640173 0.032333042 0.08022532 -0.003378659 -0.024438493 -0.059361182
-0.08271931 0.01722581 0.075426705 -0.085882396 -0.104382746 0.03380564 0.08612767 -0.023955429
0.110396944 -0.0022867974 -0.052421357 -0.050814647 0.012727847 0.026995577 -0.021443138 0.019330936
0.017818509 -0.0062155295 0.048206177 -0.10944928 -0.081220224 -0.00918961 -0.083818376 0.07392941
0.032125913 -0.069676824 -0.033943437 -0.040438782 0.0045632087 0.102611236 0.09215207 -0.07823983
0.07336501 -0.042298637 -0.1058889 -0.10488626 -0.08029852 -0.04950878 0.081168264 0.046359453
0.0395256 0.0037417298 -0.07268344 -0.004205878 0.03007332 -0.0693581 0.09164908 -0.090550125
0.06799621 0.104332305 -0.046504993 -0.0005867092 -0.09931994 0.079846755 -0.10478791 0.037767585
-0.102176815 -0.02586995 -0.10247243 0.066474065 -0.034135263 0.031346805 -0.045349076 0.10643717
0.105542876 0.05998131 -0.06559644 0.050476644 -0.07211007 -0.059634153 0.0042021647 -0.063076936
-0.08665215 -0.07946787 0.09179584 0.09972624 -0.060616653 -0.010121047 0.032777198 -0.102344975
0.04655833 -0.057912193 -0.06156115 -0.015428947 0.0214828 -0.044758532 -0.03218175 0.07580048
0.033272434 -0.09515877 0.016140422 -0.018221466 -0.052783214 -0.018130308 0.060007375 0.024441954
0.004512694 -0.097192176 -0.07524038 -0.03494581 0.045623545 0.061742343 0.044747945 0.096204914
-0.08201158 -0.050981633 0.058546975 0.087710105 0.012171092 -0.00044501765 -0.043528605 -0.035239976
0.07609588 0.063173935 0.05670094 -0.057779208 -0.074248865 0.012161632 0.01578152 -0.03653135
-0.0017560481 -0.01769187 0.10778964 0.04826347 0.07832531 0.026003253 -0.091258086 -0.101502925
-0.05281604 -0.04166841 -0.032433063 0.092052676 -0.00330396 -0.11078631 0.09263333 0.06201865
-0.040615413 0.08354791 -0.08087226 0.09649176 -0.014646951 -0.06367284 -0.032674998 0.013161104
-0.010357185 -0.0069580693 0.07380843 -0.03666739 -0.007666692 -0.050128296 0.04314667 0.03643045
-0.08451436 -0.10273271 -0.027244631 0.042413976 0.018762115 -0.038184095 -0.054413773 0.10281506
0.06698165 -0.03898927 -0.113311425 0.09555603 0.06338136 0.09758903 -0.013513244 -0.058665283
0.08984736 0.105063915 0.018036967 -0.048583936 -0.053932134 0.009047965 -0.069797955 -0.099792585
0.018346306 -0.069784835 0.10451909 0.09595879 -0.10562938 0.006041354 -0.09264317 -0.1116389
-0.101598814 0.05765227 -0.03876369 -0.08354433 0.014743117 -0.0005175769 -0.07065226 -0.0927167

model.1.weight f4 [512]
00000000: 374b 803f 5731 803f 4c60 803f 407c 803f
00000010: 601b 803f c3d4 7f3f ffde 7f3f d722 803f
00000020: 0d3e 7f3f 7613 803f c1dc 7f3f 20a1 803f
00000030: 7192 7f3f 6c22 7f3f 2b1c 803f 59b1 7e3f
00000040: a935 803f bc9c 7f3f 9623 803f 8bed 7f3f
00000050: 55c7 7f3f d597 7f3f 08fb 7f3f 8740 803f
00000060: 0925 803f 4a03 803f 0251 803f ba96 7f3f
00000070: f911 803f a75e 803f 8f08 803f 66e7 7e3f
00000080: 5eaa 7f3f de07 803f 7311 803f 8225 7f3f
00000090: edf0 7f3f ec05 803f 19a1 7f3f 3e4f 803f
000000a0: ff5f 7f3f 0e10 803f a93b 803f f852 7f3f
000000b0: c603 803f a315 803f 8e45 7f3f fe7c 7f3f
000000c0: 52f6 7f3f 7e91 803f e9ae 7f3f 58d9 7f3f
000000d0: d260 7f3f 0c65 7f3f dce4 803f cf2f 803f
000000e0: c18e 7f3f 020b 803f 8378 803f d43a 803f
000000f0: ea2b 803f debe 7f3f 0670 803f a5bf 7f3f
00000100: b036 7f3f 1e25 7f3f f47a 7f3f a65c 803f
00000110: 8241 7f3f d909 803f eb35 803f d10c 7f3f
00000120: c839 803f 093c 803f 4e49 7f3f 485a 7f3f
00000130: a49d 7f3f 2536 803f fe30 803f 0a95 7f3f
00000140: 9556 803f 4c11 803f b934 803f daf3 7f3f
00000150: 0ff4 7f3f 9361 803f 7f5b 7f3f b1f5 7f3f
00000160: df8e 7f3f 5d41 803f 5864 803f 7d07 803f
00000170: c343 7f3f b3a9 803f 8dab 7f3f 7a75 7f3f
00000180: da37 803f d725 803f b470 7e3f f50a 803f
00000190: 2113 803f 982e 803f 3682 7f3f 05ca 7f3f
000001a0: ef4e 803f 9a55 803f 4f54 803f a254 803f
000001b0: 9223 803f 3615 803f 6a27 7f3f 9bc1 7f3f
000001c0: 8454 7f3f 4708 803f d143 803f f5f5 7f3f
000001d0: 541b 803f e5f6 7f3f 0462 7f3f 4dfa 7f3f
000001e0: ba82 803f 5319 803f 65b8 7f3f b6b3 7f3f
000001f0: 4f9a 7f3f 9006 7f3f 0091 7f3f b92d 803f
00000200: 441e 7f3f bbdd 7f3f 5367 7f3f 3c65 7f3f
00000210: 794d 803f 7d94 7f3f bc90 803f 0de1 7f3f
00000220: 7a85 7f3f df20 803f 2ef6 7f3f b6e3 7f3f
00000230: 8ec2 803f 6854 7f3f 3eb0 7f3f 6a15 7f3f
00000240: 746e 7f3f e3f5 7f3f 7b79 803f 3712 803f
00000250: bc51 803f 2b58 803f 6f97 7f3f 9561 7f3f
00000260: 953b 803f 48a4 803f 4c62 7f3f 58fe 7f3f
00000270: 4d82 803f 6675 803f 7d0d 803f 8abe 7f3f
00000280: d43c 803f 5840 803f 7a18 803f 4b9b 7f3f
00000290: 1479 7f3f e8b3 7f3f 7d66 803f 05a7 7f3f
000002a0: 1f09 803f f588 7f3f 003b 803f 9600 803f
000002b0: b3a7 803f a66c 7f3f b0fa 7f3f 2cf3 7f3f
000002c0: eff3 7f3f 9bc2 7f3f 575c 803f 1782 7f3f
000002d0: bb7b 7f3f 4e83 803f f06b 803f e155 7f3f
000002e0: 9856 803f d300 803f 5a4e 803f dea2 7f3f
000002f0: 9ccd 7f3f 7127 7f3f a29f 803f 4a11 803f
00000300: ceaf 7f3f 0585 7f3f d1d6 7f3f 4426 803f
00000310: a02c 803f 35ad 7f3f 125d 7f3f 6a19 7f3f
00000320: 4524 803f 87b4 7f3f e968 803f f085 7f3f
00000330: 3601 803f 74f3 7f3f 31b6 7f3f bbe2 7e3f
00000340: 6590 7f3f 5b21 7f3f 2a49 803f e578 7f3f
00000350: 9d5d 803f 2519 803f f16b 7f3f ee0c 803f
00000360: ae97 7f3f da03 803f 85c8 7f3f e940 7f3f
00000370: 4828 803f 120d 803f 3a73 803f ae98 7f3f
00000380: 8c07 803f 2a3b 803f 0af7 7f3f 4004 803f
00000390: e882 803f d28f 7f3f 9f06 803f 1434 803f
000003a0: ac3b 803f 9f25 803f f75d 7f3f 43f0 7e3f
000003b0: 960b 803f ce32 803f 2032 803f fa4d 803f
000003c0: 30e0 7f3f c47a 7f3f 37a1 7f3f 3787 7f3f
000003d0: cd94 803f 0c85 7f3f 538f 7f3f 3114 803f
000003e0: 8881 7f3f 7347 803f 8acd 7f3f 044b 803f
000003f0: 5df7 7f3f 9da6 7f3f 4edd 7f3f 95d0 7f3f
1.0022954 1.0015057 1.0029387 1.0037918 1.0008354 0.99934024 0.9994964 1.0010632
0.99704057 1.0005939 0.9994622 1.0049171 0.99832827 0.996619 1.0008596 0.9948936
1.0016376 0.9984853 1.001086 0.99971837 0.9991353 0.9984105 0.9999242 1.0019692
1.0011302 1.0001004 1.0024722 0.99839365 1.0005485 1.0028886 1.0002612 0.99571836
0.99869335 1.0002401 1.0005325 0.9966661 0.99977 1.0001807 0.9985519 1.0024183
0.99755853 1.00049 1.0018207 0.99735975 1.0001152 1.0006603 0.9971551 0.998001
0.9998523 1.0044401 0.99876267 0.99941015 0.9975711 0.9976356 1.0069842 1.001459
0.998272 1.0003359 1.0036777 1.0017953 1.0013402 0.99900615 1.0034187 0.999018
0.9969282 0.9966601 0.99796987 1.0028274 0.9970933 1.0003005 1.0016454 0.9962893
1.0017633 1.0018321 0.9972123 0.99747133 0.99849916 1.0016524 1.0014951 0.9983679
1.0026423 1.0005279 1.001609 0.9998146 0.9998178 1.0029777 0.99748987 0.9998427
0.9982738 1.0019947 1.0030622 1.0002285 0.9971277 1.0051788 0.9987114 0.9978863
1.0017045 1.0011548 0.9939072 1.0003344 1.0005838 1.0014219 0.9980806 0.9991763
1.0024089 1.0026124 1.0025729 1.0025828 1.0010855 1.0006473 0.99669516 0.99904794
0.99738336 1.0002526 1.0020696 0.99984676 1.000834 0.99986106 0.99758935 0.99991304
1.0039895 1.0007728 0.9989074 0.9988359 0.9984483 0.9961939 0.9983063 1.0013953
0.99655557 0.9994771 0.99767035 0.99763846 1.0023643 0.9983595 1.004417 0.99952775
0.99813044 1.0010031 0.99985015 0.99956834 1.0059373 0.9973817 0.998783 0.9964205
0.99777913 0.9998457 1.0037073 1.0005559 1.0024943 1.0026907 0.99840444 0.99758273
1.0018183 1.0050135 0.99759364 0.9999747 1.0039765 1.0035827 1.0004116 0.99900115
1.0018563 1.0019636 1.000747 0.99846333 0.99794126 0.9988389 1.0031277 0.99864227
1.0002784 0.99818355 1.0018005 1.0000179 1.0051178 0.9977516 0.99991894 0.99980426
0.9998159 0.9990632 1.002818 0.99807876 0.9979817 1.0040071 1.003294 0.99740416
1.0026426 1.0000252 1.0023911 0.9985789 0.9992311 0.9966956 1.0048716 1.0005276
0.9987763 0.99812347 0.9993716 1.0011678 1.0013618 0.9987367 0.9975139 0.99648154
1.0011069 0.9988484 1.0032016 0.9981375 1.000037 0.99980855 0.9988738 0.99564713
0.99829704 0.9966027 1.0022328 0.99793845 1.0028569 1.0007674 0.9977408 1.0003946
0.9984082 1.0001175 0.99915344 0.9970842 1.0012293 1.0003989 1.0035164 0.99842346
1.0002303 1.0018055 0.99986327 1.0001297 1.003995 0.9982883 1.0002021 1.0015893
1.001821 1.0011481 0.99752754 0.9958536 1.0003536 1.0015504 1.0015297 1.0023797
0.9995146 0.997967 0.9985537 0.99815696 1.004541 0.9981239 0.9982807 1.0006162
0.99807024 1.0021805 0.99923 1.0022893 0.9998682 0.99863607 0.9994706 0.99927646

model.1.bias f4 [512]
00000000: 28c7 fcb8 d492 2a3b e18e 3f37 8229 843b
00000010: e0ea 3c3a 794a 94bb 7dd6 19ba 70b5 23ba
00000020: 626a daba a7fd 40b9 0e7f ce3a eeaf 0a3b
00000030: 81fe 4bbb 2af7 43bb 061f f0ba 97ff 28bb
00000040: 5797 dc39 b027 ecba a642 143b 4a0e 05bb
00000050: 9e25 533b 6668 ed3a e6dc f4b9 b4cb 9b39
00000060: 9b32 1e3b 7222 5e3a 5d26 753b e54a 10bb
00000070: 378f 803a f692 503b e06a 6b3b a1be 5bbb
00000080: f5df 97ba 0108 a63a cea9 5d3b e471 25bb
00000090: 8bc9 433b 8872 4eb8 51b8 46bb 9591 953b
000000a0: 57e1 d5ba 6b97 b738 0235 9e3b 3828 e638
000000b0: f0b0 263b 9004 353a 065b e2ba ffa2 eaba
000000c0: 5992 07b9 6c3e e23a 5555 6eba a262 333b
000000d0: 8cb0 fbba 36aa a2bb f264 bb3b 60a0 793b
000000e0: 3782 34ba 4252 3a3b 3e21 0b3b b6d2 753b
000000f0: d984 133b 7f27 24bb 70b9 8a3a 6d6c 983a
00000100: 0155 aeba baae 31bb 0d1e 933a b0ae 2e3a
00000110: 7100 ab39 c590 043a 014f 0c3b df40 36bb
00000120: 154c 5e3b e871 493a 7d27 74bb a9ed 4d3b
00000130: 97b6 8eba bb6e 253b 85bd 7c3b cd16 74ba
00000140: f560 70b9 9efc 5e39 8158 b9b9 384a 9fba
00000150: 956c 033a e9de 9d3a c42b 08bb 2637 d9b9
00000160: b1b6 cbba 066c 903a d0fb 833b ad51 373a
00000170: 7824 9338 3c16 bf3b b923 ac3a 6ce0 54bb
00000180: 3fd9 8cba f546 193a 8085 cbbb 5582 cc39
00000190: 3957 8e3a 70c9 b23a 6465 21bb 5493 f2ba
000001a0: 6786 03b9 be14 333a 1230 443b 8f7c 613b
000001b0: 10ea eaba 9ba2 d8ba 5c95 50bb 69b6 70b8
000001c0: 8c99 35bb f862 b1b8 8e07 783b 4b92 4d3b
000001d0: 5924 1f39 15a3 fc3a 4961 0dba 1241 56ba
000001e0: d3f4 8c3b de8e 0c3a 79a7 4ebb 2c41 52ba
000001f0: d338 35bb c692 67bb 0ee2 e6ba 9a0a 78ba
00000200: fddd 30ba ef00 0dbb efa1 3539 58aa fb39
00000210: d9ee 1c3a 8e0f f6ba 04ec 4d39 b66a 0639
00000220: 847e 6939 0037 db3a 672d 59ba 82ae 69bb
00000230: 98f4 a239 ec60 c5ba fe2b 11bb 0497 3dbb
00000240: 8b96 1bbb 56ba fcba 8a36 2a3b 1ffb 683a
00000250: d4f4 8a3b 2c53 833b eded 27bb 7275 19bb
00000260: 1e94 403a cf2f 8a3b a76d 8fbb 3fc1 28ba
00000270: c56f d33b b669 bb3b 2d95 883b 6e9a 19ba
00000280: ea0a 343b de49 c2b9 ae12 d93a dadd 9cb9
00000290: e4af abb9 9a8b 38ba be7c bc3a ca4f 453b
000002a0: ffbc c4b9 4a80 99b9 f637 b73a ede2 6eba
000002b0: 9113 9b3b b3e1 67ba 9416 94bb ab87 473a
000002c0: d4d2 7a3a 19f6 40bb 4424 3f3b 1e10 14bb
000002d0: bca4 6abb da25 c93b 8657 a13a 0a59 44b8
000002e0: 04df e63a a6de b4ba 6176 193b 9816 2a3b
000002f0: f275 4839 7896 a93a 253e d53a 7390 d73a
00000300: 47d4 3bbb 8b10 b93a 5686 b2b9 446c 6e38
00000310: 995a 183a a5b3 91ba e649 e0ba 233b 1dbb
00000320: 2512 2abb 57f0 83ba 2759 203b 1db9 32ba
00000330: ce46 9439 49cf 2cba f1e8 cab7 42d8 e7ba
00000340: 9145 8fb9 3e3e e8bb 762c 8b3b 5b31 5b3a
00000350: 2498 d639 1866 db38 b866 6cba 6de1 aeba
00000360: 09b0 5c3b 1823 ae3a 5dd8 c039 21aa 64bb
00000370: 5b31 863b 2c5c 163b 50a1 203b 25c3 8339
00000380: f6ff 6d3b 1420 44ba 397f d53a 0390 653b
00000390: 712d 173b 8f2e 05bb 7f80 f33a c943 563b
000003a0: 7e58 7e3a f08d 093b 5df7 cdba fab3 b739
000003b0: 805e e839 303f f138 8d66 80b9 826c 1e3b
000003c0: a6db 18bb 3cd8 843a a5c6 0fbb e3c1 a23b
000003d0: 960a 3a3b 0adf a43a 9075 47b9 591a 693a
000003e0: 4983 d5ba f9cf aa3b aa0b 553a 19e1 77b9
000003f0: e21e 013b c86b 2cbb 31a4 a63a 7618 a5ba
-0.00012053392 0.0026027458 1.1417754e-05 0.0040332684 0.000720663 -0.0045254794 -0.0005868448 -0.0006244993
-0.0016663785 -0.0001840504 0.0015754418 0.0021161991 -0.0031127038 -0.002990196 -0.0018319793 -0.002578711
0.00042074427 -0.0018017199 0.0022622733 -0.0020302706 0.0032218467 0.0018112778 -0.0004670389 0.00029715674
0.002413905 0.00084737607 0.00374069 -0.0022017297 0.0009808306 0.0031825877 0.0035921857 -0.0033530372
-0.001158713 0.001266718 0.0033823135 -0.0025244886 0.0029874768 -4.9220893e-05 -0.0030322263 0.004564474
-0.0016317767 8.754324e-05 0.0048280964 0.00010974746 0.0025435053 0.0006905282 -0.0017269559 -0.001790136
-0.00012929122 0.0017261035 -0.0009091695 0.0027372022 -0.0019202395 -0.0049641384 0.0057188207 0.0038089976
-0.00068858586 0.0028430377 0.002122953 0.0037509627 0.0022509603 -0.0025047956 0.0010583829 0.0011628993
-0.001330048 -0.0027112202 0.0011224166 0.00066636037 0.0003261599 0.0005056973 0.0021409395 -0.0027809662
0.003391986 0.0007684515 -0.0037254982 0.0031422174 -0.0010888156 0.0025243002 0.003856511 -0.0009311259
-0.00022924303 0.00021265677 -0.0003535189 -0.0012152856 0.00050134334 0.0012044582 -0.002077804 -0.00041430554
-0.0015542117 0.0011018522 0.004027821 0.00069930666 7.016299e-05 0.005831508 0.0013133205 -0.0032482399
-0.0010745897 0.000584706 -0.006210983 0.00039007017 0.0010859735 0.0013640355 -0.0024627084 -0.0018507042
-0.00012543202 0.0006831399 0.0029935879 0.0034406518 -0.0017922539 -0.0016527952 -0.0031827306 -5.739034e-05
-0.002770993 -8.458452e-05 0.00378463 0.0031367715 0.00015176962 0.0019274676 -0.000539322 -0.00081731484
0.0043016463 0.0005361865 -0.0031532927 -0.00080205756 -0.0027652278 -0.0035335287 -0.0017614977 -0.0009462029
-0.0006746946 -0.002151545 0.0001732183 0.00048001367 0.0005986519 -0.0018772946 0.00019638246 0.00012818989
0.00022267742 0.0016724765 -0.00082846585 -0.0035656993 0.00031081284 -0.0015058792 -0.0022151466 -0.0028929124
-0.0023740854 -0.0019281607 0.002597245 0.00088875176 0.0042406116 0.0040077176 -0.0025623993 -0.002341595
0.000734629 0.004217125 -0.0043770852 -0.00064374873 0.006452533 0.005719389 0.0041681738 -0.00058594986
0.0027472326 -0.000370576 0.0016561353 -0.0002991993 -0.0003274671 -0.0007039845 0.0014380438 0.0030107372
-0.00037524846 -0.00029278017 0.001397847 -0.0009112794 0.004732557 -0.00088455825 -0.004519293 0.00076114637
0.0009568159 -0.002944356 0.0029165903 -0.0022592614 -0.0035803756 0.0061385455 0.0012309409 -4.6812966e-05
0.0017614071 -0.0013799265 0.0023416507 0.0025953408 0.00019117424 0.001293852 0.0016269131 0.0016446247
-0.0028660463 0.001411931 -0.00034050894 5.6844452e-05 0.000581184 -0.001111616 -0.0017111867 -0.0023991547
-0.0025950756 -0.0010066134 0.0024467201 -0.0006817745 0.00028281513 -0.0006592167 -2.4188748e-05 -0.0017688351
-0.00027326916 -0.007087498 0.0042472435 0.00083615415 0.00040930614 0.0001046175 -0.0009017992 -0.0013342329
0.003367426 0.0013285605 0.00036782297 -0.0034891444 0.004095239 0.0022943122 0.0024510212 0.0002513166
0.0036315895 -0.00074815867 0.0016288526 0.0035028465 0.0023067857 -0.002032194 0.0018577724 0.0032694212
0.00097025174 0.0020989142 -0.0015713979 0.00035038573 0.00044320896 0.00011503545 -0.0002449047 0.0024173562
-0.002332428 0.0010135244 -0.002193847 0.0049669608 0.0028387657 0.0012578678 -0.00019021914 0.0008892171
-0.0016289736 0.0052127806 0.0008127043 -0.00023639611 0.0019702245 -0.002630936 0.0012713728 -0.0012595791

model.1.running_mean f4 [512]
00000000: 1551 aabe ca36 ac3d 453f 57bb cd09 3f3e
00000010: b2ea 623e 7843 19bc 4b49 9bbe b4e2 243e
00000020: 43a8 3fbe 822c 2dbd 754e 8c3e 5585 ea3e
00000030: 92a8 353e 040b 003d db8f 68be 9aeb d7bb
00000040: a301 743e 7009 afbd cf08 e0bd 8032 febe
00000050: e479 20be b78e b6bc f86b 3e3d 77e5 92be
00000060: 5259 dfbe 2076 63be e050 42bd c47b d7be
00000070: e033 31bd b7ee 0fbe 4e78 4d3e c6a6 8fbd
00000080: 03be 513c 7c96 003e 7c0a 233d dfa6 edbd
00000090: 3dc5 1fbd b074 413c b112 11bf 5239 02bd
000000a0: 7e7c d5bd 747b 20be 4875 b43e 35df b4bb
000000b0: 8d0e b63c e1d3 94be 3bd5 74bc 3fc1 1d3f
000000c0: 4e8d 56be 3349 15bf 3521 f3bd e818 36be
000000d0: 7658 0b3e 18c3 8d3e 679c 39be e240 e73d
000000e0: ad43 d33c 8bb7 bebc 21c5 903e 5091 81be
000000f0: 3e1f 77bd 1002 4a3d 1d57 193e 81b8 3f3d
00000100: 7a28 d0be 44eb 3a3e 5b1f 0ebd 0a7e 80be
00000110: b995 14be 9a52 c53c c8d8 0abe 66ec a3be
00000120: f701 2f3e 5b78 313d b765 943d ef75 1c3e
00000130: e1e8 fb3e 22f5 93be edfa 203e 654d 1b3e
00000140: 601d aebd 12f4 aa3e c29e 2ebd 01df db3d
00000150: 381f 9d3e 23a5 243e a0f8 63bd 503a 193f
00000160: 7ac8 723e 7a15 bd3e 2c97 bebc acfa 343e
00000170: 008a a2bd 3fda 983d 693b 10bc b061 1ebe
00000180: 8776 6b3d e752 b9bc 94e7 dd3d 1e5a 9bbe
00000190: 934b a33e bd7f a1bd 2208 053e e46c 593e
000001a0: 47c9 afbd 0876 0fbe f0a7 8cbb 6ae5 943e
000001b0: b468 303e 8c55 1d3d fa49 c2bc e4a4 12bd
000001c0: bc97 863b cfa9 893c 7a2d 62bc 21fd 96bb
000001d0: e51c 71be 2c70 d83c b282 0bbf 836f e8bd
000001e0: d5a1 b53d 440f c5bd d610 c93d f2bc 1b3d
000001f0: 8c37 36be 28b9 e9bb 7bf4 8ebe a812 8c3e
00000200: 27d4 d33d 4800 6b3e c277 c2bd e975 c23d
00000210: f22a 4cbe 4c11 7c3d f049 ea3e 2425 963d
00000220: 4a22 0e3e 352b af3e 880b a0be 5544 a23d
00000230: 1672 1fbe 6cf9 6e3e 6af2 34be 8253 bcbe
00000240: cbb3 16be 62fc 88be fb31 c33d 1870 a0bc
00000250: 4c6e 233e 7460 cfbd 89d1 233d a43d 4b3d
00000260: 5b7b 7d3b 6a20 90be 5ff8 b73d 1ec5 403e
00000270: 5afc 9e3c b9a1 ba3d 2fd8 a4be 3a61 223e
00000280: 7bdf 813e f74f cabc 73b5 7bbe 450d dd3e
00000290: 15e2 1dbd 1feb 473d bcb9 a13e 343b 51be
000002a0: 46c0 5d3e cc1d 21bd a488 0cbe 41b8 b63e
000002b0: da3e 30bd 2d59 81bd 2597 60be 5469 343d
000002c0: ac63 59bd cda0 eabd 21dd 7ebc a7e7 1ebd
000002d0: a291 49bd 2869 1bbe 3ed3 943e 09d6 cdbc
000002e0: 5804 903e 6be7 b23d f301 3d3e ddbf cd3d
000002f0: e471 e03e 882c 8c3d efdd 30bc cde9 91be
00000300: 30e0 713d 963c c9bc 3499 bcbe a01e da3e
00000310: f293 ed3e 5294 12be cd4a 1d3d 3f28 823e
00000320: f1c9 493e b52a 83be bba6 db3c 53c4 9bbe
00000330: 6488 bebe c95a ae3e f723 623d c6cd 6cbe
00000340: 15ec 183b c587 c5bc b66b 37bd 2b2f 3abe
00000350: 187d 35be 63a8 30bd 0f6c aa3e b7f8 1dbe
00000360: 5e7e 72be 7eeb 963d 0cfd 07bd c245 0e3d
00000370: da03 103e ca5a 58be b359 bf3d 951a bfbb
00000380: 1f7b 07be c4f3 8cbb 0c6b 3fbe d2d5 af3e
00000390: 4848 abbd 462c f43e 84f4 50be 8071 22be
000003a0: b512 593d 7f9a d3bd d564 7e3e 3b94 643e
000003b0: b1f3 86be 1264 963c 61d4 923e c09d 303e
000003c0: c082 2f3e 1059 b8be 6de9 a0be 7e58 ac3d
000003d0: 746a e33d 2cb7 853d 72e7 623e 9995 b43d
000003e0: 20b2 7dbd c4fb 25bd ace9 4f3d fb0f 733d
000003f0: 252b 353e b9e2 dc3c 54c4 0b3e 446f 04be
-0.33264986 0.08408888 -0.0032844108 0.18656082 0.22159842 -0.009354465 -0.30329356 0.16102105
-0.1871653 -0.042278774 0.27403608 0.4580485 0.17740086 0.031260505 -0.22711127 -0.006589365
0.2382875 -0.08546722 -0.1093918 -0.49647903 -0.15671498 -0.022284849 0.046489686 -0.28690693
-0.43622833 -0.2221303 -0.04744041 -0.42086613 -0.043262362 -0.14055906 0.20065424 -0.070142314
0.01280165 0.12557405 0.03980492 -0.11604094 -0.03900646 0.011807606 -0.56669146 -0.031792946
-0.104241356 -0.15672094 0.35245728 -0.0055197724 0.022223735 -0.290679 -0.014943416 0.61622995
-0.20952341 -0.5831482 -0.11871568 -0.17782938 0.13607964 0.27687907 -0.18126069 0.11291672
0.025789106 -0.02328088 0.28275397 -0.25306177 -0.06033253 0.049318373 0.14974637 0.046806816
-0.4065588 0.18253809 -0.03469787 -0.2509616 -0.1451024 0.024087239 -0.13559258 -0.32016295
0.17090593 0.04332767 0.07245963 0.15279363 0.4920111 -0.2889796 0.1572072 0.15166242
-0.085016966 0.33389336 -0.042631872 0.10735894 0.3068788 0.1607862 -0.05565703 0.598546
0.23709288 0.36930448 -0.023265444 0.17673749 -0.07936478 0.07463502 -0.008803227 -0.15466952
0.057486083 -0.022622539 0.10835186 -0.3034219 0.31893596 -0.07885692 0.12991384 0.21232945
-0.085833125 -0.14009869 -0.0042924806 0.2908128 0.17227441 0.038411662 -0.023716915 -0.035801783
0.0041074436 0.016804604 -0.013804788 -0.004607812 -0.23546179 0.026420675 -0.544963 -0.11349394
0.08868758 -0.09622052 0.09817664 0.03802199 -0.17794627 -0.007132668 -0.279209 0.27357984
0.10343199 0.22949326 -0.09495498 0.09495146 -0.19938257 0.061539933 0.45759535 0.07331303
0.13880268 0.34212652 -0.31258798 0.079231896 -0.15570864 0.23337334 -0.17670599 -0.3678246
-0.14717023 -0.26755053 0.095310174 -0.0195847 0.15960044 -0.10125819 0.03999475 0.049619332
0.0038678262 -0.2814973 0.0898292 0.18825194 0.01940744 0.091128774 -0.32196185 0.15857401
0.25365815 -0.024696333 -0.24580936 0.43174186 -0.038545687 0.048808213 0.31587017 -0.2043274
0.21655378 -0.039335057 -0.13724 0.3568745 -0.04302869 -0.06315837 -0.21932657 0.04404576
-0.05307357 -0.114564516 -0.015555651 -0.03879514 -0.049211152 -0.15176833 0.29067415 -0.025126474
0.28128314 0.08735546 0.18457775 0.10046361 0.43836892 0.06844431 -0.010795101 -0.28498688
0.059051692 -0.024565022 -0.36835635 0.4260149 0.46401936 -0.14314392 0.038401414 0.2542133
0.19705941 -0.2561852 0.026812902 -0.3042322 -0.37213433 0.3405364 0.05521008 -0.23125371
0.0023334075 -0.024112592 -0.044780456 -0.18182056 -0.177235 -0.043129336 0.33285567 -0.15426908
-0.23681018 0.07369135 -0.03320031 0.034734495 0.14063969 -0.21128383 0.09343281 -0.0058320262
-0.1323056 -0.00430152 -0.18693179 0.3434282 -0.08363396 0.47690028 -0.20405775 -0.1586361
0.052996356 -0.10332202 0.24843152 0.2232217 -0.26357797 0.018358264 0.28677657 0.17247677
0.17139721 -0.3600545 -0.3142809 0.08415316 0.11104289 0.06529078 0.22158602 0.08817596
-0.06193745 -0.040523306 0.050759956 0.059341412 0.1769224 0.026963579 0.13649112 -0.1293307

model.1.running_var f4 [512]
00000000: f857 623c ce72 603c 0df5 753c fd01 443c
00000010: acb5 303c ffa1 803c 9e0e 503c 8a3e 503c
00000020: f790 1a3c 776a 483c fb2f 4d3c bba1 853c
00000030: c393 2e3c 90e3 2d3c bd41 373c 4e76 243c
00000040: f4a7 3f3c 12d5 743c 19fb 493c 9850 793c
00000050: 428d 0b3c 1bad 843c d6e6 393c 4509 703c
00000060: f184 673c 9d7c 2e3c dd8c 163c 5b11 5c3c
00000070: f5bf 393c 3d59 2e3c b2f3 793c 0d5f 8c3c
00000080: 74a3 573c ab0a 3f3c 2734 2f3c 24dd 3d3c
00000090: d86b 653c 8953 8a3c 737f 243c 55c2 623c
000000a0: 3487 5d3c bff3 403c 1587 333c eb3f 993c
000000b0: 1d02 1d3c c58a 823c 38bd 3f3c cecf 483c
000000c0: c8b9 533c b241 6b3c 00ae 363c 5b68 443c
000000d0: 60aa 583c a5b9 113c 4612 4c3c b768 553c
000000e0: e638 7f3c 6f4e 5a3c 4946 953c cc02 053c
000000f0: 7160 4d3c 7075 6e3c 9cb3 173c dc3b 423c
00000100: a1e6 443c a0ec 4f3c 7e96 1d3c a3df 573c
00000110: 3122 273c 7dd7 253c 81bc 853c aac6 313c
00000120: a1a9 893c ae94 5a3c aeb1 503c 39ab 773c
00000130: 969d 4f3c 3e44 253c 48a2 6d3c da4c 3f3c
00000140: 41f2 193c ff0a 933c 289e 173c cc2c 443c
00000150: c59d 773c 9855 7e3c 9cb0 3d3c e6e3 913c
00000160: e63c 793c 0cf9 2c3c 3f94 1c3c 8c1d 653c
00000170: c61d a53c 4040 433c be6b 893c 0416 733c
00000180: 3b2a 3a3c e5c6 443c bf98 333c 487f 003c
00000190: 8ef7 3f3c a6dc 583c 3b57 6f3c 7280 973c
000001a0: 57cc 653c 1984 be3c 8422 8a3c 0c74 883c
000001b0: eac2 593c 22af 453c d7f7 733c 12a2 993c
000001c0: 9d50 283c 6e46 313c a68b 003c 5a07 2f3c
000001d0: 7299 3c3c 1912 523c 1193 243c 408b 8c3c
000001e0: 1e74 1c3c 00b9 073c c686 6c3c 243e 873c
000001f0: 7de0 9e3c ef9a 863c f5c2 1b3c 5727 443c
00000200: 5bc2 313c 521b 163c ca1e 353c 9eb8 823c
00000210: 69e5 1d3c 4a8d 1f3c 0971 543c d10e 803c
00000220: 4c83 373c 0a50 873c f5cd 1c3c 788c 743c
00000230: 6937 873c dac3 393c 12bb 273c 0b3d 1d3c
00000240: 9396 383c ac29 243c b68c 3d3c d634 583c
00000250: ece3 2b3c 7ddc 393c e509 4d3c 8de6 2c3c
00000260: b9ee eb3b 2be7 3a3c d051 803c 4e5a 8d3c
00000270: fc2e 283c 5529 3f3c ea41 3a3c 6df8 483c
00000280: 399c 243c 8241 3f3c 7d58 873c e6c1 283c
00000290: ad3e 813c b324 893c 6e76 523c 7f0e 473c
000002a0: 3193 2b3c b1ea 813c fb21 273c fb47 283c
000002b0: 9062 5c3c c709 403c 743d 063c 1e06 2f3c
000002c0: e14b 383c adf1 233c 810a 943c 81ed 5b3c
000002d0: b485 473c 19e8 373c df41 2a3c 22c6 883c
000002e0: 1ee9 503c 1534 4f3c c219 173c 3139 353c
000002f0: 3c21 923c c8b6 783c 2489 463c b465 643c
00000300: 0b12 aa3c 15a8 513c 4f83 303c 67a4 753c
00000310: 4d79 523c a836 3a3c c07f 703c 9947 263c
00000320: d4f9 353c 0d6c 713c 3def 123c 64c1 4e3c
00000330: e320 363c 2955 713c 1064 383c a1e2 1a3c
00000340: 6a25 4c3c 907d 2d3c c14a 583c 9246 383c
00000350: 6e31 603c f39d 383c 2d0b 1f3c d3b7 813c
00000360: a422 543c ad56 863c 3330 553c 9d87 873c
00000370: fc08 353c af40 993c 80d5 1d3c 7d17 543c
00000380: 8081 5e3c 7c32 133c 99f3 0c3c 9a7d 203c
00000390: cefc 203c 6e89 723c 52c7 573c e8bc 8b3c
000003a0: 10be 1b3c a2fa 903c 1f7e 453c 25a9 773c
000003b0: 20aa 0a3c e81f 863c f86a 1e3c 8dd9 403c
000003c0: 1573 693c 385f 4e3c e279 603c a366 7e3c
000003d0: c159 4f3c 8633 203c dfe1 343c 0c55 3d3c
000003e0: 27c4 263c 5b5a 333c b1d5 433c 6802 263c
000003f0: 10a7 423c fcab 583c 7ea2 413c 36b6 373c
0.013814919 0.013699247 0.015012038 0.011963365 0.010785501 0.015702246 0.0126987975 0.012710223
0.009433976 0.012232414 0.0125236465 0.01631247 0.010655346 0.010613337 0.011185107 0.010037972
0.011697758 0.014943378 0.012327933 0.015216969 0.008517565 0.016195824 0.0113465395 0.0146506475
0.014130817 0.010649827 0.009188858 0.013431872 0.01133727 0.010641393 0.015255855 0.017135167
0.013161529 0.011660258 0.010693586 0.011588369 0.014002763 0.016885536 0.010040152 0.013840278
0.0135210045 0.011776864 0.010957499 0.018707236 0.009583023 0.015935311 0.011702828 0.012256576
0.012922712 0.014358925 0.011149883 0.011987771 0.013224214 0.008894359 0.012455529 0.013025454
0.0155775305 0.013324364 0.018221991 0.008118343 0.0125352 0.0145543665 0.009259131 0.011855092
0.012017877 0.012690693 0.0096184 0.013175878 0.010201023 0.010122177 0.016325237 0.010850588
0.016804518 0.013341112 0.012737675 0.015116506 0.012671849 0.010087071 0.014504023 0.011676038
0.009396137 0.01794958 0.009254016 0.011973571 0.015113299 0.015523337 0.0115777515 0.017808866
0.015212273 0.010557424 0.009556829 0.013984095 0.020155799 0.011917174 0.016775008 0.014836792
0.011362608 0.012010311 0.0109617105 0.007842846 0.0117167365 0.0132362 0.0146082 0.018493865
0.014025769 0.023256348 0.016862161 0.016656898 0.0132911 0.012065681 0.014890633 0.018754039
0.010273126 0.010820014 0.007845795 0.010682905 0.011511194 0.012821698 0.010044829 0.017156243
0.009549169 0.0082838535 0.014436429 0.016509123 0.019394154 0.0164313 0.009506931 0.01197227
0.010849561 0.009161787 0.011054704 0.015957173 0.009637215 0.009738276 0.012966403 0.015632065
0.011200737 0.016517658 0.009570588 0.0149260685 0.016505914 0.011338199 0.010237472 0.009597073
0.011266368 0.010019701 0.011569193 0.013196191 0.0104913525 0.011344072 0.012514566 0.010553014
0.007200089 0.011407654 0.015664011 0.017254975 0.010265108 0.011667569 0.011368254 0.012266261
0.010047012 0.011673333 0.016521687 0.010300135 0.015776956 0.016741132 0.012845619 0.012149452
0.010472105 0.01585898 0.010200973 0.010271068 0.0134512335 0.011721081 0.0081933625 0.010682611
0.01124856 0.01000635 0.018071415 0.013423325 0.012177873 0.01122477 0.010391681 0.01669604
0.012750892 0.012646695 0.00922245 0.011060999 0.017838113 0.015180297 0.012117658 0.013940264
0.020760557 0.012796422 0.010773494 0.01499281 0.012846303 0.01136557 0.0146788955 0.010148906
0.011106927 0.014735234 0.008968172 0.01261935 0.011116239 0.014729776 0.0112543255 0.009453447
0.012460092 0.010589018 0.0132014165 0.011247294 0.01368366 0.011268127 0.009707254 0.015834725
0.012947712 0.016398752 0.01301198 0.016544158 0.011049505 0.018707601 0.009633422 0.012945053
0.01358068 0.008984204 0.008603 0.009795571 0.009825898 0.014803274 0.01317008 0.017057851
0.009505764 0.017697636 0.012053995 0.015116011 0.0084634125 0.016372636 0.009669058 0.011770618
0.014248629 0.012595944 0.013700934 0.0155274 0.012655676 0.009777909 0.01104018 0.011555921
0.010178602 0.010946835 0.0119528035 0.01013241 0.011880651 0.013224598 0.011818526 0.011212876

model.3.weight f4 [256, 512]
00000000: 5ee4 553b 8eb0 02bd 2e9d 283d c491 353d
00000010: 825a 163c 0cb3 00bd 6b47 d4bb 8cce d03c
00000020: f985 0cbd 5cae 743b f320 c0bc 6f01 c1bc
00000030: 3d3f c8bc 888c eebc 307e 043c 18cf caba
00000040: 5e09 d93c 9d69 243d 746b 95bc b8b6 bcbb
00000050: 1d16 6cbc 2c0c d4bc 13b2 2cbc 6c7f 63bc
00000060: 8581 10bc b797 d8bc 02a4 fabb 7c89 a43b
00000070: 0a45 b5bc df7b 0fbd 2f0a edbc fe3a 3ebb
00000080: d0c9 093d 90fd 153d 2848 0ebd 158f 8fbb
00000090: fe7a c4bc 827e 0dbc 281d b0bb ed57 e4bc
000000a0: 69db 0dbd 96ca 3c3c 7a3c e1bc 3fc5 8b3c
000000b0: 1769 28bb daf9 c1bc ac39 20bd f247 433c
000000c0: 476d 2abd 37bf d23c 08e4 953c 55e9 a63c
000000d0: 7897 26bd b10c 2a3d 97dc 0d3d 9ff0 683b
000000e0: 4c13 1b3b 5108 7fbc a4d2 e0bc 9eed aebc
000000f0: b0ad 05bb d219 313d de5c 803c 683a 33bd
00000100: 9b99 ab3c f6c7 a33b d4b1 853c 6d54 363d
00000110: 1116 0b3d f948 203d 8294 ae3b c2dc af3c
00000120: d029 f93c d0a9 17bd 30c2 2abd 438c e0bc
00000130: 7f2e 293b d61b 13bd 46ea 31bd 7edc 103d
00000140: a951 1cbd ebf8 3abc e32f f9bc afce b93c
00000150: 1023 2c3d f5e9 9dbb 482d dbbc 0c1f 3c3c
00000160: 753d 28bd ff16 06bd 4e2d 093d d07d 503c
00000170: da45 fb3c cc62 083d e889 0e3d a4e7 ebbc
00000180: f101 88ba c66b 2c3d 1637 5ebc 93bf ffbc
00000190: 7aad 7cbc c4f8 0bbd cd81 733b 4edc 903c
000001a0: 699f 353c 0b96 103d 9c62 c43b 3c90 edbc
000001b0: 9399 313d 0ae0 25bc 39a6 c23b 6acd ca3c
000001c0: c670 11bd c7c2 b63c 0977 b2bc d5eb b23c
000001d0: 7fda dbbc adcf a4bc 5fb2 803c 3577 1fbd
000001e0: 5e87 4ebb c00f 2b3c 4332 66bc 74e4 d03c
000001f0: c8ed 2fbd 16e8 00bd 57f6 013d fb87 38bd
00000200: 6380 13bd 9648 0c3c 1556 02bc d319 abbc
00000210: e756 163d 33c3 96bc 1557 06bd 1dc0 803c
00000220: e6f3 de3c 9b97 a5bb 6d8c a43c 77ae ed3c
00000230: e766 3cbd 9766 1c3d 9612 aaba 9591 873c
00000240: 8933 b43c 7c83 9f3c 571f dfbb eda0 05bd
00000250: b799 853c c2dc c13b 4322 c33c 2b4e 9dbb
00000260: 6eb2 b83c b2a3 52ba d316 9c3c 42f0 40bc
00000270: f8dd 0ebc 11bc 3bbb d31b b5bc 8de2 7a3c
00000280: 435a bb3b 5b9e 86bc 20b9 33bd aa94 d6bc
00000290: b0c2 233d 6aa6 2b3c c992 21bd 3ce9 eb3a
000002a0: 0e6a 0cba dec7 633c cf42 c7bc 050a 6dbc
000002b0: aecd 033d 7292 d4bc 2682 80bc 665f dabc
000002c0: b54d 2a3d 9555 ecbb f28f 12bd 4eee 193d
000002d0: d917 9b3c db61 023d 2e93 fb3c 5722 b9bc
000002e0: 1662 babc e6ad 153d 97c1 2c3d 34df 223d
000002f0: 5e0f e3bc 23c6 01bd 2401 ed3b 41e8 05bd
00000300: 1ee1 01bd 333c cdbc 3755 103d 4418 cc3c
00000310: 505c b73c c4c8 1b3d ca0a 723b 4c58 d13c
00000320: 47c4 d53c 0e9a 00bc fc48 a5bc 70b3 103d
00000330: fc09 083d 1e08 01bc c11b 043d a476 d4ba
00000340: 3e80 26bb e5cf 1b3d b0c9 0c3d f332 3dbc
00000350: 4841 e33c 4f4c f5bb 770a 27bc cf87 303c
00000360: 461a 753c df17 07bc 85a0 18bd 73ae 3abd
00000370: 41d0 e93b 1ce4 0fbd 5b17 293c ae98 e23c
00000380: a9a5 8fbc 95cd 073d 8622 0abc d8af 73bb
00000390: f8cf 31bc d963 813c aa98 9ebb b4f5 e03c
000003a0: 6803 1f3d ebf0 30bc adbf 953b fd4a f73c
000003b0: cf6a b13c b23b eebc 596c b9bc 59d8 5fbb
000003c0: f11e d43c 2246 d73c 0c8e 79bc 854e 2c3d
000003d0: 5117 a53c 5a9b 7a3b 2183 0c3d 0638 00bd
000003e0: 27f7 e4bc 3e1c 11bd 90b9 b4bc 2cd9 be3c
000003f0: 3703 7c3c 160b 24bc 54e0 03bd 5854 333d
0.0032637338 -0.031906657 0.041165523 0.044328466 0.009176852 -0.031420752 -0.0064782402 0.025489114
-0.034307454 0.0037335372 -0.023453211 -0.023560254 -0.024444217 -0.029119745 0.008086726 -0.0015473096
0.026493724 0.040139783 -0.018239714 -0.0057590865 -0.014409569 -0.02588471 -0.010540503 -0.01388536
-0.008819942 -0.02643953 -0.007648946 0.005021272 -0.022127647 -0.035030242 -0.02893552 -0.0029026861
0.03363973 0.03661877 -0.034736782 -0.0043810704 -0.023984428 -0.008636119 -0.0053745694 -0.027873958
-0.034633074 0.01152291 -0.027494658 0.017061828 -0.0025697404 -0.023678709 -0.0391175 0.011919009
-0.04160812 0.025725944 0.01829721 0.020374933 -0.040671796 0.04151601 0.0346342 0.0035543812
0.0023662625 -0.015565948 -0.027444191 -0.02135354 -0.0020397715 0.043237515 0.015669283 -0.043756872
0.020947268 0.0049982024 0.016320147 0.04451411 0.03395659 0.039132092 0.005327762 0.02146757
0.030415446 -0.03702718 -0.041689098 -0.027410632 0.0025815067 -0.03591522 -0.04343631 0.035366528
-0.038163815 -0.011411886 -0.030418342 0.022681562 0.042025626 -0.0048191496 -0.02675499 0.0114820115
-0.041074235 -0.032736775 0.03349047 0.012725309 0.030672956 0.033297345 0.034799486 -0.028796978
-0.0010376555 0.04209497 -0.013562938 -0.03121928 -0.015422219 -0.03417279 0.0037156225 0.017683174
0.01108537 0.035299342 0.0059932005 -0.02899944 0.04335935 -0.010124216 0.0059402254 0.024756152
-0.03550794 0.022309674 -0.021785276 0.02184097 -0.026837585 -0.020118559 0.015710054 -0.038932044
-0.003151379 0.010440767 -0.014050069 0.02549956 -0.042951375 -0.031471334 0.03172907 -0.045051556
-0.03601111 0.008562228 -0.007955094 -0.020886337 0.03670397 -0.018403625 -0.03279789 0.015716607
0.02721591 -0.005053473 0.020086491 0.029013855 -0.045996573 0.038183775 -0.001297551 0.016548911
0.02199723 0.019471876 -0.006809156 -0.032624174 0.016308649 0.005916209 0.023820048 -0.004800578
0.02254602 -0.0008035257 0.019053852 -0.011776032 -0.008719914 -0.0028646032 -0.022107994 0.015312803
0.005717547 -0.016432932 -0.04387772 -0.026193935 0.03998059 0.010476688 -0.039446626 0.0017998586
-0.00053563796 0.0139026325 -0.024323849 -0.014467721 0.032178573 -0.025948737 -0.01568706 -0.026656818
0.041578013 -0.0072123506 -0.03578181 0.03758078 0.01893227 0.031831603 0.03070983 -0.022599382
-0.02275185 0.036542796 0.04217681 0.039763644 -0.027717289 -0.0316831 0.007232802 -0.032692198
-0.03170883 -0.02505312 0.035237517 0.024913915 0.022382885 0.038033262 0.00369327 0.025554799
0.026094569 -0.0078492295 -0.020176403 0.035327375 0.033212647 -0.00787547 0.03225303 -0.0016209674
-0.0025406028 0.03804006 0.03437203 -0.011547792 0.02774109 -0.0074859033 -0.010195366 0.010774567
0.014959877 -0.008245437 -0.03726246 -0.045576524 0.0071354215 -0.03512965 0.01032051 0.027660694
-0.017535048 0.033155043 -0.008431083 -0.0037183668 -0.010852806 0.015794681 -0.0048399763 0.02746091
0.038821608 -0.010799627 0.0045699687 0.030187124 0.021657376 -0.0290812 -0.022634672 -0.0034156053
0.02589366 0.02627856 -0.0152316205 0.04206707 0.02015272 0.003823957 0.03430474 -0.031303428
-0.027949883 -0.035427324 -0.02206114 0.023296915 0.015381626 -0.010012409 -0.032196358 0.04378161
