models/three_layers/threeLayerModel_emu_corrCut_-1.0_weights_true_drop_0.2_lorentz_no_qg.pt (torch, 579903 bytes, 14 tensors)

model.0.weight f4 [512, 16]
0	0xbe16f4c6	-0.14741811
1	0xbd7669e0	-0.060159564
2	0x3e1c9bae	0.15293762
3	0xbd2dbf90	-0.042419016
4	0x3cb71ed4	0.022353567
5	0xbd535a8f	-0.051600035
6	0xbd9f1aea	-0.07768805
7	0x3defd069	0.11709673
8	0xbe385a46	-0.18003187
9	0xbe17b1c9	-0.14813913
10	0xbda80ecd	-0.08205948
11	0x3d9e8ed6	0.077420875
12	0x3e0f5cae	0.14000198
13	0xbe583186	-0.21112642
14	0xbe4f8eb7	-0.20269285
15	0xbe051a1e	-0.12998244
16	0x3e680dd9	0.22661532
17	0xbddf3909	-0.108995505
18	0xbdc4f138	-0.09616321
19	0x3e022bad	0.12711973
20	0x3e19c00b	0.15014665
21	0x3e2e476d	0.17019434
22	0xbdd29e54	-0.10284105
23	0xbd6baa38	-0.05753538
24	0x3ddcb7d8	0.10777253
25	0xbd357917	-0.044304933
26	0x3d5e3e9d	0.05425893
27	0x3defd0b4	0.11709729
28	0x3a6e6119	0.0009093448
29	0xbc9f5f46	-0.01945461
30	0x3e7d6ed9	0.24749316
31	0xbe4b719a	-0.19867554
32	0x3d89903a	0.06716962
33	0x3c82734b	0.015924117
34	0xbe514759	-0.20437373
35	0x3d9fa8b1	0.07795847
36	0xbe3b3879	-0.18283261
37	0x3da2e95b	0.07954665
38	0x3e3fa4c3	0.18715195
39	0xbdeb39c8	-0.1148563
40	0x3e5bbb33	0.2145813
41	0x3be75251	0.0070593734
42	0xbe238593	-0.15968923
43	0x3dd11d45	0.10210661
44	0x3dba6607	0.091014914
45	0xbd5df561	-0.05418909
46	0xbdb776d6	-0.08958213
47	0xbe4a75cc	-0.19771498
48	0xbe1c0db9	-0.1523961
49	0xbd5b6df0	-0.05357164
50	0xbe31f787	-0.1737958
51	0x3daefef9	0.08544726
52	0x3e6460dc	0.22302574
53	0x3d42e58b	0.04758219
54	0x3df46aa5	0.11934403
55	0x3d3b1f73	0.04568429
56	0xbe4b82d1	-0.19874121
57	0x3e48dfab	0.19616573
58	0xbe192623	-0.14955954
59	0xbdf80d2a	-0.12111886
60	0x3d502f8b	0.05082659
61	0xbe0d9153	-0.13824968
62	0x3dc8e08b	0.09808453
63	0x3e797bb5	0.24363597
64	0xbd16b763	-0.036795985
65	0xbdb18bd7	-0.086692505
66	0x3ca2eca0	0.019888222
67	0x3e77786b	0.2416703
68	0x3de7eec4	0.11324838
69	0x3db68f66	0.0891407
70	0xbdf0b361	-0.11752964
71	0xbd939acd	-0.0720726
72	0xbe7a25da	-0.24428502
73	0x3dff8b0e	0.124776945
74	0xbe0a38dd	-0.13498254
75	0xbe0bfd94	-0.13670951
76	0x3dccfb41	0.100088604
77	0xbd86ace0	-0.06575942
78	0xbe1d9ef5	-0.15392669
79	0x3d68dc71	0.056850854
80	0x3e234a8c	0.15946406
81	0x3e415d9c	0.18883365
82	0x3d751326	0.059832714
83	0xbdd0b526	-0.10190801
84	0xbe162273	-0.14661579
85	0xbdb45664	-0.0880554
86	0x3de2b090	0.11068833
87	0xbd9f2c1e	-0.077720866
88	0xbd947e28	-0.07250625
89	0x3e356b76	0.17716774
90	0xbe6779ec	-0.22605103
91	0x3c2a19b0	0.010382101
92	0x3cc16f2b	0.02361258
93	0x3e1e15eb	0.15438049
94	0x3da28593	0.079356335
95	0x3e1246d0	0.14284825
96	0x3d576e31	0.05259532
97	0xbe6d1ca1	-0.23155452
98	0x3e0bbb93	0.13645773
99	0xbe73b914	-0.2380107
100	0xbdbf0795	-0.09327618
101	0x3e42bdff	0.1901779
102	0x3db9ca68	0.09071809
103	0xbe585f20	-0.21130037
104	0x3dc56bf7	0.09639733
105	0xbdb1445d	-0.086556174
106	0x3e37b652	0.17940643
107	0x3d6fbc6f	0.058529314
108	0x3da096e0	0.07841277
109	0xbe3bffa3	-0.18359236
110	0xbc60e319	-0.013726019
111	0xbe67af78	-0.2262553
112	0x3d9c83f3	0.07642355
113	0xbb8d8b1e	-0.0043195626
114	0xbd843d7c	-0.0645704
115	0xbe40482f	-0.18777536
116	0xbe4e0630	-0.20119548
117	0x3defbee0	0.117063284
118	0x3e0d678d	0.13809033
119	0x3d9e4bb5	0.07729284
120	0xbd8720dd	-0.06598065
121	0xbe25ad4d	-0.1617939
122	0x3cbc41c5	0.02298058
123	0xbe03aeb8	-0.12859619
124	0xbdbbc759	-0.09168882
125	0xbc2d8e84	-0.01059306
126	0x3e70e4ea	0.23524824
127	0x3e436cc5	0.19084461
128	0x3e1011d2	0.14069298
129	0x3e595f9e	0.21227881
130	0x3d02d38d	0.03194003
131	0xbdb6b7e3	-0.08921792
132	0xbdc4a592	-0.096018925
133	0xbc3dd21f	-0.011585741
134	0x3ca73065	0.020408818
135	0x3d9f2535	0.077707686
136	0x3d1e830a	0.038699187
137	0xbdadae61	-0.08480526
138	0xbe7be71d	-0.24599881
139	0x3d8c164f	0.068401925
140	0x3cf075ac	0.029352985
141	0xbe0e7ff3	-0.13915996
142	0xbdbed006	-0.09317021
143	0xbe47732d	-0.1947753
144	0x3e4b4a72	0.19852617
145	0xbd806dea	-0.062709644
146	0x3e27af28	0.1637541
147	0xbc092d22	-0.008372577
148	0xbe717ac0	-0.23581982
149	0xbc02a1ed	-0.007973176
150	0xbe289188	-0.16461766
151	0xbdc9b75c	-0.09849426
152	0x3cdb5271	0.02677271
153	0x3e11d199	0.14240111
154	0x3e6ab298	0.2291969
155	0xbe2be33a	-0.16785899
156	0xbe50aff0	-0.20379615
157	0xbe0610ca	-0.13092342
158	0xbe798587	-0.24367343
159	0xbe464a0f	-0.19364189
160	0xbddc05ca	-0.10743292
161	0xbe7db644	-0.2477656
162	0xbd85637f	-0.06513118
163	0xbd5e5a8c	-0.05428557
164	0x3db1af73	0.086760424
165	0xbe00f626	-0.12593898
166	0x3cb0fa62	0.021603767
167	0xbdb9f196	-0.09079282
168	0x3d5a9a4e	0.053369813
169	0xbbe4879c	-0.0069741737
170	0xbe748f4f	-0.23882793
171	0xbe388abf	-0.18021677
172	0xbe4f3b9c	-0.20237583
173	0x3e3db46e	0.1852586
174	0xbe336071	-0.17517258
175	0xbd364f02	-0.04450894
176	0xbccadfa3	-0.024764841
177	0x39d79880	0.00041121617
178	0xbc78658c	-0.015160929
179	0xbde81833	-0.11332741
180	0xbddc5428	-0.10758239
181	0x3e55cd91	0.20879199
182	0xbd524f75	-0.051345307
183	0xbdfb94c2	-0.12284233
184	0x3e6c24de	0.23060939
185	0xbe7dd85a	-0.24789563
186	0x3ccc8f13	0.024970567
187	0x3e0d7879	0.13815488
188	0xbbc68d5a	-0.006059331
189	0x3e6c3836	0.23068318
190	0xbdc6a6df	-0.09699797
191	0xbdfd6ecb	-0.12374648
192	0xbe508d59	-0.2036642
193	0x3e71f4d8	0.23628557
194	0xbe431675	-0.19051535
195	0x3d8ff70a	0.07029541
196	0x3dad789e	0.084702715
197	0xbe6bd827	-0.23031674
198	0xbe028309	-0.12745298
199	0x3dbe1ee4	0.09283236
200	0x3e49390a	0.19650665
201	0x3e2609a5	0.16214617
202	0xbde8fd82	-0.11376478
203	0x3d739136	0.059464656
204	0x3cf650fa	0.03006791
205	0xbd416cec	-0.047223017
206	0x3c1a6fea	0.009426096
207	0xbcdd9581	-0.027048828
208	0x3db4bf2b	0.08825525
209	0xbe1edd28	-0.15514052
210	0xbe0b23c1	-0.13587858
211	0x3cb60f84	0.022224195
212	0x3e6b111f	0.2295575
213	0xbbafd895	-0.0053663948
214	0xbe4c82fe	-0.19971845
215	0xbd8e3c7a	-0.06945129
216	0xbe2d03a9	-0.16895927
217	0xbdac223e	-0.08404969
218	0xbcc22a68	-0.023701862
219	0xbe30e55c	-0.17274994
220	0x3e58ddbb	0.21178333
221	0xbe448eaa	-0.19195047
222	0xbd879177	-0.06619542
223	0x3d8dcd85	0.06923965
224	0x3d331c03	0.043727886
225	0x3d1c6866	0.0381855
226	0x3c9de97b	0.019276371
227	0x3c61c48a	0.013779769
228	0xbdd46af9	-0.10371966
229	0xbdcd9d00	-0.10039711
230	0xbd9bbd1f	-0.07604431
231	0xbe4269bb	-0.18985645
232	0xbdcdbe77	-0.10046094
233	0x3e482416	0.19545016
234	0xbe67f938	-0.22653663
235	0x3df39320	0.11893296
236	0xbe02ea2a	-0.12784639
237	0xbde894a4	-0.11356476
238	0xbba01f51	-0.0048865457
239	0x3db48f4b	0.088163935
240	0xbe30fc2c	-0.17283696
241	0x3d97ff11	0.07421697
242	0xbe3989ec	-0.1811902
243	0x3e6e041e	0.23243758
244	0x3e0e12b1	0.13874318
245	0x3debad9a	0.11507721
246	0x3e4dc5a6	0.20094928
247	0xbddd36b2	-0.10801448
248	0xbe34db3b	-0.17661755
249	0x3dafcdb1	0.085841544
250	0xbdf9b378	-0.12192434
251	0xbe299d73	-0.16563968
252	0xbe5b02a0	-0.2138772
253	0xbd38546d	-0.04500239
254	0xbe0ecf39	-0.13946237
255	0xbe66726c	-0.22504586

model.0.bias f4 [512]
0	0xbe018271	-0.12647416
1	0xbe7ec623	-0.2488027
2	0x3e43bb30	0.19114375
3	0x3d6f00ca	0.058350362
4	0x3e4a1a29	0.19736542
5	0x3e4e171f	0.20126007
6	0xbe0fd7db	-0.14047186
7	0xbe52efc2	-0.20599273
8	0x3e05a7e6	0.1305233
9	0x3da6bc70	0.0814141
10	0xbdb85825	-0.09001187
11	0x3d961200	0.07327652
12	0x3e7b44fd	0.24538036
13	0xbe41c7d0	-0.18923879
14	0x3d7d8938	0.06189844
15	0xbe6fc833	-0.23416214
16	0xbe6e9246	-0.23297986
17	0x3e716612	0.23574093
18	0xbe1f229a	-0.15540543
19	0x3dfc4574	0.12317935
20	0x3dd75957	0.10515087
21	0xbe737596	-0.23775324
22	0x3dec0209	0.11523826
23	0xbe69c1a6	-0.22827777
24	0x3dc2542e	0.09488712
25	0x3db01947	0.08598571
26	0x3d59e101	0.053193096
27	0xbdb999d1	-0.09062541
28	0xbe04e898	-0.12979352
29	0x3e1c012e	0.15234825
30	0x3c403347	0.0117309755
31	0xbe664142	-0.22485831
32	0x3e00b6e5	0.12569769
33	0x3e18a307	0.1490594
34	0x3e5e43ea	0.21705595
35	0x3e69c013	0.22827177
36	0x3e2280b3	0.15869407
37	0x3e1cc83e	0.15310761
38	0xbd471283	-0.04860164
39	0x3de3f74b	0.11131152
40	0xbd5b272c	-0.053504154
41	0xbe18cbd0	-0.14921498
42	0x3e211538	0.1573075
43	0x3e29e6c2	0.16591933
44	0x3d9a688c	0.07539472
45	0x3e3812a1	0.17975856
46	0x3d1496d7	0.036276665
47	0xbdd00722	-0.101576105
48	0xbe51e6e0	-0.20498228
49	0x3dec9756	0.115523025
50	0x3d16250f	0.036656436
51	0x3de0d14d	0.10977421
52	0x3e0dfcfb	0.13866036
53	0xbe56dff5	-0.2098387
54	0x3db51ea2	0.08843733
55	0x3d29ff17	0.04150304
56	0xbe63046b	-0.22169654
57	0xbe06e030	-0.13171458
58	0xbbe7be32	-0.0070722336
59	0x3dd08504	0.10181621
60	0xbe739e5d	-0.2379088
61	0x3d833419	0.06406421
62	0x3e7e8497	0.24855267
63	0x3e06a323	0.13148169
64	0xbe02d86f	-0.12777875
65	0x3df5c8a7	0.12001162
66	0xbe074fff	-0.1321411
67	0xba16c349	-0.00057511457
68	0x3cbbdbe2	0.022931997
69	0xbd60a9d4	-0.05484946
70	0x3e6eff56	0.2333959
71	0xbdf50bec	-0.119651645
72	0x3cc964dc	0.024584226
73	0xbcee9170	-0.029122084
74	0xbdb94977	-0.090472154
75	0x3e200e4f	0.15630458
76	0xbdac97e8	-0.08427411
77	0xbdb4c996	-0.08827512
78	0x3e1c80ea	0.15283552
79	0xbd6a907b	-0.057266694
80	0x3e1e4af4	0.1545828
81	0x3e41c5d5	0.18923123
82	0xbc963b50	-0.01833883
83	0x3e3c8c3e	0.18412873
84	0xbd10c2e9	-0.03534213
85	0xbe4bd083	-0.1990376
86	0xbe259b4c	-0.16172522
87	0xbe632b57	-0.22184502
88	0x3db4b489	0.08823497
89	0x3da72ea0	0.0816319
90	0xbcd7015c	-0.026245765
91	0xbe4fed4c	-0.20305365
92	0x3e1f5581	0.15559961
93	0x3e5ca255	0.215463
94	0xbe6855f0	-0.22689033
95	0xbe3a09d4	-0.18167812
96	0xbe2537af	-0.16134523
97	0x3b22879e	0.0024800072
98	0x3d40d99b	0.047082525
99	0x3e7235cd	0.23653336
100	0xbdf80fc3	-0.12112381
101	0x3e043601	0.12911226
102	0x3dd965c0	0.106151104
103	0xbe773ff8	-0.24145496
104	0xbc1ded86	-0.0096391495
105	0xbd4fed71	-0.05076355
106	0xbe70569d	-0.2347054
107	0xbe405e36	-0.18785939
108	0x3e4b8275	0.19873984
109	0xbdc81a84	-0.097706825
110	0x3e54d057	0.207826
111	0xbe2c5646	-0.16829786
112	0x3e74062c	0.2383048
113	0x3e6fb570	0.23409057
114	0xbe212ffb	-0.1574096
115	0xbe660921	-0.2246442
116	0xbe3ed332	-0.18635252
117	0x3e5cdf87	0.21569644
118	0xbd020ef4	-0.03175254
119	0xbe46540e	-0.19368002
120	0x3e3d91b5	0.18512614
121	0x3e2009c6	0.15628728
122	0x3bb8d7af	0.005640946
123	0xbdb82eb4	-0.08993283
124	0xbd2cb5cf	-0.042165574
125	0x3d79bb4d	0.06096964
126	0xbe1e89b3	-0.15482216
127	0x3daecb74	0.08534899
128	0x3dd46f28	0.10372764
129	0x3e0fa2c1	0.1402693
130	0x3d86b30a	0.06577118
131	0x3de79b11	0.113088734
132	0x3d34df4d	0.04415827
133	0xbe05f535	-0.1308182
134	0xbe5ce74a	-0.21572605
135	0x3e2d7de4	0.16942555
136	0xbe5c68ef	-0.21524404
137	0x3d732555	0.059361774
138	0xbc089ed6	-0.008338651
139	0xbd5440db	-0.051819663
140	0xbe7d6eba	-0.2474927
141	0x3e1c38b6	0.15256009
142	0xbe383621	-0.17989399
143	0x3e48b154	0.19598895
144	0x3d924b40	0.07143259
145	0x3dfd2c4c	0.123619646
146	0xbe07104c	-0.1318981
147	0xbe505e5c	-0.20348495
148	0x3dcba076	0.09942715
149	0xbbadc1d5	-0.0053026476
150	0x3e0900af	0.13379167
151	0x3e440e66	0.19146118
152	0x3e6aa873	0.22915821
153	0xbd808ba5	-0.06276635
154	0x3e50336c	0.20332116
155	0xbce66287	-0.028123153
156	0xbe5fc117	-0.21851002
157	0xbe393620	-0.18087053
158	0xbe539998	-0.2066406
159	0xbe63adc9	-0.22234263
160	0xbe5a1223	-0.21295981
161	0x3dccf01d	0.100067355
162	0x3e05e273	0.13074665
163	0x3ddc668e	0.10761748
164	0x3c9eaad6	0.01936857
165	0xbd1ca480	-0.038242817
166	0xbe1c1262	-0.15241387
167	0xbe3952f5	-0.18098052
168	0xbe673d33	-0.2258194
169	0x3e3e6b7f	0.18595694
170	0xbe1734c9	-0.1476623
171	0xbe2cc214	-0.1687091
172	0xbc903763	-0.017604535
173	0xbe59c46d	-0.21266337
174	0xbdfd4b13	-0.12367835
175	0xbd992f1a	-0.07479687
176	0xbe7b0f59	-0.24517573
177	0xbd00c76c	-0.031440184
178	0x3d85b12a	0.06527932
179	0x3d3fdbeb	0.04684059
180	0xbe56f468	-0.20991671
181	0xbdae5a73	-0.085133456
182	0xbd35945f	-0.04433095
183	0xbe172365	-0.14759596
184	0x3e79782c	0.24362248
185	0x3e4c0159	0.19922389
186	0x3d5a4dc6	0.053296827
187	0x3e3d90b6	0.18512234
188	0xbd9893f1	-0.074500926
189	0x3e1f27ed	0.15542574
190	0xbd6de021	-0.058075074
191	0x3e06807f	0.13134955
192	0x3e220a86	0.15824327
193	0xbc9ff082	-0.019523863
194	0xbda696cb	-0.0813423
195	0x3dea4170	0.114382625
196	0xbe556611	-0.20839716
197	0xbe507645	-0.20357616
198	0xbe21ab43	-0.15787987
199	0xbdcab23e	-0.09897278
200	0xbbd34645	-0.0064475858
201	0xbe118a82	-0.14212993
202	0x3df3645f	0.11884379
203	0xbe550e95	-0.20806344
204	0x3d847803	0.06468203
205	0x3d51a26e	0.051180296
206	0xbe03a45e	-0.1285567
207	0x3e42dea5	0.19030245
208	0x3e43de96	0.19127879
209	0x3e43bfd8	0.19116151
210	0x3e0a2f8a	0.13494697
211	0xbe78f1f1	-0.24311043
212	0x3dd77757	0.10520809
213	0xbd634e8a	-0.055494823
214	0x3dc20658	0.09473866
215	0x3d95f1c9	0.073215075
216	0xbd5e29de	-0.054239146
217	0xbd91131b	-0.07083722
218	0x3e0590e6	0.13043556
219	0x3db07955	0.08616892
220	0x3de2a4a1	0.11066557
221	0xbe7f4f3e	-0.24932572
222	0xbdfc6def	-0.12325656
223	0xbe270cec	-0.16313523
224	0x3e7a2164	0.244268
225	0x3c84c16e	0.016205516
226	0x3e7d424d	0.24732323
227	0xbd0f7981	-0.035027985
228	0xbd87c958	-0.066302
229	0x3d8c9a46	0.06865363
230	0x3e3d8e35	0.18511279
231	0xbdb60354	-0.088873535
232	0xbce49f20	-0.027907908
233	0x3d9ea107	0.07745557
234	0x3d3a84e0	0.045536876
235	0xbe3016f4	-0.17196256
236	0x3e36aed4	0.17840129
237	0x3d905864	0.07048109
238	0xbe20b0c2	-0.15692428
239	0x3daa416e	0.08313261
240	0x3e281937	0.16415869
241	0xbe51c3f1	-0.20484902
242	0x3de144a8	0.10999423
243	0x3e132a2b	0.14371555
244	0xbe209b8a	-0.15684333
245	0x3dbdcb69	0.09267313
246	0xbe0470a4	-0.12933594
247	0x3e6d6201	0.23181917
248	0x3d528464	0.05139579
249	0x3e7fa355	0.2496465
250	0xbcb3fe42	-0.021971826
251	0x3e4a6ae1	0.19767334
252	0xbe283b22	-0.16428807
253	0x3d1690c4	0.036759153
254	0x3dd9bf07	0.10632139
255	0xbe6be15e	-0.2303519

model.1.weight f4 [512]
0	0x3f7fb006	0.99877965
1	0x3f7f62cc	0.9976013
2	0x3f7fc3ef	0.99908346
3	0x3f7fc2ef	0.9990682
4	0x3f8022f0	1.0010662
5	0x3f7f9205	0.99832183
6	0x3f7f74f7	0.9978785
7	0x3f806294	1.0030084
8	0x3f7f723b	0.99783677
9	0x3f807f10	1.0038776
10	0x3f7fb77a	0.9988934
11	0x3f7f617e	0.99758136
12	0x3f803f12	1.0019248
13	0x3f803792	1.0016959
14	0x3f7f6d43	0.99776095
15	0x3f80072c	1.0002189
16	0x3f7f6193	0.9975826
17	0x3f7f8bc8	0.99822664
18	0x3f7fc440	0.9990883
19	0x3f8005bf	1.0001754
20	0x3f803e0a	1.0018933
21	0x3f7f70e2	0.9978162
22	0x3f80636f	1.0030345
23	0x3f801075	1.0005022
24	0x3f7eede9	0.9958177
25	0x3f804ffc	1.0024409
26	0x3f808a2e	1.0042169
27	0x3f7fa4ad	0.9986065
28	0x3f801e3e	1.0009229
29	0x3f7fecc5	0.99970657
30	0x3f800019	1.000003
31	0x3f7f7230	0.9978361
32	0x3f805623	1.0026287
33	0x3f80012d	1.0000359
34	0x3f8026e1	1.0011865
35	0x3f8008f5	1.0002733
36	0x3f805715	1.0026575
37	0x3f7fbc9b	0.99897164
38	0x3f7f885e	0.99817455
39	0x3f7f3bee	0.9970082
40	0x3f7f6aaa	0.9977213
41	0x3f80212e	1.0010126
42	0x3f800114	1.0000329
43	0x3f804fa1	1.0024301
44	0x3f7f5bd7	0.9974951
45	0x3f7fa699	0.9986358
46	0x3f7f9583	0.9983751
47	0x3f7f49fc	0.99722266
48	0x3f7f214d	0.9966019
49	0x3f803df2	1.0018904
50	0x3f801c31	1.0008603
51	0x3f8004c9	1.000146
52	0x3f8013cb	1.000604
53	0x3f7fec8a	0.99970305
54	0x3f803004	1.0014653
55	0x3f804e7f	1.0023955
56	0x3f802bf3	1.0013412
57	0x3f802879	1.0012351
58	0x3f80ac11	1.005251
59	0x3f7f77a0	0.9979191
60	0x3f7fee98	0.9997344
61	0x3f7ff72e	0.9998654
62	0x3f806408	1.0030527
63	0x3f7fec35	0.999698
64	0x3f7f7dcd	0.9980133
65	0x3f8018a2	1.0007517
66	0x3f7f6433	0.99762267
67	0x3f7f3989	0.99697167
68	0x3f7fe6d0	0.99961567
69	0x3f7fcee9	0.99925095
70	0x3f8080c0	1.0039291
71	0x3f8032a6	1.0015457
72	0x3f805132	1.0024779
73	0x3f7fd3e4	0.99932694
74	0x3f8074d4	1.0035653
75	0x3f7f85c6	0.998135
76	0x3f803701	1.0016786
77	0x3f7fee0d	0.9997261
78	0x3f808559	1.0040694
79	0x3f801832	1.0007384
80	0x3f805f33	1.0029052
81	0x3f7fdf98	0.9995055
82	0x3f807ef8	1.0038748
83	0x3f7fb37c	0.99883246
84	0x3f8020e2	1.0010035
85	0x3f7fb866	0.99890745
86	0x3f8069bc	1.0032268
87	0x3f805612	1.0026267
88	0x3f7fc643	0.999119
89	0x3f800668	1.0001955
90	0x3f7ff9bc	0.9999044
91	0x3f7f7e79	0.99802357
92	0x3f7ff4c4	0.9998286
93	0x3f800c53	1.0003761
94	0x3f801615	1.0006739
95	0x3f7f890d	0.998185
96	0x3f7fbb6e	0.9989537
97	0x3f7facc3	0.9987299
98	0x3f802d07	1.0013741
99	0x3f8063be	1.0030439
100	0x3f7f4fdc	0.9973123
101	0x3f801b78	1.0008383
102	0x3f7f8fa6	0.99828565
103	0x3f7fc06b	0.9990298
104	0x3f7f9fe2	0.99853337
105	0x3f802f96	1.0014522
106	0x3f7f6d44	0.997761
107	0x3f803060	1.0014763
108	0x3f7f46bc	0.9971731
109	0x3f7fd415	0.99932986
110	0x3f7f598f	0.9974603
111	0x3f800e54	1.0004373
112	0x3f7fce9a	0.99924624
113	0x3f8017e5	1.0007292
114	0x3f8002f1	1.0000898
115	0x3f801f90	1.0009632
116	0x3f802df7	1.0014027
117	0x3f801e93	1.000933
118	0x3f8005e6	1.00018
119	0x3f8032ec	1.001554
120	0x3f806a06	1.0032356
121	0x3f80271b	1.0011934
122	0x3f800e89	1.0004436
123	0x3f7fb29b	0.99881905
124	0x3f7ff987	0.99990124
125	0x3f7fa75f	0.99864763
126	0x3f7fe54f	0.9995927
127	0x3f8034ef	1.0016154
128	0x3f804310	1.0020466
129	0x3f7f3e8d	0.9970482
130	0x3f803aa8	1.00179
131	0x3f7fa40a	0.9985968
132	0x3f7fd29c	0.9993074
133	0x3f7ff741	0.99986655
134	0x3f7f6590	0.9976435
135	0x3f7f656f	0.9976415
136	0x3f801523	1.000645
137	0x3f8029b6	1.0012729
138	0x3f8017ed	1.0007302
139	0x3f7f833e	0.99809635
140	0x3f7f495d	0.9972132
141	0x3f8042c9	1.0020381
142	0x3f7f3cb5	0.99702007
143	0x3f7f6491	0.9976283
144	0x3f8005a2	1.0001719
145	0x3f7fe224	0.9995444
146	0x3f7f4ba0	0.9972477
147	0x3f7fba36	0.9989351
148	0x3f803b3c	1.0018077
149	0x3f7faf5e	0.99876964
150	0x3f7f5e7e	0.9975356
151	0x3f7fbcb1	0.99897295
152	0x3f800576	1.0001667
153	0x3f7fea5b	0.99966973
154	0x3f805902	1.0027163
155	0x3f8038cb	1.0017332
156	0x3f7fdb84	0.9994433
157	0x3f803098	1.001483
158	0x3f806b43	1.0032734
159	0x3f7fbbae	0.9989575
160	0x3f802638	1.0011663
161	0x3f802159	1.0010177
162	0x3f800ef3	1.0004562
163	0x3f7f431e	0.9971179
164	0x3f7fb298	0.9988189
165	0x3f80675b	1.0031542
166	0x3f7fc269	0.9990602
167	0x3f803a82	1.0017855
168	0x3f7f6cac	0.99775195
169	0x3f7eff8d	0.9960869
170	0x3f7f8e18	0.9982619
171	0x3f8039dc	1.0017657
172	0x3f800f27	1.0004624
173	0x3f80247f	1.0011138
174	0x3f80351f	1.0016211
175	0x3f7f5627	0.99740833
176	0x3f7f7d50	0.99800587
177	0x3f8008d8	1.0002699
178	0x3f7ee83d	0.9957312
179	0x3f8025cc	1.0011535
180	0x3f80438d	1.0020615
181	0x3f803ef0	1.0019207
182	0x3f801ec6	1.0009391
183	0x3f7fd8a7	0.9993996
184	0x3f7f5e5c	0.99753356
185	0x3f800983	1.0002903
186	0x3f7ffcfb	0.9999539
187	0x3f7feede	0.9997386
188	0x3f800676	1.0001972
189	0x3f7fb66a	0.99887717
190	0x3f7f9002	0.99829113
191	0x3f8086e0	1.004116
192	0x3f802564	1.0011411
193	0x3f7faa9c	0.99869704
194	0x3f8032fb	1.0015558
195	0x3f7f4d0d	0.99726945
196	0x3f7fc9bd	0.99917203
197	0x3f80758e	1.0035875
198	0x3f7f53e8	0.99737406
199	0x3f7f782e	0.99792755
200	0x3f803842	1.0017169
201	0x3f800cfa	1.000396
202	0x3f7ffa3e	0.99991214
203	0x3f7f11b7	0.99636406
204	0x3f806740	1.0031509
205	0x3f806333	1.0030273
206	0x3f800df8	1.0004263
207	0x3f7f758c	0.9978874
208	0x3f803dd4	1.0018868
209	0x3f7f5329	0.9973627
210	0x3f7f6cf4	0.99775624
211	0x3f7fd962	0.99941075
212	0x3f7fe1c0	0.9995384
213	0x3f80265b	1.0011705
214	0x3f7fe059	0.999517
215	0x3f7f0738	0.9962039
216	0x3f8011a6	1.0005386
217	0x3f80477c	1.0021815
218	0x3f7fc196	0.99904764
219	0x3f7f2838	0.99670744
220	0x3f7f6945	0.99770004
221	0x3f7fe053	0.99951667
222	0x3f7f7a48	0.9979596
223	0x3f8048c5	1.0022207
224	0x3f803853	1.0017189
225	0x3f800b8d	1.0003525
226	0x3f803d9a	1.0018799
227	0x3f801dda	1.000911
228	0x3f802923	1.0012554
229	0x3f7ff852	0.9998828
230	0x3f7f9b20	0.99846077
231	0x3f805b68	1.0027895
232	0x3f805a23	1.0027508
233	0x3f7fcc0c	0.99920726
234	0x3f802f70	1.0014477
235	0x3f801cac	1.000875
236	0x3f7fcde3	0.99923533
237	0x3f80202c	1.0009818
238	0x3f7ffb87	0.99993175
239	0x3f801937	1.0007695
240	0x3f7fca19	0.9991775
241	0x3f7f478c	0.99718547
242	0x3f801de4	1.0009122
243	0x3f806daf	1.0033473
244	0x3f7fac6c	0.9987247
245	0x3f7f7b10	0.99797153
246	0x3f803d00	1.0018616
247	0x3f7ffd3f	0.999958
248	0x3f80237b	1.0010828
249	0x3f7f32f0	0.996871
250	0x3f8049f5	1.002257
251	0x3f804aac	1.0022788
252	0x3f7ff6bd	0.9998587
253	0x3f7f9c7d	0.9984816
254	0x3f8048d4	1.0022225
255	0x3f8026f2	1.0011885

model.1.bias f4 [512]
0	0xbb093169	-0.0020933992
1	0xbb3ce254	-0.0028821426
2	0xba8434dd	-0.0010086555
3	0xbaaf41b5	-0.0013371023
4	0x3b083910	0.0020785965
5	0xb6512cf2	-3.1169589e-06
6	0xbb1fc31d	-0.0024377771
7	0x3b1909bc	0.002335175
8	0xbaf98467	-0.0019036651
9	0x3b427eea	0.0029677697
10	0xba1d8e4b	-0.0006010278
11	0xba23bb4f	-0.00062458677
12	0x3ade69d3	0.0016968794
13	0x398c5ae3	0.00026770597
14	0xbb0f5405	-0.0021870148
15	0x39e4b9f8	0.00043626106
16	0xba8d4344	-0.0010777493
17	0xbb0dd40d	-0.0021641285
18	0xba523580	-0.00080188364
19	0xba5ffb8b	-0.0008544258
20	0x3a81d5cb	0.0009905634
21	0xbabe9d34	-0.00145427
22	0xbade1311	-0.0016942938
23	0x3931bd03	0.00016950448
24	0xbb425649	-0.002965348
25	0x39bad2cb	0.00035633738
26	0x3af0dc24	0.0018376154
27	0xbaa0727c	-0.001224115
28	0x3a345342	0.00068788615
29	0x3b307b40	0.0026928931
30	0xb9a021be	-0.00030542718
31	0xba13eec3	-0.0005643183
32	0x39d16e2e	0.00039945677
33	0x3a949136	0.001133478
34	0x3a258cc6	0.00063152274
35	0xb9491dd6	-0.00019179969
36	0x3b0d2b70	0.0021540783
37	0xba54a081	-0.0008111075
38	0xbb90d7b1	-0.0044202437
39	0xbae2ea1a	-0.0017312199
40	0xbb2cfe37	-0.002639664
41	0x3922b846	0.00015518171
42	0x3ae7b326	0.0017677292
43	0x3a2a896d	0.00065054634
44	0xbb164a29	-0.0022932386
45	0xbaa4a646	-0.001256176
46	0xbaea5b28	-0.001787995
47	0xba154269	-0.0005693795
48	0xbb2c1436	-0.0026257164
49	0xb7948796	-1.7706112e-05
50	0xba3a2211	-0.0007100413
51	0x3a4c2df6	0.0007788831
52	0xbb11d90f	-0.002225462
53	0xba458323	-0.00075344945
54	0x3ad0143b	0.001587517
55	0x3a5cfbe1	0.0008429867
56	0xba9af19e	-0.0011821275
57	0xb8a1cd18	-7.71528e-05
58	0x3b75971e	0.0037474106
59	0xbb029116	-0.0019922904
60	0xb9ee9607	-0.00045506677
61	0x395f4ae3	0.00021294835
62	0x3a6f3c06	0.00091260707
63	0xba4207d9	-0.0007401682
64	0xbb0ba5d0	-0.0021308549
65	0x3a9e21db	0.0012064533
66	0xbb17e171	-0.0023175145
67	0xba9ea639	-0.0012103982
68	0x3983dd52	0.00025151164
69	0x3b506e6c	0.0031804098
70	0x3b2b097c	0.0026098182
71	0xbab1b317	-0.0013557401
72	0x3b2d35d2	0.0026429784
73	0xbac1fb80	-0.0014799684
74	0x396354fe	0.00021680069
75	0xba931d80	-0.0011224002
76	0x3acc689f	0.0015595144
77	0xb9827291	-0.0002488089
78	0x3a93d693	0.0011279158
79	0xb8ba3655	-8.879291e-05
80	0x3ad9ecb2	0.0016626327
81	0xba61a46f	-0.00086075714
82	0x3b55b62d	0.0032609806
83	0x39b28038	0.00034046336
84	0xbb135cb1	-0.0022485668
85	0xb9a8da8e	-0.00032206293
86	0x3abdaeba	0.0014471628
87	0x3ab5f6fe	0.0013882814
88	0xba9a695b	-0.0011780666
89	0x3926d5ab	0.00015910591
90	0xba80a45b	-0.0009814607
91	0x389de4af	7.528939e-05
92	0x39172b05	0.00014416508
93	0x3a19ed3b	0.0005871837
94	0x39aba969	0.00032741882
95	0xbade8ec9	-0.0016979809
96	0xba206737	-0.0006118896
97	0xbab5cd76	-0.0013870436
98	0xb87ea7f5	-6.071474e-05
99	0xba03f3ae	-0.00050335645
100	0xbb0b7cc0	-0.0021284074
101	0xb91f1574	-0.00015171414
102	0xba1f212e	-0.0006070313
103	0xb8c4c2a6	-9.3822644e-05
104	0x39116f80	0.00013869815
105	0x39f3b001	0.00046479705
106	0xb88d0a26	-6.725294e-05
107	0x3a4fa016	0.0007920278
108	0xbb19f098	-0.0023489352
109	0xbab16ce1	-0.0013536477
110	0xbb4768e1	-0.0030427503
111	0x3a422075	0.0007405349
112	0xb9d793c8	-0.000411181
113	0x398cc40e	0.00026848953
114	0xba139bba	-0.000563081
115	0x3aedda7b	0.0018146777
116	0xbae62b67	-0.0017560542
117	0xba0ca2d4	-0.00053648395
118	0x3a500a35	0.0007936091
119	0x3aff3a2d	0.0019472294
120	0xba411564	-0.0007365553
121	0xba88805e	-0.0010414233
122	0x3a9095d0	0.0011030976
123	0xbb2ec281	-0.0026666226
124	0x3932064f	0.00016977753
125	0x38f3bb5c	0.00011622041
126	0xba3f6398	-0.00073009124
127	0x3a1f953e	0.00060876075
128	0x3791eefd	1.7396635e-05
129	0xb99df40e	-0.00030127208
130	0x3ad371df	0.0016131959
131	0xbae35728	-0.00173447
132	0xba9af84c	-0.0011823266
133	0xb9716200	-0.00023020059
134	0xbaf66266	-0.0018797636
135	0xbb0fcca4	-0.0021942044
136	0xb78fa3e1	-1.712324e-05
137	0x394ff9cd	0.00019834116
138	0xba2fcea9	-0.0006706515
139	0xbb55f38c	-0.0032646386
140	0xbaaf4517	-0.0013372031
141	0x3a63cc77	0.00086898304
142	0xbb1cd4cc	-0.0023930548
143	0xba1b4692	-0.00059232966
144	0x3aafca6f	0.001341177
145	0xbb0294e1	-0.0019925165
146	0xbad0655d	-0.0015899349
147	0xbb161e55	-0.0022906263
148	0xba98e246	-0.0011664114
149	0xbb1c8bf1	-0.0023887123
150	0xbaed1b60	-0.0018089823
151	0x3a67ea1c	0.00088468357
152	0x39d0606b	0.0003974469
153	0x39c117ae	0.0003682947
154	0x3affb620	0.0019509234
155	0x3b271168	0.0025492553
156	0x3a7e36b6	0.00096974836
157	0x3b26778f	0.0025400852
158	0x3a8d4c55	0.0010780195
159	0xba24bfac	-0.0006284665
160	0xbb16896c	-0.0022970093
161	0x395d0c48	0.00021080778
162	0xba69c26b	-0.0008917215
163	0xbacfc320	-0.0015850998
164	0xbae221a1	-0.0017252454
165	0x3b1d2d0b	0.0023983147
166	0x38a41f90	7.8260084e-05
167	0x396711a1	0.00022036444
168	0xbb034ac0	-0.0020033568
169	0xbae2ff82	-0.0017318579
170	0xbac2b204	-0.0014854078
171	0x39f2f178	0.00046337745
172	0xbab8a8b4	-0.0014088363
173	0x37f7c84c	2.9537965e-05
174	0x3a213611	0.0006149719
175	0xba71ae24	-0.00092193694
176	0x3a9e3bd1	0.001207227
177	0x39c5163f	0.00037591343
178	0xbb5f8498	-0.0034106132
179	0x3ab489f9	0.0013774029
180	0x3acba4ff	0.0015536844
181	0x3acfb007	0.0015845307
182	0x3b5b7786	0.003348799
183	0xbb05c422	-0.0020411094
184	0xbad148e1	-0.0015967154
185	0xba87e3ec	-0.0010367609
186	0x39984a66	0.0002904713
187	0xb986d090	-0.00025713863
188	0xb9c6a050	-0.00037884945
189	0xb9dbf4a3	-0.00041953204
190	0xbb0e3bc7	-0.002170311
191	0x3b1cfa87	0.0023953037
192	0x3a4cf0b2	0.0007817849
193	0xbb257284	-0.0025245259
194	0xbaca4a57	-0.0015433532
195	0xbaa88cb5	-0.0012859317
196	0xbaa11234	-0.001228875
197	0x3ac17e95	0.0014762456
198	0xbb09d61d	-0.0021032162
199	0x39e9ed60	0.0004461808
200	0x3a885736	0.0010401967
201	0xba907690	-0.0011021663
202	0x39fd0389	0.00048258554
203	0xbb6acdb3	-0.0035828173
204	0xba892572	-0.001046343
205	0x3b5ef6e0	0.003402166
206	0x3ac449a5	0.0014975561
207	0xb9d8a1f9	-0.0004131941
208	0x3b08a5e0	0.0020850822
209	0xbaf71dfe	-0.0018853543
210	0xbac793bb	-0.0015226522
211	0x39b4f50e	0.00034514855
212	0xb97a73b1	-0.00023884956
213	0x3a32d282	0.0006821529
214	0xbb04a264	-0.0020238394
215	0xbb40f7c3	-0.0029444552
216	0x3995f76b	0.00028603835
217	0x390d2d1c	0.00013463612
218	0xbae8b5ab	-0.0017754337
219	0xbb073d13	-0.0020635768
220	0xbae2d7ec	-0.0017306781
221	0xba54d95d	-0.0008119548
222	0xbada55ab	-0.0016657611
223	0x3a3818df	0.0007022749
224	0xb8f4cbb3	-0.000116727686
225	0x3aaa9a5e	0.0013015976
226	0xb9a45b95	-0.00031348752
227	0xba449802	-0.00074994576
228	0x3a652755	0.00087415177
229	0x3b4a3228	0.003085265
230	0xba865e0a	-0.0010251414
231	0xb95b7da2	-0.0002093227
232	0xb9b0b5bf	-0.00033704747
233	0xba3389a5	-0.0006848819
234	0x3ad71ee3	0.0016412403
235	0x39f13c2a	0.00046011928
236	0x3a5be6dc	0.0008388588
237	0x3972567d	0.00023111138
238	0xba51a64e	-0.00079974986
239	0xba311dd4	-0.0006756459
240	0xba1d1f8a	-0.00059937744
241	0xbb27f5da	-0.0025628717
242	0xbadc6374	-0.0016814307
243	0x3ad3cb79	0.0016158662
244	0xbaa66074	-0.001269354
245	0xbad07a77	-0.0015905638
246	0x390793aa	0.00012929612
247	0x385e631a	5.302122e-05
248	0x3adc4779	0.0016805968
249	0xbb40fd3f	-0.0029447821
250	0x3b1b55c3	0.002370224
251	0x3a01bf6a	0.00049494824
252	0xba9518a6	-0.0011375144
253	0xbacdf63a	-0.001571364
254	0x3a4d203e	0.0007824934
255	0x3abc2afa	0.001435607

model.1.running_mean f4 [512]
0	0xbebe0b01	-0.3711777
1	0xbde89656	-0.11356799
2	0x3e7f589c	0.24936146
3	0xbdd013dc	-0.10160038
4	0xbc86be7c	-0.016448252
5	0x3eaf1090	0.34192324
6	0xbe7b9894	-0.24569923
7	0xbea3b5ad	-0.31974545
8	0x3e2869d6	0.16446623
9	0x3e05ceec	0.13067216
10	0xbf12364d	-0.57114106
11	0xbc123f46	-0.008926218
12	0x3ea44e7b	0.32091126
13	0xbf1f6f69	-0.62279373
14	0xbd09d424	-0.03364958
15	0xbee522da	-0.44753152
16	0xbe297387	-0.16547976
17	0x3df7a686	0.12092309
18	0xbe7fe6e3	-0.2499042
19	0xbe0e83f5	-0.13917525
20	0x3e850f6d	0.2598833
21	0xbdc0aa5c	-0.094074935
22	0x3e7f3b2e	0.24924919
23	0xbe42e339	-0.19031991
24	0x3ddaae7b	0.10677811
25	0x3e8f3462	0.27969652
26	0x3ecdade4	0.4017173
27	0xbea78ef7	-0.3272626
28	0xbe66345a	-0.22480908
29	0x3f38dde6	0.7221359
30	0x3e10722f	0.14106058
31	0xbe9fa495	-0.31180254
32	0xbdf7936b	-0.120886646
33	0xbe2c2d52	-0.16814163
34	0x3d9f4f58	0.077788055
35	0x3eb9ef73	0.36315498
36	0x3edffaa0	0.437459
37	0x3ef4ed51	0.47837308
38	0xbe81b132	-0.25330502
39	0x3dfa79d5	0.12230269
40	0xbdb76457	-0.08954685
41	0xbe86047b	-0.26175293
42	0x3e84f554	0.2596842
43	0x3f1ebe8a	0.6200949
44	0x3e8b9765	0.27263942
45	0x3e30a9f2	0.17252329
46	0xbf10dd65	-0.5658782
47	0xbe822a9f	-0.25423142
48	0xbf0cd6b2	-0.550151
49	0x3e0b6184	0.13611418
50	0xbe15533b	-0.14582531
51	0x3d56a3be	0.05240225
52	0x3f2692c8	0.6506772
53	0xbdc0b435	-0.09409372
54	0x3d478a98	0.048716158
55	0xbe0cbf55	-0.13744862
56	0xbe5a6b17	-0.21329914
57	0xbd8efda6	-0.06981973
58	0xbe91c655	-0.28471628
59	0x3e9aac9a	0.3020981
60	0xbd89fc2c	-0.06737551
61	0xbb139d03	-0.0022524006
62	0x3ee2db4f	0.44307944
63	0x3e934b68	0.28768468
64	0xbee59ed8	-0.4484775
65	0x3e6f5c39	0.23375024
66	0xbec4ec4e	-0.38461536
67	0x3e1a91bb	0.15094654
68	0x3e991349	0.29897526
69	0xbe5c2e2d	-0.2150199
70	0x3f069e06	0.52584875
71	0xbe47afb7	-0.19500624
72	0x3efb2e34	0.49058688
73	0xbcb7d280	-0.022439241
74	0x3ddf0e8f	0.10891449
75	0xbe87d96d	-0.2653307
76	0x3d408054	0.046997383
77	0x3dc7b249	0.09750802
78	0x3db62cd4	0.08895269
79	0x3e66015c	0.22461456
80	0x3dea8cf0	0.11452663
81	0x3e066ee4	0.13128239
82	0x3e3b5dd1	0.18297507
83	0x3f1226cc	0.5709045
84	0xbd7d79ab	-0.06188361
85	0xbe8ab27c	-0.27089298
86	0xbe21fbb8	-0.1581868
87	0xbe986354	-0.2976328
88	0x3e1abb8d	0.15110607
89	0x3e04da32	0.1297386
90	0x3de507e4	0.11183146
91	0x3e4d1f6e	0.2003152
92	0xbf03a4e5	-0.51423484
93	0xbe329fe5	-0.17443807
94	0xbe789fd6	-0.24279723
95	0xbee8120d	-0.45326272
96	0xbe3e824b	-0.1860439
97	0xbcde623d	-0.027146453
98	0x3dc9760a	0.09836967
99	0xbcef4236	-0.029206377
100	0xbe50aa6c	-0.20377511
101	0x3e3f4cfc	0.18681711
102	0x3f099b54	0.53752637
103	0xbca1f252	-0.019768868
104	0x3e4ef56e	0.20210811
105	0x3e9770dd	0.29578295
106	0x3e5fd20b	0.21857469
107	0xbea8f436	-0.32998818
108	0x3e1fb1c6	0.15595159
109	0xbe8abea5	-0.27098575
110	0x3f2393f9	0.63897663
111	0x3cd8d943	0.026470786
112	0x3e402509	0.18764128
113	0x3e124f1f	0.14287995
114	0x3d1313d8	0.035907596
115	0xbee426ee	-0.4456095
116	0x3b95f5c9	0.004576419
117	0x3e946c0c	0.28988683
118	0xbb962bcc	-0.0045828577
119	0xbda095dc	-0.078410834
120	0x3e805f50	0.25072718
121	0x3e2c4341	0.1682253
122	0xbeb017d7	-0.34393188
123	0xbeb3d405	-0.35122696
124	0xbe896f52	-0.26842743
125	0x3dc8fe29	0.09814102
126	0xbda59cbd	-0.08086536
127	0x3e4a1756	0.19735464
128	0x3d977b6a	0.07396586
129	0x3e986ec4	0.29772007
130	0xbda24dd6	-0.07925002
131	0xbc815eff	-0.015792368
132	0xbc1ad849	-0.00945098
133	0xbd519e1e	-0.051176183
134	0xbbc208c6	-0.005921456
135	0x3ca477b2	0.020076606
136	0xbeb55394	-0.35415328
137	0xbea65ab8	-0.32491088
138	0x3e4ab2e5	0.19794805
139	0xbe007788	-0.12545598
140	0xbee3fec4	-0.44530308
141	0x3e3e9b78	0.18613994
142	0xbdc71d05	-0.09722332
143	0xbe1524ed	-0.14564867
144	0xbe762857	-0.24038826
145	0x3e93852b	0.28812537
146	0xbeea22e2	-0.45729738
147	0xbf098cce	-0.53730476
148	0xbdd45b19	-0.10368938
149	0x3dd90893	0.105973385
150	0x3e31b6b6	0.17354855
151	0x3ed8c39d	0.4233674
152	0x3de900c0	0.11377096
153	0xbdc82e95	-0.0977451
154	0x3f0c702e	0.5485867
155	0xbdb7eee0	-0.08981109
156	0xbebd4dec	-0.36973512
157	0xbe95643f	-0.29178044
158	0xbe21fc1c	-0.15818828
159	0xbe323adf	-0.1740527
160	0x3d559049	0.052139554
161	0x3c271aec	0.01019929
162	0x3e9112a1	0.28334525
163	0x3e96dea9	0.2946675
164	0x3e8e709f	0.27820298
165	0xbe4c7164	-0.1996513
166	0xbd84b1ab	-0.064792
167	0xbe9c3042	-0.30505568
168	0xbea7d538	-0.3277986
169	0x3d594520	0.05304444
170	0xbdf5c9ec	-0.12001404
171	0xbd85ea26	-0.06538801
172	0xbe35f44e	-0.17768976
173	0xbeacbe33	-0.3373886
174	0xbe00b8cb	-0.12570493
175	0xbe1d69ae	-0.15372345
176	0xbeae61c9	-0.3405898
177	0xbdf80e48	-0.12112099
178	0x3c818ff8	0.01581572
179	0xbe3511e3	-0.17682604
180	0xbeb6b274	-0.35683024
181	0x3ea579d7	0.3231952
182	0xbeda34ac	-0.4261831
183	0xbee297af	-0.4425635
184	0x3f079b9a	0.52971804
185	0x3e4daa8c	0.2008459
186	0x3f042ae1	0.5162793
187	0xbdabc0bf	-0.08386373
188	0xbee3ba44	-0.44478047
189	0x3e4a8057	0.1977552
190	0xbdb87ea4	-0.0900853
191	0xbc5e51c9	-0.013569304
192	0x3eb28586	0.34867495
193	0xbe00874a	-0.12551609
194	0xbe1a03b9	-0.15040483
195	0x3edb3d31	0.42820123
196	0xbe693b18	-0.22776449
197	0xbaa9c565	-0.0012952505
198	0xbe171fc0	-0.14758205
199	0xbe66c2f5	-0.22535308
200	0xbc79f9a2	-0.015257271
201	0x3d37ee01	0.044904713
202	0x3e7d6e76	0.24749169
203	0x3dc4dc95	0.09612385
204	0x3ed914dc	0.42398727
205	0x3ca6dae6	0.02036805
206	0xbec2f51b	-0.38077626
207	0x3e58b642	0.21163276
208	0x3e7427e3	0.2384334
209	0xbd52fee2	-0.051512606
210	0x3efc225f	0.49244973
211	0xbeb34f20	-0.35021305
212	0x3ec2bc66	0.38034362
213	0x3e6a9214	0.22907287
214	0x3e35665f	0.17714833
215	0x3da746e3	0.081678174
216	0x3a0d863c	0.00053987256
217	0xbe26b568	-0.16280138
218	0x3e20007c	0.15625185
219	0x3ed49ca1	0.41525748
220	0xbdaba88a	-0.08381756
221	0xbdb376aa	-0.08762868
222	0xbe857dab	-0.2607244
223	0xbe016d46	-0.12639341
224	0x3e9f3f4c	0.3110298
225	0x3ef61723	0.48064527
226	0x3d1795b8	0.037008017
227	0xbe6302bc	-0.22169012
228	0xbeb2e507	-0.3494036
229	0x3e946fd0	0.28991556
230	0x3ea93967	0.33051607
231	0x3eaa1e0f	0.33226058
232	0xbc7af390	-0.015316859
233	0x3e8d989b	0.2765549
234	0x3e541103	0.20709614
235	0xbeda5dc2	-0.42649657
236	0x3e7faa04	0.249672
237	0xbec496bf	-0.3839626
238	0xbd231211	-0.03981215
239	0xbe055576	-0.13020882
240	0xbdf257b0	-0.11833131
241	0xbf047b00	-0.51750183
242	0x3e843abd	0.25826064
243	0xbe8114e4	-0.2521125
244	0x3dc1de22	0.094661966
245	0x3e859a44	0.26094258
246	0xbea000e9	-0.31250694
247	0x3f22d7ee	0.6361073
248	0xbea72dc9	-0.3265212
249	0x3e68e113	0.22742109
250	0xbf2438a8	-0.6414895
251	0xbe69da95	-0.22837289
252	0xbe894068	-0.2680695
253	0x3e47bf19	0.19506492
254	0xbde430c8	-0.11142117
255	0xbe30b770	-0.17257476

model.1.running_var f4 [512]
0	0x3c6344d1	0.013871388
1	0x3be43734	0.0069645885
2	0x3c335f6a	0.010948041
3	0x3c2e9c13	0.010657328
4	0x3c60c24c	0.013718199
5	0x3c6cbb19	0.014448904
6	0x3c55d8a4	0.013052139
7	0x3bbfa4eb	0.005848517
8	0x3c43c6d7	0.011949263
9	0x3c7341ae	0.014847202
10	0x3c309356	0.010777315
11	0x3c0ef317	0.008724949
12	0x3c666a4a	0.014063427
13	0x3c1e82d3	0.009674746
14	0x3c1c393a	0.009535128
15	0x3c822d8b	0.015890857
16	0x3c94e340	0.018174767
17	0x3c8addb9	0.016951429
18	0x3c3f3641	0.01167065
19	0x3c85d068	0.016334727
20	0x3c03b90a	0.008039722
21	0x3c1c160a	0.009526739
22	0x3c54fb72	0.012999402
23	0x3c27ac4f	0.010233953
24	0x3c09ceec	0.00841115
25	0x3c2864cd	0.010277939
26	0x3cb18440	0.021669507
27	0x3c712fc4	0.014720861
28	0x3c2a9bf0	0.010413155
29	0x3ca772e1	0.02044052
30	0x3c7a1e59	0.0152660245
31	0x3c870710	0.01648286
32	0x3c3c673d	0.011499223
33	0x3c077b47	0.008269138
34	0x3beda819	0.007252705
35	0x3c51f6e4	0.012815211
36	0x3bc8187a	0.0061064335
37	0x3bdd6d27	0.0067573967
38	0x3cceffab	0.025268396
39	0x3c54c438	0.012986235
40	0x3bd571ff	0.0065138335
41	0x3c476600	0.012170315
42	0x3b9095a6	0.0044123707
43	0x3ce4a64c	0.027911328
44	0x3b97791f	0.004622593
45	0x3c365200	0.011127949
46	0x3c87bd34	0.016569711
47	0x3c134f72	0.008991109
48	0x3ce929e3	0.028462356
49	0x3c62bf7e	0.013839601
50	0x3c12ab7f	0.008952021
51	0x3c9cd0e8	0.019142583
52	0x3cb04387	0.021516575
53	0x3c276b9c	0.010218527
54	0x3c3f6afe	0.011683224
55	0x3c29f404	0.010373119
56	0x3c513fe0	0.012771577
57	0x3c2af9f7	0.010435573
58	0x3c0a7089	0.008449682
59	0x3bedd098	0.0072575323
60	0x3c70f49c	0.014706757
61	0x3c4b9f74	0.012428153
62	0x3c430f01	0.011905433
63	0x3c55ae61	0.013042063
64	0x3c24a522	0.010049136
65	0x3c669594	0.014073748
66	0x3c6c2be2	0.014414759
67	0x3c053063	0.008129212
68	0x3c933ad7	0.017972393
69	0x3c7f0c2e	0.015566869
70	0x3c2a1ee9	0.010383346
71	0x3c663a32	0.014051961
72	0x3bf814fd	0.0075708614
73	0x3c2b2077	0.010444752
74	0x3c1d9589	0.0096181715
75	0x3c906794	0.017627515
76	0x3bf8baf3	0.0075906455
77	0x3c16b9f7	0.009199611
78	0x3bb42583	0.005497636
79	0x3c1e88cc	0.00967617
80	0x3c254ee6	0.010089612
81	0x3c0eba66	0.008711433
82	0x3c25a9d8	0.010111295
83	0x3bcdaea4	0.0062769223
84	0x3c2b2f9b	0.010448362
85	0x3c440f2f	0.011966511
86	0x3c77c46a	0.015122512
87	0x3bcedfda	0.0063133063
88	0x3c2d9dcc	0.010596704
89	0x3c4ccc07	0.012499816
90	0x3c5f9af6	0.013647785
91	0x3c58ad03	0.013224843
92	0x3c77c882	0.015123488
93	0x3c5a9b6b	0.013342719
94	0x3c32a306	0.010903126
95	0x3bdddc7f	0.00677067
96	0x3c03b79a	0.0080393795
97	0x3c9cf28c	0.019158624
98	0x3c8d76da	0.017268587
99	0x3c80abe5	0.015706966
100	0x3c802103	0.015640741
101	0x3c458e56	0.012057861
102	0x3c1cca40	0.0095697045
103	0x3c70e56c	0.014703136
104	0x3c0bd492	0.008534567
105	0x3c793663	0.015210721
106	0x3c6b5499	0.014363431
107	0x3bb86524	0.0056272913
108	0x3c4e7a00	0.012602329
109	0x3bbde842	0.0057955096
110	0x3c9abae8	0.018887952
111	0x3c229aa9	0.009924569
112	0x3bdcd531	0.0067392816
113	0x3c52ec30	0.012873694
114	0x3c1fc2f3	0.009751069
115	0x3c092bb0	0.008372232
116	0x3c608a50	0.013704851
117	0x3c5b48bd	0.013384041
118	0x3bcc8a8a	0.006242101
119	0x3ba4a783	0.0050248518
120	0x3c82b013	0.0159531
121	0x3c650ca7	0.013980067
122	0x3c161edb	0.00916263
123	0x3bfb2609	0.0076644463
124	0x3c319510	0.010838762
125	0x3c0eacb3	0.008708167
126	0x3cd9089e	0.026493367
127	0x3c55da59	0.013052546
128	0x3c6c2f2c	0.0144155435
129	0x3c335801	0.010946275
130	0x3c831b2d	0.01600417
131	0x3c9981fd	0.018738741
132	0x3c04ab84	0.008097533
133	0x3c447818	0.011991523
134	0x3c9329a4	0.017964192
135	0x3c81243d	0.01576435
136	0x3c73b2c5	0.014874165
137	0x3c314fcb	0.010822247
138	0x3c0ea410	0.008706108
139	0x3c20b78d	0.009809387
140	0x3ca8e094	0.0206149
141	0x3c14e44f	0.009087636
142	0x3bf975e9	0.007612933
143	0x3c7513eb	0.014958362
144	0x3c43772a	0.011930266
145	0x3c58ac08	0.013224609
146	0x3c6011ac	0.013676088
147	0x3c1edcf4	0.009696234
148	0x3c324315	0.010880251
149	0x3bac7a57	0.0052636075
150	0x3c773086	0.0150872525
151	0x3c186c78	0.009303205
152	0x3c08dafb	0.00835299
153	0x3ba586e3	0.00505148
154	0x3c51c5f4	0.012803543
155	0x3c5fa4da	0.0136501435
156	0x3ca03c56	0.01956002
157	0x3be7d2cd	0.00707469
158	0x3be1ca3e	0.006890564
159	0x3c677d97	0.014129064
160	0x3c74e298	0.014946602
161	0x3c973fd1	0.018463047
162	0x3ca5abbd	0.020223493
163	0x3c4fd086	0.012683993
164	0x3c33e28e	0.010979308
165	0x3bf37959	0.0074302373
166	0x3c35884d	0.01107986
167	0x3c901e8a	0.017592687
168	0x3c7fa4e1	0.015603275
169	0x3bf464e2	0.007458315
170	0x3c76b4f6	0.015057793
171	0x3c06130d	0.008183253
172	0x3bc600aa	0.0060425596
173	0x3c00b8eb	0.007856588
174	0x3c050c3c	0.008120593
175	0x3c4b5e52	0.012412624
176	0x3c96fb71	0.018430443
177	0x3c6264bd	0.013817963
178	0x3c13f1d9	0.009029829
179	0x3c3911e5	0.01129577
180	0x3b67ea6d	0.0035387531
181	0x3c5f65fc	0.013635155
182	0x3c09e16a	0.008415559
183	0x3c0e2215	0.008675118
184	0x3c422e30	0.011851832
185	0x3c2664d4	0.010155875
186	0x3c8f9996	0.01752929
187	0x3c46e2eb	0.012139062
188	0x3c547fd4	0.01296993
189	0x3bf7fb3d	0.0075677917
190	0x3bf0b9fb	0.0073463893
191	0x3c1d325f	0.009594529
192	0x3c384224	0.011246238
193	0x3c181600	0.009282589
194	0x3c6c00e1	0.014404506
195	0x3c2e77d8	0.01064869
196	0x3c0da1ea	0.00864456
197	0x3c88f522	0.016718451
198	0x3c227b85	0.009917145
199	0x3c828561	0.01593274
200	0x3c2281ea	0.009918669
201	0x3c23280c	0.009958278
202	0x3c7d1dec	0.015449028
203	0x3c5c298d	0.013437641
204	0x3c2c94c3	0.010533514
205	0x3c8b2304	0.01698447
206	0x3baeeb64	0.0053381193
207	0x3bce1eda	0.006290299
208	0x3c3cf823	0.01153377
209	0x3c8322ba	0.01600777
210	0x3c8b1529	0.016977863
211	0x3c65859f	0.0140089085
212	0x3c6d197b	0.014471407
213	0x3c19659c	0.0093626045
214	0x3c416db2	0.011805939
215	0x3c1ee1f0	0.009697422
216	0x3c0be2ba	0.008537943
217	0x3c81751b	0.01580291
218	0x3bd96589	0.0066344184
219	0x3c068c32	0.008212136
220	0x3c3803f3	0.01123141
221	0x3ccd93fb	0.025094977
222	0x3c627c97	0.01382365
223	0x3c618cad	0.01376645
224	0x3bb3b096	0.005483697
225	0x3c3cc0e8	0.011520602
226	0x3c856a58	0.01628606
227	0x3c6b58e1	0.014364452
228	0x3c003069	0.007824042
229	0x3c8f266d	0.017474378
230	0x3c2e4542	0.01063663
231	0x3c732100	0.014839411
232	0x3c6bd162	0.0143931825
233	0x3c49b15d	0.012310353
234	0x3c4e8f93	0.012607473
235	0x3bda879f	0.0066689993
236	0x3b9af79c	0.0047292244
237	0x3c6920c3	0.014229002
238	0x3be4b676	0.006979759
239	0x3c57682f	0.013147398
240	0x3c4b7373	0.012417662
241	0x3beb82eb	0.0071872375
242	0x3bc069e9	0.0058720005
243	0x3c3f6bb4	0.011683393
244	0x3c7dc4c3	0.015488806
245	0x3c92c49a	0.017916013
246	0x3c4c419f	0.012466817
247	0x3c9bc074	0.019012667
248	0x3c0d4daf	0.008624478
249	0x3c56bd91	0.01310672
250	0x3ca6d725	0.02036626
251	0x3c84306b	0.016136369
252	0x3c56c484	0.013108376
253	0x3c46e758	0.012140118
254	0x3bcd34e1	0.006262407
255	0x3bea84ed	0.0071569593

model.4.weight f4 [256, 512]
0	0xbc017a57	-0.007902703
1	0x3aaa5f0b	0.0012998296
2	0xbc8aec67	-0.016958429
3	0x3cd31bab	0.025770029
4	0x3c1da2e7	0.0096213585
5	0x3d1c309c	0.038132295
6	0xbca6061f	-0.02026659
7	0xbc27becf	-0.010238363
8	0x3cc7b924	0.024380274
9	0x3d1d395c	0.03838478
10	0x3cd25fba	0.025680412
11	0xbc1a1d79	-0.009406441
12	0x3d20015d	0.0390638
13	0x3d0cf093	0.034409117
14	0x3ceb15b7	0.028696878
15	0xbc8c30e6	-0.01711316
16	0x3d0a3c5d	0.033748973
17	0x3c2b2fd4	0.010448415
18	0xbcafa06b	-0.021438798
19	0x3cde2d90	0.027121335
20	0x3d162db5	0.036664683
21	0x3b347a3a	0.0027538673
22	0x3ac44df1	0.0014976842
23	0x3d24c1e6	0.04022398
24	0x3c4b1e1b	0.012397314
25	0xbd00fac6	-0.031489156
26	0x3a92ded5	0.0011205325
27	0xbc587a7b	-0.013212795
28	0xbcea5812	-0.028606448
29	0x3cebe0ea	0.02879377
30	0x3c888793	0.01666621
31	0x3b536151	0.003225405
32	0xbbd7eadd	-0.006589277
33	0x3ccb9865	0.02485294
34	0xbc4bcbe9	-0.012438753
35	0x3cc4d6a9	0.02402814
36	0x3d2e72e9	0.042590056
37	0x3d13cdfb	0.03608511
38	0xbcf4d0aa	-0.029884655
39	0xbccc4935	-0.024937252
40	0x3cd007e6	0.025394391
41	0xbd04c6ce	-0.032416157
42	0xbd175153	-0.03694279
43	0x3d12665d	0.035742152
44	0xbc8adec2	-0.016951922
45	0x3c93189f	0.017956076
46	0x3d044bc3	0.032298815
47	0x3cf3afc2	0.029746894
48	0x3cc6b681	0.024256947
49	0x3c839726	0.016063284
50	0x3cf51476	0.029916983
51	0xba15dda2	-0.0005716925
52	0x3d1dc534	0.038518146
53	0xbccf3b83	-0.025296932
54	0xbc82ec36	-0.015981775
55	0xbcde04f9	-0.02710198
56	0xbc808c36	-0.015691858
57	0x3d044874	0.03229566
58	0xbc2c9cb8	-0.010535412
59	0xbd2dbc81	-0.0424161
60	0xbc67b3f6	-0.014142027
61	0xbb8d7171	-0.004316502
62	0x3d11e326	0.035617016
63	0xbc8d7928	-0.017269686
64	0xbcb9495a	-0.022617985
65	0xbccd5aea	-0.025067765
66	0xbd2c4303	-0.042056095
67	0x397bfc51	0.0002403122
68	0xbcdb9a01	-0.026806833
69	0xbd126e05	-0.035749454
70	0xbc3e2a3e	-0.011606751
71	0x3cab414f	0.020905165
72	0xbd2ff983	-0.042962562
73	0xbcac18fd	-0.02100801
74	0xbd2f0189	-0.042726073
75	0x3bcdabd6	0.006276588
76	0xbc47425d	-0.012161818
77	0x3d0988e2	0.033577807
78	0xbc852706	-0.01625396
79	0x3ca018a8	0.019543007
80	0x3d239947	0.0399411
81	0x3d108889	0.03528646
82	0x3c6bc4ea	0.01439021
83	0xbd13a010	-0.03604132
84	0xbaeb04e2	-0.0017930532
85	0xbaa2640e	-0.0012389438
86	0xbc9650bb	-0.018349042
87	0x3c6ef14d	0.014583898
88	0xbd174cd0	-0.03693849
89	0x3caac88c	0.020847581
90	0x3ce42d65	0.027853677
91	0x3afd4462	0.0019322748
92	0xbcee5e29	-0.029097633
93	0x3d34b71c	0.04411994
94	0xbcd3640a	-0.025804538
95	0x3b33de13	0.00274456
96	0xbcae4c0c	-0.021276496
97	0xbcf5af97	-0.029990954
98	0xbad820e6	-0.0016489297
99	0x390c0830	0.0001335449
100	0x3d0fe284	0.03512813
101	0x3cb0da31	0.021588417
102	0xbcd7a6ac	-0.026324593
103	0xbc9134eb	-0.017725429
104	0x3c8996ba	0.016795505
105	0x3d03adf7	0.032148328
106	0xbd1ed0e4	-0.038773432
107	0xba1afa9d	-0.0005911978
108	0xbcbb94e2	-0.022898141
109	0x3c02253d	0.007943449
110	0x3c9b28a6	0.018940281
111	0x3cb6c322	0.022309843
112	0x3caed4fc	0.021341793
113	0xbc670d5d	-0.014102307
114	0x3d025642	0.031820543
115	0x3c9a21a9	0.018814879
116	0x3bfac1c7	0.0076524946
117	0x3d302bff	0.043010708
118	0x3c664d7c	0.01405656
119	0xbd115936	-0.03548547
120	0x3bfb13c7	0.0076622698
121	0x3a0ac0bc	0.0005293002
122	0x3c94fa5c	0.018185787
123	0xbd1e37df	-0.0386275
124	0x3d030eda	0.031996585
125	0x3d2a2022	0.04153455
126	0xbc917075	-0.017753819
127	0x3c104632	0.008805798
128	0xbc33a24a	-0.010963986
129	0xbcc7956b	-0.02436324
130	0x3cc1d45e	0.023660835
131	0x3b8f2610	0.004368551
132	0xbd25528a	-0.04036192
133	0x3d12f34c	0.035876557
134	0xbce0b624	-0.027430601
135	0xbcb70ad4	-0.02234403
136	0x3c7635d1	0.015027479
137	0x3cb15738	0.021648034
138	0x3c42c56c	0.011887889
139	0xbc1b3011	-0.009471909
140	0x3aa2f007	0.0012431153
141	0xbbe91b20	-0.0071138293
142	0x3c70d400	0.014698982
143	0x3cbcc89b	0.023044875
144	0x3caab395	0.020837585
145	0xbd05d18b	-0.03267054
146	0x3cea1c02	0.028577808
147	0xbcbde8d2	-0.023182306
148	0xbd341677	-0.043966737
149	0xbcde2ff0	-0.027122468
150	0x3bbb51c1	0.005716533
151	0x3cdd455e	0.027010616
152	0x3c0a73c9	0.008450457
153	0x3c372c00	0.011179924
154	0x3c8268bf	0.015919087
155	0x3c819cbd	0.015821809
156	0x3bfdb2f5	0.0077422806
157	0x3d0722bc	0.03299211
158	0x3c373fa7	0.0111846095
159	0x3c03edce	0.0080523025
160	0x3be751ff	0.0070593352
161	0x3c8f6774	0.017505385
162	0xbd0474b0	-0.032337844
163	0xbcf3bf2a	-0.02975424
164	0x3be5b945	0.0070106112
165	0x3d15e5d3	0.03659613
166	0xbd112605	-0.03543665
167	0xbbe947d0	-0.0071191564
168	0x3d188e3c	0.03724502
169	0xbcfe1d41	-0.031019809
170	0xbc9a40e4	-0.01882977
171	0x3d0e0c75	0.03467985
172	0x3d2fa16e	0.04287856
173	0xbb6bf8c6	-0.0036006435
174	0x3caa8ac3	0.02081812
175	0x3cb0a56b	0.021563252
176	0xbd08b40d	-0.033374835
177	0x3cac4743	0.021030074
178	0x3d344823	0.044014107
179	0x3d06bb6e	0.03289359
180	0xbcda28a3	-0.026630705
181	0x3bb24511	0.0054403623
182	0x3d173598	0.036916345
183	0x3ce90b77	0.02844785
184	0xbc2f5b85	-0.010702972
185	0x3b65f708	0.003508987
186	0xbcb1221d	-0.021622712
187	0xbca5646d	-0.020189488
188	0x3ccac6ec	0.024753056
189	0xbd2d8169	-0.042359743
190	0x3d046783	0.03232528
191	0xbcc1691e	-0.023609694
192	0x3d0c7753	0.034293484
193	0xbcb9a8df	-0.022663532
194	0x3c06ddb4	0.008231569
195	0xbc20a142	-0.009804072
196	0xbd093e6f	-0.033506807
197	0xbb96f229	-0.0046065045
198	0xbcbb4727	-0.022861077
199	0xbb2ab2e0	-0.002604656
200	0xbd29b13f	-0.0414288
201	0xbbb3c082	-0.005485595
202	0xbc82914d	-0.015938425
203	0x3cad2c4d	0.021139288
204	0xbc08a928	-0.008341111
205	0xbcb86ab1	-0.022511812
206	0xbc006c87	-0.007838375
207	0xbcd997dc	-0.02656167
208	0x3d155cc3	0.036465418
209	0x3c957b0a	0.018247146
210	0xbc2f099c	-0.010683443
211	0x3d0a292f	0.033730682
212	0x3ceb9c92	0.028761182
213	0x3c09ba44	0.008406226
214	0x3d0bb1a8	0.034104973
215	0xbc501cd7	-0.012702188
216	0x3cdfce87	0.02732016
217	0xbcf3d9d5	-0.029766956
218	0x3a310dc5	0.0006754066
219	0x3ce38bf7	0.027776701
220	0x3c619485	0.01376832
221	0xbc25e430	-0.010125205
222	0x3c53dcb3	0.012931037
223	0x3cc0b1ca	0.023522276
224	0x3b642aa0	0.0034815446
225	0x3cd68620	0.026187003
226	0x3c6d0c20	0.014468223
227	0xbc17feb4	-0.009277035
228	0x3c7b395c	0.0153335
229	0xbd1c0b52	-0.038096733
230	0xbce5aa97	-0.028035445
231	0xbc8f480c	-0.01749041
232	0xbcd9f062	-0.026603881
233	0xbcfc7f4f	-0.030822424
234	0xbba044aa	-0.004890998
235	0x3c5a0a54	0.0133081265
236	0xbc38cba1	-0.011279018
237	0x3b909f6d	0.0044135363
238	0xbd2d80d2	-0.04235918
239	0xbc8fa0a4	-0.017532654
240	0x3d354248	0.044252664
241	0xbca013b5	-0.019540647
242	0xbb2218ae	-0.0024733949
243	0x3c92c173	0.01791451
244	0xbc90f9ec	-0.017697297
245	0x3cee0e42	0.029059533
246	0x3ca4d12d	0.020119274
247	0xbc13e60a	-0.009027014
248	0x3b709233	0.0036708235
249	0xbc45f1b2	-0.01208155
250	0xbbc49b78	-0.0059999786
251	0xbcd53b5b	-0.02602928
252	0x3bb5aa30	0.0055439696
253	0x3c6f2d6b	0.014598231
254	0xbca11e4a	-0.019667763
255	0x3d16d16f	0.036820825
