models/three_layers/threeLayerModel_ee_corrCut_-1.0_weights_true_drop_0.2_lorentzgen.pt (torch, 580927 bytes, 14 tensors)

model.0.weight f4 [512, 16]
-0.17746921 -0.13452181 -0.14298967 0.09356048 0.1671182 -0.181937 0.07169937 0.010519524
-0.21156551 -0.17202175 -0.13342805 0.16696884 -0.0004553137 0.07033118 -0.14226192 -0.18585879
-0.099201456 -0.15368363 -0.11102205 0.032664474 -0.0038115927 -0.17867784 -0.0028843668 -0.22732683
0.2554129 0.0039129714 0.02296951 -0.02286322 0.17210126 0.06477053 0.05398047 -0.227508
-0.16642497 0.15976639 -0.023699895 0.11968503 -0.06291713 -0.25967005 0.18214262 -0.21410842
0.0643147 -0.062225886 0.1370457 0.0150807835 0.21276958 0.041145626 -0.29150257 0.17907265
0.012396139 -0.12791762 0.06021848 0.002363106 -0.41378725 0.1948072 -0.08088794 0.12564832
0.09173175 0.10535128 -0.019562433 -0.11622049 -0.077973165 0.067490384 -0.09778645 0.34601343
-0.14757676 0.057947993 -0.00016815256 0.21888693 -0.1522167 -0.33180863 0.09123261 -0.23747769
0.07527648 -0.14236592 -0.117962845 -0.100891076 0.023099447 -0.1822438 0.029520039 -0.07639065
0.16179453 0.05885483 -0.21806982 0.21584626 0.039661273 -0.23446086 -0.27500507 -0.41939247
0.17429484 -0.13770145 0.065171905 -0.0011206976 -0.09287245 -0.26836476 0.0743172 0.10900597
0.07488484 0.18269001 -0.24031584 -0.03616784 -0.077413246 -0.17887244 -0.13597944 0.21036607
0.08435783 -0.3024136 0.028194947 0.13038006 -0.10521501 0.028069532 -0.045531455 0.21824627
0.14178903 -0.056390002 -0.059836462 -0.046050735 0.16168126 -0.15408133 -0.25877744 -0.00698565
0.066377945 -0.14507858 -0.0178324 0.07705215 -0.16224983 -0.3872553 0.41245335 -0.10249317
-0.14337452 -0.3029041 -0.06499947 0.048047848 -0.12471538 -0.19576095 -0.19288063 0.2091455
-0.033211958 -0.25847048 -0.03562113 -0.003806825 0.22892849 0.05531445 -0.16437341 -0.14900042
0.26058695 -0.11131873 0.058356766 0.036490455 -0.066323854 0.21430536 -0.012142789 0.2635255
-0.20558944 -0.11127813 -0.14161842 -0.054328185 0.2069133 -0.030235687 0.26730064 0.09535658
-0.016026111 -0.0019664778 -0.24754679 -0.2279131 -0.00721629 0.12656152 0.15992945 -0.033807475
0.0026388776 0.13768654 0.09550096 0.110679545 0.0675796 0.28729936 0.06416633 0.14936346
0.010445859 0.12931009 0.039674208 0.27785861 0.100971706 0.10612134 0.020825878 0.15523653
-0.075638 -0.050798345 -0.029952249 -0.30614388 0.13196705 -0.016247233 -0.07753704 0.06216212
0.049365517 0.22198789 0.11961093 -0.17219453 -0.10201738 0.32565305 -0.11957215 0.1262076
-0.011892295 -0.19338883 -0.098941825 0.0742478 -0.3041869 0.021302165 -0.008579309 0.08530549
-0.26170817 -0.11194746 0.049278323 -0.056270868 -0.060734678 -0.015539977 -0.068603106 -0.061240066
0.21662368 0.1828869 -0.0423438 -0.0007176453 0.21918343 -0.29151112 0.15196986 -0.25235865
0.20375885 0.024459358 0.0334167 -0.003166948 -0.0016902016 0.052568786 0.15401258 -0.09352129
-0.093276486 -0.11240426 0.046644427 0.012491598 -0.2742756 0.21438573 -0.15716651 0.05753836
0.04116634 0.11515751 0.03758392 -0.18105999 0.12501144 0.058810003 -0.24772644 -0.24032769
-0.22442296 0.20294079 -0.032272644 0.18556942 0.003319438 0.24682048 0.12585387 0.07542794
00000000: 7dba 35be 16c0 09be e26b 12be a39c bf3d
00000010: 0921 2b3e b14d 3abe 1fd7 923d 155a 2c3c
00000020: a1a4 58be 7826 30be 5da1 08be e1f9 2a3e
00000030: 2cb7 eeb9 cb09 903d 1cad 11be c451 3ebe
00000040: 222a cbbd 3e5f 1dbe 875f e3bd 2fcb 053d
00000050: eacb 79bb 53f7 36be a507 3dbb 5dc8 68be
00000060: 7bc5 823e 6238 803b 8e2a bc3c a64b bbbc
00000070: 503b 303e 69a6 843d a01a 5d3d dbf7 68be
00000080: 4f6b 2abe cd99 233e 4826 c2bc 6d1d f53d
00000090: b2da 80bd 79f3 84be 9883 3a3e 3d3f 5bbe
000000a0: 6db7 833d 92e0 7ebd b555 0c3e 6415 773c
000000b0: 45e0 593e 5188 283d d33f 95be d25e 373e
000000c0: 2d19 4b3c d6fc 02be a7a7 763d 57de 1a3b
000000d0: ecdb d3be 8a7b 473e 94a8 a5bd f4a9 003e
000000e0: dbdd bb3d 69c2 d73d 6541 a0bc 0205 eebd
000000f0: 65b0 9fbd 6638 8a3d 4344 c8bd ac28 b13e
00000100: 5d1e 17be e05a 6d3d 1c52 30b9 e523 603e
00000110: b2de 1bbe d2e2 a9be 2ad8 ba3d 5a2d 73be
00000120: 8e2a 9a3d 5fc8 11be 8196 f1bd fb9f cebd
00000130: 0d3b bd3c 1e9e 3abe 02d4 f13c b372 9cbd
00000140: 77ad 253e c311 713d b24d 5fbe cd06 5d3e
00000150: dc73 223d 8216 70be 77cd 8cbe 9cba d6be
00000160: 597a 323e 9c01 0dbe d978 853d 5fe4 92ba
00000170: e933 bebd 1b67 89be 9e33 983d 863e df3d
00000180: 395d 993d 1713 3b3e 5b15 76be bb24 14bd
00000190: d68a 9ebd 562a 37be 323e 0bbe 346a 573e
000001a0: ccc3 ac3d f5d5 9abe 17f9 e63c 5a82 053e
000001b0: f87a d7bd 13f2 e53c 317f 3abd f37b 5f3e
000001c0: 2531 113e 34f9 66bd 1417 75bd b29f 3cbd
000001d0: c68f 253e 7fc7 1dbe 7a7e 84be e1e7 e4bb
000001e0: 29f1 873d 7b8f 14be 4115 92bc 85cd 9d3d
000001f0: d224 26be 5446 c6be 162d d33e f0e7 d1bd
00000200: c5d0 12be 3f16 9bbe 711e 85bd d2cd 443d
00000210: c76a ffbd 8f75 48be 8082 45be 3d2a 563e
00000220: 4309 08bd 3e56 84be 76e7 11bd ed7b 79bb
00000230: 3b6c 6a3e 6891 623d 8151 28be 9193 18be
00000240: a76b 853e 13fb e3bd 8107 6f3d 0477 153d
00000250: cdd4 87bd dd72 5b3e 8cf2 46bc d0ec 863e
00000260: 0a86 52be cae5 e3bd 6b04 11be 3b87 5ebd
00000270: 15e1 533e d5b0 f7bc a1db 883e 504a c33d
00000280: 3149 83bc 06e0 00bb e87c 7dbe 0d62 69be
00000290: a176 ecbb 5899 013e 8cc4 233e b579 0abd
000002a0: 05f1 2c3b b3fd 0c3e 0296 c33d f5ab e23d
000002b0: 2c67 8a3d e718 933e a369 833d bcf2 183e
000002c0: 1c25 2b3c dd69 043e 6c81 223d 7c43 8e3e
000002d0: 41ca ce3d 2556 d93d 089b aa3c 53f6 1e3e
000002e0: 19e8 9abd ed11 50bd 6b5e f5bc e4be 9cbe
000002f0: 5f22 073e eb18 85bc bdcb 9ebd b59d 7e3d
00000300: 7f33 4a3d cb50 633e 93f6 f43d c353 30be
00000310: 7dee d0bd ffbb a63e 3ee2 f4bd 913c 013e
00000320: e7d7 42bc b907 46be 03a2 cabd 3b0f 983d
00000330: 63be 9bbe e181 ae3c 3b90 0cbc a5b4 ae3d
00000340: 9dfe 85be b644 e5bd 11d8 493d 487c 66bd
00000350: edc4 78bd 639b 7ebc c97f 8cbd ddd6 7abd
00000360: 99d2 5d3e b446 3b3e b170 2dbd 5c20 3cba
00000370: 9f71 603e f240 95be fd9d 1b3e 2735 81be
00000380: 29a6 503e fe5e c83c f3df 083d 928c 4fbb
00000390: c189 ddba 5e52 573d 79b5 1d3e 1788 bfbd
000003a0: be07 bfbd 3434 e6bd 3a0e 3f3d 8fa9 4c3c
000003b0: da6d 8cbe ef87 5b3e 42f0 20be 58ad 6b3d
000003c0: 099e 283d b3d7 eb3d 99f1 193d ca67 39be
000003d0: 0003 003e c2e2 703d 00ac 7dbe 7618 76be
000003e0: 22cf 65be b6cf 4f3e 5230 04bd e905 3e3e
000003f0: ee8a 593b 82be 7c3e d6df 003e f779 9a3d

model.0.bias f4 [512]
0.15753643 0.24593373 0.010520659 0.08399327 0.10042555 -0.1514522 0.15553366 0.24592957
-0.046530053 -0.11191929 -0.03407159 0.10546968 0.04236944 0.1550352 0.21238983 0.098920606
0.022365248 -0.08384285 -0.24080409 0.13800682 0.039229736 -0.24396269 0.011759538 -0.15716532
0.001808852 0.22306578 -0.021297416 -0.047337677 -0.02905797 -0.023171235 0.036827352 0.071316674
0.055297174 -0.2437439 -0.23795938 0.19377075 0.21617527 0.08797317 0.18105382 -0.14904778
-0.10466633 0.19059728 0.0976046 0.13370194 -0.1620688 0.16042492 -0.068220295 0.09111207
-0.10864784 -0.10965945 0.17388864 0.19713143 0.1344699 -0.17306484 -0.049069844 -0.23595901
-0.09040505 0.052931927 -0.09669414 -0.2464207 0.0917768 0.122149915 -0.0939437 -0.1932826
0.19417968 0.15110286 0.21942832 -0.0144322375 0.2169644 0.0053208065 0.08929979 0.1997117
-0.11961792 -0.18350394 -0.17522317 0.11656173 -0.24558596 0.059099175 0.14457488 -0.20294477
0.005817109 0.012646176 -0.1614452 -0.014151346 -0.16521156 -0.022506997 0.13718805 -0.19231537
-0.23828812 -0.20619434 -0.085670024 0.07202334 -0.22348891 -0.22117601 -0.15460378 -0.102168165
0.009024353 0.15662993 0.12481407 0.036322773 -0.03655852 0.12058154 0.046387542 0.07325708
-0.11348878 0.2201593 0.0033053537 0.21805617 -0.22261883 -0.22759177 -0.15984263 -0.13179125
0.20569143 0.06694817 0.22455584 0.24528348 0.23207152 -0.021678759 0.1803897 -0.12967739
-0.083755806 -0.07448281 0.12050087 -0.044391427 -0.08729444 0.041423082 -0.10035109 0.023067396
-0.12506784 -0.24289514 0.095042445 0.033289958 -0.24908839 0.0361846 -0.07465332 0.054355126
0.023805583 -0.13868555 -0.10869654 0.049559325 -0.18279631 -0.050384793 0.09335093 0.053116545
0.06024451 0.07188665 0.037796516 -0.21106014 -0.15794922 -0.10754759 0.02675038 0.1713335
0.01246302 0.105820484 0.10188613 0.018805785 0.2201159 -0.067876816 -0.10600031 -0.2083917
0.09514108 0.20853679 -0.22071095 -0.07366859 -0.08405601 0.006536418 -0.16810612 0.0698782
0.15378852 -0.06313064 -0.078875355 -0.2130045 -0.18675172 0.009814651 -0.20096995 -0.015543976
-0.12123384 0.17026179 0.008409948 -0.1797681 0.23718399 0.03821978 -0.1343235 -0.23583217
0.0014959581 0.22421119 0.24867958 -0.22232142 0.20593822 -0.17980672 -0.19477215 0.045349374
-0.16980557 -0.035275657 -0.11047692 -0.10061955 0.22510257 0.23433149 0.12128934 -0.029056635
-0.07930474 0.18838911 -0.1854648 0.1392134 0.17955022 0.12034488 -0.16566433 -0.064476445
-0.066666424 -0.13987438 -0.1946579 -0.09601422 -0.21161063 0.09202267 -0.08900844 0.23266497
-0.16508323 -0.122193985 -0.11988114 -0.04050292 -0.01696009 0.22597939 0.16680437 -0.022670079
0.169454 0.03197414 0.17879891 0.11720073 0.0075170025 0.21715836 0.09987089 -0.21186766
-0.15034588 -0.11565702 0.010604765 0.09384468 -0.13304003 0.1922942 -0.1590011 -0.19527718
0.22257909 -0.030012267 0.18421245 0.069183625 -0.041662987 0.17557195 -0.18397884 -0.21794999
-0.21012975 0.21767771 -0.024320599 -0.12570669 -0.09145711 0.22001766 -0.1943585 0.06937284
00000000: 3b51 213e 0dd6 7b3e d85e 2c3c aa04 ac3d
00000010: e9ab cd3d 4916 1bbe 3744 1f3e f6d4 7b3e
00000020: 4c96 3ebd f135 e5bd a78e 0bbd 7d00 d83d
00000030: 948b 2d3d 8cc1 1e3e b87c 593e e396 ca3d
00000040: 5337 b73c cdb5 abbd 5995 76be a951 0d3e
00000050: 5caf 203d 5bd1 79be 14ab 403c f2ef 20be
00000060: 0017 ed3a 5b6b 643e eb77 aebc 27e5 41bd
00000070: fb0a eebc 9ad1 bdbc 47d8 163d 7a0e 923d
00000080: 4a7f 623d 0098 79be a0ab 73be d76b 463e
00000090: 0d5d 5d3e 472b b43d 2c66 393e fb9f 18be
000000a0: 4d5b d6bd ef2b 433e ece4 c73d 29e9 083e
000000b0: 5df5 25be 6e46 243e 15b7 8bbd f798 ba3d
000000c0: c282 debd 2295 e0bd dd0f 323e d2dc 493e
000000d0: 7ab2 093e e937 31be 76fd 48bd 3d9f 71be
000000e0: 4826 b9bd 26cf 583d 9407 c6bd b555 7cbe
000000f0: 7af5 bb3d bc29 fa3d 8e65 c0bd e0eb 45be
00000100: 0ad7 463e b5ba 1a3e d1b1 603e 3175 6cbc
00000110: ea2b 5e3e 295a ae3b cfe2 b63d 3981 4c3e
00000120: 3dfa f4bd 75e8 3bbe b46d 33be ebb7 ee3d
00000130: e37a 7bbe fa11 723d 700b 143e c1d0 4fbe
00000140: 729d be3b e831 4f3c e451 25be 0cdb 67bc
00000150: 382d 29be 9860 b8bc 067b 0c3e 52ee 44be
00000160: cd01 74be 9c24 53be c473 afbd f980 933d
00000170: 47da 64be f77b 62be 7450 1ebe 8b3d d1bd
00000180: e1da 133c 9963 203e 859e ff3d 30c7 143d
00000190: 63be 15bd 74f3 f63d dd00 3e3d cf07 963d
000001a0: ce6c e8bd 7171 613e a29e 583b 1e4a 5f3e
000001b0: 31f6 63be d10d 69be c9ad 23be 49f4 06be
000001c0: c6a0 523e 1f1c 893d f7f1 653e 982b 7b3e
000001d0: 28a4 6d3e a797 b1bc 14b8 383e 26ca 04be
000001e0: 2a88 abbd 728a 98bd 29c9 f63d c9d3 35bd
000001f0: 6dc7 b2bd 40ab 293d df84 cdbd d6f7 bc3c
00000200: c911 00be 81b9 78be 9da5 c23d 0d5b 083d
00000210: 0711 7fbe 4e36 143d d7e3 98bd 7ba3 5e3d
00000220: ed03 c33c 9603 0ebe 4b9c debd b8fe 4a3d
00000230: f52e 3bbe 4960 4ebd c62e bf3d bc90 593d
00000240: f3c2 763d 4f39 933d 85d0 1a3d 2620 58be
00000250: 71bd 21be e941 dcbd 9d23 db3c 0d72 2f3e
00000260: b231 4c3c 69b8 d83d ada9 d03d 970e 9a3c
00000270: 1066 613e 0003 8bbd b116 d9bd a264 55be
00000280: 54d9 c23d ab8a 553e 0d02 62be 8fdf 96bd
00000290: 8f25 acbd 732f d63b 0324 2cbe 4d1c 8f3d
000002a0: bd7a 1d3e a34a 81bd 6789 a1bd da1d 5abe
000002b0: d83b 3fbe a1cd 203c 11cb 4dbe 29ac 7ebc
000002c0: 7349 f8bd 1b59 2e3e e1c9 093c 2115 38be
000002d0: 5ce0 723e 588c 1c3d 198c 09be fd7d 71be
000002e0: 0614 c43a 9e97 653e dca5 7e3e 3aa8 63be
000002f0: 78e1 523e 411f 38be 5a72 47be 44c0 393d
00000300: 83e1 2dbe 357d 10bd b941 e2bd 9f11 cebd
00000310: 4a81 663e 98f4 6f3e 8c66 f83d 2e08 eebc
00000320: 866a a2bd 13e9 403e 7cea 3dbe f58d 0e3e
00000330: 03dc 373e 6077 f63d e9a3 29be 3a0c 84bd
00000340: 6888 88bd 3b3b 0fbe 6754 47be 1aa3 c4bd
00000350: 75b0 58be 6276 bc3d 0f4a b6bd ba3f 6e3e
00000360: 940b 29be d740 fabd 3e84 f5bd 64e6 25bd
00000370: e3ef 8abc 2467 673e c4ce 2a3e 9ab6 b9bc
00000380: 5985 2d3e 51f7 023d 1017 373e f006 f03d
00000390: 3051 f63b c35e 5e3e 1c89 cc3d d6f3 58be
000003a0: 45f4 19be 96dd ecbd 9cbf 2d3c a431 c03d
000003b0: a53b 08be c5e8 443e 2fd1 22be bef6 47be
000003c0: c6eb 633e 49dc f5bc 30a2 3c3e 25b0 8d3d
000003d0: cfa6 2abd 22c9 333e f364 3cbe 482e 5fbe
000003e0: 412c 57be e8e6 5e3e fe3b c7bc 41b9 00be
000003f0: de4d bbbd 4f4c 613e ea05 47be 5913 8e3d

model.1.weight f4 [512]
0.9322669 1.0529407 0.9809522 1.0116254 0.9702426 1.001579 0.9901787 1.0419457
0.97820073 1.001562 0.93570197 1.0004331 1.0033821 0.9934423 1.0503713 0.9773686
1.0342782 0.9528539 0.9752106 0.97766805 0.9754392 0.9719266 0.9421139 0.95592284
0.9810769 1.0028894 0.9946092 0.9714739 0.97176915 1.0738218 0.9666816 0.9725865
0.96188444 1.0272417 0.98311394 0.98780364 0.9643233 1.0050966 1.0041127 1.0328693
0.9269458 0.9752081 1.0016271 0.96841586 0.99979 0.97271127 0.98000395 0.97528416
1.0047735 0.9708789 0.9438603 0.9727694 0.9937901 1.0146847 0.9600584 0.9791649
0.96092397 1.0131156 0.9504669 1.0165595 0.96289176 0.94980013 0.9776888 1.0587586
0.98121774 1.0354103 0.9589454 1.0028756 0.9643106 0.98631406 0.9774894 0.9853124
0.9922676 0.9779967 0.95727795 0.9768465 1.0327793 1.0280602 0.99922097 1.014676
0.9755002 0.9621142 1.0034257 1.0031753 0.9865049 0.9941139 0.9604258 0.9997799
0.9813467 0.9788434 0.9647946 0.97964716 0.9609531 0.9757456 1.0387553 0.96908957
1.0308176 0.99366236 0.9801623 0.98588765 0.98878133 0.98153496 0.9871339 1.0148935
0.99693716 0.97604245 0.9730212 1.008324 0.9934686 1.0191067 0.9710698 0.9696769
0.9685689 1.0024157 1.0284787 0.9553514 0.97626215 0.9947914 1.0010711 1.0030861
0.92379266 0.985397 0.99396527 0.9802607 1.0128942 1.0305784 0.9431414 1.0140448
1.003411 1.0016382 1.0251764 0.967982 0.9570048 1.0036844 1.0116699 1.0233699
0.9630254 0.98566777 1.0461897 1.0313839 0.9669824 1.001174 0.9980922 0.9452182
0.97778106 1.0110745 1.0133811 1.000112 0.9933123 0.9795328 1.0112178 0.9668934
0.9473597 0.9771082 0.9829378 0.94790095 0.96707094 0.97766316 1.0252041 0.9534993
1.0042993 0.9914191 0.95440066 0.9801791 1.0128186 0.9509477 1.0053428 1.0287217
0.9627434 1.050954 0.93949383 0.98401815 0.9621699 0.99638337 0.9438282 0.96185094
0.97777444 0.98129314 0.94739705 0.9976796 0.96257156 1.0117935 0.9728611 1.0018572
0.9641334 0.9782375 0.96263653 0.97818846 1.0387468 0.9675734 0.9755399 0.9755938
0.93922716 0.9852116 0.9539033 0.9664189 1.0302283 0.96017617 0.9928246 1.0562919
0.9869019 0.99044293 0.955232 1.0246031 0.9602448 0.9726749 1.0005382 0.96188414
0.9761701 0.9839877 0.9749754 0.9861334 1.0107636 0.9461997 0.93639904 0.94488275
0.99825686 0.9604584 1.018004 0.99294305 0.9882916 0.9460399 1.0546274 0.99063087
1.023459 1.0411454 1.0048162 0.9492831 0.9522095 0.9594518 1.0005534 0.9440411
1.0032823 0.9690656 0.96277714 1.0384041 0.9735451 0.97169954 1.0118897 0.9672194
0.9624873 0.9688768 0.98267335 0.9955563 0.9784022 1.0037814 0.9598932 0.95567524
0.97912955 0.9710167 0.9910498 0.961554 0.9899951 1.0137459 0.9926559 0.97245616
00000000: 0ba9 6e3f c3c6 863f af1f 7b3f f17c 813f
00000010: d261 783f be33 803f 5a7c 7d3f 7a5e 853f
00000020: 5d6b 7a3f 2f33 803f 2a8a 6f3f 310e 803f
00000030: d36e 803f 3c52 7e3f 9172 863f d434 7a3f
00000040: 3a63 843f 3cee 733f 67a7 793f 7448 7a3f
00000050: 62b6 793f 2fd0 783f 602e 713f 5cb7 743f
00000060: db27 7b3f ae5e 803f b59e 7e3f 83b2 783f
00000070: ddc5 783f fe72 893f 7278 773f 6efb 783f
00000080: 0f3e 763f a87c 833f 5bad 7b3f b3e0 7c3f
00000090: e4dd 763f 01a7 803f c486 803f 1035 843f
000000a0: 524c 6d3f 3da7 793f 5135 803f 1aea 773f
000000b0: 3df2 7f3f 9b03 793f 8ae1 7a3f 39ac 793f
000000c0: 6b9c 803f 858b 783f d4a0 713f 6a07 793f
000000d0: 0769 7e3f 30e1 813f 63c6 753f 8daa 7a3f
000000e0: 1dff 753f c6ad 813f cc51 733f 9f1e 823f
000000f0: 1380 763f 1a26 733f d049 7a3f 6785 873f
00000100: 1631 7b3f 5388 843f 727d 753f 3a5e 803f
00000110: 0fdd 763f 147f 7c3f bf3c 7a3f 6f3d 7c3f
00000120: 4005 7e3f fe5d 7a3f 2b10 753f 9d12 7a3f
00000130: 1d32 843f 7a97 833f f2cc 7f3f e7e0 813f
00000140: 62ba 793f 1e4d 763f 4170 803f 0c68 803f
00000150: 968b 7c3f 407e 7e3f 77de 753f 93f1 7f3f
00000160: 8a39 7b3f 7b95 7a3f c7fc 763f 28ca 7a3f
00000170: 0601 763f 77ca 793f eff5 843f 4116 783f
00000180: d5f1 833f a860 7e3f ebeb 7a3f 2263 7c3f
00000190: c620 7d3f e045 7b3f cfb4 7c3f 08e8 813f
000001a0: 4637 7f3f ebdd 793f eb17 793f c310 813f
000001b0: f553 7e3f 1772 823f 0898 783f bf3c 783f
000001c0: 22f4 773f 284f 803f 31a5 833f e991 743f
000001d0: 51ec 793f a6aa 7e3f 1923 803f 2065 803f
000001e0: ad7d 6c3f fa42 7c3f 8274 7e3f 5ef2 7a3f
000001f0: 84a6 813f fee9 833f b771 713f 38cc 813f
00000200: c66f 803f ae35 803f fb38 833f abcd 773f
00000210: 44fe 743f bb78 803f 667e 813f c9fd 823f
00000220: d588 763f b954 7c3f 8be9 853f 6304 843f
00000230: 298c 773f 7826 803f f882 7f3f d2f9 713f
00000240: dc4f 7a3f e46a 813f 79b6 813f ac03 803f
00000250: b749 7e3f a9c2 7a3f 966f 813f 5386 773f
00000260: 2a86 723f c323 7a3f d0a1 7b3f a3a9 723f
00000270: f691 773f 2248 7a3f e339 833f 8818 743f
00000280: e18c 803f a4cd 7d3f 9a53 743f 04ed 7a3f
00000290: 0aa4 813f 4f71 733f 13af 803f 27ad 833f
000002a0: 5a76 763f a985 863f ab82 703f 9de8 7b3f
000002b0: c450 763f fb12 7f3f ba9e 713f dd3b 763f
000002c0: 6d4f 7a3f 0736 7b3f 9d88 723f ee67 7f3f
000002d0: 176b 763f 7382 813f 6d0d 793f db3c 803f
000002e0: 72d1 763f c66d 7a3f 596f 763f 8f6a 7a3f
000002f0: a8f5 843f e4b2 773f fcbc 793f 84c0 793f
00000300: 3171 703f d436 7c3f 0233 743f 3b67 773f
00000310: 85de 833f 1bce 753f c129 7e3f 9334 873f
00000320: 9aa5 7c3f ab8d 7d3f 168a 743f 3226 833f
00000330: 9ad2 753f 3901 793f a311 803f 0a3e 763f
00000340: 49e6 793f 9ee6 7b3f fd97 793f 3d73 7c3f
00000350: b460 813f 253a 723f d9b7 6f3f d6e3 713f
00000360: c38d 7f3f 9ae0 753f f44d 823f 8431 7e3f
00000370: ae00 7d3f ac2f 723f 08fe 863f fc99 7d3f
00000380: b400 833f 4144 853f d19d 803f 3804 733f
00000390: 00c4 733f a29e 753f 2212 803f adac 713f
000003a0: 8e6b 803f af14 783f 9078 763f 6dea 843f
000003b0: 403a 793f 4dc1 783f 9a85 813f b19b 773f
000003c0: 9165 763f 4f08 783f 7b90 7b3f c7dc 7e3f
000003d0: 9178 7a3f e97b 803f 90bb 753f 22a7 743f
000003e0: 3ca8 7a3f 8d94 783f 71b5 7d3f 6728 763f
000003f0: 5270 7d3f 6dc2 813f b21e 7e3f e3f2 783f

model.1.bias f4 [512]
-0.06568509 -0.12016063 -0.16454154 -0.17394468 -0.13278268 -0.22554167 -0.18251759 -0.18115914
-0.08145492 -0.06318786 -0.033917524 -0.21879634 -0.08097733 -0.14666757 -0.018540194 -0.07800623
-0.20217003 -0.023400659 -0.13709939 -0.14126454 -0.1055185 -0.1533012 0.00613609 -0.20432255
-0.026179628 -0.08924478 -0.0931017 -0.1216139 -0.08452836 0.007487088 -0.15558666 -0.045195196
-0.13522843 -0.1501498 -0.115402095 -0.17412592 -0.056921788 -0.17811477 -0.078773074 -0.14060839
-0.12340711 -0.15432532 -0.11117157 -0.09274155 -0.068712756 -0.17256543 -0.14520344 -0.11869052
-0.1973813 -0.04573407 0.0075285505 -0.21017179 -0.16100606 -0.05867693 -0.097790405 -0.04149097
0.014675163 -0.09137798 -0.10506549 -0.14149328 -0.021177588 -0.06420843 -0.15830037 -0.20539294
-0.045823753 -0.05230171 -0.11881453 -0.22886457 -0.13895427 -0.056957763 -0.12544706 -0.1738146
-0.033527322 0.017549807 -0.0872056 0.055545297 -0.2022496 -0.07167472 -0.15640791 -0.095370814
-0.07671996 -0.16677824 -0.039811496 -0.13400112 -0.20092963 -0.068705946 -0.15752544 -0.3032727
-0.06676723 0.018807441 0.0058461367 -0.2737414 -0.20629588 -0.10383034 -0.14297038 -0.03632933
-0.24242721 -0.13170868 -0.11044369 -0.079398915 -0.12731603 -0.16375041 -0.12703839 -0.1903698
-0.21434943 -0.11385416 -0.04913111 -0.099124916 -0.095387086 -0.1455172 -0.061186064 -0.08231486
-0.123719364 -0.19762462 -0.05646132 -0.047349248 -0.13300177 -0.09193222 -0.0010937257 -0.103460334
-0.12697056 -0.2831612 -0.02239317 -0.10604958 -0.17105511 -0.11816939 -0.14792325 -0.21024425
-0.026187615 -0.080963 -0.12790933 -0.12229234 -0.09183724 -0.21409708 -0.25797176 0.043658376
-0.1310446 -0.16173747 -0.09927793 -0.18003938 -0.017780878 -0.08602304 -0.18829712 -0.013564084
-0.17312518 -0.101620615 -0.11593519 -0.15538502 -0.033628516 -0.14011712 -0.08861702 -0.16924657
-0.035977993 -0.09839244 -0.13568954 -0.082692906 -0.1294361 -0.16011539 -0.21664387 -0.018865062
-0.2053527 -0.08935713 -0.114053324 -0.020658754 -0.003945692 -0.019705137 -0.13046144 -0.02730486
-0.067571566 -0.12868455 -0.09063592 -0.08878068 -0.16388431 -0.0345152 -0.17456806 -0.00992119
-0.13905267 -0.20911615 -0.010441381 -0.015498391 -0.13577116 -0.13745381 -0.20670818 -0.2533491
0.017533885 -0.03812888 -0.08326745 -0.114569075 -0.17523861 -0.16949618 -0.060333427 -0.04110737
-0.0683572 -0.09055845 -0.12776849 -0.07783953 -0.20489725 -0.034760643 -0.25904202 -0.23139836
-0.17394032 -0.036140803 -0.09538666 -0.21508096 -0.05797682 -0.13906173 -0.13097218 -0.074464925
-0.18098393 0.012998327 -0.057024408 -0.14739692 -0.061806098 -0.06759935 -0.13939999 -0.097433776
-0.123093456 -0.17859508 -0.32839125 -0.07066857 -0.17251107 -0.0280669 -0.09345462 -0.12480166
-0.2606545 -0.080609195 -0.07424427 -0.0100139845 -0.09280476 -0.15906551 -0.3400932 -0.113790505
-0.08323934 -0.26974776 -0.08432024 -0.117726 -0.06745297 -0.2734559 -0.093981266 -0.13834831
-0.040228143 -0.22559428 -0.06831278 -0.1451847 0.00047113048 -0.042878993 -0.12661295 -0.056655493
-0.16870777 -0.12721236 -0.08721544 -0.068370655 -0.06648679 -0.18045314 -0.04364713 -0.08654092
00000000: e885 86bd c716 f6bd 947d 28be 8e1e 32be
00000010: 2ff8 07be 65f4 66be e4e5 3abe c881 39be
00000020: d6d1 a6bd a368 81bd 1aed 0abd 260c 60be
00000030: 71d7 a5bd 0630 16be 9be1 97bc bbc1 9fbd
00000040: a905 4fbe bdb2 bfbc c863 0cbe a7a7 10be
00000050: 151a d8bd fdfa 1cbe 4111 c93b ee39 51be
00000060: a976 d6bc f8c5 b6bd 1bac bebd b510 f9bd
00000070: 341d adbd 3f56 f53b 1c52 1fbe 991e 39bd
00000080: 5279 0abe dfc0 19be ef57 ecbd 114e 32be
00000090: d226 69bd b863 36be c753 a1bd a5fb 0fbe
000000a0: debc fcbd 7507 1ebe ecad e3bd 48ef bdbd
000000b0: 46b9 8cbd feb4 30be 36b0 14be 0414 f3bd
000000c0: 531e 4abe a653 3bbd 0fb2 f63b 4637 57be
000000d0: c6de 24be 3857 70bd 5646 c8bd 6ff2 29bd
000000e0: 1870 703c 6124 bbbd 932c d7bd 9de3 10be
000000f0: 9f7c adbc b67f 83bd 7e19 22be 8752 52be
00000100: b0b1 3bbd 513a 56bd 0855 f3bd 795b 6abe
00000110: 074a 0ebe 8b4c 69bd 3275 00be 74fc 31be
00000120: f253 09bd 9dc4 8f3c da98 b2bd 7783 633d
00000130: 851a 4fbe 32ca 92bd 6529 20be c651 c3bd
00000140: 5b1f 9dbd eac7 2abe 6111 23bd 9737 09be
00000150: 7fc0 4dbe b4b5 8cbd 594e 21be 8f46 9bbe
00000160: 42bd 88bd 1012 9a3c f390 bf3b d527 8cbe
00000170: 3a3f 53be 00a5 d4bd d466 12be 10ce 14bd
00000180: d73e 78be a4de 06be 4d30 e2bd e69b a2bd
00000190: 225f 02be 30ae 27be 5a16 02be 4df0 42be
000001a0: 6b7e 5bbe 5f2c e9bd b43d 49bd 0102 cbbd
000001b0: 4e5a c3bd 7602 15be 3d9e 7abd b194 a8bd
000001c0: 9460 fdbd 1c5e 4abe fc43 67bd 49f1 41bd
000001d0: 9e31 08be f646 bcbd 585b 8fba 03e3 d3bd
000001e0: 9204 02be 81fa 90be e271 b7bc 8630 d9bd
000001f0: 1229 2fbe cb02 f2bd 3179 17be 454a 57be
00000200: 6987 d6bc eecf a5bd aafa 02be 6874 fabd
00000210: 2a15 bcbd 443c 5bbe e014 84be 20d3 323d
00000220: 8e30 06be 829e 25be 3a52 cbbd 3e5c 38be
00000230: 34a9 91bc d92c b0bd f6d0 40be e43b 5ebc
00000240: ba47 31be 781e d0bd 6e6f edbd 401d 1fbe
00000250: 0ebe 09bd dd7a 0fbe d77c b5bd f94e 2dbe
00000260: a95d 13bd fa81 c9bd 33f2 0abe e65a a9bd
00000270: e68a 04be 4af5 23be e4d7 5dbe e78a 9abc
00000280: fa47 52be df00 b7bd ca94 e9bd 8c3c a9bc
00000290: dd4a 81bb ab6c a1bc af97 05be 71ae dfbc
000002a0: f662 8abd e2c5 03be 539f b9bd a5d2 b5bd
000002b0: 4ad1 27be cf5f 0dbd f8c1 32be 7d8c 22bc
000002c0: d363 0ebe 8b22 56be 5312 2bbc f7ec 7dbc
000002d0: 9807 0bbe b1c0 0cbe 4fab 53be f9b6 81be
000002e0: 39a3 8f3c 072d 1cbd 2088 aabd 31a3 eabd
000002f0: c071 33be 6890 2dbe 2f20 77bd 3460 28bd
00000300: dcfe 8bbd b576 b9bd bed5 02be 556a 9fbd
00000310: 96d0 51be 2d61 0ebd 28a1 84be b1f3 6cbe
00000320: 691d 32be 6108 14bd 155a c3bd 2f3e 5cbe
00000330: 1a79 6dbd 3366 0ebe 921d 06be 1181 98bd
00000340: da53 39be eff6 543c 6d92 69bd 38ef 16be
00000350: 6428 7dbd 8771 8abd dfbe 0ebe 5c8b c7bd
00000360: 6c18 fcbd a1e1 36be e622 a8be afba 90bd
00000370: bea6 30be 8eec e5bc 2365 bfbd 0398 ffbd
00000380: 8274 85be 6f16 a5bd 610d 98bd b211 24bc
00000390: 6c10 bebd 12e2 22be b220 aebe ff0a e9bd
000003a0: 6379 aabd 611c 8abe 17b0 acbd 541a f1bd
000003b0: c824 8abd 6902 8cbe 4079 c0bd 2eab 0dbe
000003c0: 44c6 24bd 3002 67be 92e7 8bbd 4cab 14be
000003d0: 1002 f739 e2a1 2fbd d3a6 01be 970f 68bd
000003e0: bbc1 2cbe f543 02be 029e b2bd ea05 8cbd
000003f0: 3a2a 88bd b5c8 38be 55c7 32bd 5e3c b1bd

model.1.running_mean f4 [512]
-0.19152439 0.086841986 0.09589762 0.12217227 -0.10163106 -0.337028 0.15478154 0.10259714
-0.4559937 -0.0586733 0.002281 0.21082677 0.04210215 0.06533349 0.2731937 -0.002920292
0.021386446 -0.06885068 -0.24182047 0.0021617513 -0.27056134 -0.14338915 0.26291138 -0.16913013
0.32458776 0.1125562 -0.1702977 -0.24649867 0.44750717 0.20683545 -0.035647806 -0.23674244
0.23416437 -0.42069378 -0.23368898 0.17179109 -0.2302206 -0.0472686 -0.029366568 -0.19522607
0.057940282 0.3095729 0.09257512 0.23457925 -0.29866177 0.04176837 -0.14476183 -0.20641764
-0.053847965 -0.21111469 0.6153877 0.20537926 0.22292969 -0.18392272 -0.17015909 -0.00046366456
-0.16418503 0.3515976 -0.1656803 -0.27562732 0.0125421295 0.1780868 -0.080409825 -0.22546947
-0.0034678893 -0.07626399 0.37933165 -0.1214024 0.3427959 -0.3963528 -0.021993835 0.3532518
-0.073650144 -0.13705388 -0.26500767 -0.16164713 -0.1798632 0.043283626 -0.16395955 -0.08157238
0.15347035 -0.006311954 0.004218387 0.14198114 -0.11224805 0.334437 0.28035596 -0.27543995
-0.50950354 -0.27479202 0.17448533 0.15044288 -0.0735734 0.16732003 -0.004930728 -0.24333939
0.20544115 0.26724362 0.1061106 -0.052871764 -0.14548056 -0.18321288 -0.04219501 -0.15256563
-0.17573875 0.36252305 0.009285087 -0.02335438 -0.36011195 -0.15152468 0.26153022 -0.18817371
0.0775558 0.30026287 -0.06372438 0.5308679 -0.02992119 0.25268868 0.35135734 -0.25794387
-0.14902219 -0.08277731 0.0036959134 0.2199802 0.13840437 -0.17803727 -0.37127995 0.16952847
-0.10385442 -0.35210553 0.1473307 0.0071831313 -0.13818835 0.28981048 -0.040882334 0.13305491
-0.10227635 -0.4595563 -0.30888984 -0.13436742 -0.63492095 0.07368024 -0.05642488 0.17374457
-0.3780052 -0.008293618 -0.105828784 -0.5081146 -0.50843185 0.033912644 0.14823398 0.19670625
-0.4845108 0.37439346 -0.02103073 0.27910498 0.64856875 -0.19843927 -0.23925287 0.3313213
0.29787758 0.34669378 -0.14123403 -0.39466873 -0.20476243 0.41403848 -0.42669615 -0.09633863
0.5289139 -0.3958611 0.13263094 -0.31185138 -0.47700137 0.18219683 -0.21811152 0.21951315
-0.15468913 0.22641957 0.037536047 -0.40774885 0.022827383 -0.051686026 -0.24571095 -0.5143299
0.22498158 0.26510504 0.4724807 -0.4642203 0.2384843 -0.1805438 -0.081811056 0.12429523
0.11407167 -0.08196244 -0.024748567 -0.10843555 0.35077837 0.6547836 -0.038154397 -0.15033634
-0.1214465 0.18529963 -0.3682656 0.00613266 0.4932149 0.29452056 -0.11734892 -0.094638765
0.2585622 0.18291555 -0.3014185 0.0616168 -0.31210566 -0.38689727 0.32613078 -0.040489443
-0.39846376 0.18697058 -0.1793143 -0.3096588 -0.15205602 0.24969369 0.36654693 -0.033392858
0.11792664 0.0620948 -0.03491953 -0.2614684 -0.016838197 0.531083 0.31104833 0.1154715
-0.15289795 -0.01997326 -0.07769483 0.09349499 -0.4056263 0.34151745 -0.19201137 -0.38158056
-0.25528228 -0.33618262 0.15221111 0.16255368 -0.54887694 0.35752922 0.23270267 0.10986364
-0.2347969 0.6786448 0.28660092 -0.088898845 0.031007921 0.07339316 -0.37403676 0.00083229627
00000000: f81e 44be 36da b13d f965 c43d 7535 fa3d
00000010: f223 d0bd ef8e acbe 0d7f 1e3e 731e d23d
00000020: 0278 e9be 6a53 70bd d47c 153b f9e2 573e
00000030: 4e73 2c3d 91cd 853d 0be0 8b3e 5f62 3fbb
00000040: a132 af3c 9601 8dbd c99f 77be 2bac 0d3b
00000050: 0487 8abe 9bd4 12be 529c 863e 7330 2dbe
00000060: 5e30 a63e dd83 e63d 8562 2ebe 266a 7cbe
00000070: a91f e53e accc 533e 6f03 12bd 9c6c 72be
00000080: c9c8 6f3e 2d65 d7be 2a4c 6fbe 01ea 2f3e
00000090: f3be 6bbe b89c 41bd 2892 f0bc 58e9 47be
000000a0: ca52 6d3d 5780 9e3e 0698 bd3d 8b35 703e
000000b0: 32ea 98be 4f15 2b3d 723c 14be 255f 53be
000000c0: af8f 5cbd 732e 58be 0c8a 1d3f f14e 523e
000000d0: ae47 643e 3d56 3cbe 2f3e 2ebe 0118 f3b9
000000e0: 1f20 28be 9a04 b43e 19a8 29be 061f 8dbe
000000f0: 817d 4d3c 635c 363e e8ad a4bd 78e1 66be
00000100: 8745 63bb 4b30 9cbd c237 c23e d2a1 f8bd
00000110: f282 af3e c1ee cabe 6a2c b4bc 6cdd b43e
00000120: e3d5 96bd da57 0cbe 16af 87be d386 25be
00000130: 0f2e 38be 2c4a 313d 03e5 27be 6c0f a7bd
00000140: 5527 1d3e 82d4 cebb 653a 8a3b 8163 113e
00000150: 4ee2 e5bd 543b ab3e d18a 8f3e 7706 8dbe
00000160: d36e 02bf 8ab1 8cbe 48ac 323e b30d 1a3e
00000170: a7ad 96bd f155 2b3e f291 a1bb f62d 79be
00000180: 2a5f 523e 28d4 883e 8450 d93d 1090 58bd
00000190: dbf8 14be 289c 3bbe add4 2cbd 2a3a 1cbe
000001a0: dcf4 33be 9f9c b93e 7a20 183c af51 bfbc
000001b0: 9860 b8be 4929 1bbe 4ae7 853e 9cb0 40be
000001c0: 93d5 9e3d 0ebc 993e ee81 82bd f5e6 073f
000001d0: 491d f5bc 6960 813e 1ce5 b33e 3811 84be
000001e0: 4699 18be 2687 a9bd 2337 723b 7d42 613e
000001f0: e0b9 0d3e 674f 36be 6818 bebe df98 2d3e
00000200: a0b1 d4bd 2d47 b4be dcdd 163e 7960 eb3b
00000210: 3f81 0dbe 0a62 943e 3c74 27bd 8c3f 083e
00000220: 4376 d1bd f74a ebbe cf26 9ebe 9d97 09be
00000230: 2e8a 22bf aae5 963d c61d 67bd 19ea 313e
00000240: e689 c1be f5e1 07bc c3bc d8bd cc13 02bf
00000250: 9728 02bf fce7 0a3d a6ca 173e 5d6d 493e
00000260: cd11 f8be 80b0 bf3e a348 acbc d9e6 8e3e
00000270: 9a08 263f aa33 4bbe b4fe 74be f2a2 a93e
00000280: 6983 983e d981 b13e a79f 10be 0512 cabe
00000290: 3ead 51be dafc d33e eb77 dabe 304d c5bd
000002a0: e766 073f 4eae cabe 68d0 073e fcaa 9fbe
000002b0: 8639 f4be ce91 3a3e a058 5fbe 0ec8 603e
000002c0: d466 1ebe 88da 673e 66bf 193d 75c4 d0be
000002d0: 7e00 bb3c bab4 53bd a79b 7bbe 20ab 03bf
000002e0: 9261 663e d9bb 873e fee8 f13e 48ae edbe
000002f0: 3a35 743e 79e0 38be 8e8c a7bd 7f8e fe3d
00000300: 689e e93d ecdb a7bd 82bd cabc 7513 debd
00000310: 3999 b33e e69f 273f c947 1cbd c5f1 19be
00000320: f1b8 f8bd 30bf 3d3e 4f8d bcbe 7bf4 c83b
00000330: aa86 fc3e 66cb 963e a154 f0bd f8d1 c1bd
00000340: 4462 843e 374e 3b3e 8753 9abe e661 7c3d
00000350: 50cc 9fbe 6617 c6be 9dfa a63e 42d8 25bd
00000360: 7103 ccbe 3775 3f3e 2b9e 37be 998b 9ebe
00000370: 93b4 1bbe b4af 7f3e 0aac bb3e f3c6 08bd
00000380: 8683 f13d 1e57 7e3d c807 0fbd 30df 85be
00000390: 42f0 89bc 0ef5 073f ba41 9f3e 527c ec3d
000003a0: 4891 1cbe f69e a3bc 781e 9fbd 4d7a bf3d
000003b0: 40ae cfbe 60db ae3e a19e 44be 875e c3be
000003c0: 5cb4 82be 2120 acbe 3bdd 1b3e 7974 263e
000003d0: 3383 0cbf 120e b73e 9c49 6e3e 3000 e13d
000003e0: 996e 70be aabb 2d3f 5bbd 923e 9910 b6bd
000003f0: 5304 fe3c 274f 963d bf81 bfbe 752e 5a3a

model.1.running_var f4 [512]
0.019568408 0.0044262805 0.0063565676 0.003995888 0.010292363 0.014128393 0.011822649 0.0034378034
0.016972 0.008663485 0.012637261 0.017232196 0.010484012 0.005608107 0.002694381 0.011942993
0.003684745 0.008221798 0.01808636 0.009357644 0.0056408653 0.011403268 0.007701305 0.013153678
0.004911959 0.010737908 0.005166091 0.013880446 0.0085661085 0.004432908 0.012512771 0.0042647384
0.018766614 0.0052505517 0.009412769 0.016924236 0.011126897 0.01449966 0.01126042 0.014519188
0.010966557 0.009094026 0.0044644717 0.009064406 0.005657866 0.007161238 0.016402503 0.011566592
0.007632612 0.008422862 0.029008403 0.011546088 0.005659777 0.0064364527 0.012950961 0.0140475
0.0109548755 0.008450198 0.01049101 0.013596045 0.01010814 0.009868581 0.018289493 0.0035944686
0.015560503 0.007666053 0.0071181227 0.014225499 0.014951073 0.012489539 0.011447703 0.014187078
0.0070850593 0.005252862 0.009684763 0.010025686 0.012391335 0.014073593 0.013002709 0.0059819734
0.010821204 0.01696717 0.0110518 0.00578824 0.010675906 0.0077581764 0.015068396 0.014001319
0.0086726155 0.0066582696 0.00918226 0.008916616 0.012580726 0.019892711 0.0019800917 0.013171868
0.018145645 0.020083586 0.007930094 0.0058273906 0.003933164 0.014489239 0.018387515 0.017028634
0.007820091 0.007863133 0.007654374 0.008103068 0.002963359 0.0055545988 0.0064824736 0.0074130893
0.013061608 0.016577696 0.0059692767 0.008337309 0.01783205 0.011586985 0.006373907 0.012428195
0.01343789 0.029917037 0.0035379604 0.0124782985 0.018807868 0.007380669 0.00966589 0.018281931
0.015299859 0.0068443753 0.0096504195 0.014170773 0.0129182255 0.018900067 0.017336959 0.010417059
0.007247744 0.01303193 0.013637618 0.0053144554 0.018337317 0.0057895067 0.014497371 0.010039541
0.013524133 0.0051978747 0.0032776874 0.010278075 0.008779986 0.008102157 0.0059715463 0.011777438
0.011885732 0.015360809 0.010165514 0.007623027 0.011014256 0.009775865 0.016444866 0.008002768
0.022471242 0.005399078 0.011053548 0.006822463 0.005227352 0.009308848 0.010410512 0.005524763
0.011035115 0.0051988196 0.006738431 0.0143964 0.017090622 0.009832372 0.009560223 0.008792444
0.010489703 0.013257906 0.0075509814 0.0146973 0.013402872 0.006286065 0.015133746 0.026558502
0.022603286 0.011787797 0.019464752 0.009545299 0.0034297484 0.01333869 0.0069548525 0.02200802
0.021029115 0.010436936 0.006581319 0.004919087 0.015923828 0.01135081 0.01549456 0.004401988
0.009409864 0.008730744 0.012108372 0.014103862 0.010601543 0.0103840055 0.0047136336 0.021368492
0.0087884525 0.012528766 0.014338812 0.0072191386 0.0037583464 0.01241406 0.023087896 0.022164332
0.015748216 0.015239158 0.017371358 0.008862154 0.0060199 0.009349138 0.006963851 0.020396277
0.021891091 0.0034081098 0.0044627413 0.008918315 0.012283507 0.013769861 0.01313649 0.019076858
0.0058486355 0.015850278 0.01112695 0.010686079 0.009612989 0.0175614 0.00800433 0.012705779
0.013136084 0.017512795 0.011584273 0.00799486 0.007692744 0.009221626 0.01738325 0.0089567015
0.011711043 0.026041618 0.008226733 0.005552665 0.006947403 0.012263104 0.007858711 0.011309665
00000000: ed4d a03c 550a 913b c14a d03b f0ef 823b
00000010: 4da1 283c c67a 673c c9b3 413c c54c 613b
00000020: dd08 8b3c 4af1 0d3c 840c 4f3c 892a 8d3c
00000030: 22c5 2b3c 36c4 b73b 3694 303b 8bac 433c
00000040: c37b 713b b8b4 063c d929 943c ce50 193c
00000050: 02d7 b83b c6d4 3a3c 3b5b fc3b 8682 573c
00000060: 80f4 a03b 0dee 2f3c 5048 a93b cf6a 633c
00000070: dd58 0c3c ed41 913b 5e02 4d3c 38bf 8b3b
00000080: 71bc 993c d20c ac3b 0438 1a3c b2a4 8a3c
00000090: 974d 363c fb8f 6d3c a07d 383c e3e1 6d3c
000000a0: 13ad 333c 1cff 143c b44a 923b e082 143c
000000b0: 9f65 b93b d2a8 ea3b 8b5e 863c ce81 3d3c
000000c0: fd1a fa3b 0b00 0a3c 08a3 ed3c ce2b 3d3c
000000d0: a775 b93b e1e8 d23b 4430 543c 7c27 663c
000000e0: 147c 333c b372 0a3c 7ce2 2b3c f2c1 5e3c
000000f0: 9d9c 253c d4af 213c d9d3 953c 2d91 6b3b
00000100: 7bf1 7e3c 8333 fb3b 243f e93b 1112 693c
00000110: 58f5 743c eca0 4c3c 258f 3b3c eb70 683c
00000120: c929 e83b 3320 ac3b d7ac 1e3c c642 243c
00000130: 0705 4b3c ed94 663c 5009 553c 6e04 c43b
00000140: 6b4b 313c bcfe 8a3c 9c12 353c 47ab bd3b
00000150: ffe9 2e3c 4d38 fe3b 6fe1 763c ca65 653c
00000160: 9617 0e3c 9d2d da3b 3171 163c 0017 123c
00000170: 641f 4e3c 0af6 a23c 6dc4 013b d2ce 573c
00000180: 2da6 943c 5586 a43c 3aed 013c b2f3 be3b
00000190: c5e1 803b 4664 6d3c 6aa1 963c a27f 8b3c
000001a0: d71f 003c 5fd4 003c 8bd1 fa3b bbc2 043c
000001b0: ea34 423b 5a03 b63b ee6a d43b 80e9 f23b
000001c0: 5b00 563c f3cd 873c ec99 c33b 3599 083c
000001d0: 8514 923c 56d7 3d3c 35dc d03b a19f 4b3c
000001e0: 992a 5c3c 9314 f53c 20dd 673b c771 4c3c
000001f0: f512 9a3c 8ad9 f13b ae5d 1e3c fdc3 953c
00000200: 43ac 7a3c c846 e03b cb1c 1e3c 882c 683c
00000210: f7a6 533c 50d4 9a3c 3d06 8e3c 50ac 2a3c
00000220: 7c7e ed3b e083 553c 5170 5f3c e224 ae3b
00000230: 2438 963c e7b5 bd3b 6286 6d3c e37c 243c
00000240: 5394 5d3c ef52 aa3b 78ce 563b 5f65 283c
00000250: eed9 0f3c e9be 043c f6ac c33b 28f6 403c
00000260: 60bc 423c e7ab 7b3c 428d 263c 96ca f93b
00000270: 2375 343c f32a 203c 62b7 863c 0b1e 033c
00000280: 9c15 b83c c0ea b03b f119 353c f88e df3b
00000290: 354a ab3b 2384 183c da90 2a3c 1209 b53b
000002a0: a1cc 343c dc5a aa3b 0ece dc3b e1de 6b3c
000002b0: a201 8c3c f517 213c 7ba2 1c3c 2f0e 103c
000002c0: 01dd 2b3c b037 593c 396e f73b f2cc 703c
000002d0: b897 5b3c 56fb cd3b 88f3 773c 3791 d93c
000002e0: 872a b93c 9b21 413c 8b74 9f3c e363 1c3c
000002f0: a1c5 603b 858a 5a3c 88e5 e33b 2a4a b43c
00000300: 4045 ac3c afff 2a3c 1ba8 d73b 4b30 a13b
00000310: b072 823c bff8 393c e5dc 7d3c 8d3e 903b
00000320: d52b 1a3c 650b 0f3c 3162 463c e313 673c
00000330: 18b2 2d3c ad21 2a3c d374 9a3b fa0c af3c
00000340: 71fd 0f3c 7445 4d3c 56ed 6a3c 868e ec3b
00000350: 974e 763b 5764 4b3c d422 bd3c f991 b53c
00000360: 6702 813c a9ad 793c 614e 8e3c 9132 113c
00000370: 9542 c53b 202d 193c 0431 e43b 1816 a73c
00000380: f254 b33c 985a 5f3b 303c 923b 201e 123c
00000390: c340 493c fc9a 613c 6f3a 573c 1247 9c3c
000003a0: e9a5 bf3b 71d8 813c d04d 363c aa14 2f3c
000003b0: cc7f 1d3c eddc 8f3c 9824 033c e62b 503c
000003c0: bb38 573c fe76 8f3c f6cb 3d3c e0fc 023c
000003d0: 6a13 fc3b 4e16 173c 5167 8e3c 21bf 123c
000003e0: addf 3f3c 3b55 d53c 6bc9 063c 21f3 b53b
000003f0: 0aa7 e33b 30eb 483c d3c1 003c 2c4c 393c

model.4.weight f4 [256, 512]
-0.0008748711 -0.008980083 0.01914777 -0.049351007 -0.006280666 -0.004909858 -0.008871551 0.034893516
-0.028910032 -0.013016352 0.034673147 0.052844632 -0.012173758 -0.021402936 -0.021008391 -0.01747291
1.7663857e-05 0.01000671 -0.0002885842 -0.01009769 0.036052886 0.050481755 0.012210646 3.929784e-05
-0.018685898 0.0043006763 -0.03372357 0.034724962 0.0091136 0.032303043 -0.016941134 -0.0061197286
0.032652806 -0.037366655 -0.052466206 0.016254947 -0.028450312 0.032422807 0.0072891354 -0.013462709
0.0130302785 -0.003681837 -0.00877793 0.012843534 -0.009170082 0.0036414117 0.01333548 -0.044208977
0.045510214 -0.029096175 -0.022892486 -0.013402055 0.019122101 0.0072184633 0.03276196 -0.004243658
0.041038632 0.022291372 0.018090535 -0.013849218 -0.021975618 0.0038827693 -0.03343351 -0.0067090187
0.011642123 0.070396155 -0.012184138 -0.031516362 -0.011483564 -0.030705158 0.050051674 0.037694756
0.030929014 0.017414464 -0.02331524 0.008634056 0.010228984 -0.014812209 -0.010957825 -0.04138292
-0.0350446 0.014066733 -0.007051843 0.019418672 0.043961886 -0.027990611 -0.036996208 -0.01935113
0.03409659 -0.007077673 0.010346079 -0.011487655 -0.033045392 -0.026729679 -0.038081504 -0.016183933
-0.01580069 -0.014032025 0.028638627 -0.06071673 0.029572522 -0.06728969 -0.006537816 -0.01666937
-0.04520875 0.03458756 0.03227531 -0.02152424 0.009912976 -0.024471723 0.007556831 -0.019958377
0.014433022 0.028882885 -0.0061169886 0.03906699 -0.03133481 0.0025911569 0.018116517 -0.058883842
0.036785647 0.0034411652 -0.01493229 0.026806245 0.0415368 -0.0050331564 0.00801397 0.03687493
-0.02042536 -0.004433991 0.03985292 0.048604738 0.021819007 -0.053317443 -0.005285182 -0.009376952
-0.030281818 -0.022572923 -0.035807952 -0.012775767 -0.016950479 0.019274393 0.041386705 0.01139932
-0.06404439 -0.0026873508 -0.020567825 0.012139383 0.010019956 0.01140353 -0.03913799 -0.026468717
-0.047087003 0.028123926 -0.0221298 -0.024881767 0.03815388 0.04206247 0.013674879 -0.017149488
-0.020808246 0.054805163 0.019285182 -0.02409278 0.019421807 0.019003194 -0.025759809 -0.0017266099
0.030412618 -0.029102251 0.011782682 0.030788355 -0.008583159 -0.015436185 -0.017591998 0.008238336
-0.047178775 -0.0016080512 -0.044726092 -0.021001073 -0.002663901 0.029007945 0.0315724 -0.019619556
0.00015843575 -0.031907182 0.027199475 -0.045765724 -0.021771142 0.014850069 0.025173033 -0.026899304
-0.012774438 -0.003413384 0.019417927 -0.03509416 0.028271187 0.02305657 0.05898687 -0.0055760476
-0.020651018 -0.037657086 -0.013772465 0.016825998 -0.009922913 0.047303688 0.005367286 -0.006993151
-0.03791773 -0.050474316 0.0042702267 0.035323247 0.013409899 -0.06569707 -0.01081106 0.04755918
-0.0048651476 -0.02029532 0.038683277 -0.016880486 -0.0054348824 -0.009192705 0.009785023 0.01771322
-0.03637988 -0.013697305 -0.053698048 0.0038240014 0.029322324 0.030011944 0.013634156 -0.051939994
-0.046184402 0.029008275 -0.038643174 0.017717859 -0.021156589 0.02048549 -0.021402162 0.039353706
-0.01158852 0.050699048 -0.015187179 -0.014191622 -0.023671675 0.03468544 0.028543973 0.007220961
-0.022141222 -0.012508349 -0.07859253 0.021527385 0.04351211 0.013749591 -0.019367386 0.050817013
00000000: 9b57 65ba 3321 13bc c9db 9c3c 4824 4abd
00000010: 0cce cdbb e0e2 a0bb fb59 11bc 81ec 0e3d
00000020: bbd4 ecbc 8a42 55bc 6e05 0e3d 9d73 583d
00000030: 7174 47bc 3655 afbc ca19 acbc 5923 8fbc
00000040: d82c 9437 2ff3 233c 1e4d 97b9 c870 25bc
00000050: 31ac 133d f5c5 4e3d 290f 483c bcd3 2438
00000060: 2b13 99bc b0ec 8c3b ba21 0abd c33b 0e3d
00000070: 3551 153c 3250 043d 22c8 8abc 0188 c8bb
00000080: f3be 053d c70d 19bd cee6 56bd 1829 853c
00000090: a110 e9bc c7cd 043d b3d9 ee3b b292 5cbc
000000a0: f37c 553c fa4a 71bb 4fd1 0fbc b06d 523c
000000b0: 1d3e 16bc c0a4 6e3b 0f7d 5a3c 7914 35bd
000000c0: eb68 3a3d 1a5b eebc 0689 bbbc 4b94 5bbc
000000d0: f4a5 9c3c dc88 ec3b 6831 063d 620e 8bbb
000000e0: 2018 283d 659c b63c 9a32 943c d5e7 62bc
000000f0: 3606 b4bc 0f76 7e3b 94f1 08bd 54d7 dbbb
00000100: 9abe 3e3c dc2b 903d fb9f 47bc 4d17 01bd
00000110: 8f25 3cbc 6289 fbbc fc02 4d3d d165 1a3d
00000120: d85e fd3c c7a8 8e3c 9aff bebc db75 0d3c
00000130: 7897 273c e8ae 72bc 7388 33bc 2381 29bd
00000140: ed8a 0fbd 2878 663c 2613 e7bb e813 9f3c
00000150: 6111 343d 914c e5bc 5689 17bd 4386 9ebc
00000160: dea8 0b3d d3eb e7bb 9a82 293c b836 3cbc
00000170: 9b5a 07bd 33f8 dabc 5afb 1bbd 2b94 84bc
00000180: 7370 81bc 94e6 65bc 8e9b ea3c 1bb2 78bd
00000190: 1342 f23c 2dcf 89bd 2d3b d6bb 348e 88bc
000001a0: cf2c 39bd afab 0d3d 1e33 043d 9a53 b0bc
000001b0: 096a 223c ec78 c8bc 4b9f f73b c07f a3bc
000001c0: 7b78 6c3c cd9b ec3c 0571 c8bb b504 203d
000001d0: ee58 00bd 66d0 293b 1769 943c 2f30 71bd
000001e0: 8cac 163d 2c85 613b 90a6 74bc c598 db3c
000001f0: 7e22 2a3d 2ded a4bb 074d 033c 2b0a 173d
00000200: 1653 a7bc 034b 91bb d13c 233d c315 473d
00000210: c6bd b23c 6463 5abd 522f adbb caa1 19bc
00000220: 9311 f8bc daea b8bc 5cab 12bd 7351 51bc
00000230: bbdb 8abc 55e5 9d3c 1b85 293d 37c4 3a3c
00000240: b529 83bd 441e 30bb db7d a8bc 43e4 463c
00000250: be2a 243c dfd5 3a3c 284f 20bd ecd4 d8bc
00000260: 4dde 40bd 2664 e63c 8e49 b5bc d9d4 cbbc
00000270: 3e47 1c3d b249 2c3d 9a0c 603c 157d 8cbc
00000280: 0e76 aabc 617b 603d f5fb 9d3c 395e c5bc
00000290: 7b1a 9f3c 96ac 9b3c 3c06 d3bc 6a4f e2ba
000002a0: e223 f93c d867 eebc 260c 413c dc37 fc3c
000002b0: 61a0 0cbc 0de8 7cbc 181d 90bc 16fa 063c
000002c0: 883e 41bd 3fc5 d2ba b532 37bd 710a acbc
000002d0: d894 2ebb 12a2 ed3c 1052 013d 31b9 a0bc
000002e0: c621 2639 1bb1 02bd 6fd1 de3c d774 3bbd
000002f0: 6559 b2bc b44d 733c ad37 ce3c ee5b dcbc
00000300: e04b 51bc 15b3 5fbb 5812 9f3c e5be 0fbd
00000310: fa98 e73c 22e1 bc3c 379c 713d 47b7 b6bb
00000320: 532c a9bc 513e 1abd e8a5 61bc add6 893c
00000330: b793 22bc 83c1 413d 0fe0 af3b cd26 e5bb
00000340: 9f4f 1bbd 28be 4ebd 42ed 8b3b 1caf 103d
00000350: 31b5 5b3c 2f8c 86bd df20 31bc 6acd 423d
00000360: d16b 9fbb 5f42 a6bc 5b72 1e3d f248 8abc
00000370: 1917 b2bb 009d 16bc 5c51 203c 511b 913c
00000380: 1203 15bd a96a 60bc 7cf2 5bbd 199c 7a3b
00000390: 5f35 f03c 9cdb f53c cc61 5f3c 08bf 54bd
000003a0: db2b 3dbd c3a2 ed3c 4e48 1ebd 0b25 913c
000003b0: 9550 adbc 30d1 a73c 9653 afbc 5a31 213d
000003c0: c7dd 3dbc cea9 4f3d a5d3 78bc fa83 68bc
000003d0: 1aeb c1bc 5212 0e3d 0dd5 e93c d09d ec3b
000003e0: 8261 b5bc d1ef 4cbc 1ff5 a0bd 335a b03c
000003f0: c139 323d f745 613c 5aa8 9ebc 8025 503d

model.4.bias f4 [256]
-0.02553143 -0.040663708 0.00797032 0.04163263 -0.020951154 -0.5278321 -0.076963365 0.0383015
0.043304205 -0.037701365 -0.09972981 -0.056754876 -0.06944396 0.06416473 -0.051280987 -0.024556655
-0.016261805 -0.059194617 0.10536962 -0.5089572 0.15594701 -0.11922208 0.012743401 -0.036370233
0.020891385 -0.08276737 0.031987675 0.010423215 -0.036956605 0.029815657 -0.09819419 -0.019765208
-0.029101318 -0.029039457 0.15790033 0.03507459 -0.060273062 0.11241519 -0.026491744 0.019977938
0.081998244 -0.07503471 -0.06344218 -0.006645503 -0.017024444 -0.07009397 -0.041927926 -0.008585447
0.016437396 -0.13525768 -0.030441651 -0.045776177 0.019925067 0.051823623 -0.07678958 0.031223536
-0.019882543 -0.11564314 0.05757632 -0.058171682 0.16900603 0.00793912 0.027784321 0.057923105
0.13565642 -0.018713377 -0.0912639 0.10013853 -0.024068711 -0.13528825 -0.13347664 -0.038619973
-0.044023037 0.1934141 -0.12703197 -0.060461305 0.005770518 0.023633959 -0.033028096 -0.0011506795
-0.07323563 0.18653074 0.19421822 0.038708188 -0.0048503582 -0.025217516 -0.05091983 -0.06551496
-0.038831424 0.0052140984 0.04514909 -0.03200772 0.2035961 -0.38607648 -0.0015495114 -0.14675714
0.08878704 -0.061551705 -0.0042084362 0.028926851 0.03955212 0.0323144 0.048758984 0.09374438
-0.06606951 0.020906426 -0.05076019 -0.033254735 -0.12965356 -0.11692092 -0.055884156 -0.15709467
-0.031339005 -0.03195844 -0.061443962 -0.08982681 -0.18476783 0.0009363875 0.07369066 -0.093012966
-0.08414908 -0.051523246 -0.033406865 -0.0019065893 0.036818746 -0.018193971 0.15477546 0.14231916
-0.05830209 0.03771124 0.010300031 0.06580746 -0.016291888 -0.025360383 0.09549596 0.03605066
0.036041386 -0.04095447 0.13475177 0.05042355 -0.015506069 0.006992768 -0.013961351 0.06365142
-0.06840683 -0.02818434 0.03865333 -0.04351032 -0.070775 -0.0343415 0.123136215 -0.06403255
-0.10445182 -0.011356239 -0.0061684344 -0.08396344 0.15025607 -0.22394529 0.06253565 0.0353865
-0.034490027 -0.044448093 0.17211266 -0.021843547 0.034919176 -0.050164472 0.07273918 -0.029726863
0.012911897 -0.048362665 -0.115921855 -0.017687542 -0.05804252 0.01335165 0.08511895 -0.013438071
-0.049793515 -0.05851957 0.031357355 0.008735177 0.03849671 -0.056687906 0.043315098 -0.04448882
0.14927097 -0.1382055 0.044173684 0.041291367 -0.13005094 -0.01454872 0.06638237 -0.1510152
-0.07188775 -0.07148925 0.062246505 0.09598235 -0.022926038 -0.03881335 0.057899583 0.04088588
0.008410477 0.044151124 0.019956557 -0.033111475 -0.016231945 0.10647117 0.036210317 -0.06840396
0.056535438 -0.055786725 0.111017756 -0.02466561 0.008143099 -0.005698897 -0.060035914 -0.058202557
-0.042911027 -0.049909707 -0.035730466 0.008926067 0.03689111 0.012416555 -0.24432 0.019634504
-0.05828209 0.16726579 -0.02912957 -0.010185005 -0.15054506 0.052848093 -0.06484944 0.008364167
-0.0032837307 0.004220632 -0.032317627 0.04469874 0.013903983 -0.037468474 -0.39102435 0.012868122
-0.022272224 -0.06458627 -0.030415215 -0.030745348 -0.036960047 0.002536323 -0.025437973 -0.10692717
0.20367175 -0.05257682 -0.008034715 0.040310483 -0.0022565387 -0.009227147 -0.04436983 -0.19106781
00000000: 4a27 d1bc fd8e 26bd f295 023c fa86 2a3d
00000010: c1a1 abbc 0120 07bf f89e 9dbd 09e2 1c3d
00000020: c05f 313d bf6c 1abd 253f ccbd cd77 68bd
00000030: a338 8ebd cc68 833d 030c 52bd 0a2b c9bc
00000040: 7a37 85bc 0e76 72bd 07cc d73d 054b 02bf
00000050: 93b0 1f3e b52a f4bd b3c9 503c f4f8 14bd
00000060: 6924 ab3c f081 a9bd 8205 033d 22c6 2a3c
00000070: cf5f 17bd f73f f43c 091a c9bd a5ea a1bc
00000080: e365 eebc 28e4 edbc a0b0 213e 60aa 0f3d
00000090: e3e0 76bd ef39 e63d 3705 d9bc c6a8 a33c
000000a0: b2ee a73d ccab 99bd f9ed 81bd 85c2 d9bb
000000b0: d976 8bbc 6d8d 8fbd 9ebc 2bbd faa9 0cbc
000000c0: b8a7 863c fd80 0abe c560 f9bc cd7f 3bbd
000000d0: e539 a33c 0245 543d db43 9dbd 80c8 ff3c
000000e0: b7e0 a2bc 50d6 ecbd 26d5 6b3d 6e45 6ebd
000000f0: eb0f 2d3e 1513 023c f29b e33c c740 6d3d
00000100: 84e9 0a3e cc4c 99bc 91e8 babd 6e15 cd3d
00000110: bf2b c5bc 0189 0abe 1aae 08be fa2f 1ebd
00000120: 8051 34bd 590e 463e ab14 02be 46a6 77bd
00000130: 9d16 bd3b 019c c13c 7848 07bd 66d2 96ba
00000140: 90fc 95bd ea01 3f3e 24e1 463e 7a8c 1e3d
00000150: c1ef 9ebb f794 cebc 5091 50bd b52c 86bd
00000160: b30d 1fbd 07db aa3b 41ee 383d 871a 03bd
00000170: 7f7b 503e d1ab c5be fa18 cbba 8147 16be
00000180: fbd5 b53d a41d 7cbd ece6 89bb 01f8 ec3c
00000190: 6701 223d 1b5c 043d 80b7 473d 0efd bf3d
000001a0: 744f 87bd f443 ab3c ebe9 4fbd 1e36 08bd
000001b0: e7c3 04be 3c74 efbd c9e6 64bd 6ddd 20be
000001c0: 545d 00bd dae6 02bd aaac 7bbd 1ef7 b7bd
000001d0: c733 3dbe e777 753a 21eb 963d 957d bebd
000001e0: 5a56 acbd 0a0a 53bd a3d5 08bd 85e6 f9ba
000001f0: 41cf 163d 860b 95bc 757d 1e3e 1dbc 113e
00000200: 2cce 6ebd 1a77 1a3d 76c1 283c 10c6 863d
00000210: 9176 85bc 94c0 cfbc 6393 c33d dba9 133d
00000220: 22a0 133d e0bf 27bd 5efc 093e ed88 4e3d
00000230: 2b0d 7ebc 9723 e53b 26be 64bc ad5b 823d
00000240: e118 8cbd d8e2 e6bc f452 1e3d e137 32bd
00000250: 7cf2 90bd aca9 0cbd d72e fc3d 7f23 83bd
00000260: d6ea d5bd 850f 3abc 9420 cabb 06f5 abbd
00000270: badc 193e ea51 65be b112 803d 6ff1 103d
00000280: 6a45 0dbd 340f 36bd 4d3e 303e 3df1 b2bc
00000290: 6907 0f3d 4379 4dbd 47f8 943d c085 f3bc
000002a0: 6c8c 533c ee17 46bd 7068 edbd 77e5 90bc
000002b0: febd 6dbd e1c0 5a3c d852 ae3d 5b2b 5cbc
000002c0: 49f4 4bbd 37b2 6fbd 9270 003d fd1d 0f3c
000002d0: baae 1d3d 9431 68bd 2c6b 313d e939 36bd
000002e0: 7dda 183e be85 0dbe 77ef 343d 2321 293d
000002f0: 132c 05be c15d 6ebc 7bf3 873d bba3 1abe
00000300: e239 93bd f568 92bd 31f6 7e3d 6592 c43d
00000310: 63cf bbbc bffa 1ebd 1d28 6d3d f477 273d
00000320: 19cc 093c cfd7 343d ef7b a33c e69f 07bd
00000330: dbf8 84bc 8f0d da3d 4551 143d 6017 8cbd
00000340: b491 673d 9f80 64bd 475d e33d 890f cabc
00000350: a26a 053c d0bd babb 38e8 75bd ce65 6ebd
00000360: 79c3 2fbd 1f6e 4cbd 1c5a 12bd a33e 123c
00000370: 221b 173d ce6e 4b3c 062f 7abe 8ad8 a03c
00000380: 33b9 6ebd b947 2b3e 23a1 eebc 02df 26bc
00000390: 7c28 1abe 3e77 583d c8cf 84bd dc09 093c
000003a0: dc33 57bb 3a4d 8a3b 7d5f 04bd 0716 373d
000003b0: 88cd 633c 8b78 19bd 5834 c8be d1d4 523c
000003c0: 3d74 b6bc ce45 84bd 5429 f9bc abdd fbbc
000003d0: 6b63 17bd 7038 263b 4c63 d0bc a2fc dabd
000003e0: 548f 503e cb5a 57bd 0aa4 03bc 9b1c 253d
000003f0: 70e2 13bb 762d 17bc 24bd 35bd 48a7 43be
