models/three_layers/threeLayerModel_ee_corrCut_0.9.pt (torch, 690597 bytes, 6 tensors)

model.0.weight f4 [512, 77]
000000 af f5 16 3c 60 a5 8b 3d c0 1e d8 bd af 91 c0 bd
       0.009213849 0.06818652 -0.1055274 -0.09402787
000010 2e f0 9b 3d 50 2c be 3d 40 b9 12 bd 06 49 b1 bc
       0.0761417 0.09285796 -0.0358212 -0.021641266
000020 13 03 8e bd 2e 58 8d 3d 8a 20 16 bd c9 ca f0 bc
       -0.0693418 0.069015846 -0.036652125 -0.02939357
000030 96 af 9f 3d 88 64 af 3d 32 1e 4a bd ef b6 99 3d
       0.07797162 0.08564097 -0.049345203 0.07505595
000040 7e 78 3a 3c e3 4a 24 bd ae 1d b4 bd eb da 21 3d
       0.011381267 -0.04011048 -0.087947235 0.039515417
000050 ed 66 84 3d 2a 85 bd bd 0d 94 8e bd 0e 30 d0 3d
       0.06464944 -0.09253915 -0.06961832 0.10165416
000060 da c6 92 3d 6f 49 5e bd 29 b2 81 3d 42 56 34 3d
       0.07166834 -0.05426925 0.063328095 0.044027574
000070 40 ed ce 3d 13 21 1b bd 44 e4 d9 3d 84 eb 80 bd
       0.101038456 -0.03787334 0.10639241 -0.06294921
000080 9f 02 2a 3c e7 a0 74 bc 3a 33 b1 3d 7c 31 c5 bd
       0.0103766015 -0.01493094 0.08652349 -0.09628579
000090 1e 1c d1 3d 0e 08 5b bd 27 19 28 bc ce 4b a4 3c
       0.10210441 -0.05347448 -0.010259903 0.020055678
0000a0 90 8d e1 bb c4 96 0e bd 11 46 d2 bc 6b 54 01 3e
       -0.0068833306 -0.03481175 -0.025668176 0.12629859
0000b0 46 e7 d4 bc 3b 6d 51 3d 89 99 96 3d 93 5e 91 bd
       -0.025989186 0.05112956 0.07353503 -0.07098117
0000c0 5b da 98 3d 56 47 b5 3d 55 ea a0 bd c9 4c 82 3c
       0.07463523 0.08851497 -0.07857195 0.015905755
0000d0 13 db a8 bd 6e 2b 92 3d 3e 16 2a 3a 41 d4 66 3d
       -0.0824491 0.0713719 0.00064882997 0.056354765
0000e0 dc b2 ab bd a8 20 36 3d 5e 4e 8e bd d9 14 40 ba
       -0.08383724 0.044464737 -0.06948541 -0.00073273253
0000f0 58 86 06 bd 10 7c 06 3c b8 be a4 bd e8 fc ec bc
       -0.032842964 0.00820829 -0.08044189 -0.028929189
000100 ea 3c 8b 3d 48 18 18 bb 25 1d 2f 3d de c4 e8 bc
       0.06798728 -0.0023207832 0.042752404 -0.028414186
000110 68 4e 98 bd ba 46 6f 3d 90 37 b4 bc a2 09 37 bd
       -0.0743683 0.05841706 -0.02199915 -0.04468692
000120 e6 4f 0e be 81 0a b3 bd 1b 29 a8 bd f0 40 76 bd
       -0.13897666 -0.08742238 -0.08210965 -0.060120523
000130 99 37 09 3d 5d 22 99 bd 85 38 98 bd 53 99 9b bd
       0.033500288 -0.074772574 -0.07432655 -0.07597604
000140 27 6c 43 bd fa 5b 9f 3c 60 b8 8d bd 16 be 27 3d
       -0.047710564 0.019453038 -0.06919932 0.040952764
000150 10 24 a2 3c 10 13 b2 bd e8 a9 80 bd fd 66 a1 3c
       0.019792587 -0.08695042 -0.06282407 0.019702429
000160 a4 58 4b 3d d4 ef 12 bc cf 6d 90 bd 07 f6 a3 bc
       0.04964508 -0.008968312 -0.07052194 -0.020014776
000170 13 46 8c bd 08 58 be 3d c2 75 89 3d bf b8 d5 bd
       -0.06849303 0.092941344 0.06711914 -0.10435628
000180 62 bb d5 3d 23 18 dd 3d 61 d1 92 bc c3 dd 5f bd
       0.10436131 0.10795619 -0.017922105 -0.054654848
000190 90 c1 c0 3d fe f3 2b 3d 7b a4 00 3c 67 08 6d 3d
       0.09411919 0.041980736 0.007851715 0.05786934
0001a0 79 a1 04 3d 9a 23 c1 3d aa 1a db 3d c8 47 5c 3d
       0.032380555 0.094306186 0.10698445 0.053779393
0001b0 ae ec d9 bc d3 cd c9 bd 88 a7 db bd 7f f8 c2 bc
       -0.026602115 -0.09853711 -0.107253134 -0.023800133
0001c0 b3 fa c6 bd d9 24 be 3c 1c ca 79 3d 87 b0 45 bd
       -0.09715786 0.02321093 0.060983762 -0.048264053
0001d0 90 1c aa bd de 28 f9 bc 41 58 59 bd e2 63 df 3d
       -0.08306229 -0.030414995 -0.05306268 0.10907723
0001e0 29 62 6d bd 10 98 48 36 1e 76 85 bc 21 e4 22 bc
       -0.05795494 2.9890834e-06 -0.016291674 -0.0099420855
0001f0 e7 48 e2 3d cb aa b0 3d 60 36 b6 3d c7 51 c5 bd
       0.11049061 0.08626326 0.0889709 -0.096347384
000200 04 0e 64 3d 6e 1c dd bd 5d 05 93 bd a2 1b 46 3d
       0.05567743 -0.10796438 -0.07178757 0.048366196
000210 74 55 fa 3c 46 13 d8 bd 46 b4 b2 bd a8 26 84 bd
       0.030558325 -0.10550551 -0.08725791 -0.064526856
000220 16 5a b9 bd 6a 4e 8c 3d d7 4f 52 3d 9d 1f d7 3d
       -0.09050386 0.06850894 0.051345672 0.10504077
000230 1c 78 e7 bd 2b 0b 35 bd 80 91 70 bd 94 fe cb bd
       -0.11302206 -0.044200104 -0.05873251 -0.09960666
000240 be ce ec bc 42 b2 9e 3d 35 2e a3 bd a7 98 a0 bd
       -0.028907176 0.07748844 -0.07967798 -0.07841616
000250 22 3d 5c 3c 03 c0 58 bc e2 30 01 be 2e 51 8b bd
       0.01344231 -0.013229373 -0.12616304 -0.06802593
000260 80 da 5a 3d f9 36 55 3c 1f d0 ca 3d ba f9 de bd
       0.053431034 0.013013595 0.09902977 -0.10887475
000270 61 43 6a bd 7b d6 53 3b c7 e1 9f 3d a9 ef 44 bd
       -0.057193164 0.0032323885 0.078067355 -0.04808012
000280 dc 58 ac bd 18 a2 42 bd b6 b9 18 3d 00 bc c4 3d
       -0.08415386 -0.047517866 0.037286483 0.09606171
000290 23 92 57 3d 83 77 8f 3c 8c bd e1 3d 53 a8 7f 3d
       0.0526296 0.017513042 0.11022481 0.062416386
0002a0 2f 54 19 bc bf c4 cf 3d 81 fd ae bd 68 1e 47 3c
       -0.00935845 0.10144948 -0.08544446 0.0121532455
0002b0 95 5d 9e 3c e8 cf ae bd 3a 38 be 3d b2 1d 25 bd
       0.019331733 -0.08535749 0.09288068 -0.040311523
0002c0 24 01 85 bd a0 d3 8b 3d f8 79 d3 bd 8b 99 67 bd
       -0.06494358 0.06827474 -0.10325998 -0.056542914
0002d0 2c 3e b7 ba 2c 6e 52 3b fc ba c5 3b b5 59 cc bd
       -0.0013980321 0.0032109125 0.006034253 -0.09978048
0002e0 9b ab b8 bd ce 1d 88 bd ab 35 c3 3d 3b cc 91 bc
       -0.09017106 -0.0664631 0.09531721 -0.01779758
0002f0 12 18 a7 bd 4e 00 1a 3c 39 c8 0d 39 72 b5 d8 bd
       -0.08158888 0.009399487 0.00013521397 -0.10581483
000300 b5 9e 6f 3d 5e 87 b9 3d e6 d9 b3 3d 81 9e 73 3d
       0.058500964 0.09059022 0.08781795 0.059477333
000310 06 cd d1 3d 38 2e ce bc 9d bc 3b 3d ab fa 2f bd
       0.10244183 -0.025168523 0.045834173 -0.042963665
000320 7b 1e a9 3b a6 d6 c0 bd af 6b c4 bd 09 00 0a 3d
       0.0051611043 -0.09415941 -0.095908515 0.03369144
000330 45 18 9c 3d b4 f0 5a bd a9 d3 e9 3d 5b 9f c5 bd
       0.076218165 -0.05345221 0.11417324 -0.09649535
000340 9a 7d 68 bd 23 6d 22 3d 43 4a 92 3d 57 8a d4 bd
       -0.056760408 0.039654862 0.071430705 -0.10377949
000350 cf 4f b4 3d 34 b8 e2 3c 5d 53 69 3c 7b 77 6d 3d
       0.08804285 0.027675726 0.014241067 0.057975274
000360 d3 0d e9 bd ef 21 bd 3d 89 95 48 bd 4a 42 a6 bd
       -0.1137959 0.09234988 -0.048970733 -0.081181124
000370 6d e9 05 3e b3 9f e2 3d 05 9a 52 3d 5f f1 9e 3d
       0.13077326 0.110656165 0.051416416 0.07760882
000380 4f fb 4d 3d 3d e0 0a 3d 7e 1f 06 3e 6f b6 d4 bc
       0.050288495 0.033905257 0.13097951 -0.025965897
000390 e5 3e 91 3c ba ca d3 bd 9b 3a 2b 3c 62 3a 23 bd
       0.017730186 -0.103414014 0.010450984 -0.0398506
0003a0 9d 2c ce bd 39 68 e1 3c ab fb 93 bd e3 d6 8e 3d
       -0.10067103 0.027515518 -0.07225736 0.0697458
0003b0 3c 4d e8 3c e0 f9 8d bd c4 93 d4 3d 63 eb 6f bd
       0.02835714 -0.069324255 0.103797466 -0.05857409
0003c0 67 d1 58 bc f6 c5 f1 3c 2b 06 2a bc 63 bf 84 bc
       -0.013233519 0.02951334 -0.010377447 -0.016204542
0003d0 08 84 d9 bd 4b 2a 9c 3d 32 41 87 3c d8 20 cf bd
       -0.10620886 0.07625254 0.01651058 -0.10113686
0003e0 e4 4b ae 3d 8e df d0 3c 48 3e cd bd c0 a8 ce bd
       0.08510569 0.025497224 -0.10021645 -0.1009078
0003f0 4a db 2e 3c 8e 7b ce 3d 44 d5 cb 3d 13 67 09 bc
       0.0106724 0.1008216 0.099527866 -0.008386391

model.0.bias f4 [512]
000000 c0 82 08 3d d8 8c 86 3d 07 78 04 bd db 93 8f 3b
       0.033327818 0.065698326 -0.03234103 0.0043816394
000010 1f 25 34 3a c4 a9 04 bd 64 12 d2 bd e4 f9 ac bb
       0.00068719866 -0.032388464 -0.10257414 -0.0052788127
000020 ae dd 8f bd 8d 00 51 bd 5b 8e ad bd ed 56 19 bd
       -0.07024704 -0.051025916 -0.08474418 -0.037436415
000030 07 36 9e 3d 1c 1c 31 bd 9e a0 0c bd 27 16 da 3c
       0.07725149 -0.043239698 -0.034332864 0.026621891
000040 8e 2b be bd 1d 18 78 bc fc 7b b3 bd 5e d9 19 3d
       -0.09285651 -0.015142468 -0.087638825 0.037560813
000050 66 2e 63 3d da 39 b5 3c 69 41 94 bd 04 7e 97 bd
       0.05546417 0.022122312 -0.072390385 -0.073970824
000060 0e 45 74 bd 62 66 e7 3c 05 0d 32 bc 9a 41 b2 3d
       -0.05963617 0.028247062 -0.010867362 0.08703919
000070 6b 31 33 3d 94 ff 87 bc 88 5b 93 3b 4c da 0a bd
       0.0437483 -0.016601361 0.0044969954 -0.03389959
000080 2a 82 76 3c 6e 8e ad bc c8 e6 61 bd 76 e7 a9 bd
       0.015045682 -0.02118608 -0.05515173 -0.08296101
000090 49 ee 7a 3d 08 0a 8b 3a 14 0b ce bc 75 1c ae 3c
       0.061262403 0.0010607848 -0.025151767 0.021253804
0000a0 75 62 c8 3d 13 d3 8e bb 06 b7 db 3d 18 06 98 bd
       0.09784404 -0.004358658 0.10728268 -0.07423037
0000b0 02 b9 cc bd be b0 a0 bc d2 31 ad bd cf da 14 bc
       -0.09996225 -0.019615527 -0.08456768 -0.009085371
0000c0 7f df 68 bd aa 01 e7 3d 12 27 28 bd cd 5f fa 3d
       -0.056853767 0.11279614 -0.041052885 0.12225304
0000d0 eb dc 95 bd 2c 83 77 3d ed 10 8b 3d 18 39 cf 3d
       -0.073175274 0.06042783 0.06790338 0.10118312
0000e0 01 63 43 bd 6b b4 2e bd 64 e1 e8 bd 27 e9 ac bd
       -0.04770184 -0.04265253 -0.11371115 -0.08442908
0000f0 8d 13 d6 3c 88 92 ef bb 45 c8 a4 3d 6a 4d aa bb
       0.02613237 -0.007311169 0.08046011 -0.0051972168
000100 a3 8b 31 bd e9 08 56 bc 22 44 f9 3c 38 20 9b bd
       -0.04334606 -0.013063648 0.030427996 -0.075745046
000110 ff 3e 9e bd b0 c2 a3 bd 37 08 f1 bd 45 4b 2d bd
       -0.07726859 -0.07996118 -0.11769145 -0.04230811
000120 4b cf f7 3b 18 ce 08 bc 06 78 ba bd 3a d4 cb bc
       0.007562553 -0.008349918 -0.09104924 -0.024881471
000130 20 ab 20 3d a1 53 e5 bc 3a 58 de 3d ce 9e 03 bd
       0.039225698 -0.027993979 0.10856672 -0.03213387
000140 23 59 43 3c ba 3e f2 3d c2 92 a0 3d e6 14 b8 bd
       0.011923107 0.118283704 0.07840492 -0.08988361
000150 52 97 cd bd 6f 49 d2 3d 03 f2 d8 bd e1 c2 a4 bd
       -0.10038628 0.102679126 -0.10593035 -0.08044983
000160 45 2a 84 3d 31 de c1 3d 29 7e 97 3d 02 e4 ab bd
       0.06453375 0.09466208 0.0739711 -0.083930984
000170 99 8e 16 bd 68 f4 81 3d ae 7d 37 bc e2 a7 4e 3d
       -0.036757085 0.06345445 -0.011199398 0.050453074
000180 81 25 81 bd 5e 5b 00 3e bc 23 b5 bc 16 ae 08 bd
       -0.063059814 0.12534854 -0.022111766 -0.033369146
000190 73 d1 06 3c 8f 56 6e bd 15 71 14 3d 25 ef 83 3d
       0.0082286475 -0.058188017 0.036240656 0.064420976
0001a0 52 5c 2c 3b 2c 0e 67 bb ca d0 4e 3c 93 04 db 3d
       0.0026300144 -0.003525625 0.012623021 0.10694232
0001b0 8f 07 04 3c 01 fa fa bb 20 ef 1f 3c 6f 05 35 bd
       0.008058443 -0.0076591973 0.009761602 -0.044194635
0001c0 5c a3 c3 3d af 65 d1 bc 84 00 84 3c 6f 1f a5 3d
       0.09552643 -0.025561182 0.016113527 0.08062636
0001d0 c1 2f b1 3d ac b4 a2 bd 76 37 aa bd 1c fb c6 3d
       0.086516865 -0.07944617 -0.083113596 0.09715864
0001e0 86 60 88 bd f1 9c 96 bd b6 87 9b bd 51 30 d7 bd
       -0.066590354 -0.07354153 -0.07594244 -0.105072625
0001f0 43 0a 7f 3d 29 ac 34 3d 93 9c a1 bb 9e 64 95 3c
       0.062265646 0.044109497 -0.004931995 0.018236455
000200 f7 cb 79 bb 35 4a bc bd b0 bd 72 bd 75 41 d3 3d
       -0.0038115957 -0.09193841 -0.05926293 0.10315219
000210 46 1d 4d bd 81 18 d9 3d f1 52 f5 bc f4 20 9e bd
       -0.050076745 0.10600377 -0.029946776 -0.07721129
000220 41 3c ce 3d 72 15 06 bd 69 43 a4 bd bd 80 7d 3d
       0.10070086 -0.032735296 -0.0802067 0.061890353
000230 c8 3c c7 bc ee 0b c2 3a c0 7e e6 3c a0 db d3 3d
       -0.024320975 0.0014804581 0.028136611 0.103446245
000240 09 f1 ba bd e9 8b 64 3c 3d c7 73 3c d2 7a 2c bd
       -0.09128005 0.013949373 0.014879045 -0.042109318
000250 18 b5 86 b6 17 6d b2 3d ae 41 a2 bd 65 cc 82 3b
       -4.0145933e-06 0.087122135 -0.07922684 0.003991651
000260 05 de 1c bd 1d 5b 80 bd 62 2e 7b 3d e0 95 f3 bc
       -0.03829767 -0.062673785 0.06132353 -0.029734552
000270 bb 93 4d 3d 87 61 25 3c 3c 9b 82 bd 3f 8d 33 bd
       0.050189715 0.010094053 -0.06377265 -0.043835875
000280 a7 3e 6e bd 32 bd 8e 3d bd d9 91 bd 9a 6d 6e bc
       -0.05816522 0.0696968 -0.071216084 -0.014552498
000290 d0 d8 1b 3d 83 27 86 bd dd d7 8c 3d 00 ee e6 bd
       0.038048565 -0.06550505 0.0687711 -0.11275864
0002a0 f8 b8 a1 bd 9a 82 96 bc 48 02 0e bc 53 e3 de 3c
       -0.07896608 -0.018372823 -0.008667536 0.027208006
0002b0 7a d2 f1 3d 90 77 bf bc 9f d1 00 bd 55 eb b4 3c
       0.11807723 -0.023372442 -0.03144991 0.022084871
0002c0 cd 41 6e bc 6d 45 fc bc 3c 66 02 bd f3 c7 be bd
       -0.014542055 -0.030794824 -0.03183578 -0.09315481
0002d0 20 2c 07 3d 05 be b1 3c 7c 2d 01 bc 55 d4 6a bc
       0.033001065 0.021697054 -0.0078843795 -0.01433285
0002e0 b4 50 37 3d a8 20 da 3b a0 e4 86 3d b2 c0 3c 3d
       0.0447547 0.006656725 0.065865755 0.046082206
0002f0 f1 87 27 3d d8 82 cf 3d 0b c2 88 3d b3 13 a5 bd
       0.04090113 0.10132378 0.06677636 -0.08060398
000300 0b cb 1f 3d 65 03 92 3d e6 e0 77 bd a4 09 d5 bd
       0.039011996 0.07129554 -0.060517214 -0.104022294
000310 3a 32 d0 3c 64 14 56 bc e2 23 30 3d 6f fd ca 3d
       0.025414575 -0.013066385 0.04300297 0.0991162
000320 c7 ea a4 bd 94 cd 98 3d e3 6d f0 bd 10 f8 00 3d
       -0.08052593 0.07461086 -0.11739709 0.03148657
000330 de a3 7a 3d 11 b7 c4 bd 23 c8 d3 3d 4a 21 02 3d
       0.061191432 -0.0960523 0.103409074 0.03177003
000340 6e 10 b3 bd c4 33 23 bd 30 07 15 ba a2 ca 64 3d
       -0.08743368 -0.03984429 -0.000568497 0.05585731
000350 82 9a 6b 3d 99 00 bb bc 74 e6 a1 3d cb 6b 43 bd
       0.057520397 -0.022827433 0.079052836 -0.04771022
000360 eb c7 9a bd 80 ec 32 3d bd cb b9 bb e0 c1 8b bd
       -0.075576626 0.043682575 -0.0056700394 -0.06824088
000370 ff cc 82 bd 82 45 3a bc eb 58 9a 3b 98 1e 8e 3c
       -0.06386756 -0.011369111 0.004710307 0.017348573
000380 2a 5e b8 3d b7 26 52 3b a8 01 fa 3c 30 9f df bc
       0.09002335 0.0032066533 0.030518368 -0.027297586
000390 09 58 6b bc b0 54 b8 bd c7 ea 8f 3c e3 0d cd 3d
       -0.014364251 -0.09000528 0.017568005 0.10012414
0003a0 ab 52 70 bd 5e af ab 3d eb 7d 94 bd 2a d7 18 3c
       -0.05867259 0.08383058 -0.072505794 0.009328643
0003b0 b7 21 b1 bd c5 e0 84 3d 2f ab 43 bd 0a 0c 19 bb
       -0.08649009 0.06488184 -0.047770675 -0.0023353123
0003c0 85 2b 94 bd bf 02 a3 bd fa 94 46 3d a4 a8 be 3c
       -0.07234863 -0.07959508 0.04848192 0.023273773
0003d0 ce c8 9d 3d b1 52 2b 3c bf 64 a8 3c 6e 62 27 3d
       0.07704316 0.010456727 0.020555852 0.040865354
0003e0 cf 65 34 3d 8f e0 e6 bc be 50 de bd de d8 aa 3b
       0.044042405 -0.02818325 -0.10855244 0.005213841
0003f0 2e ee 63 3d 15 ca 33 bb 5f a0 f9 3d 80 91 c4 3d
       0.055647068 -0.0027433683 0.121887915 0.095980644

model.2.weight f4 [256, 512]
000000 60 09 5c bd cc 6f 90 3c 66 d9 cd 3c c9 4d 34 bd
       -0.05371988 0.017631434 0.025128078 -0.044019494
000010 e8 8c 8c 3c e0 da 45 bb 5e 81 dd bc 2e 7c df 3c
       0.017157033 -0.0030190274 -0.027039226 0.027280893
000020 d8 3e 0c bd bc 65 2b bd 73 d3 9c bc 78 81 c3 3b
       -0.03423962 -0.04184507 -0.019143796 0.0059663616
000030 bc ec 03 3c c0 bb 35 bc d7 a2 86 bc 95 2a 0f bd
       0.008052047 -0.011092126 -0.01643507 -0.03495272
000040 82 30 9c bc f5 68 bc bc 44 bb 86 3c dd d0 7b bc
       -0.0190661 -0.022999266 0.016446717 -0.015369621
000050 88 86 e2 3b 63 a9 a4 bc 1a 09 04 bd 99 e8 0d 3d
       0.00691301 -0.020100301 -0.032235242 0.03464565
000060 5f 1c 25 bd 0a ed bf bc 9c e6 86 bc 0d 4c 0d bd
       -0.04031026 -0.023428459 -0.016467385 -0.034496356
000070 c4 ec 08 bd bf 3d e1 bc ce a9 76 bc f0 9a eb 3b
       -0.033428922 -0.027495263 -0.015055133 0.007190101
000080 f7 3f 36 3d db 44 85 3c 46 34 1c bd 04 d0 60 bc
       0.044494595 0.016268184 -0.03813579 -0.01372147
000090 e0 6c 14 3a d8 d5 a9 bb da cf 51 bc 0b 9f 83 3c
       0.00056619756 -0.005182963 -0.012805903 0.016067049
0000a0 58 00 cf 3b 66 cc 83 bd 0e db 35 3d 56 a5 f8 3c
       0.0063171797 -0.0643547 0.04439836 0.030352276
0000b0 32 ab 08 bd 6b 82 29 bd 0c d1 32 3b b7 cb 2c bd
       -0.03336639 -0.041384142 0.0027285246 -0.042186465
0000c0 2d 16 5e 3c 84 57 d0 bb 7b 29 2c 3d 68 6c 0c 3c
       0.013555092 -0.006358089 0.042031746 0.008570768
0000d0 07 e9 30 3d ee 0f 4d bd dc 8b e7 bc ca 23 96 bc
       0.043190982 -0.05006402 -0.028264932 -0.018327612
0000e0 05 f8 2b 3c 34 66 a0 3c 91 fd 54 3c 94 2c 06 bb
       0.010496144 0.019579984 0.012999908 -0.0020473348
0000f0 46 86 a8 3c 7f 7a b6 3c 24 79 53 3d dd 90 0e bd
       0.020571839 0.022275208 0.0516292 -0.03480612
000100 2c 46 0d bd c5 77 2b bd fa 85 d9 bc 25 00 4d 3b
       -0.03449075 -0.041862268 -0.026553143 0.0031280604
000110 39 16 0f 3b 6d 64 f1 bc 6e 82 04 bc 92 cb 08 bd
       0.0021833314 -0.029466832 -0.0080877375 -0.033397265
000120 e6 e0 4c bc 74 9c c5 3b 9d d4 99 bc 0d 1f bc bc
       -0.012504792 0.0060306136 -0.01877814 -0.022964025
000130 0a 46 67 bb 80 07 84 3c 24 ee af bb 27 65 92 3b
       -0.003528955 0.016116858 -0.0053689647 0.0044676247
000140 cf b6 93 3c 62 b9 c8 3c 9f 54 f5 3c 8d bd 20 3d
       0.018031506 0.02450246 0.029947577 0.03924327
000150 1b 31 a3 bc 28 94 2f 3d fd 4d 8a bb 85 7e dd bc
       -0.019920876 0.042865902 -0.0042207227 -0.027037868
000160 00 c2 11 3c 4c 38 9e bb 9d 6e 49 3d b5 7d f6 bc
       0.008896351 -0.0048284885 0.049177755 -0.030089239
000170 67 20 f4 3c 2a 16 07 bd c1 1f 4e 3d 40 a1 ec bb
       0.029800607 -0.03298012 0.05032325 -0.007221371
000180 88 b3 cb ba 69 8b de bb af 54 1c 3c 89 05 f7 3b
       -0.0015541175 -0.0067915213 0.0095416745 0.0075385016
000190 3f 0e 8e bb ca d5 4c 3d 54 7d 72 bc 39 48 40 3d
       -0.0043351944 0.050008573 -0.014800388 0.046943877
0001a0 77 d4 ec 3c 14 e0 74 bc 6e a1 f0 bb 1f c0 83 bb
       0.028909905 -0.0149460025 -0.0073434627 -0.0040207054
0001b0 48 11 97 3c 4f f4 38 3d e8 20 b1 bc 54 3d 51 bd
       0.018440858 0.045154866 -0.021622136 -0.051083878
0001c0 f4 00 2a 3b 11 91 dc 3c 93 27 5e bc f5 36 5c bc
       0.002594051 0.026924642 -0.01355924 -0.013440837
0001d0 a9 62 b1 3c 7f 56 cd 3b f1 f7 c1 bc 7d b3 ad bc
       0.02165349 0.0062664147 -0.023677798 -0.02120375
0001e0 5b 26 26 3d fc b7 13 3c d1 3a 4d 3c fe 19 b8 bc
       0.040563922 0.009016033 0.01252623 -0.022473332
0001f0 92 28 e6 bc 44 7f 14 3d 90 4b 38 3c d1 b6 05 3c
       -0.028095517 0.036254182 0.011248484 0.008161263
000200 35 94 1a 3c c1 d1 b4 3c ed ac fe 3c 20 bd 54 3d
       0.009434749 0.022072675 0.031088317 0.051938176
000210 bc 95 60 3c a8 84 4b bb db 8b b7 3c 57 1a 9b bb
       0.013707574 -0.003105441 0.022405555 -0.0047333646
000220 4d f6 9d 3d 40 e1 9b bc a3 f5 8a ba 51 43 d2 3c
       0.07712994 -0.019028306 -0.001060177 0.025666865
000230 87 fa b7 3c 00 4e 69 3d 94 b5 6d bc 83 b9 5a 3d
       0.022458328 0.056959152 -0.014508624 0.053399574
000240 0e d9 e0 3c 71 10 0e 3d be e4 b8 3a 85 6a 31 3d
       0.02744725 0.03468365 0.0014106256 0.043314476
000250 c7 22 b1 bb 4b 1c 89 bc 97 eb 12 bc 54 30 5a 3c
       -0.005405757 -0.016737124 -0.008967302 0.013317186
000260 31 68 85 3c ec 3c 24 3d 56 69 aa 3c 0c d3 74 3c
       0.016285034 0.040097162 0.020802181 0.014942896
000270 14 64 93 3d 06 33 bf 3c db 9d 18 3d e5 f1 0d bd
       0.07196823 0.02333976 0.037259918 -0.034654517
000280 f6 82 c6 3c 8e 8d ae 3c 97 13 bc bc e4 6b b5 bd
       0.024232369 0.021307733 -0.02295856 -0.08858469
000290 56 54 80 3d 94 1e 58 3c 08 ca 90 3d 92 90 41 bc
       0.06266086 0.013190884 0.070697844 -0.011814253
0002a0 0f 51 0e 3d 04 bd 66 3b 43 16 91 bd e0 0c e5 bc
       0.034745272 0.0035207877 -0.07084324 -0.02796024
0002b0 46 e3 da 3c e0 0b 05 bc 26 3b c4 3c ab 06 58 3d
       0.0267197 -0.008120507 0.023953985 0.052740734
0002c0 43 5a 29 3d 77 52 b8 bc c6 68 c1 3a f9 06 ef 3c
       0.041345846 -0.02250026 0.0014755956 0.02917813
0002d0 e5 3e eb 3c 3c dd 0e bd 00 8d 88 bb e0 ec ec bc
       0.028716514 -0.034878954 -0.004167199 -0.028921545
0002e0 0c 97 b9 3c c3 c2 33 bc fd e0 d6 3c 0c 5f 8e bc
       0.022655033 -0.010971728 0.02623033 -0.017379306
0002f0 22 15 04 3c 2d 5f 8e 3c b7 48 6a 3c 06 33 ba 3b
       0.008061679 0.017379368 0.014299563 0.005682352
000300 ae 3f 89 3b fb e5 0b bc 47 08 52 bc f2 b9 1a bd
       0.0041884994 -0.008538718 -0.012819356 -0.037774988
000310 29 57 12 3c 02 98 4d bd 32 bb 44 bd f5 12 f0 3b
       0.008931913 -0.050193794 -0.048030086 0.0073264786
000320 60 5b ba 3b d4 ca 24 3c 4f 36 c2 bd 73 1a 00 3c
       0.0056871623 0.010058124 -0.09483015 0.007818806
000330 1a cd de bc fb 52 3b 3c 73 79 42 3c dd 0a 86 3c
       -0.02719741 0.011433358 0.011869776 0.016362602
000340 09 9b 8b ba 05 22 06 3d b2 f7 40 bb 17 29 04 3d
       -0.0010651062 0.032747287 -0.0029444513 0.03226575
000350 c2 ca 80 3c 2d 9b 50 3b 04 77 23 bc a2 16 89 3d
       0.015721682 0.0031830773 -0.009977106 0.0669377
000360 e8 0b 42 3d 08 f4 c1 3b 46 a8 34 3d 93 90 dc bc
       0.047374636 0.0059189834 0.04410579 -0.026924407
000370 a6 07 98 bc 54 38 2d 3b ea 8b 33 3d bd 13 a5 bc
       -0.018558335 0.002643128 0.043834604 -0.020151014
000380 b5 cd 8d 3c 0e e9 56 3d 29 e5 13 bc 4a 73 c3 3c
       0.017310003 0.052468352 -0.009026804 0.023858685
000390 a2 1f 51 3c d1 37 57 bd c1 a4 5f bd 7b 1a 9f 3b
       0.0127638895 -0.052543465 -0.05460048 0.0048554516
0003a0 2f 22 32 3d 64 a5 3a bd a1 28 5f bc 9c 52 36 3d
       0.04348963 -0.045567885 -0.0136205265 0.044512376
0003b0 13 42 67 bc 75 6c 2e 3c a9 67 0d bd d8 76 98 bc
       -0.014114874 0.010645975 -0.034522686 -0.018611357
0003c0 bd e2 2b bc d6 1b f1 bc 79 a7 70 bc 2f 1c 23 3d
       -0.01049107 -0.029432219 -0.014688366 0.0398218
0003d0 cf d1 79 3b 08 e4 a7 bc 82 76 15 bb f2 e1 14 bd
       0.003811944 -0.020494476 -0.0022806232 -0.03634829
0003e0 3b 13 2f bc a3 9a cb 3c 03 f5 8b bc 4c 90 5c bc
       -0.010685737 0.02485401 -0.017084604 -0.013462137
0003f0 d0 8e 24 3d ca 5b 17 3d 80 be 9a 3c a6 c3 0c bd
       0.04017526 0.03695277 0.018889666 -0.034366272

model.2.bias f4 [256]
000000 0e 76 5a 3a b2 26 7c bc 3e e8 0b 3d b4 6c f4 3c
       0.00083336316 -0.015390085 0.03415703 0.02983699
000010 96 ba fa bc b7 5a 34 3c 83 b1 07 bd b9 e3 0d 3d
       -0.03060655 0.011007956 -0.033128273 0.034641
000020 53 99 88 3c da 43 17 bb c7 48 58 3c e9 ca 2e ba
       0.016674673 -0.0023081214 0.013200945 -0.0006667809
000030 0c 79 36 3b 7b b7 31 3d e9 31 51 3c 65 0a 4f 3b
       0.0027843146 0.04338787 0.012768247 0.003159189
000040 33 50 24 bc ad 38 1b 3b 2c 33 dc 3c af 15 28 bd
       -0.010028887 0.0023684904 0.02687987 -0.041036304
000050 0c 3c 50 bd 4b b9 3f 3d a3 19 19 3a 3a f3 ea bc
       -0.050838515 0.04680757 0.0005840307 -0.028680433
000060 bd 84 04 bd 3c a3 34 3c 0d da 0b bd 6b cd 7c 3c
       -0.03235315 0.011025246 -0.034143496 0.015429835
000070 8d 60 b7 bc f7 00 0c bd 72 5d 9f 3b c4 d2 3f bc
       -0.022384906 -0.034180608 0.0048634345 -0.011707965
000080 0c 36 a2 bc c1 bc c3 3c 95 ba a5 3c 99 d9 9e 3b
       -0.019801162 0.023893716 0.02023057 0.004847717
000090 e1 f0 a8 bc b7 fe 95 bc c9 f6 0b bd b1 86 a5 bc
       -0.020622673 -0.018309934 -0.0341709 -0.020205827
0000a0 42 22 38 bd 05 2d b4 bc a4 31 bb bc bc 63 ba bc
       -0.044954546 -0.021994123 -0.022850819 -0.022752635
0000b0 42 8a d5 3c b3 55 f2 bb 7e 8d 49 3d f4 0a 8b 3a
       0.026066903 -0.00739547 0.049207203 0.0010608123
0000c0 ee 35 2f 3c 62 5f e8 3b 6b ec d3 bc d8 61 c8 bb
       0.01069401 0.0070914486 -0.025869569 -0.0061151795
0000d0 e0 96 9a 3b e8 80 df bb 07 fd 34 3d 62 29 d9 3c
       0.0047176927 -0.0068207867 0.04418662 0.02650899
0000e0 2f 2e 30 3d f0 d4 62 3b 63 e6 71 3c f8 36 47 3c
       0.043012794 0.0034611784 0.014764401 0.012159102
0000f0 1c a7 06 bd 50 f1 97 bc 86 0e 19 bc ce dd f3 3c
       -0.03287421 -0.018547684 -0.009341842 0.02976885
000100 b1 0f 51 bc 69 55 ee 3c 11 74 d5 3c 3f c7 9b 3c
       -0.012760089 0.029093461 0.026056321 0.019015906
000110 c3 1d af bc af 04 69 bb 8b 26 fe 3c d2 2d 38 3d
       -0.021376496 -0.003555577 0.031024238 0.044965573
000120 a2 78 86 3c 4e 78 20 bc 02 fd 8f bc 49 c0 06 bd
       0.016414944 -0.009794308 -0.017576698 -0.03289822
000130 a8 cb 82 3b ae 1e 9d bc 48 3e 0c bd 75 de 3e bc
       0.003991563 -0.019179668 -0.034239084 -0.011649718
000140 a3 18 1d 3d 97 81 92 bb 59 9b 55 3d 01 02 a3 3c
       0.038353574 -0.0044710147 0.052150104 0.019898416
000150 6c ba 17 3d fc 9c 1b bd 1b c7 91 bc 18 61 c7 3c
       0.03704302 -0.03799151 -0.017795136 0.02433829
000160 92 02 e9 bb 40 a4 17 3d 61 fd 05 bd 53 af bf bc
       -0.007110902 0.037021875 -0.032712344 -0.02339903
000170 c1 1b c5 3c b2 72 f5 bc c7 6e ef 3b 5b 93 b1 3c
       0.024061086 -0.029961918 0.007306907 0.02167671
000180 ec cc ce bc 93 f3 04 3d 8e ce 40 3d 07 73 d1 ba
       -0.025244199 0.032458853 0.047071986 -0.0015979715
000190 cc fb 41 3c de 6f 2c bd c4 25 40 3d c7 c5 d5 bc
       0.011839818 -0.042098872 0.046911016 -0.026095284
0001a0 34 17 8d bc 92 74 5c bc 1e 71 d4 ba 22 60 b6 3c
       -0.017222978 -0.013455527 -0.0016208028 0.022262637
0001b0 85 c9 20 bc 73 d7 3d bb ac 78 11 3d c6 8a b3 ba
       -0.009813671 -0.002896753 0.035515472 -0.0013697974
0001c0 7a 15 fa bb 52 a1 1a bd 75 9e e2 3c 80 f3 09 3d
       -0.0076319547 -0.037751503 0.027663449 0.033679485
0001d0 b7 80 4f 3c e4 10 27 3d b9 34 dc 3c 84 7a e7 3c
       0.012664965 0.040787593 0.026880609 0.028256662
0001e0 e3 a2 d9 bc cc 87 28 bb b4 fd 36 3d fc 54 98 bc
       -0.026566928 -0.0025715707 0.044675544 -0.018595211
0001f0 c1 b8 3f 3d c2 fb ca bc fb 52 55 bc ff ee 24 3d
       0.046807054 -0.02477825 -0.013020272 0.040266987
000200 2f fb 06 bc 52 bb 06 bd eb aa b5 3c 6f e2 0d 3d
       -0.008238598 -0.032893486 0.022176227 0.034639772
000210 d7 b7 fb bc 0e 6c 40 3b d7 86 03 bd 6e a5 bd 3c
       -0.03072731 0.002936128 -0.032111015 0.023150172
000220 2a ec 16 bd 48 db a5 3c 70 61 91 3c 5c 5e 4a 3c
       -0.036846317 0.020246163 0.017746657 0.012351599
000230 ca 2a d7 bc 11 86 38 3b 69 70 c2 bc 21 14 be 3c
       -0.02626552 0.0028156082 -0.023735242 0.023202958
000240 f3 fd 8a 3a 3e cf f0 bc 65 7d 73 bc 87 c8 39 3d
       0.0010604247 -0.029395696 -0.014861439 0.045357253
000250 f2 4d 8d 3c ce c7 23 bc 63 63 5a 3c 01 3c 45 bc
       0.017249081 -0.009996368 0.01332936 -0.012038232
000260 cd ef a8 bb 78 9c d3 3c dc 24 87 bb d5 b9 02 bd
       -0.0051555396 0.025831446 -0.004124267 -0.031915504
000270 45 bb ec 3c 78 24 e1 3c b7 0d 06 3c 58 3d 5a 3c
       0.02889789 0.02748321 0.008181981 0.01332029
000280 18 b7 34 3d c7 e1 a1 bc 6a f7 d3 3b 66 1e df 3c
       0.044119924 -0.01976098 0.006468703 0.027236175
000290 00 12 27 3b a9 98 e8 3c 28 22 c8 3c 98 61 74 3b
       0.0025492907 0.028393107 0.02443035 0.0037289616
0002a0 a8 fa 12 3c f8 a3 ba 3a e7 4a d5 bc 06 14 02 bd
       0.008970894 0.001423954 -0.026036693 -0.031757377
0002b0 90 75 38 3d 30 66 b8 3c a4 33 2e 3c 32 12 cb bb
       0.04503399 0.022509664 0.010632429 -0.0061972374
0002c0 97 53 0c bd 8f d4 1e 3d a3 f8 9f bc dc 00 c5 3c
       -0.034259405 0.03877693 -0.019527739 0.024048261
0002d0 37 5f a8 3c 41 9d 09 3c 71 5e 47 3d b9 dc 85 bc
       0.020553214 0.008399309 0.04867405 -0.0163406
0002e0 af 56 9d bc 74 44 28 3d ec e5 23 3d d6 44 6e ba
       -0.019206373 0.041080907 0.040014192 -0.0009089237
0002f0 a6 5d 36 bd 61 7d 2a 3d ee 60 3f 3d 51 b1 d8 3c
       -0.044522904 0.041623477 0.0467233 0.026451739
000300 fb 3f a5 3c 19 51 bb bc aa ee 46 3c c2 c3 b8 3c
       0.02017211 -0.022865819 0.012141863 0.022554282
000310 24 f4 bc 3c f3 28 6a 3c 77 c0 b6 3c c0 ab 2d b9
       0.023065634 0.01429199 0.022308571 -0.00016562548
000320 b0 34 aa bc 0e 19 0d 3d 57 fb 60 bd 84 f1 81 3b
       -0.020777076 0.034447722 -0.054927196 0.0039655585
000330 2f 74 80 bb ee c9 ae bc fb cd a1 bc d3 05 c0 3b
       -0.0039201 -0.021336522 -0.01975154 0.0058600693
000340 b6 31 d7 3c 2d 02 a3 3c 64 ce 10 bd f1 7f bd bb
       0.026268821 0.019898498 -0.03535308 -0.005783074
000350 91 12 a1 3c 7c 0e 1e 3d 42 d4 72 bb b7 45 5e 3c
       0.019662173 0.038588032 -0.0037052785 0.013566426
000360 32 c6 1d bc 94 39 9c 3c 6e 87 64 3c 00 81 13 bd
       -0.009629773 0.019070424 0.013948305 -0.036011696
000370 14 3d b5 3c 3e 44 37 3d d5 82 4b bc 6a 0d b9 bc
       0.02212385 0.044742815 -0.0124213295 -0.022589404
000380 08 0e ec 39 a0 c3 f5 3c 6b 9a e0 3c 91 74 d7 3c
       0.00045023882 0.030000508 0.027417382 0.0263007
000390 1b 0a 08 bd 3c b6 4a 3d a1 4c 18 3d a9 eb 99 3a
       -0.033212762 0.0494902 0.037182454 0.0011743206
0003a0 12 2d a1 bc 6a 10 06 3d d3 76 0c bd 84 e3 1b 3c
       -0.019674812 0.032730497 -0.034293007 0.009514693
0003b0 6c d8 d6 bb 31 bc ef 3c d0 25 34 bc 3d e0 ea 3c
       -0.006556561 0.029264541 -0.010995343 0.028671378
0003c0 b3 3a f4 3c 80 86 61 bc ff c8 ce bc 9f 5a 2b bd
       0.029813146 -0.013764977 -0.025242327 -0.04183447
0003d0 3d 39 9d bc db 41 1c bc b3 8f d7 bc 07 d7 bc 3c
       -0.019192332 -0.009537186 -0.026313638 0.023051752
0003e0 16 3f 9d 3c a2 74 f2 3c 77 16 97 bb d6 b9 50 bc
       0.01919512 0.02959663 -0.0046108323 -0.012739619
0003f0 a7 bf 6b 3d 7b f6 5d 3c 55 15 11 3d 73 34 0b bd
       0.05755582 0.013547535 0.035420734 -0.033985566

model.4.weight f4 [3, 256]
000000 db c6 89 3d 31 b2 01 bd 18 0f 2b bd 7d 9e af bb
       0.06727382 -0.031664077 -0.04176244 -0.0053594694
000010 04 6d 0a 3d e4 83 e8 bc b5 c6 80 3d 98 99 d5 3c
       0.03379537 -0.028383203 0.062879 0.026074216
000020 ff 8e 91 3d 93 1b fa bc 55 c4 cb bc 21 df 57 3c
       0.071073525 -0.030530727 -0.024873892 0.013175757
000030 ae ed 5f 3d cf 75 99 3d a0 c3 a1 bd d2 11 75 bd
       0.05467003 0.07493173 -0.07898641 -0.059831448
000040 fd 15 65 bc 96 64 75 bd 9e 1b ed 3c 51 a1 4b 3c
       -0.013982293 -0.05991038 0.028943833 0.012428598
000050 05 6e 13 bd 02 0a 82 3d 55 2e 58 3d b0 48 83 3d
       -0.035993595 0.06349565 0.05277856 0.064103484
000060 a2 e7 1f bd 31 3d 1f 3d 34 cf 9d bd 53 e5 64 3d
       -0.03903926 0.038876716 -0.077055365 0.055882763
000070 94 d3 46 3d 01 b7 61 3d 1c 3a c1 3b 0f b9 73 3d
       0.04854162 0.055106167 0.0058968198 0.059502658
000080 37 98 96 3d ef c9 e2 bd 7e 53 9b 3b 88 f6 20 bd
       0.073532514 -0.11073672 0.0047401777 -0.03929761
000090 53 5c f9 bc 8f 5e c8 bc b7 47 7b 3c e8 37 14 3d
       -0.030439531 -0.024459152 0.015336922 0.03618613
0000a0 a5 f3 2a 3d 14 f4 ae 3a f2 b6 2e bc 2c 0c 9f 3c
       0.041736264 0.0013347887 -0.010663735 0.019414984
0000b0 14 1d 72 bd 20 b0 53 3d 2e f4 ea 3c 0a f2 0d 3d
       -0.059109762 0.051681638 0.028680887 0.034654655
0000c0 98 37 42 3d bc 28 0b 3d 82 a9 71 bd 84 77 9f bd
       0.0474163 0.033974394 -0.058999546 -0.07786468
0000d0 86 f2 48 3c 5f e8 49 3c 08 76 5d bd ad 7c 66 3d
       0.012264853 0.012323468 -0.05406764 0.056271244
0000e0 68 5b 8d 3d 19 81 34 3d f0 a7 b2 3d b1 b3 8c bb
       0.069022 0.04406843 0.08723438 -0.004293882
0000f0 8d b3 1e bd d6 d6 7c bd 7a 5c a6 bc 02 76 9b bc
       -0.03874545 -0.06172832 -0.020307768 -0.018977169
000100 86 34 2c bc 67 6f 58 bd c4 f3 bd bd 5e 32 73 bd
       -0.010510569 -0.052840617 -0.0927501 -0.059374206
000110 3b dd f1 bb 60 d8 5f bd af 39 67 3d cb 17 af 3d
       -0.007381109 -0.05464971 0.056451496 0.0854946
000120 70 76 f9 3b fc 18 61 3a 25 da da 3b 7b ac 5d bd
       0.007612996 0.0008586792 0.006678837 -0.05411957
000130 6f 86 0e 3d 00 5e a3 bd 03 38 dd 3c a1 ac 94 bc
       0.034796175 -0.079769135 0.027004248 -0.018148722
000140 1d a1 c6 bc 0f fd 44 bd 89 50 a3 3d fb fb 82 3d
       -0.024246747 -0.048092898 0.07974345 0.06395718
000150 24 4c 81 bd 56 34 75 3c c7 55 c7 3c ac 66 e7 3c
       -0.06313351 0.014966091 0.024332894 0.0282472
000160 56 2e 7e 3d 72 46 b7 3c 49 a5 44 3d 6d 61 3d 3d
       0.06205591 0.022372458 0.04800919 0.04623549
000170 d0 4a d8 3c 3a 90 8a bd 82 29 83 3c d7 77 64 bd
       0.02640286 -0.0676579 0.016011003 -0.05577835
000180 6f bb 9c 3c 0c fa 2e bc 04 df 2a 3d 1e eb 36 bb
       0.019132344 -0.010679733 0.04171659 -0.0027911137
000190 bb 07 e2 ba 3f 9f 43 3c f5 3f b0 3c 37 5d 34 bd
       -0.0017244735 0.011939823 0.021514872 -0.04403421
0001a0 c2 a0 cb 3c a9 5d 45 bd 84 b6 92 bd 22 3d ea bc
       0.024856929 -0.048185024 -0.07163718 -0.028593604
0001b0 43 31 a5 3d d2 3a fb bc 63 9f 4b 3d cf e5 6e bd
       0.080660366 -0.030667696 0.04971255 -0.05832463
0001c0 c4 6e 1c bd a3 d5 85 bd 07 99 ae bc 0a 01 3f 3d
       -0.03819157 -0.065348886 -0.021313203 0.04663185
0001d0 19 ad e7 bd 12 61 32 3d 7c fb 9b bc 72 00 9e 3c
       -0.11312313 0.043549605 -0.019040816 0.019287322
0001e0 60 b4 07 bd 46 54 94 bc d5 41 df bb 88 33 38 3d
       -0.033131003 -0.018106591 -0.0068132677 0.04497102
0001f0 21 90 d4 3c ec d3 ff bc d4 52 8c bd 20 4d 2b 3d
       0.025947632 -0.031228982 -0.06851736 0.0418216
000200 74 a2 07 3c eb 5a 5a 3d ce 27 5e bd 94 e7 27 bd
       0.008278478 0.053309362 -0.05423718 -0.040992334
000210 cc 7b 8e 3c b8 5f 4c 3d e2 ad 96 3c b8 83 24 bd
       0.017393015 0.049895972 0.01839346 -0.04016468
000220 67 0a c6 3a fe 63 45 3d 91 e3 9b 3c 56 b4 c5 3c
       0.0015109301 0.048191063 0.01902941 0.024133842
000230 d3 8d 2f 3d 9a 91 67 3d 63 b3 43 3d be e4 7f bd
       0.042859863 0.05653534 0.0477785 -0.062474005
000240 b5 90 4e bd 27 28 98 3d c1 d0 40 3d aa e5 b8 3c
       -0.050430972 0.074295335 0.047074083 0.02257045
000250 b9 ed d2 bc ee 4a 50 bd 01 da ea bc cb a3 1a bd
       -0.02574812 -0.05085271 -0.028668405 -0.03775386
000260 13 27 71 bc cd a5 89 3c a6 48 11 3d d4 42 8a 3d
       -0.014718789 0.016802693 0.035469674 0.06751028
000270 fd e0 cd ba 62 c9 75 bc 1a 68 8f 3c 35 26 49 bd
       -0.001570731 -0.015001627 0.017505694 -0.049108703
000280 75 15 11 bd 45 0f 78 3c da 5f 31 bd c4 00 a4 3d
       -0.035420854 0.015140359 -0.0433043 0.080079585
000290 57 05 4e bd 1d 56 e1 bc 09 8c 84 bd 50 fb 1e 3d
       -0.05029806 -0.027506882 -0.06472022 0.03881389
0002a0 0d 19 86 ba 09 ff 31 3c 52 82 3c bb 33 3c 65 3d
       -0.0010230854 0.010864028 -0.00287642 0.055965614
0002b0 73 ae 1b bd 43 9b 43 bd 32 d6 82 3d f8 b1 b0 3b
       -0.038008165 -0.04775549 0.06388511 0.0053923093
0002c0 ff 91 b4 bc ae c8 88 3c 15 72 b3 3d 83 02 10 3d
       -0.022042273 0.016697254 0.08761994 0.035158645
0002d0 44 76 bf bd 84 c1 7e 3d eb 5c 51 3c da 0d 52 3d
       -0.09348729 0.06219627 0.012778501 0.05128274
0002e0 08 5a 4c bd d9 27 f3 3c af 19 2b 3c 94 4a 71 3d
       -0.049890548 0.029682087 0.010443135 0.058909014
0002f0 b5 95 21 3d 48 08 0d bc cb 54 c3 3c 05 74 d6 bc
       0.039449412 -0.008607931 0.023844143 -0.02617837
000300 d1 fa 05 bd 39 9f 39 3d e9 44 ef bc a7 9f cc bc
       -0.0327099 0.045317862 -0.029207664 -0.024978472
000310 30 34 6c bd 55 5b b4 bc 02 8f 2e bc 9a 81 16 bd
       -0.057666957 -0.022016207 -0.010654213 -0.03674469
000320 66 e2 ca bc 19 cb 81 3d ba f2 6c bd df f7 5e bd
       -0.024766158 0.06337566 -0.05784867 -0.054435607
000330 af 7e e9 3b 67 20 5d 3d ba a5 68 3d 70 9c 2f bc
       0.0071256976 0.05398598 0.056798674 -0.01071845
000340 f1 3a 0d 3c e0 7d 63 3d b2 f2 74 3d b9 71 a4 3c
       0.00862001 0.055539966 0.059801765 0.020073758
000350 39 83 e4 bc 53 a6 2e bd 77 0d 05 3d c4 f5 8f bd
       -0.027894603 -0.042639088 0.032483544 -0.07029298
000360 50 66 e5 bc 39 05 62 3d d0 9b 0a 3d da 88 70 bd
       -0.028002888 0.055180762 0.03384 -0.05872426
000370 8c 20 6f bd 14 34 a9 3d ee 20 59 bd 56 ef 27 3d
       -0.05838065 0.08261886 -0.05300992 0.040999733
000380 ef 93 ab 3c 21 7e 8d 3c bc fe 7b bd 54 08 2f 3c
       0.020944564 0.017272057 -0.06152223 0.010683138
000390 d9 ce 33 bc 7e f4 ea 3c 6e 69 de 3c 42 3f 88 3c
       -0.010974609 0.028681036 0.027149882 0.016631726
0003a0 5d 20 84 3d ab 68 91 3d 06 d9 00 3c c3 74 75 3c
       0.06451485 0.07100042 0.007864242 0.014981451
0003b0 d4 74 82 bc ca 29 df bc 17 a7 5b 3d 88 28 b7 3d
       -0.015924849 -0.027241606 0.053626146 0.089432776
0003c0 ae 3f 02 3d 98 72 91 bc cd 05 7d bc 5e 99 31 bd
       0.03179901 -0.017754838 -0.015443278 -0.043359153
0003d0 aa 2d 49 bd 55 9d 61 bb 6b 44 a5 bc fb 4b 83 bd
       -0.049115814 -0.0034426053 -0.020174226 -0.064109765
0003e0 1b 1e 49 3b 61 17 0e bd 92 8a 00 bd 69 d2 dd 3c
       0.003068811 -0.034690265 -0.03138215 0.02707787
0003f0 45 d7 81 3c e1 52 ab bd 81 f1 6c 3d 63 ff 02 3c
       0.015849719 -0.08365417 0.057847504 0.007995459

model.4.bias f4 [3]
000000 b7 75 43 3d 36 1e 41 bd 39 b5 cc 3b
       0.047719683 -0.047147952 0.0062471894
