models/three_layers/threeLayerModel_ee_corrCut_0.9_weights_true.pt (torch, 707244 bytes, 18 tensors)

model.0.weight f4 [512, 77]
00000000: 802c 4fbd 4864 493d c227 793c 7f62 b53c
00000010: 72eb 9cbd c13f 14bd d66f 2bbb 9d31 96bc
00000020: 971e 54bc 67fa 36bd 9bdd 57bb daaf 4b3d
00000030: 11d2 dcbc 28da 22bd 946e 23bd 6c28 bebd
00000040: 0023 883d 3246 7b3d 32ad 29bd c24e ae3d
00000050: 40fb e03d 0a15 d03d edc5 d8bd 19f1 793d
00000060: 7587 dd3d b492 373d 8a51 7d3d 68f5 e83d
00000070: 9371 78bd c04a e13d 0217 8a3d e183 1d3d
00000080: fd99 d13d 892c a4bb 75c9 94bc a446 ce3d
00000090: 227d 773c 630b 1dbc e9bf c03d a938 58bd
000000a0: f006 c8bd 8bdc 8fbd f8ee 5f3d 16c0 a93b
000000b0: c4ad d53c 91ca e6bd a2a4 debc ebcc c43c
000000c0: 4069 b13d efc4 81bd 9d69 f4bc 4c76 96bd
000000d0: a7d9 63bd 9b6d 7fbd 413c 50bc 7920 b8bd
000000e0: 340f c23d 8b22 ce3d 6843 bb3d cac3 8abd
000000f0: 95a1 ec3b 500a f4bc d04a 95bd 9e72 e23a
00000100: 18e4 4abd 4830 93bd 00a9 543d 334c 4f3d
00000110: bd6f 3c3d 6b1e 97bd ae5b d8bc 8bfb c4bc
00000120: 5f38 48bd 8ceb f73c 6652 1ebd 4052 05bb
00000130: 8077 1abd d639 a2bd a254 073d 0270 55bd
00000140: 58b7 8a3d f280 853d 9af4 2d3b 9650 9b3d
00000150: a29d df3d f7d1 bc3d 924a 9ebd 2698 803d
00000160: 9460 febc 1b51 1f3d 2d3c cebd acd1 8c3c
00000170: a32e 93bd 6931 483d 45df 6abd 5ab9 bd3d
00000180: 482e 813d e796 f73b 2de7 e7bd c4ab 38bc
00000190: fa67 e43d 4d60 d2bd 4d22 ad3d 21cc c83d
000001a0: a2b1 dfbc 8d1a 523d a9cb b73d e6f7 0c3d
000001b0: 5e32 f93a f2a8 b9bc 2ad1 e4bd 85e3 dfbd
000001c0: dc3e 33bd 7b8f 48bd d1c3 67bd f5ea ddbd
000001d0: 1670 803d 7e1d c93d 0938 c63d 54be d4bd
000001e0: 6362 34bd 64b8 c73b a5c5 d5bd 9f11 fdbc
000001f0: f20d c5bd d0ee 113d 83cb 39bd 54d0 5c3d
00000200: 3075 b93d 4ccc bcbc 3850 173d 90f9 4ebc
00000210: 9573 013d cf4a e63d 1bcf a53d 20dc cd3d
00000220: 9bff 773b 5ffc 98bd 2058 533c 1e54 95bb
00000230: ee6b a63d 050d 293c cf09 d6bd 11ab 7cbd
00000240: 6121 b93d 87ba d6bc eec1 0bbd c6dc 6a3d
00000250: 9c39 273d 0b5b 473c 2c68 883d 7a45 503d
00000260: 75fd aebd f424 df3d a64f 25bd d047 763d
00000270: 5bf7 0e3c 7fd2 e2bd d212 73bd 84c4 d4bd
00000280: 9b96 10bd bb2a c33d 86e6 2e3d 0a5c e43d
00000290: 4196 b6bd 71f3 be3b df03 8bbd 49a6 993b
000002a0: 84be 763d 12db 5cbd de32 7fbd 3707 903b
000002b0: 7d7b 9cbd 3450 fd3c 0f9e 873d 7feb aa3d
000002c0: 1f5e e13b bc96 ce3d 9c7e 263d 50da 9fbd
000002d0: ecd0 ccbc 2303 2b3d 2faa ac3d e452 943b
000002e0: 488f d7bd b442 c2bc 7388 b03d 4711 92bd
000002f0: 6e8b a5bd 8b8c 423c baca d2bd 58c5 a2bd
00000300: a6e4 053d b210 dfbd 60e0 b03d e9a0 eebb
00000310: c373 48bb d7a8 88bd 2999 d8bd 7c94 cdbd
00000320: 9182 d13d b726 abbc 1dde b03c 7959 dd3d
00000330: 4517 1e3d e41d 323d 45ee 90bd fd7a dc3d
00000340: 1543 1e3d 68b0 02bd 3a95 2ebb d8be c63d
00000350: 0cf8 80bc f2e1 7fbd 7a7c 88bb 3899 39bc
00000360: b534 6d3b 17e9 823d 9137 0fbd b1a5 5c3d
00000370: bcba 863d 6c44 903d 8cb4 833d 6406 183d
00000380: 3f64 a5bd d16d b4bc 2401 813d b65c 683d
00000390: f252 073d feae 933d e501 b6bc f626 aabd
000003a0: 0427 e0bd 15c9 cabd 81d3 2aba 1df0 aabd
000003b0: 2db5 203d c48b 793d cff5 d83d 2d66 1fbc
000003c0: 1de2 843d d7a9 debc e494 353d f975 38bd
000003d0: 098f 49bc 3c5b dbbd ad75 e53d 201d f93c
000003e0: ff32 de3d ab4d 553a c153 cbbc fa76 84bd
000003f0: 99ad d23c 87ff bc3d cf04 d73d 6959 fbbc
-0.050579548 0.0491679 0.015207233 0.022141693 -0.07662095 -0.036193613 -0.0026159189 -0.018334204
-0.012946746 -0.044672396 -0.0032938484 0.049728252 -0.026955636 -0.03975883 -0.039900377 -0.092850536
0.06647301 0.06134624 -0.041424938 0.085111156 0.10985422 0.10160263 -0.10584626 0.061020944
0.10816852 0.04481764 0.06184534 0.113749325 -0.060655188 0.110005856 0.0674267 0.038455848
0.10234449 -0.005010192 -0.018162468 0.100720674 0.015105518 -0.009585234 0.09411604 -0.05278841
-0.09766948 -0.07024487 0.054671258 0.005180369 0.026083834 -0.11269105 -0.027178112 0.024023494
0.08662653 -0.0633639 -0.029835517 -0.07346782 -0.05562749 -0.062360387 -0.012709678 -0.08990569
0.09475556 0.10065182 0.09143716 -0.06775625 0.0072214105 -0.029790074 -0.0728966 0.001727659
-0.049533933 -0.07186943 0.051918983 0.05060978 0.046005 -0.07378849 -0.026410904 -0.024045726
-0.048881885 0.030263685 -0.0386528 -0.0020343214 -0.03771162 -0.079211876 0.033039697 -0.052108772
0.06773251 0.06518735 0.00265435 0.0758373 0.10918738 0.09219735 -0.07729067 0.0627902
-0.031051911 0.038895708 -0.10070071 0.017189823 -0.071866296 0.048875246 -0.057341833 0.09263869
0.063076556 0.0075558308 -0.1132339 -0.011271421 0.111526445 -0.10272274 0.08453808 0.098045595
-0.027306382 0.051294852 0.08974392 0.034416102 0.0019012203 -0.022663567 -0.111727074 -0.10932068
-0.04376112 -0.04896496 -0.05658323 -0.1083583 0.06271379 0.09820078 0.096786566 -0.10387865
-0.04403914 0.006094979 -0.10438088 -0.030892191 -0.096218005 0.03562814 -0.0453601 0.053909615
0.09055555 -0.023046635 0.036941737 -0.0126327425 0.03160437 0.11244737 0.08096143 0.10051751
0.0037841562 -0.07470011 0.012899429 -0.0045571467 0.08126055 0.0103180455 -0.104510896 -0.06168658
0.0903957 -0.02621199 -0.034120493 0.057339452 0.040826425 0.012167702 0.06660494 0.050847508
-0.08544437 0.1089572 -0.04035916 0.06012708 0.008725966 -0.11075305 -0.05934412 -0.10389045
-0.03529988 0.095296346 0.042700313 0.111503676 -0.089153774 0.0058273603 -0.06787848 0.004689012
0.060240284 -0.05391986 -0.06230437 0.0043953913 -0.07640741 0.030922033 0.06621944 0.083456986
0.006877675 0.10087344 0.040648088 -0.07805312 -0.025001965 0.04175104 0.084308974 0.004526483
-0.105253756 -0.023713447 0.086197756 -0.07132202 -0.08083235 0.011874328 -0.10292573 -0.079477966
0.03268876 -0.10891856 0.08636546 -0.0072823656 -0.0030586577 -0.06672829 -0.10576088 -0.10038087
0.10229982 -0.020892484 0.021590287 0.10808081 0.03859641 0.043485537 -0.07076696 0.10765646
0.038638193 -0.031906515 -0.002663924 0.09704369 -0.015743278 -0.062471338 -0.0041652294 -0.011328034
0.0036194746 0.063921146 -0.0349651 0.053868953 0.065785855 0.070443004 0.06430921 0.03711547
-0.08075761 -0.02202502 0.06299046 0.05672904 0.033038087 0.072111115 -0.0222177 -0.083082125
-0.10944942 -0.099016346 -0.0006516502 -0.08346579 0.039235283 0.060924307 0.10593759 -0.00972895
0.0648844 -0.027180595 0.044331446 -0.045034382 -0.012302169 -0.10710761 0.112040855 0.030409396
0.108495705 0.00081368786 -0.02482021 -0.064680055 0.025717543 0.092284255 0.10498964 -0.030682283

model.0.bias f4 [512]
00000000: 6cab b5bd 9aac 8ebd c7f0 083d 8002 b13d
00000010: 21a2 aabd c4ef 5d3c dfc8 64bd bb11 4dbd
00000020: 4b2a 9fbd 71b1 cabd 621a e0bc 2062 0bbd
00000030: f541 313d 585e c2bd 2a4a 1fbd 980c 02bd
00000040: 0313 6abd 3688 e43d 555a a4bd ac09 023d
00000050: 23ab e33d c32d 7b3d 3614 7e3d b317 5eba
00000060: de4c 343d d923 d73d afc7 a23d ae43 cfbb
00000070: 368f 9cbd 499d 513d f6c0 dbbd f1bc a8bd
00000080: 9d8d 953d f3ae d63d 6fd0 43bd 4b04 b7bd
00000090: 5557 bb3c a5d3 ca3c d4bf 713d 09af db3d
000000a0: e78e b3bb ea15 863d 38ff f93c a5dc a0bc
000000b0: e71a b2bd 996d 7e3d 0da2 7bbc 7116 e03d
000000c0: 1f37 3fbd 7389 a5bc 008c 80bd 53de 193d
000000d0: 3201 86bd b39e 2e3d cfdd 223d 33b6 bdbc
000000e0: d2d3 393d 8ba6 df3c 334b 74bd adf7 cebd
000000f0: 2ffc 83bd fd03 ba3c 40d9 5fbd d6ef 7f3d
00000100: 3851 afbd f97a 79bc 07f8 4b3d 8ff1 91bd
00000110: e691 913c 5bc6 943c dd9e 613d 265d 7cbd
00000120: 62ab 77bd 926e 00bd 0189 c3bd ad25 75bd
00000130: bbfc b2bd 0861 c8bb 1ace fcbc e294 7c3d
00000140: 12e8 9bbd f7c0 5c3d 36c2 ddbd 3a97 183d
00000150: 2e69 3bbc ef5c 5c3d 5231 68bd 0cf6 70bd
00000160: 2802 a33a ed7c c23b d45f 1e3d 89f1 d13d
00000170: 11d1 203d 1a90 f63c 7747 92bd 994d 953d
00000180: 9a94 803c d37f 99bb 8a7c b2bc 87c8 9f3d
00000190: d1be 863d ee86 8a3d 81ab cfbd bbfe f13c
000001a0: f39b 94bd 222a 8dbd cce6 9c3d 3c79 b6bd
000001b0: 41b9 b4bd eeaa 9ebd ee57 7e3c a733 fbbc
000001c0: 6fe5 1ebd 8a66 cabd efb6 4fbd 2d9d 9a3c
000001d0: 934b 943c 296e d0bd ac4b bcbd dc2b d43d
000001e0: b3b9 c43d 5110 983d 4efe 95bc ab30 8f3d
000001f0: b258 dd3d b7bc 543d 203f a03d 2b57 d93d
00000200: 77d5 1c3d 0b67 61bb 7d0d 923c 4c9b 823d
00000210: 522c 20bd 8f01 dfbd e9b8 9fbc 9082 c7bd
00000220: c46a 11bd a826 b8bd 9c95 a6bd b178 30bd
00000230: 1a28 68bd 04d4 003c c82c c7bd 572e 173d
00000240: f8e6 e1bd 572d 42bd 3d96 4cbd 91da 873d
00000250: a448 d83d 4538 fb3b b256 7ebd b21b c73d
00000260: fb2f 493c a830 213c 3b28 023c 88de 16bd
00000270: 6ae4 53bc e301 eebb eb79 cfbd 1758 91bb
00000280: 5adb 763c dbd8 4e3d ab08 813c 9ee2 4a3d
00000290: 9452 5fbd 4b59 683d f0fa e93b 2cd3 6a3d
000002a0: d8de 73bd 953a 03bd fe1f cabd 207b d6bd
000002b0: 7764 36bd d7ca 593d 7c91 3bbd 2251 eb3d
000002c0: f96f 2b3d 7d55 563d 3229 e1bd a779 5bbd
000002d0: fae6 513d 3992 b2bd 9a0a a63d 3bf0 af3d
000002e0: b0d2 433d ca26 88bd f11f 29bd 20ac cf3d
000002f0: 53c4 38bd 8180 2cbd 5819 e5bd a038 1bbd
00000300: 984e 253c 78e8 bcbd 3003 d6bd 2607 5e3c
00000310: 5bdc cbbd 066f d63d 2974 e43d 4a68 ccbd
00000320: bde5 3a3d 331c 3a3c 0821 96bd de3c c7bd
00000330: f76d c13d 6a5d aa3c 4e8b 3e3d d4fa 213d
00000340: 54f5 b7bd 561e c13d 798d 143d 8759 31bd
00000350: 9352 993c efe7 a33d 478c b63c 1bf5 eebc
00000360: 4fe6 cdbd f2db 513d e5c1 c0bc 23cb c7bd
00000370: e56c 483a 21c9 6b3c fc49 cabc 1852 f3bc
00000380: 0365 c93d d883 d2bd d166 b63d cbf9 afbd
00000390: 429c 843b 085c cebd 1b57 dabd 7db6 b6bd
000003a0: a26e 9dbc 7c17 e5bd 0b90 aa3c 6d27 bebd
000003b0: daca 9fbc 0af3 86bd f5a3 88bc c843 b43c
000003c0: cad8 49bd 4798 3f3a 1a8a 36bd 43f3 943c
000003d0: 55de b5bd 6855 95ba 8b9e 063d 5b5c 78bd
000003e0: c7c4 b2bd a0f7 84bd f8c3 493d cb44 e2bd
000003f0: 06da c73d 4081 0b3d 7b58 98bd 6425 5d3d
-0.08870587 -0.06966515 0.03343275 0.08643055 -0.08331705 0.013545934 -0.055855628 -0.050065737
-0.077717386 -0.098971255 -0.02735633 -0.034029126 0.043275792 -0.09490651 -0.038889088 -0.03175029
-0.057147037 0.11158793 -0.08025042 0.031747505 0.11116626 0.06132294 0.062030993 -0.00084721594
0.04401862 0.10504884 0.07948243 -0.0063252067 -0.07644503 0.05117539 -0.10730164 -0.08239163
0.07302401 0.10482588 -0.0478062 -0.08936366 0.022868792 0.024759123 0.059020832 0.10726745
-0.005479682 0.065471485 0.030517206 -0.019636462 -0.086965375 0.06211624 -0.01535846 0.1094178
-0.046683427 -0.020207142 -0.06276703 0.03756554 -0.06543197 0.042631816 0.039762314 -0.023158168
0.045368023 0.027301094 -0.059642028 -0.10105834 -0.064445846 0.02270698 -0.054650545 0.062484585
-0.08560413 -0.015227073 0.049797084 -0.07126152 0.017769765 0.01816099 0.055083144 -0.06161227
-0.060466178 -0.031355448 -0.09547616 -0.059850384 -0.08739611 -0.0061150827 -0.030859996 0.061665423
-0.07612623 0.053894963 -0.108280584 0.037253596 -0.011438651 0.053799566 -0.05668766 -0.0588284
0.0012436556 0.0059353025 0.038665608 0.10251147 0.03926188 0.03009801 -0.07142537 0.07290191
0.015695859 -0.0046844273 -0.0217879 0.078019194 0.06579364 0.06764017 -0.10140134 0.02954041
-0.072563075 -0.06892802 0.076612085 -0.08909842 -0.08824397 -0.07747446 0.015523894 -0.030664278
-0.038793024 -0.09882839 -0.05071157 0.018873775 0.018102443 -0.101772614 -0.09194121 0.10359928
0.09605732 0.07424987 -0.018309738 0.069917046 0.10807933 0.051937785 0.0782454 0.10612329
0.038289513 -0.0034393694 0.017828697 0.06377277 -0.039104767 -0.10888969 -0.019497352 -0.097417
-0.03550221 -0.08991748 -0.081340045 -0.04308385 -0.05667887 0.007863048 -0.09725338 0.036909427
-0.11030382 -0.04740652 -0.049947966 0.06633485 0.1056073 0.00766662 -0.062094398 0.09722079
0.012279506 0.009838261 0.007944162 -0.036833316 -0.012932876 -0.0072634085 -0.10130676 -0.00443555
0.015066946 0.05049978 0.015751204 0.049532525 -0.054522112 0.05672578 0.00714051 0.057330295
-0.059538692 -0.03203829 -0.09869383 -0.10472703 -0.044529404 0.05317196 -0.04579304 0.11490084
0.041854832 0.05232762 -0.109941855 -0.053582814 0.051245667 -0.08719296 0.08107491 0.08590742
0.04780835 -0.066480234 -0.041290227 0.10140252 -0.045109104 -0.04211474 -0.111864746 -0.0378958
0.010089539 -0.092240274 -0.10449827 0.013551509 -0.09954139 0.10470395 0.11154968 -0.09980829
0.04562925 0.011359262 -0.07330519 -0.09728406 0.09444802 0.020796496 0.04651957 0.03954585
-0.089823395 0.09429614 0.03626773 -0.04329827 0.018716132 0.08003222 0.022283686 -0.02916961
-0.100536935 0.051235147 -0.023529956 -0.09755542 0.0007645621 0.014391215 -0.024693482 -0.029702231
0.098337196 -0.102790534 0.089063294 -0.08592566 0.0040469477 -0.10076147 -0.10661145 -0.089215256
-0.019217793 -0.1118612 0.020820638 -0.092848636 -0.019505907 -0.06589325 -0.016679743 0.022004977
-0.04927901 0.0007308763 -0.044565298 0.018182402 -0.08880297 -0.0011393251 0.032866042 -0.060634952
-0.087289385 -0.06492543 0.049259156 -0.110482775 0.097583815 0.03405881 -0.07438751 0.053990737

model.1.weight f4 [512]
00000000: b5be 7f3f 1773 7f3f 0a86 803f 051a 803f
00000010: 3084 7f3f 0b57 803f afdb 7f3f 5e0c 803f
00000020: 94bd 7f3f 5505 803f f136 803f 66d4 7f3f
00000030: 14dd 7f3f 9b60 803f 3626 803f f4ba 7f3f
00000040: 2e31 803f bd8a 7f3f c113 803f ca77 7f3f
00000050: f033 7f3f 707f 7f3f 088a 7f3f e95c 7f3f
00000060: 2c9c 7f3f 5cc1 7f3f 13a4 7f3f 3988 7f3f
00000070: e07f 7f3f 5667 803f aa39 7f3f 873e 803f
00000080: 431b 803f dcbe 7f3f e921 7f3f 9e41 803f
00000090: e964 803f 2569 7f3f 2276 7f3f bd15 803f
000000a0: 98ab 7f3f 85fe 7f3f 8664 7f3f 3b96 7f3f
000000b0: c62c 803f 6559 803f e0b4 7f3f 87d1 7f3f
000000c0: 33af 7f3f 4d19 803f 5b2b 803f d0b8 7f3f
000000d0: 7cc8 7f3f 2087 7f3f a868 803f d310 803f
000000e0: d8b6 7f3f aee4 7f3f 12d1 7f3f e49f 7f3f
000000f0: aadb 7f3f 6a5e 803f 477a 7f3f c868 803f
00000100: d030 803f 5506 803f 9e95 7f3f d642 803f
00000110: 3ecc 7f3f 129f 7f3f d769 803f ff57 803f
00000120: 7b37 803f 361b 803f dc30 803f 0e01 803f
00000130: 16a7 7f3f 5c39 803f 577f 7f3f 1010 803f
00000140: ac1c 803f 7ce3 7f3f b857 7f3f c7be 7f3f
00000150: f018 803f 7bb5 7f3f 57f8 7f3f da6a 803f
00000160: 325d 803f 0b07 803f cf8d 7f3f f020 803f
00000170: 922a 803f bb74 7f3f be35 803f d788 7f3f
00000180: a24a 803f 7701 803f ecde 7f3f db10 803f
00000190: 6102 803f f989 803f cd3f 803f 8d1a 803f
000001a0: 6472 803f 5e69 803f 0199 7f3f 0d71 7f3f
000001b0: 09cf 7f3f 9828 803f 5991 7f3f b2bd 7f3f
000001c0: 2257 803f 6e49 803f 8148 803f c823 803f
000001d0: 5156 803f 3e09 803f 50bb 7f3f 12d0 7f3f
000001e0: d699 7f3f 0869 803f c74f 7f3f c144 803f
000001f0: ce5a 803f 388a 7f3f 9500 803f c6f4 7f3f
00000200: 2ecf 7f3f 7410 803f dd1a 803f e23a 803f
00000210: 543f 7f3f b4f8 7f3f f9c6 7f3f fd66 803f
00000220: 7a37 803f fd11 803f 4dee 7f3f fe27 803f
00000230: b2da 7f3f 6167 803f 4b2b 803f a4a2 7f3f
00000240: 0489 7f3f 8d28 803f 184b 803f 6e74 7f3f
00000250: 6c6a 803f b73a 803f 6662 803f fb08 803f
00000260: cd24 803f 8098 7f3f 84f8 7e3f 5803 803f
00000270: 8240 803f 1f82 7f3f ee61 803f c171 7f3f
00000280: 7e96 7f3f e4fc 7f3f d1d6 7f3f 3589 803f
00000290: a7ef 7f3f 5706 803f 8656 7f3f bc48 803f
000002a0: 6b55 803f f1f3 7f3f 3e32 803f 17c9 7f3f
000002b0: 4215 803f 87dd 7f3f 9330 803f 696b 803f
000002c0: d433 803f ee45 803f 522b 803f 6f0a 803f
000002d0: cc5f 7f3f 5a94 7f3f 0520 803f b6f3 7f3f
000002e0: a500 803f d1f5 7f3f d51b 803f 590c 803f
000002f0: 0483 803f 37fd 7e3f c2fa 7f3f 975b 7f3f
00000300: a198 7f3f 6a33 803f 8f6e 803f 0245 7f3f
00000310: 9486 7f3f 0384 7f3f 7067 7f3f 97ef 7f3f
00000320: a0e1 7f3f 80e5 7f3f fbc4 7f3f c794 7f3f
00000330: a3e7 7f3f f1eb 7f3f a517 803f 0d1b 803f
00000340: d29e 7f3f a369 7f3f 12c9 7f3f ae6a 803f
00000350: 9713 803f 4102 803f f651 803f 2013 803f
00000360: ea62 7f3f dacd 7f3f 3926 803f 5245 803f
00000370: f016 803f f3ce 7f3f a644 7f3f 4019 803f
00000380: 2e37 7f3f 01d7 7f3f 3937 7f3f 5695 7f3f
00000390: 8a4b 803f 760a 803f bc88 7f3f d57d 7f3f
000003a0: c828 803f a249 803f afdc 7f3f 34b9 7f3f
000003b0: d437 803f 13fb 7f3f 4268 7f3f 5fc2 7f3f
000003c0: fe32 803f 521b 803f c51b 803f d5a8 7f3f
000003d0: bc00 803f bbdd 7f3f 554a 803f 623f 803f
000003e0: c1db 7f3f e90d 803f 786c 803f 2c1d 803f
000003f0: 1e78 803f 182d 803f a59d 7f3f a867 803f
0.9990037 0.9978499 1.0040905 1.000794 0.9981108 1.0026563 0.99944586 1.0003774
0.9989865 1.0001627 1.0016767 0.9993347 0.99946713 1.0029482 1.0011661 0.9989464
1.0015008 0.9982107 1.0006028 0.9979216 0.99688625 0.9980383 0.99819994 0.99751145
0.99847674 0.9990442 0.9985973 0.99817234 0.99804497 1.0031536 0.99697363 1.0019082
1.000832 0.99900603 0.9966112 1.0020025 1.0030795 0.9976981 0.9978963 1.0006634
0.99871206 0.9999774 0.9976276 0.9983861 1.0013664 1.0027281 0.9988537 0.9992909
0.9987671 1.0007721 1.0013231 0.99891376 0.9991529 0.9981556 1.0031939 1.0005134
0.9988837 0.9995831 0.9992839 0.9985335 0.99944556 1.0028813 0.99795955 1.0031977
1.0014896 1.0001932 0.9983767 1.0020397 0.99921024 0.998521 1.00323 1.0026854
1.0016931 1.0008304 1.0014911 1.0000322 0.9986433 1.0017505 0.9980368 1.0004902
1.000875 0.9995649 0.99743223 0.9990048 1.000761 0.9988629 0.9998831 1.0032609
1.0028441 1.0002149 0.9982576 1.0010052 1.0012991 0.9978749 1.0016401 0.99818176
1.0022776 1.0000447 0.99949527 1.0005144 1.0000726 1.0042106 1.001947 1.0008103
1.0034909 1.0032156 0.9984284 0.99781877 0.99925286 1.0012388 0.9983116 0.9989883
1.0026591 1.0022409 1.0022126 1.001092 1.0026342 1.000282 0.9989519 0.99926865
0.9984411 1.0032053 0.99731106 1.0020982 1.0027711 0.9982028 1.0000178 0.9998287
0.99925506 1.0005021 1.0008198 1.001797 0.99706006 0.99988866 0.99912983 1.003143
1.001693 1.000549 0.99972993 1.0012205 0.9994308 1.0031549 1.0013212 0.99857545
0.99818444 1.0012375 1.0022917 0.9978703 1.0032477 1.0017918 1.0030029 1.0002741
1.0011231 0.9984207 0.99597955 1.000102 1.0019686 0.99807924 1.0029886 0.9978295
0.9983901 0.99995255 0.9993716 1.0041872 0.99975055 1.0001935 0.997414 1.0022197
1.0026067 0.999816 1.0015333 0.99916214 1.0006487 0.999474 1.0014824 1.0032779
1.0015817 1.0021341 1.001322 1.0003184 0.9975555 0.9983574 1.0009772 0.9998125
1.0000197 0.9998446 1.0008494 1.0003768 1.0039983 0.99605125 0.99992 0.9974913
0.9984227 1.001569 1.003374 0.9971467 0.99814725 0.9981081 0.9976721 0.9997496
0.9995365 0.99959564 0.99909943 0.9983639 0.99962825 0.99969393 1.0007216 1.0008255
0.99851716 0.99770564 0.99916184 1.0032556 1.0005978 1.0000688 1.0025012 1.0005836
0.99760306 0.9992348 1.0011665 1.0021155 1.0007 0.99925154 0.99714124 1.0007706
0.9969357 0.99937445 0.9969364 0.99837244 1.0023053 1.0003192 0.99818015 0.9980138
1.0012445 1.0022471 0.9994611 0.9989197 1.0017037 0.99992484 0.9976846 0.9990596
1.0015562 1.0008337 1.0008475 0.9986699 1.0000224 0.9994771 1.0022684 1.0019343
0.9994469 1.0004245 1.0033102 1.0008903 1.0036657 1.0013762 0.9984992 1.0031633

model.1.bias f4 [512]
00000000: c4bb f03a 3b8b 19bb c905 9f3b 3c15 013b
00000010: 2eab feba b395 793b 7eeb 58ba 1901 b83a
00000020: 6421 95ba 9886 8f3a 8f6e cd3a a533 b739
00000030: 6075 ffba e87a 6b3b 5a38 be3a d0d7 23bb
00000040: 0dea 063a 952d 9aba def1 cd3a ec9a fdba
00000050: 4db9 8bbb 8ac8 2ebb 5fc0 d8ba b8ca c3ba
00000060: f508 daba 0b5b a8ba 9e08 6a39 b421 00bb
00000070: afa1 01bb 9f1d 083b ecd2 08bb 6139 f53a
00000080: 31ae 853a 1634 8ab7 3624 2abb 1b4c e53a
00000090: bbb2 473b a243 13bb 139a 00bb 1868 e33a
000000a0: 9c72 d33a 18db 8038 041e 24bb f68a 4539
000000b0: 417b 063b 7036 8b3b 08f9 ef3a e9d4 13bb
000000c0: 5be1 c4ba c765 47b9 d087 d236 e2dc c738
000000d0: 39c1 b8ba b4e6 20bb 2571 8f3b 1537 b839
000000e0: 0fb5 bfba 92fc 9aba ecad 633a 2f17 c8ba
000000f0: d8cf 9cba e69c 1439 6e5c 96ba 76a5 e23a
00000100: 1dac 203b 4932 9ab9 3723 11bb fa8c 693b
00000110: ef0d b23a a30e 27bb ff7f 223b fb1a 4e3b
00000120: 3bad 373a 17ce dd3a 1951 f63a 04d2 463a
00000130: 8997 8eba 46e6 133b d3fc 55ba 2e3d fb3a
00000140: 7dbc aa3a e00c beb9 64d1 283a b0c7 1d39
00000150: 0230 073b d0b3 9fba 41da 8839 c790 7138
00000160: b61a 163b 4934 153b 215c baba 0af9 ea3a
00000170: 8f8d 6e3a b2af feba f5fb 093b 1da2 18bb
00000180: 0f1a f13a a098 4eba 4ade 153b 5cbb 2eba
00000190: 4090 073b 0f4b 753b 861d 033b fcbe 003a
000001a0: 8b4b 103a 0fa8 213b fc8d baba 9ba6 b1ba
000001b0: 188e 27ba 2429 f1ba 99b8 1cba 39cd a1ba
000001c0: 0e7a 4ab8 d75b 363b a4d8 113b b691 1fba
000001d0: 5670 823b 719e dd3a 1300 8eba bda0 843a
000001e0: ecd9 063b 765a bc3a bbc0 50bb c3b3 183b
000001f0: b337 543b b6ac dbb8 2d65 9bba 510a 8d38
00000200: 07f5 ccba 1d9e d8b9 b8cd 7ab9 d1b6 143b
00000210: 7375 30bb 87a8 383a 051c 5039 4c38 4f3b
00000220: cd5c f53a 05a5 b23a db97 d03a 49d2 983a
00000230: 161b 963a c05d 273b 54f4 8eba 1c33 39ba
00000240: dd3a 4cba 156e 823a cc57 d53a 30d5 08bb
00000250: e0b2 913b f82a 173b a2ff 1f3b f45c 7637
00000260: 7be7 883a 342f 09bb 5030 2fbb 61cf 0fba
00000270: eb4b f83a 3fbb 87ba 7939 623b 53ec f6ba
00000280: 33be e3ba 1b25 2a3b d3e9 9f3a 5262 203b
00000290: 85fd 283b 28f0 36bb d5d0 99bb 9957 573a
000002a0: 32f1 3f3b 2169 6aba e80c 063b 1ef4 05bb
000002b0: 5a94 a0ba fa3c 28ba fb1a 113a bfd9 0c3b
000002c0: a464 e03a 065f 2539 3ec5 373b fa92 e2b9
000002d0: 14a5 7abb 2d8f 09bb 2d7b 083b dcaf 4db7
000002e0: c65a c339 8ac5 ec39 dc1d 0e3b 3e49 7eb9
000002f0: 55b4 8b3b 14e0 56bb 01e6 183b 118b 11bb
00000300: 4de0 d0ba 3cc1 b73a fe14 673b 56ed 38bb
00000310: 70ef 15bb f5df e6ba 3263 4bbb 6074 1b3a
00000320: 4d23 27ba e71e 19bb bbdc 8b3a a1f8 eb3a
00000330: d822 b4ba e803 f7ba 2ba7 9439 ae91 8e3a
00000340: 4cb8 3fbb d8aa 03bb 173f eb39 58c7 d4b9
00000350: ba1a 69ba ee18 bdb8 fc8e 7e3b edfd 9f3a
00000360: 9474 db39 3db5 eeba 35ba 153a 5443 4a3b
00000370: 4709 80bb f57b edba b5df 40b9 8c9e 49ba
00000380: 8519 5cbb ed47 49ba 2a44 60bb c9f0 0439
00000390: 8653 77b8 fa36 d0ba 0fa9 fdba 3819 66bb
000003a0: 19f8 ce3a 3506 123b 60f5 6eba 205b f5b8
000003b0: 8ab9 4638 3586 d83a b65b 56bb 4901 5eb9
000003c0: bf89 2b3b b921 e5ba 989f 353b a97a 663a
000003d0: 1ccc 113a 1f2c 483b 100b 31b7 dd09 963b
000003e0: 1433 8bb9 4e88 8439 d492 063b 15cf 93b9
000003f0: 16fa 5f3b f812 af38 7ff4 9dba f66b 7d3b
0.0018366505 -0.0023428935 0.0048529846 0.0019696495 -0.0019429678 0.0038083612 -0.0008274837 0.0014038413
-0.0011377749 0.0010950146 0.0015673208 0.00034942958 -0.0019489937 0.0035931412 0.0014512644 -0.002500046
0.00051465706 -0.0011762852 0.0015712341 -0.0019348538 -0.004264033 -0.0026669824 -0.0016536823 -0.0014937734
-0.001663475 -0.0012844516 0.00022319189 -0.0019551339 -0.0019780209 0.0020769609 -0.0020877672 0.0018709117
0.0010199008 -1.6475136e-05 -0.0025961525 0.0017493995 0.0030471522 -0.0022470732 -0.0019623085 0.0017349748
0.0016132179 6.144325e-05 -0.0025042305 0.00018839151 0.0020520242 0.004248433 0.001830847 -0.0022557324
-0.0015020774 -0.00019016034 6.2742984e-06 9.530202e-05 -0.0014095671 -0.0024551572 0.0043775016 0.00035136254
-0.0014626103 -0.0011824539 0.0008685279 -0.0015265698 -0.0011963798 0.00014172829 -0.0011471638 0.0017291743
0.002451665 -0.00029410634 -0.0022146234 0.0035637007 0.0013584475 -0.0025490902 0.002479553 0.0031449187
0.00070067093 0.0016922381 0.001879248 0.00075843954 -0.0010878901 0.0022567674 -0.0008162979 0.0019168013
0.0013026145 -0.00036249217 0.0006439893 0.00015047076 0.002062798 -0.0012184326 0.00026102553 5.7593712e-05
0.0022904105 0.002276676 -0.001421813 0.0017927003 0.00091000734 -0.0019431023 0.002105472 -0.0023289986
0.0018394607 -0.0007881019 0.002286809 -0.0006665492 0.0020685345 0.0037428772 0.002000661 0.00049112714
0.0005504421 0.002466682 -0.0014232988 -0.0013553681 -0.0006391718 -0.0018399102 -0.0005978435 -0.0012344486
-4.8274225e-05 0.0027825737 0.0022254372 -0.0006087081 0.0039806766 0.0016908181 -0.0010833762 0.0010118705
0.002057667 0.0014370221 -0.0031853158 0.0023300506 0.0032381832 -0.00010474904 -0.0011855714 6.7253255e-05
-0.0015636989 -0.00041316534 -0.00023918494 0.0022691975 -0.0026925474 0.00070441555 0.00019846864 0.003161925
0.0018719673 0.0013629502 0.0015914397 0.001165935 0.0011452164 0.0025538057 -0.0010906556 -0.0007064806
-0.0007790754 0.000995102 0.0016276776 -0.0020879023 0.0044463724 0.0023066383 0.0024413844 1.4684385e-05
0.0010444963 -0.0020932676 -0.0026731677 -0.0005485919 0.0018943524 -0.0010355486 0.003451912 -0.0018838741
-0.0017375409 0.0025962058 0.0012200422 0.0024472666 0.0025785875 -0.002791414 -0.004694084 0.0008214652
0.002928805 -0.0008942057 0.002045447 -0.0020439695 -0.0012251243 -0.00064177776 0.00055353314 0.0021492091
0.0017119837 0.00015771025 0.002804115 -0.00043215585 -0.0038245367 -0.002098988 0.0020825372 -1.2259898e-05
0.0003726093 0.00045160606 0.0021685278 -0.00024250612 0.0042634406 -0.003278737 0.0023330452 -0.0022208134
-0.0015935987 0.001401938 0.0035260315 -0.0028217635 -0.0022878312 -0.0017614352 -0.0031034467 0.0005930122
-0.00063758047 -0.0023364366 0.0010670641 0.0018003174 -0.0013743294 -0.0018845769 0.0002835331 0.0010877156
-0.0029254137 -0.0020090844 0.00044869698 -0.00040584314 -0.0008892227 -9.016866e-05 0.003884255 0.0012206413
0.00041857793 -0.0018211972 0.0005711646 0.0030862885 -0.003907356 -0.0018118607 -0.00018393884 -0.0007691167
-0.0033584547 -0.0007678259 -0.0034220316 0.000126782 -5.8967176e-05 -0.0015885525 -0.0019352752 -0.0035110246
0.0015790492 0.0022281532 -0.0009115543 -0.00011699484 4.7379675e-05 0.0016519489 -0.0032708473 -0.00021172049
0.0026174632 -0.0017481364 0.0027713533 0.00087920815 0.00055617257 0.0030543876 -1.0552598e-05 0.0045788125
-0.00026550202 0.00025278557 0.0020534294 -0.00028192313 0.0034176162 8.3481835e-05 -0.0012051015 0.0038669086

model.1.running_mean f4 [512]
00000000: 160f 96bd cc7d f8bb 29d1 f33c 2231 3bbd
00000010: f2aa 8f3c 2e17 833e 3a13 0ebe dc48 f4bd
00000020: 5522 13be d55c c13d 4b55 90be 9df4 af3e
00000030: 22d0 073e c628 31be 51f9 003c d817 eabd
00000040: 0363 ab3e 3556 82be cea2 7b3e 1577 823d
00000050: cc59 f63c 3a60 153d f277 b23e 5f37 87bd
00000060: c6fa aebe 0b97 acbe e9df 0c3e 62e2 b73d
00000070: 4ed7 0d3e a892 51be f178 9bbe 21d5 14bf
00000080: c834 33be 0847 1abe 85f8 98bd acbc abbe
00000090: a6e0 aa3e 1916 633e 07fa a93e 1803 a63e
000000a0: 8a03 0c3e 7c08 b23e e7ce 4a3e 1ce8 f4bd
000000b0: 3e11 373d d3af 983e 16fa 503e 9420 b73e
000000c0: f7a3 0abf e57a 86bd fa10 2cbe d70e f9bd
000000d0: 36c9 14be 520d 353f 87ae a3be 9073 94be
000000e0: ae50 9abd a77b 393d 73b4 36be dc23 40be
000000f0: ced0 8cbc 9504 d03d 4eb5 e4bb 2c73 743e
00000100: 9a85 3abd d0d3 02be 40e3 8a3e 236f 29be
00000110: 4c15 01be 2b7e 983e 2e0c b63e 211b ac3c
00000120: 9858 10be 2a3c f3be 3e7e 033e 1bc9 3a3e
00000130: e40a 813e c5cd 0c3b 4d73 17be 683b c53d
00000140: 5eea 5ebe b61f 03be c5c4 1ebd 7c77 2a3d
00000150: ec3e 7c3e 757e c93d eb6c a23d 22df 513d
00000160: 6f4b 483e ff7f cbbe 7d50 ff3d 14b4 87be
00000170: 37f5 c03d 917e f73d 8db1 9b3e 58be 413e
00000180: a4b4 de3e aa8c 95be 24a4 afbe b12e 1ebe
00000190: 3aee b13e 4d20 d33e ad6d 9bbe 7e6b e93d
000001a0: 0fc2 5e3e 8dc6 a7be 174c 493e 5d2c 7dbe
000001b0: ac84 7bbe d8ef 38be d7d8 b6bc 7714 6f3d
000001c0: 526b 34bf 589a aebd 528a 103e 4349 1d3f
000001d0: fb0e 09be 5855 67be 6de2 3dbe f1a5 7e3e
000001e0: 6596 0bbc 872b c1be 46b5 cc3e 496c d0bd
000001f0: 833e ad3e 949b e8bc 64d5 3b3e 3a86 4dbe
00000200: f5ef a33e 830c e43d ba8d d73d 98e1 81be
00000210: 22a0 4c3a e5cb da3d 6c80 e8be baa3 c23e
00000220: 5c4f 4a3e 2508 04be 98b9 1b3e 3eb9 4e3d
00000230: 8cc1 933c be9d c73e cc72 3dbe 3755 b1be
00000240: 4940 363e ca64 44be 9938 db3d d0c2 043e
00000250: acaa debc 3654 613e 2c8d 43bd c912 40bb
00000260: 5ae9 98be f37a 623e 2932 02be 037b 5cbd
00000270: b405 bd3d 5a66 83be 54e5 31be c0b0 85bc
00000280: 44c8 56be 268f e23d e78f c1be 4f07 c73e
00000290: fc56 883c 42e5 14bd 52e5 b33e c0e6 993e
000002a0: d532 75be 8bdd 4bbe 39a7 72be cb6b 853d
000002b0: b88c 543d 26d0 76bd bb4f a4bc e78b ae3d
000002c0: 5305 a03e 1ce3 86bc 8c9b bbbe 2420 46be
000002d0: b644 d6bc 4905 30bd d2ce 833e df1b d93e
000002e0: 60fa ebbd 416a f1bd 2633 a03d da11 293d
000002f0: e78f d33d f8f3 0cbe 0b3a 48be 1c4b b8bd
00000300: 00e4 e83d 3a73 e9be d3c9 e7be 0e91 c53e
00000310: f37c 02be 4592 debd 9f87 5e3e a168 9ebd
00000320: bf2c 8c3e 9875 883d 646f fdbd 8699 05bd
00000330: ef46 513c 659d babd ff5e d0bd 9def 5cbe
00000340: 170d 8fbe d3cb 2b3e 2ddd 003e b40f 8abe
00000350: a978 16be 0b64 553e d65c ffbb e8d4 f73c
00000360: dfc6 a7bd 0f3e 55be 97a1 5b3e c8b5 a8be
00000370: a1a2 fe3d 22d5 eb3d 43a8 a13e 68f3 fa3b
00000380: 28c6 583e 5d65 d33d 0a6e ea3b 7165 12bf
00000390: 7428 d8bd d5bb 48bd 5969 96be 873d c6ba
000003a0: 520e a3bd 4245 2bbd c3fe a43e ce82 40be
000003b0: ce90 2bbe bb9e d6bb 9168 8d3e ea01 92be
000003c0: 8449 4abd 766d 2cbe a169 79bd 5a43 7f3e
000003d0: 5e81 44be 30db 133e 339b 28bc b870 8f3e
000003e0: 84eb aabd b884 d0bd fd29 35be 0a94 9e3d
000003f0: 4fc9 a93e 4d31 0ebe f5df 21be a05e b2be
-0.07327096 -0.0075833555 0.029762821 -0.045701154 0.017537568 0.25603622 -0.13874522 -0.11927959
-0.14368565 0.094415344 -0.28190073 0.34366313 0.1326299 -0.1730071 0.007871942 -0.11430329
0.33473977 -0.25456396 0.24573824 0.06370369 0.030072115 0.036468722 0.34857136 -0.06602358
-0.341757 -0.33708987 0.1375729 0.08978726 0.13851663 -0.20466101 -0.30365708 -0.5813771
-0.17500603 -0.15066159 -0.07469276 -0.33542383 0.33374518 0.22176398 0.33198568 0.32424235
0.13673225 0.34772098 0.1980549 -0.11958334 0.044694178 0.29821643 0.204079 0.35767043
-0.5415644 -0.06566409 -0.16803351 -0.121610336 -0.14529881 0.7072345 -0.3196909 -0.28994417
-0.0753492 0.04528394 -0.17842273 -0.1876368 -0.01718941 0.10157124 -0.006979621 0.2387206
-0.04553757 -0.12776113 0.27126503 -0.16546302 -0.1260578 0.2978376 0.35556167 0.02100903
-0.14096296 -0.4750684 0.12841126 0.18240778 0.2520362 0.0021484953 -0.14790078 0.096304715
-0.21769091 -0.12805066 -0.038761873 0.041617855 0.24633378 0.09838573 0.07930931 0.051238187
0.19560026 -0.3974609 0.12466524 -0.26504576 0.09421771 0.120846875 0.30408898 0.18920267
0.43497193 -0.2920888 -0.34304917 -0.15447499 0.34752065 0.4123558 -0.30357113 0.11397456
0.21753715 -0.3276867 0.19657932 -0.24723954 -0.24562329 -0.18060243 -0.022320194 0.058369126
-0.7047626 -0.085255325 0.14115265 0.61439914 -0.13384621 -0.2259115 -0.18543406 0.24867989
-0.008519744 -0.3772852 0.3998205 -0.10176904 0.33836755 -0.028394498 0.18343121 -0.20070735
0.3201901 0.11135199 0.10525079 -0.25367427 0.0007805844 0.10683421 -0.45410478 0.38015538
0.19756836 -0.12893732 0.15207517 0.05046963 0.018036626 0.38987535 -0.18500823 -0.34635326
0.1779796 -0.19179073 0.107041545 0.1296494 -0.027180992 0.2200478 -0.047742054 -0.0029308072
-0.29865533 0.22117214 -0.12714447 -0.05382825 0.092296034 -0.25664026 -0.17372638 -0.016319633
-0.20974833 0.1106246 -0.378051 0.38872764 0.01664304 -0.03635145 0.35135895 0.3005886
-0.23945172 -0.1990873 -0.23696603 0.065147005 0.051892012 -0.0602571 -0.02005755 0.08522778
0.31254062 -0.016465716 -0.3664211 -0.19348198 -0.02615581 -0.04297379 0.2574373 0.42404076
-0.115223646 -0.117878444 0.07822256 0.04127679 0.103301816 -0.13764942 -0.19553392 -0.08998701
0.113716125 -0.45595723 -0.45271167 0.3858723 -0.12742977 -0.108677424 0.21731423 -0.077348
0.2737789 0.06663054 -0.12374762 -0.032617114 0.01277326 -0.09112052 -0.10174369 -0.2157578
-0.27939674 0.16776972 0.12584372 -0.26965106 -0.14694466 0.20838945 -0.0077930493 0.030252889
-0.081922285 -0.20824455 0.2144836 -0.32951188 0.12433363 0.11515261 0.31573686 0.007658411
0.2116934 0.10322068 0.007154231 -0.5718604 -0.10554591 -0.049007256 -0.2937725 -0.0015124538
-0.07961716 -0.041814096 0.32225618 -0.18799898 -0.16754457 -0.006549684 0.2761884 -0.28517085
-0.049386516 -0.16838631 -0.06089175 0.24928036 -0.19189975 0.14439082 -0.010290909 0.28015685
-0.08345702 -0.10181564 -0.17691799 0.0774308 0.331614 -0.13885994 -0.15808089 -0.34837818

model.1.running_var f4 [512]
00000000: da9d 473c dfaf 5b3c c9cc 4d3c ddaa 573c
00000010: 110a 393c f808 743c 4f17 6d3c 3a09 893c
00000020: 7150 203c 18cf 883c 7b88 803c fc28 893c
00000030: aa1a 413c 7075 323c 9b17 8a3c 1890 2c3c
00000040: 76fb 773c 1181 6f3c 6043 6a3c dfe3 5e3c
00000050: 24ef 863c 20bd 513c 8bc2 953c 41af 603c
00000060: 57b0 693c fa5c 8f3c 889d 6e3c 9c74 973c
00000070: 6ebb 593c 1542 4c3c 4ac7 403c 2578 623c
00000080: c6c6 923c 13d1 603c 0d44 5d3c 0dbd 6c3c
00000090: e358 5d3c 6ff1 523c 3fed 833c 2311 973c
000000a0: 0189 4c3c 02ae 823c 9ab5 6e3c 25cb 833c
000000b0: e659 813c 3096 823c e4c5 a13c e54a 493c
000000c0: a303 5f3c ad17 4c3c e633 373c f619 453c
000000d0: 2a78 5a3c 7414 813c 9d11 453c 0c7f 683c
000000e0: 34d1 383c fc73 153c 1bb3 693c 7f97 563c
000000f0: 95eb 133c aec3 383c ef71 243c 3b44 933c
00000100: dcd7 1c3c 9308 643c 8573 2b3c 3247 293c
00000110: c285 453c 8636 363c 6f83 293c d989 4a3c
00000120: 3f63 493c c2af 843c d708 e13c 8ca2 843c
00000130: 5a62 4f3c ccae 523c 8c2b 503c b841 0c3c
00000140: 3e2d a83c dddc 743c 8768 5a3c 8e5c 4f3c
00000150: e73d 4a3c 19fd 8c3c 5339 493c fd5e 303c
00000160: 20ea 413c 9443 923c ce86 4b3c e2c8 8f3c
00000170: 3bdd 993c 3910 923c 2e60 9c3c acef a33c
00000180: f934 6a3c c434 963c 9cdf 533c af46 7b3c
00000190: 7c5b 593c 2f4d 6f3c db98 2f3c 9d56 843c
000001a0: 3850 523c ac52 5d3c 0067 4e3c e2a9 453c
000001b0: 11bd 813c 39c5 263c b782 7d3c 6fdb 073c
000001c0: a4d5 903c dfc0 2e3c 84ed 153c 557e 323c
000001d0: 535c 593c 6bde 363c 4ff6 283c a12d 583c
000001e0: 200f 593c 4cf4 8a3c ea5b 5b3c 00df 4a3c
000001f0: 42ff f53b 5a63 3f3c 551b 113c c546 873c
00000200: fccf 593c 26f5 493c 653e 7a3c e5bb 4a3c
00000210: ba8e 2d3c 6ec8 603c b1ea 923c ad05 623c
00000220: 992c 323c 1094 8b3c 4247 793c 5c66 033c
00000230: 7ed9 8a3c 86db a33c e7c5 cf3c 2ae8 7a3c
00000240: 717d 7a3c 2a19 5c3c 4b8a ec3b 133c 8b3c
00000250: eb87 4e3c 4e97 663c 246a 963c 5ebe 263c
00000260: 77d8 6f3c f07d 493c 67a6 4a3c ee1c 493c
00000270: d804 6b3c 07cf 473c c427 5b3c 72b7 243c
00000280: e3e9 6f3c c92c 413c 291c 5c3c e186 833c
00000290: 25b6 663c f9c8 6d3c 79ac 6d3c 2987 493c
000002a0: dbbd 533c d6c6 4c3c 8715 523c 6931 963c
000002b0: 749e 5d3c 46ca 903c c060 1f3c c060 2a3c
000002c0: ef41 413c b446 203c 8106 683c 2cf2 a33c
000002d0: 942b 3c3c 449d 7b3c 8126 323c e4ff 563c
000002e0: b81a 643c 9951 7c3c 654f a13c 9001 883c
000002f0: a4bd 673c f1b5 6a3c 6ee2 4c3c 2855 2d3c
00000300: 94a6 6b3c 82e7 443c 5368 823c f336 403c
00000310: dfdd 903c 9840 753c 163d 373c 2026 883c
00000320: 8dae 233c 1857 223c 08d6 4b3c 1fd2 8a3c
00000330: cbcc 6e3c 7f27 753c 39c7 4b3c 8bef 443c
00000340: 6ca1 773c 0ebb 853c 23e2 6f3c 497d 6b3c
00000350: 6668 6f3c 1ad0 743c bb17 563c 2399 4a3c
00000360: 9907 523c b6a4 673c 9952 813c 3567 583c
00000370: 6144 693c 26f7 513c d432 723c 9114 823c
00000380: 1627 243c bf39 523c e5c2 673c 317e 4c3c
00000390: 5248 3a3c c6fb 303c 08f7 2f3c 0d88 813c
000003a0: 8449 8a3c cad2 3f3c b5d9 9e3c 172b 7b3c
000003b0: aaea 573c 2fe4 243c ab94 733c c599 393c
000003c0: 3282 1c3c 9528 233c 3810 4c3c 182b 803c
000003d0: 8d29 5b3c 3850 783c e3c6 423c 14e9 553c
000003e0: b6ef 833c 21f3 703c 3b3d 863c e57d 593c
000003f0: 2fc5 913c 8370 3d3c a0c8 843c 82be 143c
0.012183631 0.01340863 0.012561032 0.013163296 0.011293904 0.014894716 0.014470889 0.016728032
0.009784804 0.016700312 0.015690079 0.016743176 0.011786142 0.010892257 0.01685696 0.0105324015
0.015135637 0.014618174 0.01429829 0.013604133 0.016471453 0.012801439 0.018281242 0.013713659
0.014263234 0.01750039 0.014563926 0.01848822 0.013289316 0.012466927 0.011766264 0.01382259
0.017917048 0.013721722 0.013504994 0.01444937 0.013509962 0.012874945 0.016104339 0.018440789
0.012483836 0.015952114 0.014569664 0.016088078 0.015789937 0.015940756 0.019747682 0.012285923
0.013611707 0.012456817 0.011181807 0.012030115 0.013334313 0.015756823 0.012028125 0.014190447
0.011280347 0.009121891 0.0142638935 0.013097643 0.009028335 0.011277122 0.0100369295 0.01797687
0.009572949 0.01391806 0.010464554 0.010331916 0.012055816 0.011121398 0.010346278 0.012361967
0.0122917285 0.01619709 0.027470035 0.01619079 0.012657726 0.012859058 0.012705695 0.00856059
0.020529386 0.014945236 0.013330585 0.012656344 0.01234386 0.01721053 0.012281734 0.0107648345
0.011835605 0.01785449 0.012422277 0.017551843 0.018782249 0.017830001 0.01908883 0.020011745
0.014294856 0.018335707 0.012931731 0.0153366765 0.0132664405 0.014605804 0.010717596 0.016154582
0.012836508 0.01350848 0.012597799 0.012064429 0.015837224 0.0101788575 0.015473059 0.008292063
0.017679997 0.010666101 0.009150866 0.010894378 0.013266641 0.011161427 0.010312631 0.0131944725
0.013248235 0.016962193 0.013388613 0.012382269 0.0075072357 0.011681402 0.008856614 0.016513238
0.013294216 0.012326514 0.015273665 0.012373899 0.010593111 0.013719661 0.017934175 0.0137952985
0.010874891 0.017038375 0.015214743 0.00802001 0.016949411 0.020002138 0.025362922 0.015314141
0.015288697 0.013433734 0.0072186342 0.016996419 0.012605648 0.01407416 0.018361159 0.010177223
0.014639012 0.012298092 0.012368775 0.012274964 0.014344417 0.012195355 0.01337618 0.010053502
0.014643165 0.011790463 0.013434448 0.016055526 0.014081513 0.014513248 0.014506453 0.012300291
0.012923683 0.012498578 0.012822515 0.018334107 0.013526548 0.017674576 0.009727657 0.010399044
0.011795505 0.009782482 0.014161707 0.020012937 0.011484999 0.015357319 0.010873438 0.0131225325
0.013922386 0.015400314 0.019691179 0.016602308 0.014144335 0.014325605 0.012505157 0.010579385
0.014382977 0.012018086 0.015918886 0.011731851 0.017683921 0.014969014 0.011183998 0.016619742
0.009990347 0.00990846 0.012441166 0.016945897 0.014575194 0.01496303 0.012437635 0.012020002
0.01511417 0.016324546 0.014641318 0.014373132 0.014612293 0.014942193 0.013067181 0.012365612
0.012819194 0.014138391 0.015786456 0.0132082 0.014237494 0.012815272 0.014782626 0.015878947
0.010019084 0.012831151 0.014145588 0.012481258 0.011369782 0.010802215 0.010740049 0.015811944
0.016880758 0.011707971 0.01939092 0.015330098 0.013178507 0.010064169 0.014866988 0.011328165
0.009552525 0.009958406 0.012455039 0.015645549 0.013376606 0.015155844 0.011888239 0.013056058
0.016105514 0.014706404 0.016386619 0.0132746445 0.01779422 0.011562469 0.016208947 0.009078624

model.3.weight f4 [256, 512]
00000000: fc68 e03c 2555 193d 2974 06bd c051 64b9
00000010: 0cb6 143d 08a0 1d3d 6a33 01bb 8735 063d
00000020: 1dd3 333d b096 10bd df35 073d 2037 04bc
00000030: c897 593c 71bd 0e3d 65ed baba 264a 19bd
00000040: 7f16 403b e4db 473c 329f 803c 9d7e d6bc
00000050: 28c6 de3c f3ce 263d 8b5f 0ebd ea3d 9fbc
00000060: 66f0 2dbd c8b6 263d d9b8 203d ae72 303d
00000070: fb5f e53c 948b 9ebb fbf2 bfbb cb7b d13b
00000080: 59ae d6bc bb2f 773b 9aa2 d43b 8d19 ecbc
00000090: dfd3 f1bc faf9 e9bc 4313 ecbc d8d1 ad3c
000000a0: e034 0d3d 0207 bcbc 0957 913c 4f69 dfba
000000b0: ed49 a43a 10c0 ad3c 00c2 643c 953c 90bc
000000c0: 022d 2dbd 07d9 413b ec72 123d b6ce 1d3d
000000d0: f9c8 1ebd 218e 1ebb 4b86 903c d974 96bc
000000e0: d201 7c3c 2954 2a3d 17e9 b9bc 476e ebbc
000000f0: 534a 00bd 6015 723a 0ebf 1dbb 0840 253d
00000100: 1890 dfbc aff3 b13c b49d 243d 9b61 a1bc
00000110: ba2e 4bbc 0575 893c d1a3 10bd 77e9 c13c
00000120: 022a 60ba 865b d73c 781a bebc 9dfd 013d
00000130: 51c7 dd3c 8397 1d3c 2a6f 07bc c529 153c
00000140: dce3 f13c 988c 03bd 34ae b7bc ac3c 8bbb
00000150: e93a 903c ed97 353c aaa0 f53b 2a5f 9d3c
00000160: 72eb fdbc aba0 00bc db88 ef3c 654b 0cbc
00000170: 3189 16bc 1abe 173b 1b1b 2a3d d347 1a3d
00000180: 7e12 29bc 4903 873c 4238 0dbd fc1d 22bb
00000190: 789c fabc 9dc3 a13c a487 e73b a19e 0bbd
000001a0: 6e10 123d 9554 aabc a602 263c 0b5a 02bd
000001b0: 8895 123d c19d 133d 5501 34bb 5b99 9bbc
000001c0: 90ce 163d dd77 333a f5b3 933c dedb 873c
000001d0: c3b7 263d 4c19 843c 4b0a a1bc 0507 7cbc
000001e0: 4c12 89bc adf2 38bb 34af aebc da1d 873c
000001f0: 7a92 123d 4cde 20bd faba fd3c 22d4 d93c
00000200: b866 98bc 741d bfbc 15c3 0f3d 97e7 66bc
00000210: 3160 0a3d 79b2 f8bb 7d20 1e3c d791 05bd
00000220: bea6 17bb 7d78 02bd 5a1c 2e3b 4f72 35bc
00000230: 5200 55bc b671 ba3c 8f3a 0f3c 5953 0fbd
00000240: 6220 37bd db68 943a c42b 203d 41df 103d
00000250: 6c1f 1f3d 264b 203d 979b 603c acf9 fcbb
00000260: bdd9 86bb f077 0a3d bec3 1ebd 2d72 08bd
00000270: 3472 173c ea39 a23c 2e63 993c 209b e53b
00000280: 0c0d 66bc 77f9 b0bb b2d9 7e3b 7697 4b3c
00000290: c3a1 f23c b91a 23bd 3c00 883c 1ac7 993c
000002a0: 8494 ff3b 6e5b aa3b e2a5 b83c 64c4 8dbc
000002b0: 7606 54bc 843b 363d 8281 de3c b9f0 893a
000002c0: 7ab5 d03c dd1b c739 0b44 c83b 324b cc3c
000002d0: 7af8 1f3c 57a5 82bc 5ba5 2b3c 61e6 d13c
000002e0: 26b4 c5bb 8315 283d 6acf bf3c 6151 5a3c
000002f0: 2492 24bc 8af6 ef3a 2ea8 cdb8 4121 1d3d
00000300: 45d1 313d 65fa 7abc 3b77 103c a144 223d
00000310: 0cbf c93c f317 473c bf5d e03c 4095 083d
00000320: c380 07bd bf01 1f3d 6046 10bd 2941 b0bc
00000330: 704f dabc ca03 583c a869 f1bc cffe b7bb
00000340: 55ac 2f3d 1a62 093d 0b9c 22bc 967b 2c3d
00000350: 768d 1cbc 055d f33c 32c9 d2bc 1826 0bbd
00000360: 5df8 89bb 260a f73c 39af 1d3c d917 c7bc
00000370: 8948 a23c 7c45 793a ab21 c23b 128d 243c
00000380: d077 b738 d8a2 8bbc dfe9 29bd 967d 30bd
00000390: 01c6 cabc 8a81 eabc 1ac0 42bc 3587 16bc
000003a0: 5b0c 173d c404 903a 1571 a5ba 391e 8ebb
000003b0: 6b95 e2bc b02d 5cbc 89b8 7e3c db87 d6bb
000003c0: 2e76 133d 3315 1bbd bac6 9bbc f38c 0c3c
000003d0: 042a 903c 25e3 783c dd7a fd3c 2ca3 123d
000003e0: 725a 123d bc1a 773b c3bb a43c 0d9b 66bc
000003f0: f825 5abb 5db8 25bc 88a5 2bbd 9522 29bd
0.02739381 0.037434716 -0.032825623 -0.00021774229 0.036306426 0.038482696 -0.0019714483 0.03276589
0.043902505 -0.035299957 0.03301036 -0.008069783 0.013280816 0.034848634 -0.0014261423 -0.03742423
0.0029310284 0.012198422 0.01570091 -0.02618342 0.027194098 0.040724706 -0.034759086 -0.019438703
-0.04246559 0.040701658 0.039238784 0.043078117 0.027999869 -0.0048384164 -0.005857823 0.006392931
-0.026206182 0.0037717659 0.00648911 -0.028820777 -0.029519973 -0.02856158 -0.028817778 0.021218225
0.034474254 -0.02295256 0.017741697 -0.0017044934 0.0012534239 0.021209747 0.013962269 -0.017607013
-0.04227925 0.0029578821 0.03575413 0.038527213 -0.03876588 -0.0024193602 0.01764216 -0.018366264
0.015381293 0.041584168 -0.022694154 -0.028739108 -0.03132088 0.00092347525 -0.0024070176 0.040344268
-0.027290389 0.021722643 0.04018946 -0.019699862 -0.012401277 0.016779432 -0.035312477 0.023670895
-0.00085511815 0.026288759 -0.02320598 0.031736005 0.02707258 0.009618643 -0.00826625 0.009104197
0.029527597 -0.032116503 -0.022421934 -0.004249176 0.017606216 0.011083585 0.0074959593 0.019210417
-0.030996058 -0.007850806 0.029240062 -0.008562897 -0.009187982 0.002315408 0.041529756 0.037666153
-0.01031935 0.016481059 -0.03447748 -0.002473711 -0.030592188 0.019746596 0.00706573 -0.034086827
0.0356602 -0.020792285 0.010132467 -0.031824153 0.035787135 0.036039118 -0.0027466614 -0.018994024
0.036818087 0.0006846169 0.018030146 0.016584333 0.040702593 0.016125344 -0.019658228 -0.015382533
-0.016732357 -0.0028220818 -0.021323778 0.016493727 0.035784222 -0.0392745 0.030972946 0.02659041
-0.018603668 -0.023329474 0.035098154 -0.014093301 0.03378314 -0.007589635 0.0096513005 -0.032609787
-0.0023140158 -0.031853188 0.0026567192 -0.011074617 -0.013000565 0.0227593 0.008741989 -0.034991596
-0.044708617 0.0011322753 0.03910424 0.03536916 0.038848326 0.039134167 0.0137089705 -0.007720193
-0.004115312 0.033805788 -0.038760893 -0.03331201 0.009243537 0.019803006 0.01872405 0.0070070177
-0.014041197 -0.0054008323 0.003888708 0.012426248 0.02961815 -0.039820407 0.016601674 0.018771697
0.007799687 0.0051988875 0.022540037 -0.01730556 -0.0129409935 0.044490352 0.027161364 0.0010524011
0.02547716 0.00037976998 0.006111627 0.0249382 0.009763831 -0.01594798 0.010476436 0.025622549
-0.0060334383 0.04103614 0.023414332 0.013325066 -0.010044608 0.0018307727 -9.806488e-05 0.03836179
0.043412466 -0.015318488 0.008817489 0.03961623 0.024627231 0.012151706 0.027388452 0.03334546
-0.03308178 0.038820025 -0.035223365 -0.021515446 -0.026649207 0.013184497 -0.029469326 -0.0056150923
0.042888958 0.033540823 -0.009924899 0.04211005 -0.009555211 0.029707441 -0.025730703 -0.033971876
-0.0042105154 0.030156206 0.009624296 -0.024303364 0.019809978 0.000950895 0.0059244237 0.010043399
8.748437e-05 -0.017045423 -0.041482802 -0.043088518 -0.024752619 -0.028626222 -0.011886621 -0.009187509
0.036877017 0.0010987748 -0.0012622202 -0.004337099 -0.027659139 -0.013438627 0.015546926 -0.006546957
0.036001377 -0.037862014 -0.019015659 0.008578527 0.01759816 0.015190874 0.030942375 0.035800144
0.035730787 0.0037705144 0.020109063 -0.014075053 -0.0033286791 -0.010114756 -0.04190591 -0.041292746
