models/three_layers/threeLayerModel_ee_corrCut_0.9_weights_true_drop_0.5.pt (torch, 705855 bytes, 14 tensors)

model.0.weight f4 [512, 77]
0	0x3c44e174	0.012016643
1	0xbdeb518a	-0.11490162
2	0x3beb3319	0.007177722
3	0xbd5bd4c6	-0.053669713
4	0xbd4b8738	-0.0496895
5	0x3b9c5dbd	0.0047719167
6	0x3cbdbeb5	0.023162225
7	0x3db82669	0.08991701
8	0x3ca54838	0.020176038
9	0x3d79a4c9	0.060948167
10	0xbcb99fe4	-0.02265925
11	0xbcdf8117	-0.027283235
12	0x3c7a4807	0.015275962
13	0xbdc810e9	-0.0976885
14	0xbb40464f	-0.0029338782
15	0x3d90d116	0.0707113
16	0xbd32aeab	-0.043623608
17	0xbdda018f	-0.106448285
18	0x3c21aeae	0.009868307
19	0xbd36f899	-0.044670675
20	0xbd2f8341	-0.042849783
21	0xbcc38a70	-0.023869723
22	0x3c840317	0.016114755
23	0x3c6d5596	0.014485737
24	0xbd02a77b	-0.031898003
25	0xbbaf3d3a	-0.005347875
26	0xbd5784a8	-0.052616745
27	0xbd33cd32	-0.04389686
28	0x3d3774c4	0.04478909
29	0xbd899527	-0.06717902
30	0xbd630933	-0.055428695
31	0xbda8219e	-0.08209537
32	0xbda51980	-0.08061504
33	0xbce6a67b	-0.028155556
34	0xbde30596	-0.1108505
35	0x3dbe9869	0.09306414
36	0x3d85166c	0.06498417
37	0x3de721a1	0.11285711
38	0xbdd8398c	-0.10557851
39	0xbd5db908	-0.054131538
40	0x3de172dc	0.11008236
41	0x3dcbc5b1	0.09949816
42	0xbd8c1b4f	-0.06841146
43	0xbc545938	-0.0129607245
44	0x3cc16e6a	0.02361222
45	0xbd867e85	-0.065671004
46	0xbc6a22a2	-0.014290484
47	0x3d87d9a3	0.06633308
48	0xbd878862	-0.0661781
49	0x3d204577	0.039128747
50	0x3deb9551	0.11503089
51	0xbdd7581e	-0.10514854
52	0xbdb87ada	-0.09007807
53	0x3d1f6d83	0.038922798
54	0x3ce6dafc	0.028180592
55	0xbdb07e59	-0.08617849
56	0xbd7a92e5	-0.061175246
57	0xbcbe7d62	-0.023253147
58	0x3db6d7bb	0.08927866
59	0x3dddedc1	0.108363636
60	0xbda8ddf9	-0.08245463
61	0x3dc048ce	0.093888864
62	0xbdcd8bbe	-0.10036419
63	0xbdcc9ffc	-0.09991452
64	0xbd917e38	-0.071041524
65	0x3d97354c	0.073832124
66	0xbde96f6d	-0.11398206
67	0xbd84c692	-0.06483187
68	0xbd9a3b48	-0.07530838
69	0x3d5c5deb	0.053800505
70	0x3d874bcf	0.06606256
71	0xbdd29f14	-0.10284248
72	0xbd07f8af	-0.033196148
73	0xbd8236c7	-0.06358104
74	0x3dcd338c	0.100195974
75	0x3cff1b25	0.031140873
76	0x3d9a8ae4	0.075460225
77	0xbd64cea7	-0.05586114
78	0xbd4859e0	-0.048913836
79	0x3d526be8	0.05137244
80	0x3cd29ef7	0.025710566
81	0x3bf44885	0.007454934
82	0xbdcb7e1e	-0.09936164
83	0xbd8ae43d	-0.06781814
84	0xbda5b165	-0.08090476
85	0x3d419ea1	0.04727042
86	0x3da86f9d	0.082244135
87	0x3db719d1	0.08940471
88	0x3d2c6612	0.04208953
89	0xbd9bcfa6	-0.07607965
90	0xbd3b11e1	-0.045671348
91	0xbdc04886	-0.09388833
92	0xbd143302	-0.036181457
93	0x3dd71cd3	0.10503545
94	0x3d73f062	0.05955542
95	0x3dce3be3	0.10070016
96	0x3dcdc56c	0.10047421
97	0xbd390fe4	-0.04518117
98	0x3da3d73c	0.08000037
99	0x3d6b7a9a	0.05748997
100	0x3d29459a	0.041326143
101	0xbc9ed5dd	-0.019389087
102	0x3d486490	0.04892403
103	0xbdb66cf0	-0.08907497
104	0xbca5aa0e	-0.02022269
105	0xbd24fde6	-0.0402812
106	0xbdae4b09	-0.085104056
107	0x3bdf3dc6	0.006812784
108	0x3d5136d0	0.051077664
109	0xbc9b0f4a	-0.018928189
110	0xbd1d6a15	-0.038431246
111	0x3dca79a6	0.09886484
112	0x3daf6009	0.08563239
113	0x3dede07e	0.11615084
114	0x3da729f1	0.081622966
115	0x3d89ec1d	0.06734488
116	0xbd816793	-0.06318583
117	0x3d92c1b6	0.07165854
118	0x3d747bed	0.059688497
119	0xbdc4fc6d	-0.09618459
120	0x3dd1579b	0.102217875
121	0xbda53288	-0.08066279
122	0x3c9c6bdb	0.019094398
123	0xbcd46748	-0.025928155
124	0x3d53ff38	0.051757067
125	0x3d9f5962	0.0778072
126	0xba663af3	-0.0008782588
127	0xbd5cd53f	-0.053914305
128	0x3dd5553e	0.10416649
129	0x3d988d2c	0.074488014
130	0x3d60407c	0.054748997
131	0x3c3bbcd2	0.0114585925
132	0xbdc62940	-0.096758366
133	0x3cd40d50	0.025885254
134	0xbbf5f8ce	-0.0075064665
135	0x3dcfa5a2	0.10139014
136	0xbca0a43e	-0.019609567
137	0xbdf22f91	-0.11825479
138	0xbc49afce	-0.0123099815
139	0x3d08cb89	0.03339723
140	0x3d723651	0.05913383
141	0x3cbdccd2	0.023168955
142	0x3c0846b9	0.008317643
143	0xbcbaadde	-0.022787984
144	0xbca25801	-0.019817354
145	0x3d4544cb	0.04816131
146	0xbc4b2608	-0.012399204
147	0x3d9b66d6	0.07587974
148	0x3db21470	0.086953044
149	0xbd961336	-0.07327883
150	0xbdd30e8b	-0.10305508
151	0x3cccdcfc	0.025007717
152	0xbd1b8810	-0.037971556
153	0xbc359b2b	-0.011084358
154	0xbd4cd30a	-0.05000595
155	0x3ac2c17e	0.001485869
156	0xbd108050	-0.03527862
157	0x3def75af	0.11692368
158	0xbdff6b5e	-0.124716505
159	0xbdb42aaa	-0.087972
160	0x3cb6d8b0	0.022320122
161	0xbd1dada8	-0.03849569
162	0xbd9ce767	-0.07661324
163	0x3dc301a0	0.09521794
164	0x3dd0ea6e	0.10200964
165	0xbd06f5df	-0.032949325
166	0x3c37dd9e	0.011222271
167	0x3d7a06c2	0.0610416
168	0x3d0c6ddd	0.03428446
169	0x3cc7cf6d	0.0243909
170	0x3d8fd603	0.07023241
171	0xbd4294b6	-0.047505103
172	0x3be3d6d9	0.006953102
173	0x3cceeb86	0.02525879
174	0x3c80b4d1	0.01571122
175	0x3b11c3d5	0.002224197
176	0x3ccdeb83	0.025136715
177	0x3c66f090	0.0140954405
178	0x3de99d10	0.114069104
179	0xbdd37cd9	-0.10326547
180	0x3a901f31	0.0010995624
181	0xbdb7189e	-0.08940242
182	0x3d1aa617	0.037756052
183	0xbd5fd3cb	-0.05464534
184	0xbd02c412	-0.03192527
185	0xbda84fe0	-0.0821836
186	0x3ca37ece	0.019957926
187	0xbc9e633f	-0.019334434
188	0x3d9dee12	0.07711424
189	0xbc863f6b	-0.016387662
190	0xbd855a6f	-0.065113895
191	0x3d801919	0.06254787
192	0xbca76414	-0.020433463
193	0xbbb4c669	-0.0055168164
194	0xbdbf6ebd	-0.093472935
195	0xbd97e7c1	-0.074172504
196	0xbd84adef	-0.06478488
197	0xbd7bc19b	-0.061463933
198	0xbd8d3643	-0.06895115
199	0xbae22dd2	-0.0017256087
200	0x3d98ce29	0.07461197
201	0xbd7428cc	-0.05960922
202	0x3d480c59	0.0488399
203	0xbce84812	-0.028354678
204	0xbda47c09	-0.0803147
205	0xbd93d51a	-0.0721838
206	0xbafab93c	-0.001912869
207	0xbd6c6b85	-0.057719726
208	0xbd9ae783	-0.075636886
209	0xbdd57fcf	-0.10424768
210	0xbc09baac	-0.008406322
211	0xbda115a2	-0.07865454
212	0x399ae307	0.00029542317
213	0x3d42ff91	0.04760701
214	0x3d65670c	0.056006476
215	0x3d105252	0.035234757
216	0x3c9ea5d4	0.019366182
217	0x3da9621d	0.08270667
218	0x3cdd4412	0.027009998
219	0xbd0bf763	-0.034171473
220	0xbc50d0cf	-0.012745096
221	0xbdbbdf26	-0.091734216
222	0xbd7f2c2c	-0.062297985
223	0x3a0ff077	0.0005490849
224	0x3c06f193	0.008236307
225	0x3d5ff0ac	0.054672882
226	0x3e17ed46	0.14836606
227	0x3dd8193d	0.10551689
228	0x3d865def	0.06560885
229	0xbb3ac1ca	-0.0028496855
230	0x3de4e901	0.111772545
231	0x3dba70cc	0.091035455
232	0x3cd416f7	0.025889857
233	0xbca4bec2	-0.020110492
234	0xbce1b479	-0.027551876
235	0x3d798964	0.06092204
236	0xbd81baf9	-0.0633449
237	0xbd3299d6	-0.04360374
238	0x3d36bef1	0.04461569
239	0xbd4d8bec	-0.050182268
240	0x3d3e8173	0.04651017
241	0xbdd0d755	-0.10197321
242	0x3cd2ea57	0.025746508
243	0x3d052a2e	0.03251093
244	0x3d31a74a	0.04337243
245	0xbd140e80	-0.03614664
246	0x3d40b7ba	0.047050215
247	0x3ce03ee5	0.02737374
248	0x3dcd3f32	0.10021819
249	0x3bddc338	0.0067676567
250	0xbdd3ead3	-0.103475235
251	0xbdaca1b2	-0.084292784
252	0xbcae39b8	-0.021267757
253	0xbce1a5f7	-0.027544959
254	0x3cfa18fe	0.030529495
255	0xbdd99d28	-0.10625678

model.0.bias f4 [512]
0	0xbb80c72a	-0.003929992
1	0x3d2d9e4d	0.042387296
2	0x3db40471	0.0878991
3	0xbc62f954	-0.01385339
4	0xbd810275	-0.06299297
5	0x3dd33961	0.103136785
6	0x3bb73b7a	0.005591807
7	0xbd9f0662	-0.07764889
8	0x3d415338	0.047198504
9	0xbd3d914e	-0.04628115
10	0x3c1da018	0.009620689
11	0xbd7cff80	-0.0617671
12	0xbd10e506	-0.035374664
13	0xbc859570	-0.016306609
14	0x3db9d819	0.090744205
15	0x3d00712c	0.03135793
16	0x3d22f64c	0.03978567
17	0xbd7b54f9	-0.061360333
18	0x3c1a3660	0.009412378
19	0xbb701565	-0.0036633846
20	0xbdbd033b	-0.09229132
21	0x3cc57e6e	0.024108138
22	0xbb8603dd	-0.004089816
23	0xbdb5c0fc	-0.088746995
24	0x3ddb1d07	0.10698896
25	0x3d3a75c3	0.045522463
26	0xbd669c42	-0.056301363
27	0xbd041064	-0.032242194
28	0x3b230247	0.0024873184
29	0x3dd51f66	0.104063794
30	0x3d91d4c5	0.07120661
31	0xbd29fc90	-0.041500628
32	0xbd47604f	-0.04867583
33	0x3dc26f9f	0.09493946
34	0x3da45602	0.08024217
35	0xbd97c433	-0.07410469
36	0xbd2ef873	-0.04271741
37	0x3c8f1959	0.017468141
38	0xbdba08f9	-0.09083743
39	0xbd47c84d	-0.048775006
40	0xbd81a27a	-0.06329818
41	0x3d0de74e	0.034644417
42	0xbd80638e	-0.062689885
43	0x3b3fc86d	0.002926375
44	0xbdd32197	-0.10309141
45	0x3de28381	0.11060239
46	0xbc6423aa	-0.013924519
47	0xbd8c4e5d	-0.06850884
48	0xbd15607b	-0.036468964
49	0x3db3cab9	0.08778901
50	0xbd2437e9	-0.040092383
51	0xbc7dec04	-0.015498165
52	0xbd85c366	-0.0653141
53	0x3db30b85	0.087424316
54	0xbd4cdb3e	-0.050013773
55	0xbbdd395b	-0.006751222
56	0xbc20263a	-0.009774739
57	0xbdafbd95	-0.08581082
58	0x3ce509f4	0.027958848
59	0xbd84d928	-0.06486732
60	0xbd0dec6c	-0.034649298
61	0xbc4b985f	-0.012426465
62	0xbd21960e	-0.039449744
63	0xbdc3702f	-0.09542882
64	0x3de4c021	0.11169458
65	0xbc2759a4	-0.010214243
66	0xbd0f49ec	-0.034982607
67	0xbbc5b432	-0.006033444
68	0xbd6e44d4	-0.05817111
69	0xbdc4d39e	-0.09610675
70	0x3d86f963	0.065905355
71	0x3db58abc	0.08864352
72	0xbde85979	-0.113451906
73	0x3d8cba37	0.06871455
74	0x3da27499	0.079323955
75	0x3d92bcb0	0.071648955
76	0x3d9ff5b4	0.07810536
77	0xbc7aa42b	-0.01529793
78	0xbd0413e5	-0.032245535
79	0xbde47628	-0.11155349
80	0x3d9222e9	0.07135565
81	0x3bc35386	0.0059608845
82	0xbce5b812	-0.028041873
83	0x3dc57951	0.0964228
84	0x3db22267	0.08697968
85	0xbd0010f3	-0.031266164
86	0x3d1c8551	0.038213078
87	0xbc88ef15	-0.016715566
88	0x3daa9754	0.08329645
89	0xbd08d9e8	-0.033410937
90	0x3d8e1372	0.06937303
91	0x3c0e524d	0.008686614
92	0x3d733d85	0.05938484
93	0x3d6bcbfe	0.05756759
94	0x3d422071	0.04739422
95	0x3dcfa8ad	0.10139594
96	0x3c342f42	0.010997595
97	0x3dbbae1c	0.09164068
98	0x3d40f819	0.047111604
99	0xbdb8f1e6	-0.090305135
100	0x3c2c6ebe	0.01052445
101	0x3da620e7	0.081117444
102	0xbb3530e2	-0.0027647545
103	0xbd005f0b	-0.03134064
104	0x3de5ad74	0.11214724
105	0x3d2fb474	0.042896703
106	0xbd7f8e27	-0.062391426
107	0xbc8f2701	-0.017474653
108	0x3d9783f6	0.073982164
109	0x3ddf64aa	0.10907872
110	0x3d0dc486	0.034611247
111	0x3d71b8ef	0.059014257
112	0x3d447d73	0.0479712
113	0x3cf56ed2	0.02996007
114	0x3cb13492	0.021631513
115	0xbd84a4a4	-0.06476715
116	0x3cb2f089	0.021843212
117	0x3c6d596a	0.01448665
118	0xbc9ca6df	-0.01912254
119	0xbdccff34	-0.10009614
120	0x3d5f1d78	0.054471463
121	0x3d2d6066	0.04232826
122	0xbd98d1f2	-0.07461919
123	0xbd76f782	-0.060294636
124	0x3c8387ad	0.016055906
125	0xbd37cc66	-0.044872664
126	0xbdb00ae3	-0.085958265
127	0x3dc7ae98	0.09750098
128	0xbcba2ab2	-0.022725437
129	0xbdc5fb05	-0.09667019
130	0x3d98ca4e	0.074604616
131	0x3d5948b9	0.05304787
132	0xbd89ada3	-0.06722572
133	0xbdb89871	-0.09013451
134	0x3cd4ced2	0.025977526
135	0x3d9ca5d9	0.076488204
136	0x3de1a3bd	0.11017559
137	0x3d93ee45	0.07223181
138	0x3cadfaa3	0.021237677
139	0x3d98a594	0.074534565
140	0x3d127c21	0.03576291
141	0xbc47e7b3	-0.0122012375
142	0xbdd10f1c	-0.1020796
143	0x3a9b6be6	0.0011857718
144	0xbd98cd2a	-0.07461007
145	0x3c8cf121	0.017204823
146	0xbd61ec07	-0.055156734
147	0x3c1d2abb	0.009592707
148	0xbdaf2f5f	-0.08553957
149	0x3c7ad9a6	0.0153106805
150	0x3d29b550	0.04143268
151	0x3d99c087	0.07507425
152	0x3dc66403	0.096870445
153	0xbcabb3dc	-0.020959787
154	0xbda8c6d0	-0.082410455
155	0x3d038a03	0.03211404
156	0xbd99800a	-0.07495125
157	0xbdddd934	-0.10832444
158	0xbc3073a4	-0.010769758
159	0x3dde866d	0.108654834
160	0x3d647134	0.05577202
161	0xbd08a63b	-0.033361655
162	0xbd088c0a	-0.033336677
163	0xbc737bf6	-0.014861098
164	0x39290462	0.00016118729
165	0x3d5c396b	0.053765696
166	0x3c8fac12	0.017538104
167	0xbde3a92d	-0.11116252
168	0xbc7d1c10	-0.015448585
169	0x3d77e3e5	0.06052007
170	0xbddc8143	-0.10766842
171	0xbd07c272	-0.033144422
172	0xbdb3d8bf	-0.087815754
173	0x3d5adb77	0.053431954
174	0xbd44079a	-0.047858812
175	0x3d3e36a0	0.046438813
176	0x3da57d1a	0.08080502
177	0x3d948546	0.072519824
178	0xbd14329b	-0.036181074
179	0xbd69f1e0	-0.057115436
180	0xbdd25e54	-0.10271898
181	0x3cfaeee1	0.030631484
182	0xbd7c01b4	-0.06152506
183	0x3cb54c3c	0.022131078
184	0x3dda62d3	0.106633805
185	0xbc9d66ca	-0.019214053
186	0x3dda3d1f	0.10656189
187	0x3d2d1d4b	0.042264264
188	0xbda33788	-0.07969576
189	0x3a01f3ce	0.0004957289
190	0x3dd19381	0.10233212
191	0x3d0b8a73	0.034067582
192	0xbdaaaae3	-0.08333375
193	0xbde6366e	-0.112408504
194	0x3d6e2520	0.058140874
195	0xbb31e88d	-0.0027146668
196	0x3dc6dc05	0.09709934
197	0x3b982e1e	0.0046441695
198	0x3da83188	0.08212572
199	0xbde16845	-0.11006216
200	0xbd4035d3	-0.04692633
201	0xbd0f0668	-0.03491822
202	0xbcfab042	-0.030601624
203	0xbda59a4a	-0.08086069
204	0xbc3d6ac7	-0.011561102
205	0xbde6185e	-0.112351164
206	0xbd1ff8e6	-0.039055727
207	0x3dc9d7c9	0.09855611
208	0xbc88be93	-0.016692435
209	0x3de841cd	0.113406755
210	0x3d4a7ef3	0.049437474
211	0x3d85b6ee	0.06529032
212	0xbda5c12c	-0.08093485
213	0xbcd53196	-0.026024621
214	0xbda141f0	-0.07873905
215	0xbca7033b	-0.020387283
216	0x3d16eb9c	0.03684579
217	0x3cced833	0.025249576
218	0x3d22be81	0.03973246
219	0x3d2688ab	0.04065768
220	0xbdc872b7	-0.09787505
221	0x3dd1ea20	0.10249734
222	0x3de189ff	0.11012649
223	0xbd6db9d9	-0.058038566
224	0x3d4c79dd	0.049920905
225	0x3d8c6776	0.06855671
226	0xbdbc8806	-0.09205632
227	0xbd5d2f8f	-0.054000434
228	0x3d5893f0	0.05287546
229	0xbdaa199c	-0.08305666
230	0xbdcdfbb2	-0.10057773
231	0x3b215a0a	0.0024620318
232	0xbdb8f779	-0.09031577
233	0x3dc6dd01	0.09710122
234	0xbce97149	-0.028496401
235	0xbcef3c82	-0.029203657
236	0xbd06ec9e	-0.0329405
237	0xbc933bb9	-0.017972814
238	0x3d77cb34	0.060496524
239	0xbdddec3a	-0.10836072
240	0xbccc8447	-0.024965419
241	0x39dda073	0.0004227195
242	0xbd9a991e	-0.07548736
243	0x3d90db17	0.07073038
244	0xbcea8d8b	-0.028631946
245	0xbd3effa1	-0.046630505
246	0x3d7e4714	0.062079504
247	0x3d4353c9	0.047687326
248	0x3de7104e	0.11282407
249	0xbd8619ac	-0.06547865
250	0x3d99dbe0	0.07512641
251	0x3dd9bb43	0.106314205
252	0xbb8c0118	-0.0042725913
253	0xbca8fd7e	-0.020628687
254	0x3d92c29f	0.07166027
255	0xbd8f3d96	-0.069941685

model.1.weight f4 [512]
0	0x3f7eec3c	0.99579215
1	0x3f803ece	1.0019166
2	0x3f82ee80	1.0229034
3	0x3f7f583c	0.9974401
4	0x3f7ed7a4	0.9954779
5	0x3f80919d	1.0044438
6	0x3f7fa298	0.99857473
7	0x3f80a3f4	1.0050035
8	0x3f7c3782	0.985222
9	0x3f81b07b	1.0131983
10	0x3f7de2aa	0.99173987
11	0x3f80df0b	1.0068067
12	0x3f7ff4f6	0.99983156
13	0x3f80e911	1.0071126
14	0x3f7dfa6e	0.9921025
15	0x3f80ace6	1.0052764
16	0x3f7ebd58	0.99507666
17	0x3f7f5639	0.9974094
18	0x3f802d41	1.001381
19	0x3f7dd0e5	0.9914687
20	0x3f7b81ab	0.9824473
21	0x3f80b4bc	1.0055156
22	0x3f807ebb	1.0038675
23	0x3f80160e	1.000673
24	0x3f7f9391	0.99834543
25	0x3f7e8802	0.9942628
26	0x3f7e5093	0.99341697
27	0x3f7ef640	0.995945
28	0x3f7e9342	0.9944345
29	0x3f803d62	1.0018733
30	0x3f7fa510	0.9986124
31	0x3f80af93	1.0053581
32	0x3f7eadf4	0.9948418
33	0x3f800ad1	1.0003301
34	0x3f8139e6	1.0095794
35	0x3f804b63	1.0023006
36	0x3f7dca0f	0.9913644
37	0x3f81057e	1.0079801
38	0x3f7d4b19	0.98942715
39	0x3f7d3141	0.9890328
40	0x3f803072	1.0014784
41	0x3f7e5bda	0.99358904
42	0x3f7c0156	0.9843954
43	0x3f7fb3a5	0.9988349
44	0x3f81af29	1.013158
45	0x3f804d12	1.002352
46	0x3f80b617	1.005557
47	0x3f7eea71	0.9957648
48	0x3f7e92f9	0.9944301
49	0x3f8136df	1.009487
50	0x3f819c5a	1.012584
51	0x3f7df971	0.9920874
52	0x3f815107	1.0102853
53	0x3f807265	1.003491
54	0x3f7c3af7	0.98527473
55	0x3f7fbe8f	0.99900144
56	0x3f7e1427	0.992495
57	0x3f80d8b0	1.0066128
58	0x3f7f1fdd	0.99657995
59	0x3f7e886d	0.9942692
60	0x3f7ecd0a	0.99531615
61	0x3f81e21f	1.0147132
62	0x3f7e2bfc	0.99285865
63	0x3f7c5387	0.9856495
64	0x3f7faada	0.99870074
65	0x3f7dde2c	0.9916713
66	0x3f7e1917	0.99257034
67	0x3f81144c	1.0084319
68	0x3f7e8543	0.9942209
69	0x3f7dad10	0.990922
70	0x3f802aaa	1.001302
71	0x3f7fa596	0.9986204
72	0x3f806d95	1.0033442
73	0x3f7f7033	0.9978058
74	0x3f7f5e8e	0.99753654
75	0x3f7dfe36	0.9921602
76	0x3f7ca3d6	0.98687494
77	0x3f7eacd2	0.9948245
78	0x3f7f79e4	0.99795365
79	0x3f800ceb	1.0003942
80	0x3f813395	1.0093867
81	0x3f7f8389	0.9981008
82	0x3f7e12aa	0.9924723
83	0x3f802af1	1.0013105
84	0x3f80e913	1.0071129
85	0x3f7c22e0	0.98490715
86	0x3f823ced	1.0174843
87	0x3f80084b	1.0002531
88	0x3f81a483	1.012833
89	0x3f7d5baa	0.98967993
90	0x3f800cb3	1.0003875
91	0x3f7e267f	0.9927749
92	0x3f7f775f	0.9979152
93	0x3f81facc	1.0154662
94	0x3f7d4799	0.98937374
95	0x3f801823	1.0007366
96	0x3f7ee516	0.9956831
97	0x3f7ede91	0.9955836
98	0x3f7fdfc0	0.9995079
99	0x3f7da558	0.9908042
100	0x3f7cef83	0.98802966
101	0x3f8111ec	1.0083594
102	0x3f7f0c31	0.9962798
103	0x3f7fbae3	0.9989454
104	0x3f81369c	1.009479
105	0x3f7f13e3	0.9963972
106	0x3f7fac8a	0.9987265
107	0x3f80cb37	1.0062016
108	0x3f7d93e0	0.99053764
109	0x3f7cb817	0.987184
110	0x3f7ff6ac	0.99985766
111	0x3f80931f	1.0044898
112	0x3f806062	1.0029414
113	0x3f7ebf97	0.9951109
114	0x3f80e796	1.0070674
115	0x3f81e60f	1.0148333
116	0x3f7f60fc	0.9975736
117	0x3f801fc8	1.0009699
118	0x3f7f74f7	0.9978785
119	0x3f7dd498	0.9915252
120	0x3f810d0d	1.0082108
121	0x3f812f38	1.0092535
122	0x3f8089b4	1.0042024
123	0x3f80a430	1.0050106
124	0x3f801b39	1.0008308
125	0x3f7d9d91	0.9906855
126	0x3f7f5c82	0.9975053
127	0x3f7c6ed1	0.9860659
128	0x3f7f7e86	0.99802434
129	0x3f808614	1.0040917
130	0x3f7e9b67	0.99455875
131	0x3f81daa8	1.0144854
132	0x3f806963	1.0032161
133	0x3f8011f4	1.0005479
134	0x3f8099ed	1.0046974
135	0x3f7f481b	0.997194
136	0x3f800dc1	1.0004197
137	0x3f814e6b	1.0102056
138	0x3f7e1913	0.9925701
139	0x3f81b160	1.0132256
140	0x3f818db7	1.0121373
141	0x3f811315	1.0083948
142	0x3f7e7bc5	0.9940761
143	0x3f7fa21d	0.9985674
144	0x3f80036e	1.0001047
145	0x3f7fe776	0.99962556
146	0x3f8217f5	1.0163561
147	0x3f7da1da	0.9907509
148	0x3f81d78b	1.0143903
149	0x3f809d3e	1.0047987
150	0x3f7d4a22	0.9894124
151	0x3f81bc93	1.0135673
152	0x3f811a6e	1.0086191
153	0x3f812e33	1.0092224
154	0x3f7c1bd0	0.9847994
155	0x3f7e9b66	0.9945587
156	0x3f7f76ee	0.9979085
157	0x3f8010d5	1.0005137
158	0x3f7e1bad	0.9926098
159	0x3f818c1d	1.0120884
160	0x3f813f41	1.0097429
161	0x3f7f836e	0.9980992
162	0x3f7e4c27	0.9933495
163	0x3f7eaa10	0.99478245
164	0x3f7d96ed	0.9905842
165	0x3f7ce5d0	0.98788166
166	0x3f80140f	1.0006121
167	0x3f80602d	1.002935
168	0x3f7e1ce5	0.9926284
169	0x3f7fe928	0.99965143
170	0x3f80d594	1.0065179
171	0x3f82533a	1.0181649
172	0x3f7e8563	0.9942228
173	0x3f7f952e	0.99837005
174	0x3f7e68f2	0.99378884
175	0x3f80eb99	1.0071899
176	0x3f805c16	1.0028102
177	0x3f7ff0a4	0.99976563
178	0x3f81d3a8	1.0142717
179	0x3f7e8fde	0.99438274
180	0x3f810f52	1.00828
181	0x3f812ba5	1.0091444
182	0x3f81ef55	1.0151163
183	0x3f802abc	1.0013041
184	0x3f802a0f	1.0012835
185	0x3f7fe0db	0.9995248
186	0x3f80bfaa	1.0058491
187	0x3f7e0cc3	0.9923822
188	0x3f81135e	1.0084035
189	0x3f7fb83b	0.9989049
190	0x3f7dbb74	0.99114156
191	0x3f7fcd22	0.9992238
192	0x3f815790	1.0104847
193	0x3f7f569f	0.9974155
194	0x3f7f6d1e	0.99775875
195	0x3f805ecd	1.0028931
196	0x3f81a2d9	1.0127822
197	0x3f800d95	1.0004145
198	0x3f7e8adf	0.9943065
199	0x3f816473	1.010878
200	0x3f80e118	1.0068693
201	0x3f7de353	0.99174994
202	0x3f80dbdb	1.0067095
203	0x3f8096da	1.0046036
204	0x3f7eca78	0.9952769
205	0x3f7f5b9a	0.9974915
206	0x3f7f0e9e	0.9963168
207	0x3f7d8388	0.99028826
208	0x3f805128	1.0024767
209	0x3f7e2dba	0.99288523
210	0x3f80ddc4	1.0067677
211	0x3f7ed5b0	0.9954481
212	0x3f7f5192	0.9973384
213	0x3f81f41e	1.0152624
214	0x3f7c5c32	0.9857818
215	0x3f81905b	1.0122179
216	0x3f7ff9a4	0.99990296
217	0x3f812367	1.0088929
218	0x3f7d4f1b	0.9894883
219	0x3f7e4d80	0.99337006
220	0x3f823ae2	1.017422
221	0x3f811c09	1.0086681
222	0x3f800b35	1.000342
223	0x3f80db76	1.0066974
224	0x3f7d0030	0.9882841
225	0x3f7fbbd5	0.99895984
226	0x3f817b8b	1.0115827
227	0x3f808279	1.0039817
228	0x3f7f0a4b	0.9962508
229	0x3f813597	1.0094479
230	0x3f7e5c29	0.99359375
231	0x3f7e19f3	0.99258345
232	0x3f80b102	1.0054018
233	0x3f7f0fc0	0.9963341
234	0x3f7f6016	0.9975599
235	0x3f800e35	1.0004336
236	0x3f7ef3f1	0.99590975
237	0x3f802db4	1.0013947
238	0x3f7fc009	0.999024
239	0x3f8021b3	1.0010284
240	0x3f82034d	1.0157257
241	0x3f80acaf	1.0052699
242	0x3f7f9ea0	0.9985142
243	0x3f809070	1.0044079
244	0x3f7e734d	0.99394685
245	0x3f80ba03	1.0056766
246	0x3f80044c	1.0001311
247	0x3f7fe69a	0.99961245
248	0x3f7f8d5f	0.9982509
249	0x3f8083dd	1.0040241
250	0x3f800f1d	1.0004612
251	0x3f805105	1.0024725
252	0x3f803f2b	1.0019277
253	0x3f7d6ee8	0.98997355
254	0x3f7dc617	0.99130386
255	0x3f80001d	1.0000035

model.1.bias f4 [512]
0	0xbc214275	-0.009842505
1	0x391928e4	0.0001460645
2	0xbb5cc4b0	-0.003368657
3	0xbbc481c6	-0.0059969155
4	0xbccfd9d2	-0.02537242
5	0xbc27968f	-0.010228767
6	0xbb19a392	-0.0023443443
7	0x3b0c0564	0.0021365518
8	0xbca03566	-0.019556712
9	0xbc01064c	-0.007875036
10	0xbac55346	-0.0015054725
11	0x3c32da8d	0.010916364
12	0xbbd240dc	-0.0064164232
13	0xbb2196f3	-0.0024656623
14	0xbbaa90ae	-0.0052052354
15	0xbcc4b2f8	-0.02401112
16	0xbc4c2b49	-0.012461492
17	0xbbb2a0cc	-0.0054512974
18	0xbcb233b1	-0.021753164
19	0xbb20ddfa	-0.002454637
20	0xbc87bcf8	-0.0165696
21	0xbcd0866c	-0.025454722
22	0xbc8bfb6b	-0.017087659
23	0xb9b2f9bf	-0.0003413688
24	0xbc6af185	-0.014339809
25	0xbd1125ee	-0.035436563
26	0xbc66f92b	-0.014097492
27	0xbbf7c23e	-0.0075609973
28	0xbccce444	-0.02501119
29	0xbc8d17ea	-0.017223317
30	0xbc98ae11	-0.018637689
31	0xbbc1cae8	-0.005914081
32	0xbc1a0a1b	-0.009401823
33	0x3be3d5b3	0.006952965
34	0xbba68ad4	-0.0050824676
35	0x3c0546b2	0.008134531
36	0xbc8964fb	-0.016771784
37	0xbb36424b	-0.002781051
38	0xbc92114b	-0.017830512
39	0xbcc8deef	-0.024520366
40	0xbc709ed9	-0.01468631
41	0xbbff8c0d	-0.007798678
42	0xbc7f37e4	-0.01557729
43	0xbc1e2896	-0.009653231
44	0x3b814fc6	0.0039462773
45	0xbc880839	-0.016605483
46	0x3b9e9e71	0.004840665
47	0xbc0b6a3d	-0.008509216
48	0xbd38454f	-0.044987973
49	0xbb97242a	-0.0046124654
50	0xbad31329	-0.0016103733
51	0xba4068f9	-0.0007339861
52	0xbc87c02c	-0.016571127
53	0xbbc75012	-0.006082543
54	0xbb8999e2	-0.0041992525
55	0xbc2b24b7	-0.010445765
56	0xbcd21d5e	-0.025648769
57	0xbc8e12ce	-0.017342951
58	0xbba7107b	-0.0050984
59	0xbc84d198	-0.016213223
60	0xbc70ec39	-0.014704757
61	0xbc049ad4	-0.0080935545
62	0xbca5be76	-0.02023242
63	0xbb3da9e8	-0.0028940383
64	0xbbee34c1	-0.0072694723
65	0xbc9631e5	-0.018334338
66	0xbc166fed	-0.009181959
67	0xbbea9fb6	-0.0071601523
68	0xbc6cf6b1	-0.014463113
69	0xbc821026	-0.01587684
70	0xbc1149ca	-0.00886769
71	0xbca35f4c	-0.019942902
72	0x3a79b14e	0.00095250166
73	0xbaca3409	-0.0015426885
74	0xbb689179	-0.00354871
75	0xbc7d0e72	-0.015445339
76	0xbc2091d5	-0.009800394
77	0xbc50f5de	-0.012753932
78	0xbc35d0d3	-0.011097151
79	0xbaccb634	-0.0015618266
80	0xbc6fb76f	-0.014631136
81	0xbc4bf61e	-0.012448816
82	0xbc5fba68	-0.013655283
83	0x3bcf02b5	0.0063174614
84	0x3bf2cf73	0.007409984
85	0xbc0512ec	-0.008122187
86	0xbbaaeedd	-0.005216463
87	0xbbca3180	-0.0061704516
88	0xbba4f1bb	-0.0050336993
89	0xbc8584e7	-0.016298724
90	0xbc81338a	-0.015771646
91	0xbc552952	-0.01301034
92	0xbcd8cdc3	-0.026465302
93	0xbba6eb83	-0.005093993
94	0xbb515a1a	-0.0031944574
95	0xbc21ced6	-0.009875974
96	0xbb866396	-0.004101227
97	0xbcdbba64	-0.026822276
98	0xbcbfddfc	-0.02342128
99	0xbc786540	-0.015160859
100	0xbbc9d077	-0.006158884
101	0xbc9d6bcf	-0.019216446
102	0xbc7b127c	-0.015324231
103	0xbc773598	-0.015088461
104	0xbcc2a7f4	-0.023761727
105	0xbc8edcb6	-0.017439228
106	0xbb354502	-0.002765954
107	0xbc0a7c65	-0.0084525095
108	0xbcc454a2	-0.023966137
109	0xbc887e3d	-0.016661758
110	0x3a54e987	0.00081219565
111	0xbc2630b0	-0.010143444
112	0xbbdfabe7	-0.0068259123
113	0xbcedc1de	-0.029023107
114	0xbbf0d339	-0.0073493985
115	0x3c3501a1	0.011047752
116	0xbc5b2c56	-0.01337727
117	0xbc25a7e2	-0.010110827
118	0xbc418253	-0.011810857
119	0xbc4c48c2	-0.012468519
120	0xbc46e9b7	-0.012140683
121	0xbbbd51b0	-0.00577756
122	0xbd1bcea6	-0.038038872
123	0xbb963b2a	-0.0045846896
124	0xbcb21c7c	-0.021742098
125	0xbbea8411	-0.007156857
126	0xbb686d3b	-0.0035465497
127	0xbc0e2fa7	-0.008678353
128	0xbc2658c6	-0.010153001
129	0xbc8090b7	-0.015694005
130	0xbb4f80c1	-0.0031662437
131	0xb8da381e	-0.00010405503
132	0xbc5fcab9	-0.013659173
133	0x3b94069d	0.00451739
134	0xbc554722	-0.013017448
135	0xbc23dbfc	-0.010001179
136	0xbc06577e	-0.008199571
137	0x3b70b0f9	0.0036726578
138	0xbcadb4d0	-0.021204382
139	0xbc365c70	-0.011130437
140	0xbbb0d798	-0.0053967945
141	0xbc4f7ad8	-0.012663566
142	0xbb6afead	-0.0035857365
143	0xbc38fde1	-0.011290998
144	0x3bf22c75	0.0073905536
145	0xbc90b82d	-0.017665947
146	0xbb8f26a7	-0.0043686214
147	0xbc213139	-0.009838396
148	0xbb929685	-0.0044735097
149	0xbc7a3449	-0.015271255
150	0xbc4fccfe	-0.012683151
151	0xbb7f1ca1	-0.0038926976
152	0x3b488834	0.0030598762
153	0xbc2a3f15	-0.0103910165
154	0xbca4b034	-0.020103551
155	0x3abbeb10	0.0014337022
156	0xbc84decc	-0.01621952
157	0xbcfb79c5	-0.030697713
158	0xbc95e5a8	-0.018297985
159	0xbb8c1311	-0.004274734
160	0x3b4e2897	0.00314573
161	0xbb4e7d63	-0.0031507842
162	0xbc6ac264	-0.014328573
163	0xbc646adf	-0.013941496
164	0xbc2fa09c	-0.010719445
165	0xbcbc0aa4	-0.022954293
166	0xbca69af9	-0.020337569
167	0xbc137a0b	-0.009001265
168	0xba6a36a1	-0.0008934532
169	0xbc24610b	-0.0100329025
170	0xbbcc2599	-0.006230068
171	0x3ba14efd	0.004922746
172	0xbcdb9780	-0.02680564
173	0xbb0b373b	-0.0021242637
174	0xbbbffd00	-0.0058590174
175	0xbc151d1d	-0.009101179
176	0xbc981444	-0.01856435
177	0xbcd6a3f0	-0.026201218
178	0x3c5844fa	0.013200039
179	0xbbd2c794	-0.006432483
180	0xbccac944	-0.024754174
181	0xbbd451c0	-0.006479472
182	0xbcf233af	-0.02956566
183	0xbc98cec7	-0.018653287
184	0xbc05ed11	-0.008174197
185	0xbc241a4d	-0.010016036
186	0xbc964655	-0.018344084
187	0xbba94fa8	-0.0051669665
188	0xbccc655c	-0.024950676
189	0xbceade5f	-0.028670488
190	0xbc8d21e7	-0.01722808
191	0xbc25915e	-0.010105459
192	0xbb68857a	-0.003547995
193	0xbbf77dee	-0.007552854
194	0xbc1822e1	-0.0092856595
195	0xbba213b6	-0.0049461974
196	0xbbc6b5e6	-0.0060641645
197	0xbc52a740	-0.012857258
198	0xbb72831d	-0.003700442
199	0xbc194014	-0.009353656
200	0xbc73c2e8	-0.014878012
201	0xbc4b37c1	-0.0124034295
202	0xbca59129	-0.02021082
203	0xbcaafcb3	-0.02087245
204	0xbbe8470a	-0.0070885466
205	0xbc630815	-0.013856907
206	0xbadcf7c2	-0.0016858506
207	0xbc23c032	-0.009994553
208	0xbcc0addd	-0.023520404
209	0xbc97c9c2	-0.018528823
210	0xbccba3ed	-0.02485844
211	0xbc274ffc	-0.010211941
212	0xbd0d3a58	-0.03447947
213	0x3bae11ad	0.0053121657
214	0xbc745f63	-0.01491532
215	0xbce0101a	-0.027351428
216	0x3c28fa03	0.010313514
217	0xb9038867	-0.00012543947
218	0xbcc95b7c	-0.024579756
219	0xbbff8500	-0.0077978373
220	0xbbb8042a	-0.005615731
221	0x3c1f5b47	0.009726352
222	0xbc34712f	-0.011013313
223	0xbc1a90ef	-0.009433969
224	0xbc53cf03	-0.012927773
225	0xba4a72b5	-0.0007722781
226	0xbc4c001e	-0.0124512
227	0xbb64fbd0	-0.003494013
228	0xb9f6adc4	-0.00047050242
229	0xb9f4583f	-0.00046605055
230	0xbc7a5fbb	-0.015281613
231	0xbb87c5c8	-0.0041434504
232	0xbbee9996	-0.0072814925
233	0xbb11e250	-0.0022260137
234	0xbbd2c18f	-0.0064317654
235	0x3aeabb91	0.0017908682
236	0xbb8064f9	-0.003918287
237	0xbc653e50	-0.013991907
238	0xbc6c1cba	-0.014411146
239	0xbc8db070	-0.017296046
240	0x3b94ada2	0.0045373
241	0xbcc26b80	-0.0237329
242	0xbc6a9b16	-0.014319202
243	0xbc957f10	-0.018249065
244	0xbc6e3b5f	-0.014540522
245	0xbaf7a210	-0.0018892903
246	0x3a0e1179	0.0005419474
247	0xbc05da25	-0.0081696855
248	0x3be5987e	0.007006704
249	0xbc11546c	-0.008870225
250	0xbc77c3cc	-0.015122365
251	0xbb53cce7	-0.0032318176
252	0xbbf6b80f	-0.0075292657
253	0xbbbb8dbe	-0.005723684
254	0xbc856db3	-0.01628766
255	0xbc81bf35	-0.015838245

model.1.running_mean f4 [512]
0	0xbea605f3	-0.32426414
1	0x3ed31a07	0.41230795
2	0xbe617281	-0.22016336
3	0xbdbd428f	-0.09241211
4	0xbe03ad5a	-0.12859097
5	0x3d9ad42b	0.07559999
6	0x3cb57f58	0.022155449
7	0xbd8d1a67	-0.068898015
8	0x3e730b7f	0.23734854
9	0x3e098ec8	0.13433373
10	0x3eb3c18b	0.351086
11	0xbd13ea34	-0.036112025
12	0xbe6aedec	-0.22942322
13	0xbdb91778	-0.090376794
14	0x3dd8cf7e	0.10586451
15	0x3dc70297	0.09717291
16	0xbe51bd01	-0.20482256
17	0x3e7cf28a	0.24701896
18	0xbda82fe4	-0.082122594
19	0x3bfbd91e	0.0076857945
20	0x3d981bbe	0.074271664
21	0x3d9eef6e	0.07760511
22	0xbdde4608	-0.10853201
23	0xbf111e7c	-0.5668714
24	0xbe9d4745	-0.30718437
25	0x3d7b35bc	0.061330542
26	0xbe86f949	-0.26362064
27	0xbec175c6	-0.37785167
28	0x3ea5c7e4	0.32379067
29	0x3eb9432a	0.36184055
30	0xbe88f68c	-0.267506
31	0x3e8409cb	0.2578872
32	0xbd402133	-0.04690666
33	0x3cd98ef4	0.026557423
34	0xbe74d72d	-0.23910208
35	0x3e45712c	0.19281453
36	0xbeb071a6	-0.34461707
37	0x3e567e44	0.20946604
38	0xbb3e2bc4	-0.0029017786
39	0xbd73a6cc	-0.05948524
40	0x3d5b7953	0.0535825
41	0xbc94c385	-0.018159637
42	0x3e149bdf	0.14512585
43	0x3d77367f	0.060354706
44	0xbe9b01db	-0.30274853
45	0x3e855002	0.26037604
46	0x3e58c1a5	0.2116762
47	0x3dabf512	0.08396353
48	0x3e8a4517	0.27005836
49	0xbdb621ac	-0.08893141
50	0xbe554073	-0.20825367
51	0x3dc42ba2	0.09578635
52	0xbec5467e	-0.38530344
53	0x3ec79f5f	0.38988778
54	0x3d4b8c9c	0.049694642
55	0x3d555169	0.052079592
56	0xbcdc729d	-0.02691012
57	0x3dcb888e	0.09938155
58	0xbf0b2cd0	-0.54365253
59	0xbe3c9893	-0.18417577
60	0x3e94e7e2	0.29083163
61	0xbdcfad4a	-0.10140474
62	0x3e735d64	0.23766094
63	0xbc5e2be8	-0.013560273
64	0x3e45241a	0.19252053
65	0xbe2d5d09	-0.16930021
66	0x3de5df72	0.112242594
67	0xbe4154b2	-0.18879965
68	0x3a36bc1d	0.000697078
69	0xbdfd346f	-0.123635165
70	0xbead6832	-0.33868557
71	0xbc4ef88e	-0.012632502
72	0x3e12121d	0.14264722
73	0xbe89de4d	-0.26927415
74	0x3e6841c3	0.22681336
75	0x3ea2b5fe	0.31779474
76	0x3ddffe09	0.10937125
77	0xbeb8effe	-0.361206
78	0x3e5a5208	0.21320355
79	0xbeae42ce	-0.34035343
80	0x3f0e3241	0.5554543
81	0x3e1154e2	0.14192536
82	0xbe92115b	-0.28528866
83	0x3e8439d4	0.2582537
84	0x3e00df21	0.12585117
85	0xbdf94ed9	-0.12173242
86	0x3e331319	0.17487754
87	0xbdc02584	-0.093821555
88	0xbd9f8d9f	-0.07790684
89	0x3d829f8e	0.06378089
90	0x3d9bb2a2	0.07602431
91	0xbe7bf81e	-0.24606368
92	0xbe64d23e	-0.22345826
93	0xbd240fb5	-0.040054042
94	0xbc34f77d	-0.011045334
95	0xbe3f127e	-0.18659398
96	0xbe4ece39	-0.20195855
97	0x3d44ca85	0.0480447
98	0x3d0c42f9	0.034243558
99	0x3eabc554	0.33548987
100	0xbe6c3761	-0.23068
101	0xbd8cd7a4	-0.06877068
102	0x3eae22e0	0.34010983
103	0xbec6b81f	-0.38812348
104	0xbe494b63	-0.19657664
105	0xbc7cebbe	-0.015437065
106	0xbe1fe464	-0.15614468
107	0xbce180e4	-0.02752728
108	0x3e361d86	0.177847
109	0x3e8b0f2a	0.27160007
110	0xbc3c3167	-0.011486388
111	0xbe57fb77	-0.2109202
112	0x3e4bc222	0.19898275
113	0x3e322fac	0.17400998
114	0x3e7ed310	0.24885201
115	0x3eaf1164	0.34192955
116	0xbe166d30	-0.14690089
117	0xbbb73b6e	-0.0055918014
118	0xbdf6895f	-0.1203792
119	0x3d15e2ae	0.03659313
120	0x3e90e237	0.28297588
121	0x3f1eb863	0.620001
122	0x3b77daf1	0.0037819708
123	0xbdcf5f0e	-0.10125552
124	0xbd00a367	-0.031405833
125	0x3cdfa964	0.027302451
126	0xbd9bf75a	-0.07615538
127	0x3dc3e38d	0.09564886
128	0x3d749b43	0.05971838
129	0xbe6021c8	-0.21887887
130	0xbe8183d4	-0.2529589
131	0x3f16927f	0.58817285
132	0xbebdcd91	-0.37070897
133	0xbe017255	-0.1264127
134	0x3d866547	0.06562286
135	0x3f1c33c4	0.6101649
136	0xbe544b2f	-0.20731805
137	0x3ed83c0c	0.42233312
138	0xbdd9ef0f	-0.106413
139	0x3ef38bb6	0.47567528
140	0xbeda49f9	-0.42634562
141	0x3e8df802	0.27728277
142	0xbd472f0d	-0.048628855
143	0xbe4eefc3	-0.2020865
144	0x3e5628c7	0.20913993
145	0x3c1bbb28	0.009505071
146	0xbde98654	-0.11402574
147	0x3c2b48c3	0.010454359
148	0xbdc24e86	-0.094876334
149	0xbd8b506d	-0.068024494
150	0x3dfe2894	0.124100834
151	0xbe241bfa	-0.16026297
152	0x3d94e803	0.07270815
153	0x3e0b7419	0.13618506
154	0x3dafbdd3	0.08581128
155	0xbc59f981	-0.013304115
156	0xbf11f80a	-0.570191
157	0xbe8b4553	-0.27201328
158	0xbf056aa5	-0.5211585
159	0x3e8ceef0	0.27526045
160	0x3e0fe3eb	0.14051788
161	0xbf0237d8	-0.5086646
162	0xbd5188db	-0.051155906
163	0x3e0a8b56	0.13529715
164	0xbcc71ac9	-0.024304764
165	0x3e6bbe6a	0.23021856
166	0xbd50bd22	-0.05096162
167	0xbc02a467	-0.007973767
168	0x3de87b92	0.11351694
169	0x3e7aa47d	0.2447681
170	0x3e6bc1b5	0.23023112
171	0xbe3c9e56	-0.18419775
172	0xbe1e375b	-0.15450804
173	0x3da97045	0.08273367
174	0xbd8e62e5	-0.069524564
175	0x3eebd6ba	0.4606226
176	0x3df83e99	0.121213146
177	0x3e9dc0ec	0.3081125
178	0xbed73ff9	-0.42040995
179	0xbe15803b	-0.14599697
180	0xbe25e90d	-0.16202183
181	0xbe8d9b8d	-0.27657738
182	0x3d8d06e1	0.06886078
183	0x3e927fb7	0.28613064
184	0x3d82a242	0.063786045
185	0x3eb51eff	0.3537521
186	0x3dac9c48	0.08428246
187	0x3eac8cd9	0.33701208
188	0xbcf999b1	-0.030468794
189	0xbda4f342	-0.0805421
190	0xbd01c8a4	-0.031685486
191	0x3d08cb4d	0.033397008
192	0xbe506a40	-0.20353031
193	0x3dd2adab	0.10287031
194	0xbdd9639f	-0.10614704
195	0xbda0fc27	-0.07860594
196	0xbdf043ea	-0.117317036
197	0x3ea87da1	0.32908347
198	0xbe376376	-0.17909035
199	0x3dcafeb1	0.0991186
200	0xbe84dea2	-0.25951105
201	0xbe5fd1ba	-0.21857348
202	0x39e443dd	0.0004353811
203	0x3dc0e1ca	0.09418066
204	0xbe3de113	-0.1854289
205	0xbd2d2adc	-0.042277202
206	0xbdefc380	-0.117072105
207	0x3e899f01	0.26879123
208	0xbe9f9987	-0.3117182
209	0x3e216fe4	0.15765339
210	0x3eb06a86	0.3445627
211	0xbde85f8f	-0.11346351
212	0x3eca18dc	0.3947209
213	0xbc1a8c64	-0.009432886
214	0xbe87c143	-0.26514634
215	0x3e348a0e	0.17630789
216	0x3ec2f6f4	0.38079035
217	0x3d42f1b4	0.047593787
218	0x3da2e5f0	0.07954013
219	0x3ea40556	0.3203532
220	0xbda58712	-0.08082403
221	0xbe336ebe	-0.17522714
222	0xbe16deda	-0.14733449
223	0xbc81af40	-0.015830636
224	0x3d0d31f9	0.034471486
225	0x3c833a7a	0.016019095
226	0xbeadaa70	-0.33919096
227	0xbd4c6b1a	-0.049906828
228	0xbbe386c6	-0.0069435565
229	0xbe4676c8	-0.19381249
230	0xbd881bac	-0.06645903
231	0xbe080f43	-0.13287072
232	0xbe23c241	-0.1599207
233	0xbcbac304	-0.022798069
234	0xbe48c157	-0.19605003
235	0x3e7a5f75	0.24450476
236	0xbe1fccf0	-0.15605521
237	0xbe046712	-0.12929943
238	0xbdb881cb	-0.09009131
239	0x3ea38e90	0.31944704
240	0x3cd255f8	0.025675759
241	0xbdfd7638	-0.12376064
242	0xbe8813cf	-0.26577613
243	0x3e1f5699	0.15560378
244	0x3e996e10	0.29966784
245	0xbd970f65	-0.07375983
246	0x3e83a5af	0.25712344
247	0x3ef633ae	0.48086303
248	0xbe0447b4	-0.12917978
249	0xbd3cdeca	-0.046110906
250	0x3cc45e80	0.023970842
251	0xbe16b478	-0.14717281
252	0x3eda9c0d	0.42697182
253	0xbe8a552d	-0.2701811
254	0x3eefcd84	0.46836483
255	0xbe88fb24	-0.26754105

model.1.running_var f4 [512]
0	0x3c1c8a04	0.00955439
1	0x3c123327	0.0089233285
2	0x3c1f8dd5	0.009738405
3	0x3c723124	0.014782224
4	0x3c5dbeaa	0.013534227
5	0x3c23c044	0.00999457
6	0x3c504e34	0.012713958
7	0x3c8e5aec	0.01737734
8	0x3c8841b3	0.01663289
9	0x3c3e29be	0.011606632
10	0x3c49210a	0.0122759435
11	0x3c5fef5e	0.013667909
12	0x3c457618	0.0120520815
13	0x3c252ae9	0.010081031
14	0x3c48b14e	0.012249304
15	0x3c39c6c9	0.011338898
16	0x3c64350a	0.013928661
17	0x3c2b2799	0.010446453
18	0x3c79297d	0.0152076455
19	0x3c327f40	0.010894597
20	0x3c50aaca	0.012736032
21	0x3c33e54f	0.010979964
22	0x3c40f532	0.011777209
23	0x3c5a2346	0.013314074
24	0x3ca0eee9	0.019645171
25	0x3c100bc9	0.008791872
26	0x3c1bda6a	0.009512523
27	0x3c5b7315	0.013394137
28	0x3c6c94a1	0.014439733
29	0x3c5e2760	0.013559192
30	0x3c45a322	0.01206282
31	0x3c57fe13	0.013183135
32	0x3c9046d7	0.017611904
33	0x3c50543f	0.012715398
34	0x3c38f92f	0.011289879
35	0x3c7367f8	0.014856331
36	0x3c5f73a0	0.013638407
37	0x3bde8927	0.006791252
38	0x3c6e1a7b	0.014532681
39	0x3cde1396	0.027108949
40	0x3c677c78	0.014128797
41	0x3c20655a	0.009789789
42	0x3c4470e5	0.011989807
43	0x3c43cc73	0.0119506
44	0x3c128f78	0.008945338
45	0x3c2dce29	0.010608234
46	0x3c4eb8d7	0.012617311
47	0x3c24d68e	0.010060919
48	0x3c303aac	0.010756176
49	0x3c58183f	0.0131893745
50	0x3c133c13	0.008986491
51	0x3c81967c	0.015818827
52	0x3c30b763	0.01078591
53	0x3c6495f0	0.0139517635
54	0x3c5eee30	0.013606593
55	0x3c4c399f	0.01246491
56	0x3c7b2684	0.015329007
57	0x3ca2754f	0.019831328
58	0x3c9df44e	0.019281533
59	0x3c872674	0.016497828
60	0x3c26a95d	0.010172215
61	0x3c424d99	0.011859321
62	0x3c091ee1	0.0083691785
63	0x3c535fdf	0.012901275
64	0x3c64ac74	0.013957132
65	0x3c491cd0	0.012274936
66	0x3ca2f83a	0.019893754
67	0x3c20d1dd	0.00981566
68	0x3c79eec7	0.015254683
69	0x3c1e8380	0.009674907
70	0x3c618faa	0.013767162
71	0x3c96c9b0	0.018406719
72	0x3c1b5aaa	0.009482065
73	0x3c840667	0.016116334
74	0x3c1801f4	0.009277809
75	0x3c760d16	0.015017768
76	0x3c22b7b5	0.0099314945
77	0x3c4b47e2	0.012407275
78	0x3c821bad	0.015882337
79	0x3c16da43	0.009207311
80	0x3c240813	0.010011691
81	0x3c209006	0.009799963
82	0x3c317d10	0.01083304
83	0x3c5f6a0d	0.013636124
84	0x3c4bf213	0.012447852
85	0x3c8b21c1	0.016983869
86	0x3c146149	0.009056398
87	0x3c2858f8	0.010275118
88	0x3c04ab36	0.0080974605
89	0x3c546846	0.012964314
90	0x3c2fbc82	0.010726096
91	0x3c2b5b59	0.010458791
92	0x3c765112	0.015033977
93	0x3c41a811	0.011819855
94	0x3c68a8d7	0.014200411
95	0x3be608af	0.007020078
96	0x3c7aa4f4	0.015298117
97	0x3c47cb55	0.012194474
98	0x3c57d936	0.013174346
99	0x3c964a18	0.018345878
100	0x3c5973a6	0.013272202
101	0x3c21fa00	0.009886265
102	0x3c573d32	0.013137149
103	0x3c3080a9	0.0107728625
104	0x3c2a297e	0.010385869
105	0x3c2bd423	0.010487589
106	0x3c611808	0.01373864
107	0x3c106eea	0.0088155065
108	0x3c2b3afa	0.010451073
109	0x3c6da393	0.014504331
110	0x3c2a1f5d	0.010383454
111	0x3c807653	0.015681421
112	0x3c480c9e	0.012210039
113	0x3c4ed8f4	0.012624968
114	0x3c7c8421	0.015412361
115	0x3c203280	0.009777665
116	0x3c0e237c	0.008675452
117	0x3c3b1427	0.011418379
118	0x3c4f1e26	0.012641465
119	0x3c46059b	0.012086297
120	0x3c289fb6	0.010291984
121	0x3c1a5bc4	0.009421293
122	0x3c5601a8	0.013061918
123	0x3c1d8894	0.009615082
124	0x3c4d4650	0.012528971
125	0x3c4df8ec	0.012571555
126	0x3c12094e	0.008913351
127	0x3c5f268d	0.013620031
128	0x3c2d3d2e	0.010573668
129	0x3ca978a6	0.020687412
130	0x3c81f868	0.01586552
131	0x3c5d73ec	0.013516407
132	0x3c17473b	0.009233291
133	0x3bee50d8	0.007272821
134	0x3c848e24	0.01618106
135	0x3cc32df1	0.023825618
136	0x3c8b16a2	0.016978566
137	0x3c529877	0.012853733
138	0x3c5493ce	0.0129746925
139	0x3c8f799f	0.017514048
140	0x3c5ab41f	0.013348608
141	0x3c4f8cee	0.012667878
142	0x3c54ff2a	0.013000289
143	0x3c23d489	0.009999403
144	0x3c5022b8	0.01270359
145	0x3c187736	0.009305766
146	0x3c1c3545	0.009534185
147	0x3c56561c	0.0130820535
148	0x3c0c25c9	0.008553931
149	0x3c86561c	0.016398482
150	0x3c0e0648	0.00866849
151	0x3c50c59e	0.012742428
152	0x3cb2a586	0.021807443
153	0x3c56bd67	0.0131066805
154	0x3c73594d	0.014852834
155	0x3bf7a8e4	0.007557975
156	0x3ca13f37	0.019683463
157	0x3c21a0e6	0.009865021
158	0x3c5f664c	0.013635229
159	0x3c0dce4d	0.008655143
160	0x3c3e659a	0.011620903
161	0x3cb1e702	0.021716598
162	0x3c5d7cfb	0.013518567
163	0x3c5e0edc	0.013553347
164	0x3c6f88e2	0.014620038
165	0x3c2c04f8	0.0104992315
166	0x3c6a7f27	0.014312542
167	0x3c416b7e	0.011805413
168	0x3c18113f	0.009281456
169	0x3bfd51e3	0.007730709
170	0x3c3e890e	0.011629356
171	0x3c1ec0aa	0.009689489
172	0x3c7dd5a3	0.0154928295
173	0x3c5a6107	0.013328797
174	0x3c855831	0.016277405
175	0x3c88b2fe	0.016686913
176	0x3c11b9e5	0.008894418
177	0x3ca5a370	0.020219535
178	0x3c1a2cc3	0.009410086
179	0x3ca142fd	0.019685263
180	0x3c70deda	0.014701569
181	0x3bfe3d54	0.0077587757
182	0x3c2aa932	0.010416316
183	0x3c30254b	0.010751079
184	0x3c8458ca	0.01615562
185	0x3c84e18e	0.016220834
186	0x3c2be26b	0.010490994
187	0x3c525872	0.01283847
188	0x3c7057e4	0.014669392
189	0x3c5adff9	0.013359063
190	0x3c1e2f01	0.009654761
191	0x3c8098c4	0.015697844
192	0x3c120733	0.008912849
193	0x3bfda009	0.007740025
194	0x3bff3475	0.007788236
195	0x3c765b42	0.015036406
196	0x3c6d5bff	0.014487266
197	0x3c2a1f79	0.01038348
198	0x3bd453cc	0.006479716
199	0x3c147f58	0.009063564
200	0x3bc9bc00	0.0061564445
201	0x3c313080	0.010814786
202	0x3c26f4ec	0.01019023
203	0x3c187666	0.009305572
204	0x3c541b6c	0.012945991
205	0x3c2ec7f1	0.010667787
206	0x3ca516db	0.0201525
207	0x3c464eee	0.012103779
208	0x3c2453da	0.010029757
209	0x3c4fe4ea	0.012688855
210	0x3c3d30cd	0.01154728
211	0x3c22ac54	0.009928782
212	0x3c9af36c	0.0189149
213	0x3c2cdf07	0.010551221
214	0x3c6f3004	0.01459885
215	0x3c908c16	0.017644923
216	0x3c01d229	0.007923641
217	0x3c2806d6	0.010255536
218	0x3c94dbaf	0.01817116
219	0x3c3b594d	0.011434865
220	0x3c31f59d	0.010861781
221	0x3c175e41	0.0092387805
222	0x3c4a855e	0.012360899
223	0x3c43f9e1	0.011961431
224	0x3c175451	0.009236411
225	0x3c2cac9c	0.0105392
226	0x3c5a2cd5	0.013316353
227	0x3c7f943c	0.015599307
228	0x3c2ee7b1	0.010675357
229	0x3c2d4b32	0.01057701
230	0x3c29073b	0.010316665
231	0x3c38b1c1	0.011272849
232	0x3c688a68	0.014193155
233	0x3c850843	0.016239291
234	0x3c3b109c	0.011417534
235	0x3c6b89de	0.014376132
236	0x3c1cbebe	0.009566961
237	0x3bff0a30	0.007783197
238	0x3c524398	0.012833498
239	0x3c68746e	0.014187915
240	0x3c36ac37	0.011149458
241	0x3c883544	0.016626962
242	0x3c198668	0.009370424
243	0x3c4a4349	0.012345144
244	0x3c4deafe	0.012568234
245	0x3c51f73a	0.012815291
246	0x3c470aa4	0.012148533
247	0x3c1fe301	0.009758712
248	0x3c189f1b	0.009315277
249	0x3c1fa4a8	0.009743847
250	0x3c1f71be	0.009731708
251	0x3c213a6d	0.00984059
252	0x3baf084f	0.0053415666
253	0x3c6edc0a	0.014578829
254	0x3c68f4c5	0.014218514
255	0x3c60cbfe	0.0137205105

model.4.weight f4 [256, 512]
0	0xbb394190	-0.0028267838
1	0xbd14b5e0	-0.036306262
2	0xbcd5ae64	-0.026084132
3	0xbd0e47dd	-0.034736503
4	0x3cb055c6	0.021525275
5	0x3d219b0f	0.039454516
6	0xbcad56b8	-0.021159515
7	0xbcd6311f	-0.02614647
8	0x3c16955a	0.009190882
9	0xbd13ec57	-0.036114063
10	0x3c72b2a4	0.014813099
11	0xbccc9848	-0.024974957
12	0x3cd460f8	0.025925145
13	0xbc2ad55b	-0.0104268445
14	0xbd17fb40	-0.037104845
15	0x3d0b0d9b	0.033948522
16	0xbc0520e5	-0.008125518
17	0xbd047fed	-0.032348562
18	0x3cd01921	0.025402607
19	0x3b6a147b	0.0035717774
20	0xbd1a7f87	-0.037719276
21	0xbb59996f	-0.0033203026
22	0xbc901dff	-0.017592428
23	0xbd28a428	-0.041172177
24	0x3cd4800e	0.025939967
25	0xbc7728b6	-0.01508539
26	0x3d05dcb4	0.032681182
27	0xbc868413	-0.0164204
28	0x3cfb2b9d	0.030660445
29	0x3cdce077	0.026962502
30	0x3c25019d	0.010071185
31	0x3a7a90e6	0.0009558335
32	0x3cb79e2d	0.022414291
33	0xbce5ac8a	-0.028036375
34	0x3cc9ba58	0.024624988
35	0xbcc37ea1	-0.023864092
36	0xbcba15a7	-0.022715403
37	0xbd06cd33	-0.032910537
38	0xbd4a6d9b	-0.049420934
39	0x3c243d34	0.010024358
40	0xbc03f96e	-0.008055074
41	0xbcb16c2b	-0.021658024
42	0xbd0d3311	-0.03447253
43	0x3c9bc710	0.019015819
44	0xbcfe032d	-0.031007374
45	0xbc36d3a8	-0.011158861
46	0xbcb55608	-0.02213575
47	0x3c8683a4	0.016420193
48	0x3cf76783	0.030200725
49	0x3c42d029	0.01189045
50	0xbcc761b5	-0.024338583
51	0xbaf49c4d	-0.0018662304
52	0xbc8c4583	-0.01712299
53	0xbc086596	-0.008325001
54	0xbcf11c1e	-0.029432353
55	0x3adfb182	0.0017066451
56	0x3b886e8b	0.0041635684
57	0xbd713a24	-0.058893338
58	0xbb91767f	-0.0044391747
59	0x3ceb8aa2	0.028752629
60	0x3b85b05e	0.0040798625
61	0x3cbd0063	0.023071473
62	0xbd29cc9a	-0.04145489
63	0x3d0e30b0	0.0347144
64	0xbb36b482	-0.0027878587
65	0xbcbc483f	-0.022983668
66	0x3d0b243f	0.033970114
67	0x3d1740a7	0.03692689
68	0xbc8f4bd3	-0.01749221
69	0x3cd4bf08	0.025969997
70	0x3c7e387f	0.015516399
71	0xbcb320a1	-0.021866145
72	0x3c94542b	0.01810654
73	0x3b485e98	0.003057396
74	0xbd0a5304	-0.033770576
75	0xbbb2ea29	-0.005460043
76	0xbcaf2662	-0.021380607
77	0x3b8ae9ae	0.0042392826
78	0xbce28612	-0.02765182
79	0x3cd1035a	0.025514293
80	0x3d09d096	0.03364619
81	0x3b6ce0b4	0.0036144676
82	0xbc84bcbc	-0.016203277
83	0xbd0f9edc	-0.03506361
84	0xbd11f24c	-0.035631463
85	0xbd192943	-0.037392866
86	0xbd1014cf	-0.035176095
87	0x3cc4e601	0.024035456
88	0x3d00b784	0.031425014
89	0x3b786b68	0.0037905816
90	0x3d1cac6e	0.03825038
91	0xbbf071e5	-0.007337796
92	0x3ca6f9a2	0.020382706
93	0xbcdb5c81	-0.026777508
94	0x3d2458ce	0.040123753
95	0xbba60262	-0.005066202
96	0xbb1a9733	-0.0023588657
97	0x3aea3e6e	0.0017871389
98	0xbc919503	-0.01777125
99	0xbd0d07e1	-0.034431342
100	0xbbc47349	-0.0059951884
101	0xbb588e2b	-0.0033043723
102	0x3c02b8b1	0.007978604
103	0x3cc9b9ad	0.02462467
104	0x3c3bacc8	0.0114547685
105	0x3cb41ce4	0.021986432
106	0xbc1d6408	-0.009606369
107	0xbba8ebbd	-0.0051550553
108	0x3bb6e1ae	0.0055811023
109	0x3c48e0ed	0.012260658
110	0x3d1cf154	0.038316086
111	0x3d091dd5	0.033475716
112	0x3d05d702	0.03267575
113	0x3c5c4d5f	0.013446181
114	0xbbb23961	-0.005438969
115	0xbd4e8087	-0.050415542
116	0x3c6a0736	0.014283946
117	0x3d21d2c2	0.039507635
118	0x3cc3d24d	0.02390399
119	0xbbe3e84b	-0.0069551817
120	0x3cd3edc3	0.02587021
121	0x3c9fd310	0.019509822
122	0xbcc30d78	-0.023810133
123	0xbd14bde1	-0.036313895
124	0x3c9b900d	0.018989587
125	0xbc908238	-0.017640218
126	0xbd5ba1a2	-0.053620942
127	0xbc14383a	-0.009046609
128	0x3d04809a	0.032349207
129	0x3d07350b	0.03300957
130	0xbbc30e06	-0.0059525995
131	0x3cd6b4e5	0.026209304
132	0xbd0089f2	-0.031381555
133	0x3c439c38	0.011939101
134	0x3cd13267	0.025536729
135	0xbc5e7e42	-0.013579907
136	0x3c344bdd	0.011004415
137	0x3c53eafa	0.012934441
138	0x3d1f5043	0.038894903
139	0xbc800c7f	-0.015630959
140	0xbc957830	-0.018245786
141	0x3aa0dcc5	0.0012272826
142	0xbcaebf86	-0.02133156
143	0xbd039a87	-0.03212979
144	0xbc934474	-0.017976977
145	0xbc60be8a	-0.013717303
146	0x3d080e87	0.03321698
147	0x3d308e59	0.043104503
148	0xbc3837be	-0.011243759
149	0x3c36751c	0.0111363195
150	0xbcf6be92	-0.030120168
151	0xbd064411	-0.032779757
152	0x3d01a521	0.03165162
153	0x38db8c20	0.00010468834
154	0x3d046dab	0.03233115
155	0xbcae959e	-0.021311577
156	0x3d286b4b	0.041117948
157	0x3c486da8	0.012233175
158	0xbcf0cc0c	-0.029394172
159	0xbbdc48ab	-0.00672253
160	0x3c9441c1	0.01809776
161	0x3c8ced48	0.017202988
162	0xbd296386	-0.04135468
163	0xbc6eb7e8	-0.014570214
164	0x3d1d745f	0.03844106
165	0x3cd6a88f	0.026203422
166	0xbcd47b92	-0.02593783
167	0xbc42fc0a	-0.011900911
168	0xbcd0e0ae	-0.02549776
169	0x3c9ab7c7	0.01888646
170	0xbd0e7cb7	-0.034786906
171	0xbc9c013b	-0.019043555
172	0x3cf8c50d	0.030367399
173	0x3cdb0661	0.02673644
174	0xbccb7c8d	-0.024839664
175	0x3c8e3387	0.017358555
176	0x3d38b1a8	0.0450913
177	0x3c475afd	0.012167689
178	0xbc989bde	-0.01862901
179	0x3d25f48a	0.040516414
180	0x3d2497cc	0.040183827
181	0xbb1ebfa1	-0.0024223106
182	0x3ca1550f	0.01969388
183	0x3cdd9afd	0.027051443
184	0x3d1b8c0d	0.03797536
185	0xbd160aa9	-0.03663126
186	0x3b88903c	0.0041675847
187	0xbc901d09	-0.01759197
188	0x3c34a91d	0.011026648
189	0xbcbd2caa	-0.023092587
190	0x3cb9d114	0.022682704
191	0x3c608052	0.013702469
192	0x3ba05648	0.004893098
193	0x39a34a3e	0.00031145097
194	0xbd30edb9	-0.04319546
195	0x3c209a24	0.009802375
196	0x3cc5668e	0.024096753
197	0xbc730d44	-0.014834706
198	0xbcd9fb5d	-0.026609117
199	0x3c24336a	0.010022024
200	0xbcfa72d5	-0.030572334
201	0xbc9b372b	-0.018947205
202	0x3cf00d3e	0.02930319
203	0x3d04841b	0.032352548
204	0xbcabe315	-0.020982305
205	0xbce7e2fe	-0.02830648
206	0xbd2afdce	-0.041745953
207	0x3c2426ca	0.010019014
208	0x3bde7265	0.0067885392
209	0x3c925c7e	0.01786637
210	0xbd01fdd9	-0.03173623
211	0x3d2e14d0	0.042500317
212	0x3cd71be9	0.026258426
213	0x3ceac19a	0.02865677
214	0x3cf06ece	0.02934971
215	0x3d027101	0.03184605
216	0xbd2e94e9	-0.04262248
217	0xbd44afbd	-0.04801916
218	0x3c61f227	0.013790644
219	0xbcc1fd8a	-0.023680467
220	0x3d2c19dc	0.04201685
221	0x3d0208c4	0.03174664
222	0x3c914e39	0.017737495
223	0xbcd7eac1	-0.026357057
224	0xbccd64f7	-0.025072558
225	0xbc82242e	-0.015886392
226	0x3ca0b2fc	0.019616596
227	0xbc0804e8	-0.008301951
228	0xbbda376f	-0.00665944
229	0xbcc6ad28	-0.02425249
230	0xbc058a83	-0.0081507
231	0xbd33369c	-0.04375325
232	0x3d1e78bd	0.038689364
233	0x3cc25b44	0.02372516
234	0x3cbf3b5e	0.023343738
235	0x3cbd86cd	0.023135567
236	0xbc8ff1e6	-0.0175714
237	0x3d064462	0.03278006
238	0xbd235456	-0.03987535
239	0x3cb16e6f	0.021659104
240	0xbcf8c369	-0.030366616
241	0xbbbcde3e	-0.005763798
242	0xbc2e84b9	-0.010651761
243	0x3d197320	0.037463307
244	0xbc90a375	-0.017656067
245	0xbc584433	-0.013199854
246	0x3d2a11be	0.041520827
247	0xbcd9b99f	-0.026577769
248	0xbcf51d15	-0.029921094
249	0x3c92c9a2	0.017918412
250	0xbd00069a	-0.031256296
251	0xbd2308e7	-0.03980341
252	0x3c649ab4	0.0139529
253	0x3c137dee	0.009002192
254	0xbb06d1ce	-0.002057183
255	0xbd32550d	-0.043538142
