models/more_layers/fiveLayerModel_ee_corrCut_-1.0_weights_true_drop_0.2_lorentzdelta_gen_no_qgbatch_2000.pt (torch, 156157 bytes, 26 tensors)

model.0.weight f4 [64, 28]
000000 13 32 a4 3e 57 a2 d8 3d 05 d2 04 bc 1b b1 31 3d
       0.32069454 0.10577839 -0.008106713 0.04338179
000010 1b 37 cd 3c c3 12 9c be d0 d7 68 3d b9 b1 4e be
       0.02505069 -0.30483064 0.05684644 -0.20184983
000020 4e 09 0e 3e bf ff 7f bd f9 b0 60 bd c2 d5 a6 3d
       0.13870737 -0.062499758 -0.054856274 0.0814624
000030 df ac 60 3e 0c 45 a1 be b1 43 e7 3b 4b 56 3a be
       0.21940945 -0.3149799 0.00705763 -0.1819698
000040 e4 6a 37 be 75 8a 29 bd 84 d8 0e 3e c6 3c 20 3e
       -0.1791187 -0.04139181 0.13949782 0.15648183
000050 58 9a 31 3d f4 6d 88 3a a5 f6 37 3e 19 9d d7 3c
       0.043360084 0.0010408745 0.17965181 0.026320027
000060 4d 6d a6 3d 0b ae fd 3c d7 71 7b 3d 62 2a bc 3d
       0.08126316 0.03096678 0.061387863 0.091877714
000070 64 eb 4f be 0e b9 70 3e e4 7e cd 3d 4d 62 b4 3d
       -0.20304638 0.23508093 0.10033968 0.08807812
000080 c6 1a 70 be 01 9f 51 bc 24 eb 08 be cb 09 1b be
       -0.23447713 -0.012794257 -0.13370949 -0.15140454
000090 8c 97 74 3d f0 1d 3b bb b5 53 49 3d e5 93 51 38
       0.05971484 -0.002855178 0.049152095 4.996722e-05
0000a0 b6 df 18 3e c1 48 41 3d cc 9b ac bd de bb 41 3e
       0.14929089 0.047188524 -0.084281534 0.18919322
0000b0 cd 66 ca 3c fb 9f 74 bc 49 32 67 bd fc bb e5 bd
       0.024707222 -0.01493072 -0.05644444 -0.11217496
0000c0 7f 43 4d 3c 49 6c 18 3e 8f 5f a4 bd 68 88 c4 bd
       0.012528299 0.14885058 -0.08026039 -0.0959633
0000d0 41 3c 8d bc ed 49 c6 bc d7 b1 ea 3c 9a 04 04 bd
       -0.017240645 -0.024205172 0.028649254 -0.03223095
0000e0 3a bb 12 3d 19 bf b6 bd f4 98 0a 3e 48 20 29 bd
       0.035823084 -0.08923168 0.1353491 -0.04129055
0000f0 d4 96 89 3e 81 64 d1 3e fd 78 74 be 02 33 44 bd
       0.26872885 0.4089699 -0.23874278 -0.047900207
000100 7c 2a 39 be 55 0f 51 be 67 90 22 3e 2a aa 07 3d
       -0.18082613 -0.20416005 0.15875398 0.033121265
000110 57 66 4a 3e 37 f9 6b 3e b8 30 ae 3d 9f 30 a9 3c
       0.19765602 0.23044287 0.08505386 0.020653067
000120 24 15 d3 3d 51 c1 fb 3d 13 6f 83 bd 01 d1 4e bc
       0.10306767 0.122927316 -0.0641767 -0.012623073
000130 9e f2 8f 3d b6 0f 89 bd de 4f 7b bd a5 b9 7d bc
       0.070286974 -0.0669245 -0.061355464 -0.015486156
000140 80 fb 97 bd 66 17 78 bd f4 6b a0 bd 2f 62 6e 3a
       -0.07421017 -0.06056919 -0.078330904 0.000909361
000150 fd 65 c3 3e 71 e1 13 be 21 c2 a1 3c cd d7 a8 3d
       0.38163748 -0.14441468 0.019745888 0.08244286
000160 73 85 2d be 5a 63 14 3d ef 13 87 3e ef d0 25 bd
       -0.16945438 0.03622756 0.26382396 -0.040482458
000170 f3 17 d2 3c ee 47 8e 3d 79 4f 4a 3d 9a 07 61 3d
       0.025646186 0.06947313 0.049392197 0.05493889
000180 57 24 cb 3d c0 3c 2d be 1d 56 6e 3e 9d b9 da bd
       0.09919041 -0.16917706 0.23275037 -0.10679934
000190 b8 9a 5f bd 12 77 26 3e b4 85 34 be c9 59 cf bd
       -0.05459091 0.16256359 -0.17629129 -0.10124547
0001a0 c2 d7 a4 3d 37 1b 4c 3c 87 5d 43 3d f7 ba de b9
       0.08048965 0.01245766 0.047696617 -0.0004248244
0001b0 4f b8 e8 bd 77 19 cd bd d9 5d aa bd 6c ce 8c 3d
       -0.11363279 -0.10014623 -0.08318681 0.06875309
0001c0 31 2e d1 3d 50 23 65 bd 4e 8b a3 bc 3a a1 89 3d
       0.102138884 -0.05594188 -0.019963887 0.06720205
0001d0 7b d1 e8 bd 20 93 e6 bd 64 d0 69 bd 66 bd db 3d
       -0.1136808 -0.112585306 -0.057083502 0.10729484
0001e0 ab 7b 93 be 8c 52 63 be a2 2e 1b bc 07 19 2a 3d
       -0.2880529 -0.22199458 -0.009471567 0.041527774
0001f0 a2 27 a3 3e 4c 6b 9b 3e be d5 4f be 0a f0 79 3d
       0.31866175 0.303553 -0.2029638 0.061019935
000200 3c 02 8c 3c 5c e7 cb bd 28 4a 10 3e 0b d3 77 be
       0.01709091 -0.09956238 0.14090788 -0.242016
000210 af c7 48 bd 8b 56 23 bd be 5b b8 bd 9c cc fb bb
       -0.049018558 -0.039877456 -0.090018734 -0.0076843034
000220 33 09 fc 3d e1 ce 56 bd 1b cb a7 3d 1e 89 29 3d
       0.12306442 -0.05244339 0.08193036 0.04139053
000230 74 0a 5e 3d 78 93 cd bc 29 ec 35 bd d0 99 f7 3c
       0.054209188 -0.025094733 -0.044414673 0.03022471
000240 81 84 95 3e 21 67 7a 3e 9f d1 0e 3d 97 72 66 bc
       0.29202655 0.24453403 0.03486788 -0.014065406
000250 51 97 de bd 19 fd 44 be b9 f4 1b bc c1 57 c2 bd
       -0.10868705 -0.19237174 -0.009518796 -0.09489394
000260 52 79 c2 3d 99 26 26 3d 53 99 5c 3e 59 b7 84 3c
       0.09495796 0.040564153 0.21542864 0.016200708
000270 33 9f 7e bd 03 61 d1 bc 1d 89 b3 3d 95 f1 59 3d
       -0.062163543 -0.025558954 0.08766387 0.053208906
000280 05 31 9b 3d 93 c9 c9 3d 65 55 24 3e 97 b6 5a 3d
       0.07577709 0.098529 0.160482 0.053396787
000290 b4 ef 04 3d 73 87 f3 3c ad 4d 9a 3c 93 f4 d4 bd
       0.03245516 0.029727673 0.018835867 -0.10398211
0002a0 e0 ab a1 3e 43 81 48 3e b6 78 32 3b ce 64 5d 3b
       0.31576443 0.1958056 0.0027232594 0.0033782008
0002b0 f6 24 2e 3d 1a 17 41 3e 1a 5b e3 bd b0 73 9b 3d
       0.042515717 0.18856469 -0.111013606 0.07590425
0002c0 98 b5 66 be db 33 67 bd 0c e9 f3 3c 1f e4 96 3d
       -0.2253021 -0.056445938 0.029774211 0.073677294
0002d0 4c 52 82 be fa 57 21 be ee 28 f3 bd 96 1c 19 bd
       -0.25453413 -0.15756217 -0.11873041 -0.037380777
0002e0 50 95 9f bd ec 78 96 bd 95 14 74 bc d1 29 80 be
       -0.07792151 -0.07347283 -0.014897485 -0.25031903
0002f0 09 a2 90 3c 0c 27 5b bc 9d e4 57 bd 3c a2 3b bd
       0.01765539 -0.013376009 -0.052708257 -0.045809016
000300 ed 85 1a bd 70 64 eb 3c 24 ed 56 3d 1b c0 84 3d
       -0.037725378 0.028734416 0.05247225 0.06481954
000310 2a a3 97 3d d8 b8 49 be b6 d5 e2 bd ed 09 22 be
       0.07404168 -0.19699419 -0.110759184 -0.15824099
000320 99 24 a6 be f1 45 37 be 62 26 ea bd de 5e d5 bd
       -0.32449797 -0.17897774 -0.11433102 -0.10418485
000330 13 b2 31 3e 6b 80 93 bc 22 5a d2 bd 54 9e 50 3d
       0.17353086 -0.01800557 -0.10271098 0.050932243
000340 eb 7e 2c be 64 65 42 bd 33 e8 44 be 4d 17 2d be
       -0.1684529 -0.047459975 -0.19229202 -0.1690342
000350 ac 02 56 be 1e 9c 8b be 46 70 3e be 23 d0 0f 3d
       -0.20899457 -0.27267545 -0.18597516 0.035110604
000360 8e 74 00 bd dd 90 b5 3d 24 99 86 bd 5a 5e 96 bd
       -0.031361155 0.08865521 -0.06572178 -0.07342215
000370 f6 b1 aa bd cc 8e 7b 3d 79 d8 15 3d bd d8 b7 bd
       -0.083347246 0.06141548 0.036583398 -0.089768864
000380 5c 44 f1 3d 66 5c d9 bd 6c 41 7b 3d ea 25 64 bd
       0.11780617 -0.10613327 0.061341688 -0.05570022
000390 d6 ae de be ac 69 02 bf 61 f7 d4 bd a2 e3 1a 3d
       -0.43492764 -0.5094249 -0.10398746 0.037814744
0003a0 5a 7d a1 bd f3 c8 a2 be 08 11 a3 bc ab 21 c6 bc
       -0.07885237 -0.31793937 -0.019905582 -0.024185976
0003b0 5a 94 06 be 9e d5 01 be 17 f3 bb 3d c2 ea 0b be
       -0.13142529 -0.12679145 0.09177225 -0.13663772
0003c0 e6 6e a5 bc 9f 30 a4 bd 49 c1 9a bc 98 9e 83 bd
       -0.020194482 -0.08017086 -0.018890994 -0.06426734
0003d0 e7 24 92 bc 5e 9a aa bc 8d 2c 62 bd 27 9e f4 3c
       -0.017839862 -0.020825561 -0.05521827 0.02986057
0003e0 53 af 4a bb e9 b6 08 bc 3f 30 32 3d d1 e6 9f bc
       -0.0030927255 -0.00834439 0.043503042 -0.019519242
0003f0 20 2c d9 bc e2 3c 88 bd a6 d1 c7 bd 70 2b f7 bd
       -0.026510298 -0.066522375 -0.09756784 -0.12068832

model.0.bias f4 [64]
000000 1a ea 27 bd be 8b bf bd 32 74 10 be a1 2a 91 bd
       -0.04099474 -0.093528256 -0.14106825 -0.07088209
000010 2b c4 e8 bd c1 c2 55 3d 56 96 0f 3e 36 9c f9 bd
       -0.11365541 0.052187685 0.14022192 -0.12187998
000020 3a 59 79 bd d5 dc 28 3b 26 c6 39 3d cd 27 e4 3d
       -0.06087611 0.0025766392 0.045354985 0.11140404
000030 b8 b8 95 bd 97 3c 1d be 9f e4 3a 3e be 75 d7 bd
       -0.07310623 -0.15355144 0.18251275 -0.105205044
000040 fe 13 04 be 13 3e 30 be 16 11 32 3e bd 21 36 3e
       -0.12898251 -0.1721118 0.1738933 0.17786308
000050 64 b4 10 bd 1d d3 17 be b7 35 fa bb 86 30 fd 3d
       -0.035328284 -0.14826627 -0.007635798 0.12362771
000060 ce 8a 3d 3e 63 71 5e ba b5 77 9b 3d 4c e5 9d 3c
       0.18509981 -0.0008485524 0.07591192 0.019274376
000070 ad 62 d5 bd 5a 3f 3c 3e a6 77 3f 3d e9 01 ae 3c
       -0.104192115 0.18383542 0.046744965 0.021241145
000080 5b 80 2b bd 4a eb 21 be 52 d1 fc 3d d8 af 2f bd
       -0.041870456 -0.15812412 0.12344612 -0.042892307
000090 3f f5 db bd 04 ef 72 bb cd 6f ed 3d 1c 57 b6 bb
       -0.10740136 -0.0037068734 0.1159359 -0.0055645835
0000a0 16 34 09 3e cf 00 5a bd 65 ea 0c be 0e cd 6b bd
       0.13398775 -0.053223427 -0.1376129 -0.057568602
0000b0 ba 61 c3 3c 69 e1 2b 3e 26 22 7f 3d f2 8a 14 3a
       0.02385031 0.16785206 0.062288426 0.00056664564
0000c0 fe 2e 99 bd 95 bb 48 3d 09 03 d7 bd 03 63 26 be
       -0.07479666 0.049007017 -0.10498626 -0.16248707
0000d0 7f 6f fb 3d 63 cb fe 3c 46 98 3a be 3c 22 01 be
       0.122771256 0.031102842 -0.1822215 -0.12610716
0000e0 0e 24 40 3e ea 33 8e bb b2 fa 04 3e 08 fa e8 bd
       0.18763754 -0.0043396847 0.12986258 -0.11375815
0000f0 0a 89 8f 3c cf b5 26 3e 10 1c 28 3e c2 84 04 be
       0.0175214 0.16280292 0.16416955 -0.12941268

model.1.weight f4 [64]
000000 31 fd 81 3f 79 f2 7c 3f 3e 1a 74 3f ae 2d 77 3f
       1.0155393 0.98807484 0.9535254 0.96554077
000010 6b fd 86 3f d4 64 7a 3f 6c e3 7a 3f 71 7a 80 3f
       1.0546087 0.978101 0.9800327 1.0037366
000020 cc 85 86 3f 04 80 7b 3f cd d3 71 3f 9f c6 7f 3f
       1.0509582 0.9824221 0.9446381 0.99912447
000030 cc 19 77 3f 03 66 73 3f a5 e8 84 3f 73 ed 71 3f
       0.9652374 0.9507753 1.0383497 0.94502944
000040 2c 54 7e 3f 71 71 67 3f f0 11 6b 3f 63 61 82 3f
       0.99347186 0.9040747 0.91824245 1.018597
000050 44 ef 77 3f d8 00 7a 3f 24 d2 85 3f eb 43 81 3f
       0.96849465 0.9765754 1.0454755 1.0098852
000060 a1 11 76 3f 8e 03 80 3f a8 8f 77 3f fd 58 89 3f
       0.9612065 1.0001085 0.9670358 1.0730282
000070 4f ca 82 3f 9c 9f 88 3f 79 a8 75 3f fb 94 6b 3f
       1.021799 1.0673709 0.95960194 0.920242
000080 3d d0 7a 3f 1a 99 7c 3f cf c5 78 3f 0a 65 75 3f
       0.97973996 0.98671114 0.9717683 0.958573
000090 f1 e6 7c 3f 72 7b 7d 3f 24 53 73 3f 46 8e 74 3f
       0.9878989 0.9901649 0.9504874 0.9552959
0000a0 a0 16 78 3f 0e 94 6b 3f 8a 68 7c 3f 81 2e 74 3f
       0.96909523 0.9202279 0.98597014 0.9538346
0000b0 8b cc 7e 3f fa 91 75 3f 3c 21 82 3f 0f f8 76 3f
       0.9953086 0.9592587 1.0166392 0.9647226
0000c0 c3 9b 77 3f 84 0f 77 3f be dc 82 3f 96 f9 68 3f
       0.9672205 0.9650805 1.0223615 0.9100584
0000d0 e4 54 71 3f 39 fb 79 3f 04 48 75 3f 8e b4 72 3f
       0.9427016 0.9764896 0.9581301 0.94806755
0000e0 10 ee 87 3f 8c a8 7d 3f 6d fb 60 3f f8 d3 7f 3f
       1.0619526 0.9908531 0.87883645 0.99932814
0000f0 5e cf 72 3f b0 d9 75 3f 23 30 72 3f 52 c2 7a 3f
       0.9484767 0.9603529 0.946047 0.9795276

model.1.bias f4 [64]
000000 24 0d df bd d2 e3 36 be 08 6f 4b be 4b d9 0a be
       -0.10891178 -0.17860344 -0.19866574 -0.13559453
000010 c2 36 e3 bd 0d 6b 80 be 26 6c 27 be 49 0a 53 bd
       -0.110944286 -0.25081673 -0.16349849 -0.05152348
000020 4d dd 52 be d9 b1 0d be 08 16 f0 bd eb 68 1b be
       -0.20592232 -0.13837375 -0.11722952 -0.15176742
000030 6d 0f 3d be 3f 39 1d be 1b 61 15 bd 90 42 55 be
       -0.18462916 -0.15353869 -0.03646956 -0.20826173
000040 bb 8d 78 be 49 be c2 bd 37 83 0b be 5f 33 10 be
       -0.24272816 -0.0950895 -0.13624273 -0.14082097
000050 ef 61 c0 bd ce 8d 1f be cf 0e 6d be 02 3a 88 be
       -0.09393679 -0.15581438 -0.2315018 -0.26606756
000060 83 60 52 be e6 ea c3 bd 4c 01 38 be a3 42 64 bd
       -0.20544629 -0.09566288 -0.17969245 -0.055727612
000070 60 dc fd bd cf 69 38 be 1d 22 63 be 1b 02 75 be
       -0.12395549 -0.18009113 -0.22180982 -0.23926584
000080 aa 56 b9 be 76 56 b3 be 43 ec 55 be 63 3e fb bd
       -0.36198932 -0.35026902 -0.20890908 -0.12267759
000090 4f da 57 be 0a 57 b2 be 20 ad 8b bd ce ae 09 be
       -0.21079372 -0.3483203 -0.0682013 -0.13445589
0000a0 2e d9 04 be ec 88 b4 bd 3b c6 1c be 46 44 34 be
       -0.12973472 -0.08815178 -0.15309994 -0.17604169
0000b0 fd 09 83 be 4c 24 83 be 50 a1 1c be 88 25 36 be
       -0.25593558 -0.2561363 -0.15295911 -0.17787755
0000c0 74 15 92 be cd b9 f3 bd fe e6 3a be c8 72 d2 bd
       -0.28531992 -0.11900673 -0.18252179 -0.10275799
0000d0 7d a6 35 be 75 73 f2 bd 35 b6 2e be 6a f2 f8 bd
       -0.17739291 -0.11838428 -0.17061694 -0.12155612
0000e0 93 2f 81 be 20 e4 30 be 18 b4 52 be ea 76 1f be
       -0.2523161 -0.17274523 -0.20576513 -0.15572706
0000f0 c2 39 e7 bd 23 cb b9 bd 9a b3 b5 be 6e 0c 90 be
       -0.11290313 -0.090719484 -0.35488588 -0.28134483

model.1.running_mean f4 [64]
000000 dd d0 c1 3e ba 1f 0e be 65 0e b4 be 23 f1 51 3e
       0.37854663 -0.1387929 -0.35167232 0.20502143
000010 c2 bb cf be 8e 73 a8 3e f1 66 70 bc 4f 87 6e bf
       -0.40572935 0.3290066 -0.014672981 -0.93175215
000020 fa a4 0c bf fa ff f5 be f8 02 06 3f df 2e bf bd
       -0.54939234 -0.48046857 0.5234828 -0.09335112
000030 6e 4c 9c 3d 3c 0e 82 be 94 dd 73 3e c4 ca ef be
       0.07631765 -0.25401485 0.23814994 -0.46834385
000040 63 80 39 be 35 69 e9 be d5 4f 04 3f 76 c3 08 bf
       -0.18115382 -0.4558808 0.51684314 -0.5342325
000050 78 0f 1e 3f 08 8a 77 be 5d 2b 40 bf 94 74 10 3d
       0.61742353 -0.24173748 -0.7506617 0.035267428
000060 33 2a 58 3b 75 ed 18 be bb 68 92 3d a5 1e a1 be
       0.0032984137 -0.14934333 0.07148882 -0.31468692
000070 db 3e db bd ac 0d a9 3d c0 41 05 3f e7 a4 64 be
       -0.10705348 0.08254561 0.5205345 -0.2232853
000080 37 68 bb 3e 77 85 67 be 49 b6 9d be 58 6e 26 be
       0.36602947 -0.22609507 -0.30803135 -0.1625303
000090 ae 14 11 3e 4a 84 f7 3e 81 fc 08 3d ce 5b 39 3e
       0.14168045 0.48343116 0.03344393 0.18101427
0000a0 8f e9 a0 be ea a8 c9 bd 48 be 70 be d0 c7 11 3f
       -0.3142819 -0.09846671 -0.23510087 0.56945515
0000b0 44 af 08 bf 94 af 08 3f c9 5b ac be fc 3d c1 be
       -0.53392434 0.5339291 -0.33663777 -0.37742603
0000c0 1a 74 c7 bb ad 35 58 3e 0d 38 4c be e7 17 94 bd
       -0.0060868384 0.21114226 -0.19943257 -0.072311215
0000d0 33 ff 16 be a9 6c a5 3c 99 7e fc be cf a4 1c be
       -0.14745788 0.020193415 -0.49315336 -0.15297244
0000e0 7c 91 76 3d e6 96 b3 3e dc ca 8c be a4 40 e7 3e
       0.06019734 0.35076064 -0.2749852 0.45166504
0000f0 bb 5d e5 bd de 61 28 bd 46 e5 df 3e 92 7d 9a 3e
       -0.11199518 -0.04110896 0.4372961 0.30173928

model.1.running_var f4 [64]
000000 a6 75 3b 3c a6 b5 03 3c 7d 16 0e 3c 63 31 01 3c
       0.011441624 0.008038914 0.008672354 0.00788531
000010 94 45 0a 3c 31 55 13 3c f2 50 dd 3b c2 1e 3a 3c
       0.00843944 0.008992479 0.006754034 0.011359872
000020 af 04 c2 3b 74 dc 49 3c 51 b6 10 3c 4c 52 23 3c
       0.0059209685 0.0123206265 0.00883253 0.009968352
000030 56 31 1a 3c 9f 92 39 3c 2c 3e 76 3b e4 c0 6c 3c
       0.009411177 0.011326461 0.0037573678 0.014450286
000040 fd c2 a4 3b 85 90 40 3c 88 6e 35 3c c5 45 5e 3c
       0.005028127 0.011753206 0.011073716 0.013566439
000050 42 aa 24 3c 74 16 7e 3b cc 80 4e 3c c8 28 fe 3b
       0.010050358 0.0038770707 0.01260395 0.0077563263
000060 39 ec 2d 3c 44 b1 2b 3c 01 7b c8 3b 63 f9 17 3c
       0.010615402 0.010479275 0.006118179 0.009275767
000070 41 1a a9 3b 43 2a 6a 3b 6e bc 3c 3c e1 85 25 3c
       0.0051606004 0.0035730756 0.0115195345 0.01010272
000080 0f c3 0c 3c 01 60 af 3b 84 74 2f 3c e6 09 56 3c
       0.0085914275 0.0053520207 0.010708932 0.013063883
000090 ad bf 4b 3c cd 1b a5 3b b9 a8 17 3c 6e 01 1d 3c
       0.012435836 0.0050387145 0.009256535 0.00958286
0000a0 88 d2 26 3c a8 8c 29 3c 6c fb 2f 3c cb 84 35 3c
       0.0101820305 0.0103484765 0.010741096 0.011079024
0000b0 7b 7c 58 3c aa e5 f0 3b b2 12 3a 3c c2 f9 5e 3c
       0.013213272 0.007351597 0.011356996 0.013609352
0000c0 54 08 34 3c 8d 84 14 3c 92 ab 2e 3c 98 6e 1f 3c
       0.010988314 0.009064806 0.010661023 0.009730957
0000d0 d8 e0 6b 3c ce 0e 1d 3c 85 99 a6 3b 47 36 23 3c
       0.014396869 0.009586049 0.005084219 0.009961671
0000e0 8e 42 68 3b a5 74 ff 3b 67 b6 66 3c bf ac 18 3c
       0.003544006 0.0077958875 0.014081574 0.00931853
0000f0 b4 3e db 3b 99 b3 32 3c d1 67 91 3c 6f e1 97 3c
       0.0066908244 0.010907077 0.017749699 0.018540112

model.4.weight f4 [128, 64]
000000 3e 1e d9 3d da 0c 40 bc f9 81 2a bd be a1 b2 3d
       0.10601471 -0.011721814 -0.041627858 0.08722256
000010 79 62 77 bd 7d a5 38 bd 58 33 02 bd 28 81 0a be
       -0.060396645 -0.045079697 -0.031787246 -0.13525832
000020 93 92 2f 3c 1a b1 cd bc e9 7e 14 bd 2e 90 96 3d
       0.010716098 -0.025108863 -0.036253843 0.07351719
000030 3c cd c3 b9 4b ef 52 bc 59 a0 63 3d 1d fe 9f 3c
       -0.0003734621 -0.012874435 0.05557284 0.01953035
000040 ff 47 63 3d 51 74 3c 3c 87 da 2d 3d 4b 1e d9 bd
       0.055488583 0.011502341 0.042444732 -0.10601481
000050 9f 1c cc 3d f9 3a 72 be 6f f5 03 3d ab 43 9c bb
       0.099663965 -0.23655309 0.032216486 -0.004768809
000060 ea 9e 78 3c 54 b4 2d 3c 24 c4 97 3c f5 94 e6 bb
       0.015174607 0.010602076 0.018526144 -0.0070368
000070 fa 81 0f be ca a9 a3 3d 67 4a 0d be b2 63 b1 3d
       -0.14014426 0.07991369 -0.13797913 0.086615935
000080 47 88 5e bc d1 a4 55 bd f8 5e f9 bc a9 ed 4a bd
       -0.013582296 -0.052159134 -0.030440792 -0.049543057
000090 d2 e5 8e bd 6c 84 4c 3b b5 69 45 3c f9 1b f9 3c
       -0.069774285 0.003120686 0.012049128 0.030408846
0000a0 31 ed 17 3d 34 a6 8a 3d 4e 40 0e be 8a b7 dc 3c
       0.037091438 0.06769982 -0.13891718 0.026942987
0000b0 f7 7c 9d 3d 18 b3 55 bc dd ca 90 3b 79 49 4c 3d
       0.07689851 -0.013043188 0.0044187144 0.049874756
0000c0 9b 49 87 3d 37 54 5b 3d e5 5a ae 3b a9 9b 97 bd
       0.06605836 0.05354711 0.005320894 -0.07402737
0000d0 6e ae 00 3e 00 c6 84 bd 2e d9 27 3b 20 9c 1b be
       0.1256654 -0.06483078 0.0025611627 -0.15196276
0000e0 86 c9 fa 3d 0f 6e 79 3d 12 4a df bd 68 76 ac 3d
       0.12245469 0.060895976 -0.109028 0.08421022
0000f0 82 40 68 bd 7b 71 eb bc 0d af 8f bd ab 1c 9e bd
       -0.056702144 -0.028740635 -0.0701581 -0.07720312
000100 39 2e 0c bc d5 b5 ee bc 74 a6 ae 3d 15 9e 65 bd
       -0.008555942 -0.029139439 0.08527842 -0.056058962
000110 32 3b 86 3c ab 6f 94 bd 3d f7 5d bd b6 b2 00 3c
       0.016385648 -0.072478615 -0.054190863 0.007855108
000120 1c 5d a5 bd ef b4 09 be cd 54 81 3d c5 78 0a bd
       -0.080744 -0.13447927 0.063150026 -0.03380658
000130 2e bd 28 3c be ca 7c bb 3f c1 81 3c 80 f3 5b bd
       0.01029901 -0.0038572992 0.015839217 -0.053699017
000140 8e d8 9c 3c 6a 2a c1 3b 43 b8 90 3d dc 5e b8 3d
       0.01914623 0.0058949487 0.07066395 0.09002468
000150 1b 66 dc 3d f4 f5 99 3d 62 8c 8d bd 2d ea 3b bd
       0.107616626 0.07517615 -0.069115415 -0.045877624
000160 d0 36 e6 3c 4a cb ad 3d ef 6b a0 3d df c8 af 3d
       0.028102309 0.0848604 0.07833087 0.08583235
000170 66 a2 f4 3c 13 75 87 bc b3 cd 00 be 9f e1 fb bd
       0.029862594 -0.016535318 -0.12578468 -0.12298893
000180 9f 5a e6 bd 78 8d 1a 3d 5d ef cd bd 3d c7 df bd
       -0.11247753 0.03773257 -0.100554205 -0.109266736
000190 54 52 96 bd 49 79 28 be ba 24 bd bb e9 ab 51 bb
       -0.073399216 -0.16452517 -0.0057722004 -0.0031993336
0001a0 09 46 ab bb 67 90 6e 3d 5f 34 08 be ba 36 70 bd
       -0.0052268547 0.05824318 -0.13301228 -0.05864594
0001b0 b7 bf 27 bd c2 ba 90 3d e4 e4 06 bc a8 97 21 3d
       -0.040954318 0.07066871 -0.008233283 0.03945127
0001c0 63 94 12 be a8 2c 8f 3c 74 5c 82 3c ac 46 bc bd
       -0.14314418 0.017477348 0.015913226 -0.09193167
0001d0 af 04 a6 3c f3 56 c7 3d 3b 7f ac 3d 62 40 8d bd
       0.020265905 0.09733381 0.08422705 -0.06897046
0001e0 a9 28 d3 3d e0 3b d0 bd 7c 96 25 3d d3 e8 fe bd
       0.1031049 -0.1016767 0.040426716 -0.124467514
0001f0 55 06 a4 bd 00 aa e9 3b 78 ed 70 bd 9c eb de bd
       -0.0800902 0.0071308613 -0.058820218 -0.10884783
000200 fd 56 0a be 77 c1 b3 3d 29 2e 89 3b 4c ad 8f bc
       -0.13509746 0.08777135 0.004186411 -0.01753869
000210 a9 62 d8 bd 52 d1 ac 3d fd 1b d6 bc b7 8c 37 be
       -0.10565693 0.08438362 -0.026136393 -0.17924772
000220 ba 1f 10 be 9a 38 8e bd a7 86 47 bc 48 52 1b bd
       -0.14074603 -0.0694439 -0.0121781 -0.037920266
000230 76 da d1 3d 8e 0b b6 3d 7c 2f fd bd 5e 60 83 bd
       0.10246746 0.08888923 -0.123625726 -0.06414865
000240 d7 6d 85 3d 4c 10 9f 3d 03 1e 2a 3d 2c d8 68 3c
       0.06515091 0.0776678 0.041532528 0.014211696
000250 9c 93 ca 3d 09 04 77 bd d7 4a c4 3d 95 d1 86 bd
       0.098914355 -0.060306583 0.09584587 -0.06582943
000260 c4 cb 29 3d 95 b1 a1 bd 38 a5 a0 bd e1 4a c4 bc
       0.04145409 -0.07895199 -0.07844013 -0.023961486
000270 bb d0 0d bd d9 ee e4 bd d1 41 e3 3d fd 20 c7 bd
       -0.03462289 -0.11178369 0.11096538 -0.09723089
000280 f0 eb 11 3d 56 65 37 3e 4b e8 5c bd 98 cb c5 bd
       0.0356254 0.1790975 -0.05393247 -0.09657973
000290 7a 19 2a 3d 1c 9f f7 bd be b5 35 3d f6 96 32 3c
       0.041528203 -0.120908946 0.044362776 0.01090025
0002a0 e9 81 93 3d cf 47 31 bd 5e 9d 30 3d 6a 68 88 3c
       0.07202513 -0.043281373 0.043118827 0.016651351
0002b0 b6 46 60 3d b9 7a 48 3c 3a 8b df 3d f3 f5 14 bd
       0.054754935 0.012236291 0.10915227 -0.036367368
0002c0 f5 36 4d bd 64 12 44 bd 01 fc a6 3d 98 41 81 3d
       -0.05010124 -0.0478691 0.08153535 0.06311339
0002d0 af 1e 99 bd b8 9e 49 bd 27 38 57 bd d4 ac b0 3c
       -0.074765556 -0.04922363 -0.052543785 0.021566786
0002e0 b8 0b a2 3d 56 46 84 bd eb ed 65 bc 30 d5 6c 3d
       0.079123914 -0.06458728 -0.014033775 0.0578205
0002f0 b0 cb b0 3d c2 5a a4 3c 97 35 8b 3c 30 16 e7 bc
       0.086326 0.020062808 0.016993327 -0.028208822
000300 f5 ad 6b bd a7 48 d7 3d 4f 5e 9f bd cc ba 1f bd
       -0.057538945 0.10511904 -0.0778166 -0.038996503
000310 3e 88 33 be 15 9f e3 bd 7d 4d 00 be 55 1d 6e 3d
       -0.17532441 -0.11114327 -0.1252956 0.058133442
000320 9e 71 0b bd d1 3a ae 3c 03 7a 91 3c 07 fc f4 b9
       -0.0340439 0.02126828 0.017758375 -0.00046727082
000330 03 91 9e bd c7 e0 95 3b 81 2b 49 bd 08 1f 02 bd
       -0.077425025 0.0045739147 -0.049113754 -0.031767875
000340 ac 7f 32 3c db 55 53 bd b1 d1 a2 bd 27 83 0b 3d
       0.010894697 -0.05159555 -0.07950152 0.034060623
000350 96 79 12 3d f5 2f 01 3e 7b fb d0 bc 44 6f be bd
       0.035760485 0.1261595 -0.02551054 -0.09298566
000360 c6 f5 5f 3d a7 32 33 bc c7 89 98 3d 64 11 87 3c
       0.054677747 -0.010937369 0.07448154 0.016487785
000370 8c fd 80 3d d1 a6 48 be 87 fe 3b 3d f6 5f 77 bd
       0.0629836 -0.19594885 0.045897033 -0.06039425
000380 05 d2 51 3d 20 70 d9 bc 8e e6 23 bd fb 12 c7 bb
       0.05122568 -0.026542723 -0.040014796 -0.0060752607
000390 1e bd 85 ba 75 5f ef 3d 67 c0 41 3d bc 30 38 bd
       -0.0010203456 0.11688129 0.04730263 -0.04496835
0003a0 02 38 1c 3d 31 47 9e bc 54 3f dd bb 63 f6 87 3d
       0.03813935 -0.019321056 -0.006751934 0.066387914
0003b0 e7 62 49 3d 76 4f 54 bd a2 8e 90 3d be 75 93 bd
       0.049166586 -0.051833592 0.07058455 -0.07200192
0003c0 31 cb da bd 3b cd 48 bc 14 05 83 bd 85 71 d7 bc
       -0.10683287 -0.012255962 -0.06397453 -0.026299248
0003d0 61 44 45 3d 33 f8 3d bd 13 21 c6 bc bc e5 ea 3c
       0.048160914 -0.04637928 -0.024185693 0.028673999
0003e0 e0 fa 84 be be de 1d ba b7 bf df 3c 6b 3e 06 3d
       -0.25972652 -0.0006022266 0.027313096 0.03277437
0003f0 17 f4 b0 3b 4d 91 5f 3d f8 f8 48 bd 9f 56 4f bd
       0.0054001915 0.05458193 -0.04906556 -0.050619718

model.4.bias f4 [128]
000000 24 08 46 bd 42 01 ca 3c 51 9a 09 bd cc 90 85 bd
       -0.048347607 0.024658803 -0.033594433 -0.065217584
000010 03 78 0a 3d a4 3d 27 3d 94 47 0b 39 76 61 a2 bc
       0.03380586 0.04083027 0.00013282738 -0.019821864
000020 fc a1 51 3c 4c e9 c0 3a 65 46 13 be b6 44 75 3d
       0.012794968 0.0014717965 -0.14382322 0.05987998
000030 9f d3 ae bd 2a 6d 2e be 17 79 8b 3d 74 a5 8a bd
       -0.08536457 -0.1703383 0.068102054 -0.06769839
000040 90 91 d6 bd 64 ca 4c be 66 e8 07 be 14 dd 72 be
       -0.104769826 -0.19999081 -0.13272247 -0.23717147
000050 ba b0 da bd 30 c8 d8 bb dd c7 79 bd 56 d9 db bd
       -0.10678239 -0.006615661 -0.06098162 -0.10734813
000060 79 da e1 bd 5c b4 1d be d1 bd 46 bd b7 e2 1c bd
       -0.110279985 -0.15400833 -0.048520867 -0.03830215
000070 b4 ae 32 be 94 88 9e bc 40 3f c3 3c fc 29 76 bd
       -0.17449456 -0.019352235 0.02383387 -0.060098633
000080 bd 76 b9 3b f3 cf 21 bd a5 57 0a be ed 00 7c 3d
       0.0056599067 -0.039504956 -0.13509996 0.06152432
000090 64 62 15 bd 3f 64 f3 bd f2 a4 cf bd 29 29 6b bd
       -0.036470786 -0.11884355 -0.10138883 -0.0574123
0000a0 73 f2 1f bd c3 47 80 be f7 1d 6d bd ba 70 85 be
       -0.039049577 -0.2505475 -0.057889905 -0.26062566
0000b0 f2 6b e5 bd 47 cc 7d bd 5d a6 bb bd 5a 38 c9 bd
       -0.112022296 -0.061962392 -0.09162591 -0.09825201
0000c0 9b 37 82 be ae 24 e6 bd 36 43 3e bd c7 d7 32 be
       -0.2543305 -0.11237465 -0.046450816 -0.17465125
0000d0 71 65 4a 3d 43 a1 29 bd 31 f7 a1 bd ef 29 39 be
       0.04941315 -0.041413557 -0.07908476 -0.18082403
0000e0 2b 33 29 be 44 40 04 bd 07 ed 99 bd b0 d9 d9 bd
       -0.16523425 -0.03228785 -0.075159125 -0.10637224
0000f0 69 5f 87 bd cc 67 9e bd 0c 8e 2e be 9d 8f 19 be
       -0.06609995 -0.077346414 -0.17046374 -0.1499619
000100 84 15 3c bd 95 9a 72 bb 17 d5 1a 3d dd f9 6a be
       -0.045918956 -0.0037018408 0.037800875 -0.22946878
000110 6d 37 95 3c d7 a8 0c bd a7 c6 78 bd da 6f 3f be
       0.018214906 -0.034340706 -0.060736325 -0.18695012
000120 f2 0d 9f 3d 23 b7 52 bd 2c ad ba bb 69 0c f9 bd
       0.07766332 -0.051444184 -0.005696913 -0.1216057
000130 d9 e9 69 bd e4 41 d8 bd 5f 51 9a 3c 91 5e 8a bd
       -0.05710778 -0.10559443 0.018837629 -0.06756318
000140 83 ed 62 bd 04 b8 ba bd ac 6b 6d be bb 30 dc 3d
       -0.05540229 -0.091171294 -0.23185605 0.10751482
000150 85 37 37 be 82 fa 5f be 11 52 89 be ae c7 92 3d
       -0.17892273 -0.21872905 -0.26820424 0.07166992
000160 aa 4f ad bd 16 e8 0a bd 36 4e 50 3c 16 a6 ff bd
       -0.0846246 -0.03391274 0.012713959 -0.1248285
000170 fb 3b af bc 85 4d fc bd d9 be 6e 3d 32 99 0d bd
       -0.021390906 -0.12319473 0.058287475 -0.034569927
000180 f3 a8 f1 bc 07 40 84 bb 76 87 da bc 0c 37 81 be
       -0.029499507 -0.004035953 -0.026675921 -0.2523731
000190 66 e6 61 3d a6 04 9d bd 36 9f 37 be 07 6a 38 bb
       0.055151366 -0.07666902 -0.17931828 -0.002813937
0001a0 4d ce 58 bd 84 8e 3d bd 17 23 52 be fb 4d a7 bd
       -0.05293112 -0.04627849 -0.20521198 -0.081691705
0001b0 b7 aa a9 bd 16 b7 a5 bd 5a 82 6c bd 46 a5 0d be
       -0.082845144 -0.080915615 -0.0577415 -0.13832578
0001c0 1c ad c5 3b ef aa 26 be 49 ff d9 3c c2 1f dc bd
       0.006032599 -0.16276143 0.026610987 -0.10748245
0001d0 1c 6b ae 3c 50 4c 0b be 6f 17 23 be e6 34 9d bd
       0.021291308 -0.1360333 -0.15926908 -0.07676105
0001e0 e8 bf 4c 3d 0d 88 de bd 4e a4 3a be 20 c2 ee bd
       0.049987704 -0.108657934 -0.1822674 -0.1165812
0001f0 1f 33 e1 3d cc b6 41 be 1f 26 eb bd 98 a4 4b bd
       0.10996079 -0.18917388 -0.114818804 -0.049717516

model.6.weight f4 [128]
000000 fa c8 77 3f 20 bb 7b 3f df dc 80 3f 1f cb 80 3f
       0.9679104 0.98332405 1.0067405 1.0061988
000010 e4 8e 7d 3f 74 71 73 3f f3 88 7b 3f da e1 84 3f
       0.9904616 0.9509499 0.9825584 1.0381424
000020 fe 75 7c 3f 8f c6 80 3f 75 b0 81 3f a1 11 80 3f
       0.9861754 1.0060595 1.0131975 1.000538
000030 c4 5a 80 3f ff 2e 7a 3f 0b f8 7c 3f fd 16 78 3f
       1.00277 0.9772796 0.98815984 0.9691008
000040 db fe 83 3f f2 ee 81 3f 6e 9a 77 3f fa a2 75 3f
       1.0312151 1.0151045 0.96720016 0.9595181
000050 19 b1 75 3f 05 19 82 3f 83 a8 81 3f f1 cc 7b 3f
       0.95973355 1.0163885 1.0129551 0.9835959
000060 a7 4e 7d 3f 3e fa 76 3f 6b 25 7f 3f 7c e7 75 3f
       0.9894814 0.9647559 0.9966647 0.9605634
000070 09 1a 83 3f 5a 74 84 3f d2 03 7b 3f 31 08 7c 3f
       1.024232 1.0348008 0.98052704 0.9845
000080 22 e4 83 3f 06 cb 79 3f 16 6a 82 3f 0b d1 7e 3f
       1.0303996 0.97575414 1.0188625 0.99537724
000090 fd 06 83 3f 71 75 7e 3f 33 35 71 3f 79 1b 7e 3f
       1.0236508 0.9939795 0.942218 0.9926067
0000a0 e2 72 74 3f ac 7d 7e 3f 93 02 7f 3f dd 06 7a 3f
       0.954878 0.9941051 0.996133 0.9766672
0000b0 ad 7e 82 3f a1 90 71 3f 54 b6 7b 3f 74 e2 76 3f
       1.0194908 0.9436131 0.98325086 0.9643929
0000c0 31 cc 76 3f 4a 91 7e 3f 74 98 7a 3f ed 6a 83 3f
       0.9640532 0.99440444 0.97888875 1.0267006
0000d0 74 3a 7b 3f c7 f4 7f 3f b3 68 82 3f ce 00 80 3f
       0.9813607 0.99982876 1.0188202 1.0000246
0000e0 5c 0f 7c 3f d4 d5 7c 3f f3 a5 7d 3f 20 ce 7f 3f
       0.98460937 0.98763776 0.99081343 0.99923897
0000f0 d3 f3 81 3f 09 72 82 3f 03 30 7b 3f 4c 33 7d 3f
       1.0152534 1.0191051 0.98120135 0.989064
000100 e9 00 75 3f 62 62 79 3f 7c f2 80 3f 87 74 78 3f
       0.95704514 0.97415745 1.0074 0.97052807
000110 44 6f 80 3f 44 60 7f 3f ed f0 82 3f b6 dd 80 3f
       1.0033956 0.99756265 1.0229775 1.0067661
000120 54 fb 73 3f b4 f5 7b 3f 38 85 82 3f ee 9d 7f 3f
       0.9530537 0.9842179 1.0196905 0.99850357
000130 1e 8b 7a 3f ea cc 7a 3f 42 90 7e 3f 22 1a 7d 3f
       0.97868526 0.97968924 0.9943887 0.98868
000140 46 e7 82 3f 6d 34 7c 3f 45 2e 7c 3f ff e8 80 3f
       1.0226829 0.98517495 0.985081 1.0071105
000150 dd 6b 80 3f e4 27 83 3f 47 69 76 3f fe dc 7b 3f
       1.0032917 1.0246549 0.9625439 0.9838408
000160 d4 bf 7f 3f bd 38 82 3f 91 30 7a 3f c4 2c 81 3f
       0.9990208 1.0173565 0.97730356 1.0091786
000170 c2 20 7e 3f ab c6 80 3f 43 42 81 3f 00 b5 82 3f
       0.99268734 1.0060629 1.0098346 1.0211487
000180 36 18 7e 3f e5 fb 80 3f ba 8b 82 3f 51 aa 75 3f
       0.9925569 1.0076872 1.0198891 0.9596301
000190 3a 77 79 3f 7d 6b 7a 3f fc 37 81 3f ea a3 82 3f
       0.9744755 0.97820264 1.009521 1.0206273
0001a0 6a a6 82 3f 1e ad 78 3f 0b 63 7f 3f fd 2e 75 3f
       1.0207036 0.97139156 0.997605 0.95774823
0001b0 cd ee 83 3f 5d 89 83 3f ef a9 7e 3f d7 0e 7e 3f
       1.0307251 1.0276295 0.9947805 0.99241394
0001c0 99 9c 81 3f e0 14 7c 3f 1c 68 82 3f 6a e2 7f 3f
       1.0125915 0.9846935 1.0188022 0.99954855
0001d0 da aa 7d 3f e4 24 83 3f 22 c8 82 3f ab c3 7e 3f
       0.99088824 1.0245633 1.0217326 0.99517316
0001e0 14 26 80 3f 29 6a 80 3f 2f 6c 77 3f a6 d4 80 3f
       1.001162 1.0032398 0.9664945 1.0064895
0001f0 b4 47 79 3f c4 7e 80 3f 4f 14 84 3f 36 d5 81 3f
       0.97375035 1.0038686 1.0318698 1.0143192

model.6.bias f4 [128]
000000 cc ae 62 bc ec a4 73 b9 3a 81 72 bd 04 68 de bc
       -0.01383562 -0.00023235724 -0.05920527 -0.027149208
000010 c3 d3 7c bd 20 77 dc bc 76 c8 2b bd 34 04 fe bd
       -0.06172539 -0.026912272 -0.04193922 -0.124031454
000020 94 1a d9 ba 4a cc 80 bd 0b 8f 87 bd 67 10 de 3b
       -0.0016563707 -0.06288965 -0.0661908 0.0067768577
000030 4d 79 0f bd ef 13 c2 bd 5c 0e 8c bd 53 0d 2e bc
       -0.03502779 -0.09476458 -0.06838676 -0.010623294
000040 8f 9a bf bc 78 31 23 be 5f 7d 5c be c7 98 64 be
       -0.023389129 -0.1593684 -0.215322 -0.22323905
000050 e1 d0 b3 bc e8 ac ac bd e8 de 8a bd 97 35 05 be
       -0.021950187 -0.08431417 -0.06780797 -0.13008724
000060 87 11 fe bd b6 4c 20 be f2 23 78 be 35 aa 64 bd
       -0.12405687 -0.15654263 -0.24232462 -0.055826385
000070 aa 8b 17 be 45 11 85 bd 3b dd 18 be fe 89 6a bd
       -0.14799371 -0.064974345 -0.14928143 -0.057260506
000080 37 4d e7 bc c8 a5 8b bd 18 66 87 3c 04 2b ae bc
       -0.028235061 -0.0681873 0.016528174 -0.021260746
000090 bf 72 60 bd 9b e4 78 3c 75 e1 9b bd e6 84 37 bd
       -0.05479693 0.015191223 -0.07611362 -0.044804476
0000a0 b5 6e d5 bd 0a eb 0d be 65 18 0e be 1d 2b e6 bd
       -0.10421506 -0.13859192 -0.13876493 -0.11238692
0000b0 dd 08 4d 3c 63 f0 f1 bc 32 29 92 bc 5a 7f c9 bd
       0.01251432 -0.02953357 -0.01784191 -0.098387435
0000c0 ce a4 11 be a1 1a 2c be b0 61 44 bc 8c 69 d7 bd
       -0.14223024 -0.16807033 -0.011986181 -0.10518178
0000d0 8d 52 ab bd d1 d5 67 bd 00 0a 83 bd d0 4e 1c be
       -0.08365355 -0.056600396 -0.06398392 -0.1526444
0000e0 fe d4 21 be 4f 0c 29 be a6 a4 19 be 18 99 fa 3c
       -0.15803906 -0.16508602 -0.15004215 0.030590579
0000f0 14 a0 08 bd fb d7 ab bd 29 b3 d4 bd 60 b1 87 bd
       -0.033355787 -0.083908044 -0.103857346 -0.066256285
000100 bc a8 11 3c 76 92 f6 3c f8 fc 88 bd 3a 17 58 be
       0.008890327 0.030099135 -0.06688875 -0.2110261
000110 58 35 86 bc 3b f1 04 bd 96 2a 8a bc fd c1 df bd
       -0.016382858 -0.032456618 -0.01686601 -0.10925672
000120 62 b9 e3 bc 0e 9f ad bd df 23 f1 3c 4a 98 b0 bd
       -0.027798358 -0.08477603 0.02943605 -0.08622797
000130 8f 23 08 be 53 5d 24 be a9 17 bc bc 99 d5 93 bd
       -0.13294815 -0.16051225 -0.0229605 -0.07218475
000140 dd b0 01 bd 26 4a fc bd ae 1d 3c be 3a c8 80 3c
       -0.03166281 -0.1231883 -0.18370697 0.015720475
000150 53 e9 40 bd 8b 01 40 be 27 8a 15 be 40 69 ec 3c
       -0.047097515 -0.18750589 -0.14603482 0.02885878
000160 73 f8 1b bd f8 f0 f7 bb 6b d1 81 3c 51 ac 03 be
       -0.038078737 -0.0075665675 0.015846929 -0.12858702
000170 e9 28 96 bd a3 f6 3d be 99 5e 07 3d 50 25 17 bd
       -0.07332022 -0.18551116 0.0330492 -0.03690082
000180 77 a6 7d bd a0 67 08 be e3 e4 2a bd f5 ff 51 be
       -0.06192633 -0.1332078 -0.04172219 -0.20507796
000190 04 53 50 bd 47 0c bb bd 89 db b5 bd df 26 a3 bc
       -0.05086042 -0.09133201 -0.08879764 -0.019915996
0001a0 e8 65 00 bd 1f 8c d9 bd 59 2e 04 be 6b 16 12 be
       -0.031347185 -0.10622429 -0.12908305 -0.14266364
0001b0 63 1b a9 bd 58 0b ba bd 4e 00 25 be 48 52 e1 3c
       -0.08257177 -0.09084195 -0.16113397 0.027505055
0001c0 b9 2b 8a bc ce 8f a0 bd d6 1b a5 bc 9e 3e 23 bc
       -0.016866552 -0.078399286 -0.020154875 -0.00996366
0001d0 52 b7 5d bd 14 86 b4 bd 3d 93 73 bd df 8f 5a bd
       -0.054129906 -0.08814636 -0.05946659 -0.053359862
0001e0 a0 1e 81 3c f7 80 cb bd e1 2d fe bd 5d 82 29 be
       0.015761673 -0.099367075 -0.124110945 -0.16553636
0001f0 07 b5 68 bc 79 8d f5 bd cb 3e 88 bd 47 1d 01 bc
       -0.0142033165 -0.119898744 -0.06652602 -0.007880515

model.6.running_mean f4 [128]
000000 43 7d 09 be 88 00 01 be 43 9b 03 be 45 f3 7b be
       -0.1342669 -0.12597859 -0.12852196 -0.24604519
000010 b3 12 77 be 44 cc 94 bd a3 21 3f be 0c c6 ac be
       -0.24128227 -0.07265523 -0.18665175 -0.33744848
000020 c4 54 37 be d2 a7 17 be e8 4d 46 be 89 fd c0 bd
       -0.1790343 -0.14810112 -0.19365656 -0.09423358
000030 c9 f4 22 be f4 de 3f be 4d 52 3d be 07 c8 2b be
       -0.1591369 -0.18737394 -0.18488427 -0.16775523
000040 9f cc 5c be e3 af 60 be 84 16 2a be b6 fa a8 bd
       -0.21562432 -0.21942095 -0.16610152 -0.08250944
000050 22 db 50 be 01 df 05 be 4d 64 ea bd 09 e5 29 be
       -0.20396093 -0.1307335 -0.11444912 -0.16591276
000060 6f 6a a3 be e1 b7 b2 be aa 24 81 be 95 76 81 be
       -0.3191714 -0.34905913 -0.25223285 -0.25285783
000070 be c4 b3 be 0a fa 1c be 80 f9 82 be c8 b6 0a be
       -0.3511104 -0.15329757 -0.25580978 -0.13546288
000080 52 f0 28 be 16 d8 22 be fa 3f 4f be 12 8b 3b be
       -0.16497925 -0.15902743 -0.20239249 -0.1831477
000090 d4 d7 4d be 5a 5a c7 bd 7f e2 46 be 46 a1 4d be
       -0.20101863 -0.0973403 -0.19422339 -0.20081052
0000a0 61 19 7e be e0 86 45 be 01 92 43 be 73 af 2a be
       -0.24814369 -0.19289732 -0.19098665 -0.16668491
0000b0 30 b9 46 be 50 8d 00 be b6 02 b7 bd 62 c5 38 be
       -0.19406581 -0.12553906 -0.08936064 -0.18044046
0000c0 57 59 37 bd fb 38 8a be e0 40 ca bc 0e e3 71 bd
       -0.044762935 -0.26996598 -0.024689138 -0.059054427
0000d0 2c b8 87 be 8f ec 01 be 4b 66 21 be e1 d1 a0 be
       -0.265077 -0.12687896 -0.15761678 -0.31410125
0000e0 a8 bb bf bd fe 0e 5d be c4 26 53 be 7a 61 02 be
       -0.093619645 -0.2158775 -0.20620257 -0.12732497
0000f0 85 7c 21 be f6 af 58 be 8d 87 41 be 14 ab 7b be
       -0.15770157 -0.21160874 -0.18899365 -0.2457698
000100 32 d8 45 be 97 18 fe bd 10 2d 4c be ab 8c 56 be
       -0.19320753 -0.12407034 -0.19939065 -0.20952098
000110 aa 44 36 be fc d7 0a be d9 32 cc bd 9f e9 04 be
       -0.17799631 -0.13558954 -0.09970636 -0.12979744
000120 a0 f0 33 be ed 47 71 be 39 70 05 be dd 06 64 be
       -0.1757226 -0.23562594 -0.13031091 -0.22268243
000130 ee 61 60 be c2 2b 8f be 25 ed 4c be 91 a1 54 be
       -0.21912357 -0.27963072 -0.20012338 -0.20764758
000140 5b 53 0e be 41 8a 59 be 17 99 a1 be 3d 32 4e be
       -0.13898985 -0.21244146 -0.3156211 -0.20136352
000150 08 72 33 be 5c 9a 8a bc 51 42 b3 bd 69 79 fd bd
       -0.17523968 -0.016919307 -0.08752883 -0.12376673
000160 5c 11 b1 bd 3e 33 07 be 80 29 6b be 0a 13 24 be
       -0.08645889 -0.13203141 -0.2296505 -0.16022888
000170 5d a1 50 be b9 72 ce be d0 7f f0 bd f6 37 26 be
       -0.20374055 -0.403219 -0.11743128 -0.16232285
000180 e9 46 60 be 32 aa 95 be 91 54 38 be ca cd 52 be
       -0.2190205 -0.2923141 -0.1800101 -0.20586315
000190 ba 0a 3f be ec a9 4e be e7 77 d2 be fc 44 0b be
       -0.18656436 -0.20182008 -0.41107103 -0.13600534
0001a0 d8 cb e5 bd 87 dc 4d be e8 c2 96 be 5c 02 8a be
       -0.11220521 -0.20103656 -0.29445577 -0.26954925
0001b0 5e 08 81 be 0f 6f 55 be 65 6e d8 be 1e 04 e4 bd
       -0.25201696 -0.20843147 -0.42271724 -0.11133598
0001c0 b7 a0 13 be 9f dc 56 bd 42 b9 27 be 94 47 28 be
       -0.14416777 -0.052456494 -0.16379264 -0.16433555
0001d0 3c 25 1e be 16 10 dc be b7 f9 0c be 5f 4d 27 be
       -0.15443891 -0.42981023 -0.13767134 -0.16338108
0001e0 9b c1 26 be f9 80 20 be b2 e3 20 be e9 c4 b1 be
       -0.16284792 -0.15674199 -0.15711859 -0.34720543
0001f0 b3 d0 3a be bd e6 23 be 17 a9 19 be 36 2b fe bd
       -0.18243675 -0.16005988 -0.15005909 -0.124105856

model.6.running_var f4 [128]
000000 1a a7 88 3e c6 f6 a0 3e a8 fd 49 3e 61 68 aa 3e
       0.26689988 0.31438273 0.19725668 0.3328276
000010 50 e0 da 3e fe 76 0d 3e 9b 15 9e 3e fd 58 05 3f
       0.42749262 0.13814923 0.3087586 0.5208891
000020 49 f0 a2 3e b7 14 70 3e 0b 94 91 3e 82 49 51 3e
       0.31823948 0.23445402 0.2843326 0.20438197
000030 cb 19 90 3e 5b 7e 92 3e d9 30 75 3e 41 ec 81 3e
       0.28144678 0.28612027 0.23944415 0.2537556
000040 5f 58 79 3e 0c 40 a1 3e 3d 4a 53 3e c9 51 48 3e
       0.24350117 0.31494176 0.20633788 0.19562449
000050 1d a4 85 3e bf 44 72 3e 98 5d 80 3e 3b f0 2b 3e
       0.2610177 0.23659037 0.25071406 0.1679086
000060 dc f0 a5 3e 29 17 ac 3e c1 8a 98 3e fe a8 a0 3e
       0.32410324 0.3361142 0.2979336 0.3137893
000070 fb e2 ab 3e 2a 04 46 3e ea 82 8e 3e 57 1d 83 3e
       0.3357161 0.19337526 0.27834255 0.25608322
000080 81 ce 7a 3e 85 fb 99 3e 00 04 a6 3e 98 c7 a4 3e
       0.24492837 0.30074707 0.32424927 0.32183528
000090 07 88 7d 3e e7 7c 2c 3e cd f1 58 3e 29 03 a3 3e
       0.24758922 0.16844521 0.2118599 0.31838349
0000a0 4a ad 61 3e 6b 6d af 3e 67 54 b9 3e ca 47 84 3e
       0.22038761 0.34263167 0.36197206 0.2583602
0000b0 0e a9 a1 3e 7e 12 32 3e f5 9a 37 3e f0 2b 69 3e
       0.3157429 0.17389867 0.17930205 0.22770667
0000c0 32 e8 f9 3d 22 bd 8c 3e 45 cd b7 3e 3e 91 63 3e
       0.12202491 0.27488047 0.35898796 0.22223374
0000d0 c7 d9 dd 3e 8f d5 69 3e 5d 56 1b 3e f6 35 b0 3e
       0.43330213 0.22835372 0.15169664 0.3441617
0000e0 65 40 8a 3e b3 48 62 3e 44 b9 82 3e 5b 99 93 3e
       0.27002254 0.22098045 0.2553197 0.28827938
0000f0 c4 8f 5d 3e d4 29 81 3e 6c 9c 83 3e 2e 8d be 3e
       0.21636873 0.25227225 0.25705278 0.37217087
000100 3d 0c 94 3e c9 3b 85 3e c1 4d ab 3e 23 18 51 3e
       0.28915587 0.26022175 0.3345776 0.20419364
000110 04 17 ad 3e 38 8a 4b 3e d9 b4 96 3e a9 e8 ae 3e
       0.33806622 0.19876945 0.2943485 0.3416188
000120 d3 14 55 3e d6 02 9b 3e db 8c 64 3e a6 e8 aa 3e
       0.20808725 0.302756 0.22319357 0.33380622
000130 48 e0 7b 3e ea c6 96 3e 2a 04 65 3e 08 5a 94 3e
       0.24597275 0.29448634 0.2236487 0.28974938
000140 0f 89 a7 3e 03 4d 3f 3e 8d af e9 3e 63 1e b7 3e
       0.32721755 0.18681721 0.45641747 0.3576537
000150 fd f4 86 3e 02 c6 41 3e 8a c8 22 3e cf e6 8c 3e
       0.26358786 0.1892319 0.15896812 0.27519843
000160 82 6c 96 3e b8 ae 15 3e 94 23 c2 3e be 81 a1 3e
       0.2937966 0.14617431 0.3791777 0.31544298
000170 a2 e0 9e 3e da cc ea 3e aa 6b a0 3e 73 9e 62 3e
       0.31030756 0.45859414 0.3133214 0.22130756
000180 5d 44 66 3e c6 e5 97 3e cf 3b 93 3e 28 67 df 3e
       0.22487016 0.2966749 0.28756568 0.4363339
000190 ac c8 8b 3e 41 3b 93 3e 2e bf e4 3e 74 e2 85 3e
       0.27301538 0.28756145 0.4467711 0.26149333
0001a0 9a 84 2b 3e 79 f9 9e 3e a8 49 fa 3e 23 89 97 3e
       0.16749802 0.31049708 0.4888432 0.29596815
0001b0 bb f5 70 3e ec 1a 75 3e 7f e8 f4 3e 61 32 9e 3e
       0.23531239 0.23936051 0.4783363 0.3089781
0001c0 05 92 3a 3e c4 17 43 3e b7 67 65 3e 0c bb 86 3e
       0.18219765 0.19052035 0.22402845 0.2631458
0001d0 28 80 7c 3e 5c 40 ee 3e e8 48 96 3e e1 55 72 3e
       0.24658263 0.46533477 0.29352498 0.23665573
0001e0 89 95 a9 3e 69 c2 36 3e 07 28 48 3e bf b3 ef 3e
       0.331219 0.17847599 0.19546519 0.46816823
0001f0 15 08 37 3e fc 81 38 3e 1d 0b 49 3e 8e 8e 98 3e
       0.17874177 0.18018335 0.19633146 0.2979626

model.8.weight f4 [128, 128]
000000 65 13 9a bd a0 86 b8 bc d2 70 65 bd 9c b5 0b 3d
       -0.075232305 -0.022525132 -0.056015797 0.034108743
000010 03 78 40 bc a2 be 15 3b 29 6e 47 3b f0 f4 9f bd
       -0.011747363 0.0022849222 0.003043065 -0.0781039
000020 8e 9c 95 bc 6c ec a4 bd 19 95 97 bd 36 00 9f ba
       -0.018263128 -0.080529064 -0.07401485 -0.00121308
000030 67 c7 14 bd ad e8 5f bc 69 4b c5 3c 7b ce 88 bd
       -0.036322977 -0.013666314 0.02408381 -0.06680008
000040 2c 5d 6f 3c bd 00 c5 bb 63 88 85 bc fc 6d a8 3c
       0.014609616 -0.006012051 -0.016300386 0.020560257
000050 69 40 11 bc 73 02 02 3d 77 8a 84 bd 5f 83 bc bc
       -0.008865454 0.031740617 -0.064717226 -0.023011861
000060 44 b9 47 bd 8c eb 7c 3c fc e3 36 3c 50 ca 0e bd
       -0.048760667 0.015437018 0.011162754 -0.03486091
000070 86 3a 01 bd aa b4 9c 3b fa 18 06 3e 16 d1 40 3c
       -0.031549953 0.004782279 0.13095465 0.0117686
000080 52 5b 7e 3c f9 81 9f bb d9 98 e3 3a b1 7c 8a 3c
       0.015524702 -0.004867789 0.0017364278 0.01690516
000090 8d 64 6c 3d 76 10 5d bd ba 61 e4 3c 5d b8 ba bc
       0.05771308 -0.053970776 0.02787863 -0.02279299
0000a0 7e e1 2f bd ef e4 85 bd 87 fe ab 3d ec c0 f8 bc
       -0.042939655 -0.06537806 0.083981566 -0.03036543
0000b0 19 8b f6 3c 50 88 27 3c 3a 8e ee bc 3b bc 02 bd
       0.030095624 0.0102253705 -0.029120553 -0.03191779
0000c0 cf 7e b5 3c bd f8 b2 3d bc 48 00 3d f7 69 ac bc
       0.022155194 0.08738849 0.031319365 -0.021046622
0000d0 53 d2 13 3d fc 8b 35 bd d6 65 56 bd 67 2a ab 3d
       0.036089253 -0.044322953 -0.052343212 0.08357697
0000e0 16 15 c4 3b 2d ce 96 bc ff 9e 5b 3d 99 e5 fa 3c
       0.005983959 -0.01840886 0.053618427 0.030627059
0000f0 d9 bc 35 3d fb 87 ac 3d 54 7b 94 3b f9 1d 81 ba
       0.044369552 0.08424374 0.0045313034 -0.0009850851
000100 19 9c 48 bd 8f e0 53 3c 5b 28 aa 3c 38 d2 2e bd
       -0.04897699 0.012931957 0.020771196 -0.04268095
000110 59 8f 90 3d 0d 98 2a bd bd 39 a0 3c 21 e2 dd 3c
       0.070585914 -0.041648913 0.019558782 0.027085366
000120 8e 5d 2d bd e5 7e 9d bc 4f 68 1a bd 48 f1 b8 bd
       -0.04232555 -0.019225547 -0.037697133 -0.09030396
000130 24 f5 49 3c e7 58 b4 bd 85 ba c5 bc 05 3d 34 3d
       0.0123265125 -0.08806019 -0.024136791 0.044003505
000140 d4 25 d1 3d cb 86 bf 3d ba 53 0b 3d fa af ef 3b
       0.10212293 0.093518816 0.034015395 0.007314679
000150 83 11 5d bd d2 d3 fd bc 56 64 7c 3c 7a 64 59 3c
       -0.05397178 -0.030984793 0.015404781 0.013268584
000160 19 de 39 3d 03 2b 0f 3c aa 19 48 bc ba 88 1a 3c
       0.045377824 0.008738282 -0.01221315 0.009432012
000170 ec af 84 bc cd 96 92 3d 1f 02 85 3d d0 93 e2 3d
       -0.016197167 0.07157669 0.06494545 0.11063349
000180 bd b4 9c bd 61 a2 9d 3d c1 6f 9f bd f6 4f 62 bd
       -0.076516606 0.07696987 -0.07784987 -0.055252038
000190 8a d7 fa 3c b0 4a 7d bd de f5 82 3d 93 d9 75 bd
       0.030620355 -0.061838806 0.06394552 -0.060021948
0001a0 cd 9f c1 bd 5d ce b6 3c c4 b4 4b 3d ff cd 55 3d
       -0.09454308 0.022315199 0.04973294 0.052198406
0001b0 37 1a a8 bc d6 a0 be 3d 98 51 a1 bd 05 8a a1 bc
       -0.020520313 0.09308021 -0.07876891 -0.019719133
0001c0 3d a8 60 3d 19 d5 fe 3c ac da 0f bc ca 92 a4 3d
       0.054847945 0.031107472 -0.008780163 0.0803581
0001d0 3e 20 2f bd 62 49 8c bd f1 4e c8 3a 01 76 41 3d
       -0.042755358 -0.06849934 0.0015282315 0.047231678
0001e0 f0 5c b8 3c b4 3b 1d bd 73 61 99 3d b6 6a 89 3d
       0.022505254 -0.038387015 0.0748929 0.067098066
0001f0 0c 3f 12 bc 1a e5 63 bd de 60 29 bd 6e 8c fe 3c
       -0.008926164 -0.05563841 -0.041352145 0.031072821
000200 1a 46 24 3d ae ad 8b 3c 0b 84 ef bd 40 7e 02 3d
       0.040105917 0.01705059 -0.11695107 0.031858683
000210 0c a2 91 bc b9 50 a3 3d 00 e6 54 bc 23 b8 fa bc
       -0.017777465 0.07974381 -0.012994289 -0.030605381
000220 34 2a 92 3b c9 96 ef 3b d2 c2 1e bd 6d 47 40 bd
       0.0044605974 0.007311676 -0.038760014 -0.046943117
000230 7e d9 d0 bc 3a 56 d0 bd ea 8a 09 3d a5 7b 8b 3d
       -0.025494333 -0.101726964 0.033579744 0.06810693
000240 9f 60 b9 3d 5c 53 25 3c 8e 22 50 3d ee e3 2e bd
       0.09051632 0.010090675 0.050814204 -0.04269784
000250 d3 cb 43 3c 94 24 41 3d d2 70 b8 bd 51 31 08 3d
       0.011950451 0.047154024 -0.09005894 0.033250157
000260 59 5a 87 3c 7f d0 8f 3c c5 60 9c bd ac c1 6c bd
       0.016522573 0.017555473 -0.07635645 -0.057801887
000270 31 4c e9 bc 17 82 19 bd 0b c0 69 3c 1b 85 02 be
       -0.028478714 -0.03747758 0.014266978 -0.12746088
000280 af 68 98 bd ca 30 77 3d 1d d3 94 bd dc 3b e6 3b
       -0.07441842 0.060349263 -0.07266829 0.0070261788
000290 02 0f 1c bd 8d 3b 27 bd 44 df b9 bd f1 7b af bd
       -0.03810025 -0.040828276 -0.09075788 -0.08568562
0002a0 df 5e 12 bc 44 47 b6 3c 67 c6 a0 bc 49 64 7e bc
       -0.008933752 0.022250779 -0.019625856 -0.0155268395
0002b0 98 76 a7 bb 03 60 a9 bc a9 33 92 bd f3 91 0b bd
       -0.005110573 -0.020675665 -0.0713876 -0.034074735
0002c0 db 35 17 3d 4f 9d 3b bd 3c 1e 54 bd 9d 80 80 bd
       0.036916595 -0.045804318 -0.051786646 -0.06274531
0002d0 02 8f 88 bd 36 3d a3 3d f9 7f 78 3d 20 85 65 bd
       -0.066679016 0.079706594 0.06066892 -0.05603516
0002e0 2b 29 73 3d 6e 48 f2 bb 38 e2 65 bd 2a af 5d 3d
       0.059365433 -0.007393888 -0.056123942 0.054122128
0002f0 26 99 cd ba 3f 9a 4e bd 92 0e 00 bd 04 01 9e 3d
       -0.00156859 -0.05044007 -0.031263895 0.077150375
000300 da 38 25 3c 74 6a ba 3c 05 9d 46 bd 5d 5c 09 bc
       0.010084355 0.022755839 -0.04848959 -0.0083838375
000310 12 2a 52 3d 7f 15 bc 3d c3 6b c1 bd 1d dc a9 3b
       0.051309653 0.091837876 -0.09444382 0.0051837103
000320 ea 37 33 bb 7e f1 9b bd ce 5d 82 3d 47 9e fc ba
       -0.002734656 -0.0761442 0.06365548 -0.0019273245
000330 92 a1 9d bd 68 77 67 bd 7e 92 0e 3d ff 0b a9 bc
       -0.07696833 -0.05651036 0.034807675 -0.020635603
000340 55 df 0c bd 63 c5 36 bd 51 f6 f7 bc cf ec 7d 3d
       -0.034392674 -0.044621836 -0.03026882 0.061993416
000350 c0 98 b9 3d 92 45 ae bd c9 76 69 bd 60 59 3c bd
       0.09062338 -0.08509363 -0.056998048 -0.045983672
000360 0a cc 33 bc 58 b1 5b 3d 61 57 0b bd 6d 22 d3 3b
       -0.01097394 0.053635925 -0.034018878 0.006443313
000370 1b 6e a3 3c c8 cd 10 bd 10 39 f9 bc 33 92 cd 3d
       0.019949963 -0.0353525 -0.030422717 0.10037651
000380 1c 36 a8 bd c3 1a 03 3d ea bb 9c 3d 3a 66 31 bc
       -0.082134455 0.032007944 0.07653029 -0.010827595
000390 1a 2d 99 3d 2f a0 6c bd 33 4e 52 bc 72 75 3c 3d
       0.074793056 -0.05776995 -0.012836027 0.046010442
0003a0 7a 6c 90 bd f7 ef 96 bd 80 54 15 bc 5e 77 61 3d
       -0.0705194 -0.073699884 -0.009114385 0.055045478
0003b0 ca c6 5a 3d 4e 21 3b bd 14 97 1e bd 02 52 65 3d
       0.053412236 -0.04568606 -0.038718298 0.055986412
0003c0 33 c5 48 bd 49 f9 95 3d 9c de f1 3c 11 c5 3a bc
       -0.04901619 0.07322938 0.029525094 -0.011399523
0003d0 d8 37 a9 3d 72 68 0f bc 34 6c be bd e5 4b 3d bc
       0.082626045 -0.008752929 -0.09297982 -0.011553739
0003e0 60 1f 3d bc d7 6b ba 3d 14 30 27 bd 2b 2b 7c 3d
       -0.011543125 0.091026 -0.040817335 0.061564606
0003f0 c9 19 79 3b 16 f6 1f 3d 58 40 44 bc 57 43 4d bc
       0.0038009754 0.039053045 -0.011978231 -0.012528262
