models/more_layers/fiveLayerModel_ee_corrCut_-1.0_weights_true_drop_0.5_lorentzdelta_gen_no_qgbatch_2000_layerordergood.pt (torch, 156157 bytes, 26 tensors)

model.0.weight f4 [64, 28]
-0.024110422 0.075282685 -0.023527302 -0.015148557 0.45967385 0.46554217 -0.07049665 0.010587711
-0.14458203 0.036575615 -0.01867013 -0.024514979 -0.13171025 -0.06680036 0.706689 0.76619464
0.10130357 0.023989674 0.0531894 0.07400957 -0.007017072 -0.013242768 -0.089115635 0.042564612
0.0020480629 0.0011300505 -0.002635011 -0.00078185817 0.120388374 0.3086384 -0.014785239 -0.0043923007
0.012175964 0.09118076 0.17706376 -0.02547795 0.06844201 0.45664075 -0.008426581 0.004299434
-0.1279602 0.36049518 0.4167199 -0.2653218 -0.015556161 -0.11540336 -0.13219714 -0.16482837
0.023419369 -0.016368862 0.045721624 0.003952946 0.012486327 0.0024354039 0.0033440087 -0.0108301835
-0.06219886 -0.15831923 -0.014335279 -0.018868282 -0.4989158 0.21409632 0.025963416 -0.063560754
0.011402352 0.2931661 -0.013468764 -0.030841758 0.31320462 0.3922706 0.14297655 -0.3291386
0.020516967 0.12021517 -0.16919947 0.23158711 0.027132614 -0.014763381 0.031023236 -0.08727061
-0.00997131 0.0053968066 0.009545354 -0.008481541 0.32173333 -0.044250984 0.010714775 -0.024387073
0.019858392 -0.025257276 -0.036027286 -0.06715221 0.32478315 -0.2830421 0.008918737 0.007706066
0.4549621 0.15157327 0.5038161 -0.58536047 -0.04121926 -0.06745717 0.0033994643 0.12908344
-0.025141442 -0.024798207 0.012456332 0.056775704 0.007407847 0.020284407 -0.011520334 -0.0114528155
-0.34392416 -0.011232984 0.05186813 0.06547323 0.39751294 0.0046758703 0.08550484 -0.07792164
-0.26846603 0.1931549 -0.013455845 -0.021348402 0.32101423 0.0873192 0.048606604 -0.26839897
0.0071025454 -0.09234999 0.020995215 -0.061331987 0.034042 -0.028142815 0.078563996 0.032734603
0.03617716 -0.024952376 -0.057326637 -0.075549304 -0.43477184 -0.060824215 -0.017413218 0.034298502
0.07506969 -0.30946526 -0.16138646 0.071896434 -0.27052525 0.22917993 -0.0153053235 -0.008232528
-0.047821544 -0.23704173 -0.28923762 0.030761342 -0.11600743 -0.2006715 0.026266437 -0.14023256
-0.034571707 -0.0015717418 0.08097281 0.021990512 -0.0019082895 0.0050590886 -0.03444354 -0.022513788
0.4483085 0.1170631 0.0077401963 0.018008322 0.27297074 0.12930402 -0.04422972 -0.2682025
0.09440509 -0.13046214 -0.009418468 -0.020919962 0.30555624 -0.4462985 -0.09123746 0.16644338
-0.11985318 0.025137158 0.005375599 0.32734874 0.04669451 0.02102977 0.09338471 0.018496752
-0.0010971967 -0.048353307 -0.04738542 0.0043527773 0.26378742 0.2988649 -0.0062869205 0.03987751
-0.23657931 -0.108797364 0.28598103 -0.29072878 0.26220506 0.34331712 -0.03907919 -0.016410628
0.36918673 0.20029226 0.49110642 -0.06689645 -0.00630337 -0.1253003 -0.1392207 0.0075534894
-0.022322346 -0.032418795 0.076396875 0.024696924 -0.044944417 -0.031946804 -0.016839404 0.03773871
-0.20129877 0.015185884 0.0094141085 -0.043302637 0.22074647 0.08841743 -0.2315427 0.10377038
-0.065845765 0.23890112 0.051698934 0.008060866 -0.27134266 -0.11430563 0.0847444 -0.14338711
0.14247915 0.034387898 0.15145284 0.12423067 -0.015039581 0.05573445 -0.24234185 0.102048
0.061179202 -0.0634404 -0.022408813 0.019154651 -0.068925895 -0.030471867 -0.021593345 -0.003761588
00000000: 3883 c5bc cf2d 9a3d 54bc c0bc a731 78bc
00000010: 5f5a eb3e 8b5b ee3e 8c60 90bd 1478 2d3c
00000020: 500d 14be 50d0 153d 1af2 98bc a3d3 c8bc
00000030: 0ddf 06be a1ce 88bd 92e9 343f 5525 443f
00000040: 3f78 cf3d fe85 c43c 21dd 593d 5492 973d
00000050: 77ef e5bb 32f8 58bc 4282 b6bd 3b58 2e3d
00000060: cb38 063b 341e 943a 26b0 2cbb 9df5 4cba
00000070: 2e8e f63d da05 9e3e c93d 72bc 4aed 8fbb
00000080: b27d 473c fabc ba3d 3450 353e 22b7 d0bc
00000090: 532b 8c3d d1cc e93e a40f 0abc 44e2 8c3b
000000a0: 0008 03be d392 b83e 505c d53e 42d8 87be
000000b0: 45df 7ebc 9958 ecbd b05e 07be c5c8 28be
000000c0: fad9 bf3c fe17 86bc 9946 3b3d b787 813b
000000d0: 7493 4c3c 4c9b 1f3b 2827 5b3b 1571 31bc
000000e0: 3bc4 7ebd 701e 22be 85de 6abc a891 9abc
000000f0: e471 ffbe 113c 5b3e 3bb1 d43c 242c 82bd
00000100: eed0 3a3c de19 963e 17ac 5cbc dba7 fcbc
00000110: 5b5c a03e b1d7 c83e 7268 123e db84 a8be
00000120: 3313 a83c 5f33 f63d a042 2dbe 2c25 6d3e
00000130: 3745 de3c 1ce2 71bc 7124 fe3c efba b2bd
00000140: b55e 23bc b2d7 b03b 1e64 1c3c 29f6 0abc
00000150: 3bba a43e 8540 35bd 068d 2f3c 66c7 c7bc
00000160: 11ae a23c 59e8 cebc 5991 13bd 1987 89bd
00000170: fa49 a63e e5ea 90be e51f 123c 2b83 fc3b
00000180: cbf0 e83e 0636 1b3e 18fa 003f 2fda 15bf
00000190: 87d5 28bd fc26 8abd 8cc9 5e3b 732e 043e
000001a0: 6df5 cdbc 9c25 cbbc a515 4c3c a48d 683d
000001b0: 86bd f23b 7c2b a63c c8bf 3cbc 97a4 3bbc
000001c0: d416 b0be 8d0a 38bc ad73 543d d416 863d
000001d0: d186 cb3e 0b38 993b 291d af3d 6195 9fbd
000001e0: 6174 89be 66ca 453e e875 5cbc d8e2 aebc
000001f0: fa5b a43e 69d4 b23d b817 473d 976b 89be
00000200: 78bc e83b fe21 bdbd 28fe ab3c 4037 7bbd
00000210: a06f 0b3d c38b e6bc 29e6 a03d b814 063d
00000220: 802e 143d ed68 ccbc 56cf 6abd 98b9 9abd
00000230: 6a9a debe d022 79bd 2aa6 8ebc 967c 0c3d
00000240: 23be 993d 3b72 9ebe 7e42 25be 703e 933d
00000250: 4982 8abe 25ae 6a3e 2ec3 7abc bae1 06bc
00000260: 86e0 43bd 11bb 72be f416 94be 36ff fb3c
00000270: 4e95 edbd d47c 4dbe b62c d73c 2099 0fbe
00000280: 109b 0dbd e702 ceba 13d5 a53d 7225 b43c
00000290: 921f faba b6c6 a53b ab14 0dbd d66e b8bc
000002a0: b188 e53e c7be ef3d 79a1 fd3b 3086 933c
000002b0: d2c2 8b3e 4668 043e 392a 35bd d751 89be
000002c0: 7557 c13d de97 05be eb4f 1abc 5760 abbc
000002d0: de71 9c3e 3d81 e4be b5da babd 2270 2a3e
000002e0: 9675 f5bd 71ec cd3c cb25 b03b 419a a73e
000002f0: be42 3f3d a046 ac3c 7c40 bf3d 8086 973c
00000300: d0cf 8fba 1e0e 46bd 3717 42bd bea1 8e3b
00000310: 250f 873e d204 993e 8302 cebb 9a56 233d
00000320: d941 72be 27d1 debd 1b6c 923e 67da 94be
00000330: be3f 863e 43c7 af3e 8011 20bd 956f 86bc
00000340: 0b06 bd3e 6a19 4d3e 4d72 fb3e 0201 89bd
00000350: 808c cebb b94e 00be df8f 0ebe 4383 f73b
00000360: 5add b6bc 92c9 04bd f775 9c3d 3451 ca3c
00000370: a317 38bd a7da 02bd caf2 89bc e893 1a3d
00000380: 4421 4ebe 37ce 783c a23d 1a3c 1b5e 31bd
00000390: 5d0b 623e 3314 b53d 8819 6dbe 9185 d43d
000003a0: 25da 86bd 7fa2 743e 43c2 533d b911 043c
000003b0: 6ded 8abe 1219 eabd 798e ad3d 12d4 12be
000003c0: 0ee6 113e 53da 0c3d 7416 1b3e a66c fe3d
000003d0: 9368 76bc cf49 643d 7628 78be 8bfe d03d
000003e0: 0b97 7a3d 0aed 81bd b092 b7bc 37ea 9c3c
000003f0: 0529 8dbd 23a0 f9bc 87e4 b0bc f984 76bb

model.0.bias f4 [64]
-0.17127758 -0.02960485 0.06802381 0.09519482 0.16830853 0.110870734 0.024577722 0.10922724
-0.09945714 0.14317213 0.103677034 -0.0979824 0.015436194 0.048416287 -0.030656394 -0.11582013
0.08952005 0.081699975 -0.15097445 -0.12736334 -0.13576847 -0.1447286 0.14825793 0.121672615
0.05875951 -0.1351677 0.18499112 0.16451462 -0.022740265 0.13486235 -0.07450591 0.17600979
0.13300607 -0.06170972 -0.1467141 0.18569313 0.1788363 0.008362088 0.14265253 -0.13488035
0.04744974 -0.1635261 0.069489576 0.13446338 -0.015275517 0.09002594 0.073821336 0.08960738
0.079463616 0.07970036 -0.14940673 -0.1887334 -0.04558411 -0.19030593 -0.16422069 -0.12613893
-0.11538845 0.1458189 0.15719375 0.12112605 0.10458021 0.07181396 -0.022618923 0.1371632
00000000: 6463 2fbe df85 f2bc 1150 8b3d 80f5 c23d
00000010: 1259 2c3e 3210 e33d 3857 c93c 88b2 df3d
00000020: 2fb0 cbbd b79b 123e a054 d43d ffaa c8bd
00000030: 17e8 7c3c 2850 463d 1e23 fbbc 1b33 edbd
00000040: 4a56 b73d 5152 a73d 0c99 1abe 896b 02be
00000050: e406 0bbe bc33 14be edd0 173e 7e2f f93d
00000060: d0ad 703d 6769 0abe 506e 3d3e 8576 283e
00000070: cb49 babc 5b19 0a3e 8e96 98bd e93b 343e
00000080: be32 083e 55c3 7cbd 393c 16be 5726 3e3e
00000090: dd20 373e 2401 093c 8113 123e 131e 0abe
000000a0: a95a 423d 6373 27be 8d50 8e3d c5b0 093e
000000b0: 2946 7abc 855f b83d a42f 973d 1384 b73d
000000c0: d2bd a23d f139 a33d 14fe 18be 5443 41be
000000d0: 67b6 3abd 8fdf 42be 7829 28be 902a 01be
000000e0: c850 ecbd 8d51 153e 66f7 203e ef10 f83d
000000f0: 262e d63d 3313 933d 524b b9bc 8374 0c3e

model.1.weight f4 [64]
0.79557383 0.96573496 0.69973725 0.8793738 0.8088465 0.7365981 0.8576492 0.8173503
0.67756164 0.7711131 0.86387295 0.706077 0.8160882 0.72032917 0.93206155 0.7221578
0.80352664 0.75965255 0.6779201 0.7767211 0.82797617 0.7331404 0.88648814 0.60903996
0.74218416 0.7248532 0.73193073 0.758347 0.5782859 0.75205797 0.82730997 0.8692604
0.8891889 0.814321 0.864079 0.84462875 0.8365759 0.8067924 0.8162834 0.76087314
0.78454417 0.81545216 0.59652096 0.648179 0.7865995 0.8089876 0.62911314 0.9160322
0.84010917 0.82943475 0.8576896 0.7564737 0.75826913 0.71328324 0.80263686 0.8265915
0.75703216 0.697539 0.7897553 0.8786475 0.7297896 0.70663184 0.8742544 0.89038754
00000000: baaa 4b3f 683a 773f fb21 333f a41e 613f
00000010: 9010 4f3f b191 3c3f e68e 5b3f df3d 513f
00000020: ae74 2d3f ab67 453f c726 5d3f 76c1 343f
00000030: 28eb 503f 7e67 383f 969b 6e3f 55df 383f
00000040: ecb3 4d3f 9778 423f 2c8c 2d3f 32d7 463f
00000050: 3ff6 533f 17af 3b3f e3f0 623f 0bea 1b3f
00000060: c8ff 3d3f fb8f 393f d05f 3b3f 0723 423f
00000070: 8b0a 143f df86 403f 96ca 533f d987 5e3f
00000080: e2a1 633f 5777 503f 4834 5d3f 9739 583f
00000090: d729 563f f289 4e3f f3f7 503f 95c8 423f
000000a0: e3d7 483f 79c1 503f 99b5 183f 0fef 253f
000000b0: 965e 493f d019 4f3f 8f0d 213f 1681 6a3f
000000c0: 6511 573f d655 543f 8c91 5b3f 43a8 413f
000000d0: ed1d 423f bb99 363f 9c79 4d3f 809b 533f
000000e0: dccc 413f ea91 323f 672d 4a3f 0bef 603f
000000f0: 7ed3 3a3f d3e5 343f 23cf 5f3f 70f0 633f

model.1.bias f4 [64]
-0.31398594 -0.73981607 -0.68360186 -0.70511085 -0.8955115 -0.57103485 -0.5989425 -0.737556
-0.17452094 -0.31111065 -0.73570603 -0.5446775 -0.79283065 -0.60492975 -0.72750485 -0.63715726
-0.66964024 -0.7519368 -0.51085544 -0.7637954 -0.6104971 -0.50445855 -0.80028623 -0.4583824
-0.7572152 -0.47264066 -0.5660789 -0.61713934 -0.19632095 -0.52128536 -0.5943869 -0.72561586
-0.76983196 -0.7916376 -0.7135681 -0.7140098 -0.7316484 -0.69456434 -0.54008657 -0.7434468
-0.63814974 -0.7207553 -0.3883048 -0.21677105 -0.8006325 -0.5973213 -0.4932994 -0.6909923
-0.8537021 -0.76758164 -0.65907776 -0.73120683 -0.45189154 -0.61367726 -0.7494858 -0.8013993
-0.64280725 -0.6895164 -0.5359899 -0.8082381 -0.5391157 -0.5021695 -0.7359796 -0.6801326
00000000: c4c2 a0be 9664 3dbf 8800 2fbf 2582 34bf
00000010: 3e40 65bf 572f 12bf 4c54 19bf 78d0 3cbf
00000020: 9eb5 32be e549 9fbe 3b57 3cbf fc6f 0bbf
00000030: f3f6 4abf addc 1abf c23d 3abf bd1c 23bf
00000040: 8b6d 2bbf ee7e 40bf 6cc7 02bf 1888 43bf
00000050: 8a49 1cbf 3224 01bf 8fdf 4cbf 19b1 eabe
00000060: dbd8 41bf f5fd f1be 8cea 10bf d8fc 1dbf
00000070: 5c08 49be f572 05bf bd29 18bf f6c1 39bf
00000080: b513 45bf c3a8 4abf 66ac 36bf 59c9 36bf
00000090: 4f4d 3bbf f8ce 31bf 1d43 0abf 8852 3ebf
000000a0: c85d 23bf 6b83 38bf e3cf c6be 3bf9 5dbe
000000b0: 40f6 4cbf 0cea 18bf bd91 fcbe dfe4 30bf
000000c0: 398c 5abf 3b80 44bf 52b9 28bf 5f30 3bbf
000000d0: 545e e7be f419 1dbf 4dde 3fbf 8128 4dbf
000000e0: 048f 24bf 2684 30bf a236 09bf b1e8 4ebf
000000f0: 7d03 0abf 2e8e 00bf 2969 3cbf 2c1d 2ebf

model.1.running_mean f4 [64]
0.76395524 0.5014154 0.015705615 0.23817337 -0.06464195 -0.49304193 0.37016657 0.88224936
-0.11196329 1.0726185 0.07677782 0.23298824 -0.24521457 0.35559842 -0.51526093 -0.16494061
0.8754882 -0.029383242 -0.40174186 0.28307998 0.26335964 -0.83151096 0.5965979 -0.008451157
0.5374057 0.23871014 0.59452766 -0.26204965 0.37909 0.2760265 -0.9678355 0.7255069
0.018460458 0.39462703 0.89942336 0.042410236 -0.07895004 0.6703088 0.4335254 0.028584145
0.5371404 -0.11467354 0.5041485 0.02909826 0.5125777 0.62780684 -0.055564836 0.7289334
0.046601314 0.2998282 -0.7700828 0.5799496 0.14843832 -0.0996481 -0.51971453 -0.17735668
-0.28031498 0.5894437 0.63111407 -0.28505445 -0.1783879 0.1425408 0.24281512 0.4204449
00000000: 9292 433f c25c 003f 10a9 803c b8e3 733e
00000010: 0063 84bd fe6f fcbe 7986 bd3e 18db 613f
00000020: 024d e5bd 904b 893f b13d 9d3d 7894 6e3e
00000030: 8719 7bbe ff10 b63e 24e8 03bf 31e6 28be
00000040: ff1f 603f 20b5 f0bc 1cb1 cdbe dcef 903e
00000050: 13d7 863e e7dd 54bf a4ba 183f b976 0abc
00000060: 6c93 093f 6e70 743e f732 183f 5f2b 86be
00000070: 1618 c23e 5853 8d3e 11c4 77bf d2ba 393f
00000080: 633a 973c 8e0c ca3e 9c40 663f 5bb6 2d3d
00000090: 8fb0 a1bd 5c99 2b3f 0bf7 dd3e 4c29 ea3c
000000a0: 0982 093f f6d9 eabd e00f 013f 795f ee3c
000000b0: 4b38 033f f3b7 203f f497 63bd 619b 3a3f
000000c0: 05e1 3e3d 1583 993e 2524 45bf 9477 143f
000000d0: 3700 183e 4e14 ccbd 030c 05bf fd9c 35be
000000e0: 7285 8fbe c8e5 163f b190 213f a8f2 91be
000000f0: 51ab 36be 37f6 113e 87a4 783e 8e44 d73e

model.1.running_var f4 [64]
0.002307925 0.010732271 0.004690399 0.0059215557 0.0082133 0.008165743 0.010387195 0.015427348
0.006660658 0.0029306917 0.013170688 0.004569467 0.012163122 0.014445269 0.004645055 0.0032429516
0.012430012 0.009262304 0.013337267 0.009236433 0.0072085476 0.0023549662 0.0052672764 0.0042389096
0.0062958207 0.0034965493 0.0025690158 0.00437061 0.005962292 0.0073890616 0.011042364 0.00450775
0.011846649 0.011036505 0.014519986 0.008215077 0.013974451 0.012601523 0.007313544 0.010085585
0.02089094 0.0038758593 0.006506667 0.0094719725 0.005072553 0.009315767 0.0040848227 0.007049226
0.009269622 0.0015812775 0.0064043277 0.015913095 0.0069607133 0.00273742 0.010163501 0.017434873
0.0040858802 0.0028761039 0.0019729985 0.007666443 0.0029572102 0.004569473 0.015281102 0.0062286085
00000000: 8e40 173b 68d6 2f3c ebb1 993b 9c09 c23b
00000010: 1491 063c 9cc9 053c 0e2f 2a3c fdc2 7c3c
00000020: a641 da3b d910 403b dfc9 573c 78bb 953b
00000030: d547 473c d9ab 6c3c 8c35 983b b387 543b
00000040: 40a7 4b3c ebc0 173c 8d84 5a3c 6854 173c
00000050: ae35 ec3b c755 1a3b 1e99 ac3b 8de6 8a3b
00000060: 2c4d ce3b 5d26 653b ef5c 283b 5637 8f3b
00000070: 555f c33b f11f f23b 08eb 343c bfb5 933b
00000080: 7318 423c 75d2 343c 3ce5 6d3c 8898 063c
00000090: 19f5 643c 9e76 4e3c 74a6 ef3b 023e 253c
000000a0: 7a23 ab3c 2102 7e3b e135 d53b 5530 1b3c
000000b0: a937 a63b 29a1 183c fad9 853b 32fd e63b
000000c0: 9ddf 173c de42 cf3a 65db d13b 2e5c 823c
000000d0: b216 e43b 4966 333b d084 263c 94d3 8e3c
000000e0: d9e2 853b 047d 3c3b 6c4d 013b c936 fb3b
000000f0: c1cd 413b 85bb 953b 965d 7a3c 5b19 cc3b

model.4.weight f4 [128, 64]
-0.016540576 -0.040885843 -0.0104471035 -0.031467356 -0.039101478 -0.018289374 -0.08419738 0.2286384
0.019040989 -0.017178737 0.104356885 -0.0051905024 0.18606824 9.400089e-05 0.021925328 0.0039099627
-0.038624655 0.056268163 0.054454453 -0.043017182 -0.054367762 -0.00784652 -0.0049503506 -0.014939076
-0.11623421 -0.016215624 0.0033901923 0.004443192 -0.010550666 -0.0020301132 -0.048825495 -0.047152977
-0.019830517 0.0007263124 -0.013092045 -0.11692665 -0.071817145 0.1862049 0.0009459202 0.039338693
-0.10912858 0.06358815 -0.014107041 0.0023314394 0.09337074 0.0019117334 0.0073120957 0.18484004
-0.11314867 -0.015081894 -0.06390139 -0.018316032 -0.0020288078 -0.017596671 0.20942219 -0.043228477
0.023715928 -0.018425008 0.0083415 0.01993208 0.00076485274 -0.005401722 -0.047953144 0.29683447
-0.12822779 -0.12016055 -0.036500998 -0.06849357 0.04451332 0.03277591 0.0076967343 -0.08739863
0.033155028 -0.12172121 0.1540714 -0.019846782 0.07469578 0.11173602 -0.09780331 -0.023787573
-0.07031738 0.090519585 -0.076494455 -0.07068972 -0.0026796833 -0.005535427 0.08970832 0.013415136
-0.05956039 -0.07589004 -0.03478458 -0.005778985 0.025777446 -0.0099202 0.13527645 0.06491521
0.11317448 -0.109631434 -0.06479597 0.11688015 -0.067374445 -0.0882743 0.030341221 -0.12228165
-0.05691341 0.036942985 -0.037797198 0.07886554 0.017028458 0.025792068 -0.037414193 -0.054464325
-0.105241545 -0.03785441 0.062374283 -0.06407521 0.006571564 -0.025088841 -0.0031040856 -0.08265148
-0.04069656 -0.04462099 -0.0107785165 0.30114317 -0.009302505 0.01332809 -0.0570998 0.048182357
-0.021387089 -0.006851413 0.11970854 -0.032619193 0.011125061 -0.00716634 0.011895565 0.011930057
0.058357865 -0.0041781208 0.00919728 -0.0979481 -0.02011054 0.0050608846 0.020367341 -0.14095774
-0.012940084 0.0047976016 0.020071412 0.013461962 0.015912583 -0.113928646 -0.0090291565 -0.0155986
-0.010864586 0.017257819 0.17339039 -0.12824579 0.059238654 0.032044906 -0.012245748 -0.025079675
0.010235308 0.00699439 0.011338755 0.004585025 -0.017870238 0.0044746567 -0.015019882 -0.015505758
0.013527381 0.02137985 0.0931737 0.01745096 -0.014110017 0.005071899 -0.017999303 0.0044922987
-0.01634941 0.3686717 0.00250185 -0.0061416575 -0.04623662 -0.13185562 -0.016007164 -0.005780829
0.014231292 0.33349037 0.19190875 0.01170968 -0.12160555 -0.06723074 0.016684195 -0.020469196
-0.09225857 0.0024184382 0.19163696 0.027845865 -0.009782776 -0.007043649 -0.019076806 -2.5077976e-05
-0.02450241 -0.08898049 -0.020576982 0.20683818 -0.006148465 -0.008027065 -0.003107659 0.060700614
0.00883321 -0.03000269 -0.030320477 -0.01562675 -0.00081183336 -0.055898134 0.021524647 0.08923621
0.014332608 -0.15321755 0.2586791 0.17361104 0.023212308 -0.042201925 0.00084193423 0.024293333
-0.010024146 -0.008460145 0.0072817127 -0.0069112536 -0.00558228 -0.002484639 -0.011642691 -0.023378449
-0.01949869 0.0012464032 -0.0076321983 -0.022685686 0.031024586 -0.0075085885 0.028583111 0.0033938333
-0.0013016929 -0.23822708 0.022495689 -0.02364164 -0.0289827 0.017699562 -0.004086075 8.488456e-05
-0.019990526 0.14405476 0.013260442 -0.025596824 0.20727502 -0.12842286 -0.022160824 0.017452957
00000000: 1a80 87bc ea77 27bd 542a 2bbc eae3 00bd
00000010: df28 20bd 99d3 95bc ad6f acbd 2f20 6a3e
00000020: d9fb 9b3c 6cba 8cbc 10b9 d53d 1715 aabb
00000030: ac88 3e3e 5822 c538 bf9c b33c 251f 803b
00000040: e334 1ebd 7279 663d a20b 5f3d c932 30bd
00000050: bbb0 5ebd b18e 00bc 8d36 a2bb 07c3 74bc
00000060: 340c eebd a1d6 84bc fd2d 5e3b 3298 913b
00000070: b3dc 2cbc a60b 05bb 3efd 47bd 7b23 41bd
00000080: 9c73 a2bc 0066 3e3a 0480 56bc 3d77 efbd
00000090: de14 93bd 7fac 3e3e a1f7 773a 9c21 213d
000000a0: ce7e dfbd 813a 823d 3821 67bc 10cb 183b
000000b0: 2939 bf3d 2193 fa3a 4e9a ef3b b546 3d3e
000000c0: 7dba e7bd 0c1a 77bc bbde 82bd 810b 96bc
000000d0: bff5 04bb e526 90bc c572 563e 5810 31bd
000000e0: e847 c23c 0bf0 96bc c9aa 083c 9a48 a33c
000000f0: 6680 483a ee00 b1bb 846a 44bd b0fa 973e
00000100: 254e 03be bc16 f6bd 1282 15bd 5b46 8cbd
00000110: 9953 363d 0840 063d e334 fc3b 0efe b2bd
00000120: 91cd 073d f848 f9bd e5c4 1d3e b895 a2bc
00000130: 1afa 983d dbd5 e43d 1a4d c8bd 28de c2bc
00000140: 8f02 90bd 5562 b93d 20a9 9cbd c6c5 90bd
00000150: a09d 2fbb 8762 b5bb ffb8 b73d 29cb 5b3c
00000160: 98f5 73bd 3d6c 9bbd 477a 0ebd a45d bdbb
00000170: 392b d33c 5688 22bc e985 0a3e 44f2 843d
00000180: 06c8 e73d 7286 e0bd c0b3 84bd dc5e ef3d
00000190: 9dfb 89bd 28c9 b4bd 278e f83c cd6e fabd
000001a0: 091e 69bd 8751 173d 3cd1 1abd 4284 a13d
000001b0: 447f 8b3c e349 d33c a03f 19bd fc15 5fbd
000001c0: e188 d7bd 3a0d 1bbd 2d7c 7f3d dd39 83bd
000001d0: 4656 d73b 1d87 cdbc ea6d 4bbb 2e45 a9bd
000001e0: 70b1 26bd 80c4 36bd 6098 30bc 702f 9a3e
000001f0: 8969 18bc 105e 5a3c 7be1 69bd dd5a 453d
00000200: fa33 afbc d181 e0bb c029 f53d b49b 05bd
00000210: e345 363c 9ed3 eabb 9ee5 423c 4976 433c
00000220: a808 6f3d 9ee8 88bb 30b0 163c 0399 c8bd
00000230: dcbe a4bc c7d5 a53b 69d9 a63c 3a57 10be
00000240: a502 54bc 3335 9d3b cd6c a43c 908f 5c3c
00000250: 1b5b 823c 6c53 e9bd 07ef 13bc 4591 7fbc
00000260: 6001 32bc 4560 8d3c 408d 313e dd52 03be
00000270: 3ba4 723d 8541 033d 64a2 48bc e473 cdbc
00000280: feb1 273c 3231 e53b 2fc6 393c fa3d 963b
00000290: 9b64 92bc 24a0 923b f315 76bc dd0b 7ebc
000002a0: f3a1 5d3c cc24 af3c dad1 be3d 51f5 8e3c
000002b0: b32d 67bc 2c32 a63b 4673 93bc 2234 933b
000002c0: 33ef 85bc 89c2 bc3e 14f6 233b f53f c9bb
000002d0: 9c62 3dbd 2905 07be 7521 83bc 1c6d bdbb
000002e0: 5d2a 693c 40bf aa3e ba83 443e f5d9 3f3c
000002f0: 550c f9bd 45b0 89bd 4bad 883c 04af a7bc
00000300: 10f2 bcbd a97e 1e3b 7b3c 443e 031d e43c
00000310: f047 20bc 69ce e6bb f646 9cbc 8b5e d2b7
00000320: 47b9 c8bc 673b b6bd 0f91 a8bc 63cd 533e
00000330: 1079 c9bb f383 03bc dea9 4bbb 35a1 783d
00000340: 2bb9 103c 34c8 f5bc a662 f8bc ac03 80bc
00000350: 37d1 54ba 71f5 64bd 7554 b03c 79c1 b63d
00000360: 51d3 6a3c 10e5 1cbe 9671 843e 18c7 313e
00000370: bd27 be3c eddb 2cbd 40b5 5c3a d002 c73c
00000380: 513c 24bc 6c9c 0abc 6f9b ee3b cc77 e2bb
00000390: 8feb b6bb 53d5 22bb fcc0 3ebc 2984 bfbc
000003a0: b7bb 9fbc 5a5e a33a 8517 fabb 55d7 b9bc
000003b0: 4627 fe3c 9b0a f6bb 2127 ea3c 136b 5e3b
000003c0: 919d aaba cdf1 73be e148 b83c 1dac c1bc
000003d0: 216d edbc acfe 903c 7be4 85bb 0d04 b238
000003e0: 2cc3 a3bc 1783 133e 5342 593c 6eb0 d1bc
000003f0: e73f 543e 4881 03be 9e8a b5bc 81f9 8e3c

model.4.bias f4 [128]
0.035007246 -0.030738689 0.06971585 0.054665565 -0.040850837 0.056097247 -0.11957017 -0.0001232217
-0.123351365 -0.08829181 -0.05810777 -0.06664719 -0.02971081 0.06758298 -0.10167697 -0.09157409
0.09554069 0.021285344 -0.030078882 0.08400731 0.026487052 -0.12177444 0.0029378321 0.051496826
-0.044109307 -0.048928834 0.0426574 -0.022885064 0.10826731 0.10747366 0.015793238 -0.0348832
-0.035856042 -0.031826586 -0.10948286 -0.064218245 -0.10755799 0.019635938 -0.08843277 0.004276075
-0.013684044 0.0019726567 -0.04861702 0.0026900084 0.10848718 -0.08585041 -0.11884224 0.040709756
0.039011676 0.062407084 0.028212791 0.109353416 -0.10793678 -0.09745812 -0.0012540506 0.0323402
0.07276002 -0.0069240225 0.10804605 0.11732518 0.086510666 -0.085822396 -0.10156194 0.12087446
0.108441934 0.12261047 0.0104164705 -0.0075450456 0.087603115 0.05919414 -0.11566357 0.0106681
0.113678195 0.018290015 0.08832509 0.08341215 0.0016039052 0.04533422 0.059240226 0.04241708
-0.096608706 0.051259436 -0.008430583 -0.058373768 -0.12391076 0.06486314 -0.03195584 0.08328599
-0.01646637 -0.021338085 -0.07527203 0.017141365 0.03594043 0.118917465 -0.09612241 0.10742132
-0.088688344 -0.09133072 0.07239266 0.015663594 0.10859388 0.09124868 0.026113246 -0.05511597
-0.010921469 -0.09835954 0.045329995 -0.08572654 -0.056661688 -0.121887416 0.0024027457 0.09863942
0.10907554 -0.09691749 -0.05837065 -0.0838363 -0.07442862 0.021166239 -0.005718589 -0.019309677
-0.057883028 -0.09521 0.019306196 -0.10801167 -0.03511229 0.08280061 -0.067612715 -0.019819077
00000000: c263 0f3d b4cf fbbc 2fc7 8e3d 00e9 5f3d
00000010: 3553 27bd 3ac6 653d 35e1 f4bd 1335 01b9
00000020: a49f fcbd 56d2 b4bd 6a02 6ebd 527e 88bd
00000030: 1664 f3bc f268 8a3d 043c d0bd 328b bbbd
00000040: d6aa c33d 9a5e ae3c fd67 f6bc 060c ac3d
00000050: 60fb d83c e164 f9bd a588 403b 56ee 523d
00000060: f6ab 34bd 9a69 48bd 87b9 2e3d 7579 bbbc
00000070: 40bb dd3d 261b dc3d d260 813c b0e1 0ebd
00000080: c9dd 12bd 985c 02bd 8d38 e0bd db84 83bd
00000090: 5d47 dcbd 8cdb a03c 3d1c b5bd 511e 8c3b
000000a0: 0a33 60bc b047 013b a422 47bd da4a 303b
000000b0: 872e de3d 57d2 afbd 8f63 f3bd 46bf 263d
000000c0: b5ca 1f3d 929e 7f3d 831e e73c aff4 df3d
000000d0: f50d ddbd 1f98 c7bd f55e a4ba 2877 043d
000000e0: 3503 953d e9e2 e2bb 3f47 dd3d 2f48 f03d
000000f0: 812c b13d a7c3 afbd b5ff cfbd 078d f73d
00000100: ce16 de3d 331b fb3d d8a9 2a3c 6e3c f7bb
00000110: 4369 b33d 8e75 723d 06e1 ecbd 41c9 2e3c
00000120: 1dd0 e83d f1d4 953c c9e3 b43d fdd3 aa3d
00000130: 213a d23a 60b0 393d e1a5 723d 88bd 2d3d
00000140: c9da c5bd 6af5 513d 6e20 0abc 5519 6fbd
00000150: edc4 fdbd f7d6 843d 20e4 02bd d891 aa3d
00000160: 7be4 86bc 35cd aebc 3928 9abd 0c6c 8c3c
00000170: 4636 133d 008b f33d d3db c4bd b6ff db3d
00000180: 3ca2 b5bd 9a0b bbbd 9a42 943d f050 803c
00000190: 7866 de3d 97e0 ba3d 72eb d53c 49c1 61bd
000001a0: f6ef 32bc ba70 c9bd f2ab 393d 6591 afbd
000001b0: 1616 68bd 1ca0 f9bd 6277 1d3b 7703 ca3d
000001c0: ff62 df3d ad7c c6bd 1016 6fbd 5eb2 abbd
000001d0: 086e 98bd d264 ad3c 0063 bbbb 542f 9ebc
000001e0: c116 6dbd 76fd c2bd 0728 9e3c 3935 ddbd
000001f0: e8d1 0fbd 5e93 a93d 8978 8abd 9e5b a2bc

model.5.weight f4 [128]
0.93154716 1.0191689 0.8518626 0.8800596 0.94392544 0.95760566 1.0535969 0.91408527
0.9705219 0.8648474 0.9281985 0.92945236 0.9609481 0.85910434 0.92192733 0.9998656
0.927382 0.8352618 1.0435382 0.8041587 0.9571321 0.8893764 1.0510933 0.8632655
0.834992 0.95016026 1.0126251 0.9837718 0.8086595 0.92789876 0.89997876 0.8689587
1.0508083 0.9057372 0.9153437 0.8696127 1.0248128 0.870757 1.0312173 0.96312934
1.0102783 0.91832745 0.98121196 0.82957363 0.8631031 0.8969104 0.88987935 0.79574674
0.90500224 0.9774475 0.9428009 0.91204476 0.77471703 0.8445096 0.9047243 0.93374383
0.8844963 1.0228252 0.9873014 1.0547646 0.96728575 0.9174613 0.9506145 0.9518882
0.7916737 0.98871917 0.98178124 0.8696465 0.96109027 0.8507994 0.9676851 1.016558
0.9555143 1.0226783 0.8601006 0.88046455 0.9422435 0.90140516 1.0177962 1.1526005
1.0324546 0.97860825 0.88395053 1.0163689 1.0013909 0.7963352 0.87705094 0.9404031
0.82338965 1.0244939 0.8399207 1.0390292 0.86197275 0.94499326 0.88683784 0.95982677
0.77109516 0.9498109 0.99594396 0.9868012 1.0147299 0.87993276 1.0164968 0.9063337
0.87629426 0.8897211 1.0324453 0.7537714 0.93012094 1.0114503 0.9347397 0.89405376
0.9336121 0.8696629 0.9768647 0.93854785 0.8634334 0.93640083 0.8931834 0.89421654
0.9957829 0.99426186 0.7882955 0.8999027 0.84034413 1.0698228 0.9312217 1.0022675
00000000: e079 6e3f 2074 823f ab13 5a3f 964b 613f
00000010: 19a5 713f a525 753f 43dc 863f 7e01 6a3f
00000020: 2074 783f a466 5d3f 6b9e 6d3f 97f0 6d3f
00000030: b200 763f 43ee 5b3f 6e03 6c3f 31f7 7f3f
00000040: e868 6d3f b8d3 553f a992 853f 58dd 4d3f
00000050: 9c06 753f 2cae 633f 3a8a 863f f8fe 5c3f
00000060: 09c2 553f b43d 733f b39d 813f 78d8 7b3f
00000070: 4f04 4f3f c68a 6d3f 0265 663f 1474 5e3f
00000080: e380 863f 65de 673f f753 6a3f f09e 5e3f
00000090: 112d 833f eee9 5e3f eefe 833f a58f 763f
000000a0: cd50 813f 8217 6b3f b530 7b3f f05e 543f
000000b0: 53f4 5c3f ec9b 653f 22cf 633f 0fb6 4b3f
000000c0: 3aae 673f 003a 7a3f 665b 713f c47b 693f
000000d0: db53 463f c831 583f 039c 673f d609 6f3f
000000e0: 596e 623f f0eb 823f c9bf 7c3f 8702 873f
000000f0: 0aa0 773f bede 6a3f 795b 733f f2ae 733f
00000100: 21ab 4a3f b31c 7d3f 0456 7b3f 27a1 5e3f
00000110: 030a 763f fdcd 593f 36ba 773f 931e 823f
00000120: 969c 743f 1fe7 823f 8e2f 5c3f 2066 613f
00000130: df36 713f 7dc2 663f 2547 823f 6a88 933f
00000140: 7927 843f 1286 7a3f 954a 623f 6018 823f
00000150: 942d 803f a0dc 4b3f 6986 603f 42be 703f
00000160: aac9 523f 9e22 833f 0b05 573f e9fe 843f
00000170: 3faa 5c3f 14eb 713f ce07 633f 35b7 753f
00000180: 7e66 453f cf26 733f 2ff6 7e3f 019f 7c3f
00000190: abe2 813f 4643 613f 911c 823f 7c05 683f
000001a0: d254 603f c3c4 633f 2b27 843f 2af7 403f
000001b0: 681c 6e3f 3477 813f 1a4b 6f3f b5e0 643f
000001c0: 3401 6f3f 3aa2 5e3f ce13 7a3f ac44 703f
000001d0: f909 5d3f f7b7 6f3f aba7 643f 60eb 643f
000001e0: a1eb 7e3f f287 7e3f bccd 493f 0660 663f
000001f0: cb20 573f f4ef 883f 8c64 6e3f 4d4a 803f

model.5.bias f4 [128]
-0.4434456 -0.37756446 -0.26174816 -0.25010642 -0.15861873 -0.30535233 -0.34977844 -0.41633293
-0.3385891 -0.16978317 -0.49854043 -0.4342175 -0.33129078 -0.27503574 -0.47572085 -0.27330694
-0.31870452 -0.4607188 -0.41119182 -0.2694632 -0.3558722 -0.51253223 -0.08500641 -0.5268625
-0.1172309 -0.46802962 -0.16446449 -0.44544655 -0.40977278 -0.434502 -0.45223325 -0.26610965
-0.2726876 -0.46477377 -0.42688763 -0.43750897 -0.3908763 -0.16164307 -0.36346632 -0.329784
-0.4299603 -0.492142 -0.30050868 -0.24291483 -0.15320608 -0.437684 -0.21605538 -0.458773
-0.46306214 -0.23946823 -0.4308019 -0.2929353 -0.3541144 -0.22703283 -0.38871902 -0.56606007
-0.2976019 -0.37102377 -0.2245097 -0.43965247 -0.26011413 -0.42451674 -0.52161497 -0.32787657
-0.3947285 -0.35811388 -0.29045528 -0.2713424 -0.49720645 -0.49527135 -0.41973382 -0.35563502
-0.30252242 -0.037235115 -0.18665263 -0.20886624 -0.36761248 -0.4201682 -0.2852094 -0.36155194
0.027972907 -0.4332923 -0.20402767 -0.39914644 -0.26303315 -0.2555299 -0.4684378 -0.45179796
-0.3383491 -0.37883058 -0.21311791 -0.463371 -0.123524815 -0.34866804 -0.45585388 -0.20788956
-0.30259195 -0.5341667 -0.21473481 0.0056035267 -0.42542508 -0.19315499 -0.33630854 -0.5706861
-0.40049142 -0.20966315 -0.23542075 -0.45622003 -0.3578523 -0.31232002 -0.24921598 -0.1759803
-0.46547055 -0.4859236 -0.3594734 -0.32938093 -0.16834694 -0.39033926 -0.36182758 -0.47210398
-0.18522166 -0.038770653 -0.36927074 -0.36262333 -0.19219206 -0.046567954 -0.53042877 -0.32148764
00000000: 4d0b e3be 2150 c1be db03 86be f30d 80be
00000010: f36c 22be 2457 9cbe 2916 b3be 9729 d5be
00000020: 8d5b adbe a4db 2dbe b140 ffbe c251 debe
00000030: f29e a9be 7cd1 8cbe af91 f3be e3ee 8bbe
00000040: 3d2d a3be 56e3 ebbe bc87 d2be 15f7 89be
00000050: e234 b6be 5035 03bf d717 aebd 76e0 06bf
00000060: c116 f0bd 94a1 efbe 6169 28be 9211 e4be
00000070: bdcd d1be 0c77 debe 1e8b e7be 863f 88be
00000080: b69d 8bbe d4f6 edbe 0491 dabe 2d01 e0be
00000090: f020 c8be c385 25be 4218 babe 73d9 a8be
000000a0: c223 dcbe 09fa fbbe 46dc 99be aabe 78be
000000b0: 0ee2 1cbe 1e18 e0be 9f3d 5dbe 4be4 eabe
000000c0: 7b16 edbe 2937 75be 1192 dcbe 9efb 95be
000000d0: 7c4e b5be 4b7b 68be 2e06 c7be 50e9 10bf
000000e0: 475f 98be d4f6 bdbe dfe5 65be 211a e1be
000000f0: ae2d 85be 425a d9be 8f88 05bf 70df a7be
00000100: db19 cabe b45a b7be 8eb6 94be 64ed 8abe
00000110: d891 febe 3594 fdbe 5ae7 d6be cb15 b6be
00000120: 38e4 9abe d983 18bd de21 3fbe 08e1 55be
00000130: b437 bcbe 4920 d7be f706 92be 561d b9be
00000140: 7027 e53c 7dd8 ddbe a1ec 50be ec5c ccbe
00000150: 48ac 86be d1d4 82be 14d7 efbe 1052 e7be
00000160: 183c adbe 15f6 c1be 953b 5abe f73e edbe
00000170: 94fa fcbd 9e84 b2be ae65 e9be 00e1 54be
00000180: 55ed 9abe 26bf 08bf 71e3 5bbe ca9d b73b
00000190: 51d1 d9be 6cca 45be a230 acbe 7c18 12bf
000001a0: 360d cdbe f0b1 56be 2312 71be ac95 e9be
000001b0: 6b38 b7be 69e8 9fbe 7932 7fbe 2e34 34be
000001c0: 2852 eebe faca f8be e60c b8be 9ea4 a8be
000001d0: 2463 2cbe 8cda c7be 7741 b9be 9db7 f1be
000001e0: bfaa 3dbe facd 1ebd 0e11 bdbe c4a9 b9be
000001f0: ffcd 44be 0abe 3ebd 2eca 07bf 079a a4be

model.5.running_mean f4 [128]
-0.009372136 -0.021223908 0.028885629 0.0004384191 -0.03816241 -0.038571633 -0.071118504 -0.078780174
-0.10469422 -0.12736076 -0.10985506 -0.05897131 -0.0018147246 0.08584758 -0.1234849 -0.022905229
0.06449602 -0.03942724 -0.06310979 0.14915913 -0.0006288483 -0.18671516 -0.1003296 -0.0020246056
0.06594424 -0.0908984 0.036151916 -0.08323898 0.13039188 0.051068194 -0.025795935 -0.06770174
-0.05076303 -0.06821975 -0.15747216 -0.0030296617 -0.12014803 0.02640316 -0.08331027 0.054614272
0.028734142 -0.07469553 -0.07438087 -0.0488569 0.24627978 -0.14012095 -0.15342875 0.0132596325
-0.001292327 0.0031715 0.020749288 0.03930521 -0.09303212 -0.005179748 -0.090150796 -0.096662596
0.054089963 -0.08402714 0.06097035 0.059418384 0.04728642 -0.10100532 -0.16894318 0.11628713
0.19207829 -0.05873805 -0.07504205 -0.045738753 0.06616986 0.071487136 -0.20514065 0.020829802
0.08233266 -0.072794594 0.11886888 0.091494225 -0.038115405 -0.00558653 -0.003103479 -0.10597549
-0.18977702 -0.00858766 -0.059165552 -0.038697943 -0.08676199 0.06245196 -0.032918673 0.06030418
-0.014557493 0.06290395 -0.07519753 -0.026789304 0.09882071 0.04849857 -0.15500067 0.069270186
-0.021548111 -0.12056335 -0.03498777 0.023404501 -0.05109388 0.06693065 0.08515746 -0.10124143
-0.03659506 -0.04008636 -0.035276756 0.0027968897 -0.053435072 -0.0978585 -0.025082797 0.081550896
0.035629474 -0.14461878 -0.1002464 -0.058032136 -0.088816166 -0.00401558 -0.016428972 -0.063706994
-0.118146494 -0.12225417 0.020181855 -0.104715526 0.030892177 -0.060343068 -0.17379986 -0.10295487
00000000: 968d 19bc c3dd adbc 8ea1 ec3c 9edb e539
00000010: 3050 1cbd 4afd 1dbd 94a6 91bd 8057 a1bd
00000020: ec69 d6bd dc6a 02be b1fb e0bd e68b 71bd
00000030: 0edc edba dbd0 af3d a7e5 fcbd bfa3 bbbc
00000040: 7d16 843d 757e 21bd b53f 81bd 2cbd 183e
00000050: 4cd9 24ba 4232 3fbe 9b79 cdbd 3faf 04bb
00000060: c60d 873d f128 babd 0814 143d 3379 aabd
00000070: 7385 053e e22c 513d ff51 d3bc 36a7 8abd
00000080: e5ec 4fbd ccb6 8bbd 6240 21be 4a8d 46bb
00000090: 2c10 f6bd 714b d83c 939e aabd 37b3 5f3d
000000a0: dd63 eb3c f8f9 98bd ff54 98bd 2c1e 48bd
000000b0: c430 7c3e de7b 0fbe 6d1c 1dbe ee3e 593c
000000c0: 4c63 a9ba f1d8 4f3b 69fa a93c 80fe 203d
000000d0: a087 bebd e0ba a9bb fba0 b8bd 0af7 c5bd
000000e0: 708d 5d3d 6c16 acbd 0cbc 793d b160 733d
000000f0: 68af 413d e1db cebd 71ff 2cbe f227 ee3d
00000100: 2cb0 443e 4f97 70bd a5af 99bd 8f58 3bbd
00000110: 1084 873d d967 923d 6410 52be 43a3 aa3c
00000120: 079e a83d 5515 95bd 8771 f33d 5361 bb3d
00000130: e61e 1cbd 360f b7bb bd63 4bbb ad09 d9bd
00000140: e854 42be 42b3 0cbc 9457 72bd bc81 1ebd
00000150: 45b0 b1bd a0cd 7f3d bbd5 06bd 8401 773d
00000160: 8d82 6ebc c9d3 803d 2a01 9abd 3e75 dbbc
00000170: 8362 ca3d 70a6 463d 7fb8 1ebe 87dd 8d3d
00000180: aa85 b0bc ebe9 f6bd 564f 0fbd ccba bf3c
00000190: d147 51bd f012 893d 0967 ae3d ab57 cfbd
000001a0: b4e4 15bd 9831 24bd 5c7e 10bd 064c 373b
000001b0: bcde 5abd 0a6a c8bd 707a cdbc 2804 a73d
000001c0: 36f0 113d f216 14be fc4d cdbd 1bb3 6dbd
000001d0: 40e5 b5bd 2095 83bb 0d96 86bc d078 82bd
000001e0: caf6 f1bd 6560 fabd 6b54 a53c 1875 d6bd
000001f0: 9711 fd3c 4b2a 77bd 97f8 31be 01da d2bd

model.5.running_var f4 [128]
0.05757346 0.29720598 0.19034635 0.12110163 0.20943742 0.11079231 0.39307332 0.076535024
0.08224701 0.1887835 0.0617183 0.06435286 0.2557964 0.12039721 0.057735458 0.34327784
0.10770354 0.07155428 0.26946354 0.08996457 0.18203448 0.07780669 0.27560297 0.06173449
0.1884385 0.06132135 0.1239491 0.1975642 0.0772314 0.07175959 0.07018026 0.18438533
0.36608046 0.05923951 0.063676484 0.25222594 0.5063319 0.20748849 0.38623008 0.24306369
0.09819513 0.05332682 0.24420007 0.17125931 0.21515672 0.0642661 0.18378639 0.06782547
0.061918646 0.392027 0.06767641 0.09958763 0.06770575 0.111566514 0.05599594 0.16272508
0.2450813 0.12631947 0.11413977 0.29110113 0.11286017 0.0616999 0.051384207 0.12341982
0.06946643 0.2219119 0.12959051 0.19111091 0.054601546 0.1320767 0.070570245 0.4105221
0.09440145 0.29783776 0.10496441 0.1962121 0.08709697 0.063654475 0.40917927 0.20638871
0.3766485 0.21857993 0.18743446 0.3732471 0.4505788 0.10530533 0.060973626 0.059075702
0.13717176 0.3833263 0.1369147 0.21673226 0.14391366 0.16651073 0.08085427 0.092389114
0.085329406 0.058102317 0.27765527 0.29268587 0.17042482 0.18980965 0.27378455 0.05947877
0.07521465 0.13987528 0.27278548 0.060214564 0.090958364 0.4542175 0.20904163 0.20372583
0.05502778 0.052603967 0.19782 0.23487905 0.18899013 0.06764278 0.06619134 0.063744426
0.36798263 0.35953787 0.05333623 0.082970425 0.15832184 0.37189445 0.0806396 0.11160875
00000000: 26d2 6b3d 622b 983e 27ea 423e 2204 f83d
00000010: c376 563e 14e7 e23d e840 c93e 65be 9c3d
00000020: 1f71 a83d 7650 413e 54cc 7c3d 6fcb 833d
00000030: bff7 823e d092 f63d 047c 6c3d 1dc2 af3e
00000040: ac93 dc3d 0d8b 923d 20f7 893e 583f b83d
00000050: 3f67 3a3e 1d59 9f3d d51b 8d3e 4edd 7c3d
00000060: 06f6 403e 192c 7b3d 07d9 fd3d 454e 4a3e
00000070: 7f2b 9e3d b1f6 923d abba 8f3d 82cf 3c3e
00000080: e66e bb3e 21a5 723d d168 823d c223 813e
00000090: f89e 013f dd77 543e f3bf c53e b0e5 783e
000000a0: 871a c93d 396d 5a3d 950f 7a3e 9a5e 2f3e
000000b0: 0b52 5c3e f29d 833d 8032 3c3e 14e8 8a3d
000000c0: 689e 7d3d c3b7 c83e ee99 8a3d 99f4 cb3d
000000d0: 50a9 8a3d fc7c e43d 005c 653d 67a1 263e
000000e0: 98f6 7a3e e459 013e 1dc2 e93d 350b 953e
000000f0: 3c23 e73d 09b9 7c3d 3f78 523d 88c3 fc3d
00000100: 6a44 8e3d e03c 633e 60b3 043e 94b2 433e
00000110: dfa5 5f3d 1d3f 073e 2287 903d f42f d23e
00000120: 8c55 c13d 317e 983e 95f7 d63d d3eb 483e
00000130: e55f b23d 475d 823d f27f d13e 9057 533e
00000140: 12d8 c03e 6bd3 5f3e d2ee 3f3e 3e1a bf3e
00000150: 44b2 e63e 52aa d73d 7bbf 793d 5df9 713d
00000160: c176 0c3e 5843 c43e 5e33 0c3e 10ef 5d3e
00000170: 1a5e 133e ca81 2a3e ec96 a53d 8136 bd3d
00000180: 2fc1 ae3d b2fc 6d3d d528 8e3e ecda 953e
00000190: d883 2e3e 765d 423e 7d2d 8c3e 03a0 733d
000001a0: 230a 9a3d 773b 0f3e 8aaa 8b3e 8ca3 763d
000001b0: 6148 ba3d 328f e83e 020f 563e 819d 503e
000001c0: cf64 613d 4277 573d 5391 4a3e 2284 703e
000001d0: a186 413e 4c88 8a3d 538f 873d 708c 823d
000001e0: 3868 bc3e 5915 b83e 1777 5a3d 66ec a93d
000001f0: 1f1f 223e f368 be3e 6026 a53d 2193 e43d

model.8.weight f4 [128, 128]
-0.05817959 0.09681439 0.009317452 0.0463999 0.020526443 0.0221716 -0.20606431 0.115740836
-0.006549788 0.041982424 0.08184995 0.07815197 -0.079398036 0.01636294 0.11049632 -0.034207888
0.031594843 0.03769576 -0.09064629 0.0325559 0.071246065 0.10231957 0.054398526 0.07331845
0.019636584 0.049057588 0.0060466593 -0.114665754 0.03548889 -0.006076695 -0.0032345294 0.006139506
-0.10868497 0.059772164 0.020512087 -0.14078385 -0.04612495 0.009078209 -0.2451663 0.0740757
-0.0019553322 0.00021319978 0.065082096 0.021112192 0.043043453 -0.06703708 0.01797581 0.044496916
-0.03554769 0.07564167 0.016746735 0.066612326 0.046183422 0.021788817 0.07737216 0.076971635
0.0101510165 -0.00015143097 0.026579777 -0.06261058 -0.019990569 -0.022719089 0.062031604 0.046326306
0.015012743 0.04678097 0.0728544 0.018555965 0.05017031 0.061152667 0.016522935 -0.019374594
0.048329078 0.049832325 0.021570109 -0.0021155016 0.055788063 0.051661633 0.18672085 0.094981425
-0.0028096777 -0.16851197 0.029630167 -0.0010692632 -0.087143004 -0.007281915 0.073080614 0.074139036
-0.0039019696 0.030201608 0.04837067 -0.110050015 0.020553606 0.0056016366 -0.09104661 0.062140655
0.002509263 -0.03758428 0.105546296 -0.010318876 0.16501255 0.007050808 -0.15102194 0.026795043
0.05969888 0.04220012 0.0512185 -0.023160988 0.013300458 -0.08663415 0.014315723 0.021555103
0.051175024 0.009408295 0.05303524 0.13655706 0.022666067 0.014465787 0.076308146 0.06994462
0.06288078 -0.016258564 0.025903549 0.117147215 0.018708738 0.0140151745 0.14062248 0.014670056
0.039671935 -0.10339445 -0.1019655 -0.00808517 -0.09212245 0.045460593 -0.04895147 0.072753154
-0.019901657 -0.033644658 0.062429942 0.09127796 -0.024892561 -0.06446672 0.037919693 0.003597062
-0.025207948 -0.03605608 0.078760415 -0.03185839 0.00035376387 0.017509809 -0.08061278 0.03138033
0.00899063 0.09687264 -0.021486387 0.002250938 0.012040323 -0.016459288 0.019516705 -0.11589539
-0.033279795 -0.023761487 0.10359113 -0.045608163 0.039398 -0.070604935 0.045602065 -0.011212429
0.05195811 0.051052924 0.103351764 -0.05821148 0.022606557 -0.03257231 -0.06080822 -0.006888262
0.0870568 -0.08806657 -0.052282464 -0.057418793 -0.012722418 -0.028005032 0.04500105 0.05214002
-0.101001374 -0.02282282 -0.014955277 0.05353541 0.07964736 0.072726764 0.054765556 -0.0041172532
-0.055223253 -0.07322546 0.1008745 -0.09922449 -0.12790513 0.1702257 0.049446814 0.0528051
0.010176507 -0.02215802 -0.030277053 -0.08628716 0.04237456 0.06200611 0.021112766 -0.016512003
0.006415589 0.030493768 -0.036531985 0.0058777486 0.009157041 -0.05622177 0.04791287 0.023905609
-0.05853206 -0.1058162 -0.05122669 -0.12739551 -0.03065133 0.022346472 0.106773995 -0.01012079
-0.06821104 0.08686627 -0.029496707 -0.02441919 -0.035120998 -0.08701231 -0.049738325 -0.0009155637
0.082304776 0.006325884 0.049378462 -0.025515618 0.0033252966 0.08454449 -0.09694466 -0.10032492
0.09318156 -0.10404479 -0.007550199 0.034383424 -0.07900176 -0.009920935 0.015330738 0.056016717
0.08961125 0.044166613 -0.027156487 0.027081946 -0.027352614 0.044424757 -0.14188865 -0.119508706
00000000: b94d 6ebd 9f46 c63d 3aa8 183c d20d 3e3d
00000010: 1227 a83c 37a1 b53c 8602 53be 8809 ed3d
00000020: 9b9f d6bb c3f5 2b3d f2a0 a73d 240e a03d
00000030: 709b a2bd 930b 863c e54b e23d 921d 0cbd
00000040: 9869 013d df66 1a3d c3a4 b9bd 5659 053d
00000050: 75e9 913d ec8c d13d fdd0 5e3d fc27 963d
00000060: e7dc a03c 9cf0 483d 0e23 c63b e1d5 eabd
00000070: cc5c 113d 031f c7bb 66fa 53bb e92d c93b
00000080: 3a96 debd a8d3 743d f708 a83c a429 10be
00000090: 84ed 3cbd c5bc 143c e00c 7bbe 00b5 973d
000000a0: 0825 00bb 618e 5f39 c349 853d 7af3 ac3c
000000b0: 554e 303d bd4a 89bd 0242 933c 6642 363d
000000c0: 749a 11bd 05ea 9a3d 7330 893c 0b6c 883d
000000d0: d42a 3d3d 767e b23c 4c75 9e3d 4ea3 9d3d
000000e0: 7350 263c 71c9 1eb9 d5bd d93c fa39 80bd
000000f0: 43c3 a3bc 621d babc da14 7e3d a7c0 3d3d
00000100: 02f8 753c 679d 3f3d b034 953d ae02 983c
00000110: 627f 4d3d 387b 7a3d 1b5b 873c 78b7 9ebc
00000120: b6f4 453d fb1c 4c3d ccb3 b03c 3aa4 0abb
00000130: 0682 643d 269b 533d c033 3f3e 9f85 c23d
00000140: 9222 38bb 678e 2cbe f7ba f23c 8526 8cba
00000150: 0878 b2bd 219d eebb 4aab 953d 35d6 973d
00000160: 30b8 7fbb 5d69 f73c 5320 463d e761 e1bd
00000170: 0960 a83c ef8d b73b a576 babd 3387 7e3d
00000180: 7372 243b f9f1 19bd a828 d83d 8110 29bc
00000190: 0df9 283e 770a e73b 7fa5 1abe 4781 db3c
000001a0: d086 743d 08da 2c3d 7dca 513d 1dbc bdbc
000001b0: 2aea 593c 3f6d b1bd 7f8c 6a3c 5494 b03c
000001c0: e79c 513d 4025 1a3c 7b3b 593d 9dd5 0b3e
000001d0: 30ae b93c e901 6d3c 7247 9c3d 203f 8f3d
000001e0: a3c7 803d ae30 85bc ae33 d43c e1ea ef3d
000001f0: 1143 993c e79f 653c 57ff 0f3e ad5a 703c
00000200: 0a7f 223d 78c0 d3bd 4ad3 d0bd a977 04bc
00000210: b2aa bcbd e334 3a3d 5681 48bd 9bff 943d
00000220: cd08 a3bc fbce 09bd 8ab6 7f3d f0ef ba3d
00000230: 7ceb cbbc 2107 84bd ae51 1b3d b0bc 6b3b
00000240: e680 cebc 8aaf 13bd 244d a13d f17d 02bd
00000250: 6279 b939 bb70 8f3c 5018 a5bd a988 003d
00000260: 6f4d 133c 2a65 c63d 3804 b0bc 7984 133b
00000270: c644 453c a1d5 86bc 7fe1 9f3c 905a edbd
00000280: 6550 08bd 73a7 c2bc 9627 d43d a0cf 3abd
00000290: cc5f 213d 5299 90bd 3bc9 3a3d 56b4 37bc
000002a0: 07d2 543d df1c 513d 17aa d33d 296f 6ebd
000002b0: 6331 b93c 8b6a 05bd 0a12 79bd eeb6 e1bb
000002c0: d64a b23d 3f5c b4bd 2326 56bd f82f 6bbd
000002d0: b071 50bc cf6a e5bc 0553 383d c690 553d
000002e0: cfd9 cebd ecf6 babc fa06 75bc f247 5b3d
000002f0: 281e a33d c5f1 943d d951 603d 06ea 86bb
00000300: c731 62bd 3bf7 95bd 4a97 ce3d 3636 cbbd
00000310: 90f9 02be a54f 2e3e be88 4a3d 294a 583d
00000320: 5dbb 263c bc84 b5bc 9507 f8bc 53b7 b0bd
00000330: f290 2d3d 1efa 7d3d aef4 ac3c 2e44 87bc
00000340: dc39 d23b 11ce f93c 90a2 15bd 219a c03b
00000350: 6a07 163c cc48 66bd 4940 443d b2d5 c33c
00000360: 50bf 6fbd 2ab6 d8bd 14d3 51bd f873 02be
00000370: 7f18 fbbc f30f b73c 53ac da3d acd1 25bc
00000380: 3bb2 8bbd f1e6 b13d 14a3 f1bc c10a c8bc
00000390: 09db 0fbd 8333 b2bd 6aba 4bbd 7102 70ba
000003a0: 688f a83d 5c49 cf3b 1241 4a3d 2106 d1bc
000003b0: 38ed 593b a925 ad3d ec8a c6bd 2777 cdbd
000003c0: f9d5 be3d 6f15 d5bd a967 f7bb a2d5 0c3d
000003d0: adcb a1bd 6b8b 22bc c72d 7b3c c971 653d
000003e0: 1a86 b73d 0de8 343d 4877 debc f5da dd3c
000003f0: 9712 e0bc bcf6 353d 424b 11be fbc0 f4bd

model.8.bias f4 [128]
-0.0134624755 0.037066124 -0.0026714879 0.017995516 0.06438959 -0.06599729 -0.08303947 0.0046133758
-0.05896521 0.011260091 0.018984053 -0.03721355 -0.08692523 -0.039451227 0.08331377 -0.03445958
0.07697119 -0.05783916 -0.029112224 0.04903716 0.0792129 0.036471356 -0.019469751 0.028021036
-0.061704624 -0.019048864 0.063327394 -0.057844043 -0.08006348 -0.042241234 -0.009905067 -0.05479239
0.047664456 0.064539775 0.077103406 -0.08752971 0.079031095 -0.039980717 -0.0042139487 0.065249465
-0.019654877 0.010039894 -0.011541523 0.08083056 0.0017413165 -0.0047361534 -0.08691624 -0.013683812
-0.033138566 -0.07363583 -0.010243753 0.07022373 -0.07519901 -0.0543138 -0.06451865 0.012126448
0.0073973057 -0.03200803 0.049170446 -0.061754555 -0.07651173 0.07076807 -0.07292981 -0.032036185
-0.06855084 -0.029582353 0.04163027 0.027306007 -0.008985336 0.053204954 0.051740013 0.0034320503
0.08808653 -0.07334149 0.030567773 0.061478745 -0.05976309 0.07725102 -0.017582797 -0.084348015
-0.006932502 -0.07985519 0.005411565 -0.0046442556 -0.037419803 -0.048231274 0.03376126 0.021049662
-0.05487 -0.039724857 -0.046805892 0.010263137 0.08039405 0.08560735 0.033956863 0.024893567
-0.016784374 0.08145156 -0.053738236 -0.0074810996 0.07632223 -0.053051934 -0.037118867 -0.054019276
-0.07124388 0.07792655 -0.088258386 -0.019411689 -0.060968053 0.025256334 0.058461852 -0.0022265196
0.06214101 -0.039455764 0.03924375 0.0676616 0.08468928 0.027641349 -0.050503977 0.072641805
-0.015646644 0.040976785 -0.049333468 -0.019553846 -0.005114618 0.017920848 -0.02632708 -0.086136125
00000000: b791 5cbc a6d2 173d 2114 2fbb 556b 933c
00000010: b0de 833d 9629 87bd 9910 aabd cd2b 973b
00000020: 8185 71bd 3f7c 383c 7284 9b3c 3c6d 18bd
00000030: db05 b2bd 9c97 21bd 69a0 aa3d 7d25 0dbd
00000040: 12a3 9d3d c1e8 6cbd c27c eebc 30db 483d
00000050: 5f3a a23d fd62 153d 077f 9fbc 5f8c e53c
00000060: fdbd 7cbd 5d0c 9cbc cbb1 813d e0ed 6cbd
00000070: 52f8 a3bd 2505 2dbd dd48 22bc fc6d 60bd
00000080: ce3b 433d 6e2d 843d 64e8 9d3d c742 b3bd
00000090: 0edb a13d d2c2 23bd 2a15 8abb 83a1 853d
000000a0: 4403 a1bc 5e7e 243c a818 3dbc 7e8a a53d
000000b0: e33c e43a bc31 9bbb 2401 b2bd 1132 60bc
000000c0: 4ebc 07bd 62ce 96bd 6ad5 27bc 75d1 8f3d
000000d0: f001 9abd 2678 5ebd 5b22 84bd 02ae 463c
000000e0: 1965 f23b da1a 03bd f366 493d 58f2 7cbd
000000f0: 2fb2 9cbd daee 903d 395c 95bd 6038 03bd
00000100: 6264 8cbd b156 f2bc 8184 2a3d d9b0 df3c
00000110: 3b37 13bc 70ed 593d 56ed 533d 40ec 603b
00000120: b666 b43d 1034 96bd 4469 fa3c 23d1 7b3d
00000130: 24ca 74bd c835 9e3d cc09 90bc a7be acbd
00000140: 0b2a e3bb 1e8b a3bd 7f53 b13b d72e 98bb
00000150: 8245 19bd 288e 45bd 3f49 0a3d 5770 ac3c
00000160: 5dbf 60bd 88b6 22bd 89b7 3fbd b726 283c
00000170: a3a5 a43d e852 af3d 5a16 0b3d 98ed cb3c
00000180: 627f 89bc 13d0 a63d a01c 5cbd 0324 f5bb
00000190: d44e 9c3d fc4c 59bd f409 18bd 5143 5dbd
000001a0: 50e8 91bd f497 9f3d d0c0 b4bd 4305 9fbc
000001b0: a3b9 79bd 5fe6 ce3c b275 6f3d cdea 11bb
000001c0: 9287 7e3d 5e9c 21bd 0ebe 203d 2a92 8a3d
000001d0: 9371 ad3d 1c70 e23c 42dd 4ebd 3ac5 943d
000001e0: 642d 80bc 46d7 273d e411 4abd 632f a0bc
000001f0: 8798 a7bb bece 923c e3ab d7bc 2368 b0bd

model.9.weight f4 [128]
1.0598838 0.9386805 0.9989747 0.9346631 0.7858892 0.9703374 0.93279606 0.92665184
0.96002334 0.9841313 0.9425529 0.9242879 0.93164873 1.0161225 0.93628126 0.95858985
0.92385125 0.78083026 0.78881955 0.7991845 0.7627606 0.9429265 0.8226233 1.0311772
0.94700086 0.990877 1.0162462 0.77027357 0.9594166 0.9526907 0.9384222 0.98720694
0.99514693 0.98500663 0.93600726 0.7724495 0.9818481 0.78350425 0.979657 0.98994493
1.0116363 1.016436 0.79973054 0.9280557 0.93448216 0.9551898 0.96898824 1.0242935
0.95071393 0.9834926 0.9471439 0.8184494 0.9209772 0.99269104 0.9675623 0.9541092
0.9655157 0.9496071 0.983262 0.8072055 0.82124156 0.9822791 0.97896916 0.96866083
0.7847188 0.99990773 1.0018604 0.7838422 0.8115459 1.0078247 0.78923386 0.9194897
0.8422067 0.8318063 0.9469019 0.98956037 0.9654243 1.024162 0.9758955 0.80747896
0.95848817 1.0525248 0.9977863 0.9697365 0.7808539 0.9966327 0.99513507 0.9577374
0.7792718 0.908458 1.0167091 1.0575799 0.80284727 0.8194404 0.9664944 0.9730002
0.78748196 0.92662644 1.018827 0.97796905 1.0058275 1.0224704 0.97834265 0.93188494
0.84130156 0.978692 0.91419315 0.9862246 0.97737837 1.0030463 0.7951909 1.0511138
0.7851066 0.9804127 1.0141209 0.7636163 0.772546 0.9866113 0.8794139 0.8051825
0.75773084 0.7876856 0.99045604 0.91557056 0.85481817 0.79168034 1.0101147 1.0190756
00000000: 46aa 873f 5e4d 703f cebc 7f3f 1546 6f3f
00000010: 0930 493f 0868 783f b9cb 6e3f 0e39 6d3f
00000020: 17c4 753f 07f0 7b3f 264b 713f 229e 6c3f
00000030: 8880 6e3f 4d10 823f 21b0 6f3f 2566 753f
00000040: 8481 6c3f 7ee4 473f 14f0 493f 5b97 4c3f
00000050: 4744 433f a263 713f 7197 523f 9dfd 833f
00000060: a66e 723f 1daa 7d3f 5b14 823f a630 453f
00000070: 549c 753f 8ae3 733f 703c 703f 98b9 7c3f
00000080: f3c1 7e3f 6529 7c3f 2c9e 6f3f 40bf 453f
00000090: 665a 7b3f bc93 483f cdca 7a3f 086d 7d3f
000000a0: 4c7d 813f 931a 823f 24bb 4c3f 0f95 6d3f
000000b0: 393a 6f3f 5287 743f 9d0f 783f 0d1c 833f
000000c0: fd61 733f 2cc6 7b3f 0678 723f e685 513f
000000d0: 29c5 6b3f 0021 7e3f 2ab2 773f 8040 743f
000000e0: 092c 773f 7319 733f 0fb7 7b3f 05a5 4e3f
000000f0: e33c 523f a576 7b3f b99d 7a3f 28fa 773f
00000100: 55e3 483f f4f9 7f3f f63c 803f e2a9 483f
00000110: 79c1 4f3f 6600 813f 3b0b 4a3f ad63 6b3f
00000120: dc9a 573f 42f1 543f 2a68 723f d453 7d3f
00000130: 0c26 773f be17 833f 4ad4 793f f1b6 4e3f
00000140: 7b5f 753f 22b9 863f ec6e 7f3f a740 783f
00000150: 0be6 473f 5223 7f3f 2cc1 7e3f 472e 753f
00000160: 5b7e 473f b490 683f 8623 823f c75e 873f
00000170: 6687 4d3f d9c6 513f 2d6c 773f 8b16 793f
00000180: 6b98 493f 6437 6d3f ec68 823f 2e5c 7a3f
00000190: f5be 803f 4fe0 823f aa74 7a3f 0390 6e3f
000001a0: 8a5f 573f 8f8b 7a3f 9008 6a3f 3779 7c3f
000001b0: 7835 7a3f d263 803f a191 4b3f e68a 863f
000001c0: bffc 483f 54fc 7a3f b7ce 813f 5c7c 433f
000001d0: 93c5 453f 8f92 7c3f 4521 613f 7120 4e3f
000001e0: a6fa 413f c3a5 493f 878e 7d3f d562 6a3f
000001f0: 5dd5 5a3f 90ab 4a3f 704b 813f 1271 823f
