models/more_layers/fiveLayerModel_ee_corrCut_-1_weights_true_drop_0.0_lorentzdelta_gen_no_qg.pt (torch, 156157 bytes, 26 tensors)

model.0.weight f4 [64, 28]
00000000: 9c49 17be 6844 a7bd 76b0 3a3e c2bb b13d
00000010: e51f 0bbe 9954 1a3e c691 f63d 57d8 d03d
00000020: 3edc 893c 4ee8 efbd 25b2 3abe 1595 0c3c
00000030: 45b5 0abe ea0c 373e e7d2 3a3e e860 e23d
00000040: 80e6 263e e593 7e3d 1d27 b6bd aa99 bf3d
00000050: 0dc2 bc3d 7c8f c93d 380a cb3d 89b6 243e
00000060: af16 343c 5c6d 8b3d 0f7f e6bd 8f30 193c
00000070: 8fe2 413e acd6 16be 5eec 2bbe 4987 883c
00000080: 6883 89bd 5031 bdbd 3196 18bd b368 8dbc
00000090: 175e 2e3d 3005 9bbd 4414 26be edee d83d
000000a0: ef07 03be 1391 243e 1c34 9a3c 2ab0 2dbe
000000b0: ea65 323e c847 89bd ac14 9cbb bdb5 14be
000000c0: 2f4e f43d 12fa 9bbd 0e3a 17be 8d5a 4cbd
000000d0: 6d51 00be 3eb7 4b3c 750f 86bd 477d 9bbd
000000e0: c0f8 01be 9270 06be 4eea 14be ab39 ef3c
000000f0: 4894 c5bd 01bf 313e 0e5d 2ebe d587 f03d
00000100: 5c1b 57bd 48b5 28be 1b2e 7a3d 6a89 81bc
00000110: 8e4d 90bd afd0 0d3d 359b acbd a024 6fbd
00000120: dfdc a8bd 7703 173c dbea 17be fffa 18be
00000130: 37e2 1dbd 50bf abbd 0deb 22be b30f 52bc
00000140: 0601 39bd a633 32be e35f 093e fec4 983c
00000150: cec9 e43d f23d 2e3e 88d3 283e d007 213e
00000160: 2708 0abd 0968 b8bc fd8f 2e3e 1c1f 29be
00000170: 707a 033e e33d 053e a41f 27be 8b43 20be
00000180: 503d 4fbe c101 053e 39c0 be3c 3809 d53d
00000190: 2bdc ddbd af18 aabd 1f43 a23a abce 4e3d
000001a0: a490 f43d 4686 463d f823 203e c75f 2abe
000001b0: e413 cfbc e4f0 0a3e 8b26 8fbc 5893 2a3e
000001c0: 7473 9c3d eae6 0f3e 8320 33be 35ac b5bd
000001d0: b6be 8bbc 2bda 1a3d 425e 08be 6665 213d
000001e0: 20be 88bc c4fa 553d 728e 2e3e 771e 653d
000001f0: 0fef 253d 8237 a63d 6376 bf3d de13 083e
00000200: c2d3 1d3d 52a9 573d 75fd 973d d830 a2bd
00000210: f5b2 12be 7957 0fbe 6b44 e4bd 6278 963c
00000220: 1b82 50bb 0e25 303e 84e3 e5bd d65b 27be
00000230: 2d5e 3e3e 04f6 6ebd 9e54 febc 09da 9c3d
00000240: 009b 87bd 6e71 56bd 0fa9 d03d ca24 40be
00000250: 75b5 ef3d c601 fa3c 636f 823c 86dd 9d3d
00000260: fbe5 3a3d 1d02 a9bd bba7 163c 1e62 bb3d
00000270: 2eb7 1bbe fe5f 0ebe c634 4cbd 3f2b e93d
00000280: 18cb 05be 4b90 dabd e236 ab3d 6eaa 03be
00000290: 09cb b6bd 8f07 c0bd 0e0d 1abe 17d7 423e
000002a0: 446e 27be 432c 3abd 5a7d c8bd 32f8 3cbe
000002b0: b2c3 3a3e b4cd 3abe 9b16 c23d 4309 1abe
000002c0: 78c5 b73d 5e93 f8bd ffff da3d a867 a9bc
000002d0: d7d8 ce3d bb50 193e cf02 98bc 9a25 903d
000002e0: 7bfd 47bd c2a1 9b3c 6d25 26be bda5 2a3e
000002f0: 5529 10bd 3a4c 52be b019 14be f8ed 323d
00000300: 161e a73d 957a a8bd e5cc e3bd 1b13 2cbe
00000310: d3a2 4a3c fed8 f9bd 087f 8b3d 9608 e43b
00000320: 30cd 203e adcd c83d 4670 0ebe cec6 24be
00000330: 0fc3 593d 5d7c 553d ef39 a03d c6e5 2cbe
00000340: a4ca bd3d d0e9 0fbe 781c 1dbd de10 96bb
00000350: 5247 5dbd de23 edbc 5c66 a73c ac8d e3bd
00000360: 9f16 67bd f193 f73b a268 23be 1f7b 14be
00000370: 3037 463e a881 da3d f21b 233e f56b fbbd
00000380: 5174 c93c 7245 a13c 8782 2f3c 3718 0b3d
00000390: 020f 0ebe a8b2 40be b31c 8cbc 7bcd 3c3e
000003a0: e8bf e03c 1c05 0abe ff84 ae3d 8b57 ff3d
000003b0: e7f1 b23d 0bc8 07be a27e b1bd a953 2ebd
000003c0: 045d d9bc 20f8 9ebd 22a0 e53c 9ef6 86bd
000003d0: eb55 29be 5a04 e43d e9c3 f9bd 6d63 203d
000003e0: 5304 0c3e ac06 f83d 764f 35be fb66 323e
000003f0: 41d0 c53d 2982 0c3e 8e98 a53b 87cb 29be
-0.14774173 -0.08167344 0.18231377 0.0867839 -0.13586386 0.15071334 0.12039523 0.101975136
0.016828652 -0.117142305 -0.18232019 0.008580466 -0.13545711 0.1787602 0.18244515 0.1105364
0.16298866 0.062152762 -0.08894179 0.09355481 0.092167 0.098418206 0.099140584 0.16085257
0.010991736 0.06807968 -0.11254703 0.009349956 0.18934081 -0.14730328 -0.16789386 0.016666071
-0.06714517 -0.09237921 -0.03725261 -0.017261839 0.0425702 -0.07569349 -0.16218668 0.105924465
-0.12795995 0.16070966 0.018823676 -0.16961733 0.1742169 -0.06703144 -0.0047632065 -0.14522453
0.11928975 -0.076160565 -0.1476824 -0.049891043 -0.12531061 0.012433825 -0.06545917 -0.07592254
-0.12692547 -0.1312888 -0.14542505 0.029202303 -0.09647423 0.17358018 -0.17027685 0.11744658
-0.052516326 -0.16475403 0.061079126 -0.015812594 -0.070460424 0.034622844 -0.08428041 -0.058384538
-0.08245253 0.009217135 -0.14835684 -0.14939497 -0.038545813 -0.08386099 -0.15909977 -0.012821126
-0.04516699 -0.17402515 0.13415484 0.01864862 0.11171304 0.17015818 0.16486943 0.15725636
-0.03369918 -0.022510545 0.17047115 -0.16515774 0.12839675 0.13011889 -0.16320664 -0.15650766
-0.20238233 0.1298895 0.023285018 0.10402149 -0.10833009 -0.08305489 0.0012379623 0.050490063
0.119416505 0.048467897 0.15638721 -0.16638099 -0.02527804 0.13568455 -0.017474433 0.1665777
0.076392084 0.1405293 -0.17492871 -0.088707365 -0.017058711 0.037805717 -0.13317207 0.03940334
-0.016692221 0.0522411 0.17046526 0.055937257 0.040511187 0.08116056 0.09348752 0.13288829
0.038532026 0.05265171 0.0742139 -0.079194725 -0.14326079 -0.13998212 -0.11145862 0.01836795
-0.003181583 0.17201635 -0.11225036 -0.16343626 0.18590613 -0.058340088 -0.031046208 0.076587744
-0.06621361 -0.05235427 0.10188495 -0.18764034 0.11704532 0.030518424 0.015922254 0.07708268
0.045629483 -0.08252356 0.0091952635 0.09149574 -0.15206596 -0.13903806 -0.049855016 0.11385202
-0.13065755 -0.10672053 0.083600774 -0.12857983 -0.08925445 -0.09376442 -0.15044042 0.19027363
-0.16350657 -0.045452368 -0.09789534 -0.18454054 0.18238714 -0.18242532 0.09476968 -0.15042596
0.08973211 -0.12137483 0.10693359 -0.02067931 0.10099953 0.14972202 -0.018556027 0.07038422
-0.048825722 0.01899803 -0.16225214 0.16664787 -0.035195667 -0.2053689 -0.14462924 0.043683976
0.08160035 -0.08226506 -0.11123065 -0.16804163 0.012367922 -0.12199591 0.06811339 0.0069590313
0.15703273 0.098048545 -0.13910016 -0.16091463 0.053164538 0.052120555 0.0782355 -0.16884527
0.09267166 -0.14054036 -0.038357228 -0.0045796474 -0.054023094 -0.028947767 0.020434551 -0.11111006
-0.056418058 0.007555478 -0.15957883 -0.14500092 0.1935699 0.10669261 0.15928629 -0.122764505
0.024591597 0.019686434 0.0107122725 0.03395864 -0.13872913 -0.18818152 -0.017103529 0.1843776
0.027435258 -0.13478512 0.08521461 0.12467869 0.087375455 -0.13259904 -0.086667314 -0.042560253
-0.026533611 -0.0776217 0.028030459 -0.06590007 -0.16536681 0.111336425 -0.1219557 0.03915732
0.13673525 0.121106476 -0.17706093 0.17422096 0.09658862 0.13721527 0.0050535863 -0.16581546

model.0.bias f4 [64]
00000000: 211a e73d 542e b23d b343 36be 55b8 003e
00000010: 46a3 02bd 14c9 d53d 3b60 3dbe 32a7 eb3d
00000020: 43c1 1cbe 336f 2c3d d69c 0d3e 5116 89bc
00000030: 2817 06be c71e 34bd 64f6 113e 518d 143e
00000040: 8666 b9bd b6dd 113e 6e9c 2fbd 590d c73b
00000050: 9c9c dbbd 2a48 34bd 9b47 f8bd 7432 f5bd
00000060: 58f6 3ebe 499a 663c cb7f 223e 64fc 313e
00000070: 41f7 f33d 093c 213e a932 de3d 7341 18be
00000080: d709 45bd 27b4 d9bd 89c0 2cbd a353 e3bc
00000090: 0fdc ae3d b951 3b3e dafc 003d b476 b13d
000000a0: e4cb d0bd 5dbe debd b8a9 093e 78aa 783d
000000b0: 6b5a 273e 116f 20be b5b9 4b3d cdec 55bd
000000c0: e971 2dbe a018 09be c016 1dbe 63e4 803b
000000d0: d102 613d a273 593d de8e 6f3d 85a2 13bd
000000e0: 41b8 0fbd ba82 333e cec1 03bc ac1c c1bd
000000f0: 2a67 7c3c e8b5 813d 8f6c d7bd d18d 21be
0.112842806 0.08700243 -0.17799263 0.12570317 -0.03189399 0.10438743 -0.1849374 0.11506499
-0.15308098 0.042098235 0.1382936 -0.016734274 -0.13094771 -0.043974664 0.14254147 0.14507033
-0.09052758 0.14244732 -0.042873792 0.006074589 -0.1072323 -0.044014134 -0.12123033 -0.11972514
-0.1864866 0.01407487 0.15869062 0.17381436 0.11912394 0.15745558 0.108495064 -0.14868717
-0.048105087 -0.106300645 -0.042175803 -0.027749842 0.085380666 0.18292893 0.031491138 0.08665219
-0.10195139 -0.10876153 0.13443649 0.060709447 0.16343085 -0.15667368 0.04973765 -0.052227784
-0.16937985 -0.133883 -0.1534071 0.003933476 0.054934327 0.05308879 0.05848586 -0.036043663
-0.035087828 0.17530337 -0.008041812 -0.09429297 0.015405456 0.06333524 -0.10518753 -0.15776755

model.1.weight f4 [64]
00000000: a07b 7e3f 566c 7d3f c79f 803f bcaf 7f3f
00000010: 2ab9 803f fb60 803f 04da 7d3f e56b 7e3f
00000020: d351 7f3f 9687 813f dfc5 7e3f a858 813f
00000030: 429c 803f 94ba 823f 8c8a 803f 1ceb 7c3f
00000040: 0dad 7d3f 6407 7e3f 8820 823f 3148 7e3f
00000050: 52f0 803f 20bc 7e3f 2c53 7d3f 1d85 803f
00000060: a71b 813f 6a47 7f3f b0ca 803f 5724 803f
00000070: bb43 803f b7ec 7f3f a5c6 7f3f 2901 803f
00000080: 93ba 7f3f b1c8 803f 6482 803f af77 7e3f
00000090: 9a11 7f3f 9170 7f3f 944f 7f3f d473 7f3f
000000a0: 66be 7d3f becd 7e3f 22ce 803f c75f 7e3f
000000b0: 0a7b 803f 7eaf 7e3f a4b6 803f 35bd 803f
000000c0: 8249 803f f35d 813f 6a8f 813f 6862 803f
000000d0: 98c5 7e3f 42cc 7d3f 7b1b 7c3f 5a6c 813f
000000e0: 2e8e 7c3f 1706 803f f43c 813f e747 803f
000000f0: b7b0 7e3f 1430 803f 79f7 7f3f 47c6 7f3f
0.99407387 0.9899343 1.004876 0.99877524 1.0056508 1.0029596 0.9916079 0.99383384
0.9973423 1.0119503 0.9952068 1.0105181 1.0047686 1.0213189 1.0042281 0.9879625
0.9909218 0.9923003 1.0166178 0.99328905 1.007334 0.99505806 0.98955035 1.0040623
1.0086564 0.99718344 1.0061855 1.001109 1.002067 0.99970573 0.9991248 1.0000354
0.99894065 1.0061246 1.0039792 0.9940137 0.9963623 0.9978114 0.997308 0.99786115
0.9911865 0.9953269 1.0062907 0.99364895 1.0037549 0.9948653 1.0055737 1.0057741
1.0022433 1.0106796 1.0121891 1.0030031 0.99520254 0.991398 0.9847943 1.0111191
0.9865445 1.0001858 1.0096726 1.0021943 0.99488395 1.0014672 0.9998699 0.9991192

model.1.bias f4 [64]
00000000: f98d 4eb9 f116 10bb 0c44 8f3c 0aff 8b3b
00000010: 58e9 4eba b691 8f3c 8f81 bdba 15e0 d239
00000020: e378 933c fa15 003c fb85 1d3c 9380 723c
00000030: c9df e7b9 c337 9c3c 1e7d 65b9 51fe c9bb
00000040: 26ba ffbb 5824 2f3c 1271 a23b 8839 37bc
00000050: 362f a43b 24f1 8cba f688 8db9 6220 b3bb
00000060: 98b9 603c ce06 3e39 a71f 3f3c c89c ca3b
00000070: 6ef6 cbba bb3c d4ba 12cf c239 66a6 e03b
00000080: 05fa db3b f99f 703c 5298 abb9 7342 8fba
00000090: 62a9 083b e0b2 98bb 7a47 bebb 3b14 e8bb
000000a0: aec5 cebb 03ff c6bb dd9d e4bb aa91 bfbb
000000b0: c2b9 97bb cf49 a3bb b701 8c3b d220 c33b
000000c0: b4d0 1c3c 17d7 163c 58d0 283c 4518 983a
000000d0: 836b 1f3b 7fc2 86bb 0575 7aba 0dd1 f03b
000000e0: 7b16 f03a 3a66 4e3b eb09 393c 4c3c 8639
000000f0: 2a40 0cbc 5045 66bb 0e52 c23b 1578 ecb9
-0.0001969858 -0.002198633 0.017488502 0.0042723464 -0.00078930473 0.017525535 -0.0014458167 0.00040221275
0.01800198 0.00781774 0.009614463 0.014801162 -0.00044226486 0.019069558 -0.00021885752 -0.00616435
-0.007804173 0.010689817 0.0049573267 -0.01118315 0.005010511 -0.0010753018 -0.0002699566 -0.005466507
0.013716124 0.00018122347 0.011665261 0.0061832406 -0.0015561113 -0.0016192415 0.00037156843 0.0068557737
0.0067131543 0.014686578 -0.0003272915 -0.0010929838 0.0020852913 -0.0046599954 -0.0058068605 -0.00708249
-0.0063101863 -0.0060728802 -0.0069768266 -0.005846222 -0.0046302984 -0.004983164 0.0042726654 0.00595484
0.009571243 0.009206555 0.010303579 0.0011603913 0.0024325557 -0.004112541 -0.00095541804 0.0073491395
0.0018317247 0.0031494037 0.0112938685 0.00025603396 -0.00856022 -0.0035136528 0.005930192 -0.00045102896

model.1.running_mean f4 [64]
00000000: f59d 1c3f 5363 debe 85a9 6dbf 5aa8 2b3f
00000010: 79da 99bd beea 963d 5263 30bf b5f9 2dbe
00000020: 58bf 9cbd 414b ac3e b071 b13e a643 813e
00000030: cae8 39bd 73e2 75be bb05 113d cce0 57be
00000040: 5a61 3f3e fd4d 9a3e 0dcd 94be fa2a 67be
00000050: 430f e83d e68c 0f3d a837 ddbe 8431 993e
00000060: 3f73 e4be 1c80 1b3d 5932 153f 73b6 b5bb
00000070: 7b17 d73e 1a1d 8dbe 0863 2fbc 1270 08bd
00000080: 3f28 00be f894 fb3d 8ebe be3e 5bf5 aa3d
00000090: 7ef3 3d3f 7e34 ea3e fa35 0f3d c30e 2abd
000000a0: d8c1 a13e 1af0 b1be d5ec 173e b950 40be
000000b0: 71ca 203c 1585 91bd 543d 03bf d501 63be
000000c0: 38fd a9be 9789 03bf c703 c0be bed1 b2be
000000d0: f7e3 c63e aca3 913e 1c7d 3abe 3213 a33d
000000e0: 9d30 a5be a2cf 153f 04a1 633d 2589 073d
000000f0: 728b 323c d9f5 aebd 3b34 6abe f171 263e
0.61178523 -0.43435153 -0.9283679 0.6705376 -0.075123735 0.07368992 -0.6890155 -0.16989787
-0.076536834 0.33651164 0.3465705 0.25246924 -0.04538802 -0.24012165 0.035405856 -0.21081847
0.1868948 0.30137625 -0.2906269 -0.22574988 0.11331036 0.03504648 -0.43206525 0.2992059
-0.44619176 0.03796397 0.5827995 -0.0055454313 0.42010102 -0.27561265 -0.010704763 -0.033310004
-0.12515353 0.12284273 0.37254757 0.08347579 0.74199665 0.45743173 0.034963585 -0.041517984
0.31593204 -0.34753495 0.14836438 -0.18780793 0.009813891 -0.071054615 -0.51265454 -0.22168668
-0.33201003 -0.5138182 -0.37502882 -0.34925646 0.38845798 0.28445184 -0.18211788 0.079626456
-0.32263651 0.5851995 0.05557348 0.033089776 0.010897504 -0.085429855 -0.22871487 0.16254403

model.1.running_var f4 [64]
00000000: e2f9 113c 8c56 4e3c 9203 ff3b 1fb7 293c
00000010: d99d 8c3c 4e0d 1f3c 309d 1c3c 0db8 8e3c
00000020: f1c4 223c e9b0 773b 998b eb3b 2af7 123c
00000030: 1f30 963b 0bf5 ab3b c651 e33b 1963 613c
00000040: 6090 5b3c f113 1d3c 83ec 283c a000 123c
00000050: e126 6a3c 5718 573c 5c38 183c 5b73 fb3b
00000060: d46a 6a3b fa04 f33b 475b d73b 4ddc 743b
00000070: 1344 493c c177 8f3c 0798 443c 057f 1c3c
00000080: 5b15 153c 2210 6f3c a155 223c 4ef7 0e3c
00000090: ab68 b13b 53ab 203c 0992 fe3b 4ed3 bf3b
000000a0: 7b3e 0c3c 7d72 dc3b 45a3 a13c cf88 6e3c
000000b0: 91fc b83b 9acd 223c 9751 003c 5526 2c3c
000000c0: fcb4 fb3b d2be c63b 8962 453c 9954 013c
000000d0: c31c 353c f94d 003c 83a4 673c 1f5d 303c
000000e0: 2434 4f3c e87e 943c e047 b63b 35ee 573c
000000f0: 27cf 303c ffce 0d3c 0b8d 893c 3f4f 6b3c
0.008909674 0.012593877 0.007782408 0.010358601 0.017165111 0.009707762 0.009558961 0.017421747
0.00993465 0.0037794656 0.007188272 0.008970061 0.004583373 0.0052477173 0.0069372384 0.013756537
0.013401121 0.009587274 0.010310295 0.008911282 0.014291496 0.013128362 0.009290781 0.0076736636
0.003576924 0.0074163647 0.0065721604 0.0037362755 0.012284297 0.017513158 0.011999137 0.009551768
0.00909933 0.014591249 0.009908111 0.008725954 0.0054140887 0.009806472 0.0077688736 0.005854047
0.008559818 0.0067275153 0.019731173 0.014558985 0.0056453426 0.009936715 0.007831953 0.010507186
0.007681487 0.006065228 0.012047418 0.007893705 0.011054221 0.00783109 0.014138344 0.010764389
0.012646709 0.01812692 0.0055627674 0.013179352 0.0107915765 0.008655309 0.016790887 0.014362155

model.4.weight f4 [128, 64]
00000000: 85bc c73d b307 1cbc 4381 ef3d 368e 9d3b
00000010: bf07 ef3c 7102 da3c 87d4 3b3d 54dd b9bd
00000020: 59ed 35bd f289 dabd dda4 893d eb10 6b3c
00000030: dac4 743d f59c 6bbc fccb d7bc 6b97 60bc
00000040: 4033 463d 14fe ba3d 2fbd 973c be1a 4c3c
00000050: c2b3 af3c 702a 76bd 6e51 6fbd d264 8abd
00000060: 875f 4e3d 77e6 b53d 128a ec3c a683 04bd
00000070: 32d5 c8bc 0948 aabd e566 de3d 197a 03be
00000080: ed0c 983c 8851 a53d 7ed1 e2bd 657d 13bc
00000090: 51bf 6ebd 9332 da3d b6ae bbbd 8a35 dc3d
000000a0: 2535 9cbd 0da8 673d 6798 8c3c 2a64 00be
000000b0: 8195 873d 2b78 b2bd 1c97 e43c 0529 bf3d
000000c0: fc4c a83d 3ec1 f5bd 3e8b e73d 24e5 ff3d
000000d0: d041 aebd b2d5 e53d 7b8e c93d 0e45 483c
000000e0: b196 06bd a951 c83d e9a4 febc 674d 4fbd
000000f0: 8c44 5abb 0559 873c a07f 2d3d cb0b bc3d
00000100: 940b 383c 3925 403d 7159 903c 8593 e6bb
00000110: 37e3 b1bd 2fa4 8cbd 3a5c 96bd 713a 553d
00000120: ac43 2fbd 6011 5bbb 45f2 ef3d 3dde b9bd
00000130: 551f e03d 2985 97bd 3b3d c6bc 04b5 17bd
00000140: e5c4 2b3d 2a22 01bd c082 63bc 61fe eb3c
00000150: 3f39 90bd 148e eebd 1d2b 0b3e 8af6 89bd
00000160: b2f6 933c 3f2b 453c 4fd4 aa3d e551 c0bd
00000170: f3d3 24bd e0f3 bfbd 0a97 8a3d d59a dcbd
00000180: e5dc a13d 15c0 da3c 2dd9 c13d 70dc 4bbd
00000190: 71d1 793d 8ce0 81bb fa89 de3d d6bd 533c
000001a0: 8721 893d 37f6 1d3d e9fd c7bd f70a 11bc
000001b0: 533f 2c3d f30f 96bd 1f53 76bd 3f98 fcbc
000001c0: ee23 51bd 4c3b 373d 7846 8ebd 2c76 45bd
000001d0: e0d9 83bd 3101 75bc 8946 453c b4de 78bb
000001e0: 7729 8ebd 9409 aa3d da53 b5bd 29bf c0bd
000001f0: 594a b83c e96b a9bd f653 43bd 53e4 853b
00000200: 8458 c6bc d50b 6fbd 39ae 7b3d 35a4 dd3d
00000210: 2c31 093d e0ed c5bd 2fc4 893d 88d7 503d
00000220: d37d e53c 0f08 1c3d 625d afbd 8c47 ef3b
00000230: 4b14 c93d 065e fbbd 5634 8abc 8a96 9ebd
00000240: 1c33 993d e364 c23b 6956 adbd 17b7 e5bb
00000250: ca7f c23d fb6e 16bc 0e18 b9bd 9dab b7bd
00000260: 08a8 14bc 98ed 1f3c f411 e2bd 89a5 cabd
00000270: ad0a 2dbd cf2e f23d 3d67 073d 63e9 0d3c
00000280: 5db5 5e3d 60d7 6b3d 493b 7f3d 4075 5a3c
00000290: f325 b1bd 20fb d13d fbc4 51bd e272 89bd
000002a0: 4455 12bd 808e 2f3d 0299 983d 0908 acbd
000002b0: e7fd 5b3d ae40 d33d 9d24 06bd d404 b33d
000002c0: ac96 a0bc 6aae da3d c392 d3bd c622 acbd
000002d0: 42db 94bd d0a3 893d 99c7 743d 3ab3 a6bd
000002e0: 01be c83c 14ec b53d 2c53 d13d 540d 6f3c
000002f0: af7d c1bd b478 ec3c ddef a9bc e38d 42bb
00000300: 980f 66bc f119 db3d 10e6 363c 534a 503d
00000310: c3cc b53b 6f12 8cbd 9354 9c3d beb2 d1bd
00000320: 8ba4 d83d 304e fbbc 7749 d23c 4fbe 853d
00000330: b6cf 023d 1e5a ecbd f8ca 2e3d a042 f33d
00000340: d9e5 463c 834f a0ba ad7c 3ebc d907 89bd
00000350: 7934 6c3c 1d98 a5bd 6f9c cf3b 5827 f9bd
00000360: 3427 bc3d dcb9 60bd 52ae 76bd af09 f8bd
00000370: 3672 55bd 9165 ea3d 321f 6ebd 7e74 d5bd
00000380: ae2a 7fbd 8cad be3d 9703 d53d 33c9 29bd
00000390: 5ca5 7ebc 7288 c9bd 073d 96bd 2cd0 023d
000003a0: aa9e 85bd 7986 da3d 361c e8bd 87c0 d03d
000003b0: 48ce c1bd b0b4 31bd a9e8 d63d e001 81bd
000003c0: c8bd aebd 41de 9abd 1355 343d 0423 c13d
000003d0: 5ad9 e8bc 9153 103d 3614 e23d bcf6 d43d
000003e0: 921c 683d 928a 353d a655 b5bd f315 89bc
000003f0: c189 573d 586c c3bd f79c ea3d 5881 1c3d
0.09752754 -0.00952332 0.116945766 0.0048082126 0.029178498 0.026612492 0.04585698 -0.09075418
-0.044415805 -0.10670842 0.06720898 0.014347295 0.059758045 -0.014380683 -0.026342385 -0.013707976
0.04838872 0.09130493 0.018522827 0.012457548 0.02144802 -0.060099065 -0.058427267 -0.06757511
0.05038407 0.08881848 0.02887443 -0.032352112 -0.024515722 -0.08314521 0.10859469 -0.12839545
0.018560851 0.080721915 -0.11075114 -0.009002064 -0.058287922 0.106541775 -0.09164183 0.10752399
-0.07627324 0.05655675 0.017162515 -0.1253821 0.066203125 -0.087143265 0.027904086 0.09333996
0.082178086 -0.11999749 0.11305855 0.12494877 -0.085086465 0.112224 0.09841629 0.012223495
-0.032858554 0.097812004 -0.031084495 -0.050610926 -0.0033305017 0.01652194 0.04235804 0.09181937
0.011233229 0.0469105 0.017620774 -0.0070366287 -0.08685916 -0.06867253 -0.073418096 0.052057687
-0.042789146 -0.0033427104 0.11716131 -0.09075592 0.10943476 -0.07398445 -0.024199119 -0.037037864
0.04193582 -0.031526722 -0.013886154 0.02880782 -0.07042169 -0.11648193 0.13590665 -0.06736477
0.01806197 0.012034236 0.08341276 -0.0939062 -0.040241193 -0.09372687 0.0676709 -0.10771719
0.079034604 0.02670292 0.09465251 -0.049770772 0.060990755 -0.0039635357 0.10866161 0.012923678
0.06695848 0.038564887 -0.097652264 -0.008852712 0.04205258 -0.07327261 -0.060137864 -0.030834315
-0.051059656 0.044734284 -0.069470346 -0.0482084 -0.06438041 -0.014953897 0.012040743 -0.0037974538
-0.069415025 0.08302608 -0.08853884 -0.09411461 0.02249639 -0.08272535 -0.047687493 0.0040860563
-0.02421213 -0.058360893 0.06144545 0.10822336 0.03349416 -0.09664512 0.06726872 0.050986797
0.0280141 0.038093623 -0.08562733 0.00730223 0.09818324 -0.12273793 -0.016870659 -0.07743557
0.074804515 0.005932437 -0.08463747 -0.0070103514 0.0949703 -0.009181733 -0.09037791 -0.089682795
-0.009073265 0.009761237 -0.110385805 -0.098948546 -0.04224651 0.11825334 0.03305744 0.008661601
0.05437218 0.057578444 0.062312398 0.013333619 -0.08649816 0.102529764 -0.051213246 -0.06711365
-0.035725847 0.042860508 0.07451059 -0.0839997 0.053708937 0.10315071 -0.03274976 0.08741155
-0.019603096 0.10677798 -0.10330727 -0.0840507 -0.072683826 0.06720698 0.059760664 -0.081396535
0.024504663 0.08882919 0.10220942 0.01459058 -0.094478 0.02886615 -0.020744259 -0.0029686622
-0.014041804 0.10698307 0.01116325 0.05085213 0.005548091 -0.068394534 0.07633319 -0.102391705
0.10578259 -0.030676931 0.025669796 0.06530439 0.03193637 -0.11540626 0.042674035 0.11877942
0.012139761 -0.0012230728 -0.011626405 -0.0669095 0.014416807 -0.08085654 0.006335787 -0.12165707
0.09187165 -0.05486475 -0.06022484 -0.12111222 -0.052110873 0.114451535 -0.05813522 -0.1042261
-0.062296562 0.09310445 0.10401075 -0.041451644 -0.015542354 -0.09840478 -0.07335859 0.03193681
-0.065244034 0.1067018 -0.11333506 0.10192972 -0.09463173 -0.043385208 0.10493595 -0.06299186
-0.08532292 -0.07561923 0.044026446 0.09430507 -0.028423954 0.035235945 0.11039011 0.10398623
0.05666787 0.044321604 -0.08854227 -0.016734099 0.052621607 -0.09542149 0.1145572 0.03820929

model.4.bias f4 [128]
00000000: 637d 9abd dac1 423c 31f6 903c ca94 a9bd
00000010: ca73 80bd 4fea f23d 0bad 88bd b522 1abd
00000020: 5ea8 f33c 00f5 e5bd f10f 83bd 2ad8 6dbd
00000030: 8f31 92bc 1c6d 90bd 1a55 5dbd bb97 d1bc
00000040: 27c1 793d e5cb 8dbc 55a1 e93d 8e29 a53b
00000050: 3dfb 513d 2b29 f2bc 4e53 f2bd 3903 453d
00000060: 714d f23d fd12 d6bc 719b f23d 636b 2ebd
00000070: e2c7 bcbc e771 2ebd 967e d23d c497 71bc
00000080: fef5 d33d 309a c93d 21c1 d4bc 050b 893d
00000090: 1d4a 193c 6282 543d 1470 d7bd e3f3 25bd
000000a0: 358e b5bd 58f2 8a3d 8ce1 8b3d dee9 9fbd
000000b0: a5bc e73d 8c2a 2f3d 995e 9c3d 341d 78bb
000000c0: 8302 f3bd f8b0 753d 0ae6 903d 4e23 993d
000000d0: 8960 663b 51cc a63d e934 bebb eb71 0abd
000000e0: e85c b4bd da23 2abd 86d1 8f3d 1892 0cbd
000000f0: 7e23 643c 870e 6bbd e832 823d c82b ec3c
00000100: e294 3a3d ab6f 5a3c 2b8c fcbd f16b 6fbd
00000110: acca 473d 5be6 a63d ce6f cbbd c015 7dbd
00000120: 27e1 e23d efd5 e1bc c2f6 a9bd fb40 953d
00000130: f6ce bdbd 5b1b bbbd 627d 2ebd 9389 b93c
00000140: 78c7 e93d 3f3b 5a3d c729 c43c 91bc aa3d
00000150: 53ce 713d 676f b33c 508e 533c 5795 fcbd
00000160: c0c8 c83b 1cee c8bc 7fc7 1e3c caae 9e3d
00000170: 73e2 e03c 5f16 fa3d 359c ec3d 4a24 9f3d
00000180: e941 eebb 89fd 65bd 06e1 3bbc 0b14 95bd
00000190: a967 5abc 67b1 d43c 32a2 81bd 962b a3bd
000001a0: 974f 9f3c 9f92 8cbd e619 933b 21bc c3bc
000001b0: 19c1 21bd 6441 cd3c 1296 debd 2c43 cf3d
000001c0: f34c cc3d ce78 6bbd b5f1 cfbc 712c e93d
000001d0: b684 be3d 4743 b0bc c9f0 d5bd f972 dc3d
000001e0: 06c0 6539 40b8 f8bd 55f0 fd3d 048d 20bd
000001f0: 9342 04bd a851 f23a ffa3 ed3c 4453 de3d
-0.07543447 0.011887038 0.017695518 -0.082803324 -0.06272085 0.11861097 -0.0667363 -0.037630755
0.02974337 -0.11228371 -0.06399525 -0.05806748 -0.017845897 -0.07052061 -0.054036237 -0.025585046
0.06097522 -0.017309139 0.11407725 0.005040354 0.05126499 -0.029560646 -0.11832295 0.048098776
0.11831177 -0.026132101 0.11846054 -0.04258288 -0.02304453 -0.042589094 0.102780506 -0.014745656
0.10349654 0.09843862 -0.025970997 0.06691555 0.009356049 0.051882155 -0.10519424 -0.04051579
-0.088650145 0.06784505 0.06830129 -0.078082785 0.11315278 0.042765185 0.076352306 -0.0037859203
-0.118657134 0.059983224 0.070751265 0.07477437 0.0035152754 0.08144439 -0.005804647 -0.033800047
-0.08806783 -0.041538097 0.07022385 -0.034319013 0.013924478 -0.0573869 0.06357366 0.02882947
0.045552142 0.013332288 -0.123314224 -0.05845255 0.048777267 0.081494056 -0.099334344 -0.06178832
0.11078101 -0.027567832 -0.082990184 0.07287785 -0.0926799 -0.09136077 -0.042600043 0.022648608
0.11414999 0.053279158 0.023945702 0.083367474 0.059034657 0.021903707 0.012912348 -0.12333172
0.006127447 -0.024527602 0.009691118 0.07748182 0.02745173 0.12211298 0.115532316 0.077705935
-0.0072710407 -0.056149993 -0.011467224 -0.072792135 -0.013330379 0.025963498 -0.063297644 -0.07967298
0.019447131 -0.06863903 0.0044891713 -0.023893418 -0.039490793 0.025055595 -0.108684674 0.10120234
0.099756144 -0.057488255 -0.02538381 0.1138543 0.09302656 -0.021516455 -0.10446317 0.10764117
0.00021910676 -0.12144518 0.12399355 -0.039196983 -0.032290053 0.001848747 0.029008863 0.108557254

model.6.weight f4 [128]
00000000: 0a2e 803f a820 7f3f 3061 803f 81f3 7b3f
00000010: b14e 813f 5f34 813f 6213 803f f929 803f
00000020: b994 7f3f 6698 7f3f 43f7 803f 2993 803f
00000030: 914a 803f 9f09 7f3f 345f 803f 54a3 823f
00000040: b8da 7f3f 5ab7 7f3f 9ae0 7d3f 6367 813f
00000050: 87fd 7e3f 379c 803f ef55 803f f5ca 7f3f
00000060: a829 7d3f e280 803f fbf5 803f 28de 803f
00000070: 079d 7e3f b045 803f 999a 7f3f 2aa8 803f
00000080: 692d 7f3f e3ab 813f e12e 803f 5705 803f
00000090: 2706 803f 89c9 803f 7f01 7e3f fe59 7e3f
000000a0: 0576 823f 848e 803f e4ae 803f 1b68 7f3f
000000b0: ec49 7e3f cdb0 803f 8a02 803f 2337 7f3f
000000c0: 4697 813f 9125 803f 7ae3 803f 62ac 7d3f
000000d0: b761 803f 286d 7e3f f34d 803f 66a5 803f
000000e0: d769 7e3f 38e8 7e3f c58d 7f3f 638e 803f
000000f0: c15f 803f 8232 7d3f 2781 803f dbad 813f
00000100: 4c9d 7f3f 2259 803f 1969 803f c73c 803f
00000110: 47eb 7f3f 43c2 7e3f 20e3 7f3f a619 813f
00000120: 6c89 803f 4804 7f3f 28ae 7e3f 3170 7f3f
00000130: 1706 803f 5c07 7f3f 8523 7e3f 281d 7c3f
00000140: 52cc 7d3f 838b 813f 6871 7e3f 4931 803f
00000150: aafe 7d3f 790e 803f c735 803f b1b4 803f
00000160: 01f0 7e3f 353b 803f eeb4 803f 0aff 803f
00000170: 7cbd 7d3f 5b43 7d3f 560f 7f3f 14f7 7d3f
00000180: 8d5f 7e3f 90a4 7f3f a6b4 7c3f 971f 7d3f
00000190: 44eb 7e3f a2c3 7d3f 150a 7e3f 1b0a 7d3f
000001a0: 7812 823f 193e 803f 961a 813f a1d3 803f
000001b0: d97e 813f e6b9 803f 0abe 7e3f 8e18 7f3f
000001c0: 4b00 7f3f 8c90 803f f526 7e3f 4085 813f
000001d0: b2a4 813f 17c7 7f3f 8384 803f 0167 7f3f
000001e0: 0eb7 7e3f 9329 7f3f c014 7f3f d5bf 7d3f
000001f0: 4a8f 803f 39fc 7f3f f3b5 803f a78e 813f
1.001405 0.99659204 1.0029659 0.9841843 1.010214 1.0094107 1.0005915 1.0012809
0.9983631 0.99841917 1.0075458 1.004491 1.0022756 0.99624056 1.0029054 1.0206094
0.99943113 0.9988915 0.9917084 1.0109676 0.996056 1.0047673 1.0026225 0.9991906
0.9889169 1.0039332 1.0075067 1.0067797 0.99458355 1.0021267 0.9984527 1.005132
0.99678665 1.0130581 1.0014306 1.000163 1.0001878 1.0061504 0.9922103 0.9935607
1.0192267 1.0043492 1.0053372 0.9976823 0.99331546 1.0053955 1.0000775 0.99693507
1.012429 1.0011464 1.006942 0.9909116 1.002982 0.9938531 1.0023788 1.0050476
0.9938025 0.9957309 0.998257 1.0043453 1.0029222 0.98905194 1.0039414 1.0131181
0.9984939 1.0027201 1.0032073 1.0018548 0.9996838 0.9951517 0.9995594 1.0085952
1.0041938 0.9961591 0.9948449 0.99780566 1.0001858 0.99620605 0.9927295 0.9848199
0.99139893 1.0120701 0.99391794 1.0015041 0.9921671 1.0004417 1.0016412 1.0055143
0.99584967 1.0018069 1.0055215 1.0077832 0.99117255 0.989309 0.99632776 0.99205136
0.9936455 0.9986048 0.9871315 0.9887633 0.99577737 0.99126637 0.99234134 0.98843545
1.0161886 1.0018951 1.0086238 1.0064584 1.0116836 1.0056732 0.99508727 0.9964684
0.9960982 1.0044112 0.99278194 1.011879 1.0128386 0.9991316 1.0040439 0.99766546
0.9949807 0.9967281 0.99641037 0.9912084 1.0043728 0.99994236 1.0055526 1.0121659

model.6.bias f4 [128]
00000000: c791 69bc ae07 e539 13c6 193c c702 51bc
00000010: 3238 c53b 16f1 db3b 5d07 08bc 7f6b 2d3c
00000020: 3880 193c 5031 48bb 02cd eb3b 389d 9b3b
00000030: f871 24bb b8d8 14ba 110f 67ba 8869 a53c
00000040: 8acf 1e3b ce0a 9e3b 6951 84ba 338c 1c3c
00000050: 1c06 febb fbdb fcba 2905 ecbb e67f bbba
00000060: 64c8 f5bb 53d5 81bb c58b beba 9511 8b3c
00000070: 1760 72b9 0fb1 4bba 87b9 cfbb 4680 b13a
00000080: 2cc6 0abb a2eb a93c 5b4a 133c 8a79 a43b
00000090: e49b c939 4512 483b 0f54 05bc 716d 2c3a
000000a0: 2de7 5f3c f082 643c 8505 533b 632d 493b
000000b0: 9ef3 d7b9 b26f bdbb 77f4 a93b 3b8e 823b
000000c0: 33eb 0abc 02f7 b4bb 1e21 153c a14b e4bb
000000d0: cccb c93b 69a9 a43b 8014 9f3b 6640 093b
000000e0: 5e40 33bb c89d 78bb 4499 9c3b b542 843c
000000f0: f932 9bbb c1d7 b3bb 70a3 b6bb 2e16 2c3b
00000100: de41 22bc ac57 ae3b 87cd 303c 17e3 83ba
00000110: 3c46 623b 942e 5abb 54d1 12ba 2b08 0e3c
00000120: e655 073c fb40 2a3b 3a55 2cbb 184b cebb
00000130: 6f01 803c 6992 cb3b 100e 2ebc e50a 4fbb
00000140: 0f0c 2238 7ea3 473c 2dc2 223b 20d5 143c
00000150: 8c03 b9ba aee8 ae3a f472 2fbc 9ff8 263c
00000160: 0a6f 43bc e733 f13b 9a50 edbb 5a2d 03ba
00000170: b4b6 f2bb 7ec3 4d3a 7255 763b 4920 efbb
00000180: 01e5 1a3c dfda 20ba d61c 8abc 7a37 453a
00000190: e6fc 083c af01 7eba 8695 15bb 7ed1 76bc
000001a0: a3f5 833b a9be dcbb 98de a13b 996e 5c3c
000001b0: c243 cb3b 9dde 103c d010 b63b b841 273b
000001c0: 1507 be3b d59e 883b 06f9 24bb 3684 283b
000001d0: d83d 67bc 63de 593b f6f3 e83b 011d b6bb
000001e0: 846c bc3b 9d26 89bb 48f4 abbb d9af 61bc
000001f0: d947 a7bb c185 693c 3a80 223c d2b7 cf3b
-0.014255947 0.00043684006 0.0093856035 -0.01275701 0.006018662 0.0067120893 -0.008302537 0.010584711
0.009368949 -0.003054697 0.0071960697 0.0047489665 -0.0025092345 -0.00056780456 -0.0008814196 0.020191923
0.002423259 0.0048230654 -0.0010095063 0.0095549105 -0.007752193 -0.0019291634 -0.0072027636 -0.0014305084
-0.007500695 -0.003962198 -0.0014537504 0.016976157 -0.00023114715 -0.0007770219 -0.0063392553 0.0013542257
-0.0021175249 0.020742241 0.008989896 0.0050193714 0.00038453855 0.0030528468 -0.008137717 0.00065775873
0.013665956 0.013947234 0.0032199335 0.0030697219 -0.00041189505 -0.0057811374 0.005186613 0.0039842403
-0.008478927 -0.0055226097 0.009102134 -0.0069670235 0.0061583277 0.005025078 0.0048547387 0.0020942925
-0.0027351598 -0.0037935842 0.004779013 0.01614509 -0.004736301 -0.0054883664 -0.0055736825 0.0026258337
-0.009903399 0.00532051 0.010791189 -0.0010062185 0.0034526726 -0.0033291923 -0.00056006503 0.00866894
0.008260226 0.0025978673 -0.0026295916 -0.006295573 0.015625684 0.006212522 -0.01062347 -0.0031592187
3.863504e-05 0.012184976 0.0024834976 0.009084016 -0.0014115437 0.001334449 -0.010708559 0.010191112
-0.011928329 0.0073609236 -0.0072422745 -0.00050040113 -0.007407034 0.000784926 0.003758755 -0.00729755
0.009454013 -0.000613613 -0.016859453 0.000752322 0.008361077 -0.0009689582 -0.0022824719 -0.015064595
0.004027085 -0.0067365956 0.0049398653 0.013454103 0.0062031457 0.008842138 0.0055562034 0.002552135
0.005799184 0.004169325 -0.0025172844 0.002571357 -0.014113866 0.0033244125 0.0071091605 -0.0055576568
0.0057502408 -0.0041855113 -0.0052476265 -0.0137748355 -0.0051050005 0.014253081 0.009918267 0.0063390518

model.6.running_mean f4 [128]
00000000: 2ba6 0f3e e149 5bbe 41d9 6f3d 9d8f a6bd
00000010: f7cc 19bc eda6 a93e 7753 9fbe fb70 c4be
00000020: 35a9 343a fa63 963d a281 623e 40cb 29be
00000030: a9b1 91be 6fc8 dd3d 9b55 993e 361c 8dbd
00000040: 52b0 05bd c293 33be dfc2 3b3e aac1 823d
00000050: bb84 8ebd 6f7f 543e a9cd 833c 8388 f7bc
00000060: 7aa5 993e bf6a 32bd 980d 883a 5253 593d
00000070: 5dda 95be 3736 a5bd e58b b53e d394 173e
00000080: ecc2 783c 1ff6 b1bd d149 0aba 7ab9 f13d
00000090: cfa2 433e d053 ce3e f467 c43d c671 b7bd
000000a0: 3ff9 e13d 26f8 923c 7bd5 d13d 349e d9bc
000000b0: 4a58 89bd 8048 193e c168 013f 5fb9 b9bd
000000c0: ae81 8e3d e445 8dbd b9a6 933e 1d73 843e
000000d0: a539 33be 0aab 623d dd37 15bd 109c 9f3d
000000e0: 27f6 53bd 00ae b7bd 7f8a b0bd 5438 78be
000000f0: 430e 233d aa70 50be c88e 72bb 4333 ce3d
00000100: fe38 5b3e 5593 973e 6aef 923d 99a5 903e
00000110: bae3 1cbe 50be 9f3d 57d6 cfbd cf54 63be
00000120: ad6b 52be ac8f 4b3e 6d26 86bc f402 003e
00000130: 0045 14be 979b 9d3d 2cd2 10be ac09 c03e
00000140: 2726 033e 4237 1e3e 0a11 ed3e 45a3 6cbe
00000150: 29f5 e03d 0215 643e d296 7a3b ec17 97bd
00000160: b26f fb3d 363d 3a3d 723e 0bbd d52f 9cbd
00000170: d5cc 5fbe 06a8 443e 0ad0 d63c 57a7 23be
00000180: fbf0 073e 99c8 51be 389d a33e d2d5 803e
00000190: 7347 003e 25e8 033c 52c7 0f3d e9b2 f8bd
000001a0: 5c32 bebc eee6 953d cad4 273d d0e7 cebe
000001b0: 4b5f 16bf 4040 fabd 107e 943e dcb5 dabe
000001c0: e5ca 4b3e 977f f0bd f3b7 e73e 3a2a 263e
000001d0: dee6 05be a082 313e 50de 813d 660e cdbc
000001e0: 0820 efbd f0bc 02bf 9114 d0bc ce2e 5e3c
000001f0: e646 ba3e f7ea 253e 79d5 bf3d 9184 d2bd
0.14028232 -0.21414901 0.0585568 -0.08132861 -0.009387246 0.33135167 -0.31118366 -0.38367447
0.0006891669 0.07343288 0.22119763 -0.1658144 -0.28455856 0.10829245 0.29948124 -0.068901464
-0.032638855 -0.17536834 0.18336056 0.06384595 -0.0695891 0.20751737 0.016089277 -0.030216461
0.3000906 -0.043558832 0.0010380028 0.053057976 -0.2926816 -0.08066981 0.35458294 0.14802866
0.015183192 -0.08689522 -0.0005275282 0.11802955 0.19105075 0.4029832 0.0959014 -0.089572474
0.11033868 0.017940592 0.10245796 -0.026564695 -0.06706293 0.14969063 0.50550467 -0.0906856
0.06958328 -0.06898096 0.28838137 0.25869074 -0.17502458 0.055338897 -0.03643023 0.077934384
-0.05174842 -0.08968735 -0.08620166 -0.24240237 0.039808523 -0.20355478 -0.0037011374 0.10068371
0.2140846 0.29604593 0.07174571 0.2825134 -0.15321246 0.07799971 -0.10148304 -0.2220032
-0.20548888 0.19879025 -0.016375745 0.12501127 -0.14479446 0.07695692 -0.14142674 0.3750738
0.12807523 0.15450767 0.46302062 -0.23109157 0.109842606 0.22273639 0.0038236869 -0.073776096
0.122771636 0.04546853 -0.0339951 -0.07626311 -0.21855481 0.19204721 0.026222248 -0.15981804
0.1327552 -0.20486678 0.31955886 0.25163132 0.12527256 0.008050953 0.035102196 -0.121434994
-0.023217373 0.07319437 0.040974416 -0.40411234 -0.58739156 -0.12219286 0.29002428 -0.42716873
0.19901617 -0.11743086 0.4525753 0.16227046 -0.1307635 0.17334986 0.06341231 -0.02503128
-0.11676031 -0.51069546 -0.025400432 0.013560964 0.36382216 0.16202913 0.093668886 -0.10279191

model.6.running_var f4 [128]
00000000: cd1e d53d 2e09 3a3e 1b27 ba3d cca1 463e
00000010: 3e69 ca3d 3e21 4c3e 0477 883d c80e 3f3e
00000020: 39e6 423e 0570 2c3e e2d1 c13d d019 143e
00000030: 6992 523d a255 863d 8912 a43e 775d f13d
00000040: 3695 c63d 3d43 0b3e 83db 8f3e 5a4d bc3d
00000050: d096 4a3e 3d5f 2c3e 3a84 fd3d a1cd 293e
00000060: e785 0b3e cfe6 e23d 65bd f13d b396 d03d
00000070: 50d4 723e 79f3 2b3e 3daf 7d3e 3ede 3b3e
00000080: 99c5 db3d f0ae c83d f05b 153e da4a a23d
00000090: 1dad d03d 3176 513e 71f4 ce3d 3fc7 f73d
000000a0: 4f02 953d c0c0 e83d b1f9 fe3d 4fba bc3d
000000b0: 2657 fa3d af4d f93d 3019 003e 8319 083e
000000c0: fa31 fd3d 26cc cc3d 6a2f 053e 946a b63d
000000d0: 0b06 2c3e 9504 093e d09a 403e 9187 823e
000000e0: 45b4 c33d 6921 223e 1c41 2c3e d727 a03d
000000f0: d3ba 1b3d 4f94 dc3d 651b 083e 344d b73d
00000100: f6f6 523e 3e94 113e e2ef 323e f685 133e
00000110: 7e1c 353e 4b03 503e 4653 1e3e 91b7 a43d
00000120: b672 183e fa28 983d 247a 0f3e 3394 7a3d
00000130: 36e8 493e 5046 eb3d aa0a 533e f663 303e
00000140: 4a7b 0c3e 6ab8 213e 75a0 083e 7d83 a93d
00000150: b94e 6c3e 1467 843e c07a 153e 51c7 e83d
00000160: 1101 c03d ae4a e33d 1726 0a3e 2137 2d3e
00000170: e36b 693d 918f 133e f575 253e 3886 a03e
00000180: ee45 403e 3966 123e a3bc 053e bf6f 253e
00000190: c122 393e 977f 1f3e 80ba 253e 1445 6f3e
000001a0: 39d5 033e 525d da3d 0421 0e3e b1db a53d
000001b0: 2959 223e e483 fb3d 402b 103e 136b 833e
000001c0: 53b6 1b3e 2606 933e b04b eb3d 7f52 bb3d
000001d0: ad37 0e3e db51 5d3d c99e 013e 5022 823e
000001e0: 4808 373e bf14 9a3e 84e8 853e 7263 013e
000001f0: d065 df3d 9c5a 863e 0607 203e ef73 b73d
0.104062654 0.18167564 0.0908949 0.19397658 0.098833546 0.19934556 0.066633254 0.18657982
0.19033135 0.16839607 0.0946386 0.14462972 0.05140916 0.06559302 0.3204539 0.11785405
0.096964285 0.13599868 0.28097162 0.09194441 0.19784093 0.16833206 0.12378736 0.16582347
0.13625298 0.110791795 0.11803702 0.101849936 0.23713803 0.16792096 0.2477388 0.18346497
0.10731048 0.09798992 0.14585853 0.07924433 0.10189269 0.20455243 0.10105217 0.1209855
0.07275831 0.11364889 0.124499686 0.09215223 0.122236535 0.1217302 0.12509608 0.13290982
0.12363048 0.09999876 0.13006368 0.08907047 0.1679918 0.13380654 0.18809056 0.25494054
0.09555868 0.15833057 0.16821712 0.07820099 0.038019966 0.10770475 0.132917 0.08950272
0.2060202 0.14216706 0.1747432 0.14406571 0.1768665 0.20313756 0.15461454 0.08042825
0.14887509 0.07429691 0.14011437 0.06117649 0.19717488 0.114880204 0.20609537 0.17225632
0.13718906 0.15793005 0.1334246 0.082770325 0.23076905 0.25859892 0.14597607 0.113661416
0.093752034 0.110982284 0.13491093 0.16915561 0.056987654 0.14410235 0.16158278 0.313524
0.18776676 0.14296807 0.1306024 0.16155909 0.18079664 0.15576015 0.16184425 0.23366195
0.12874307 0.10662331 0.13879782 0.080985434 0.15854324 0.122810155 0.14078999 0.2566763
0.1520627 0.28715628 0.114890456 0.09146594 0.13888426 0.05403314 0.12658228 0.25416803
0.17874253 0.30093953 0.26153958 0.12635592 0.10908091 0.26241004 0.15627679 0.089576595

model.8.weight f4 [128, 128]
00000000: 7d12 a6bc 988b a73d ad26 9dba 9e6f b03c
00000010: d9f1 b13d 39f6 88bd 8395 5b3d 11f9 88bd
00000020: d790 88bd 40f7 a8bd 1a5b 7c3d e4ed a23b
00000030: dff7 073c 3cd9 373d cc84 8bbd 886f 4d3d
00000040: ed71 31bd 7e0c 67bc a780 8a3d 9b0a 56bd
00000050: 5ca7 683d a163 d2bc 04f1 983d a453 b73c
00000060: 0e33 333c b876 35bb 9534 d3bc 121c 8abd
00000070: b037 cabc c7ef 98bc 1a90 06bd 86b6 aebd
00000080: 1cb8 d23c 2c98 993d c003 883d a6af fabb
00000090: 6631 1a3d e16f 90bd 0c81 863d d0b6 a5bd
000000a0: 289f 74bd 75d5 6fbd a567 9b3d a51b 883d
000000b0: 5825 8f3d d647 c3bc d56f 5d3d 797b 4c3d
000000c0: 7dfc 1dbd e8e8 ac3d def4 40bb 5b28 24bd
000000d0: 13e7 18bd a86e 03bd bac5 303d 4840 26bd
000000e0: 656d 4ebd 171b 103d 8a0f 373d 9841 103d
000000f0: 2406 a7bd 690f 98bd 0058 3e3d 6f31 a1bd
00000100: 69d8 fb3c 7f2d 73bd e047 153d 214a 3abd
00000110: fc5b 163d c728 403d 62b1 8abd 535d bcbc
00000120: b5e7 b03d 3293 833d b87e 2dbc 1544 8fbc
00000130: b50a af3d 7c94 5c3d 6af3 9cbd 07e4 e2bc
00000140: c895 5fbd e625 68bd 734e d83c 4e89 71bd
00000150: d3d9 aebd f1d7 693d 1814 a63d 777f 0fbd
00000160: 2114 c93c 952b 963d 39e8 793d 8549 2bbc
00000170: d651 023c 43a9 5abd a7aa 823c 6033 58bc
00000180: f892 9ebd e53b 213c 4586 02bc 335f 453b
00000190: ad4b 8e3c e5b6 93bd 71ac 8f3d db85 9e3d
000001a0: 227b cc3c 27af 8cbd 1320 b83c 1fff 81bc
000001b0: 1635 65bd 55fd ce3b f802 ac3d 2668 513d
000001c0: 8b29 0b3d ab71 abbd b7b2 8cbc 3b67 983d
000001d0: 2b4c 15bd 53b2 ebbc 1102 bbbd cead 72bd
000001e0: ee9a 73bd 6bd5 883d 4ca8 bf3c 2996 9f3d
000001f0: ea1e 8abc ab6e afbd 4616 a7bc b4ae 903d
00000200: 961f 77bd 4208 0dbb 8a88 2b3d 576c 323c
00000210: 03b5 9dbc bcf5 58bd e674 d5bc 9208 77bd
00000220: 5ffe 9abd 61e3 c03c 8363 a93d c991 733d
00000230: 36d2 17bd bbcb 943c aaa1 5bbc 6c56 833d
00000240: adeb 12bd f91a 873d 8c45 db3c 540d 0b3d
00000250: 20b2 243d 5867 b3bd efcc 03bd 71e7 7cbd
00000260: 7e7c cbbb edc0 183d 4b19 543c dfe1 1d3c
00000270: 53ec dcbb e15b 8cbc f0fb 333d ce89 7c3a
00000280: 34e7 b1bd 58f5 513c 7ff8 953d b77e b0bc
00000290: e30a 30bd 8c17 c9bd eb77 3f3c 8434 233d
000002a0: c62c b2bd 4edf 473d fd2e 30bd f088 1ebd
000002b0: b529 98bd 32e1 8abd 1390 a03c f46a 173d
000002c0: 8d6c 44bd a853 7ebd 90bb 81b7 ebb3 30bd
000002d0: 9dbe a83d 6816 053d e09e b23d f920 37bb
000002e0: 20b6 713d 9bcc 33bc b413 bebb e4b1 dcbc
000002f0: 7487 0d3d 7b5e cabb b101 98bd 49c2 4a3d
00000300: 061d 733d 1b9b 6f3d 5b5c 9dbd af01 643d
00000310: c8ab 593d 9090 48bd c2e2 353d 5407 cabb
00000320: fff7 57bd 6bbc a03b e20c a8bd 46cc a3bd
00000330: 74cf b0bd fd2d 1ebd 51de 6b3c 91e1 7a3c
00000340: 39fc 7c3d 1de7 4bbd 841a 1c3a 0064 6cbd
00000350: bc57 1d3d d44c b83c 6d71 ebbc a7c1 353d
00000360: d361 0d3a abfc 92bd 0240 43bd 7c0f b43d
00000370: 6241 9c3b 2125 5dbd 3ef8 91bd d87b 9b3d
00000380: e7cd 14bd 1bd7 6bbd c1a5 633d c606 ab3d
00000390: 424d 343d 142c 823d 6b94 2bbd 2c02 8b3a
000003a0: ed2b 7bbd c4a0 0dbd c340 713d 3dc1 aabd
000003b0: ab01 c63c 0e52 a2bd dd09 a53d e953 26bd
000003c0: 1711 8d3d 4664 a23d e493 ecbc f3c5 b0bc
000003d0: 65d6 9ebc c6cf 983d aad6 67bc 5a66 843d
000003e0: 097a a83d 7f66 c2bc d86b 1b3d 3beb bf3d
000003f0: 54b2 35bd 237d 5abc 834d 60bc 0c60 08bd
-0.020272488 0.08180922 -0.0011989676 0.021537598 0.08688707 -0.06687588 0.053609382 -0.06688131
-0.06668251 -0.08250284 0.06161032 0.0049722064 0.008298843 0.044884905 -0.06812438 0.050155193
-0.04332154 -0.014102099 0.0676282 -0.052256208 0.05680023 -0.025682272 0.07467845 0.02237875
0.010937465 -0.002768917 -0.025781909 -0.06743635 -0.024684757 -0.018669022 -0.03285227 -0.08530907
0.025722556 0.074997276 0.0664134 -0.0076503335 0.037644766 -0.07052589 0.065675825 -0.08091509
-0.059722096 -0.058553178 0.07588128 0.06645898 0.06989545 -0.023837965 0.05406173 0.04992244
-0.03857087 0.08442861 -0.0029442827 -0.04007755 -0.037329745 -0.032087952 0.043157317 -0.040588647
-0.050397296 0.035182085 0.044692554 0.035218805 -0.08155468 -0.07424814 0.046470642 -0.07870757
0.03074284 -0.05936956 0.0364455 -0.04548085 0.036708817 0.04691389 -0.06772114 -0.02299372
0.086379446 0.0642456 -0.010589294 -0.017488519 0.08546964 0.053852543 -0.07663615 -0.027696623
-0.054586202 -0.056676768 0.026404595 -0.058968835 -0.085376404 0.057090703 0.08109301 -0.03503367
0.024545731 0.07332531 0.06101248 -0.01045454 0.0079540815 -0.053384077 0.015950514 -0.0131958425
-0.07742876 0.00984094 -0.007966583 0.0030116558 0.01737007 -0.07212619 0.070153125 0.07740375
0.024961058 -0.06869345 0.022476232 -0.015868722 -0.05595883 0.0063168206 0.08399004 0.051124714
0.033975165 -0.0837129 -0.017175062 0.07441565 -0.036449593 -0.028771555 -0.091312535 -0.059247784
-0.059473924 0.06681331 0.02339568 0.07792313 -0.016860444 -0.0856603 -0.020396363 0.07064572
-0.060332857 -0.0021519815 0.04187826 0.010890088 -0.019251352 -0.052968726 -0.026056718 -0.060310908
-0.07568049 0.023545923 0.082709335 0.059465203 -0.037065707 0.018163553 -0.013405243 0.06412968
-0.03586929 0.065969415 0.026766561 0.033948258 0.040208936 -0.08759946 -0.03217786 -0.061744157
-0.006209909 0.037293363 0.012945483 0.009636371 -0.006742039 -0.017133655 0.04394144 0.00096335716
-0.086866766 0.012814842 0.073227875 -0.021544797 -0.042979132 -0.09818944 0.0116863055 0.039845005
-0.08699946 0.048796944 -0.04301356 -0.038704813 -0.0742983 -0.06781234 0.01959995 0.036967233
-0.047955085 -0.0620915 -1.5465339e-05 -0.043140333 0.082394816 0.03249207 0.08721709 -0.0027943237
0.05901158 -0.010974075 -0.0058006886 -0.026940294 0.034553006 -0.0061758137 -0.074221976 0.04950169
0.05935385 0.05849753 -0.07683631 0.055665668 0.05314234 -0.04896599 0.044405706 -0.0061654244
-0.052726742 0.0049052737 -0.08205582 -0.079979464 -0.086333185 -0.038618077 0.014396266 0.015312568
0.061763976 -0.049780954 0.0005954879 -0.057712555 0.03841375 0.022497572 -0.028740609 0.044374134
0.00053933 -0.07177099 -0.047668464 0.08792016 0.0047685364 -0.053990487 -0.071274266 0.07591981
-0.036329176 -0.057578187 0.055577997 0.08350901 0.04401899 0.063560635 -0.04188959 0.0010605506
-0.061321188 -0.034577146 0.058899652 -0.083376385 0.024170717 -0.07925807 0.08058522 -0.040607367
0.06888025 0.07929282 -0.028879113 -0.021578765 -0.01938934 0.07461505 -0.014150301 0.064648345
0.08226401 -0.023730515 0.037944645 0.093710385 -0.04435952 -0.013335499 -0.013690355 -0.033294722

model.8.bias f4 [128]
00000000: 73cd 8abd 8ab7 4ebc b6ee 843a f474 3d3d
00000010: 423a 653d d9fc 813d 4da2 903d 60ab c73c
00000020: 1643 553d 23c9 363c a5fd 8b3d 9fcf ba3c
00000030: 2b0b 72bd cd76 a53d fb18 f0bb adbd 02bd
00000040: 6220 abbd 0406 133d cd66 87bd 318f b8b9
00000050: 4a68 b33d 2dc8 b3bd aa6f a63d 4617 7a3d
00000060: bb68 5a3d d327 ddbc 2601 8b3c 6348 b4bd
00000070: 9437 d73b afe0 adbd c29a 733d 41d4 413d
00000080: 98f5 b4bd c3e6 15bd 558e 043d 27a8 29bc
00000090: e3fc 1cbd 57ba 813d a36b 3ebd ae2c 273d
000000a0: ebef c5bc d528 123d 70aa 9b3b ce0d 163d
000000b0: 0b18 023d b2ff 353d 269a 473c 9a22 6cbc
000000c0: 538b 323d ebf4 a83c 191a 81bd 323c a9bd
000000d0: ae70 b5bc f77e b2bd badc 29bd 70b9 68bd
000000e0: 78aa 713d 6843 e3bc 9c65 29bd 0456 e03c
000000f0: 260e 4c3c e18e 95bd 95a3 9a3d 7bb1 4e3d
00000100: dc8c b1bd 3fd0 55bd 99ae de3c 9cf5 a73d
00000110: e738 7c3d b72c 93bc 1e0d b43d 118d 8dbd
00000120: 52f0 9c3d 1ed2 57bd 05cb 1fbd 9469 963d
00000130: 6ae4 073d 6cd9 1abd 720b 59bd 8849 e73c
00000140: 04d4 91bc 5f70 b2bd d933 9abc c1d1 023d
00000150: 0ffc 50bd 3992 633d 2fd6 203d 6207 9abc
00000160: c80f c03c 38ea 4abd 0113 abbd 6526 54bd
00000170: e06f 033d d23b abbc 0f09 583d a634 86bd
00000180: 822e 5b3d a628 203d f74e 9cbd e3e6 af3d
00000190: 2359 4dbc 129e 843d 7246 813d 1343 963d
000001a0: 10a8 3b3c 739b 2fbc 2113 00bd 099d c6bc
000001b0: edb7 433d 2e67 66bb 594b 483d 86bd b03d
000001c0: 105f b2bd e789 94bd a859 12bc d207 733d
000001d0: 0804 613d d8bf 613d 365c 0b3d 525a 43bd
000001e0: db3b febc dc45 9fbd 4c11 a7bc da34 1fbd
000001f0: 250a afba fc9e 863c 1bd0 ad3d 145e 8ebd
-0.067774676 -0.012617001 0.0010141942 0.046254113 0.055963762 0.06347055 0.070622064 0.02437371
0.05206593 0.011156353 0.06835488 0.02280408 -0.05909268 0.080793 -0.0073271967 -0.03191917
-0.08355786 0.03589441 -0.066114046 -0.000352019 0.08760126 -0.08778415 0.08126767 0.06105735
0.053322535 -0.026996529 0.016968321 -0.08802869 0.0065679047 -0.084901206 0.05947376 0.04732156
-0.08835906 -0.036597025 0.0323623 -0.010355032 -0.03832711 0.0633437 -0.04648937 0.040814094
-0.024162253 0.03568347 0.0047505423 0.03663426 0.03176121 0.044433303 0.012182748 -0.0144125465
0.0435899 0.020624598 -0.06303806 -0.082634345 -0.022148456 -0.08715623 -0.041470267 -0.056817472
0.059000462 -0.027742103 -0.041356668 0.027384765 0.012454545 -0.073026426 0.07550732 0.050462227
-0.08669445 -0.052200552 0.027182864 0.08201143 0.061577704 -0.017965658 0.087915644 -0.06911672
0.07663025 -0.052690618 -0.039011974 0.07344356 0.033176817 -0.037805006 -0.05298943 0.028233305
-0.017801292 -0.08712839 -0.018823551 0.03193832 -0.05102163 0.05555937 0.03926676 -0.018802349
0.023445025 -0.049539775 -0.08353234 -0.05179443 0.032089114 -0.020902548 0.052743014 -0.06553011
0.05351115 0.039101265 -0.07632249 0.0858896 -0.012533459 0.06475462 0.063122645 0.07337012
0.011453643 -0.010718214 -0.031268243 -0.024244802 0.047782827 -0.0035156715 0.048899982 0.08629899
-0.08709538 -0.07252865 -0.0089325085 0.05933363 0.054935485 0.055114597 0.034023486 -0.047693558
-0.0310344 -0.077769965 -0.02039399 -0.038868763 -0.0013354464 0.016433232 0.084869586 -0.06951538

model.10.weight f4 [128]
00000000: 7190 7e3f 642c 813f 94dc 7e3f c291 803f
00000010: 4f5b 7d3f 3565 813f 608d 803f d451 7e3f
00000020: 9c18 7e3f da89 7f3f 4172 803f f838 803f
00000030: 5cf2 7f3f 299e 7e3f e533 803f 275c 7e3f
00000040: f02e 803f d6fa 803f 79ec 803f 831c 813f
00000050: c00d 803f 87c4 7e3f 04d8 803f 0333 7e3f
00000060: 7b20 803f 8232 803f a999 7d3f d878 7c3f
00000070: 683a 803f db05 7f3f baf8 7d3f e5b5 803f
00000080: 0c43 803f ac65 7f3f 500d 803f 2da6 803f
00000090: 0dd2 7f3f cd2d 7d3f bbf8 803f 7455 7f3f
000000a0: 3218 7f3f 894e 813f e68d 7e3f e280 803f
000000b0: 0eb6 7f3f 96be 803f 729a 803f 673e 7d3f
000000c0: ebe8 813f 5b14 803f dc1e 7f3f 2273 7f3f
000000d0: 4b49 7f3f 6b0e 7f3f b247 7f3f fe8b 7f3f
000000e0: aa12 7e3f e720 7e3f dd1f 813f 5fa9 7c3f
000000f0: f707 823f d22a 803f d4b1 7f3f 57b0 7e3f
00000100: ec17 803f 01f5 7d3f c50f 7e3f 0cd5 7e3f
00000110: 726b 813f cf48 803f f934 803f a9f5 7d3f
00000120: 6a77 803f 1cf0 803f c0fe 7d3f 4b08 813f
00000130: 6c04 803f 4b06 803f 6b74 7c3f d93f 803f
00000140: fa2d 7e3f d356 803f 0eae 7e3f 8316 803f
00000150: e996 7d3f 72c9 7f3f 3b21 803f 1045 803f
00000160: 5188 803f e24b 803f c73b 803f 1e1b 7e3f
00000170: 2563 813f 652f 823f 05ea 803f 58f6 7f3f
00000180: 65b1 7f3f 61eb 7e3f cafd 7f3f 36bb 803f
00000190: 9dc4 803f e3b8 803f 6af0 7e3f c067 7f3f
000001a0: 30eb 7e3f 4ba7 7d3f 9fb8 803f 2612 803f
000001b0: bdc9 7e3f 5b87 803f a7de 7d3f bb72 813f
000001c0: f5f1 803f af64 7e3f 6e12 813f 678d 813f
000001d0: 5f62 803f 22b4 803f 322f 7e3f e332 7f3f
000001e0: f455 7e3f ae80 7e3f 5f9d 7e3f 1ae5 7f3f
000001f0: d830 803f 3965 7f3f 236e 803f 88a3 803f
0.9943915 1.0091672 0.99555326 1.0044482 0.9896745 1.0109011 1.0043144 0.9934361
0.992563 0.9981972 1.0034868 1.0017385 0.99979186 0.99460083 1.0015837 0.99359363
1.0014324 1.0076549 1.0072166 1.0086826 1.0004196 0.99518627 1.0065923 0.9929659
1.0009912 1.0015414 0.9906259 0.9862189 1.0017824 0.9961831 0.9920765 1.005551
1.0020461 0.99764514 1.0004063 1.0050713 0.9992989 0.9889801 1.0075907 0.99739766
0.99646294 1.0102092 0.9943527 1.0039332 0.9988717 1.0058162 1.0047133 0.98923343
1.0149206 1.0006212 0.9965646 0.99785054 0.9972121 0.99631375 0.99718773 0.99822986
0.9924723 0.99268955 1.0087849 0.9869594 1.0158681 1.0013068 0.9988072 0.99487823
1.00073 0.9920197 0.9924281 0.99543834 1.0110915 1.002222 1.0016166 0.9920297
1.0036442 1.0073276 0.9921684 1.0080656 1.000135 1.000192 0.9861514 1.0019485
0.99288905 1.0026497 0.99484336 1.000687 0.99058396 0.99916756 1.0010141 1.0021076
1.00416 1.0023158 1.0018243 0.9926013 1.0108382 1.0170714 1.0071417 0.99985266
0.9988006 0.9957791 0.99996626 1.0057132 1.0060002 1.0056423 0.9958559 0.99767685
0.9957762 0.99083394 1.0056342 1.0005538 0.9952658 1.0041307 0.99167866 1.0113138
1.007384 0.9937238 1.0083749 1.0121278 1.003002 1.0054972 0.99290764 0.9968702
0.99349904 0.994151 0.9945888 0.99958956 1.0014906 0.9976383 1.0033611 1.0049906
