models/three_layers/no_batch_norm/threeLayerModel_emu_corrCut_0.8cutV2.pt (torch, 674213 bytes, 6 tensors)

model.0.weight f4 [512, 69]
00000000: c606 b9bc 723f d4bd 0ec0 cc3c 0665 8b3d
00000010: 7f80 4b3d 0c8a b63d c341 ca3d 6146 5c3c
00000020: 851e 6a3d 7770 44bd c683 c83d 68c9 a1bd
00000030: fd28 cb3d dc30 b1bd 58b6 7a3d 69d4 e0ba
00000040: 9b05 efbd d850 fd3c 0af1 58bd ee09 bdbd
00000050: 945e 973d 8fa8 31bd 2086 273d fe04 623c
00000060: bf82 ebbd e39c 9e3d 4329 adbd 734d ca3d
00000070: 4e9b c5bd f178 84bd 9c01 b7bc 6c5e 083d
00000080: c6a9 7ebc a919 dabd 117d 6cbd c490 9d3d
00000090: 1e74 be3d 61ea 8c3b ea4e 65bd 6fd0 e5bc
000000a0: 4257 d73d 5f06 9e3d 5247 3d3d 88d8 8c3d
000000b0: db93 b8bd 4252 2cbd ac2e b93c 154c be3c
000000c0: fccd 7b3d 809c dbbd c554 01bc 8b36 953d
000000d0: 3650 9f3d 426b 9b3c b5a7 ca3d 0033 f83c
000000e0: c42c 59bd 29c2 8bbd c906 9ab9 8aa0 813b
000000f0: 08b9 c43d 023d 023e b3cc 273d e1f0 ba3d
00000100: c50e c9bd 9a89 ee3d e86b 73be fb61 a9bc
00000110: e0c4 953d 3355 a53d 8dec 623d 14c2 303b
00000120: 5706 84bd e17d c2bc 4455 983d dc0f f23c
00000130: 548a efbc 1e3b dd3c 66f0 3e3d 350e 993d
00000140: daad b13c 1b8e d73d d714 543d f276 61bd
00000150: 52a0 a03d faa5 9abd f5a4 273d 8b15 423d
00000160: e45d aabc e30c 81bc 96a5 16bc c81d 483d
00000170: f747 cabd 217d 283d 39c4 1fbc b249 9cbb
00000180: d29d 84bd aa86 92bd 22b0 843c a606 f43b
00000190: f05d 29bd d995 c13c 87e6 13bd 1ce9 26bd
000001a0: c1fa 293c 2836 0a3c 7e68 cb3d 2e63 12bd
000001b0: 0605 49bc 56b3 a9bd ce53 efbd 6906 e83c
000001c0: 42f8 da3c 0d79 87bb f243 99bd 3d69 563d
000001d0: 9242 82bc 78ba c33d 3252 64bd 0c37 8fbd
000001e0: 6dd2 87bc bafa 763d f363 0e3d 66fd c9bc
000001f0: 8dff 873c 72ac c9bd 6ef9 273c 0b6a 3a3c
00000200: b0e8 eb3d cecd b2bd ab6c 96bd 8c4a b93d
00000210: 5c91 ce3c 381f bcbd 0dae afbd 7b43 fbbd
00000220: 0e9a 4abc 0462 b7bd 13cf cebc f0de 01bd
00000230: 4c3c 0dbd f6ba 9f3d 10f1 063b 8574 af3d
00000240: 8526 513d 38a8 86bd a5e7 4f3d 273a 253c
00000250: 27b2 adbc 94b6 0fbd 5c0b 223d 0cf5 d83d
00000260: 58dd 69bd dc9d c23d e48e 883d 687a ce3d
00000270: 64f5 7cbb 20ea 39bd adce a8bd e7b1 75bd
00000280: 1683 7d3d 3154 393d b9e9 ab3d 7406 49bd
00000290: 0413 82bb 8adc 343d a92f 583b a428 8abd
000002a0: 9fd1 3bbd 7b21 85bd cc1d 67bd d3f4 8fbd
000002b0: 3568 b0bd 11a5 00bd 7bed 69bd 6002 5c3d
000002c0: dcf6 b5bb ec4c c5bd 24e3 003e c6c6 85bd
000002d0: 7f0b 543d fa11 b43d f702 dabd fcc1 7ebd
000002e0: dad1 e1bb 5684 b1bd c998 a8bb 1f5b 11bd
000002f0: 4323 9abd 9adb fd3d 8c03 ddbc a8fb c7bd
00000300: 4f35 a03d 8e6d d3bc 6631 e33d 52f9 9c3d
00000310: ff35 bcbd ad18 0bbc b076 0ebc d42a f83c
00000320: 08d6 acbd ed91 fc3a 71ab 42bd 384b f2bd
00000330: ff49 0e3e ccf2 4c3d 4d40 e33d c374 f9bb
00000340: 1420 42bd 71af f03d f7ff 023e 3b5b dabd
00000350: 0f6e 06be 0197 42bd a809 773d 2314 9fbd
00000360: 82ac d6bd 98b8 56bd 7fd3 f1bd 1db6 93bd
00000370: 2370 e13c e154 c9bb bbb0 013c 7c3a b53c
00000380: 896a 973c 9328 b8bb 01fe 8a3c 7cd4 d03d
00000390: 3435 0abd c1a5 8d3d ce80 0cbd 3de7 b83d
000003a0: 1864 95bd 463e d43d 833d ef3d d515 df3d
000003b0: 4493 aa3d 7941 92bd fbf3 f03d 0d60 6fbd
000003c0: e83a b7bb 07a9 61bd ba83 ccbc cdad 14be
000003d0: 2384 9dbc 2a5f 8fb8 2c01 2c3d 7e86 473d
000003e0: 9456 d6bb 75e7 92bd ef11 48bd 19a1 81bc
000003f0: 5b61 433d 4f35 4fbd c3da 58bd 22f0 d23d
-0.022586238 -0.10363664 0.024993923 0.06806378 0.04968309 0.08913049 0.09875824 0.013444514
0.057158012 -0.047958817 0.09790759 -0.07899743 0.09919927 -0.08651897 0.061209053 -0.0017153147
-0.11670991 0.030922338 -0.052964248 -0.092304096 0.07391086 -0.04337364 0.040899396 0.013795136
-0.11499547 0.077447675 -0.08455136 0.098780535 -0.09648763 -0.0646838 -0.022339635 0.033293173
-0.015543407 -0.106494255 -0.05773646 0.076936275 0.09299491 0.004300401 -0.05598346 -0.02805349
0.1051469 0.07716059 0.046210594 0.068772376 -0.09012576 -0.042070635 0.022605263 0.023229638
0.06147574 -0.107232094 -0.007893746 0.07285794 0.07778971 0.018972043 0.09895269 0.030297756
-0.053021207 -0.068241425 -0.00029378224 0.0039559053 0.096056044 0.12718585 0.0409667 0.09127975
-0.0981727 0.11647339 -0.23771632 -0.020676604 0.073129416 0.08072891 0.055401374 0.0026971148
-0.06446522 -0.023741664 0.07438138 0.029548578 -0.029240765 0.027005728 0.04661598 0.07473413
0.021689344 0.10525151 0.051777687 -0.055045076 0.07843079 -0.07551189 0.0409288 0.047383826
-0.020796724 -0.015753215 -0.009194752 0.048856527 -0.098770075 0.041134957 -0.009751373 -0.0047695274
-0.06475414 -0.071545914 0.016197268 0.0074470816 -0.04134935 0.023631023 -0.03610852 -0.040749654
0.010374726 0.008435763 0.0993204 -0.035739116 -0.012269264 -0.08286159 -0.11685906 0.02832337
0.026729707 -0.0041343034 -0.07483663 0.052346457 -0.015900884 0.095570505 -0.05574245 -0.06992921
-0.016579831 0.060297705 0.034763288 -0.024656963 0.016601348 -0.098473445 0.01025234 0.011377822
0.11518991 -0.087306604 -0.073449455 0.09047422 0.025215797 -0.09185642 -0.085781194 -0.1226873
-0.012365831 -0.08954242 -0.025245225 -0.03170675 -0.03448133 0.07799332 0.0020590462 0.08567146
0.051062126 -0.06575054 0.050758023 0.010084665 -0.021203114 -0.03508623 0.039561614 0.10593614
-0.057095855 0.095027655 0.06667879 0.10081941 -0.0038598413 -0.045389295 -0.08242545 -0.059984114
0.06189259 0.045246307 0.083941884 -0.04907842 -0.003969552 0.044155635 0.0032987392 -0.06746033
-0.045854207 -0.065005265 -0.0564249 -0.070291184 -0.08613626 -0.03140742 -0.057111245 0.053713202
-0.0055531096 -0.09633812 0.12586647 -0.06532054 0.051768776 0.08792491 -0.10645097 -0.062196717
-0.0068914713 -0.08667819 -0.0051451665 -0.03548729 -0.07526257 0.12395401 -0.02697923 -0.097647965
0.07822668 -0.025809076 0.110934064 0.076647416 -0.091899864 -0.00848977 -0.0086952895 0.03029386
-0.08439261 0.0019269563 -0.04752678 -0.11830753 0.13895415 0.050036237 0.11096249 -0.007612796
-0.047393873 0.11752213 0.12792955 -0.10661932 -0.13127922 -0.04750729 0.060311943 -0.07767513
-0.10482122 -0.052422136 -0.11807918 -0.0721247 0.027519291 -0.0061441516 0.007915671 0.022122614
0.018483417 -0.005620071 0.016966822 0.10196778 -0.033742145 0.06916381 -0.034302525 0.0902848
-0.07294482 0.1036344 0.11681654 0.10892836 0.0832887 -0.07141394 0.117652856 -0.05844121
-0.005591739 -0.055092838 -0.024965156 -0.14519425 -0.019228047 -6.836497e-05 0.041993305 0.048712246
-0.0065410826 -0.07173053 -0.048845228 -0.015823888 0.047700267 -0.05058795 -0.052943002 0.10299708

model.0.bias f4 [512]
00000000: f945 efbd 230f 8bbd 9cf5 57bd 16a3 d2bd
00000010: dbbe d13d d68c 6dba cc28 c73c f9b6 92bd
00000020: 0e06 44bc 8c96 ad3d 5f1a 51bd e0d6 983d
00000030: 73af 343c 1faf e33d 8538 3b3b 9482 d5bb
00000040: 4858 c5bd 592f d63d 5a94 92bd 3c18 f6bd
00000050: 4e74 5bbd 1a74 24bd 404f dc3d 4bc7 18bd
00000060: d506 78bd 5ab7 d8bd aa85 9a3d c933 a7bd
00000070: 3727 653d 3c57 9abc 2340 d6bd 3330 bcbd
00000080: 9dda 603c 9bd6 9f3d 6248 b9bd c84f 923d
00000090: e2e1 e43d 7096 41bd f141 103c dd61 d6bc
000000a0: 45b6 e5bd 8458 8a3c 6f4d a83c b876 7e3d
000000b0: dd1c 3abd 5ade e23d a7b0 d33d ef2e d3bd
000000c0: 179a bb3d 0549 c43d 104a efbd 4e19 85bb
000000d0: a2bc 40bd 49bd 673d 0ba4 afbd d03f a7bc
000000e0: 79c7 c1bd 3500 c0bd 70c4 b53b 5166 2b3c
000000f0: aec0 8f3d 619d 89bd 7d11 97bd 17fa 863c
00000100: 3acd 023d 2cee ef3d d7db d23c 1755 95bc
00000110: c9d6 923d d62d 223c 2666 2e3d 4549 7abd
00000120: 3d65 3d3d 1069 a8bd 7a36 b83d f5e1 ee3d
00000130: cf9d b33d b5cc 6bbd d2cb a83d 0974 113d
00000140: be29 cbbd 4788 18bd 198c 02bd 017b 8f3d
00000150: 73ad 293c 2fb0 e8bd 8f26 873d c94f cabd
00000160: 8c1e 213d fe85 663d a118 b23c b49a 473c
00000170: acf5 473d 61de 253d 5864 03bd e579 d43d
00000180: ce85 b1bd 12ca dc3d f029 8d3d 1d05 cc3d
00000190: 4ca5 863d 0e28 b93d 00a2 66bd e3d3 af3d
000001a0: 8ee8 ea3d fe93 c6bc 611f 06bc 9918 c83d
000001b0: accc 03bd 3e88 07bd f4de 6cbd e5ed c53d
000001c0: 94fb b3bd 6555 6b3d 7edc 7d3c b0cc 76bd
000001d0: 417f e9bd 3aa0 913b 9084 abbd 099b 2c3d
000001e0: 1636 7fbb c1f8 8d3c a9d7 593c a653 c5bc
000001f0: 53fb b9bd 5a63 d83c fd20 e43d a0a2 a53d
00000200: 7837 913d 932d 11bd b4d0 e53a f601 ac3d
00000210: 052e d9bc 73e7 cdbc 56e7 b03d c458 963d
00000220: 2123 cbbd 49ee 543d 814a d5bd 7ca0 2bbd
00000230: 1518 c2bd 40af 9c3d 7f93 02bd fafc 1ab9
00000240: 8de7 f4bd 445d 72bd 66d7 91bd c7f7 da3c
00000250: 1e27 7ebb 241b ab3d edaf fabc ed1a f0bd
00000260: 626c d73d e3bf 2bbd 8699 493d 5328 63bd
00000270: 5d46 39bd d914 24bd b990 c7bd b837 12bd
00000280: 2037 2f3d 0ad8 d83d 057d c73d 35cd d3bd
00000290: 12ea b33d b3d3 04bc c038 c6bd 5a0b 89bd
000002a0: c7ca c0bd 973c 2bbc ddff 333d 83c7 ca3d
000002b0: 57cb 3c3d 63a8 8b3d e7de 203d e54f d23d
000002c0: dbcd 61bc ee0e 9a3d f4b6 5dbd ff26 1b3c
000002d0: f848 413d 8894 013e 9c72 643d 1bb0 c53d
000002e0: 321f 4abd 96e7 d23d cd13 10bd 8b09 c6bd
000002f0: a11b a4bd 5de1 a73b acf7 233d 6d9e d33c
00000300: 9f16 c13c 5764 cbbd 3028 5b3d dc7c b0bc
00000310: 020e 093c 6958 823d 5866 4cbd 8d7e 023d
00000320: ab4c a8bc ff8b 29bd cb4d a63c a982 abbd
00000330: 20eb ec3b 3a98 2ebd 0875 8e3d 0f6b b93d
00000340: 198a 95bc bf05 d4bd d90b afbd f55e 83bd
00000350: 4b0b 713c 32e0 ff3d 4ff2 d53d ab3a b03d
00000360: 0f8b 9cbd a64d bb3d 0e28 c0bd 1d73 273c
00000370: 1bab cbbd cafa 1dbd 74ec dabd b25c c53d
00000380: e594 2fbd 5282 ca3d 9325 453d 6376 8bbd
00000390: 92be a43c a33d 023d 21a5 883d bdf6 adbd
000003a0: 3ccc dabd d5ba b7bd 757d 70bc 787e e7bd
000003b0: 080e a9bd 183a 353d 3e70 153d f1fb f23d
000003c0: 3893 b13d d7aa 4abd 9f2e 023e bdab e53d
000003d0: a019 28bd 0c96 b33a b7ac 38bd 1715 833d
000003e0: 4984 dfbb 62ed 59bd 5255 9d3d e982 3b3d
000003f0: 9750 ab3d ecea c3bd 3e3d d9bd 9405 fe3d
-0.11683268 -0.067899965 -0.052724466 -0.102850124 0.10241481 -0.0009061819 0.024311446 -0.071638055
-0.011964334 0.0847598 -0.05105054 0.07462859 0.0110281585 0.11117386 0.0028567624 -0.0065158103
-0.09635979 0.104582496 -0.07157202 -0.12016341 -0.053577714 -0.040149786 0.10757303 -0.037299436
-0.06055339 -0.105818465 0.07545026 -0.08164174 0.0559456 -0.018840425 -0.10461452 -0.09188881
0.0137239965 0.078046046 -0.09047009 0.07144123 0.11175896 -0.04726261 0.008804784 -0.026169712
-0.11216406 0.01688791 0.020544736 0.062124938 -0.045437682 0.110775664 0.10336428 -0.10311686
0.0916025 0.0958424 -0.11684048 -0.0040618544 -0.047054894 0.056577 -0.085762106 -0.02041617
-0.094618745 -0.093750395 0.005547099 0.010461406 0.070191726 -0.06719471 -0.073763825 0.016476674
0.031934 0.117153496 0.025739593 -0.01822905 0.07169873 0.009898623 0.042577885 -0.06110503
0.046239126 -0.08223164 0.089947656 0.11664192 0.08770334 -0.05756827 0.08242001 0.03551105
-0.09920071 -0.03723934 -0.03187189 0.07005883 0.010356295 -0.11361729 0.06599151 -0.09878499
0.039335772 0.05628013 0.02174026 0.01218288 0.048818275 0.04049528 -0.032078117 0.10374812
-0.08668099 0.10780729 0.068927646 0.09961913 0.065744966 0.09040843 -0.05630684 0.08585336
0.114701375 -0.02424049 -0.008186192 0.09770317 -0.032177612 -0.033088915 -0.057829812 0.096645154
-0.08788219 0.057454485 0.015494464 -0.0602538 -0.11401225 0.0044441493 -0.08374894 0.04214004
-0.003894215 0.01733053 0.013296046 -0.024087738 -0.090811394 0.026414562 0.111391045 0.08087659
0.07090658 -0.035443854 0.0017533512 0.083988115 -0.026511202 -0.025134778 0.08637874 0.073411494
-0.0991881 0.05198506 -0.10414601 -0.041901097 -0.094772495 0.07650614 -0.031878944 -0.00014780826
-0.11958227 -0.059170976 -0.07121162 0.026729478 -0.003878064 0.08354786 -0.030601466 -0.11723886
0.10518719 -0.041931044 0.049218677 -0.055458378 -0.04523312 -0.040058944 -0.097444005 -0.03569767
0.04277718 0.10588081 0.097406425 -0.103418745 0.0878488 -0.008107114 -0.09678793 -0.06691618
-0.09413677 -0.010451457 0.043945182 0.09901335 0.046092357 0.068192266 0.039275076 0.10269145
-0.01378199 0.07522379 -0.054129556 0.009469747 0.04718873 0.12654316 0.055773363 0.0965273
-0.049346156 0.10298078 -0.035175133 -0.09669789 -0.08013082 0.005123301 0.04003112 0.02583238
0.023570357 -0.09931248 0.053505123 -0.021543913 0.008365156 0.06364519 -0.04990229 0.03185897
-0.02054437 -0.041393276 0.020300766 -0.08374531 0.0072301775 -0.042625643 0.06955916 0.09053623
-0.018254327 -0.103526585 -0.08547182 -0.06414596 0.014712165 0.12493934 0.10446607 0.0860494
-0.07643711 0.0914567 -0.0938264 0.010220316 -0.09944745 -0.03856925 -0.10689631 0.09636821
-0.042866606 0.09888138 0.048131537 -0.0680969 0.020110402 0.031797063 0.06672121 -0.08494327
-0.10683486 -0.08971182 -0.014678349 -0.11303419 -0.082546294 0.044244856 0.036483996 0.1186446
0.08670658 -0.04947933 0.12713097 0.11214397 -0.041040063 0.0013701334 -0.04508659 0.06400507
-0.0068211895 -0.0532049 0.07682289 0.045779143 0.08364981 -0.09566292 -0.10607384 0.12403408

model.2.weight f4 [256, 512]
00000000: 808f 013d 41e9 0ebd c3f1 0dbc 7adb b43c
00000010: 1464 f9bc 4cfe 8e3c 530e 373d 658d c43c
00000020: de2d 37bd 1c3b 8a3c 031d a7bc 62a6 f8bc
00000030: 2402 193d d1b5 2c3d d8c5 163d 187b d03c
00000040: c97f 85bb b3a5 0e3d 924d 9b3b 0d39 64bc
00000050: 8ea8 9c3c 232f 43bc 330d 4c3d 8893 fa3c
00000060: 8d0e 11bd 728f 40bd 4dd1 b7bc daa9 533d
00000070: 8f77 10bd 8bf5 253d 8bd2 3ebd 5c09 bebc
00000080: 781a bb3c afd2 de3c 6184 51bc b306 a93c
00000090: 043e 3a3c 6c4f cebc b0dc 26bd 8b6e a7bc
000000a0: 4a95 133d 1019 e739 d093 37bc 865a 0abd
000000b0: 3f7c a03a 8a59 9bba aa86 473d 8744 c5bc
000000c0: 8492 5b3d 67b3 193c 4e7c f93c c85e 43bc
000000d0: 8515 053d f1fd a8bc cf6e ba3c f8d2 ebbc
000000e0: d767 64bd 28c4 92bc edef 353b 369b f5bc
000000f0: cded 05bd 8769 33bd 14ac a23c d2eb 40bc
00000100: e0bf a03c 85c5 1fbc 0885 283d 93e3 853b
00000110: 8475 d93c b72b 68bd aebc 2ebd 3384 d2bc
00000120: cade 8dbc bc88 7a3c 90ff 153d ce2b a0bc
00000130: 5317 0bbd 5902 a9bc 3d49 1a3d 00a2 7b3c
00000140: 53e1 af3c 4699 ad3b af08 63bd 6961 adbc
00000150: 12bb 0e3d 3ca7 11bd ab1d 89bc e2c9 d4bc
00000160: f9db 563d 9c48 ad3b ceaa 783c 3ee7 da3b
00000170: 63d9 153d c296 b1bc eb6b 783d 09b6 82bb
00000180: 096e 543c 522f 863c fcec 51bd 2db6 80bd
00000190: 7f06 333c 4907 0b3c 011c a33a f433 25bd
000001a0: dba0 bf3c 7290 403d b730 64bc eb75 603d
000001b0: 6d53 1b3d d337 95bc e389 fe3c 56b3 333d
000001c0: af4d 2bbb 2850 59bc 5071 4dbd 5ed2 30bc
000001d0: 408e dcbb a0dc a8bb c5ea e5bc 560c 53bc
000001e0: a67b d63a 7e84 3cbd 0c74 42bd 2d3e a63d
000001f0: ff31 353d 4b5b 643d 648e 763c daa6 55bd
00000200: 7802 b1bd 74e7 cd3b 2df0 193d 8038 003d
00000210: f5fe b33b 0ae6 833c f633 84bd d63a 2dbd
00000220: 17fb b23c a568 1c3d 1415 9e3d 38b4 f9bc
00000230: 7d45 1e3c 4baa 843c b059 403d 55ed 4abc
00000240: 3d2b e8bc 0d20 c6bc a3c9 173d 4bc2 0a3d
00000250: b2d6 bebb ebe9 70bc dd62 bbbc 2293 cebc
00000260: 1ffd 1dbc 16d5 283d f7b3 01bd eb46 7cbc
00000270: 0ad7 d43c 7e35 90bd f24b 0bbd 54f7 e93c
00000280: 4834 203d ad7a 44bd 33a5 bdbc c30f 4b3b
00000290: e42b 4abc 2666 143d b042 91bc 33fd da3c
000002a0: 9a9a 59bd 391f 78bd ef51 003d d93c fcbb
000002b0: 0616 a8bc b60d 06bd 9302 823d 7c1c a33c
000002c0: b9ae 413c 3d60 5dbd 9ace d93c b914 43bc
000002d0: 4531 083d 63a0 a03d c600 20bd 5de1 5cbd
000002e0: 9167 ae3c f20b f5bc 6f3a c33c 860f 1abd
000002f0: f1f8 623d e5b8 b53d 3c74 f0bc ada8 8d3d
00000300: 8fb2 e8bc 0d76 813c ca6b 823d 182c 163d
00000310: 60e7 6d3d 7d37 48bd 390d 7cbb c0ef 4dbd
00000320: 4762 8fbc 9312 54bc 8f45 a8bb 4e3c 32bd
00000330: 0603 1ebd 793a 66bd fa01 afbc 0c08 163d
00000340: 2680 73bc 84fe f2bc 42aa 83bd 7160 dabc
00000350: 0eef 6ebc 2374 773d e6dc 4abc e1fe b63b
00000360: ddea c7bc bffa 4ebc e3bd bfba c1cf e13c
00000370: 68af 4c3c 6f31 4b3c 642a 1ebb 924d 423d
00000380: 60e2 e8bc dd2b 143c a514 1fbd d611 82bc
00000390: 8642 e23c af77 1dbd 38fd 11bd 74a2 e9bc
000003a0: b837 98bd 003b 193d 2908 6bbc 6cb7 fdbc
000003b0: 6e56 ac3c 9cf8 1fbd 40ae 163d b4a4 c0bc
000003c0: 8816 263d 004c 0f3c d7ce 963d fa31 e83b
000003d0: 8a23 8f3c f725 d9bc 5396 8a3c 79b4 963c
000003e0: 1765 e03c 2ba4 87bd aec3 cabb 0fab 29bc
000003f0: 615b 18bd 0e8a abbc 496c a0ba 01de bb3c
0.031630993 -0.034890417 -0.0086635975 0.02207731 -0.030443229 0.017455243 0.044691395 0.023993203
-0.044721477 0.016873889 -0.020399576 -0.030352775 0.037355557 0.04216558 0.036809772 0.02544932
-0.004074071 0.03482599 0.0047394717 -0.013929618 0.019123342 -0.011913094 0.049817275 0.030587927
-0.035414267 -0.0470118 -0.02243867 0.051675655 -0.03527027 0.04051737 -0.04658751 -0.023197822
0.02283977 0.027200071 -0.012787909 0.020633077 0.011367325 -0.025184356 -0.040737808 -0.020438453
0.036031045 0.00044078426 -0.011204675 -0.033777736 0.001224406 -0.0011852246 0.04871241 -0.024080528
0.053606525 0.009381152 0.03045478 -0.011924453 0.032491226 -0.020628901 0.022757916 -0.028787121
-0.055763092 -0.0179158 0.0027761415 -0.029981237 -0.032697488 -0.04380181 0.019857444 -0.011774974
0.019622743 -0.009751682 0.041142493 0.004085967 0.026545294 -0.056682315 -0.042660408 -0.025697803
-0.017318148 0.015291389 0.036620677 -0.019552138 -0.03395779 -0.020631002 0.0376675 0.015358448
0.021469748 0.0052978126 -0.055428203 -0.021164613 0.034846373 -0.035559878 -0.01673778 -0.025975171
0.052455876 0.0052881967 0.015177442 0.0066803982 0.03658427 -0.021678332 0.060649794 -0.0039889854
0.012965688 0.016379986 -0.051251397 -0.06284747 0.010926842 0.008485624 0.0012444259 -0.04033275
0.023392132 0.047012754 -0.01392763 0.054799955 0.037921358 -0.018215096 0.031071609 0.0438722
-0.0026138832 -0.01326374 -0.05015689 -0.010792343 -0.0067308247 -0.0051532537 -0.028066048 -0.012881359
0.0016363754 -0.046024792 -0.047473952 0.08117328 0.044237133 0.055751126 0.015048597 -0.052161075
-0.08643049 0.006283695 0.037582565 0.031303883 0.0054930397 0.016100902 -0.06455223 -0.04229244
0.021848245 0.038185734 0.07718864 -0.030481443 0.009660122 0.016194483 0.046960533 -0.012385686
-0.02834093 -0.024185205 0.03705753 0.0338767 -0.0058239335 -0.014704208 -0.02287429 -0.025216643
-0.009642868 0.04121884 -0.03166577 -0.015397768 0.025981445 -0.07041453 -0.034007974 0.028560318
0.03911236 -0.047968555 -0.023150062 0.0030984737 -0.012339566 0.03623023 -0.017731994 0.026732063
-0.053125955 -0.06057665 0.031328138 -0.0076976833 -0.020518314 -0.03272792 0.06348147 0.019911043
0.011821442 -0.054046858 0.026587773 -0.011906796 0.033250112 0.07843091 -0.039063238 -0.05392586
0.021289619 -0.029912923 0.023831574 -0.03761246 0.05541319 0.088731565 -0.0293523 0.06916938
-0.028405456 0.015803361 0.063682154 0.036663145 0.058081985 -0.048881043 -0.003846003 -0.05027747
-0.017502917 -0.012943882 -0.005135245 -0.043514542 -0.038577102 -0.056208108 -0.021363247 0.036628768
-0.014862096 -0.029662378 -0.064289585 -0.026657315 -0.014583362 0.06041349 -0.012381768 0.005584583
-0.024403984 -0.012633025 -0.0014628734 0.027564885 0.012492992 0.012401923 -0.0024134154 0.047437258
-0.028428257 0.009043661 -0.038838048 -0.015877645 0.027619611 -0.038444217 -0.03564188 -0.028519846
-0.074325025 0.037409782 -0.014345207 -0.030971251 0.021037307 -0.03905545 0.03678727 -0.023516037
0.04054883 0.008746147 0.0736367 0.007086036 0.017473001 -0.02650736 0.016917383 0.018396603
0.027391953 -0.066231094 -0.0061878776 -0.010355725 -0.03719652 -0.020939853 -0.0012239303 0.022933008

model.2.bias f4 [256]
00000000: 0e31 96bb 940f abbc 6e72 14bd 5520 653c
00000010: 97d8 23bd 558f 3f3c f906 39bd e0e4 2a3d
00000020: f6f8 9fbc 2db0 f4bc edfa 333d 3579 97bc
00000030: 9b32 3d3c b985 e8bc 65e3 40bb d378 703c
00000040: bdf3 023d 10c7 d43c 1716 10bd 1bfd adbc
00000050: d38f 86bc d85f 133c fdf1 0dbd 20fe 65bc
00000060: f7ea 5dbc 1669 883c 9523 fe3c cb6e cfbc
00000070: 48c0 313d 6af4 bf3c 8136 013d 27be 093d
00000080: ec16 d6bb f4bd 24bc 9629 37bd e01a a1bc
00000090: ae1c c93c 1767 52bc 415f 203d 45f7 3d3b
000000a0: 05ac 2d3c 8bb7 81bc 3b55 3bbc d8e0 223c
000000b0: 3f79 3ebc 978f 2bbc 7600 f1ba ad27 a8bb
000000c0: c71c 75bc a8f7 bcbc 3366 0d3d aab9 f1bc
000000d0: ffbe fe3c 49c9 94bc 6efc 2bbd db31 b43c
000000e0: 3c94 1d3d 2700 efbc 9057 f6bc e725 fabc
000000f0: bd6b 293d 7578 bc3c 0d7f 7e3c e474 aa3c
00000100: 4497 0abb 8eb1 7fbc 1fad 003d 730d bf3c
00000110: 1081 df3c c705 e6bc a13a 0c3d ae3f 4f3c
00000120: 978f 403d 22cc 473c d279 123a ffbd d33a
00000130: 387c ed3c b9f9 293c 9af1 e5bb 91f0 2e3d
00000140: 0bd0 f53b f7e6 debc 129a 533b 32f1 5fbc
00000150: 5777 18bd a4e1 3f3d 6b64 ce3c e20a 813c
00000160: fb0e 11bd 52a6 333b d811 373d 5fcd c03c
00000170: 1be1 c63c 4abe 043d bded 2e3c 2273 9c3c
00000180: 22c3 53bc 6699 d53c 0eb9 f9ba 14f1 1c3c
00000190: 1329 9fbb 0d10 bb3b 576d a13c e6e4 19bd
000001a0: 438e c33c 9751 37bc 4455 e73c 21a1 7ebb
000001b0: ef47 c33c 3a1f f8bb e18a acbc 8da3 a33c
000001c0: 3754 be3b 752f 1c3d 5e8b 13bd 9f84 17bd
000001d0: 42ce 293d 088b f53c 9a06 dfbb 6710 a93a
000001e0: a03d 4bbb 7efa efbb eeef f8bc c47b 23bd
000001f0: 9c47 06bd 0f3a 653b f3ef 223d 7b7c 26bd
00000200: 268b 8fbc c577 32bc 25c8 b63c a659 1b3c
00000210: ba66 0ebd 5720 24bd 538b ef3b fd33 143d
00000220: 3143 febc b9e3 373d 88dc 023d 0b5a 3ebd
00000230: d646 b73b d40b abbc a54d fabc e914 34bc
00000240: 448c 32bd 8d5f c5bc 444c edbb f4db de3b
00000250: d2c2 3abd 0eb0 2cbd 0289 98bc b20f 333b
00000260: 2f59 323d 42c5 5dbc 5f25 f4bc 2d86 173d
00000270: d5de b3bc f779 0e3b 5117 e23c 3caa a03c
00000280: 8264 dcbc b6b6 013d 3962 05bd 7cd8 9fbc
00000290: ade0 483d 9e25 98bc 6f32 78bb 311f c7bb
000002a0: acee 32bb 4c15 363c 6c15 07bc 2eb1 053d
000002b0: 9f94 e73c 0f0c aabc 1e42 01bd 4026 a2bc
000002c0: baa7 bcbb e077 7fb9 597e ec3c 1c68 273d
000002d0: 1334 e3bc e032 13bd 5cf9 be3b affc 1c3d
000002e0: 3a66 ee3a 7823 34bd bfaa 313d 4290 383d
000002f0: 0a6d fd3c 6358 a73c b4ab bcbc b2b3 ecba
00000300: 8c10 cb3c 52fc f7bc baa4 043d 113f cc3c
00000310: c9d3 cebc 6308 463a 3852 fd3c 1c14 a8bc
00000320: d607 5f3c be79 183d 5156 3ebc 3984 a1bb
00000330: 2ade afbc ec0f 043d 0dfe dabc d775 0cbd
00000340: 9118 2f3d aaa7 3e3d 3a7f d4bb bc07 f0bb
00000350: e45f 12bc 78e6 ecbc ab79 aa3c 4736 10bc
00000360: 0103 2e3d 6256 31bd 7b3f 1d3d 7825 363d
00000370: 2ec8 3b3d 1b8a 483d 86d7 7abc 3fe5 49bc
00000380: bcfd 5cbc 047e cabc 7ba1 ea3b 54ec d6bc
00000390: f392 313d 84a6 a93b 8296 41bc 000b be3c
000003a0: 072b b6ba ffab 00bd 97d7 f03c db23 cebc
000003b0: 7f9e c13c 628b c73c c609 c7bb 4cce abbc
000003c0: f0b2 2139 089b 89bc 44b3 203d b759 b43c
000003d0: 269a 6f3c 5f15 c1bc 6ed0 8d3a 0440 21bb
000003e0: 64e3 003d a5bf 45bd 4ab6 00bd a181 c63c
000003f0: 9cc8 e5bc a821 d5bb e5c6 133d e307 4a3c
-0.0045834845 -0.020881452 -0.03624194 0.013984759 -0.040001478 0.011691888 -0.045172665 0.04172218
-0.019527894 -0.029869163 0.043940473 -0.018490413 0.01154771 -0.028384076 -0.0029432413 0.014677244
0.03197073 0.025973827 -0.035177317 -0.021238854 -0.016426003 0.008995019 -0.034654606 -0.014037639
-0.0135447895 0.016651671 0.031022826 -0.025321385 0.043396264 0.023431975 0.03154612 0.03362861
-0.006533494 -0.010055054 -0.044717394 -0.019666135 0.024549808 -0.012841961 0.03915334 0.0028986495
0.010600095 -0.01583459 -0.011433895 0.009941302 -0.011625587 -0.010471246 -0.0018386978 -0.005131683
-0.014960474 -0.02306731 0.034521293 -0.029507477 0.031096933 -0.018162386 -0.041988783 0.02199643
0.038471445 -0.029174877 -0.03007105 -0.030535651 0.041362513 0.023006657 0.015533221 0.02080769
-0.002114729 -0.015606297 0.0314151 0.023321843 0.027283221 -0.028078927 0.0342356 0.01264946
0.047011938 0.012194665 0.00055876106 0.0016154646 0.028989896 0.01037448 -0.0070173265 0.04270989
0.0075016073 -0.027209742 0.0032287878 -0.013668345 -0.037223186 0.046846047 0.025194367 0.01575226
-0.035414677 0.0027412367 0.04469475 0.023535429 0.02427726 0.032408036 0.010676798 0.019097868
-0.012924941 0.026074123 -0.0019052343 0.009578962 -0.0048571914 0.0057087005 0.019705458 -0.03757181
0.023871547 -0.011188886 0.0282389 -0.0038853365 0.023838012 -0.007572082 -0.021062316 0.019975448
0.005808379 0.038131196 -0.036021583 -0.03699171 0.04145647 0.029973522 -0.006806207 0.0012898565
-0.0031012073 -0.007323562 -0.030387845 -0.039912954 -0.032783136 0.0034977233 0.039779615 -0.040646058
-0.017522406 -0.010892813 0.022312233 0.009481823 -0.034765936 -0.040069904 0.00731031 0.036182392
-0.031037899 0.044894908 0.031948596 -0.04647259 0.005593161 -0.020879664 -0.030554602 -0.0109913135
-0.0435908 -0.024093414 -0.0072417576 0.006801123 -0.04559595 -0.042160086 -0.018620018 0.0027322588
0.043542083 -0.013535799 -0.029802976 0.036993194 -0.02195684 0.0021740177 0.027599009 0.019612424
-0.026903395 0.031668387 -0.032564376 -0.019512407 0.049042393 -0.018572625 -0.0037871858 -0.0060767164
-0.0027302904 0.011113476 -0.0082448535 0.032639675 0.02826911 -0.020757703 -0.031557195 -0.01979363
-0.0057572993 -0.00024363352 0.028868841 0.04087077 -0.027734792 -0.03593719 0.005828066 0.038326915
0.0018188425 -0.043979138 0.043375727 0.04505945 0.030935783 0.020427888 -0.023031093 -0.0018058924
0.024788164 -0.030271683 0.032383658 0.024932416 -0.025247471 0.00075543503 0.030922994 -0.020517401
0.013612708 0.037225477 -0.011617259 -0.0049290922 -0.02146824 0.032241747 -0.026732469 -0.03429207
0.042748038 0.046546616 -0.006484893 -0.0073251408 -0.008933995 -0.02891849 0.020809969 -0.008802003
0.042483333 -0.04329527 0.038390618 0.044469327 0.045845203 0.048959833 -0.015310174 -0.012322723
-0.013488229 -0.024718292 0.0071603633 -0.026235737 0.043353032 0.005177321 -0.011815669 0.023198605
-0.0013898321 -0.03141403 0.029399676 -0.025163582 0.023635147 0.024358455 -0.006074163 -0.020972393
0.00015420816 -0.016797557 0.03923346 0.022015436 0.014624154 -0.02356976 0.0010819563 -0.0024604807
0.031466857 -0.04827847 -0.031423844 0.024231734 -0.02804976 -0.0065042563 0.036078352 0.012330982

model.4.weight f4 [3, 256]
00000000: 466f 653d 972c 42bd 6e5d f93c 6c34 80bc
00000010: 57bf 57bd fdfc 093d 9207 82bc d116 533d
00000020: 83b6 f73c 886c 3e3d dc5b fa3b 4637 72bb
00000030: 5921 25bd fc34 473c 5cf5 4ebd ff9f 863c
00000040: 5cba 553d a063 283d d0cf 6e3a 4915 253d
00000050: 1572 9f3d 45d9 9f3c f97d 2cbd e0b1 78bd
00000060: a23b 55bd d3f2 c6bb cd66 8e3d 22ff 463d
00000070: 2f56 383d d62c 673a cd5a b63b 28a6 2fbd
00000080: ef90 013c d021 53bd 21f9 85bd d4a3 9bbc
00000090: 1a59 313d 56e9 ea3c c5f8 053c 08f5 273d
000000a0: 6fb6 79bc 88f7 173d 3221 e3bc fdb6 21bc
000000b0: 20bb 453c 95d0 1cbe 248d dbbc 3664 98bc
000000c0: 3938 363d 7ec2 36bc 9b15 f8bc f159 61bd
000000d0: bce1 913d a1b3 ac3c deab ccbc 82db 82bc
000000e0: 1503 2a3b de5a cfbc 138e f7ba ba04 d63c
000000f0: d464 1cbc 24ca 48bd 0864 a7bd 9d31 e23d
00000100: 2d1a d03c 5701 01bd 210f 623d 3497 31bd
00000110: 3108 e4bb f0c6 9f3b 2c27 703d 7afb 503c
00000120: a08b 253d 53a9 ebbc caf3 e93c 0d2d 68bd
00000130: d67b 5c3d cf17 063d 0349 6e3d 7ce3 9cbb
00000140: 8394 b43c f6a5 0bbd c377 a53b 91ab d6bc
00000150: d10c 763d 7b2d e33c bcc9 0e3d 4fa0 88bd
00000160: 081a 93bc 0c57 5b3d 6f9e 433c 4bfd 57ba
00000170: 692f 8ebd e5f5 f03c 23c8 e73b 905e 963c
00000180: 3097 3a3d 933b 053d e14e 293d 353b 87bc
00000190: 11e7 aa3d a752 b4bb 5bcb 763d 78f5 61bd
000001a0: a0ad 3dbd 502f fdbc 44a7 193e 3756 bebc
000001b0: ddb5 4d3d 53e8 e0bc f695 60bd 9e58 5abc
000001c0: 2900 c5ba 04b0 833c 050a c83c a6aa c13b
000001d0: f93c 1abc 8019 983d 10bc 25bd c768 cdba
000001e0: 7c81 b7bd 4683 fd3c 6083 17bd 286d 273d
000001f0: 6bac 0c3d f347 3cbb c528 b83c 3e79 ab3d
00000200: 2f04 9e3d 4301 263d b83c c43c e6a6 503d
00000210: 29df babd 05f6 853d 4daa 813d 0bb4 d0bc
00000220: b5b0 053c bd26 2f3d 7723 573b c952 0cbd
00000230: bdb4 2a3d 6787 153d 54dd a7bb 3a8a d83d
00000240: a34b 863d d7fc 8c3d 52ef 22bd 5a38 d83c
00000250: c53d debb 57f7 71bd 7917 153d 623f 74bb
00000260: 88ff a93d fee0 de3b d79e 023d 77a6 703d
00000270: d33d 033d 4c95 013d db76 853c b670 e23b
00000280: 6acb 8e3a 958a 6a3d 13cb 0a3d dedd e93c
00000290: 0937 603d bed6 5fbc 6e6f 56bd 0aa1 5b3d
000002a0: 3b54 f8bd 5e7b e63c 755a 363d f494 d2bd
000002b0: 98a3 313d 79cb da3c cf09 e13a 3259 4e3d
000002c0: 817c ba3c 7d21 d4ba 829e 0dbd 96d7 c0bb
000002d0: ae68 8cbb 6b3f a83c 3ac3 c63c db60 573d
000002e0: a5a2 1b3c 6169 b1bd cf80 5d3c 60c2 1237
000002f0: c030 3fbd 25bf 043d 103d 973c 60a1 833c
00000300: 3fd0 25bd 7222 08be 650c 843d d413 123d
00000310: 8c09 aebc d16c d1bb 3252 893d b279 45bd
00000320: 591e a7bc 1a61 303c 94ce 83bd bd2c ef3c
00000330: 4540 11bd 2f97 98bd 4362 9f3d d433 edbc
00000340: 4624 663c 0811 163d d82d ea3d 8f4c e73b
00000350: e67d 833c 55ca 84bc 41c3 9cbc ac61 42bc
00000360: cc72 49bd 2211 383d 4bec 163b 2ed5 41bd
00000370: 6ed7 f63b 830f 063d 75a0 9f3b 1f08 a6bc
00000380: 15ba 683c 3af7 08be 00e6 bd3c 15df 4cbc
00000390: 964b 4d3d 4d38 113d c271 39bc 66b3 a23c
000003a0: 8e82 be3d 2ce7 6b3b 584a 95bd 47f3 d83c
000003b0: 0a29 3c3d 4849 09bd 7357 873d f5d5 59bb
000003c0: 6ce8 9b3b 5c16 d1bc a79b c33c a9a3 653c
000003d0: 8b99 ddbd 3517 e43c 114f cfbc 0481 88bb
000003e0: c3e1 243d 5d40 86bc 1600 5f3d ab19 97bd
000003f0: 8884 4abd cd46 2c3c 9f04 543d 5c24 063d
0.05601432 -0.047405805 0.030440059 -0.015649997 -0.05267271 0.033688534 -0.01587275 0.05153543
0.030238396 0.046490222 0.007640345 -0.0036959215 -0.040315006 0.012158629 -0.05052696 0.016433714
0.05217968 0.041110635 0.0009109946 0.040303502 0.07785431 0.019512782 -0.042112324 -0.06071651
-0.052058823 -0.0060714274 0.069532014 0.048583157 0.045004066 0.0008818632 0.0055650235 -0.04288307
0.00790809 -0.051545918 -0.06541658 -0.018999018 0.043297864 0.028675716 0.008176987 0.041005164
-0.015241249 0.0371013 -0.02772579 -0.009870288 0.01206854 -0.15313943 -0.0268007 -0.018602472
0.04448721 -0.011154769 -0.03028374 -0.055017415 0.071231335 0.021081747 -0.024984296 -0.01597381
0.0025941778 -0.025311884 -0.0018886946 0.0261253 -0.009545524 -0.0490209 -0.08173376 0.11044619
0.025403107 -0.03149542 0.05519021 -0.04335709 -0.0069589843 0.00487601 0.058631107 0.012755269
0.04041636 -0.028767264 0.02855863 -0.05668359 0.053829037 0.03273755 0.0581751 -0.0047878604
0.022043472 -0.03409382 0.005049677 -0.026204856 0.060070816 0.027731648 0.034860358 -0.066712014
-0.017956749 0.05354981 0.011939629 -0.0008239343 -0.069426365 0.029414127 0.0070734187 0.018355638
0.04555434 0.032527518 0.04133499 -0.016507724 0.08344854 -0.005503017 0.06025253 -0.055165738
-0.04630816 -0.03090635 0.15005213 -0.02323447 0.050222266 -0.02745453 -0.054830514 -0.013326792
-0.0015029955 0.016075142 0.02441884 0.0059102355 -0.009413951 0.07426739 -0.040462554 -0.0015671485
-0.08960244 0.030946385 -0.036990523 0.040875584 0.034344118 -0.0028729409 0.022480378 0.083727345
0.07715642 0.040528547 0.023954734 0.050940417 -0.09124596 0.06541065 0.063313104 -0.025476476
0.008159806 0.042761553 0.0032827535 -0.034258638 0.04167627 0.036506083 -0.00512282 0.105732396
0.06557395 0.06884163 -0.039779015 0.026394058 -0.006782266 -0.059073772 0.03639934 -0.0037269224
0.08300692 0.0068017235 0.031889763 0.058752503 0.032041382 0.03163652 0.016292026 0.006910409
0.0010894362 0.05726107 0.033885073 0.028548177 0.054739986 -0.013662038 -0.05235236 0.053620376
-0.12125441 0.028134998 0.04451986 -0.10282317 0.043368906 0.026708351 0.0017169061 0.050378032
0.022764446 -0.0016184297 -0.034574993 -0.005885075 -0.0042849397 0.020538053 0.024263013 0.052582603
0.009499227 -0.086626776 0.01351948 8.747535e-06 -0.04667735 0.032408852 0.018461734 0.01606816
-0.040481802 -0.1329439 0.064476766 0.03566344 -0.021244787 -0.0063911458 0.06705131 -0.04821176
-0.020400213 0.010765338 -0.06435886 0.029196138 -0.035461683 -0.07450711 0.07782414 -0.028955378
0.014046734 0.036637336 0.11434525 0.007058687 0.016051244 -0.01620976 -0.019136073 -0.011864107
-0.049181744 0.044938214 0.0023029025 -0.047322445 0.0075330054 0.032729637 0.004871423 -0.020267544
0.014204522 -0.1337556 0.023180962 -0.012504359 0.050120912 0.035454083 -0.011318626 0.019860934
0.09302245 0.0035995943 -0.072895706 0.026483191 0.045937575 -0.033517152 0.066084765 -0.00332391
0.0047579315 -0.025523357 0.023877932 0.01401607 -0.108203016 0.027843097 -0.025306256 -0.0041657705
0.040254366 -0.016388113 0.05444344 -0.07377943 -0.049442798 0.010514927 0.05176222 0.03274952

model.4.bias f4 [3]
00000000: b2ce 183c 48fb 0a3c 4325 843c
0.009326624 0.008482762 0.016131049
