models/bad/twoLayerModel.pt (torch, 88659 bytes, 4 tensors)

weight f4 [256, 80]
00000000: 3154 33bd c16d 9abe 41cf aebe 62b4 7f3e
00000010: d8aa f0be 9910 093e 16d2 333f 213f f93e
00000020: 8101 e83d 3a20 883e c93a f23e 8c00 3c3e
00000030: 7409 053f 6605 a03e 3e8d 54be defe da3e
00000040: 1837 51bd bed0 783d 6f39 d8be e7f4 6fbe
00000050: cba0 bbbe 7170 51be cfc8 babc 8392 41bd
00000060: 235c c53e 32e4 973e 582a 4b3f 7137 04bf
00000070: 7ee9 e53d c0d9 7ebe 3420 fabe 5229 8fbe
00000080: b0bb 143e 239c bc3e c661 a9be ded2 ec3c
00000090: 06cc d53e 647e dfbd 24fa d5be c534 7c3d
000000a0: c6c2 e33e b399 c8be 8cf5 b63d 5421 ae3e
000000b0: 6ff8 af3e ea17 c8be 52d0 bd3e 9654 f33d
000000c0: bda2 5cbe e419 9bbd a199 ab3e 2390 63bd
000000d0: 95e0 4ebe 0281 863e 331f 413b 07b3 b43e
000000e0: a63a 25be 1399 e53c 70d5 dabe 5adf 36bd
000000f0: 042d afbe 2421 a73d eab7 9a3b 809d d0bd
00000100: cd7b 0ebf f6e7 e93c d731 09be 0339 a13e
00000110: d166 e1be a07f ed3d 26de cbbb c777 c7bf
00000120: 859f 643e da16 e13d 8e72 383f 676c 223f
00000130: 19f8 573f d38a e6bd aec0 9a3e ff70 95be
00000140: d24c 983e 3321 a1be 9bb0 98bd 6415 0cbf
00000150: 6e16 8bbd 5b22 a1be 96a6 b5be 2e81 5e3e
00000160: 9893 df3d 5aef ecbe 1760 e53d e01c 373e
00000170: ce17 343f c897 5abf 9460 ba3c c321 9b3e
00000180: 4588 83be 60de 93be dab7 fc3d e853 803d
00000190: fc3f 823e a49d a73c b06c cb3e 5e8c aa3e
000001a0: 2366 d93b 73e5 b93e 1eb7 d9be 1d25 053f
000001b0: 458f de3e 3099 70bd 9941 c63d 16be d3be
000001c0: 1c53 55be 7757 4fbe 50d5 5e3e de00 38be
000001d0: 3545 3fbe 5c80 8c3e aba2 e83d a89c 913d
000001e0: 8d94 21bf 6bcc 1a3e 5fdc 9abe 0dca 74be
000001f0: 0798 2b3e 53ee dbbd 778e d13e 2351 4a3e
00000200: 4f2b 6f3c 6c3c 09be 6544 ce3e 309f 273e
00000210: f179 dfbe 2d8e 903e b713 053f bdb0 62be
00000220: 98ff 91be 5420 3e3e 2151 85be 460f eabd
00000230: b71a 933e c067 9d3d 6cfb afbe 4d7a 2e3d
00000240: 6723 6abd 07e0 773e 891f c0bd 7178 1b3e
00000250: b7c9 babc 2af7 c43e 6fa0 89be bbfe a63e
00000260: 8858 e9bf 46ac 5cbf 2b97 25bf 9a25 41bf
00000270: 8a7d 39c0 5ba0 103f 986e c4be 793e 1f3d
00000280: 5a3e bfbe 9cf9 e4be 0177 75bc e5b2 85bf
00000290: 1088 fc3e 43f7 3fbf 240f 1fbf 285a a53e
000002a0: 8418 ac3e a211 0e3f e7f5 fa3d 8f9e 1dbf
000002b0: 8a7c 09be 4c94 e03e 90c1 3fbe d0de 8abf
000002c0: 9fdf b1be f141 91bd 0a0d 2b3f cb41 043d
000002d0: 0405 0bbe c0e9 54be b12b 5bbe 1431 14bf
000002e0: f7b7 323f ae47 cc3e ba3e 803e a861 8ebd
000002f0: d63d 693e a87c 9fbd d916 023e 2e4a a5be
00000300: 4428 00be ac65 0f3e f66d a53a b437 313d
00000310: 4504 9cbe 72c3 e33d f7e2 da3e cc96 48bf
00000320: dc86 e7bd f87b 6dbe 6d46 9e3e 38bf fd3d
00000330: e105 e13e b9dd 0bbe 6bcc 01bf bc86 193f
00000340: 2d14 b73b c39c 0d3f 1560 f6be a60d 8e3e
00000350: 0c8a 07be 6c08 e83e 7be2 cd3c cea3 b3bd
00000360: 2a0a 0c3f 59bf 023e 452f 0abf c6d9 183e
00000370: 2565 033f 2e3f 42be 4e03 9bbb c9ed 9dbd
00000380: 7b90 bc3e 45a3 423f ae27 08be 9a3c e6bd
00000390: 274d 873e 33b6 9abe ec34 bc3e 7dd1 133f
000003a0: ce62 f9be 786a a7bd 8237 10bf b084 84be
000003b0: 3818 2cc0 5a73 abbe 3946 82be 2944 8a3e
000003c0: 3d8b d63e 7ce1 653e 6e4c d73f 557b 4fbf
000003d0: ddfe 38bf 526c 003d 94e0 89be df06 eb3e
000003e0: 13fb ff3e be17 7ebf 2868 2fbe 6d10 053f
000003f0: 6b7e 653e e7ab dabe 5840 f7be 4009 6f3e
-0.043781463 -0.3016186 -0.34142497 0.24971154 -0.47005343 0.13385238 0.7024244 0.48680976
0.11328412 0.26587087 0.47310475 0.18359584 0.5196755 0.3125412 -0.20757005 0.42772573
-0.051077932 0.060745947 -0.42231318 -0.23433267 -0.36646113 -0.20453049 -0.022800831 -0.047258865
0.38546857 0.29666287 0.79361486 -0.51647097 0.11226176 -0.24887753 -0.48852694 -0.27961212
0.14524722 0.36837873 -0.33082408 0.028909143 0.4175722 -0.10912779 -0.41792405 0.061573762
0.44484538 -0.39179763 0.08933553 0.34009802 0.34369227 -0.39080745 0.37072998 0.11881368
-0.21546455 -0.075732976 0.33515647 -0.05555738 -0.20202859 0.262703 0.002946806 0.35292837
-0.16135654 0.028027093 -0.42740965 -0.0446466 -0.34214032 0.08160618 0.0047216313 -0.10186291
-0.55657655 0.02855299 -0.13397919 0.3148881 -0.44023755 0.11596608 -0.0062215505 -1.5583428
0.22326477 0.10990687 0.72049797 0.6344666 0.8436294 -0.11256947 0.30225128 -0.29187772
0.2974611 -0.31470641 -0.0745556 -0.5472014 -0.067913875 -0.31471524 -0.35478657 0.21728966
0.10916823 -0.4627636 0.11199968 0.17882109 0.70348823 -0.8538785 0.02275113 0.30299196
-0.25689903 -0.28880596 0.123397544 0.06266004 0.2543944 0.020460911 0.3973136 0.33310217
0.00663449 0.36307868 -0.4252252 0.52009755 0.4346868 -0.05873984 0.096804805 -0.41355962
-0.20832485 -0.20248209 0.2176106 -0.17969081 -0.18678744 0.2744168 0.113591515 0.07109958
-0.63117296 0.15117042 -0.30246255 -0.23905201 0.16757213 -0.10738816 0.40929005 0.19757514
0.014597728 -0.13401955 0.40286556 0.16369319 -0.4364772 0.28233472 0.5198321 -0.22137733
-0.28515315 0.1856702 -0.2603846 -0.114286944 0.2873132 0.07685804 -0.34371507 0.042597104
-0.05716267 0.24206553 -0.09381015 0.15182664 -0.022801263 0.3846982 -0.26880214 0.3261622
-1.8230143 -0.8620037 -0.6468379 -0.75448 -2.8982873 0.56494683 -0.38365626 0.038877938
-0.37352258 -0.44721687 -0.014981986 -1.0445219 0.49322557 -0.74986666 -0.6213248 0.32295346
0.33612454 0.55495656 0.122539334 -0.61570066 -0.13426414 0.43863142 -0.18726182 -1.0849247
-0.34740922 -0.070926555 0.6681677 0.032289308 -0.13576132 -0.20792294 -0.21403386 -0.5788739
0.6981196 0.39898437 0.25047857 -0.0695222 0.22777495 -0.07787448 0.12704028 -0.32283157
-0.1251536 0.14003628 0.0012621272 0.043266013 -0.30472007 0.111212626 0.42751285 -0.783551
-0.11305019 -0.23191822 0.30913106 0.12389988 0.43949798 -0.13658799 -0.5070254 0.59971213
0.005587122 0.55317324 -0.4812018 0.27744788 -0.13236254 0.45318925 0.025132408 -0.08771478
0.5470301 0.12768306 -0.5397838 0.14926824 0.5132621 -0.18969414 -0.0047306186 -0.077113695
0.3682898 0.7603038 -0.13296387 -0.112420276 0.2642605 -0.30217132 0.36759126 0.5774153
-0.48708194 -0.08174604 -0.563347 -0.25882483 -2.6889782 -0.33486444 -0.254442 0.27005127
0.41903105 0.22449297 1.68202 -0.81047565 -0.7226389 0.031353302 -0.26929152 0.4590368
0.49996242 -0.9925498 -0.17129576 0.5197819 0.22411506 -0.42709276 -0.48291278 0.23343372

bias f4 [256]
00000000: f3da 9a3e e23e 30be f456 9bbc 7cbb d6bd
00000010: e0d8 4b3e b4a3 d63d 4105 ffbc d609 ee3d
00000020: 6aa2 1c3e 1864 003e 5d57 04be a691 65be
00000030: 34dc 313e 4401 62be 81e8 c63d e7c5 033e
00000040: 3b1b 8fbd 360a 84be af4e 5dbd c58c c33d
00000050: 9214 b83d ec29 863d 09f1 5b3e 9c2d 5bbd
00000060: 467f 8b3e ebdc 123d aaba 06bd a2d3 b8bc
00000070: f9a3 26be 67c7 683e 6967 b33d e88a bebb
00000080: 2415 07be 40f1 e0bd c85d 2fbe f5fc 573d
00000090: 196e d0bd 84ed a6be 56f8 cfbd acea 603e
000000a0: b9fd 5a3e 3da8 513e f9c0 08be fb1e 3cbe
000000b0: a00e 67bd 5795 b2bd 08df 09be ada5 803e
000000c0: b194 a43d 2dd9 00be c00a 283d dc70 7d3d
000000d0: 6661 1cbc 2527 35be c298 a7bd 8033 253d
000000e0: 44ec 7c3e 596b 1dbd ef38 493e 77f0 df3d
000000f0: 0be4 9fbe 1c8b f93c 80f6 c1bd 3b2d e73d
00000100: 99a5 b0bd 8964 2c3e caa4 4b3d 5669 c1bd
00000110: 2eba e13c 3833 25bd 037f b73d 60f6 313e
00000120: 9dec 7b3c be72 85be d1d2 aabc 4361 88bd
00000130: 0436 a23d 5067 81bd 4e80 6d3e 9c4a 38bc
00000140: 8ab3 1abc 9029 aa3e 0f57 293e 940b fd3d
00000150: a6a8 8c3e 6313 8e3e 7bf1 123e 70ac 1bbe
00000160: 0186 f73b a710 bebd c499 f73d 943b 08be
00000170: 1af0 843e cedf 823d 96f1 28bd eda4 05be
00000180: 1345 7f3d f6ea 213e 0645 28be c6c4 d7bd
00000190: 624c 2ebe f7e6 2bbe 6bca 61bd 5844 35bc
000001a0: 724b efbc ee0b ef3d 798d 71be 95c7 4cbe
000001b0: 141b 193e 80b8 01bd ee69 b4bd 9848 1a3e
000001c0: b9ea 563e 538d 0f3d db42 863d 42d8 ffbd
000001d0: ad96 00be af51 de3c a026 b33d d78d 4fbd
000001e0: 3bf6 703d d455 263c 41c1 65bd 0df9 79bd
000001f0: a60e c5bc 3982 de3c 3b06 98bd 2da5 5d3d
00000200: cae8 94bc ff30 813d 7326 07be 1a16 9ebd
00000210: e50f c53e 5e39 a73d c9d4 f4bd 3b33 93be
00000220: 25d9 e53d 0784 d73c b3e7 fe3d 9932 e03d
00000230: a217 e43d 95a3 2c3d 4378 65be 1578 5f3e
00000240: af9a a73d 990e 2c3e a641 773c 0824 f03c
00000250: 6a69 37bd 4dd0 853c eb66 e43d 50f0 c7bc
00000260: 8321 8c3e 3f01 a7be 8f5b 953d c552 e03d
00000270: 2cc4 8f3c 30c6 da3e eef3 ff3c 842c 19be
00000280: 628f 983e dd7e 78bc c302 523e b0b2 d8bd
00000290: 3d26 bfbd cbc2 623e eec0 873e e9ee 2d3c
000002a0: e76d 063d 97ee e4bd 1956 0a3e b6d3 653e
000002b0: 117f 103d 45fc 923e b849 83bd e058 073e
000002c0: 78fd b9bc e05b e33c 71f6 67bb f9b1 9bbe
000002d0: 7588 1b3d 082c 8cbd 6d48 2fbe 223a 693e
000002e0: 51ee 023e b886 3f3e ebd8 3cbd a4db 1a3e
000002f0: 60af 743e 4974 7ebd 0851 d8bb 8faa 0dbe
00000300: 303b 3abe cba2 463e a480 943c 3f5e 733e
00000310: e84c 873e fed2 43bd 052a b03e 4fe6 5dbe
00000320: b561 7bbe c01e 56be a925 b53c f402 403e
00000330: 9081 143e f159 cb3d 32a6 5c3c 3b47 be3c
00000340: 350c c4bb 5d05 0dbc f2d1 96bc 843e fabc
00000350: 2ab6 0f3e 6b29 e9bd a4c4 85be ba3e 7fbd
00000360: bfb9 813a 5e5a b9bd f98e 883d b159 f13d
00000370: 0d97 c23d df8d a73c 84a8 d23d 6247 77bd
00000380: ba0a ff3d 819d 15be a74c 04be bec8 12bd
00000390: 68df a43c c409 6cbe f822 e03d 1364 803d
000003a0: eaaf e6bd 3677 0fbe eb2b 4f3d 1362 16be
000003b0: 5b36 72bd 8faf 8b3e d11b 123d 1ba9 cdbd
000003c0: 63b8 cbbd c43b 313d c7ec 423d f143 7abc
000003d0: fe2a 603e 6596 5c3e 1fe3 f7ba a41c 81be
000003e0: ed50 b83d 8b32 b8bc 389a 0cbd 14fb 963e
000003f0: eec2 233e b9c4 cabd c35d b33e 54e5 3ebe
0.3024517 -0.17211488 -0.01896236 -0.104849786 0.1990695 0.10480443 -0.031130435 0.1162297
0.15296331 0.12538183 -0.12923951 -0.22418842 0.17369157 -0.22070795 0.09712315 0.12868463
-0.06987616 -0.2578904 -0.054030117 0.09548334 0.089882985 0.06550965 0.21478666 -0.053510293
0.2724554 0.035855215 -0.03289286 -0.022561852 -0.16273488 0.22732316 0.08759958 -0.0058148988
-0.13191658 -0.10983515 -0.17125618 0.052731473 -0.101772495 -0.32603085 -0.10154788 0.2196452
0.2138585 0.20474334 -0.13354863 -0.18371193 -0.05641043 -0.087198906 -0.13463986 0.251264
0.08036173 -0.12582846 0.041025877 0.06187521 -0.009544706 -0.17690714 -0.08183433 0.040332317
0.24699503 -0.038432453 0.19650625 0.10934537 -0.3122867 0.03046184 -0.09470844 0.11287924
-0.08625335 0.16835226 0.049717702 -0.09443919 0.027554598 -0.04033205 0.089597724 0.17379141
0.015376237 -0.26064104 -0.020852478 -0.06659176 0.07920459 -0.063185334 0.23193476 -0.011248257
-0.0094422195 0.33234835 0.16537116 0.12355724 0.2747242 0.27749166 0.1434993 -0.15202498
0.0075538163 -0.0928052 0.12089875 -0.13303977 0.25964433 0.063903436 -0.04124602 -0.13051195
0.062321734 0.15812287 -0.1643258 -0.105355784 -0.17021325 -0.16787325 -0.05512468 -0.011063658
-0.02921078 0.11672197 -0.23589124 -0.1999801 0.14951736 -0.031670094 -0.08809267 0.15066755
0.20987977 0.035046887 0.065557204 -0.1249242 -0.12557478 0.02713856 0.087476015 -0.05067238
0.058828574 0.010152299 -0.056092504 -0.06102853 -0.024054836 0.027161704 -0.07423063 0.054112602
-0.018177409 0.063081734 -0.13198261 -0.07719059 0.3848869 0.08165239 -0.11954648 -0.28750023
0.11223058 0.026308073 0.12446537 0.10947151 0.1113732 0.04214819 -0.22409157 0.21823151
0.081838004 0.16802444 0.015091335 0.029314056 -0.044778265 0.016334677 0.111524425 -0.024406582
0.27369317 -0.32618138 0.07292854 0.10953287 0.017549597 0.4272933 0.031244244 -0.14958388
0.29796892 -0.015166965 0.20508866 -0.10580957 -0.09333465 0.2214462 0.2651438 0.010616043
0.032819655 -0.1117832 0.13509406 0.22444043 0.03527743 0.2870809 -0.06410545 0.13217497
-0.022703871 0.02775377 -0.0035394693 -0.3040922 0.037971932 -0.06844336 -0.17117472 0.22776082
0.12786223 0.18703735 -0.046105307 0.15122849 0.23895025 -0.062122617 -0.0066014566 -0.13834594
-0.1818664 0.19398038 0.018127747 0.23766421 0.26425862 -0.04780864 0.34407058 -0.21669887
-0.24548991 -0.20910168 0.022112684 0.18751127 0.14502549 0.09929264 0.013467358 0.023227325
-0.0059829005 -0.008607236 -0.018410657 -0.030547388 0.14034334 -0.11384853 -0.26126587 -0.06231568
0.0009897276 -0.09050439 0.06667895 0.117846854 0.09501467 0.020453392 0.10286048 -0.06037081
0.12453218 -0.14610864 -0.12919866 -0.035835974 0.02012606 -0.230506 0.1094417 0.06269088
-0.11264022 -0.14010319 0.050578993 -0.1468585 -0.05913387 0.27282378 0.03567106 -0.1004202
-0.09947278 0.043269888 0.04758909 -0.015274988 0.218914 0.21541746 -0.0018912292 -0.25217164
0.0899981 -0.022485038 -0.034326762 0.29488432 0.15992329 -0.09900803 0.35032472 -0.18642169

weight f4 [3, 256]
00000000: 7578 2340 83f6 51bf 899b 05bf 17c0 98c0
00000010: 034f c33f ee8d 343f 4351 14c0 7703 873f
00000020: f399 66c0 a1af 06c0 3a92 7740 8941 9c40
00000030: 9236 98bf 01c7 99bf ef4a 1740 717b cebf
00000040: aa8b 49c0 8b3e b4c0 8afd f3bf 1fd3 8140
00000050: 99aa 173f b385 59c0 b10b 0ebe a708 f23f
00000060: a0a6 ffbd b5b3 7840 1b21 d6bf b01a 89c0
00000070: 0d91 bc40 abdd e2c0 cb5a 1340 f621 8c3f
00000080: 1f69 82c0 5f43 b8be dde8 3d3f ac5a be3f
00000090: 3bc5 8340 c53f 533f 3a7a adbf efb5 e03c
000000a0: b4c9 953f ab01 26c0 58eb 9140 be18 48c0
000000b0: 93cd 1640 7ac6 7040 da42 2dbf b757 93c0
000000c0: eaf7 053e 93d2 3c3f 4fca 49bf dbb5 1e40
000000d0: 81f7 0540 ebee 2340 4460 9dc0 b1db 1c40
000000e0: 173f 833e 9cc0 c7bf b9c7 b43f 9c27 363e
000000f0: 3568 b3c0 e908 3440 f9c1 233f c5e1 f6bd
00000100: 5b5c 2340 14d1 d1bf b0f8 86bd 4702 3e40
00000110: e6e5 adbf a0d3 5240 6a16 a23e d746 5bbe
00000120: bb9e ea3e cdc6 a340 730b fe3f de18 6bbf
00000130: 02e7 cbbf df0c 91bf 4d83 1240 effa 8ac0
00000140: fba1 4f3f c3d7 323c 7691 d83f 0e8a 443f
00000150: b381 c040 08ec 68bf e93e 6440 6f34 c640
00000160: 3aff ef3e a9be a23f b06f 2840 7c90 78c0
00000170: 9315 53bd da49 a040 3757 bdc0 6e3f 9abe
00000180: 3c9f 4a40 cf90 58bf 1785 80c0 2c87 9bbd
00000190: 6ccc 8240 ba0f ae3f 8994 2ec0 0b03 83c0
000001a0: 32f9 1f40 ccbd fa3f 5a03 183f 2caf 08c0
000001b0: 0cc5 8740 8314 92c0 258d ed3f 74cb 06bf
000001c0: c94d 2b40 be83 873f 38a4 8abd 64f4 3d40
000001d0: eed2 d83d 80c0 93c0 11f0 21c0 44ac ac3f
000001e0: 0f7a 8f3f e952 a1bf 4c5e e4c0 90cf ce3f
000001f0: 4e2d 4240 3c52 dfc0 c371 3ec0 0a1d 82c0
00000200: 3d83 87bf e9b2 6340 bdff 1d40 fd0c eb3f
00000210: cff8 8cbf e440 d53f cad6 863e 221b a2c0
00000220: 618e 0240 ef3b e23f 3d0d 3fbe 508d c4c0
00000230: c985 9ec0 03f0 cb40 c9c1 373f 1611 3a3e
00000240: 290d aabf b675 603f 5e41 78c0 3171 5ec0
00000250: 7f0a 4440 c6a4 aebf 6cc7 1ac0 df9b 0e40
00000260: c6c8 5fc0 4252 f0bf c55f b9c0 8d46 6bc0
00000270: de3c 133f 0e68 7e3f 6ab1 a0be b2e6 f73f
00000280: e540 dabe 65ef 81c0 0d8f 763f 7e5d a5bf
00000290: c422 6ebe 2539 f63d 73b4 30c0 0dcd 3f40
000002a0: 0e2e 34c0 4bc2 1c40 8d93 993e c66e 2240
000002b0: 4caf 46bf 5e42 a23f 96f9 aac0 aced 8640
000002c0: 1a64 bbbf cfbf 1840 34c9 7a3f 0e2c 1bc0
000002d0: 5c09 81bf f570 dbc0 9796 1240 6cd5 643d
000002e0: 8bc7 2bbf 8a70 49bf 49a8 3b3f 0167 d3be
000002f0: 3fa2 c93c 4046 6dc0 1e6c d43f 26d4 7540
00000300: fc9b 4a40 af89 d7bf 7173 d0be c045 e1bf
00000310: ce82 8340 401a 5fc0 1159 67c0 154e e33f
00000320: 0216 16c0 cfcb 7ac0 eff3 c13f b4ce 6b3f
00000330: 44a2 8e3f 94e2 19c0 4f10 80bf f80e ed3e
00000340: c4d3 313e a078 91be b9f2 3c40 ddbd 2cc0
00000350: d825 1640 15b1 0bc0 6c91 3ec0 6ab0 44bf
00000360: 06ba 09c0 1a1f 5240 eef6 30c0 38ba cb3f
00000370: 3b57 e6be ccd7 283d 49bb 4740 9f63 42c0
00000380: 979f 1740 4a6d 6dc0 5f1d 52c0 20d8 97c0
00000390: 9723 583f 226e c43f 9a5b b4be 2a7a 90bf
000003a0: c8b3 c63f 106f ebbf 64df 27be 846a 0940
000003b0: bbcd 31c0 43d8 b53f 1b0b 9abf 0400 ad40
000003c0: bcea 0840 9718 81be 0b4b 3f40 8575 f7bf
000003d0: 07ab e0bf c005 0a40 d49e debf dc68 4f40
000003e0: cdee b3c0 4017 9c40 a2ba 5940 4ef0 f9be
000003f0: ab58 8440 193a a53f 5c7e 03c0 8504 11c0
2.554227 -0.8201677 -0.5219045 -4.7734485 1.5258487 0.7052907 -2.3174598 1.0547932
-3.6031463 -2.1044695 3.8683 4.883 -1.1891654 -1.2013856 2.3639486 -1.6131421
-3.1491494 -5.6326346 -1.9061749 4.0570216 0.59244686 -3.3987854 -0.13871647 1.890889
-0.12482953 3.8859684 -1.6728853 -4.2845078 5.8927064 -7.089559 2.3024166 1.0947864
-4.075332 -0.359889 0.74183446 1.4871421 4.117826 0.8251918 -1.3552926 0.027430503
1.170218 -2.5938518 4.5599785 -3.1265101 2.3562973 3.762114 -0.6768013 -4.6044574
0.13082853 0.7375881 -0.78824323 2.4798496 2.0932314 2.5614574 -4.918001 2.450909
0.2563407 -1.5605655 1.412345 0.17788547 -5.6064706 2.8130438 0.63967854 -0.12054781
2.552512 -1.639193 -0.06590402 2.968889 -1.3585784 3.2941666 0.31657726 -0.21413742
0.45824227 5.1180177 1.9847244 -0.9183482 -1.5929873 -1.1332053 2.289264 -4.3431315
0.8110654 0.010915699 1.6919391 0.76773155 6.0158324 -0.90985155 3.5663397 6.1939006
0.4687441 1.2714435 2.6318169 -3.8838186 -0.051534247 5.009015 -5.9168963 -0.30126518
3.165969 -0.8459596 -4.0162463 -0.07594141 4.087454 1.3598549 -2.7278159 -4.0941215
2.4995847 1.9589171 0.59380114 -2.1356916 4.2428036 -4.565004 1.8558699 -0.52654195
2.6766226 1.058708 -0.067696035 2.9680414 0.10587107 -4.6172485 -2.5302775 1.3490071
1.1209124 -1.2603427 -7.136511 1.6157093 3.0340152 -6.9787884 -2.9756935 -4.066045
-1.0586926 3.5577948 2.468734 1.8363339 -1.101343 1.6660428 0.26335746 -5.065812
2.03994 1.767454 -0.18657394 -6.14225 -4.953831 6.3730483 0.7178007 0.1817058
-1.3285266 0.8767961 -3.8789897 -3.4756587 3.0631406 -1.3644035 -2.4184217 2.2282636
-3.4966292 -1.8775103 -5.7929406 -3.676181 0.5751475 0.99377525 -0.31385356 1.9367278
-0.42627636 -4.060473 0.9631203 -1.2919157 -0.2325545 0.12022618 -2.7610137 2.9968903
-2.815311 2.4493587 0.29995385 2.538011 -0.7761123 1.2676504 -5.342967 4.2165127
-1.4639924 2.386707 0.9796326 -2.424564 -1.0080981 -6.8575387 2.2904413 0.055867597
-0.67101353 -0.78687346 0.7330366 -0.41289523 0.024613498 -3.7074127 1.6595495 3.8410735
3.1657705 -1.6838893 -0.40713075 -1.7599411 4.1097174 -3.4859772 -3.6148112 1.7758204
-2.3450933 -3.9186895 1.5152568 0.9211228 1.114327 -2.4044542 -1.0004977 0.46300483
0.17365938 -0.28412342 2.9523146 -2.6990883 2.3460598 -2.1826832 -2.9776258 -0.76831686
-2.151979 3.2831483 -2.7650714 1.5916204 -0.44988427 0.041221425 3.120806 -3.0373304
2.3691156 -3.7097955 -3.2830427 -4.7451324 0.84429306 1.534611 -0.35226136 -1.1287282
1.5523615 -1.8393269 -0.1639381 2.1471262 -2.7781818 1.4206623 -1.2034639 5.406252
2.139327 -0.25214073 2.9889553 -1.9332739 -1.7552193 2.156601 -1.739222 3.240775
-5.6229005 4.877838 3.4020162 -0.4881615 4.1358237 1.2908355 -2.0545874 -2.2659009

bias f4 [3]
00000000: 5e1d 46be 0876 9f3e d2c0 67be
-0.1934714 0.31144738 -0.22632149
