models/two_layers/twoLayerModel_mumu_corrCut_-1.0_weights_true_drop_0.5_top_mttbar_reco_no_qg.pt (torch, 18688 bytes, 8 tensors)

model.0.weight f4 [256, 8]
-0.6276226 -0.17001343 -0.028816 -0.10649655 0.15990165 -0.08646006 -0.091367796 -0.06700128
0.089623086 0.3050099 -0.11424191 -0.23148982 0.077927075 0.11518493 -0.05136884 0.18892059
0.088428125 -0.29329094 -0.13565812 -0.16158557 0.2789992 0.27318186 -0.03225542 -0.30188808
-0.19836365 -0.21194886 -0.19168997 -0.0065817577 0.20977244 -0.16418537 0.13843796 -0.22631009
0.0722177 -0.040743906 -0.3289866 -0.047798507 0.019754507 0.10974791 0.56134313 0.47093552
0.40357298 0.020761194 -0.2679286 -0.15109201 0.012806824 0.019975264 0.39868882 0.3845636
0.12804088 0.0032164697 0.117953695 0.22018442 -0.0030649405 0.010260187 0.6196658 -0.19749832
-0.0044069067 0.010237088 -0.17159857 -0.10392977 0.0040944824 -0.24115227 1.0097929 0.45613128
0.07465981 -0.18617265 0.25592119 -0.10800103 0.2000159 -0.15068302 -0.04251671 -0.18138081
0.18252207 -0.0440427 -0.19780162 -0.010743119 0.034109928 0.21056348 0.35622695 0.65972346
0.10903197 0.16560654 0.21033132 -0.5382543 -0.15489887 0.24192828 -0.04481643 -0.08586934
-0.026708692 0.04640596 0.35103494 0.046993516 0.40442792 0.24252197 -0.08406318 0.12582733
-0.29806525 -0.0013513485 -0.29767302 -0.016030535 -0.0033414 0.16261935 0.62564075 -0.031340003
0.22449747 -0.010924631 0.3048753 0.3115831 0.027325004 0.29053628 0.4319413 -0.19434974
0.15135355 -0.0041642673 0.14883539 0.23029824 0.022645522 0.37127307 0.41910663 -0.17947581
0.0048548696 -0.14446388 0.13451788 0.20815222 -0.18305618 -0.21419905 0.26987436 -0.7681624
-0.12981683 0.25923872 -0.005968982 0.1642507 -0.25121802 -0.2158952 0.46490625 -0.35195848
-0.08843564 0.16765015 -0.14758587 0.24564454 -0.16386317 0.26523006 -0.01859645 -0.1849453
0.12316517 -0.21156935 0.3604831 -0.34320363 0.2110612 -0.31141633 -0.015213996 -0.16661085
-0.13781914 -0.0020203919 -0.1435289 -0.1006149 0.0014555444 -0.1481473 0.5323065 -0.0069636903
0.21235602 -0.11517944 -0.22301309 -0.3288413 0.11728802 0.35455745 -0.46988836 -0.02776657
0.34269017 -0.000756666 0.29925507 -0.07715281 -0.0014322744 -0.030634124 -0.775577 0.02412093
-0.5230964 -0.18165886 -0.22187375 0.28949413 0.17049962 -0.34553987 -0.11248541 -0.14323305
-0.36312068 -0.259048 0.09787333 0.24080236 0.23750284 -0.07464217 -0.15559047 -0.24213608
0.16470496 0.0005390588 -0.016156668 0.09403338 -0.00036502804 0.18060188 -0.6403536 0.02824721
-0.09379788 -0.09114862 -0.2855587 -0.021512812 0.08472398 -0.10066307 0.00078383705 -0.06641748
0.25403494 -0.015907107 0.02430627 0.1913266 0.013835531 -0.19180746 0.49139184 -0.24044605
0.29232246 0.05135076 -0.05960996 0.32197765 -0.031707276 0.29455453 0.458577 -0.19889829
-0.07344925 0.25094217 0.2931385 0.20870619 -0.2418892 -0.16590261 0.25739005 -0.31940976
-0.117238276 0.045156162 -0.025406575 -0.19407424 0.33254474 0.18093112 0.54877174 0.05457063
0.23848194 0.053516094 -0.020515714 0.28809717 -0.019519351 0.28447878 0.5291539 -0.19131759
0.051385824 0.031104308 -0.00041969906 0.10630603 -0.007480741 -0.19229883 0.52239096 0.47478324
00000000: e0ab 20bf 0018 2ebe 880f ecbc dd1a dabd
00000010: 42bd 233e f911 b1bd 0a1f bbbd f837 89bd
00000020: 4f8c b73d 422a 9c3e aaf7 e9bd ab0b 6dbe
00000030: 3b98 9f3d 14e6 eb3d 2268 52bd 6674 413e
00000040: ce19 b53d 3b2a 96be f6e9 0abe b076 25be
00000050: fcd8 8e3e 7ede 8b3e 421e 04bd 1391 9abe
00000060: d71f 4bbe 1f09 59be 604a 44be c9ab d7bb
00000070: 96ce 563e 3620 28be aec2 0d3e d5bd 67be
00000080: e0e6 933d 15e3 26bd ee70 a8be 5ec8 43bd
00000090: 34d4 a13c 83c3 e03d 2fb4 0f3f 761e f13e
000000a0: 1ea1 ce3e 6113 aa3c f02d 89be ddb7 1abe
000000b0: b7d3 513c 2aa3 a33c f120 cc3e 85e5 c43e
000000c0: 261d 033e 68cb 523b b591 f13d 0678 613e
000000d0: 2bdd 48bb 581a 283c 6ba2 1e3f 003d 4abe
000000e0: d067 90bb 76b9 273c 89b7 2fbe 22d9 d4bd
000000f0: 022b 863b 9ff0 76be e540 813f 0a8a e93e
00000100: 3ee7 983d 0ba4 3ebe 1a08 833e a52f ddbd
00000110: f8d0 4c3e a64c 1abe 0026 2ebd e4bb 39be
00000120: 11e7 3a3e 1e66 34bd 828c 4abe e803 30bc
00000130: dab6 0b3d f49d 573e 6163 b63e a3e3 283f
00000140: 274c df3d c394 293e 1861 573e 09cb 09bf
00000150: cf9d 1ebe 0cbc 773e 6f91 37bd 44dc afbd
00000160: 30cc dabc 2d14 3e3d daba b33e 467c 403d
00000170: 2d11 cf3e ae57 783e 5129 acbd e1d8 003e
00000180: 029c 98be bb1f b1ba 9968 98be 7852 83bc
00000190: 64fb 5abb b085 263e fe29 203f 605e 00bd
000001a0: aae2 653e 39fd 32bc 9e18 9c3e d287 9f3e
000001b0: b0d8 df3c 2cc1 943e 6927 dd3e 9e03 47be
000001c0: 6dfc 1a3e 6874 88bb 4e68 183e 4dd3 6b3e
000001d0: 1a83 b93c 8117 be3e 2595 d63e 82c8 37be
000001e0: 9915 9f3b 57ee 13be 0ebf 093e db25 553e
000001f0: 1473 3bbe ff56 5bbe f92c 8a3e 4ba6 44bf
00000200: b4ee 04be f0ba 843e 7397 c3bb 5631 283e
00000210: a69f 80be a213 5dbe 3108 ee3e e733 b4be
00000220: bf1d b5bd 7bac 2b3e c020 17be 3e8a 7b3e
00000230: bfcb 27be 3ccc 873e 9557 98bc 4d62 3dbe
00000240: 053e fc3d a3a5 58be 3e91 b83e 63b8 afbe
00000250: 6d20 583e f671 9fbe 2044 79bc 099c 2abe
00000260: 7620 0dbe 8d68 04bb 3df9 12be 2f0f cebd
00000270: f7c7 be3a edb3 17be 3d45 083f ab2f e4bb
00000280: db73 593e 33e3 ebbd 8b5d 64be e35d a8be
00000290: b434 f03d 8e88 b53e 3595 f0be b876 e3bc
000002a0: 1675 af3e ff5a 46ba f637 993e 4b02 9ebd
000002b0: 27bb bbba 6af4 fabc 378c 46bf 4299 c53c
000002c0: a5e9 05bf c804 3abe df32 63be 9338 943e
000002d0: 7497 2e3e 9aea b0be c05e e6bd afab 12be
000002e0: f4ea b9be f1a1 84be d071 c83d e594 763e
000002f0: f233 733e fedd 98bd 1c53 1fbe 85f2 77be
00000300: 6ba8 283e a04f 0d3a fd5a 84bc 9394 c03d
00000310: 3c61 bfb9 b3ef 383e 37ee 23bf b166 e73c
00000320: 1a19 c0bd 21ac babd c034 92be a33b b0bc
00000330: c483 ad3d 7128 cebd 6a7a 4d3a e305 88bd
00000340: de10 823e 9f4f 82bc f11d c73c 1feb 433e
00000350: 6cae 623c 2d69 44be b697 fb3e 7d37 76be
00000360: 4aab 953e 2d55 523d 9329 74bd 41da a43e
00000370: 7ddf 01bd dacf 963e 9bca ea3e feab 4bbe
00000380: 8f6c 96bd 7e7b 803e 4016 963e 13b7 553e
00000390: cdb1 77be 60e2 29be a1c8 833e ad89 a3be
000003a0: 9f1a f0bd abf5 383d 7321 d0bc 66bb 46be
000003b0: 4e43 aa3e 0246 393e 4e7c 0c3f 7485 5f3d
000003c0: 9c34 743e b133 5b3d 9210 a8bc 7981 933e
000003d0: 0ce7 9fbc 34a7 913e a176 073f c2e8 43be
000003e0: f179 523d 76ce fe3c 0e0b dcb9 fab6 d93d
000003f0: 0121 f5bb fce9 44be 6abb 053f ca16 f33e

model.0.bias f4 [256]
-0.13988099 -0.22291574 0.10287681 -0.3355404 0.2525863 -0.23166198 0.12904893 0.31080818
-0.23118855 -0.023043334 -0.3279923 -0.1635164 0.14368922 -0.15733518 0.19593388 -0.30806014
-0.31121865 -0.23536754 -0.10211337 0.15568635 -0.30921584 -0.18089056 -0.012903676 -0.10595929
0.09647233 0.3682212 -0.25416732 0.1148282 -0.1914626 -0.12204795 0.018280463 0.309102
-0.0248564 -0.053710088 0.25809202 -0.085571624 -0.28921288 0.23448858 0.02928963 -0.309359
-0.0797568 0.10686718 -0.3595787 -0.1828342 -0.16137068 -0.32096016 0.107760906 0.08552359
0.26638576 -0.12233082 -0.28540537 0.13122639 -0.22601855 -0.06125605 -0.055335134 0.1788876
-0.32775098 -0.30375516 -0.18273513 0.33252075 0.20755236 -0.21053746 -0.29221198 0.27331346
-0.02552796 0.023870682 -0.14889386 -0.25608265 0.3091293 0.108107716 0.04232674 0.12478639
0.34555674 0.1650015 -0.27367443 -0.1856603 0.03243878 0.24181178 -0.14666584 0.27390116
0.13718814 0.20467867 -0.2969453 -0.27675694 0.062028155 -0.11281224 -0.23378804 -0.26772138
-0.1070408 -0.1960592 -0.34377733 0.3408723 -0.36350006 -0.03139902 0.23104216 0.102188416
-0.006391129 0.118288204 -0.2618312 0.08529554 0.24870409 0.079934776 0.17651877 0.37173834
0.093727104 0.25698966 -0.19914493 -0.22347216 0.21736231 0.095419884 -0.12275126 0.3129235
0.30445942 -0.28869453 0.17949565 -0.2658326 -0.012042095 -0.33580816 -0.23166016 0.025603797
-0.24048692 -0.09988506 -0.31810546 0.22394577 0.33833972 0.13605869 0.28489143 0.070732646
0.22839867 0.07830404 -0.22508372 -0.15145674 -0.32628706 -0.09045431 0.23140448 -0.103023775
-0.06637655 0.25968528 0.008448884 0.086415544 0.22391455 -0.17307998 -0.08172144 0.34133428
-0.28002408 -0.15707964 0.060233183 -0.05662464 -0.15646388 -0.20076731 -0.32238805 -0.35968497
0.1214245 -0.21435341 -0.23632202 0.33066434 0.30469877 -0.15472454 -0.3495518 -0.22639593
0.18584792 0.22182098 -0.095173106 -0.10969506 0.08070989 -0.14302179 0.0022626852 -0.2776368
-0.22618097 0.21822987 0.17439769 0.025945628 0.39984566 -0.1647761 -0.3243996 -0.20498697
0.20720245 0.027136149 -0.063509494 -0.23739532 0.3507157 0.034687985 -0.20128325 -0.19232842
-0.25421482 0.05087394 0.20513849 -0.26596656 -0.16589074 0.04569399 -0.14742194 -0.23175436
-0.2588607 0.047862824 0.018905403 0.14254531 -0.3170832 0.30964103 -0.07230528 0.060993206
-0.35188252 -0.2676822 -0.017257055 0.014436622 0.010843454 0.15704829 0.25801834 0.07095448
-0.20102996 0.24913676 -0.05392874 -0.11698266 -0.27287483 -0.2727539 -0.23468032 0.11859902
-0.09704598 0.3516058 0.32777086 0.33669084 0.17772448 0.03657778 0.23848361 0.011610152
0.044570133 -0.2941448 0.24212572 -0.16004668 0.17649996 -0.3753274 0.11669324 -0.12597597
-0.078777865 0.34393096 0.06640545 0.05836611 0.28580883 -0.16126746 0.25239637 -0.21568708
-0.299799 -0.15877531 0.12012241 -0.119909465 -0.2510695 -0.024100767 0.21136583 -0.27541962
0.3072402 0.11662328 -0.17653269 -0.1357392 -0.19383904 0.28586483 -0.32902578 0.22058971
00000000: f63c 0fbe 0644 64be 14b1 d23d f4cb abbe
00000010: fe52 813e cc38 6dbe 6725 043e 4022 9f3e
00000020: b1bc 6cbe 60c5 bcbc 9bee a7be d870 27be
00000030: 4423 133e 791c 21be e4a2 483e 0fba 9dbe
00000040: 0d58 9fbe 3004 71be d120 d1bd 3e6c 1f3e
00000050: 8a51 9ebe 603b 39be f169 53bc 2f01 d9bd
00000060: 4993 c53d 7d87 bc3e 3822 82be 0c2b eb3d
00000070: c60e 44be 47f4 f9bd e9c0 953c 9e42 9e3e
00000080: a69f cbbc 1cff 5bbd a324 843e 2d40 afbd
00000090: b613 94be c61d 703e cef0 ef3c 4e64 9ebe
000000a0: 8857 a3bd 2edd da3d b31a b8be e338 3bbe
000000b0: 5b3e 25be e454 a4be c0b1 dc3d fe26 af3d
000000c0: b763 883e 9588 fabd a720 92be 3660 063e
000000d0: 6871 67be a0e7 7abd 18a7 62bd 502e 373e
000000e0: face a7be cc85 9bbe eb1e 3bbe 2940 aa3e
000000f0: 9b88 543e 2297 57be cf9c 95be beef 8b3e
00000100: 0320 d1bc 738c c33c a277 18be 441d 83be
00000110: 3246 9e3e 9467 dd3d ce5e 2d3d 0290 ff3d
00000120: d0ec b03e 27f6 283e 0e1f 8cbe bc1d 3ebe
00000130: 87de 043d 829d 773e 922f 16be c63c 8c3e
00000140: 0c7b 0c3e 4997 513e 3709 98be 16b3 8dbe
00000150: 3c11 7e3d 1b0a e7bd 2266 6fbe c712 89be
00000160: 3538 dbbd bec3 48be 9503 b0be d086 ae3e
00000170: ae1c babe 429c 00bd 5196 6c3e 2948 d13d
00000180: ad6c d1bb 1641 f23d bd0e 86be 6eaf ae3d
00000190: 49ac 7e3e d8b4 a33d 56c1 343e 7d54 be3e
000001a0: fff3 bf3d 2694 833e a6ec 4bbe e3d5 64be
000001b0: 3a94 5e3e 806b c33d 0365 fbbd 8237 a03e
000001c0: 1be2 9b3e c5cf 93be b5cd 373e 361b 88be
000001d0: 354c 45bc 0cef abbe 5238 6dbe 0ebf d13c
000001e0: 3442 76be 8a90 ccbd b8de a2be 0a52 653e
000001f0: dd3a ad3e f852 0b3e 4add 913e 47dc 903d
00000200: 57e1 693e de5d a03d 597c 66be 7a17 1bbe
00000210: 190f a7be 1c40 b9bd 4cf5 6c3e 21fe d2bd
00000220: 6ef0 87bd 78f5 843e 306d 0a3c a2fa b03d
00000230: db49 653e e13b 31be 925d a7bd 5ec3 ae3e
00000240: 515f 8fbe 7cd9 20be 12b7 763d 3def 67bd
00000250: 1138 20be f295 4dbe 0c10 a5be a128 b8be
00000260: 69ad f83d 767f 5bbe 66fe 71be d64c a93e
00000270: 7a01 9c3e 1c70 1ebe 74f8 b2be 56d4 67be
00000280: eb4e 3e3e 0a25 633e 1eea c2bd cea7 e0bd
00000290: 3a4b a53d 4e74 12be 8f49 143b 6926 8ebe
000002a0: fc9b 67be a777 5f3e 4f95 323e ed8b d43c
000002b0: 92b8 cc3e 11bb 28be b417 a6be 1be8 51be
000002c0: e12c 543e a14c de3c 4411 82bd c217 73be
000002d0: 0291 b33e fd14 0e3d 321d 4ebe bef1 44be
000002e0: 7228 82be 3161 503d d30f 523e c52c 88be
000002f0: 43df 29be 9f29 3b3d c7f5 16be 0451 6dbe
00000300: 6489 84be cf0b 443d 81df 9a3c 66f7 113e
00000310: bb58 a2be 4589 9e3e ca14 94bd 03d4 793d
00000320: f229 b4be a40d 89be ab5e 8dbc 9587 6c3c
00000330: bea8 313c 44d1 203e fb1a 843e 9550 913d
00000340: ccda 4dbe b51d 7f3e 62e4 5cbd 9b94 efbd
00000350: 40b6 8bbe 66a6 8bbe 0a50 70be 0be4 f23d
00000360: 0bc0 c6bd ad05 b43e 95d1 a73e be62 ac3e
00000370: 68fd 353e 95d2 153d 0c35 743e 8238 3e3c
00000380: 2c8f 363d 269a 96be ceef 773e 47e3 23be
00000390: 68bc 343e ea2a c0be defc ee3d d8ff 00be
000003a0: 4a56 a1bd b817 b03e 95ff 873d 4d11 6f3d
000003b0: 8955 923e 4c23 25be 193a 813e 13dd 5cbe
000003c0: 417f 99be ff95 22be bd02 f63d 1893 f5bd
000003d0: 2e8c 80be f96e c5bc 4970 583e cd03 8dbe
000003e0: 964e 9d3e 30d8 ee3d fcc4 34be 38ff 0abe
000003f0: be7d 46be e05c 923e 1176 a8be 45e2 613e

model.1.weight f4 [256]
0.85436183 0.6573194 0.88241374 0.8961333 0.91756344 0.9113457 0.9377408 0.92514753
0.8937424 0.9388244 0.83009404 0.7122501 0.90839183 0.94599146 0.9231812 0.79226655
0.86300457 0.8808062 0.8638098 0.9658656 0.81533337 0.9215522 0.8904714 0.89234906
1.0249614 0.8877416 0.77321875 0.93180275 0.8870694 0.6895879 0.95101655 0.9098358
0.69251364 0.8343088 0.8392982 0.82049114 0.81320715 0.8296647 0.8676895 0.84647447
0.87434644 0.7547757 0.872635 0.7998569 0.96168745 0.8358068 0.8076151 1.0032117
0.8514637 0.73245925 0.8559368 0.8995487 0.87353086 1.1058676 0.6406993 0.86636525
1.0045551 0.8378686 0.91695386 0.88043296 0.653258 0.76985586 0.9610448 0.90422446
0.8989719 0.69238 0.768469 0.8849241 0.8254644 0.9180244 0.7044731 0.6357323
0.97729516 0.74208176 0.9696502 0.66362756 0.94353575 0.8635582 0.8096294 0.9717922
0.8316207 1.014353 0.90969163 0.8060221 0.99241 0.73830944 0.870424 0.7494248
0.943682 0.90038663 0.93988365 0.8816246 0.95232934 0.8028622 0.7485847 0.72154886
0.96610713 0.84334093 0.878334 0.9705022 0.9880395 0.81606007 0.95512986 0.75647974
0.8273079 0.84449285 0.77427924 0.93566597 0.7522343 0.84491307 0.8359053 0.88731
0.7085249 0.7823063 0.9264618 0.9232302 1.1141284 0.68767124 0.9560426 0.77011704
0.75134724 0.9121234 0.8220031 0.88803685 0.8764343 0.8559055 0.79964274 0.85761815
0.81137234 0.8852289 0.8102538 0.8981292 0.86751544 0.8143953 0.87019545 0.70780605
0.8693868 0.6936733 0.77299374 0.8742225 0.9248809 0.78565806 0.8124497 0.65203065
1.015849 0.9200466 0.6340971 0.84190613 0.7940321 0.9077303 0.7094289 0.80306816
0.7839734 0.95288295 0.85795003 0.66315573 0.8731021 0.6110332 0.80712056 0.90436864
0.84486073 0.8507586 0.771119 0.87520957 0.52031916 0.8584227 0.87700665 0.9356502
0.8647441 0.9064266 0.86444944 0.9392306 0.9352314 0.7663105 0.96449894 1.0115542
0.8587017 0.711197 0.8350482 0.9382819 0.9076912 0.84662896 0.8639755 0.94267875
0.6862698 0.9459786 0.67149466 0.9514278 0.62067753 0.9183862 0.781835 0.8795064
0.8565277 0.87875295 0.7660155 0.77172154 1.0667464 0.8881317 0.8653639 0.8826199
0.95002586 0.7781228 0.8362851 0.9751277 0.7185007 0.8217002 0.82646525 0.8013367
0.80158967 0.8377137 0.9457353 0.87681484 0.969161 0.6999954 0.810405 0.64575124
0.96549225 0.85462993 0.7078928 0.9108395 0.8678276 0.95215714 0.86556417 0.92888474
0.82970566 0.900679 0.9812527 1.002486 0.8370045 0.8450745 1.0016426 0.8491858
0.7064746 0.83497995 0.7686636 0.8718205 0.68498164 0.6976385 0.7948883 0.699603
0.9096756 0.946617 0.9328047 0.86726046 0.8478381 0.7426941 0.9140426 0.65716344
0.77217877 0.7019833 0.9206837 0.8673448 0.8546801 0.90111446 1.005714 0.8406311
00000000: 75b7 5a3f 1646 283f dee5 613f fe68 653f
00000010: 70e5 6a3f f44d 693f c80f 703f 78d6 6c3f
00000020: 4dcc 643f cc56 703f 0b81 543f 0656 363f
00000030: 5e8c 683f 7f2c 723f 9a55 6c3f fbd1 4a3f
00000040: deed 5c3f 847c 613f a422 5d3f f842 773f
00000050: b0b9 503f d8ea 6b3f eff5 633f fd70 643f
00000060: ef31 833f 0943 633f aaf1 453f a08a 6e3f
00000070: fb16 633f d588 303f d275 733f 00eb 683f
00000080: 9348 313f 4395 553f 3fdc 563f b50b 523f
00000090: 582e 503f e864 543f e620 5e3f 8db2 583f
000000a0: 2bd5 5f3f fb38 413f 0265 5f3f 6cc3 4c3f
000000b0: 2631 763f 6ff7 553f ddbf 4e3f 3e69 803f
000000c0: 86f9 593f 7382 3b3f ad1e 5b3f d348 663f
000000d0: b89f 5f3f 128d 8d3f df04 243f 1dca 5d3f
000000e0: 4395 803f 8e7e 563f 7dbd 6a3f 0e64 613f
000000f0: eb3b 273f 4615 453f 0807 763f 417b 673f
00000100: 0623 663f d13f 313f 62ba 443f 638a 623f
00000110: a351 533f a603 6b3f 5958 343f 5abf 223f
00000120: 0430 7a3f 12f9 3d3f ff3a 783f 7fe3 293f
00000130: 8f8b 713f 2612 5d3f df43 4f3f 60c7 783f
00000140: 18e5 543f 52d6 813f 8de1 683f 7757 4e3f
00000150: 950e 7e3f d901 3d3f 1bd4 5e3f 4eda 3f3f
00000160: 2595 713f bd7f 663f 379c 703f 26b2 613f
00000170: dbcb 733f 6188 4d3f 3fa3 3f3f 6db7 383f
00000180: cc52 773f 31e5 573f 7fda 603f d572 783f
00000190: 28f0 7c3f 50e9 503f 6483 743f a8a8 413f
000001a0: 73ca 533f af30 583f 2a37 463f ce87 6f3f
000001b0: 6d92 403f 394c 583f e4fd 553f c026 633f
000001c0: e361 353f 3a45 483f 9a2c 6d3f d058 6c3f
000001d0: c29b 8e3f 390b 303f 35bf 743f 6426 453f
000001e0: 4b58 403f eb80 693f cc6e 523f 6256 633f
000001f0: 005e 603f 9f1c 5b3f 63b5 4c3f dd8c 5b3f
00000200: 19b6 4f3f 5c9e 623f cb6c 4f3f cceb 653f
00000210: 7e15 5e3f 367c 503f 21c5 5e3f c732 353f
00000220: 2290 5e3f 9394 313f ebe2 453f 0ccd 5f3f
00000230: ffc4 6c3f e320 493f b4fc 4f3f 7beb 263f
00000240: 5707 823f 2d88 6b3f 3054 223f 2987 573f
00000250: b045 4b3f 0361 683f 229d 353f e095 4d3f
00000260: 7bb2 483f 23f0 733f 9da2 5b3f 93c4 293f
00000270: 9f83 5f3f ac6c 1c3f 749f 4e3f b484 673f
00000280: cb48 583f 51cb 593f 0e68 453f bc0d 603f
00000290: a333 053f 97c1 5b3f 8283 603f c686 6f3f
000002a0: df5f 5d3f 930b 683f 8f4c 5d3f 6b71 703f
000002b0: 536b 6f3f ed2c 443f 67e9 763f 9c7a 813f
000002c0: e0d3 5b3f 0211 363f b8c5 553f 3e33 703f
000002d0: 735e 683f adbc 583f 802d 5d3f 6553 713f
000002e0: 61af 2f3f a72b 723f 13e7 2b3f c690 733f
000002f0: b9e4 1e3f 5c1b 6b3f 5726 483f 5527 613f
00000300: 6645 5b3f f4f5 603f 9819 443f 8b8f 453f
00000310: 258b 883f 995c 633f 7d88 5d3f 61f3 613f
00000320: e534 733f 0e33 473f c816 563f f8a1 793f
00000330: a9ef 373f f25a 523f 3a93 533f 6724 4d3f
00000340: fb34 4d3f 6874 563f b51b 723f f076 603f
00000350: ef1a 783f e632 333f b476 4f3f f44f 253f
00000360: 802a 773f 07c9 5a3f 7638 353f c72c 693f
00000370: f329 5e3f 92c0 733f 9d95 5d3f 64cb 6d3f
00000380: 9767 543f e692 663f 6033 7b3f 7651 803f
00000390: ed45 563f cd56 583f d335 803f 3e64 593f
000003a0: 85db 343f 3fc1 553f 23c7 443f a12f 5f3f
000003b0: f55a 2f3f 7098 323f cd7d 4b3f 2f19 333f
000003c0: 80e0 683f 7e55 723f 4acc 6e3f c804 5e3f
000003d0: eb0b 593f 3321 3e3f b2fe 693f dd3b 283f
000003e0: 82ad 453f 2db5 333f edb1 6b3f 4f0a 5e3f
000003f0: 51cc 5a3f 70af 663f 3dbb 803f 9a33 573f

model.1.bias f4 [256]
-0.4362516 -0.14170617 -0.36184558 -0.36343327 0.009115828 -0.06644348 -0.3161596 -0.20589332
-0.37380478 0.06721729 -0.41920394 -0.095288485 -0.25018492 -0.2682325 -0.24660516 -0.12821801
-0.40515178 -0.38504747 -0.3375398 -0.27320415 -0.33250952 -0.37458083 -0.40322348 -0.39596134
-0.3731628 -0.37901542 -0.036601663 -0.19242723 -0.4006955 -0.114057265 -0.234373 -0.06729129
-0.09429713 -0.50797194 -0.5313902 -0.35349095 0.06061727 -0.3316661 -0.3924884 -0.589225
-0.37668762 -0.5074202 -0.2474367 -0.65476424 -0.3830522 -0.31453592 0.22025955 -0.30396235
-0.39561048 -0.102477595 -0.42531848 -0.35223636 -0.20407687 -0.21097134 0.31246808 -0.37611362
-0.22462322 -0.5328854 -0.23675229 -0.38307127 -0.1270631 -0.5007985 -0.2599536 -0.36911744
0.015079978 0.09917431 -0.48302007 -0.37094608 -0.6722327 0.06971334 -0.15185922 0.13743445
-0.21008623 -0.5115484 -0.17117651 0.15485938 -0.24058086 -0.39907005 -0.6597204 -0.27021077
-0.30591753 -0.2713042 -0.23270547 -0.42851382 -0.22574207 -0.5083589 -0.39518702 -0.41431674
-0.24589707 -0.21990594 -0.17016244 -0.4468594 -0.3815353 -0.41160366 -0.554761 -0.36962864
-0.38835502 -0.4584644 -0.36756897 -0.29095033 -0.21381336 -0.48528177 -0.21459022 -0.3911213
-0.503845 -0.5137955 0.27680472 -0.29261997 -0.06997781 0.3059253 -0.47808614 -0.3863061
-0.10872958 -0.66878086 0.044097256 -0.2800349 -0.40152925 0.10582081 -0.17429264 -0.48006955
0.2551508 -0.3665011 -0.47965717 -0.3744732 -0.37741444 -0.3698557 -0.41800368 -0.42160565
0.009912579 -0.38267133 -0.6347591 -0.375231 -0.37597263 -0.44420543 -0.38068843 0.13901873
-0.3653182 -0.54864615 -0.62531006 -0.37545633 -0.3693094 -0.649386 -0.6411658 -0.083255365
-0.3522678 -0.19882704 -0.14731494 -0.40669635 -0.36688143 -0.008649782 -0.2543144 -0.5312151
-0.25937584 -0.25889075 -0.37303638 -0.10284938 -0.34962362 0.22653055 -0.4578852 -0.3775489
-0.49715117 -0.4161866 -0.3768046 0.058879945 0.14815383 -0.382564 -0.37684217 0.08055924
-0.366239 -0.18577576 -0.34803587 -0.17243382 -0.21354263 -0.12356518 -0.16172235 -0.3150352
-0.4254709 -0.45670238 0.042260107 -0.27471155 -0.3353498 0.28897688 -0.40618804 0.065014504
-0.09478532 -0.19509673 -0.15913607 -0.22150426 0.24020846 -0.2554424 -0.098492034 -0.406156
-0.40432847 0.09227449 -0.613875 -0.25174567 -0.3645236 -0.3176992 -0.19250822 -0.4333488
-0.33920413 -0.581341 -0.47976387 -0.1992482 -0.12594889 -0.64671785 -0.33264136 -0.6280211
-0.66112703 -0.32596543 -0.2527741 -0.31969476 -0.25264364 0.055493895 0.27897114 0.16710316
-0.21167582 -0.39553636 -0.119739935 -0.20341235 -0.3683903 -0.31324425 -0.32093713 -0.3917173
-0.50041103 0.13912433 -0.19493082 -0.37858114 -0.3221309 -0.6618598 -0.29075795 -0.33176586
-0.48792246 -0.50590825 -0.6249096 -0.5535237 -0.1117985 0.08650467 0.2926994 -0.17992774
-0.39025605 -0.13035907 0.10562995 -0.37002617 -0.3923046 -0.13786142 -0.24804994 -0.106362924
-0.61669993 0.15769471 0.16222292 -0.40496546 -0.3571111 -0.1456365 -0.30928007 -0.52735174
00000000: 5f5c dfbe 6c1b 11be d343 b9be ed13 babe
00000010: 8e5a 153c 8513 88bd acdf a1be b3d5 52be
00000020: 5763 bfbe 38a9 893d e6a1 d6be 9c26 c3bd
00000030: 3d18 80be c555 89be 1086 7cbe 954b 03be
00000040: 0e70 cfbe f124 c5be 04d2 acbe 6ae1 8bbe
00000050: b03e aabe 0fc9 bfbe 4f73 cebe 72bb cabe
00000060: 320f bfbe 4f0e c2be a0eb 15bd a50b 45be
00000070: f627 cdbe db96 e9bd 7aff 6fbe 04d0 89bd
00000080: db1e c1bd 730a 02bf 3009 08bf c4fc b4be
00000090: d149 783d 24d0 a9be 3df4 c8be 73d7 16bf
000000a0: 33dd c0be 4ae6 01bf 0c60 7dbe a19e 27bf
000000b0: 6b1f c4be da0a a1be b88b 613e f4a0 9bbe
000000c0: 758d cabe c6df d1bd 58c3 d9be 5358 b4be
000000d0: 87f9 50be df08 58be d1fb 9f3e f791 c0be
000000e0: a103 66be 2d6b 08bf 316f 72be eb21 c4be
000000f0: d41c 02be 5534 00bf a318 85be f6fc bcbe
00000100: 0312 773c e71b cb3d 684e f7be a5ec bdbe
00000110: 7117 2cbf dec5 8e3d fc80 1bbe 9ebb 0c3e
00000120: d820 57be d6f4 02bf e548 2fbe 7593 1e3e
00000130: d45a 76be e952 ccbe 70e3 28bf 1159 8abe
00000140: 39a1 9cbe 62e8 8abe 584a 6ebe 2a66 dbbe
00000150: ee28 67be cf23 02bf f455 cabe 5321 d4be
00000160: 71cc 7bbe 062f 61be 103f 2ebe c1ca e4be
00000170: 9858 c3be b7bd d2be d104 0ebf f73f bdbe
00000180: 78d6 c6be d9bb eabe 0032 bcbe 71f7 94be
00000190: e4f1 5abe da76 f8be 8abd 5bbe 0d41 c8be
000001a0: fcfb 00bf 1a88 03bf 59b9 8d3e 49d2 95be
000001b0: 8750 8fbd 3ea2 9c3e b5c7 f4be eac9 c5be
000001c0: 9dad debd 3935 2bbf 539f 343d bc60 8fbe
000001d0: 3e95 cdbe 95b8 d83d c579 32be adcb f5be
000001e0: 20a3 823e 08a6 bbbe a095 f5be f4ba bfbe
000001f0: 773c c1be ba5d bdbe 9404 d6be b2dc d7be
00000200: 5f68 223c 7fed c3be 937f 22bf 471e c0be
00000210: 7c7f c0be e56e e3be 98e9 c2be ed5a 0e3e
00000220: fd0a bbbe 1374 0cbf 5214 20bf d03b c0be
00000230: 1f16 bdbe 293e 26bf 7123 24bf ca81 aabd
00000240: 725c b4be 5199 4bbe bad9 16be 813a d0be
00000250: e2d7 bbbe d1b7 0dbc 7f35 82be b6fd 07bf
00000260: e9cc 84be 548d 84be a0fe bebe b2a2 d2bd
00000270: de01 b3be a0f7 673e ee6f eabe 174e c1be
00000280: 998a febe 6916 d5be 88ec c0be 192c 713d
00000290: a3b5 173e 6edf c3be 75f1 c0be 3efc a43d
000002a0: ae83 bbbe 003c 3ebe c231 b2be 7e92 30be
000002b0: ebaa 5abe be0f fdbd 8b9a 25be 4b4c a1be
000002c0: 52d7 d9be e5d4 e9be ef18 2d3d fea6 8cbe
000002d0: f8b2 abbe c7f4 933e e1f7 cfbe 5326 853d
000002e0: ce1e c2bd 70c7 47be 91f4 22be 03d2 62be
000002f0: 35f9 753e 59c9 82be 31b6 c9bd aef3 cfbe
00000300: 2404 cfbe 68fa bc3d e926 1dbf cfe4 80be
00000310: d6a2 babe 78a9 a2be e020 45be e5df ddbe
00000320: 2aac adbe c4d2 14bf 9ca3 f5be b807 4cbe
00000330: bff8 00be 4d8f 25bf f84f aabe fec5 20bf
00000340: 9f3f 29bf f1e4 a6be 9b6b 81be 08af a3be
00000350: 825a 81be 914d 633d 4ed5 8e3e 171d 2b3e
00000360: 8cc1 58be be83 cabe 363a f5bd 544b 50be
00000370: a79d bcbe 8d61 a0be df51 a4be 2c8f c8be
00000380: f01a 00bf 9c76 0e3e f29b 47be 63d5 c1be
00000390: 57ee a4be a56f 29bf 3ade 94be 37dd a9be
000003a0: f9d0 f9be 3483 01bf 13fa 1fbf bbb3 0dbf
000003b0: 9df6 e4bd 5c29 b13d b2dc 953e fa3e 38be
000003c0: a4cf c7be d97c 05be 8454 d83d 1274 bdbe
000003d0: 26dc c8be 8b2b 0dbe ce00 7ebe ced4 d9bd
000003e0: 0ce0 1dbf b97a 213e c41d 263e a257 cfbe
000003f0: 44d7 b6be bc21 15be f559 9ebe 8600 07bf

model.1.running_mean f4 [256]
-20.122877 0.12614934 23.778166 -61.63526 -37.560684 -42.955544 22.27587 -70.8231
17.943985 2.2010171 77.63324 102.48345 -23.076752 102.64634 89.9459 -14.237422
-38.650097 20.040442 8.266549 -50.25484 22.405159 46.162544 -98.0449 3.83889
28.492064 -66.292595 -29.141424 40.696823 21.710138 26.924757 45.534157 -32.87652
-0.28568688 -13.225079 -50.445377 42.450577 35.302444 -77.148056 -14.100288 42.20288
-14.068638 45.80132 -71.336876 -31.471626 -40.147564 19.801598 -15.766181 88.148926
-3.1420019 -94.649605 -40.627674 59.636593 -55.999466 105.67192 1.6220855 103.36783
-15.823867 3.766383 66.249115 77.70687 69.300285 -37.114445 51.038242 64.125786
64.61751 -26.849512 28.125479 -37.240593 20.757595 -74.160576 -46.072956 67.173294
59.699398 -6.929551 3.6966665 -52.73813 57.16088 -3.4963136 -35.46034 -12.508338
-24.710201 53.230755 -55.90615 -25.391613 -43.718704 -112.20316 35.178635 62.3173
-45.905365 21.47716 106.98879 87.69742 -102.36337 87.91965 -66.97428 -19.418245
-1.9112977 7.1152616 -38.958637 -36.91167 45.95604 30.318655 -25.83775 -43.18719
60.23603 47.006252 -42.694965 -54.052452 -11.398432 -13.929126 -34.49042 -25.593454
23.839014 -2.717672 -86.04399 102.91692 6.370384 53.22335 -21.391296 -18.145891
-36.84486 -42.529694 -36.227497 -11.116423 -15.370507 45.066296 22.33586 -0.29872605
-71.69314 96.13564 30.10766 -30.961287 -41.537613 -71.40083 29.054577 68.39197
60.354805 2.5744927 -19.698704 15.790901 2.4591124 -6.332401 46.665775 39.276398
20.959972 -52.3668 -35.28357 1.0715827 -25.978788 72.981285 -62.5354 4.858181
28.292137 22.051178 -89.216965 55.058483 110.34212 27.062307 83.21779 -25.71949
-12.091941 45.857586 -2.900895 -44.958984 -43.646416 -70.49322 -3.643072 6.3512487
24.92471 -37.47286 -31.369026 37.420223 98.204155 26.643375 30.094957 -7.9336143
-112.49378 -11.304022 -17.728668 -24.017248 45.79001 13.287457 -18.123882 75.47493
95.19453 72.153465 -2.194863 -24.670883 -30.160328 -58.581512 24.83103 60.20663
-1.9599783 -74.332886 -47.03351 19.521109 77.00113 -44.792526 -59.346485 -10.346381
-80.66915 -100.33728 -34.8235 -45.95062 -60.70597 19.621681 -65.13646 -133.73619
26.500883 -5.8290563 63.526726 -88.22148 -24.543068 67.48596 54.077007 32.369385
17.121675 -7.5887 38.44979 -53.723186 56.24319 38.322044 -11.152465 37.868305
38.573563 -7.3389053 0.473982 95.21498 47.623898 8.235811 -45.157967 -11.665838
-6.758531 -83.5099 -51.94958 -3.2722898 7.033962 -25.765945 15.759782 -73.30831
55.265217 48.482388 47.5758 -29.356949 -99.647835 -3.144285 -63.06405 50.554768
-99.76416 50.529022 31.328642 74.131165 -72.65621 -11.209714 3.573052 -39.152687
00000000: a7fb a0c1 4b2d 013e af39 be41 828a 76c2
00000010: 243e 16c2 7ad2 2bc2 fb34 b241 6da5 8dc2
00000020: 488d 8f41 77dd 0c40 3844 9b42 87f7 cc42
00000030: 309d b8c1 ed4a cd42 4de4 b342 7bcc 63c1
00000040: b399 1ac2 d352 a041 c943 0441 f504 49c2
00000050: c43d b341 72a6 3842 fd16 c4c2 60b0 7540
00000060: bfef e341 cf95 84c2 a321 e9c1 8cc9 2242
00000070: 5dae ad41 e765 d741 fa22 3642 8e81 03c2
00000080: 8d45 92be ec99 53c1 11c8 49c2 64cd 2942
00000090: b435 0d42 ce4b 9ac2 c89a 61c1 c0cf 2842
000000a0: 2419 61c1 8d34 3742 7bac 8ec2 e4c5 fbc1
000000b0: 1b97 20c2 ac69 9e41 4742 7cc1 404c b042
000000c0: 8f16 49c0 994c bdc2 bd82 22c2 df8b 6e42
000000d0: 74ff 5fc2 0658 d342 7fa0 cf3f 54bc ce42
000000e0: 8f2e 7dc1 6b0c 7140 8c7f 8442 eb69 9b42
000000f0: bf99 8a42 3175 14c2 2927 4c42 6740 8042
00000100: 2a3c 8142 cdcb d6c1 fb00 e141 5ef6 14c2
00000110: 8e0f a641 3752 94c2 b54a 38c2 ba58 8642
00000120: 2fcc 6e42 e2be ddc0 2f96 6c40 d8f3 52c2
00000130: bea4 6442 9ac3 5fc0 63d7 0dc2 2722 48c1
00000140: 7eae c5c1 4bec 5442 e69f 5fc2 0622 cbc1
00000150: f4df 2ec2 0568 e0c2 ecb6 0c42 ea44 7942
00000160: 189f 37c2 39d1 ab41 43fa d542 1465 af42
00000170: 0cba ccc2 dcd6 af42 d5f2 85c2 9158 9bc1
00000180: 67a5 f4bf 39b0 e340 a5d5 1bc2 8da5 13c2
00000190: fcd2 3742 9b8c f241 b6b3 cec1 afbf 2cc2
000001a0: b2f1 7042 6706 3c42 a5c7 2ac2 b635 58c2
000001b0: fa5f 36c1 b3dd 5ec1 31f6 09c2 65bf ccc1
000001c0: 4db6 be41 57ee 2dc0 8616 acc2 77d5 cd42
000001d0: 30da cb40 b6e4 5442 6021 abc1 c92a 91c1
000001e0: 2361 13c2 681e 2ac2 f5e8 10c2 dedc 31c1
000001f0: 99ed 75c1 e343 3442 d7af b241 9ff2 98be
00000200: e362 8fc2 7345 c042 7ddc f041 b7b0 f7c1
00000210: 8426 26c2 3acd 8ec2 c66f e841 b0c8 8842
00000220: 526b 7142 7dc4 2440 f296 9dc1 88a7 7c41
00000230: 1962 1d40 07a3 cac0 c1a9 3a42 081b 1d42
00000240: 06ae a741 9a77 51c2 6022 0dc2 9f29 893f
00000250: 8fd4 cfc1 6bf6 9142 4024 7ac2 3876 9b40
00000260: 4c56 e241 d068 b041 166f b2c2 e33b 5c42
00000270: 2aaf dc42 9b7f d841 826f a642 84c1 cdc1
00000280: 9778 41c1 2b6e 3742 44a8 39c0 00d6 33c2
00000290: ee95 2ec2 87fc 8cc2 1728 69c0 6e3d cb40
000002a0: ce65 c741 35e4 15c2 c4f3 fac1 4fae 1542
000002b0: 8768 c442 a225 d541 79c2 f041 2be0 fdc0
000002c0: d1fc e0c2 46dd 34c1 50d4 8dc1 5323 c0c1
000002d0: f828 3742 6d99 5441 b6fd 90c1 2af3 9642
000002e0: 9963 be42 934e 9042 a378 0cc0 f85d c5c1
000002f0: 5a48 f1c1 7853 6ac2 f3a5 c641 97d3 7042
00000300: 92e0 fabf 70aa 94c2 5022 3cc2 3b2b 9c41
00000310: 9400 9a42 8c2b 33c2 cd62 6dc2 c78a 25c1
00000320: 9b56 a1c2 b0ac c8c2 444b 0bc2 6fcd 37c2
00000330: ead2 72c2 34f9 9c41 de45 82c2 77bc 05c3
00000340: cf01 d441 a187 bac0 5e1b 7e42 6671 b0c2
00000350: 3458 c4c1 d0f8 8642 db4e 5842 407a 0142
00000360: 31f9 8841 a1d6 f2c0 96cc 1942 8be4 56c2
00000370: 07f9 6042 c649 1942 7f70 32c1 2579 1742
00000380: 544b 1a42 50d8 eac0 c5ad f23e 126e be42
00000390: df7e 3e42 e2c5 0341 c2a1 34c2 46a7 3ac1
000003a0: e345 d8c0 1205 a7c2 5fcc 4fc2 326d 51c0
000003b0: 3716 e140 a820 cec1 1128 7c41 db9d 92c2
000003c0: 950f 5d42 f7ed 4142 9f4d 3e42 08db eac1
000003d0: b14b c7c2 f73b 49c0 9641 7cc2 1538 4a42
000003e0: 4087 c7c2 b81d 4a42 0fa1 fa41 2843 9442
000003f0: fb4f 91c2 fd5a 33c1 e2ac 6440 5a9c 1cc2

model.1.running_var f4 [256]
0.0075273984 0.007040371 0.020422138 0.011030154 0.0029325504 0.0019363122 0.0011135481 0.0031070078
0.009214966 0.005035964 0.006522855 0.01258184 4.8922364e-05 0.0014900552 0.0009867599 0.0087993685
0.016726287 0.0069848537 0.01097648 4.1721712e-05 0.0035114684 0.00011547585 0.007794327 0.015391302
4.6989255e-05 0.0018990221 0.0014754485 0.0021033797 0.0155779 0.008433558 0.0018150989 0.0028563654
0.0043940465 0.007894345 0.010603938 0.013349834 0.0009286126 0.021611497 0.010934813 0.00079214654
0.01098085 0.0040489677 0.0011218123 0.002147027 0.00010144073 0.011062649 0.0027577335 5.301706e-05
0.008339303 0.009300887 0.015508228 0.005613434 0.00081800966 2.9052611e-05 0.0076359077 0.013906143
8.2269406e-05 0.0053408174 0.0014348951 0.005205175 0.008087022 0.0019558421 0.001618099 0.01013221
0.0027066395 0.0018693331 0.0029030554 0.0069347 0.004288997 0.0019130842 0.002655124 0.0051070023
8.929813e-05 0.0031158857 0.0024611095 0.008325085 4.270171e-05 0.009228567 0.0016071273 0.00058028643
0.013334273 0.0006330976 1.9455925e-05 0.0024774547 0.0019036302 0.008677248 0.011357818 0.00577039
6.016848e-05 0.0045011104 0.0012742694 0.0017937644 0.00014181592 0.0054428056 0.0029688908 0.0034352012
0.00017104232 0.0055758846 0.025191005 0.00010040421 0.0022928114 0.001845652 0.00013018804 0.00238736
0.0038666078 0.008681823 0.0038809062 0.007824523 0.0095445085 0.0018850338 0.007957784 0.008135869
0.0106911715 0.0012698101 0.002849462 0.001482874 9.427782e-05 0.009049504 0.0032542953 0.0051277317
0.0021264483 0.0074055768 0.0005922748 0.020307004 0.019663837 0.0069598192 0.0054232413 0.022266164
0.00607937 0.013108902 0.00045821184 0.0037903306 0.0027235136 0.00032272306 0.017467275 0.0054169055
0.00548882 0.008838477 0.0024664819 0.022433013 0.0008900103 0.0036521878 0.002340398 0.008002633
9.260628e-05 0.0018052305 0.002819679 0.0073390985 0.013952788 0.0032519386 0.0040926584 0.004352389
0.011832243 2.8698973e-05 0.018850252 0.014405204 0.018124022 0.006521479 0.00074857724 0.00472607
0.012983671 0.023064015 0.0048649115 0.0037965563 0.010110363 0.009354111 0.014734409 0.0024853589
0.009449363 0.0024317007 0.033049535 0.0030463424 0.00081016036 0.011212669 0.003081721 5.7067715e-05
0.009389567 0.005781951 0.0030533613 0.00011259566 0.002092957 0.0011721341 0.01290719 0.0024146354
0.014028361 0.0006118513 0.0062610665 0.002907954 0.0066120927 9.120171e-05 0.0071235686 0.0028682014
0.008724702 0.00515752 0.0009942221 0.0042351936 2.7081263e-05 0.0019269334 0.0007681233 0.0034589213
0.00015850522 0.020831317 0.021834766 0.0003553699 0.008787782 0.0008127588 0.01321674 0.0014845898
0.0007993439 0.0097076185 5.882027e-05 0.009279208 2.6664467e-05 0.0041372427 0.0020425445 0.004902116
4.8195634e-05 0.018999608 0.0032151367 0.0028463202 0.017884951 9.216605e-05 0.004718447 0.0022174157
0.005452338 0.0019529975 0.0030577774 6.0623654e-05 0.009813778 0.00085843133 0.00011449991 0.0061802375
0.0061720205 0.009170205 0.000947758 0.010614884 0.006725564 0.009424972 0.003189146 0.0046809553
0.0022101447 0.0006637405 0.0028384945 0.010797261 0.019568132 0.005561893 0.0012683765 0.014637134
0.003529712 0.0028096884 0.0033268975 0.013386082 0.014623919 0.0029448834 0.00017121134 0.0033494062
00000000: 65a8 f63b eab2 e63b 544c a73c d2b7 343c
00000010: 0830 403b dbcb fd3a 79f4 913a f19e 4b3b
00000020: 5efa 163c ba04 a53b acbd d53b 1024 4e3c
00000030: fd31 4d38 f54d c33a 2b56 813a 3a2b 103c
00000040: 9105 893c 33e1 e43b b2d6 333c 59fe 2e38
00000050: aa20 663b a02b f238 8e67 ff3b cd2b 7c3c
00000060: 5416 4538 9ce8 f83a d663 c13a dbd8 093b
00000070: 733a 7f3c e82c 0a3c 9de8 ed3a dc31 3b3b
00000080: effb 8f3b 4857 013c 24bc 2d3c 43b9 5a3c
00000090: 236e 733a 980a b13c ee27 333c 0ea8 4f3a
000000a0: 06e9 333c 34ad 843b c609 933a 23b5 0c3b
000000b0: 94bc d438 1d40 353c 17bb 343b a25e 5e38
000000c0: 92a1 083c bf62 183c 3916 7e3c e6f0 b73b
000000d0: b36f 563a 02b6 f337 a336 fa3b 97d6 633c
000000e0: 0d88 ac38 0602 af3b 1713 bc3a 2c90 aa3b
000000f0: 6e7f 043c 962d 003b 6516 d43a 9201 263c
00000100: e061 313b 6904 f53a 3041 3e3b 7b3c e33b
00000110: b78a 8c3b 74c0 fa3a 9701 2e3b a458 a73b
00000120: 9245 bb38 e333 4c3b 914a 213b f065 083c
00000130: 9d1a 3338 6a33 173c 3ea6 d23a 5d1e 183a
00000140: ff77 5a3c 76f6 253a 4835 a337 cb5c 223b
00000150: 3b83 f93a 042b 0e3c 2416 3a3c 8a15 bd3b
00000160: 6a5d 7c38 0d7e 933b 6305 a73a bf1c eb3a
00000170: 6cb4 1439 9059 b23b b991 423b 1d21 613b
00000180: d359 3339 e9b5 b63b 5e5d ce3c 1a90 d238
00000190: fe42 163b cee9 f13a 1683 0839 4175 1c3b
000001a0: ea66 7d3b 343e 0e3c cd56 7e3b 6e32 003c
000001b0: 9260 1c3c 3d13 f73a 5e61 023c 4f4c 053c
000001c0: 062a 2f3c c26f a63a 0abe 3a3b ff5c c23a
000001d0: 05b7 c538 5f44 143c 0446 553b 8806 a83b
000001e0: e25b 0b3b 7baa f23b e442 1b3a e05a a63c
000001f0: 0e16 a13c 320f e43b 72b5 b13b 8867 b63c
00000200: 7435 c73b b8c6 563c 273c f039 3267 783b
00000210: fa7c 323b 2833 a939 8817 8f3c 4c80 b13b
00000220: 8fdb b33b 42cf 103c b3a4 213b 70c5 b73c
00000230: 954f 693a 8b59 6f3b 5d61 193b 7a1d 033c
00000240: 9e35 c238 7c9d ec3a 5dca 383b d27c f03b
00000250: 3c9a 643c 7a1e 553b b51b 863b 7c9e 8e3b
00000260: 06dc 413c 93be f037 d86b 9a3c ce03 6c3c
00000270: d478 943c 22b2 d53b 2b3c 443a 26dd 9a3b
00000280: 77b9 543c bff0 bc3c d669 9f3b a5cf 783b
00000290: f0a5 253c fc41 193c 9768 713c 67e1 223b
000002a0: 80d1 1a3c 2b5d 1f3b f35e 073d 25a5 473b
000002b0: f160 543a 58b5 373c b3f6 493b fe5b 6f38
000002c0: b3d6 193c 8576 bd3b e71a 483b 5621 ec38
000002d0: fe29 093b 4ba2 993a ae78 533c dc3e 1e3b
000002e0: 36d7 653c a564 203a a229 cd3b 5f93 3e3b
000002f0: 41aa d83b 8c43 bf38 d36c e93b 6ff8 3b3b
00000300: 0df2 0e3c 6a00 a93b 8f50 823a 61c7 8a3b
00000310: 922c e337 2891 fc3a e25b 493a 12af 623b
00000320: 6c34 2639 70a6 aa3c d3de b23c f150 ba39
00000330: a1fa 0f3c 520f 553a 078b 583c 9196 c23a
00000340: 108b 513a b40c 1f3c c9b5 7638 d207 183c
00000350: 82ad df37 b591 873b 36dc 053b eea1 a03b
00000360: ab25 4a38 11a5 9b3c 0bb5 523b 5489 3a3b
00000370: 7683 923c 4549 c138 349d 9a3b 1052 113b
00000380: 87a9 b23b b9fb ff3a fe64 483b 2746 7e38
00000390: f8c9 203c 5a08 613a ac1f f038 9783 ca3b
000003a0: a93e ca3b a13e 163c f672 783a 0dea 2d3c
000003b0: 1f62 dc3b 336b 1a3c fe00 513b b362 993b
000003c0: 13d8 103b dffe 2d3a 0906 3a3b ffe6 303c
000003d0: 594d a03c 8a40 b63b a73f a63a 97d0 6f3c
000003e0: be52 673b c022 383b 1408 5a3b 4c51 5b3c
000003f0: 2999 6f3c f2fe 403b 3287 3339 b681 5b3b

model.4.weight f4 [2, 256]
-0.04105897 -0.0022890822 -0.030028088 -0.037545543 -0.0059090056 0.0040100287 -0.06400429 -0.001140746
-0.029369362 -0.0062799347 -0.0411631 0.0030320573 -0.002625452 -0.05952427 -0.062990576 0.014535974
-0.036664113 -0.04003551 -0.029492956 -0.0078118118 -0.035564 -0.01619279 -0.033153463 -0.030642036
-0.010377528 -0.026782451 -0.059296735 -0.060785003 -0.041097425 0.0028934672 -0.059584167 -0.0032338598
0.0034533837 -0.05627861 -0.054175142 -0.037568852 0.0031275142 -0.034817554 -0.037492808 -0.07922822
-0.03234082 0.03722934 0.0002652406 -0.10442266 0.014866142 -0.03440236 -0.004087163 0.010944654
-0.034325365 0.0023703382 -0.044844802 -0.039228022 -0.02562402 -0.0321479 0.0011045123 -0.034972347
0.015718019 -0.05469948 -0.065594696 -0.03841997 -0.0015718554 0.042133123 -0.02881285 -0.03875693
-0.0023885942 -0.047836967 0.036937688 -0.032798097 -0.11234448 -0.0061382633 -0.023335192 0.0050572376
0.013017378 0.02551354 0.0013401092 0.0059311744 -0.0061330604 -0.03789608 -0.102228336 -0.0622797
-0.027982477 -0.061111365 -0.008689924 0.042977367 -0.05376598 0.0326108 -0.037368968 0.03408621
-0.006362401 -0.029339047 -0.0006457359 -0.079298414 0.011870893 -0.04377546 0.03857759 0.04034544
-0.0018924437 -0.042344883 -0.03166003 0.01443164 -0.05747451 0.03992899 0.017338727 0.030352008
-0.05127434 -0.04920199 -0.0058011953 -0.035591885 -0.0015689405 -0.008627749 -0.048842672 -0.032822743
-0.006097639 -0.102304935 -0.0029618742 -0.06855188 -0.006703692 0.002581907 0.0014021441 -0.053578377
-0.0086113 -0.03639634 0.036596745 -0.031376913 -0.031643614 -0.031042445 0.028477505 -0.039718572
-0.002707447 -0.039783698 -0.102497734 -0.03315454 -0.03289151 0.057171624 -0.029525762 0.0093609765
-0.031925853 0.02908455 -0.10358665 -0.031389337 -0.06719407 -0.10586922 -0.102941595 -0.00011307653
0.0033294307 0.0007422734 -0.0031898587 -0.033636317 -0.04155528 -0.005101327 -0.0030982133 0.031376004
-0.0261929 -0.006560989 -0.034358285 0.0034763562 -0.031138942 0.0066729835 0.047682635 -0.040861662
-0.04955754 -0.035936188 0.025675075 0.0012732109 0.00058607373 -0.03986121 -0.037135027 -0.0048505673
-0.034700666 0.0031431336 -0.03319404 -0.05683827 -0.0649219 0.0039878734 -0.050313897 -0.01419082
-0.038751755 0.035098113 0.004871957 0.023758814 -0.071941376 -0.006733711 -0.042015113 -0.003997675
8.87533e-05 -0.0010851433 3.0549847e-05 0.0028668146 0.0042137643 0.011593505 -0.0115752695 -0.036192063
-0.03774436 -0.002490965 -0.10775656 -0.02291131 -0.0074830134 -0.036573786 -0.0026324394 -0.07175213
0.0023038103 -0.029608438 -0.046953555 -0.07259751 0.0012144052 -0.09952164 -0.031114783 -0.10172942
-0.10249242 -0.030698223 -0.000949214 -0.031235987 0.025794232 0.010432129 -0.0042837095 0.003332353
-0.0047574774 -0.03697287 0.00097305886 0.004213793 -0.030193176 0.0011223794 -0.030544158 -0.06691971
-0.053818915 -0.004078213 -0.054411806 -0.012648925 -0.03054075 -0.09769482 0.013465633 -0.028354878
0.03874816 -0.05818844 -0.1004586 -0.05816285 0.0059085097 -0.0020456454 -0.007833336 0.0069944393
-0.073892616 -0.053336676 -0.0056752763 -0.031652547 -0.032765843 0.0068365303 0.002674241 0.0012152081
-0.103731796 -0.049285784 -0.0009799202 -0.03503483 -0.03147961 0.011594676 0.0064136744 -0.054224715
00000000: 732d 28bd 6d04 16bb 77fd f5bc 5bc9 19bd
00000010: 55a0 c1bb 8f66 833b ae14 83bd 1685 95ba
00000020: 0498 f0bc e9c7 cdbb a49a 28bd 7bb5 463b
00000030: c60f 2cbb b9cf 73bd 3401 81bd 4b28 6e3c
00000040: 1c2d 16bd 46fc 23bd 369b f1bc 3afa ffbb
00000050: 8fab 11bd bea6 84bc edcb 07bd 0205 fbbc
00000060: 8206 2abc df66 dbbc 22e1 72bd b2f9 78bd
00000070: c655 28bd 53a0 3d3b 870e 74bd 2aef 53bb
00000080: 2a52 623b 6684 66bd c1e6 5dbd cce1 19bd
00000090: fbf6 4c3b da9c 0ebd 0f92 19bd 6842 a2bd
000000a0: cf77 04bd cb7d 183d fe0f 8b39 8cdb d5bd
000000b0: 1e91 733c 7de9 0cbd 9ced 85bb 3551 333c
000000c0: c198 0cbd ad57 1b3b 2faf 37bd 90ad 20bd
000000d0: 77e9 d1bc 84ad 03bd 48c5 903a 2a3f 0fbd
000000e0: 13c3 803c 900c 60bd 8356 86bd 425e 1dbd
000000f0: b706 ceba c893 2c3d ed08 ecbc 96bf 1ebd
00000100: f689 1cbb b2f0 43bd f94b 173d 4c57 06bd
00000110: dd14 e6bd 7c23 c9bb 7229 bfbc 2fb7 a53b
00000120: d746 553c c501 d13c 9aa6 af3a 4c5a c23b
00000130: d7f7 c8bb ec38 1bbd 175d d1bd 0019 7fbd
00000140: 823b e5bc e94f 7abd 2f60 0ebc 0909 303d
00000150: b739 5cbd e792 053d 3410 19bd fb9d 0b3d
00000160: b07b d0bb 7158 f0bc 9a46 29ba 3567 a2bd
00000170: 227e 423c e64d 33bd 8903 1e3d 4341 253d
00000180: e00b f8ba d471 2dbd f3ad 01bd af72 6c3c
00000190: 646a 6bbd 958c 233d f209 8e3c c6a4 f83c
000001a0: 0b05 52bd 0788 49bd f417 bebb ccc8 11bd
000001b0: e8a4 cdba 675b 0dbc 410f 48bd 2471 06bd
000001c0: b4ce c7bb 4085 d1bd 011c 42bb ee64 8cbd
000001d0: a5aa dbbb 3635 293b 26c8 b73a 0075 5bbd
000001e0: 6916 0dbc 5414 15bd 78e6 153d 1485 00bd
000001f0: bc9c 01bd ba4c febc a849 e93c f1af 22bd
00000200: 6c6f 31bb 3bf4 22bd 55ea d1bd 0ecd 07bd
00000210: 3fb9 06bd cb2c 6a3d 03e0 f1bc c85e 193c
00000220: afc4 02bd b942 ee3c 3d25 d4bd 1b92 00bd
00000230: 0b9d 89bd f6d1 d8bd 0bd3 d2bd 8023 edb8
00000240: 9432 5a3b 2095 423a f30c 51bb 3cc6 09bd
00000250: df35 2abd 0829 a7bb 650b 4bbb 2084 003d
00000260: 7e92 d6bc 91fd d6bb 46bb 0cbd 94d3 633b
00000270: 1817 ffbc 0ba9 da3b de4e 433d 8f5e 27bd
00000280: d9fc 4abd d331 13bd 8954 d23c dee1 a63a
00000290: bea2 193a 8245 23bd e61a 18bd 82f1 9ebb
000002a0: 4922 0ebd 08fd 4d3b 79f6 07bd 3fcf 68bd
000002b0: c6f5 84bd b5ac 823b f215 4ebd 9d80 68bc
000002c0: 29ba 1ebd 0ac3 0f3d f0a4 9f3b d8a1 c23c
000002d0: 0056 93bd 76a6 dcbb 0a18 2cbd eefe 82bb
000002e0: 1121 ba38 5e3b 8eba a622 0038 2be1 3b3b
000002f0: 9e13 8a3b aff2 3d3c 33a6 3dbc 213e 14bd
00000300: d499 1abd 753f 23bb 79af dcbd 80b0 bbbc
00000310: 1134 f5bb 65ce 15bd 0185 2cbb c8f2 92bd
00000320: 86fb 163b 658d f2bc 5f52 40bd 01ae 94bd
00000330: ad2c 9f3a 00d2 cbbd 6ee4 febc 8457 d0bd
00000340: 8ce7 d1bd d77a fbbc acd4 78ba 9de2 ffbc
00000350: 6d4e d33c 85eb 2a3c 5c5e 8cbb 9b63 5a3b
00000360: 9de4 9bbb dd70 17bd e014 7f3a dc13 8a3b
00000370: ae57 f7bc ce1c 933a be37 fabc 330d 89bd
00000380: 3971 5cbd 88a2 85bb eade 5ebd 703d 4fbc
00000390: 9830 fabc 3914 c8bd f59e 5c3c 7d48 e8bc
000003a0: 64b6 1e3d 0057 6ebd 3dbd cdbd 2b3c 6ebd
000003b0: 2c9c c13b 3c10 06bb 6457 00bc 9c31 e53b
000003c0: 0355 97bd 8f77 5abd abf7 b9bb 1aa6 01bd
000003d0: 7a35 06bd f904 e03b 5242 2f3b 9e47 9f3a
000003e0: 5671 d4bd e4df 49bd aa70 80ba af80 0fbd
000003f0: c3f0 00bd 99f7 3d3c cd29 d23b bc1a 5ebd

model.4.bias f4 [2]
0.3080839 0.42427838
00000000: 2cbd 9d3e 043b d93e
