models/two_layers/twoLayerModel_ee_corrCut_-1.0_weights_true_drop_0.2_top_mttbar_reco_no_qg.pt (torch, 18688 bytes, 8 tensors)

model.0.weight f4 [256, 8]
000000 9a 58 2e be f3 95 b3 3d ca 35 44 be 80 d9 44 be
       -0.17025986 0.08768835 -0.19161144 -0.19223595
000010 86 79 98 bd 52 77 2f 3e b6 1b 62 3e 45 27 d1 bd
       -0.07445054 0.17135361 0.22080883 -0.10212568
000020 6e 75 05 bf 43 63 9b be b0 5a 79 be eb 35 b6 bd
       -0.5213231 -0.30349168 -0.24351001 -0.08897003
000030 11 d7 94 3e 4f 1e d8 bd c2 bd 47 be c3 1b 94 3b
       0.29070333 -0.10552656 -0.1950598 0.004519911
000040 e0 b3 31 bd 92 b6 b9 be 36 85 5d 3e 02 88 e6 bd
       -0.043384433 -0.36272103 0.21632847 -0.1125641
000050 62 7e 54 bd 85 ab 5e bd f3 98 7d 3d 10 5c e3 3c
       -0.05187834 -0.054362793 0.061913442 0.02775386
000060 d3 d0 43 3d 70 af 06 bc 59 11 3d 3e b8 a4 87 3e
       0.047806572 -0.0082205385 0.18463649 0.26492858
000070 5f 11 64 bd 40 51 b3 bd f3 fb cd 3e 07 cc aa be
       -0.05568063 -0.087557316 0.40231284 -0.33358786
000080 32 b2 4f bc 6f 81 a2 3e c1 4a 9d 3d af d5 34 3e
       -0.012676762 0.31739375 0.07680274 0.17659639
000090 23 b5 9c 3d d5 7f 09 3e 31 ac 90 bd c4 88 d2 3c
       0.076517366 0.1342767 -0.07064093 0.02569998
0000a0 95 6c a2 be 88 68 fe 3a 61 92 a3 3d f6 e3 b0 3e
       -0.31723467 0.0019409815 0.07986904 0.3454892
0000b0 ba 26 17 3c a2 7d 7a 3d 97 7c b4 be 3b 9b cf bd
       0.009225542 0.06115497 -0.35251305 -0.1013703
0000c0 f9 e8 12 be 7c 38 1b be 1a 0f 9b be 9c 74 7c 3e
       -0.14346685 -0.15158266 -0.3028496 0.24653858
0000d0 c2 e7 03 be e0 2d 86 3d e2 c2 f3 3e 4b 7d 98 be
       -0.12881377 0.06551719 0.4760962 -0.2978309
0000e0 ac 7b 18 bd 2f a5 d8 be b2 3d 76 3d c8 5f 06 be
       -0.037227318 -0.42313525 0.06011743 -0.13122475
0000f0 37 d5 78 bd 17 99 84 3d dd 33 6e 3d 4d 68 08 3d
       -0.060750213 0.06474512 0.05815493 0.033302594
000100 80 53 d7 3e 93 26 1b 3e 68 76 bc bc ca a3 d7 3e
       0.42055893 0.15151434 -0.02300568 0.4211715
000110 d1 f1 55 be 6d 58 b5 be 41 5e 28 3e 06 db 60 be
       -0.20893027 -0.35419026 0.16442205 -0.21958551
000120 0f 0a 42 3e a5 7f 59 bc 6a 28 42 3e 4a c3 da 3d
       0.1894915 -0.013275062 0.18960729 0.1068178
000130 c7 54 b9 bd 5e 41 ae be d2 91 01 bf 01 00 e5 3d
       -0.09049373 -0.34034246 -0.5061313 0.11181641
000140 b7 f9 c4 be 78 56 77 3e c8 ec d0 3d 0d 5e 61 3e
       -0.38471767 0.24154079 0.102014124 0.22008534
000150 0f d1 54 be 0b e4 61 be 8d a0 40 3c 2e 3b 0c bd
       -0.20782875 -0.22059648 0.011757028 -0.034236126
000160 95 09 80 3d 23 7a d6 ba e6 d4 bd bd 67 3e 51 3e
       0.062518276 -0.0016363304 -0.09269123 0.20433961
000170 01 13 1f 3c 29 de 18 3e b0 3b 87 3d 71 d5 cc 3e
       0.009709121 0.14928497 0.06603181 0.40006593
000180 24 e6 96 be 5b 79 a2 bb 7b 57 a8 3e f9 4f d1 3e
       -0.29472458 -0.0049583144 0.32879242 0.40881327
000190 7f b6 ac 3a b9 9b a6 be 18 4c 0b bf 8b 20 95 3c
       0.0013176947 -0.32540682 -0.54412985 0.018203994
0001a0 e9 be 24 be b9 41 e6 bd d3 a9 e8 3d 7f 82 d7 3d
       -0.16088451 -0.11243004 0.113605164 0.10522937
0001b0 35 73 ca bd 55 1c 21 be 81 0a e9 3e c6 b4 69 be
       -0.09885255 -0.15733464 0.45515826 -0.22822866
0001c0 3b a2 8f be 45 15 51 3e 8b cf bc bd 40 08 6a 3e
       -0.2805346 0.2041827 -0.09219273 0.2285471
0001d0 0d c9 0b be 6c ea d8 bb 99 94 8f bd 86 f7 b9 3e
       -0.13650914 -0.006619742 -0.07010765 0.36321658
0001e0 47 44 56 3e 93 54 89 bc 0e 57 a8 be df ff 2c 3d
       0.20924483 -0.016763961 -0.32878917 0.042236205
0001f0 cb 4d e3 bd 0e e4 c6 be 5e e7 de be 38 65 e1 3d
       -0.11098822 -0.38845867 -0.43535894 0.11005634
000200 1c 2c d8 bd 3c e7 a0 be 4f 96 d3 bd 47 05 7e 3e
       -0.10555288 -0.31426418 -0.103314035 0.248067
000210 df 51 aa be 41 4e 61 3d 50 94 e2 3d ec 39 92 3e
       -0.33265588 0.05500627 0.110634446 0.28559816
000220 6f 0d f0 bc 04 d7 42 bd 5c c2 ca bd 3f 41 94 bc
       -0.02930328 -0.047568336 -0.09900352 -0.018097518
000230 0f 75 9a be 9f ba 6f bd 2c ce e1 3e d2 81 77 3e
       -0.30167434 -0.058527585 0.4410261 0.24170616
000240 5d e1 2f bd 31 29 28 3b 06 f1 b8 be a4 ad 46 bd
       -0.042939533 0.0025659318 -0.36121386 -0.04850544
000250 c9 61 bf 3c 28 08 aa be c5 69 2e 3f 0d 53 fb 3e
       0.023362057 -0.33209348 0.6813014 0.490868
000260 c8 cf 0c be f7 df 6e bd 85 80 20 be 9b 53 fe 3d
       -0.13751137 -0.05831906 -0.15674026 0.1241829
000270 47 05 c3 be e3 43 0a 3e c4 01 69 be 57 e3 8e bc
       -0.38089964 0.13502459 -0.2275458 -0.017442388
000280 39 15 51 3d 3c 84 44 3d e4 4e a3 be da a9 0e be
       0.05104563 0.04797767 -0.31896126 -0.1393198
000290 bb 15 b5 3e 63 35 6e be 4d 1b d2 3e 5e ab 00 3e
       0.35368142 -0.23262553 0.41036454 0.12565371
0002a0 82 80 22 be 62 a7 cb 3c 20 bd 46 3c 76 3e 5f 3d
       -0.15869334 0.024860088 0.012130052 0.054502927
0002b0 84 7f 60 3e 48 70 fc 3d 93 10 df 3e 47 e4 4a 3d
       0.21923643 0.123261034 0.43567333 0.04953411
0002c0 f0 87 00 3e fb f0 17 3e ec a2 c5 3e eb 65 d5 3d
       0.12551856 0.1483802 0.38600862 0.1041983
0002d0 d3 eb 15 3e 8a fa 1b be 06 1c 23 3f c8 99 af be
       0.14640741 -0.15232292 0.63714635 -0.34297013
0002e0 b1 9c 3a 3e 48 8b 7e 3b 6c 72 8a 3e 95 ce 43 3e
       0.18223836 0.0038840342 0.27040422 0.19121774
0002f0 a8 2e 38 3b f1 f0 24 bd 9d 71 70 bf 25 19 64 bb
       0.0028103981 -0.040268842 -0.9392336 -0.0034805026
000300 e1 b0 50 3d 12 a3 b2 3d f8 03 8d be cf d9 a0 3e
       0.050949935 0.087225094 -0.2754209 0.31416175
000310 06 b0 d6 bd 7a 6e ca 3e 15 26 c1 3d a8 c9 eb bd
       -0.104827926 0.39537412 0.09431092 -0.11513072
000320 80 44 b1 be d8 7c 4c bd 98 fa a5 3e 63 71 2b be
       -0.34622574 -0.049923748 0.3241775 -0.16742472
000330 fd ad ad 3e 36 95 11 3e 1f 47 2b be cd a2 02 bd
       0.33921805 0.14217076 -0.1672635 -0.03189354
000340 78 d4 c1 3b ff 0e dd bb ae 2e b1 bb 73 44 03 3e
       0.005915221 -0.0067461724 -0.005407176 0.1281908
000350 38 71 1b bd e3 e9 ab bd e9 dc d2 3e 54 10 82 be
       -0.03794977 -0.0839422 0.41184166 -0.25403082
000360 ac 1f 0e 3e a5 8a 80 bd fb 2a 91 be ee 82 dc be
       0.1387927 -0.06276444 -0.28353104 -0.4306864
000370 78 3c 82 3d c2 59 d5 bd 1c 31 94 3e 69 5f bf bd
       0.0635919 -0.104175106 0.28943717 -0.0934437
000380 78 ce be 3d f0 1f 87 3b e9 27 5a bd 64 51 9d 3d
       0.093167245 0.0041236803 -0.053260718 0.0768154
000390 5e cc 58 3b d1 e2 03 be 2d 2f 8b bf c2 19 0d bd
       0.0033080797 -0.12879492 -1.0873772 -0.034448393
0003a0 9e f6 e8 be 37 05 d8 bd df c4 6a 3e b7 4a 90 3e
       -0.45500654 -0.1054787 0.22926663 0.28182003
0003b0 40 96 ad 3d f7 e9 67 3e b7 79 cf 3d 17 2e c1 bd
       0.084759235 0.22647844 0.10130637 -0.09432619
0003c0 04 df d0 bd 4f 31 99 3e 18 a3 95 3e c4 b4 ce 3d
       -0.10198787 0.29920432 0.29225993 0.10093072
0003d0 0a 6b b4 3e 11 c0 70 3e a5 e4 9a 3e 84 7c 2c be
       0.35237914 0.23510768 0.30252567 -0.16844374
0003e0 49 62 b0 bc a5 14 c5 be cf 07 e9 bd e5 83 fd bd
       -0.021531241 -0.38492313 -0.113784425 -0.123786725
0003f0 84 d6 98 3e 2a 33 61 3e a2 c7 ae bd 15 ef c7 3d
       0.29851162 0.21992174 -0.08534171 0.09762398

model.0.bias f4 [256]
000000 aa f1 e7 bc 2a 5c 5f be fa 6a 09 3e aa d0 b7 be
       -0.028313477 -0.21812502 0.13419715 -0.35901386
000010 02 45 af be d7 9c 8f 3e ca bc 52 3e 76 fb 7b be
       -0.34232336 0.28049347 0.2057983 -0.24607643
000020 0c 37 55 3e e1 a2 89 be 91 50 ab bd 0e 6e 42 3d
       0.2082178 -0.2688208 -0.08364976 0.047468238
000030 33 6e 85 3c 5f 6f 9f 3e 03 4c 4f bd 80 2e 8d 3e
       0.016287899 0.31139657 -0.0506096 0.2757454
000040 07 1d ac be f3 d7 73 bb 32 00 9f be 05 67 6e bd
       -0.33615896 -0.0037207573 -0.31054837 -0.058203716
000050 8d fd 95 be b6 21 84 be 86 7a 4d be a8 8c aa be
       -0.29295006 -0.2580697 -0.2006627 -0.33310437
000060 9e b2 9f bd 1d e1 dc 3d 33 bb 4b be 3a fe 50 3e
       -0.077977404 0.107851245 -0.1989563 0.2040948
000070 08 75 b2 3e ba 36 21 be 66 f4 d9 3d f5 8a 81 3e
       0.34854913 -0.15743533 0.106423184 0.25301328
000080 69 38 7c 3e 69 9d cb 3d 92 6e a7 3d 53 f7 37 3e
       0.24630894 0.09942133 0.081753865 0.1796544
000090 57 18 82 be cf d4 e6 bd 7c 22 78 be fd 51 b9 be
       -0.25409195 -0.11271059 -0.24231905 -0.36195365
0000a0 08 b1 10 3e 4e 14 80 3e 5f 08 95 be cb 09 96 3e
       0.14130032 0.2501549 -0.2910795 0.29304346
0000b0 19 69 f8 3d d5 08 b4 3e 35 8d 0d be db 6a 8b 3e
       0.12129421 0.35162988 -0.13823397 0.27229962
0000c0 41 60 76 3e 46 30 79 be b6 83 ed bd bc 73 67 be
       0.24060155 -0.24334821 -0.115973875 -0.22602743
0000d0 d8 a0 12 3e 10 21 35 3e 0c e1 60 be 35 fa 10 3e
       0.1431917 0.17688394 -0.21960849 0.14157946
0000e0 d3 79 51 3c 19 19 3c be d2 1a 78 be 7f 3f 93 3e
       0.012785393 -0.18368949 -0.24228981 0.2875938
0000f0 ea 7b 61 be 97 a6 e2 3d 06 f6 10 3e fb ee 73 be
       -0.22019926 0.11066931 0.1415635 -0.23821633
000100 37 a4 9c be aa 00 a4 3e 27 0c a6 3e 27 ba 72 3e
       -0.30594036 0.32031757 0.32431147 0.23703824
000110 f6 c6 cf 3d cd d8 60 be 59 a0 97 3e 71 1a e3 bd
       0.10145371 -0.21957703 0.29614523 -0.11089028
000120 2e c1 24 3e 51 7b ad be 7b 77 77 3e 23 18 88 3e
       0.16089317 -0.33883145 0.24166672 0.26580915
000130 1b 84 3e 3e e7 4b 04 be b9 25 10 3e 34 85 46 be
       0.18605082 -0.1291958 0.1407689 -0.1938675
000140 80 60 b3 3d 5a 8a aa 3c 10 ee fc bd 35 ec 8d 3e
       0.0875864 0.020817924 -0.12350094 0.27719274
000150 29 ad 44 3e ea c9 6f be c8 31 88 3e e6 74 a0 be
       0.1920668 -0.23416868 0.2660048 -0.31339186
000160 c6 68 9b bd 22 88 25 be 3c cc 44 3e 5c 4d b6 3d
       -0.07588343 -0.16165212 0.19218534 0.08901474
000170 4b d4 38 be 80 47 22 be d6 9b df bd b2 dc 02 be
       -0.18049733 -0.15847588 -0.10918395 -0.12779501
000180 92 0e 8f 3e c5 bc 91 be 10 4c d6 3d ec 5b d3 3d
       0.27940804 -0.28464332 0.104637265 0.10320267
000190 d5 56 33 3e f9 09 ae 3e 57 70 9c 3e be 45 e5 bd
       0.17513593 0.33991984 0.30554458 -0.11194943
0001a0 9a 96 af be 13 0a a4 be 03 cd 92 3e 89 c4 72 be
       -0.34294587 -0.32038936 0.28672037 -0.23707785
0001b0 e4 40 2f 3e 50 db 29 be 17 3b 0c bd 69 38 9a 3c
       0.17114598 -0.16587567 -0.03423604 0.018825727
0001c0 59 59 6d 3e 5f b6 9c be db b0 1d 3e e9 dc 8e 3d
       0.23178615 -0.30607888 0.15399496 0.06975729
0001d0 b1 a7 ba bc 64 a4 23 3e 1d 11 d2 bc 91 11 10 be
       -0.02278504 0.15980679 -0.025642926 -0.14069201
0001e0 a4 1e 7c 3d bb d7 fc bb d1 21 4d 3c f1 10 9e be
       0.06155266 -0.0077161468 0.0125202695 -0.308723
0001f0 81 ae 85 3e a9 b0 30 be db f6 7c 3e 74 eb 7a bd
       0.26109698 -0.1725489 0.24703543 -0.0612597
000200 ea 58 b0 be 05 9e ab 3e bf 18 28 3e 4d c9 9f 3e
       -0.34442836 0.33518997 0.1641569 0.31208268
000210 a1 63 2e 3d d8 e5 83 be a7 46 76 be 15 68 7a bd
       0.042575482 -0.25761294 -0.24050389 -0.061134417
000220 4c a4 53 bd 06 c2 81 3e bf 02 31 be 5a 28 ae 3d
       -0.051670358 0.2534334 -0.17286204 0.0850379
000230 50 cd 22 3e 02 cd 73 be 8e af 84 3e ed df 6c be
       0.15898633 -0.23808673 0.25915188 -0.23132296
000240 e7 48 81 3e 7b 46 8d be 3f b6 7c bd 03 56 91 bd
       0.25250933 -0.27592835 -0.06169724 -0.070964836
000250 bd 7b 0a bc 28 cb 7e 3d eb 8c d8 bd f1 d7 9b 3d
       -0.008452353 0.062205464 -0.10573753 0.07609547
000260 93 50 be bc f2 04 90 3e 6c 07 aa 3e d6 e0 95 be
       -0.02323178 0.28128773 0.33208787 -0.292731
000270 14 8f 16 3e b3 78 09 be 09 68 28 3e 83 93 db bd
       0.14703017 -0.1342495 0.16445936 -0.10721495
000280 75 7b c8 3d 56 07 f7 3d 37 97 4d be c7 e3 9d bd
       0.097891726 0.12061946 -0.20077215 -0.07709461
000290 da 8d 1b be 14 fd 4d 3e 7d 90 02 3e e4 bb 4b be
       -0.15190831 0.20116073 0.1275043 -0.19895893
0002a0 c9 dd bc bd 3c 9f b3 3e b0 6a 69 3e 77 d3 93 3d
       -0.0922199 0.35082424 0.22794604 0.07218068
0002b0 9d 2b 92 3d af c2 32 3e f1 c6 8b be d0 ab 92 3e
       0.07137225 0.17457078 -0.27300218 0.28646708
0002c0 ea 43 ea bd b3 c1 c4 3e f6 8b 76 3e 3d 7c 48 be
       -0.11438735 0.3842903 0.24076828 -0.19578643
0002d0 08 47 16 3e 80 a5 75 be 48 44 cb bd 6a c1 93 3e
       0.14675534 -0.23988914 -0.09925133 0.288585
0002e0 14 ad 2d 3e d9 b8 27 bd f2 f0 a7 3d 26 ac b4 be
       0.16960555 -0.04094777 0.082002535 -0.3528759
0002f0 fa 66 4b be 4f 5f 6d be a6 3a c4 3d 2d 07 22 be
       -0.19863501 -0.23180889 0.09581499 -0.1582305
000300 18 00 99 3e bb 38 a9 be 34 5a c3 3d 0d 87 01 be
       0.29882884 -0.33051094 0.09538689 -0.12649174
000310 13 06 9b bd e4 76 1e 3d 13 d9 a3 3e e9 1b 53 3e
       -0.07569518 0.0386876 0.32001552 0.20616116
000320 84 d8 42 be ba 44 b4 3e 07 80 1a 3e 7f 1e 26 bd
       -0.19027907 0.35208684 0.15087901 -0.040556427
000330 1d 97 ed 3d 3f 73 40 3e fd dc 28 3e 14 aa a2 be
       0.11601088 0.18793963 0.1649055 -0.31770384
000340 5b df ff 3d 84 73 a7 3d 6c 18 42 bd 8a 7e 96 be
       0.124937735 0.0817633 -0.04738657 -0.29393417
000350 63 6f 28 3e 5b 7f 83 3e a7 b8 4d be 93 fd de bd
       0.1644874 0.25683102 -0.2008997 -0.10888209
000360 49 c2 c4 3c dd af ba bb fe d0 4f be b4 60 50 3e
       0.024018424 -0.005697234 -0.20294568 0.2034939
000370 da 3e fa 3d 44 cb 2d bb 68 e9 3c bd a3 6e ea bd
       0.12219019 -0.002651886 -0.04612103 -0.114468835
000380 3e b4 a2 bc 79 c2 a7 3e fd 7a 0c 3e ff e3 4d 3e
       -0.019861337 0.32765558 0.13718791 0.20106505
000390 81 80 39 be a3 63 46 3e 94 5d 06 3e c5 5f e2 bd
       -0.18115427 0.19373946 0.13121635 -0.11053423
0003a0 65 e5 fc bd 9e a3 d1 bd b9 1a 80 be 96 43 32 3e
       -0.12348441 -0.102362856 -0.25020388 0.17408594
0003b0 e2 e7 2b be 53 34 b3 bd 2b 99 82 3e 04 8d 99 be
       -0.16787675 -0.087502144 0.25507483 -0.299904
0003c0 58 9e 1e bc d5 3d 7f 3e d6 3a 80 be f9 5a 92 3e
       -0.009681307 0.24925931 -0.25044888 0.28585032
0003d0 3a a6 84 3e 85 7c 6a bd 65 ca 4e be c4 bc 1c 3d
       0.2590807 -0.057247657 -0.20194395 0.03826596
0003e0 48 af 48 be 7f ff bf be 1b b2 37 3e 42 1d 9c bd
       -0.19598114 -0.37499616 0.17939036 -0.07622768
0003f0 2f 8d 26 be 1b fe 05 be 65 bf e6 3d 3c 8b 0b bc
       -0.16264795 -0.13085215 0.11266974 -0.008517083

model.1.weight f4 [256]
000000 40 f7 69 3f 47 2f 5e 3f 84 1c 77 3f 3c 27 80 3f
       0.913929 0.8679089 0.96527886 1.0011973
000010 ac ad 71 3f 75 24 58 3f 80 8c 6b 3f 4f 72 76 3f
       0.9440563 0.8443063 0.9201126 0.9626817
000020 f7 a8 6a 3f 3c 39 69 3f 95 11 5f 3f 7a ea 7e 3f
       0.9166407 0.9110296 0.87136203 0.9957653
000030 9d fa 83 3f a4 f4 76 3f d4 c3 5c 3f 35 3a 5e 3f
       1.0310856 0.9646704 0.8623631 0.86807567
000040 db 13 5e 3f 21 a1 54 3f 9f c1 69 3f 31 0d 4b 3f
       0.8674905 0.83058363 0.9131107 0.79317003
000050 08 dc 68 3f 81 6a 61 3f d5 2c 70 3f be 36 73 3f
       0.9096074 0.8805314 0.9381841 0.95005405
000060 18 74 67 3f 92 41 4e 3f df 8a 80 3f 7e a5 79 3f
       0.9041152 0.805688 1.004238 0.97518146
000070 20 c3 78 3f 85 9c 75 3f ff 73 5e 3f 93 4d 61 3f
       0.9717274 0.95941955 0.86895746 0.88008994
000080 da 35 50 3f fa ea 66 3f 11 75 60 3f ed 5b 81 3f
       0.8133217 0.90202296 0.8767863 1.0106179
000090 1f 9c 5b 3f a9 ce 65 3f 89 ff 5a 3f 45 e8 77 3f
       0.85785097 0.89768463 0.85546166 0.9683879
0000a0 af a2 6e 3f 3a 6a 8a 3f ec 48 67 3f e7 65 56 3f
       0.93216985 1.0813668 0.90345645 0.8374924
0000b0 0b d9 6a 3f a1 69 67 3f 41 54 73 3f 3b de 5a 3f
       0.9173743 0.9039555 0.95050436 0.85495347
0000c0 21 5a 57 3f fd aa 59 3f 10 c2 89 3f f1 cf 87 3f
       0.841219 0.8502653 1.0762348 1.0610334
0000d0 93 dc 68 3f 76 f0 72 3f 30 30 7e 3f f0 7f 70 3f
       0.9096157 0.94898164 0.9929228 0.9394522
0000e0 27 66 64 3f 91 2b 6c 3f 02 78 63 3f e3 6c 60 3f
       0.8921837 0.9225398 0.8885499 0.8766615
0000f0 1f 1d 57 3f a3 73 80 3f 95 58 65 3f 30 68 7c 3f
       0.8402881 1.003529 0.8958829 0.9859648
000100 bc 22 6d 3f 92 e9 3f 3f b7 6b 5e 3f cd 70 6c 3f
       0.92631125 0.74965775 0.8688311 0.9235962
000110 b7 36 66 3f ff ce 94 3f 5e a2 74 3f 31 dc 64 3f
       0.8992724 1.162567 0.9556025 0.89398485
000120 0b b0 77 3f 2c ae 7f 3f 9f 31 69 3f ad c1 79 3f
       0.96752995 0.9987514 0.9109134 0.9756115
000130 d6 de 2b 3f 24 87 81 3f 03 1c 6e 3f b5 97 70 3f
       0.67136896 1.0119367 0.9301149 0.93981487
000140 7f 50 69 3f 69 bb 6c 3f a1 00 72 3f c3 0b 4c 3f
       0.9113845 0.92473465 0.9453221 0.79705447
000150 bd 31 63 3f 3b 1d 5a 3f 6b c5 66 3f 3f ac 67 3f
       0.8874777 0.8520085 0.90144986 0.904972
000160 cd 18 73 3f 5e 96 6f 3f 5b 70 7b 3f 99 c7 59 3f
       0.9495972 0.9358882 0.98218316 0.85070187
000170 a0 9d 3f 3f 31 ef 6c 3f f9 60 73 3f 91 5e 65 3f
       0.7484989 0.9255248 0.95069844 0.8959742
000180 79 30 5f 3f 68 16 5f 3f 2e 61 8c 3f 44 08 76 3f
       0.8718334 0.87143564 1.0967157 0.9610636
000190 9b 5b 5a 3f c6 e1 68 3f ac 2f 5e 3f ea df 61 3f
       0.8529603 0.909695 0.8679149 0.8823229
0001a0 97 46 56 3f 5f f6 5e 3f d7 18 7c 3f df 50 71 3f
       0.8370146 0.8709468 0.984754 0.94264024
0001b0 b3 43 65 3f 2c 3c 67 3f f1 92 6b 3f 77 43 5b 3f
       0.89556426 0.9032619 0.9202109 0.8564982
0001c0 b7 30 63 3f 58 26 76 3f 7f 3d 95 3f 97 61 62 3f
       0.8874621 0.9615226 1.1659392 0.8843016
0001d0 9c 8c 65 3f 85 c6 5d 3f 34 81 77 3f 16 67 5f 3f
       0.8966768 0.8663104 0.96681523 0.8726667
0001e0 cd 3b 7a 3f 98 6f 70 3f 7b 79 5e 3f f4 d9 61 3f
       0.977475 0.9392028 0.86904114 0.88223195
0001f0 50 39 4b 3f 6c 7e 4c 3f a5 c9 5b 3f 3c f0 5f 3f
       0.79384327 0.79880404 0.8585456 0.87475944
000200 52 e5 63 3f 90 7f 5d 3f ef 80 42 3f 65 c3 69 3f
       0.8902179 0.8652277 0.7597799 0.91313773
000210 50 c2 82 3f 70 90 6a 3f 9c 5b 84 3f 27 e8 76 3f
       1.021555 0.91626644 1.0340457 0.96447986
000220 f1 9a 69 3f c9 a8 78 3f c5 75 5f 3f 8c aa 62 3f
       0.91252047 0.97132546 0.8728908 0.88541484
000230 3e e6 74 3f de ec 7d 3f b2 64 8a 3f a5 32 68 3f
       0.9566382 0.99189556 1.081198 0.9070228
000240 2d ec 67 3f 0c a7 5b 3f 99 c8 5b 3f d9 e3 8b 3f
       0.9059475 0.8580177 0.8585296 1.0928909
000250 fc 15 8c 3f e1 38 7f 3f c7 79 80 3f 41 52 74 3f
       1.0944209 0.99696165 1.0037163 0.9543801
000260 b0 fa 7f 3f c8 4d 84 3f 84 7e 67 3f 88 8a 85 3f
       0.99991894 1.0336237 0.9042742 1.0432901
000270 d9 19 69 3f 47 3a 7b 3f 3e f5 75 3f b4 f1 68 3f
       0.91055065 0.981358 0.96077335 0.9099381
000280 07 2a 60 3f 7d a6 69 3f 6f 1f 76 3f a0 7d 77 3f
       0.8756413 0.91269666 0.96141714 0.96676064
000290 60 07 71 3f 8c 1c 5d 3f 64 84 63 3f e1 5d 6a 3f
       0.9415188 0.86371684 0.8887389 0.915495
0002a0 f5 6a 5f 3f 6e 76 5e 3f 3e e1 6c 3f aa 3a 84 3f
       0.8727258 0.8689946 0.9253119 1.0330403
0002b0 4d dd 5c 3f 53 90 74 3f 21 10 6c 3f 19 d4 5d 3f
       0.8627518 0.9553272 0.9221211 0.8665176
0002c0 d4 03 63 3f 70 da 61 3f c4 3a 68 3f 92 22 50 3f
       0.88677716 0.88223934 0.9071467 0.8130275
0002d0 1d 91 5f 3f 09 7e 6e 3f 01 75 3f 3f 17 57 69 3f
       0.873308 0.93161064 0.7478791 0.91148514
0002e0 0f 79 60 3f 4f ae 68 3f 57 a3 5c 3f 7c ab 64 3f
       0.8768472 0.90890974 0.86186737 0.89324164
0002f0 ed be 66 3f 79 f0 89 3f 7c 8b 70 3f f4 5c 62 3f
       0.9013508 1.0776511 0.93962836 0.88423085
000300 a8 14 5e 3f 75 f2 6d 3f 09 41 5b 3f 7f 89 0e 3f
       0.8675027 0.92948085 0.8564611 0.5567855
000310 71 f1 6b 3f 27 d2 50 3f d1 4c 67 3f 2b 49 84 3f
       0.92165285 0.8157067 0.9035159 1.0334829
000320 2c ba 5a 3f 63 da 3d 3f 6e 60 71 3f 1a e6 69 3f
       0.85440326 0.74161357 0.94287765 0.9136673
000330 5d de 62 3f 52 da 7a 3f 94 a6 90 3f 44 23 6f 3f
       0.8862055 0.9798938 1.1300836 0.93413186
000340 f7 d2 6b 3f 3f 83 61 3f 07 72 38 3f 73 a2 7f 3f
       0.9211878 0.8809089 0.7204899 0.9985725
000350 f3 a2 50 3f 4e 3a 77 3f 6b f7 69 3f 2d 9a 82 3f
       0.8149864 0.9657334 0.91393155 1.0203301
000360 e0 ab 6b 3f 3b a7 6d 3f f1 84 75 3f 6e 90 5c 3f
       0.92059135 0.928333 0.9590598 0.8615788
000370 bf cd 61 3f 7b 49 70 3f 64 c7 5c 3f c1 31 67 3f
       0.8820457 0.9386212 0.86241746 0.90310293
000380 04 73 84 3f 55 85 60 3f 09 4b 66 3f 00 66 73 3f
       1.03476 0.8770345 0.89958245 0.95077515
000390 ac 03 62 3f 3d 0c 63 3f d5 44 6c 3f 6c f5 61 3f
       0.8828685 0.8869055 0.9229253 0.8826511
0003a0 1f 03 8b 3f e7 30 85 3f f7 3b 73 3f ef 3f 5e 3f
       1.0860327 1.0405549 0.95013374 0.86816305
0003b0 2a 72 6f 3f f9 43 62 3f 3d 3a 76 3f 2b 6d 62 3f
       0.93533576 0.8838497 0.96182615 0.8844783
0003c0 70 ad 6a 3f fe 52 72 3f 33 18 44 3f f6 13 6e 3f
       0.91670895 0.94657886 0.76599425 0.9299921
0003d0 7a e8 5f 3f e5 08 6d 3f b2 85 59 3f 74 7b 63 3f
       0.87464106 0.92591697 0.8496963 0.8886025
0003e0 a3 1f 85 3f 2f 38 4b 3f e3 93 6a 3f c8 b6 66 3f
       1.040028 0.79382604 0.9163191 0.9012265
0003f0 95 e0 8a 3f 0c 0f 80 3f 53 b2 60 3f 71 30 7c 3f
       1.0849787 1.0004592 0.877721 0.98511416

model.1.bias f4 [256]
000000 12 38 ab be 9f 84 e8 be 45 61 28 be 19 ec a6 be
       -0.33441216 -0.45413682 -0.16443355 -0.32602003
000010 10 7e 87 bd 67 40 22 bf 75 c8 bb be f3 1f 27 be
       -0.066158414 -0.6337952 -0.36676374 -0.16320781
000020 ed 68 20 3e d6 5f 79 3d 3f ba 5a be ee 43 d2 3b
       0.15665026 0.060882412 -0.2136011 0.0064167893
000030 e1 f4 e6 be d3 66 ed be 0b 49 48 3c 09 67 ae 3d
       -0.45108703 -0.4636751 0.012224446 0.08515746
000040 ad 57 1d bf 96 b5 6a 3e 98 9b 4b 3e 95 a6 49 3c
       -0.6146191 0.22920832 0.19883573 0.012307783
000050 c8 c7 07 3c 45 5e 9e 3c f3 59 d7 bb 25 33 f1 be
       0.008287378 0.01933206 -0.006572002 -0.47109333
000060 fa f2 03 3e b6 6a 96 3e 69 3e 95 be 01 9a c8 be
       0.12885657 0.2937829 -0.29149178 -0.39179996
000070 3e 54 f4 be 2a 38 bf be 5f 8b 9e be 47 33 92 be
       -0.47720522 -0.37347537 -0.30965707 -0.28554747
000080 b6 cb f9 be 50 f8 39 bf 66 0b 61 be 1e 94 58 be
       -0.48788232 -0.7264452 -0.21977004 -0.21150252
000090 98 c4 31 bf 73 31 1d be 1c d6 23 be f3 12 eb be
       -0.69440603 -0.15350895 -0.15999645 -0.45912895
0000a0 b2 ba ad bc 83 2c 82 be 67 fb 82 bd 79 46 08 3d
       -0.021207187 -0.25424585 -0.063956074 0.033270333
0000b0 fd a2 d8 bd e1 69 cf be 09 25 b2 bc 01 15 17 bf
       -0.105779625 -0.40510467 -0.021746175 -0.59016424
0000c0 a8 e5 12 bf 35 43 82 be e1 1f f8 bd e7 83 ae be
       -0.5738168 -0.254419 -0.121154554 -0.34085009
0000d0 95 5b e5 bd 52 4f 0c be e6 08 10 be 62 13 7f 3e
       -0.111991085 -0.13702133 -0.14065894 0.24909738
0000e0 8e 51 59 be 55 40 27 be a4 c0 9c be 81 4e b5 be
       -0.21222517 -0.16333134 -0.30615723 -0.35411456
0000f0 92 96 13 be ec fc a1 be 9f 99 48 be 6e 86 49 be
       -0.14412907 -0.31638277 -0.19589852 -0.19680187
000100 6f 8d d7 be 82 f8 c3 3e 25 a5 ad be fd 0b e5 bd
       -0.42100093 0.38275534 -0.33915058 -0.11183927
000110 6f 2f c9 be 50 e8 cb be 34 43 f3 be 85 84 18 be
       -0.39294 -0.39825678 -0.4751221 -0.14894302
000120 e6 b6 af be c6 7c 87 be b4 64 b1 be a5 26 20 be
       -0.34319228 -0.26462382 -0.34647143 -0.15639742
000130 66 f7 ac 3e 9d 75 5b ba 85 69 b9 bd 56 ed eb be
       0.337825 -0.0008371713 -0.090533294 -0.4607951
000140 ab 0d a7 be f6 90 c6 be 29 47 c4 bd 6e 05 d0 3c
       -0.32627615 -0.3878247 -0.09583885 0.025393214
000150 7e 7d 06 bf cf c2 c0 3b 8e 01 65 be ea 55 8b bc
       -0.52535236 0.005882598 -0.22363874 -0.01700874
000160 37 ae b3 bc 1a 2e 94 bc 2d 03 4d 3e 97 69 2d bd
       -0.021933658 -0.01808839 0.20020743 -0.042337026
000170 93 d7 cb 3d 07 c1 e4 3d 0f 6a 83 be 95 2d 93 be
       0.09953227 0.111696295 -0.25666854 -0.28745714
000180 98 00 fe be 96 59 11 3e 2b 2b 6d be c1 05 a7 be
       -0.49609828 0.1419433 -0.23160999 -0.32621577
000190 0e 2e ee be 91 2b 04 be 3d 4f 90 be c1 2a f1 be
       -0.46519512 -0.12907244 -0.28185454 -0.4710293
0001a0 66 29 9e be 80 c3 d6 be 29 8f c5 be bb a9 da be
       -0.3089096 -0.4194603 -0.38585785 -0.4270762
0001b0 87 0d d5 be 6e 5a 71 3d b7 fc f6 bd 26 ac e3 3e
       -0.41611883 0.05892413 -0.1205992 0.44467276
0001c0 be 6d e2 be 90 f1 0d be 05 b2 d0 be f9 7b ed bd
       -0.44224352 -0.1386168 -0.40760818 -0.115959115
0001d0 55 eb cd bd df 8a 5d bd 99 f9 10 be 87 36 b8 be
       -0.10054652 -0.054087516 -0.14157714 -0.359791
0001e0 7b de 4a 3e 0b 0e 8b 3b b0 3d 0f bf 60 18 14 3e
       0.19811432 0.0042436174 -0.559535 0.14462423
0001f0 8e 58 64 3e 01 3c 8c be b7 96 82 3c 20 51 35 be
       0.22299406 -0.2738953 0.015941007 -0.17706728
000200 79 34 a0 be bb b7 22 3e 2a 0b 46 bf 04 0f 8e be
       -0.31290033 0.158904 -0.77360785 -0.2774583
000210 d0 75 2a be 07 75 90 be e9 95 c8 be 4a 58 11 be
       -0.16646504 -0.28214285 -0.39176872 -0.14193836
000220 f3 03 cb be 93 f2 81 3e af f7 c6 be 8d 1e bd be
       -0.3965145 0.25380382 -0.38860843 -0.3693737
000230 ec 78 0c be 12 e6 6b be 29 76 54 be 29 50 ea 3d
       -0.13718003 -0.23036984 -0.207482 0.114410706
000240 07 7f ff bd 2d fc 30 bf a4 34 c6 be d2 0d da be
       -0.124754004 -0.6913479 -0.38712037 -0.4258867
000250 4f 85 41 bd b5 47 16 be 0a dd de 3d 2a 97 e5 bd
       -0.047246274 -0.14675792 0.108820036 -0.11210473
000260 3a 86 2f be cc 70 71 be ff 6b e7 be 01 a5 81 bd
       -0.17141047 -0.23578185 -0.45199582 -0.063303
000270 8e 22 a2 be 1b 0f 16 3d a2 6f 13 be 44 7a 8e 3c
       -0.31666988 0.0366355 -0.14398053 0.017392285
000280 db 14 82 3e 11 af 8f be 12 df c9 bd 1b 72 c4 be
       0.25406536 -0.28063253 -0.098570004 -0.38368306
000290 6e 86 06 bf 26 2c e5 bb 4b 41 33 bf cd d6 a8 be
       -0.52548873 -0.0069937883 -0.70021504 -0.3297638
0002a0 4f 9b de be 69 11 bb be 97 18 13 be cd 2d 42 3c
       -0.43477866 -0.3653672 -0.14364849 0.01185174
0002b0 23 97 f6 be fd 03 29 be 8d 79 0a be df 46 c0 be
       -0.48162183 -0.16505428 -0.1352293 -0.3755407
0002c0 2d e2 28 bf 84 19 02 bf ca b6 fe be a9 ce 98 3d
       -0.65970117 -0.50820184 -0.49748832 0.07461292
0002d0 fe 74 26 3e 43 d3 f7 bd fb 9b ac 3e a2 bc ab be
       0.16255566 -0.12100842 0.33712754 -0.33542353
0002e0 71 9d ef be 7a 0d aa be 8f 23 60 be 35 4b ab be
       -0.46799806 -0.33213407 -0.21888565 -0.33455816
0002f0 74 c7 1f 3e 92 f2 c3 be d4 59 ee be e3 0c 63 3e
       0.15603429 -0.38271004 -0.46552908 0.22172885
000300 15 ec 91 be 11 00 9b bd 8f 45 34 3e 7b 37 e7 3e
       -0.2850043 -0.07568372 0.1760466 0.45159516
000310 23 83 20 be 1d 58 5c 3c 70 2c c4 be 4c 7a 79 be
       -0.15675025 0.013448742 -0.38315153 -0.24363059
000320 04 15 aa 3b 08 29 93 3e 56 47 0c be a7 25 ae 3c
       0.0051904935 0.28742242 -0.13699088 0.021258188
000330 ae c6 59 3d 63 54 b0 bd 36 dc 3f be 5d e3 9b be
       0.05316799 -0.086098455 -0.18736348 -0.30446902
000340 b7 86 4b bf 8b 02 d4 be 9f 66 9b 3e af f7 a0 be
       -0.79502434 -0.4140819 0.3035173 -0.31438968
000350 a5 8c 1d bf fd 85 53 be 64 6c fb 3d d3 a9 4f be
       -0.6154273 -0.20656581 0.12276533 -0.20279627
000360 ac 92 e5 bd f3 bc 6f 3d 49 2e 0f be e1 29 02 bf
       -0.11209616 0.058529805 -0.139825 -0.5084515
000370 9a fd b1 be d3 bf c9 bd 12 a7 c3 be 2b 74 19 3d
       -0.34763795 -0.09851041 -0.38213402 0.037464302
000380 5a 48 27 be dd 88 30 bf fa 75 d8 be e5 97 d8 bd
       -0.16336194 -0.68958837 -0.4227751 -0.105758466
000390 82 b4 69 be b6 09 02 bf 65 d0 24 3e a2 16 2b bf
       -0.22822765 -0.5079607 0.16095121 -0.6683141
0003a0 44 ca 92 be 35 f4 1a 3d eb a6 ba be 09 bc 10 be
       -0.2866994 0.03783055 -0.36455473 -0.1413423
0003b0 6a 4a eb bc 32 36 b4 be 79 50 db be e2 a2 31 3e
       -0.028722007 -0.35197598 -0.42834833 0.17347291
0003c0 ab af d1 3c 92 3b 91 be 28 1f 58 3d 7f 91 1f 3c
       0.02559646 -0.2836576 0.052764088 0.009739279
0003d0 c6 2b af be e4 3f e5 be c6 2a 29 bd cf 20 bb be
       -0.34213084 -0.44775307 -0.041300558 -0.36548468
0003e0 cc 36 b8 be ed ba 3a bf e4 eb e1 be 00 50 f3 bd
       -0.35979307 -0.72941476 -0.44125283 -0.11880493
0003f0 3c 8a b5 bd 80 0f 2e 3e a0 fe 35 bf 8e d7 b2 be
       -0.08864257 0.169981 -0.7109165 -0.3493008

model.1.running_mean f4 [256]
000000 18 61 63 c0 df e8 71 c2 54 4c de 41 eb 2a 82 41
       -3.5528011 -60.477413 27.78727 16.270956
000010 34 16 11 42 6a d5 c4 41 c4 9d 23 c2 bf b2 a8 41
       36.271683 24.604206 -40.904068 21.087278
000020 72 94 81 c2 97 9a d2 c1 c9 ec a3 c1 75 8f 1f 41
       -64.78993 -26.325483 -20.490618 9.972524
000030 22 73 19 3f c0 57 ec c0 70 42 88 c1 b1 e7 f6 c2
       0.59941304 -7.3857117 -17.03244 -123.45252
000040 7b fa 0e c1 4f 49 da c1 4d bb ef c2 07 cb 80 c0
       -8.936152 -27.285795 -119.86582 -4.0247836
000050 c6 61 be c2 c1 95 ba 41 50 ea 20 42 1c 9f 1d 42
       -95.19096 23.323122 40.22882 39.40538
000060 61 69 a5 41 2a 59 a1 42 0a 0d 7a c1 a5 44 85 c2
       20.676455 80.67415 -15.628183 -66.63407
000070 5b 83 f8 c1 bc b6 9c 42 ec bd b6 42 c1 65 94 41
       -31.064138 78.3569 91.37094 18.549685
000080 60 52 9a c2 92 07 7e c1 4b 06 2e c2 e9 90 a7 c2
       -77.16089 -15.876848 -43.506145 -83.78303
000090 29 2b 7e c0 41 d3 01 c1 e6 03 91 42 c6 22 91 c1
       -3.9713843 -8.114076 72.507614 -18.14198
0000a0 32 17 73 42 84 8e a6 42 db 47 2f bf 9d 26 0e c2
       60.77265 83.27835 -0.6846902 -35.53771
0000b0 91 4a f5 c1 f2 f0 67 42 18 78 aa c1 02 66 8b 40
       -30.66141 57.9853 -21.30864 4.356202
0000c0 b5 4c 44 42 2f 4b a9 c2 1b e7 a0 c0 04 91 2a 42
       49.07491 -84.64684 -5.028211 42.641617
0000d0 df 39 91 41 82 c8 0f c2 7c 61 97 c2 eb bc 23 c2
       18.153257 -35.94581 -75.6904 -40.93449
0000e0 27 da f6 42 f2 57 69 c2 d4 6a 52 42 e9 a9 2d 42
       123.42608 -58.335884 52.604324 43.415928
0000f0 6b fd be c2 d6 4f 6e c2 93 4c 6c 42 c3 c3 ab c2
       -95.49496 -59.577965 59.07478 -85.88235
000100 31 1f 61 c2 81 b3 97 42 ed cd 4f be 3b de 71 c2
       -56.28046 75.85059 -0.20293398 -60.467022
000110 f8 a9 57 c1 99 01 dc 41 a1 74 bd 3c 25 d8 d2 c2
       -13.478996 27.50078 0.023126902 -105.42216
000120 7d ca 65 42 27 ce d0 c0 9c 65 85 c1 7a 99 c7 42
       57.447742 -6.525165 -16.674614 99.79976
000130 99 77 28 42 e4 3b 1b 41 0c cf 9f c2 fc aa 40 41
       42.116795 9.702122 -79.90439 12.041744
000140 6d c8 8d c0 5d 46 98 c2 ad a2 5b c2 43 b6 01 c2
       -4.430716 -76.13743 -54.908863 -32.42799
000150 14 b9 36 c1 73 4d a9 42 26 75 d9 40 2c 3a 29 41
       -11.420185 84.65127 6.7955503 10.576702
000160 43 76 da c1 95 9b 3e c2 9c d8 23 40 2d 77 13 c2
       -27.307745 -47.651936 2.5600958 -36.866383
000170 28 09 83 42 2e a0 9a 42 14 b8 a8 41 53 b3 4e c2
       65.51788 77.31285 21.089882 -51.67512
000180 30 3f c0 c1 93 8a a7 bf 1c 3c a0 42 de 9e 7e 41
       -24.030853 -1.3089164 80.1174 15.913786
000190 00 0b 47 c1 2d 3b b2 c2 fd 41 ad c2 3c 04 c8 c0
       -12.440186 -89.11558 -86.62888 -6.250517
0001a0 0e 47 81 42 04 07 7a 41 b9 76 1a 42 32 1a 92 bf
       64.63878 15.626713 38.61594 -1.1414244
0001b0 e9 d5 0e 42 82 29 27 c2 31 43 61 c2 95 40 8c 42
       35.708897 -41.790535 -56.315617 70.12614
0001c0 02 2d 64 c2 1a 2c 91 42 02 9c 68 c1 4c 6e a4 41
       -57.043953 72.586136 -14.538088 20.553856
0001d0 6e 41 12 c2 e2 1b d1 42 00 ba 88 42 89 0c b5 c2
       -36.563896 104.55446 68.36328 -90.52448
0001e0 5e 0c 24 c2 10 07 98 c1 eb 65 93 42 3f f2 b5 42
       -41.012077 -19.003448 73.69906 90.97314
0001f0 68 46 ef 41 b3 14 40 c2 23 5d ef c1 45 b8 dc c0
       29.909378 -48.020214 -29.920477 -6.897494
000200 dc 03 19 40 48 f1 06 c2 fa 99 32 c2 4a eb d6 42
       2.3908606 -33.735626 -44.650368 107.45955
000210 0f f7 6b c2 83 1f d2 c0 8c 5d c3 42 3e a4 f4 c1
       -58.99127 -6.5663466 97.68271 -30.580196
000220 1c 1a b6 c0 4f c0 28 c2 d2 34 e0 c2 84 99 9f 42
       -5.690687 -42.1878 -112.103165 79.799835
000230 80 45 01 c0 4a 19 c2 41 b6 e5 7b c2 dd c1 23 3f
       -2.019867 24.262348 -62.974327 0.63967687
000240 a8 16 67 c1 94 08 ed c1 28 27 f1 c2 22 a1 04 42
       -14.443031 -29.629189 -120.57648 33.157356
000250 04 19 59 c2 94 f2 0a c1 3e ec 39 c2 25 73 30 c2
       -54.27443 -8.684223 -46.480705 -44.112446
000260 f5 03 d8 42 5d ce d3 c1 45 91 e5 41 d4 e5 3b c2
       108.00773 -26.475763 28.695932 -46.97444
000270 00 c0 d2 41 ce 01 96 c2 9a b8 1a 42 63 68 05 42
       26.34375 -75.003525 38.680275 33.35194
000280 3b 90 a8 42 b8 87 21 c2 48 77 8e bf 1f cd 00 c2
       84.2817 -40.382538 -1.1130152 -32.200314
000290 94 40 20 42 89 3d 93 41 f2 d9 a6 c1 e8 25 fb c0
       40.063065 18.405046 -20.856419 -7.848377
0002a0 c3 61 da 42 2a fd da 41 73 98 91 c1 53 f8 aa 42
       109.19094 27.373615 -18.199438 85.48501
0002b0 9a 51 ac c1 fb f6 36 c2 bf f8 1c c2 eb 66 1c 40
       -21.539845 -45.74119 -39.242916 2.4437816
0002c0 74 08 4b 42 9b 73 70 42 cc b2 68 c0 fc 7d 21 c0
       50.758255 60.112896 -3.635913 -2.5233145
0002d0 b6 77 af 41 48 4a 5d 42 28 77 ec c1 3d 00 1e c2
       21.933453 55.32254 -29.558182 -39.500233
0002e0 aa e5 c2 40 fe 51 79 c2 a0 b9 23 c2 f1 89 ec c0
       6.090535 -62.33007 -40.931274 -7.3918386
0002f0 a9 78 79 41 3b b9 9a c2 da d3 5f 41 b3 61 aa 42
       15.591958 -77.36178 13.989222 85.19082
000300 4f 5a 88 42 35 04 50 c2 26 bc b0 c2 7f 52 e2 41
       68.176384 -52.00411 -88.36748 28.290281
000310 a5 73 4b c2 1a d0 2f c2 bb 0d 31 c2 bb 42 9a 42
       -50.862934 -43.953224 -44.26341 77.13033
000320 4e ff fc 3f cf 2d a6 c0 34 8e 5b 42 d3 a6 10 42
       1.9765413 -5.193092 54.88887 36.162914
000330 d7 f0 b7 42 c8 93 a2 c2 84 73 cb c1 10 73 3c c2
       91.97039 -81.288635 -25.431404 -47.112366
000340 f4 e1 35 42 23 48 c3 c2 ed 3a 78 42 f4 d8 18 c1
       45.470657 -97.64089 62.057545 -9.552967
000350 52 22 52 41 fc 53 63 c1 30 73 68 c1 c2 7e c0 41
       13.133379 -14.208004 -14.528122 24.061893
000360 c3 0a c0 c2 6f e2 25 41 19 c2 8d 41 18 85 c2 c1
       -96.02102 10.367782 17.719774 -24.314987
000370 bb 5d 03 c2 3a 54 06 c1 69 4f 0f 41 fe 07 46 c2
       -32.841534 -8.395563 8.956887 -49.507805
000380 f6 71 47 42 03 c0 4a 41 65 99 88 42 f4 2f 68 c2
       49.86129 12.671878 68.2996 -58.04683
000390 ca ff 82 c2 60 ac d5 c1 ee f4 dc 41 b2 0b d3 c0
       -65.49959 -26.709167 27.619595 -6.5951777
0003a0 e0 36 7d bf a8 cd dc 40 32 ec db 42 1e 8c 3c c1
       -0.9891186 6.9001045 109.96132 -11.784208
0003b0 83 fe 91 c2 ab 53 8b c2 1a aa 4c 40 33 af 83 c0
       -72.99709 -69.663414 3.1978822 -4.1151366
0003c0 7e 91 e0 c1 64 8b b3 c1 7f 41 b4 42 fe e8 97 41
       -28.071041 -22.443062 90.12792 18.988766
0003d0 23 62 b7 41 c0 7d 88 41 7e 94 a0 3f e7 89 bd 42
       22.922918 17.061401 1.2545316 94.76934
0003e0 9c aa 98 c2 94 8b eb c1 85 3c 89 bd b1 99 d3 41
       -76.33322 -29.443153 -0.06700996 26.450045
0003f0 56 7e a9 c2 07 c0 58 41 45 4b 94 42 43 77 2c c2
       -84.74675 13.546882 74.14701 -43.116467

model.1.running_var f4 [256]
000000 f2 a3 e9 3a 86 7b c0 3c e8 0d 23 3c 16 fa 47 3b
       0.0017825349 0.0234964 0.009952046 0.0030514053
000010 1f e7 ec 3b f3 04 19 3a 8d a4 6d 3b 08 91 5d 3c
       0.0072297 0.00058372243 0.003626141 0.013523348
000020 d1 8d 51 3c 5d 3c 39 3a e9 23 49 3c 01 c9 09 3b
       0.012790159 0.0007066185 0.012276628 0.0021024349
000030 6a 0c 09 3a 2a a2 ec 3a 88 65 0f 3c 33 22 84 3a
       0.0005227985 0.00180537 0.008752234 0.0010080993
000040 e8 54 38 3c a2 e8 05 3c b1 f7 97 3b 47 84 34 3c
       0.011250712 0.00817314 0.0046376814 0.0110178655
000050 ba 50 24 3c f4 1d 84 3b fa fa a8 3b a0 f6 4e 3a
       0.010029012 0.004031891 0.005156872 0.00078950264
000060 b9 e7 57 3b 56 10 51 3c 8c 62 c5 3a a8 7b 95 3a
       0.0032944514 0.012760242 0.0015059276 0.001140465
000070 c6 14 04 3b a3 49 1e 3b f9 b9 30 3c 6b 49 e8 3c
       0.0020153983 0.0024152778 0.010786527 0.02835532
000080 04 c4 d8 3b 3f 83 ab 3b c5 9b f0 3b b6 89 5f 3b
       0.0066151638 0.0052341516 0.007342788 0.0034109182
000090 9c a7 1d 3b c1 7d 5d 3c 2f 01 67 3c 4d 41 8c 38
       0.0024056202 0.013518752 0.014099403 6.6878834e-05
0000a0 85 a4 e8 3b cb 84 9d 39 e1 32 1f 3c 9d 57 0d 3c
       0.0070996904 0.00030044312 0.00971672 0.008626846
0000b0 03 1c ad 3b ed 65 b0 3a 61 e8 2f 3b 9a 2b 30 3b
       0.0052828803 0.0013458111 0.002684139 0.0026881457
0000c0 09 e3 1f 3c 1a 8e 9c 3b 6a a9 37 39 de 7d 59 39
       0.009758719 0.004777682 0.00017515352 0.00020741622
0000d0 27 e1 49 3c 62 3c e1 3b 9b 54 05 3b e1 1c fd 3b
       0.012321747 0.0068736533 0.0020344618 0.00772439
0000e0 a6 24 68 3c 8b fa 60 3c 2c f1 83 3b ff 57 0c 3c
       0.014168894 0.013731609 0.0040265527 0.008565902
0000f0 95 ef 49 3c 1f c4 d2 3a bb 70 89 3c 79 ee 0e 3b
       0.012325187 0.0016080177 0.016777387 0.0021809621
000100 a4 be cf 3a f3 e9 1a 3c ad 8b 15 3c 41 19 43 3c
       0.0015849662 0.009455192 0.00912754 0.0119078765
000110 62 c6 13 3b 25 2d ae 38 e9 c5 02 3a d0 5f 9b 3b
       0.0022548665 8.3053754e-05 0.00049885974 0.0047416463
000120 eb a7 0b 3c 64 01 1e 3a 7f ee 9a 3b 32 f7 cd 3a
       0.0085239215 0.0006027429 0.004728138 0.0015713929
000130 ce 4d e1 3b d0 58 29 3b a4 42 0c 3c b4 5c 9c 3b
       0.00687573 0.002584029 0.00856081 0.0047717933
000140 c8 aa de 3a 39 39 81 3b f3 51 88 3b d7 a6 34 3c
       0.0016988153 0.003943589 0.0041601597 0.011026106
000150 60 7d d0 38 66 3b 86 3c f6 00 52 3c 64 7e 31 3b
       9.941566e-05 0.016385745 0.012817612 0.0027083391
000160 2e 52 a4 38 a4 fe 39 3a fe 34 35 3b 6d a4 55 3b
       7.8354366e-05 0.00070951344 0.0027649994 0.0032599226
000170 ce 7a 74 3c f2 e1 86 3b de 22 d9 3a 40 60 46 3b
       0.014921857 0.0041162902 0.0016566177 0.0030269772
000180 0e f0 0e 3c ce f1 fe 3b 3f be 2a 39 3e 7d 8b 3b
       0.008724226 0.00778029 0.00016283336 0.0042568734
000190 96 d7 aa 3c a4 ae c8 3c a0 b3 cc 3b 76 7d dd 3b
       0.020854753 0.024497338 0.006246999 0.006759341
0001a0 ab f9 28 3c c6 ff 28 3c 12 e7 68 38 3e 36 3a 39
       0.010313432 0.010314887 5.552831e-05 0.00017758549
0001b0 fe 32 80 3b 2a 54 70 3b d4 40 5d 3c 30 ac d7 3a
       0.0039123287 0.003667126 0.013504226 0.0016454514
0001c0 8c 8e ea 3a 82 94 d7 3b 3a 3e ca 3a 96 65 d8 3b
       0.0017895265 0.006578983 0.0015429922 0.006603907
0001d0 7b 4e 3e 3b 3a d6 6f 3c d0 65 f6 3b 00 2a f1 3b
       0.0029038477 0.014638478 0.007519461 0.007359743
0001e0 67 a2 60 3b a4 5c ab 3b 75 94 94 3b cc 03 2e 3c
       0.0034276487 0.0052295495 0.004534299 0.010621022
0001f0 9b 35 50 3c 78 2e 96 3b 3f d0 50 3c f3 e5 5e 3b
       0.012708093 0.004583176 0.012744962 0.0034011572
000200 d0 1f 5b 3c 13 40 36 3c e4 4a a1 3c 11 e4 47 3c
       0.013374284 0.011123675 0.019689031 0.012200371
000210 38 dd 78 3b a0 63 01 3b 5c 56 b6 39 06 30 0c 3c
       0.0037973654 0.001974322 0.00034778088 0.008556372
000220 55 85 3e 3b 00 22 6d 3a fe cb 76 3c 4b e4 1d 3c
       0.0029071171 0.0009045899 0.015063284 0.009636949
000230 c3 7f e1 3a a1 ff 20 3a 0d 6b a8 38 ca 09 aa 3b
       0.0017204214 0.00061416073 8.030804e-05 0.005189155
000240 90 6c 57 3c fc 91 ad 3b ee e0 80 3c 8f 85 83 38
       0.013148442 0.0052969437 0.015732255 6.271444e-05
000250 c5 cf 10 3b 65 66 bc 39 f7 15 8f 39 20 4a 33 3b
       0.0022096497 0.00035934444 0.0002729145 0.0027357414
000260 e3 97 3c 3a 03 ad 39 39 a6 3d 2c 3c 81 a1 97 3b
       0.0007194264 0.00017707427 0.010512745 0.004627407
000270 ee 97 14 3c 3e 65 00 3b b9 a3 28 3c 4f cf 2b 3c
       0.009069426 0.0019591595 0.010292941 0.010486438
000280 68 71 eb 3b 38 2c 4d 3b a7 aa 16 3c 07 94 38 3a
       0.00718515 0.0031306874 0.00919596 0.0007041101
000290 d2 37 7f 3a bf c4 8f 3c b6 c3 a9 3b d7 f5 01 3b
       0.0009735796 0.01754987 0.0051808013 0.001983037
0002a0 e5 f7 43 3b 57 23 30 3c 7e c1 2e 3a ea 66 0a 3b
       0.0029902395 0.010750613 0.0006666406 0.002111847
0002b0 de e3 3e 3c d7 0a ab 3c 62 cb 60 3b cc 46 ac 3c
       0.011651007 0.020879192 0.0034300913 0.021029852
0002c0 3f 1d a6 3b 20 00 fd 3b 6a 3a 2a 3b af 7c 08 3c
       0.0050694044 0.007720962 0.002597476 0.008330508
0002d0 13 c4 8b 3b ad 31 8b 3b 05 22 f3 3b c3 1d 57 3b
       0.004265317 0.004247865 0.007419827 0.0032824136
0002e0 e5 2b 85 3b 30 56 ef 3a 1b 13 64 3c 97 75 07 3c
       0.0040640705 0.0018259939 0.013920571 0.008267782
0002f0 b1 ca 61 3b 30 5f 82 3b 92 e1 ba 3b e7 a0 35 3c
       0.003445309 0.0039786324 0.0057031596 0.011085725
000300 6a 7d b6 3c 7b 4e c4 3b d5 79 27 3b fa 66 a1 3b
       0.022276599 0.005990801 0.0025554795 0.004925606
000310 ee 57 1e 3c 74 6d e4 3b 98 4b 97 3b 58 e0 33 39
       0.009664519 0.0069710556 0.004617166 0.00017154345
000320 0d 26 14 3c 28 4f bb 3b 93 21 1a 3c 1e 63 8d 3a
       0.009042275 0.0057162233 0.009407419 0.0010786986
000330 cf 55 42 3c 2b 43 80 3a a0 e1 9e 38 8f b1 80 3b
       0.011861279 0.0009785643 7.576053e-05 0.0039274166
000340 ad 85 19 3b 96 f4 6a 3b 02 5c fc 3b 58 a5 77 3a
       0.0023425624 0.003585135 0.007701398 0.00094469404
000350 43 fd 0f 3a b7 98 ac 3a 3a b2 c1 3b 3a 4d 8a 3b
       0.0005492756 0.0013168071 0.005911139 0.004220632
000360 b4 cb bd 3b 5b e6 1b 3c 39 db 26 3c 44 29 2d 3c
       0.0057921056 0.00951537 0.010184103 0.0105689205
000370 e6 66 d7 3b f8 77 22 3c e8 3f 4c 3c ae 66 69 3b
       0.0065735457 0.009916298 0.012466408 0.003561418
000380 e0 32 98 3a 40 d0 f5 3b e3 34 a5 3b 7f 73 ea 3a
       0.0011611842 0.007501632 0.005041705 0.0017887204
000390 13 bc 83 3c 7a 92 e3 3b 81 83 6d 3b d6 97 83 3b
       0.016080892 0.0069449516 0.0036241713 0.004015903
0003a0 98 35 5c 38 9d 64 a9 39 90 ab 05 3b 81 28 7f 3c
       5.2502e-05 0.00032309155 0.0020396449 0.015573622
0003b0 45 90 1e 39 b4 4f e4 3b 48 ba ec 3a 3d 80 c4 3b
       0.00015121799 0.006967509 0.0018060887 0.0059967325
0003c0 c8 3a 05 3c f3 6d 33 3b 62 39 5d 3c b7 5b 0d 3c
       0.00813169 0.0027378767 0.013502451 0.008627824
0003d0 6e a3 98 3c 88 78 b3 3b fd 8d 29 3c 6c 3c 4e 3c
       0.018632617 0.005477015 0.010348794 0.012587648
0003e0 72 77 21 39 80 78 fd 3a ca 07 4f 39 67 9a 09 3a
       0.00015398653 0.001933828 0.0001974396 0.0005249143
0003f0 f7 b7 46 39 30 6f 91 3b 18 35 2b 3c 99 a7 45 3b
       0.00018951284 0.0044383034 0.01044967 0.003015971

model.4.weight f4 [2, 256]
000000 5e ae 0e bd 0a 1a 36 bd 28 21 fd 3c 2a a7 fc bd
       -0.03483426 -0.044458427 0.0308996 -0.123365715
000010 e6 43 a8 3c 41 8c e8 bc af 72 67 bd 89 91 06 3d
       0.020540189 -0.02838719 -0.056505855 0.032853637
000020 40 5f a4 bc e6 98 0c 3c f7 95 68 bc a6 a9 01 bb
       -0.02006495 0.008581376 -0.014195911 -0.0019784956
000030 0b f8 62 bb 47 77 5b bd b5 60 ca 3b bb 82 e1 3b
       -0.0034632708 -0.05358055 0.006176079 0.0068820394
000040 43 aa 46 bd 04 32 1e 3b e7 f5 11 bb 8b 4b 7e 3c
       -0.048502218 0.0024138698 -0.0022271813 0.015520941
000050 fa b6 4b 3c b4 a3 63 3c e7 d3 8b bc 04 12 01 3e
       0.012433762 0.01389401 -0.017068816 0.12604529
000060 73 6c c3 bc 09 9b 9a 3c 06 cb fa bd 93 4e 8f bd
       -0.023855424 0.018872755 -0.12245755 -0.06997409
000070 aa fd 08 3e ca e6 77 bd 94 04 a7 bc 0e bc b3 bc
       0.13378015 -0.060522832 -0.020387925 -0.021940257
000080 c6 e2 d2 bc 5e cb 44 be 2c 38 a1 bc d9 12 a1 bd
       -0.0257429 -0.19218203 -0.019680105 -0.07864923
000090 f0 aa 4b be e5 29 62 bc 59 41 f4 bb 2d eb 1c bc
       -0.19889426 -0.013803934 -0.007454079 -0.009577555
0000a0 33 89 2b bc 7b 1c 24 bb 2b bc ee 3c 83 a7 aa 3c
       -0.010469723 -0.002504139 0.02914246 0.020831829
0000b0 1a 27 6c 3c 0b b8 69 bd e7 79 48 bd 31 b2 94 3d
       0.014413619 -0.057060283 -0.04894438 0.0726055
0000c0 67 8b 44 bd 28 5d 99 bc 80 b5 d9 3c 3c 49 94 bc
       -0.047984507 -0.018721178 0.026575804 -0.018101327
0000d0 95 75 43 3c 17 67 cf 3a 35 0c 29 3b 5c 18 a2 3c
       0.011929889 0.001582357 0.002579463 0.019787006
0000e0 9c 42 b4 bc 05 f7 c6 bc 33 0c 69 3c 12 b3 09 bb
       -0.022004418 -0.02428771 0.0142241 -0.0021011275
0000f0 f1 ee 1e bc 9d 4a 6d bb fd 59 4e bc 4c f6 ab bd
       -0.009700523 -0.0036207803 -0.012594697 -0.08396587
000100 61 b9 82 bd 07 67 91 3c 30 0b 31 bc 0a 72 5b 3c
       -0.063830145 0.017749323 -0.01080589 0.013393888
000110 c9 7e 5b bd 74 5c b9 bd c4 2a c8 3d 74 4f a4 bb
       -0.05358771 -0.09050837 0.09773782 -0.0050143544
000120 99 32 d1 bd f6 1b c7 bd f1 3f 0d bd 26 c8 73 3b
       -0.10214729 -0.0972213 -0.034484807 0.0037198155
000130 2d d5 a4 3b 06 bf 7b bd 3b e3 80 3c 94 4f 09 3e
       0.0050302953 -0.06146147 0.015733352 0.13409263
000140 2b 13 af bc 83 b6 87 bd 05 56 45 ba 05 32 ad 3b
       -0.021371445 -0.06626608 -0.00075277715 0.005285504
000150 cc d7 7f 3c 3e c5 d7 3c 28 b9 71 bc 16 f7 6f 3c
       0.015615415 0.02633917 -0.014753617 0.014646312
000160 27 cd 21 3d 42 28 b3 bc 88 dd 3f bc 5f f8 8a 3c
       0.03950229 -0.021869782 -0.011710532 0.016964136
000170 70 06 b2 3c 82 47 9d 3c e7 7e cc bc fb b1 a1 3a
       0.021731585 0.019199137 -0.024962856 0.0012336368
000180 23 83 6f bd a6 f0 82 3b 39 76 84 3c fc cb 20 bc
       -0.05847467 0.0039959727 0.016169654 -0.009814259
000190 a9 a4 56 bd 3e e5 14 bc 43 23 94 3c 90 2c 2a 3d
       -0.052403126 -0.009087859 0.01808322 0.041546404
0001a0 f1 a3 cb bc 8d e2 16 bd 99 4f 76 bc 60 8d 1e 3b
       -0.024858447 -0.03683715 -0.015033626 0.0024193153
0001b0 25 2e 6d bd dd d2 b1 3c e9 26 91 3c 78 ac 00 3d
       -0.057905335 0.021706993 0.01771875 0.03141448
0001c0 3f bc 55 bd a6 e3 07 3d ee 72 c6 bd 81 78 55 bc
       -0.05218148 0.033176087 -0.0968989 -0.013029219
0001d0 67 e0 ba ba 14 7d 3e b9 3a 1a 01 3d 14 37 eb bc
       -0.0014257551 -0.00018166407 0.031519152 -0.028712787
0001e0 4a e1 42 bc 94 c6 b9 3c 8a b3 b7 3d 93 46 ba bc
       -0.011894533 0.022677697 0.08969791 -0.02273873
0001f0 a1 03 83 3c e6 83 22 bd 6b f3 a8 3c 1c 5c bc 3c
       0.015992941 -0.03967657 0.020623883 0.02299314
000200 16 86 d0 bc 46 a2 8a 3c d8 43 b8 3d 00 e1 ae bb
       -0.025454562 0.016923081 0.08997315 -0.0053368807
000210 da 11 91 bd 29 6a 28 bd ff 70 3f bd 53 ad 0f 3d
       -0.07083483 -0.041116867 -0.04673862 0.035077404
000220 53 35 54 bd 0c 34 4d bc 31 b1 16 bd 21 33 bb bc
       -0.051808666 -0.012524616 -0.036790077 -0.022851529
000230 f1 92 ef bc 53 b1 18 bd 56 47 e1 3c 92 ff a6 bc
       -0.029244872 -0.037278485 0.027499836 -0.020385537
000240 48 49 0f 3c b0 01 49 be 03 54 0a bd d8 ef c0 bd
       0.008745499 -0.1962955 -0.033771526 -0.094207466
000250 c1 3a 88 3d 42 55 4e bd db 5a 96 3d 87 d1 08 3b
       0.066518314 -0.050374277 0.07341548 0.002087684
000260 ce 32 56 bd 71 9e 95 3c 42 34 4b bd 74 bd a3 bd
       -0.052294545 0.018264027 -0.049610384 -0.0799512
000270 4e 40 64 3b af f1 fd 3c a8 20 e2 3c 8a 50 64 3c
       0.0034828368 0.030999033 0.027603462 0.013935218
000280 06 6f 83 3c 46 89 1e bd 3a 4c e1 3c c9 1a 4f bd
       0.016044151 -0.038705133 0.027502168 -0.050562654
000290 ab 12 0a bd 55 9c ba 3b 06 78 3f be 05 7f 47 bd
       -0.03370921 0.0056949058 -0.18698129 -0.04870512
0002a0 a9 be 4f bd 4d 40 12 bd e1 97 c0 ba 89 83 c0 bb
       -0.050718937 -0.035705853 -0.0014693701 -0.005875055
0002b0 ff 60 5b bd d4 17 02 3d 62 4c cc 3c 2a 8c f9 bc
       -0.0535593 0.031761006 0.024938766 -0.030462343
0002c0 5a b9 72 bd ac e8 ec bc 82 8b 94 bd 38 57 84 3c
       -0.059258796 -0.02891954 -0.072531715 0.01615487
0002d0 98 db 98 3c 7c 70 84 3c a2 a2 cb 3c 39 48 40 3a
       0.018659398 0.016166918 0.024857823 0.0007334981
0002e0 f8 63 11 bd 89 81 0a bd bf 6f 86 bc 6c 9b ed bc
       -0.03549573 -0.03381494 -0.016410707 -0.029004775
0002f0 74 da bf bc 61 3e d8 bd a3 9e eb 3d b8 cc 93 3c
       -0.023419596 -0.10558773 0.11504867 0.018041953
000300 a5 c8 a2 bc a6 34 a5 3c e8 39 e0 bc 65 ff 9b 3b
       -0.019871065 0.020166706 -0.027371362 0.00476067
000310 62 15 bb bc c2 0f 83 3a 2b e9 69 bd 64 94 6b bc
       -0.022837345 0.0009999203 -0.057107132 -0.014378641
000320 03 02 89 3c a1 d3 99 3c fb 11 fd 3c 1f 03 4a 3c
       0.016724592 0.01877767 0.030892363 0.012329846
000330 79 bd 9a 3c b9 2e c8 ba db e7 07 bd 3a ff 83 39
       0.018889176 -0.0015272713 -0.0331801 0.00025176426
000340 5d 14 74 be 5d c8 48 bd be 1f 84 3c ba d7 c4 bd
       -0.23835893 -0.049019206 0.016128417 -0.09611459
000350 bc 58 2e 3d aa 94 82 bd 21 83 50 3c c6 72 9e bd
       0.042565092 -0.06376012 0.012726576 -0.07736735
000360 d0 a9 90 3c 68 4f 1f 3c e9 76 05 3d 7f d6 d3 bc
       0.017659098 0.009723522 0.032584105 -0.025859116
000370 65 18 14 bd 99 9a 05 3c ae 4b e5 bc 87 fc b7 3c
       -0.036156077 0.008154535 -0.027990188 0.022459282
000380 14 d6 83 bc dc 64 85 bd 7c 16 91 bd ea 3e 85 3c
       -0.016093291 -0.06513378 -0.07084367 0.016265351
000390 b8 5b c5 bc 57 1b 79 bd de 34 ad bc f5 e2 3c be
       -0.024091586 -0.06081709 -0.021143373 -0.18445952
0003a0 23 af 3e bd 62 66 9f bd 94 71 78 bd 65 a5 ab bc
       -0.046553742 -0.077832 -0.06065519 -0.02095289
0003b0 86 89 20 3d 69 78 1c bd ef b7 01 be 52 76 7c 3b
       0.039193653 -0.03820077 -0.12667821 0.0038522673
0003c0 54 a3 99 3c c2 ba b7 3b 5d da 8d 3b ec 5f 4e 3c
       0.018754639 0.00560698 0.0043290094 0.012596112
0003d0 2a 64 e4 bc f2 24 0d bd 87 3c 83 ba 32 9e 1d bc
       -0.027879793 -0.034459062 -0.0010012545 -0.009620236
0003e0 87 27 3a 3c 9a 6f 0a be c1 a0 70 3d 6e b3 30 bd
       0.011361963 -0.13519135 0.058747057 -0.043139867
0003f0 a5 91 01 3d f3 a3 03 bc 0c ce 47 be 86 b6 d4 bd
       0.031633038 -0.008034694 -0.19512194 -0.10386376

model.4.bias f4 [2]
000000 f9 ac 7f 3e bb 2f 8d 3e
       0.24968328 0.27575478
