models/two_layers/twoLayerModel_emu_corrCut_-1.0_weights_true_drop_0.5_lorentz_mttbar_no_qg.pt (torch, 27904 bytes, 8 tensors)

model.0.weight f4 [256, 17]
-0.25550666 -0.1269712 0.016443089 0.017918186 -0.010742493 -0.12739687 0.029618084 0.12337688
0.33375475 0.015543973 0.024164235 -0.009012828 0.11305567 0.015057577 0.23579021 -0.12729833
0.12606399 0.27334064 0.24092825 -0.011863199 0.004569674 0.21668495 0.33456317 0.10759619
0.232345 0.13248551 0.017948225 0.03519208 0.008230132 0.14583603 -0.1359068 -0.09604618
0.02146437 0.21896437 -0.0019545394 -0.0007561497 -0.2710117 0.2812194 0.025567468 1.4841264e-05
-0.00968498 0.060555145 -0.001236564 0.005629547 0.008901096 -0.0070943576 0.19878913 -0.0037581476
-0.18049218 0.04405347 -0.7159934 -0.05822395 0.16153252 0.005564969 0.023808293 -0.056741405
-0.052261412 0.01645181 -0.12868772 -0.0035041282 0.15075517 -0.034776587 -0.0032468974 0.14283966
0.3652264 -0.028795814 0.09690043 0.2033776 -0.033945397 -0.19961247 -0.11155513 0.10508773
0.50554186 0.41397166 0.3821199 -0.11347237 -0.009303581 -0.12625228 0.029314727 -0.024892423
-0.09372318 -0.13582462 -0.0835969 -0.11378165 0.21768709 0.035989035 0.2679379 0.07420195
0.050643336 -0.22937365 0.044970784 0.016559882 0.06953389 0.028420635 -0.29594374 -0.0011520024
0.036155965 -0.3190441 -0.051531356 0.049245387 0.17075674 0.18941781 -0.23916562 0.2270222
-0.030622823 -0.02790193 0.14771327 -0.05414207 0.01571016 -0.06294761 0.073757574 -0.08355104
-0.011582026 -0.006184875 -0.15209888 -0.21277817 -0.092935756 0.10301114 0.44126174 0.07078016
0.04352167 0.013993509 0.0061015775 0.2844694 -0.56600463 -0.0013266614 -0.06710839 -0.14884062
0.058614273 0.012717396 0.0019422413 -0.11033786 -0.038721364 -0.012590936 -0.020582804 0.097679354
-0.2048093 -0.08771569 0.00031677602 -0.003201917 0.06558116 -0.098655894 -0.02532485 0.011565124
0.24032626 0.030112468 0.011661194 0.0043083173 0.20075478 -0.2134348 0.1846046 0.110620834
-0.26925302 -0.20060115 -0.18103307 -0.0005824475 -0.007765723 -0.043646656 0.08624751 -0.030008312
-0.058771893 -0.21296331 -0.18272479 0.019827029 -0.021491215 0.177161 0.08068693 0.2746929
-0.071569994 0.03122975 0.304625 0.09677439 0.009686084 -0.03838525 0.48793757 0.17895038
0.28753638 -0.16873953 0.25385812 0.0515274 0.008906838 -0.07240359 0.19563907 -0.001397639
-0.15688783 -0.040252723 0.24517502 0.004526899 0.0020600203 -0.24888235 0.2552708 0.019432351
-0.004486854 -0.02615663 0.0401123 -0.0047788667 -0.0021159486 0.005673171 0.0065948255 0.23364595
0.017201193 -0.2069392 0.030765457 -0.7343096 -0.2877024 0.025944391 -0.054533243 -0.007776708
-0.29685563 0.049505733 -0.013997074 -0.04712035 0.31128037 -0.04152971 0.009122526 0.045884013
0.086387806 -0.3482063 0.2627474 0.040336035 0.30580515 0.009429304 0.01153224 0.270256
-0.27356786 0.1500336 0.07119066 -0.011541721 -0.01781669 -0.0058861254 -0.020115847 0.007128152
0.008527402 -0.11001155 -0.031526275 0.08565706 -0.026372213 -0.59411037 0.0075564603 -0.005410788
-0.0035150975 -0.0029499228 0.28729567 -0.0251313 -0.021674905 -0.017175253 -0.0018107712 -0.0030251313
-0.0031510063 -0.0010660315 -0.0722211 0.13709028 0.025430603 -0.0032697928 -0.88814116 -0.17856939
00000000: c5d1 82be bd04 02be a8b3 863c 29c9 923c
00000010: 4801 30bc 5374 02be a0a1 f23c 05ad fc3d
00000020: e7e1 aa3e 26ac 7e3c 13f4 c53c 8aaa 13bc
00000030: bb89 e73d 0eb4 763c fd72 713e 7e5a 02be
00000040: eb16 013e 4ef3 8b3e e5b5 763e dd5d 42bc
00000050: 34bd 953b a9e2 5d3e dd4b ab3e 645b dc3d
00000060: d9eb 6d3e 48aa 073e 2808 933c 9225 103d
00000070: add7 063c 0a56 153e 272b 0bbe dcb3 c4bd
00000080: 0cd6 af3c 3238 603e bb17 00bb 5938 46ba
00000090: 0cc2 8abe fdfb 8f3e de72 d13c befe 7837
000000a0: c0ad 1ebc ac08 783d 3414 a2ba 1078 b83b
000000b0: e7d5 113c c977 e8bb 618f 4b3e 414b 76bb
000000c0: f1d2 38be 6971 343d 584b 37bf 3d7c 6ebd
000000d0: c868 253e 585a b63b 9c09 c33c ad69 68bd
000000e0: 1010 56bd f2c5 863c b7c6 03be 84a5 65bb
000000f0: 905f 1a3e e571 0ebd e6c9 54bb 8f44 123e
00000100: f4fe ba3e 33e5 ebbc bc73 c63d 3842 503e
00000110: 540a 0bbd 3667 4cbe 0477 e4bd 3c38 d73d
00000120: 316b 013f 18f4 d33e 38a5 c33e 3464 e8bd
00000130: 0c6e 18bc 4748 01be 7025 f03c 32eb cbbc
00000140: f0f1 bfbd 9c15 0bbe da34 abbd 5b06 e9bd
00000150: 5de9 5e3e 3d69 133d 282f 893e 31f7 973d
00000160: 636f 4f3d ede0 6abe 4933 383d 97a8 873c
00000170: c967 8e3d 64d2 e83c f085 97be c9fe 96ba
00000180: 4718 143d c059 a3be 8b12 53bd 88b5 493d
00000190: dbda 2e3e bef6 413e d5e7 74be 8278 683e
000001a0: b7dc fabc 9792 e4bc 2642 173e 13c4 5dbd
000001b0: 98b2 803c adea 80bd 360e 973d cf1c abbd
000001c0: 8ac2 3dbc 7eaa cabb cfbf 1bbe 85e2 59be
000001d0: 1a55 bebd 81f7 d23d 0fed e13e 30f5 903d
000001e0: c743 323d 0845 653c beef c73b f9a5 913e
000001f0: aee5 10bf 5fe3 adba 2070 89bd ad69 18be
00000200: 8515 703d a05c 503c ce92 fe3a d1f8 e1bd
00000210: 4b9a 1ebd 374a 4ebc 459d a8bc 1d0c c83d
00000220: 87b9 51be 49a4 b3bd f514 a639 41d7 51bb
00000230: 6a4f 863d 1a0c cabd 0f76 cfbc a57b 3d3c
00000240: 1618 763e 6cae f63c 980e 3f3c c92c 8d3b
00000250: a992 4d3e a78e 5abe fd08 3d3e 2d8d e23d
00000260: 88db 89be 636a 4dbe bc60 39be 64af 18ba
00000270: 9b77 febb d6c6 32bd 89a2 b03d fed3 f5bc
00000280: ccba 70bd 0e13 5abe 351c 3bbe 4b6c a23c
00000290: 580e b0bc b169 353e 303f a53d 8ca4 8c3e
000002a0: 4a93 92bd 88d5 ff3c cff7 9b3e a731 c63d
000002b0: 62b2 1e3c da39 1dbd f4d2 f93e c53e 373e
000002c0: f837 933e 0eca 2cbe b1f9 813e 650e 533d
000002d0: fced 113c 5548 94bd 9c55 483e fc30 b7ba
000002e0: 34a7 20be 0ae0 24bd 290f 7b3e 6256 943b
000002f0: 6801 073b 04db 7ebe dbb2 823e 9830 9f3c
00000300: 7606 93bb 6e46 d6bc cc4c 243d 0a98 9cbb
00000310: baab 0abb 02e6 b93b 6819 d83b e240 6f3e
00000320: 84e9 8c3c dfe7 53be d707 fc3c b7fb 3bbf
00000330: bb4d 93be 5589 d43c 405e 5fbd c1d3 febb
00000340: 76fd 97be 86c6 4a3d fc53 65bc 4501 41bd
00000350: 2460 9f3e 0f1b 2abd a676 153c e0f0 3b3d
00000360: 17ec b03d 1948 b2be d486 863e 6637 253d
00000370: 7e92 9c3e 5e7d 1a3c b8f1 3c3c ff5e 8a3e
00000380: 1611 8cbe 68a2 193e 69cc 913d 7d19 3dbc
00000390: 4ff4 91bc 66e0 c0bb fdc9 a4bc 4693 e93b
000003a0: 84b6 0b3c bc4d e1bd b221 01bd f86c af3d
000003b0: 8a0a d8bc 9e17 18bf 2f9c f73b fb4c b1bb
000003c0: 8d5d 66bb 7e53 41bb 6b18 933e 28e0 cdbc
000003d0: 928f b1bc 1eb3 8cbc 6657 edba 4841 46bb
000003e0: 1d81 4ebb 15ba 8bba a8e8 93bd 6561 0c3e
000003f0: d753 d03c 054a 56bb 385d 63bf e5da 36be

model.0.bias f4 [256]
-0.06669045 0.2273542 0.039632667 0.0046861004 0.04040877 -0.19262974 -0.21742828 -0.21637815
0.047895107 0.08189076 -0.11871469 0.21687692 -0.16388687 0.20434666 -0.12981513 0.027257763
0.081277505 -0.17525908 -0.220544 0.21919195 -0.21480253 -0.018035183 -0.093470365 -0.17905968
0.19269753 -0.031420305 -0.08019804 -0.042880587 -0.069174685 -0.20083694 -0.054312702 -0.21799962
-0.13036482 -0.16258508 0.01607624 -0.21400222 0.04315795 -0.12684429 -0.14575629 0.077331595
0.03168812 -0.004742668 0.16343832 0.05486963 -0.1378936 -0.04580356 0.11392328 -0.16880372
0.045201328 0.078300394 0.1431266 -0.060685173 0.037015248 -0.008167801 0.14288546 -0.017371573
-0.055660184 0.16848354 0.20005676 0.0028230527 0.040135723 0.16669923 0.060972054 0.012536419
-0.027142653 0.16708574 -0.11593242 0.060138103 0.17202231 0.024130251 -0.116784535 -0.18647777
-0.096291915 -0.035027694 0.20061313 -0.14721999 0.0367276 -0.1651157 -0.0936715 -0.07936539
-0.12982748 0.004466763 -0.22898637 0.19266383 0.10262508 0.14807124 -0.0942312 -0.19953525
-0.035756163 -0.097281344 0.21250568 -0.23719646 -0.019005802 0.13179436 0.0832838 0.23938733
0.077340364 0.15250914 -0.025804402 0.05496088 -0.10369423 0.14238055 -0.016538665 0.0789107
0.14595649 -0.21355426 -0.14429432 0.07552289 0.16339812 -0.01704913 0.17355354 0.219632
0.17347276 0.009784668 0.0922708 -0.14916849 -0.14564791 0.1253662 0.19869988 0.12881868
-0.005083833 -0.041507557 0.23074089 0.097583525 -0.037632346 -0.17806418 0.0018937105 -0.09541208
-0.011700549 -0.03167684 0.20275314 -0.1659238 0.13283646 -0.07943092 0.044064324 -0.08130006
-0.020747513 0.035142194 0.11068558 -0.16723002 -0.2155871 0.13263634 -0.12235311 0.016779572
0.064297825 0.13988438 0.0018222615 0.20966262 -0.010788059 -0.14370677 -0.120974004 0.11676025
0.03256437 -0.07818651 0.2326889 -0.08880938 -0.034943607 0.1867142 0.117910005 -0.2010207
-0.06690898 -0.16757926 0.1716765 -0.011638759 -0.1585841 0.12960665 0.23281492 -0.14366849
-0.04606268 0.11861619 0.2192465 -0.10658349 -0.15579388 -0.20636815 0.061003406 0.13915598
0.08005538 0.09709539 0.12957273 -0.1965627 -0.19714415 -0.19512716 -0.047104634 -0.099115126
0.008457647 0.009019522 0.036430676 0.045564447 0.12060895 -0.018066917 -0.13955355 -0.17705776
0.21566011 -0.05673424 -0.040331 0.23210964 0.10536613 -0.120006815 0.10214824 -0.20373206
0.06527968 -0.14060675 0.12458764 0.18248081 -0.16844137 0.20098431 0.1807245 0.114280075
0.11007256 0.23266806 -0.0017597398 0.15215287 0.09671802 -0.083749235 -0.057316843 0.21229427
-0.11370023 -0.011346352 0.0872014 0.17020446 -0.05028721 0.024488688 0.16069451 -0.03820023
-0.1453592 0.19615729 0.22352514 -0.22233705 0.18916118 -0.12491213 0.15201382 -0.017948223
0.018845864 -0.18103859 -0.18690774 0.2315821 0.0064467057 0.19516876 0.13415988 -0.0939395
-0.07760617 -0.016553063 0.05543441 0.019604962 0.20408332 -0.074634805 -0.09739817 0.0150716305
-0.047458254 -0.18747637 -0.13677055 0.09615822 -0.017111285 -0.23805211 0.026987351 0.17771226
00000000: 0195 88bd 8acf 683e dd55 223d dc8d 993b
00000010: ab83 253d bb40 45be 85a5 5ebe 3c92 5dbe
00000020: a92d 443d 58b6 a73d b020 f3bd fc14 5e3e
00000030: f6d1 27be 4040 513e 42ee 04be ac4b df3c
00000040: d274 a63d 1e77 33be 49d6 61be db73 603e
00000050: 32f5 5bbe 85be 93bc 646d bfbd 6c5b 37be
00000060: 8052 453e 94b2 00bd df3e a4bd 8ea3 2fbd
00000070: 75ab 8dbd 33a8 4dbe ff76 5ebd 4b3b 5fbe
00000080: 5b7e 05be b47c 26be 52b2 833c 6623 5bbe
00000090: 64c6 303d 78e3 01be 2341 15be 0760 9e3d
000000a0: 67cb 013d 6268 9bbb 605c 273e fabe 603d
000000b0: fb33 0dbe 849c 3bbd 9c50 e93d e2da 2cbe
000000c0: 0725 393d f55b a03d c88f 123e 0491 78bd
000000d0: 4d9d 173d 3ed2 05bc 9150 123e d44e 8ebc
000000e0: effb 63bd f386 2c3e aedb 4c3e f702 393b
000000f0: 5b65 243d 34b3 2a3e d5bd 793d 8d65 4d3c
00000100: 455a debc 8618 2b3e fa6d edbd 5f53 763d
00000110: 9e26 303e ceac c53c bb2c efbd 07f4 3ebe
00000120: b234 c5bd 3379 0fbd 876d 4d3e d6c0 16be
00000130: ae6f 163d 1714 29be d8d6 bfbd 528a a2bd
00000140: 7ff1 04be ed5d 923b 677b 6abe ab49 453e
00000150: 192d d23d fd9f 173e 4afc c0bd f852 4cbe
00000160: 0e75 12bd 713b c7bd 179b 593e a1e3 72be
00000170: 0eb2 9bbc 1af5 063e b290 aa3d f421 753e
00000180: a064 9e3d 5b2b 1c3e c163 d3bc a91e 613d
00000190: a45d d4bd 35cc 113e 187c 87bc ef9b a13d
000001a0: 9e75 153e f8ad 5abe e4c1 13be bfab 9a3d
000001b0: d651 273e 9eaa 8bbc 05b8 313e 36e7 603e
000001c0: d8a2 313e df4f 203c 79f8 bc3d a0bf 18be
000001d0: ba24 15be ff5f 003e fb77 4b3e 0be9 033e
000001e0: 4896 a6bb d403 2abd 5747 6c3e dfd9 c73d
000001f0: 6024 1abd 7556 36be 6136 f83a 6967 c3bd
00000200: a9b3 3fbc 93bf 01bd 859e 4f3e eee7 29be
00000210: 4806 083e aeac a2bd cb7c 343d a580 a6bd
00000220: b0f6 a9bc 43f1 0f3d 1faf e23d 593e 2bbe
00000230: ddc2 5cbe d2d1 073e 4494 fabd 5075 893c
00000240: 94ae 833d da3d 0f3e f3d8 ee3a ccb1 563e
00000250: 66c0 30bc de27 13be 38c1 f7bd ff1f ef3d
00000260: 3862 053d 4020 a0bd 0046 6e3e b1e1 b5bd
00000270: 0721 0fbd 0232 3f3e cd7a f13d 5fd8 4dbe
00000280: 9307 89bd e699 2bbe f7cb 2f3e 7eb0 3ebc
00000290: df63 22be 9bb7 043e 0967 6e3e d51d 13be
000002a0: 39ac 3cbd 0ced f23d 2882 603e 7248 dabd
000002b0: 6e88 1fbe 2c52 53be b5de 793d e87e 0e3e
000002c0: 13f4 a33d f3d9 c63d b7ae 043e bc47 49be
000002d0: 28e0 49be 6acf 47be caf0 40bd dffc cabd
000002e0: f191 0a3c 9ec6 133c 5538 153d c9a1 3a3d
000002f0: d301 f73d 1201 94bc 20e7 0ebe a14e 35be
00000300: 01d6 5c3e 2a62 68bd 1e32 25bd 26ae 6d3e
00000310: 33ca d73d 22c6 f5bd 1933 d13d 239f 50be
00000320: 5ab1 853d 37fb 0fbe ce27 ff3d 40dc 3a3e
00000330: e57b 2cbe d5ce 4d3e d80f 393e ac0b ea3d
00000340: b96d e13d 8940 6e3e 12a7 e6ba f6cd 1b3e
00000350: 1914 c63d b884 abbd 11c5 6abd ab63 593e
00000360: abdb e8bd 0de6 39bc a696 b23d 144a 2e3e
00000370: f6f9 4dbd 809c c83c 1a8d 243e d877 1cbd
00000380: 0bd9 14be 75dd 483e c6e3 643e 53ac 63be
00000390: 78b3 413e eed1 ffbd 83a9 1b3e 2708 93bc
000003a0: a462 9a3c 2e62 39be be64 3fbe dc23 6d3e
000003b0: e33e d33b 52da 473e 3561 093e 5a63 c0bd
000003c0: fcef 9ebd 4a9a 87bc 310f 633d 969a a03c
000003d0: 38fb 503e 22da 98bd b178 c7bd 00ef 763c
000003e0: 9663 42bd cef9 3fbe 940d 0cbe 9aee c43d
000003f0: f72c 8cbc efc3 73be 9414 dd3c 34fa 353e

model.1.weight f4 [256]
0.8004358 0.77746534 0.95045906 0.80288994 0.80903405 0.8379894 0.8261023 0.8463812
0.7902376 0.7680824 0.8618737 0.93322974 0.8774003 0.9360158 0.8680767 0.8153729
0.7913467 0.78336364 0.7602193 0.82982117 0.8916936 0.8486712 0.8338964 0.74038917
0.8153296 0.84138215 0.84913874 0.7907405 0.9624731 0.77398086 0.8820276 0.8077234
0.85357904 0.9605543 0.81031287 0.80939627 0.8469216 0.8517245 0.8982974 0.7982199
0.7770003 0.8333774 0.81360626 0.7773887 0.81384027 0.76501673 0.79390365 0.79771525
0.93020463 0.7972651 0.8361661 0.7855066 0.7600478 0.9128145 0.8261154 0.90714884
0.78121936 0.82269174 0.8522393 0.8177554 0.8107703 0.8130074 0.84486586 0.80403125
0.83660793 0.8237174 0.8073955 0.83272403 0.74635464 0.79512644 0.8388844 0.79092324
0.8160491 0.8767916 0.82967895 0.7942555 0.802406 0.88363713 0.9522794 0.8177734
0.7834097 0.8318371 0.8050784 0.83064336 0.7875557 0.74958354 0.77921593 0.85649955
0.7613833 0.873074 0.8207938 0.8493439 0.7847573 0.84222734 0.835704 0.77512604
0.96205574 0.8719986 0.93335915 0.91268116 0.88624585 0.85830384 0.7946939 0.9056908
0.81655365 0.93266493 0.92206526 0.8358902 0.92971647 0.92356163 0.7806684 0.81608367
0.9298716 0.8352748 0.78310055 0.95565593 0.80018413 0.78421545 0.82359153 0.8781125
0.81137383 0.9155521 0.95618916 0.8024956 0.8801381 0.87790036 0.79722977 0.81582004
0.85185754 0.83508694 0.8821464 0.81969666 0.82849336 0.7496653 0.87189746 0.83362895
0.76301306 0.8222223 0.9192925 0.83116716 0.8122349 0.7638342 0.7885538 0.8671968
0.9297836 0.8169527 0.8319923 0.76275057 0.83032 0.7807145 0.8172595 0.80765265
0.7592758 0.8674086 0.8043912 0.78664386 0.7368004 0.8548731 0.9378229 0.8432318
0.7267982 0.7904737 0.89262784 0.8312545 0.78883314 0.75855434 0.78829134 0.7858391
0.90085626 0.8646897 0.91785574 0.8193086 0.8327286 0.78329515 0.8204889 0.78813016
0.8186699 0.8174846 0.7690054 0.7964584 0.8031446 0.7787262 0.94778574 0.82276744
0.93586105 0.97389674 0.84415793 0.84525144 0.7906902 0.801532 0.8765849 0.8736127
0.82722676 0.79535866 0.8006323 0.8516138 0.8334631 0.82174003 0.7678064 0.8338837
0.7917955 0.7882276 0.747502 0.7917159 0.8226573 0.87084556 0.821505 0.7618391
0.89739835 0.884357 0.81247073 0.82843333 0.8424862 0.92665714 0.814444 0.9451392
0.920726 0.7639398 0.8687017 0.8393223 0.78304946 0.8726798 0.8011844 0.79878426
0.7589898 0.9262904 0.8246436 0.80750275 0.89450645 0.8173516 0.8193265 0.8809375
0.85744923 0.9820802 0.7923166 0.95061225 0.78295684 0.85177267 0.8106002 0.7598305
0.8110129 0.79218835 0.7563725 0.76892525 0.8483442 0.78107166 0.82331425 0.7855811
0.8034463 0.7851369 0.7094521 0.8434613 0.80373496 0.78811264 0.8175906 0.97934973
00000000: 5ce9 4c3f f807 473f 4951 733f 328a 4d3f
00000010: db1c 4f3f 7986 563f 717b 533f 70ac 583f
00000020: 034d 4a3f 0ca1 443f c1a3 5c3f 25e8 6e3f
00000030: 4e9d 603f bb9e 6f3f 463a 5e3f 47bc 503f
00000040: b395 4a3f 858a 483f bb9d 423f 296f 543f
00000050: 0846 643f 8442 593f 3c7a 553f 258a 3d3f
00000060: 71b9 503f d264 573f 2861 593f f86d 4a3f
00000070: a364 763f 9c23 463f 90cc 613f f6c6 4e3f
00000080: 2884 5a3f e3e6 753f aa70 4f3f 9834 4f3f
00000090: dbcf 583f 9e0a 5a3f d2f6 653f 2458 4c3f
000000a0: 7ee9 463f 3958 553f 8048 503f f202 473f
000000b0: d657 503f 23d8 433f 453d 4b3f 1137 4c3f
000000c0: e421 6e3f 9119 4c3f fb0e 563f f616 493f
000000d0: 7e92 423f 36ae 693f 4d7c 533f e83a 683f
000000e0: fefd 473f ed9b 523f 5b2c 5a3f 6b58 513f
000000f0: a48e 4f3f 4121 503f 2149 583f fed4 4d3f
00000100: f02b 563f 25df 523f 79b1 4e3f 672d 553f
00000110: 1911 3f3f 688d 4b3f 21c1 563f f279 4a3f
00000120: 98e8 503f 6a75 603f d765 543f 5454 4b3f
00000130: 7b6a 4d3f 0b36 623f 95c8 733f 9959 513f
00000140: 8a8d 483f 47f3 543f 9e19 4e3f 0ba5 543f
00000150: 409d 493f b5e4 3f3f b27a 473f 8e43 5b3f
00000160: 04ea 423f c781 5f3f 8b1f 523f 9a6e 593f
00000170: dbe5 483f 369c 573f b3f0 553f a96e 463f
00000180: 4949 763f 4d3b 5f3f a0f0 6e3f 79a5 693f
00000190: 02e1 623f cdb9 5b3f 0f71 4b3f 5adb 673f
000001a0: a909 513f 21c3 6e3f 780c 6c3f e6fc 553f
000001b0: e601 6e3f 896e 6c3f e2d9 473f dcea 503f
000001c0: 110c 6e3f 92d4 553f 4779 483f dea5 743f
000001d0: ded8 4c3f 58c2 483f e5d6 523f fbcb 603f
000001e0: 32b6 4f3f 9f61 6a3f d0c8 743f 5a70 4d3f
000001f0: bb50 613f 14be 603f 4017 4c3f 95d9 503f
00000200: 5613 5a3f 42c8 553f 59d4 613f a4d7 513f
00000210: 2418 543f 11ea 3f3f ac34 5f3f b568 553f
00000220: d354 433f 297d 523f c156 6b3f 5fc7 543f
00000230: a0ee 4f3f a38a 433f a9de 493f 9c00 5e3f
00000240: 4c06 6e3f d023 513f 73fd 543f 9f43 433f
00000250: da8f 543f e8dc 473f eb37 513f 53c2 4e3f
00000260: e65f 423f 7d0e 5e3f 95ec 4d3f 7e61 493f
00000270: f39e 3c3f f7d8 5a3f 2915 703f 0ade 573f
00000280: 720f 3a3f 7c5c 4a3f 4283 643f 18cd 543f
00000290: f8f0 493f 9e30 423f 76cd 493f c02c 493f
000002a0: 849e 663f 4e5c 5d3f 98f8 6a3f 35be 513f
000002b0: b42d 553f 0886 483f 900b 523f e6c2 493f
000002c0: 5a94 513f ac46 513f 8add 443f b3e4 4b3f
000002d0: e29a 4d3f 9a5a 473f 16a2 723f e3a0 523f
000002e0: 9794 6f3f 4c51 793f bc1a 583f 6662 583f
000002f0: ac6a 4a3f 3331 4d3f de67 603f 15a5 5f3f
00000300: 22c5 533f a09c 4b3f 3df6 4c3f 5d03 5a3f
00000310: d65d 553f 8e5d 523f f68e 443f 6779 553f
00000320: 1cb3 4a3f 49c9 493f 4b5c 3f3f e5ad 4a3f
00000330: ab99 523f bcef 5e3f 274e 523f e307 433f
00000340: e6bb 653f 3865 623f 15fe 4f3f 3514 543f
00000350: 2dad 573f 6739 6d3f 677f 503f a5f4 713f
00000360: b3b4 6b3f 8f91 433f 3c63 5e3f d4dd 563f
00000370: ee75 483f f267 5f3f 6c1a 4d3f 207d 4c3f
00000380: 284d 423f 5e21 6d3f d81b 533f 80b8 4e3f
00000390: 60fe 643f f43d 513f 62bf 513f 1f85 613f
000003a0: cb81 5b3f 9c69 7b3f 43d5 4a3f 535b 733f
000003b0: dc6f 483f c60d 5a3f 7f83 4f3f 4084 423f
000003c0: 8b9e 4f3f dbcc 4a3f a1a1 413f 49d8 443f
000003d0: 162d 593f 50f4 473f b9c4 523f d81b 493f
000003e0: a8ae 4d3f bbfe 483f a79e 353f 14ed 573f
000003f0: 93c1 4d3f c0c1 493f 9e4d 513f aab6 7a3f

model.1.bias f4 [256]
-0.561799 -0.56615895 -0.24843246 -0.56408906 -0.51031333 -0.4548613 -0.55235386 -0.450291
-0.6606894 -0.5941801 -0.42952904 -0.2503068 -0.5541415 -0.26836607 -0.5354257 -0.65386516
-0.5245952 -0.56038004 -0.67205715 -0.5528345 -0.33675134 -0.500212 -0.54392487 -0.6362494
-0.6003552 -0.49633875 -0.461557 -0.5430197 -0.24592254 -0.63963735 -0.3967221 -0.5234174
-0.509697 -0.34258166 -0.4232918 -0.56867117 -0.34790558 -0.47104478 -0.43999508 -0.5493297
-0.5805629 -0.55267715 -0.55284035 -0.6209085 -0.48486713 -0.6055494 -0.557605 -0.5471453
-0.25353026 -0.5589457 -0.5126238 -0.6055334 -0.6317126 -0.41090313 -0.55224794 -0.2972704
-0.563731 -0.52166 -0.60701805 -0.55287457 -0.5754673 -0.6700121 -0.56077445 -0.5434011
-0.4924581 -0.5627362 -0.5494923 -0.55991477 -0.68594396 -0.54885983 -0.50793326 -0.60781425
-0.57839984 -0.3259198 -0.49365017 -0.5701984 -0.53021544 -0.5173342 -0.26741672 -0.61458814
-0.57898283 -0.5107749 -0.5533866 -0.57227015 -0.6270062 -0.58955693 -0.6107394 -0.4746887
-0.609517 -0.27500692 -0.44872606 -0.5406728 -0.6275078 -0.45456633 -0.4677392 -0.6162172
-0.26900882 -0.24003989 -0.27801445 -0.35047203 -0.3718911 -0.4337998 -0.57619506 -0.27033052
-0.555693 -0.33976907 -0.23871416 -0.47451207 -0.24175803 -0.24691588 -0.59294623 -0.62610537
-0.23718768 -0.51889896 -0.6164547 -0.26592487 -0.5177297 -0.57577085 -0.5240584 -0.33322826
-0.5800198 -0.28486973 -0.24826771 -0.5322928 -0.5436886 -0.4739353 -0.5050638 -0.58862597
-0.357412 -0.58215314 -0.57764506 -0.5435935 -0.5132409 -0.6611492 -0.5136698 -0.4655835
-0.6160619 -0.47937647 -0.36526173 -0.5339748 -0.5604955 -0.6178124 -0.6415313 -0.4389445
-0.26370406 -0.54529566 -0.49625468 -0.6248035 -0.5715449 -0.5715092 -0.56449014 -0.58455855
-0.6685037 -0.47524452 -0.52148205 -0.66588885 -0.63663477 -0.5619728 -0.24569322 -0.45100427
-0.67593247 -0.6566077 -0.33352372 -0.4927568 -0.5995566 -0.6595368 -0.59182936 -0.51282036
-0.34026417 -0.5009225 -0.3355602 -0.6027496 -0.53210974 -0.6042615 -0.55265415 -0.6128678
-0.5962854 -0.5374014 -0.59425 -0.5796994 -0.54698044 -0.6019661 -0.33023697 -0.5415029
-0.32271364 -0.30453452 -0.4599906 -0.51913214 -0.5551318 -0.54651916 -0.39674148 -0.46160793
-0.56440693 -0.6985839 -0.5482942 -0.44118476 -0.5543328 -0.5695692 -0.6056338 -0.5393664
-0.6489334 -0.6812563 -0.61644363 -0.5297184 -0.4759412 -0.40424198 -0.5232815 -0.63798916
-0.42028284 -0.4925523 -0.56050813 -0.584411 -0.5475145 -0.2707705 -0.5022701 -0.2999617
-0.40016302 -0.62203616 -0.44800043 -0.55028456 -0.57799304 -0.5627321 -0.578685 -0.5508673
-0.6763031 -0.27260062 -0.55816257 -0.47021747 -0.4690862 -0.3001609 -0.55301064 -0.5409472
-0.2895467 -0.24643753 -0.5674058 -0.24968241 -0.6336969 -0.48287413 -0.52948385 -0.6467303
-0.5934805 -0.57421756 -0.6158914 -0.62088513 -0.39977604 -0.5958686 -0.581069 -0.5720383
-0.4670709 -0.62977666 -0.6766034 -0.5553809 -0.508649 -0.59623426 -0.49347308 -0.24704769
00000000: 0fd2 0fbf cbef 10bf 1465 7ebe 2468 10bf
00000010: e5a3 02bf 95e3 e8be 1067 0dbf 8b8c e6be
00000020: f122 29bf 301c 18bf 3beb dbbe 3628 80be
00000030: 38dc 0dbf 4767 89be a911 09bf b563 27bf
00000040: df4b 06bf 1175 0fbf f00b 2cbf 9086 0dbf
00000050: ac6a acbe e50d 00bf a93e 0bbf 3ee1 22bf
00000060: e1b0 19bf 1d20 febe 3351 ecbe 5703 0bbf
00000070: 1ed3 7bbe 46bf 23bf 291f cbbe affe 05bf
00000080: 817b 02bf dd66 afbe b4b9 d8be 6f94 11bf
00000090: ae20 b2be c82c f1be 0947 e1be dfa0 0cbf
000000a0: c59f 14bf 407c 0dbf f286 0dbf dcf3 1ebf
000000b0: 8140 f8be 4905 1bbf 34bf 0ebf b711 0cbf
000000c0: b8ce 81be 1117 0fbf 503b 03bf 3d04 1bbf
000000d0: ebb7 21bf e561 d2be 1f60 0dbf d333 98be
000000e0: ad50 10bf 828b 05bf 8965 1bbf 3089 0dbf
000000f0: d351 13bf ea85 2bbf ea8e 0fbf 561c 0bbf
00000100: 7823 fcbe 7b0f 10bf 87ab 0cbf 9356 0fbf
00000110: 069a 2fbf 1482 0cbf ea07 02bf b799 1bbf
00000120: 0312 14bf f6de a6be b7bf fcbe 86f8 11bf
00000130: 33bc 07bf 0470 04bf d8ea 88be a655 1dbf
00000140: 3838 14bf 25c2 02bf bfaa 0dbf 4c80 12bf
00000150: 7a83 20bf 34ed 16bf 6b59 1cbf 660a f3be
00000160: 4e09 1cbf b5cd 8cbe 6cbf e5be 8869 0abf
00000170: 5aa4 20bf ebbc e8be 837b efbe 69c0 1dbf
00000180: 86bb 89be 04cd 75be e957 8ebe 1271 b3be
00000190: 8368 bebe 021b debe 8581 13bf c368 8abe
000001a0: e541 0ebf 36f6 adbe 7c71 74be 3ff3 f2be
000001b0: 6b8f 77be 84d7 7cbe 53cb 17bf 7148 20bf
000001c0: 54e1 72be 90d6 04bf facf 1dbf 4e27 88be
000001d0: ef89 04bf b865 13bf b128 06bf e59c aabe
000001e0: 2d7c 14bf 72da 91be e439 7ebe 5744 08bf
000001f0: 2d2f 0bbf a6a7 f2be dc4b 01bf 31b0 16bf
00000200: b5fe b6be fd07 15bf 8ce0 13bf f228 0bbf
00000210: c163 03bf 1341 29bf dd7f 03bf f660 eebe
00000220: 3cb6 1dbf d570 f5be 9603 bbbe 93b2 08bf
00000230: a27c 0fbf f428 1ebf 653b 24bf 55bd e0be
00000240: 3804 87be 7f98 0bbf 1815 febe 1ff3 1fbf
00000250: c450 12bf 6d4e 12bf 6d82 10bf a1a5 15bf
00000260: 0f23 2bbf 4053 f3be d97f 05bf b177 2abf
00000270: 7ffa 22bf 73dd 0fbf 0197 7bbe 08ea e6be
00000280: e909 2dbf 7117 28bf 9fc3 aabe 9f4a fcbe
00000290: 8b7c 19bf 67d7 28bf 2182 17bf 3248 03bf
000002a0: 1b37 aebe 753c 00bf 8cce abbe cc4d 1abf
000002b0: 5838 08bf e2b0 1abf be7a 0dbf e7e4 1cbf
000002c0: 29a6 18bf 2393 09bf c520 18bf 2e67 14bf
000002d0: e906 0cbf 731a 1abf d214 a9be ef9f 0abf
000002e0: b93a a5be f3eb 9bbe e383 ebbe d8e5 04bf
000002f0: 1e1d 0ebf aee8 0bbf b321 cbbe e057 ecbe
00000300: f97c 10bf 65d6 32bf 025d 0cbf f8e2 e1be
00000310: c1e8 0dbf 49cf 11bf d10a 1bbf eb13 0abf
00000320: 8020 26bf d066 2ebf 40cf 1dbf a09b 07bf
00000330: 91ae f3be cef8 cebe c7f5 05bf 4253 23bf
00000340: 502f d7be d12f fcbe 767d 0fbf f69b 15bf
00000350: e929 0cbf 6ea2 8abe c694 00bf 9494 99be
00000360: 2be2 ccbe c33d 1fbf 5060 e5be 73df 0cbf
00000370: 5af7 13bf 360f 10bf b324 14bf a405 0dbf
00000380: 3322 2dbf 4f92 8bbe bee3 0ebf 58c0 f0be
00000390: 112c f0be b1ae 99be 1b92 0dbf 847b 0abf
000003a0: 773f 94be 1f5a 7cbe 8241 11bf bfac 7fbe
000003b0: f639 22bf 473b f7be 418c 07bf 1e90 25bf
000003c0: 57ee 17bf ecff 12bf 0fab 1dbf 54f2 1ebf
000003d0: 72af ccbe d88a 18bf f0c0 14bf 1a71 12bf
000003e0: eb23 efbe 0b39 21bf e135 2dbf 712d 0ebf
000003f0: d236 02bf cfa2 18bf 81a8 fcbe 12fa 7cbe

model.1.running_mean f4 [256]
0.02641317 0.770577 0.0503527 0.12063739 0.0015582789 -0.054596096 -0.29889968 -0.25752753
0.05250776 -0.31084862 0.27918357 0.2110928 -0.18778312 0.18619232 -0.15711014 -0.37627614
0.05450543 -0.6950646 -0.23819917 0.2658904 -0.2803536 -0.036868453 -0.031256158 -0.34691697
-0.17463699 -0.008404311 0.18705453 0.00039772384 -0.09733825 -0.41768834 -0.07071329 -0.21013376
-0.2973802 -0.2706466 0.120593615 0.074024275 0.15525039 0.07143185 -0.18452671 0.1117884
0.43015435 0.35198727 0.67092276 -0.235773 -0.2122655 0.29836476 0.15589233 -0.02456047
0.05810977 0.23607981 0.08844273 0.31717604 -0.27172437 -0.1252739 -0.17545484 0.06106636
0.3810599 0.23075816 0.2626945 0.08285888 0.08430931 0.129824 -0.29006943 -0.2521883
-0.16722515 0.73951566 -0.13281386 0.0014746414 0.26277497 0.1018 0.24137442 0.1826554
-0.029712357 -0.11570262 0.21162513 -0.5005552 0.055110004 -0.07701889 -0.17793724 -0.02137062
-0.25616214 0.15469041 0.12750635 0.32380423 -0.43472496 -0.08919323 -0.6206613 0.19939505
0.108713664 0.04274424 0.7381415 -0.21626014 -0.0054586837 0.13513035 0.09857085 -0.10601004
0.06245675 0.13681664 -0.054304052 -0.0065993727 -0.21422447 0.6215111 0.4900011 0.073158115
0.26059908 -0.18976694 -0.19069526 -0.03500426 0.12531278 -0.055701125 0.80395496 0.1801838
0.11165102 0.043686155 0.6094634 -0.16502489 0.2226093 0.14681466 0.3076089 0.15960647
-0.5513334 -0.05239171 0.16367078 0.13024329 0.47300503 0.37111458 0.110771276 0.5361897
0.3548473 -0.15963309 0.19410518 -0.16734119 0.18803823 -0.16786107 0.05859194 -0.10149642
-0.4530701 0.0055478457 0.085096434 -0.12907115 -0.27099508 0.15670775 -0.5215444 0.4045536
0.059947588 0.1693471 -0.0018360321 0.70036745 0.08614268 -0.46684566 -0.10775256 -0.004491457
0.38205707 -0.07883358 -0.042324852 -0.052727155 -0.3889621 0.1841496 0.11903641 -0.14139237
-0.13743716 -0.12630066 0.19953766 -0.005997531 0.04265524 0.30817607 0.52293617 -0.21986671
-0.18919824 0.07608593 0.11042991 -0.17871408 -0.15779188 -0.50380707 -0.22795446 -0.25712204
-0.067405574 0.2288992 -0.0947818 -0.075195685 0.17855947 -0.2141064 -0.14373474 -0.07656851
-0.08836734 -0.009856435 -0.29795668 0.045790832 0.33865085 -0.28023043 -0.1556102 -0.27413878
-0.083029464 -0.051323675 -0.54593486 0.6971478 0.15365113 -0.10181729 0.38199657 -0.13666548
0.14614263 0.01589654 0.062072054 -0.22231044 -0.0829013 0.44579178 0.18931538 0.4778813
0.37873602 0.20200789 -0.22983092 0.19388871 0.07051109 -0.16848996 -0.06541186 0.17772274
-0.112239204 -0.31635925 0.0263314 0.5444396 -0.042896654 0.028924322 0.43197674 -0.06669065
-0.06918508 0.11896548 0.3607188 -0.26085782 0.3130317 -0.23589632 0.31488034 -0.018793797
0.50090617 -0.19375415 -0.20870519 0.21599248 -0.15644027 0.13882428 0.81272304 -0.42134658
-0.099407546 -0.012893303 0.63693094 -0.011784267 -0.07518481 0.4961788 -0.05380821 -0.060487535
0.10784046 -0.12500086 -0.43918353 -0.07592576 0.526982 -0.11918327 0.5143701 0.14242181
00000000: 6f60 d83c 8944 453f a23e 4e3d bc10 f73d
00000010: 2a3f cc3a 28a0 5fbd 6109 99be a6da 83be
00000020: 6012 573d 8d27 9fbe 26f1 8e3e b628 583e
00000030: 384a 40be 33a9 3e3e 7be1 20be 44a7 c0be
00000040: 1641 5f3d c1ef 31bf 7cea 73be c922 883e
00000050: 828a 8fbe 6003 17bd 7506 00bd 1a9f b1be
00000060: 0ad4 32be 3cb2 09bc 398b 3f3e 9785 d039
00000070: 4759 c7bd 3fdb d5be 21d2 90bd 4e2d 57be
00000080: 3842 98be 3192 8abe c9f9 f63d 0a9a 973d
00000090: f5f9 1e3e dd4a 923d 92f4 3cbe 51f1 e43d
000000a0: 313d dc3e ad37 b43e 98c1 2b3f 7a6e 71be
000000b0: 215c 59be 44c3 983e 3da2 1f3e 0a33 c9bc
000000c0: 8304 6e3d e8be 713e 7621 b53d e664 a23e
000000d0: 751f 8bbe cd47 00be 6faa 33be b820 7a3d
000000e0: 491a c33e de4b 6c3e e57f 863e ebb1 a93d
000000f0: 5caa ac3d 95f0 043e fb83 94be d31e 81be
00000100: 123d 2bbe e650 3d3f 5b00 08be c148 c13a
00000110: 718a 863e 857c d03d db2a 773e 040a 3b3e
00000120: 5467 f3bc 7ff5 ecbd 42b4 583e 6324 00bf
00000130: 07bb 613d 14bc 9dbd 2e35 36be 7011 afbc
00000140: af27 83be 2a67 1e3e 0691 023e abc9 a53e
00000150: 4594 debe f1aa b6bd a9e3 1ebf 372e 4c3e
00000160: 45a5 de3d 9614 2f3d d7f6 3c3f 4c73 5dbe
00000170: c2de b2bb 9c5f 0a3e 84df c93d cb1b d9bd
00000180: a6d2 7f3d a919 0c3e ed6d 5ebd 8d3f d8bb
00000190: a95d 5bbe 5a1b 1f3f 6de1 fa3e ecd3 953d
000001a0: 3e6d 853e 4452 42be 9e45 43be a060 0fbd
000001b0: fe51 003e dd26 64bd fecf 4d3f 1a82 383e
000001c0: 4aa9 e43d 41f0 323d cb05 1c3f 49fc 28be
000001d0: b1f3 633e 9556 163e ea7e 9d3e e16f 233e
000001e0: 3024 0dbf b198 56bd 5099 273e 7f5e 053e
000001f0: b72d f23e bb02 be3e 0ddc e23d ba43 093f
00000200: 8cae b53e db76 23be 82c3 463e 7d5b 2bbe
00000210: 188d 403e c6e3 2bbe 1afe 6f3d 5bdd cfbd
00000220: cef8 e7be b4ca b53b 0a47 ae3d 3a2b 04be
00000230: debf 8abe ff77 203e ef83 05bf a621 cf3e
00000240: 9a8b 753d 5469 2d3e 04a7 f0ba 484b 333f
00000250: 936b b03d 6506 efbe 60ad dcbd 122d 93bb
00000260: fc9c c33e 8073 a1bd d35c 2dbd 6ef8 57bd
00000270: 0a26 c7be b691 3c3e 5cc9 f33d 29c9 10be
00000280: 54bc 0cbe f654 01be 9a53 4c3e f086 c4bb
00000290: 43b7 2e3d 41c9 9d3e 25df 053f bd24 61be
000002a0: 2fbd 41be f1d2 9b3d 1429 e23d d300 37be
000002b0: 3294 21be 80f9 00bf e56c 69be 80a5 83be
000002c0: ef0b 8abd 8d64 6a3e f61c c2bd 3200 9abd
000002d0: 4bd8 363e b53e 5bbe 332f 13be f3cf 9cbd
000002e0: f0f9 b4bd e27c 21bc c78d 98be 2b8f 3b3d
000002f0: a563 ad3e 5d7a 8fbe 4858 1fbe eb5b 8cbe
00000300: 5a0b aabd c638 52bd 63c2 0bbf 4778 323f
00000310: b956 1d3e 9585 d0bd 0e95 c33e 09f2 0bbe
00000320: 6aa6 153e 7639 823c 443f 7e3d 59a5 63be
00000330: 28c8 a9bd d23e e43e e4db 413e dcac f43e
00000340: b0e9 c13e 28db 4e3e cc58 6bbe c38a 463e
00000350: 1e68 903d a288 2cbe a7f6 85bd f3fc 353e
00000360: abdd e5bd d7f9 a1be f3b4 d73c 6560 0b3f
00000370: 67b4 2fbd b3f2 ec3c 0e2c dd3e 1c95 88bd
00000380: e8b0 8dbd 2ca4 f33d 22b0 b83e 288f 85be
00000390: b145 a03e ce8e 71be ff37 a13e 73f5 99bc
000003a0: 633b 003f 7d67 46be d0b6 55be 222d 5d3e
000003b0: e131 20be f427 0e3e 9e0e 503f bdba d7be
000003c0: 2f96 cbbd 6f3e 53bc e80d 233f cc12 41bc
000003d0: 7efa 99bd 260b fe3e ff65 5cbd c7c1 77bd
000003e0: 76db dc3d 3a00 00be aadc e0be f77e 9bbd
000003f0: 4be8 063f 5c16 f4bd c2ad 033f 06d7 113e

model.1.running_var f4 [256]
0.0060258685 0.014837634 0.015578358 0.0042579714 0.009440605 0.006675195 0.005678722 0.0025003166
0.003609306 0.01875712 0.017724251 0.0129322475 0.008203744 0.014896141 0.0005303057 0.02147106
0.0074039027 0.011280442 0.006068259 0.0043064645 0.0035504124 0.0043958356 0.01006024 0.01406793
0.013097826 0.004257403 0.0134606445 0.009477895 0.008988501 0.0063637444 0.006019445 0.004977408
0.006488343 0.0026487801 0.004671457 0.01429303 0.011758036 0.0025743705 0.003342769 0.0015993098
0.01387027 0.010963753 0.023248771 0.015406837 0.0035165797 0.011896166 0.005401684 0.0034513136
0.019454382 0.009510546 0.003260836 0.012574667 0.020651337 0.007961338 0.010512448 0.002605755
0.023831021 0.005710176 0.0053873397 0.012784953 0.007647309 0.002971915 0.017820694 0.017387627
0.008462876 0.020284794 0.008449218 0.0068798303 0.0030280743 0.0073542134 0.019292347 0.012060538
0.0037049681 0.012947763 0.0074140267 0.008871651 0.002846487 0.0071918783 0.014742008 0.005921798
0.008463428 0.002553527 0.022598442 0.002216282 0.028487828 0.0069209444 0.01857924 0.011281971
0.007861176 0.008133109 0.022794321 0.005825027 0.0032889792 0.003062404 0.00909991 0.014844368
0.015500371 0.014083916 0.01693627 0.004550454 0.0033964827 0.025495438 0.024751 0.012929986
0.010084234 0.006561165 0.010217816 0.0065289554 0.009750602 0.010229329 0.029884096 0.002913641
0.016800499 0.006490311 0.01758206 0.012750895 0.010686821 0.0058295587 0.009236864 0.0015501278
0.022285448 0.01396094 0.011907929 0.0051995255 0.024268148 0.016660523 0.003870238 0.033229988
0.0080980975 0.0024577123 0.0008813134 0.004030291 0.004643354 0.009350173 0.0032137248 0.0007996169
0.016924504 0.00496485 0.0037618496 0.011725912 0.00420565 0.005223586 0.024385558 0.016259706
0.01682575 0.0024787409 0.00793006 0.010878722 0.0068896646 0.009378901 0.005184283 0.006320959
0.0045251483 0.013827168 0.014094357 0.0035380379 0.021112842 0.0007146584 0.012585988 0.0026763338
0.003682078 0.0056543923 0.0012293183 0.008092749 0.005416099 0.0058258157 0.0047269654 0.0032615946
0.005632996 0.0042536226 0.018798914 0.0042304103 0.0034971968 0.015911117 0.018490696 0.01684293
0.0068439445 0.0042149276 0.0081503345 0.009875096 0.01539636 0.0059751803 0.015108918 0.0032257356
0.0042748516 0.007907824 0.024574736 0.002990231 0.007773956 0.01464546 0.0023363272 0.00951508
0.016753832 0.0022773035 0.012262859 0.028270029 0.0060483324 0.0027277863 0.009100707 0.005571085
0.0042800773 0.005947822 0.0051502036 0.028448967 0.0069134813 0.010630403 0.0006172507 0.018297138
0.010067937 0.011770599 0.010135543 0.008816622 0.00475095 0.019268617 0.0064300736 0.01577874
0.0048560807 0.0087377895 0.0032974998 0.01611657 0.005424462 0.0025709742 0.010304733 0.0046098223
0.007184428 0.014469121 0.013561761 0.0018943854 0.0062119374 0.0051538185 0.009316051 0.0022639146
0.0143949175 0.014221735 0.0023530242 0.009956664 0.016759675 0.005719814 0.033136263 0.02709643
0.0029620274 0.006778573 0.015573302 0.0044671716 0.006736564 0.026372703 0.0036170988 0.0037737973
0.009940355 0.0057967077 0.0060037454 0.010247226 0.02946489 0.006949295 0.027404768 0.013041565
00000000: a674 c53b 8c19 733c 5f3c 7f3c 7486 8b3b
00000010: c4ac 1a3c 98bb da3b 9314 ba3b 5adc 233b
00000020: 1b8a 6c3b 88a8 993c 7332 913c c7e1 533c
00000030: ff68 063c f20e 743c 3704 0b3a 14e4 af3c
00000040: 709c f23b 9ad1 383c 3fd8 c63b 3e1d 8d3b
00000050: 09ae 683b f10a 903b b4d3 243c 2d7d 663c
00000060: 4498 563c af81 8b3b 098a 5c3c 2c49 1b3c
00000070: 8144 133c f586 d03b c43e c53b 8619 a33b
00000080: 2a9c d43b 2897 2d3b 0613 993b 502d 6a3c
00000090: c7a4 403c c5b6 283b 5c12 5b3b ef9f d13a
000000a0: 2140 633c 50a1 333c 3574 be3c f56c 7c3c
000000b0: 6b76 663b 23e8 423c 9c00 b13b 6f2f 623b
000000c0: cc5e 9f3c 1fd2 1b3c c0b3 553b fa05 4e3c
000000d0: fe2c a93c 4670 023c 673c 2c3c 51c5 2a3b
000000e0: 4639 c33c 6e1c bb3b 4888 b03b fb77 513c
000000f0: 4796 fa3b 76c4 423b b4fc 913c 7f70 8e3c
00000100: e0a7 0a3c 4c2c a63c 976e 0a3c 3370 e13b
00000110: a872 463b 9dfb f03b fc0a 9e3c 9099 453c
00000120: 0dcf 723b db22 543c 5df1 f23b 675a 113c
00000130: 218c 3a3b d9a9 eb3b 7788 713c a40b c23b
00000140: 31aa 0a3c 1359 273b 5e20 b93c 0b3f 113b
00000150: 4e5f e93c 17c9 e23b 7e33 983c 04d8 383c
00000160: 29cc 003c bb40 053c 28bb ba3c dedf be3b
00000170: ea8b 573b 9db2 483b ca17 153c cb35 733c
00000180: 45f5 7d3c 3ac0 663c efbd 8a3c fa1b 953b
00000190: 8697 5e3b cfdb d03c 9cc2 ca3c 4bd8 533c
000001a0: 5838 253c 0bff d63b a068 273c d9f0 d53b
000001b0: fdc0 1f3c ea98 273c 7ecf f43c c9f2 3e3b
000001c0: 33a1 893c adac d43b 4108 903c 21e9 503c
000001d0: c717 2f3c e205 bf3b 3756 173c a82d cb3a
000001e0: f98f b63c 6dbc 643c 7919 433c c860 aa3b
000001f0: ffcd c63c a67b 883c d2a3 7d3b 2b1c 083d
00000200: e2ad 043c 9211 213b f107 673a 8810 843b
00000210: 4727 983b 7831 193c 5b9d 523b 629d 513a
00000220: 42a5 8a3c 2eb0 a23b 5d89 763b 0a1e 403c
00000230: 8dcf 893b 9e2a ab3b 39c4 c73c 1333 853c
00000240: 28d6 893c 5f72 223b 15ed 013c ab3c 323c
00000250: b2c2 e13b f6a9 193c ebe0 a93b 0c20 cf3b
00000260: b247 943b 598b 623c 05ec 663c 6dde 673b
00000270: d7f4 ac3c ea57 3b3a 7635 4e3c 6e65 2f3b
00000280: 054f 713b 7b48 b93b 1421 a13a 7397 043c
00000290: 8879 b13b 7ce6 be3b a9e4 9a3b 7ac0 553b
000002a0: ff94 b83b f961 8b3b 2e00 9a3c 419f 8a3b
000002b0: 3a31 653b 0858 823c cd79 973c 2ffa 893c
000002c0: 2b43 e03b 601d 8a3b fb88 053c 28cb 213c
000002d0: 0441 7c3c 72cb c33b 658b 773c dd66 533b
000002e0: 0e14 8c3b d18f 013c f550 c93c c0f7 433b
000002f0: abbc fe3b 83f3 6f3c 111d 193b 23e5 1b3c
00000300: 553f 893c d03e 153b 29ea 483c 8c96 e73c
00000310: 1731 c63b a9c4 323b 221b 153c a68d b63b
00000320: e43f 8c3b f2e5 c23b 0ac3 a83b cf0d e93c
00000330: 7c8a e23b 242b 2e3c fece 213a e1e3 953c
00000340: fdf3 243c 78d9 403c 8c0f 263c 9873 103c
00000350: dbad 9b3b 38d9 9d3c 5eb3 d23b 6b42 813c
00000360: c21f 9f3b f228 0f3c de1a 583b e606 843c
00000370: afbf b13b ca7d 283b 2fd5 283c fe0d 973b
00000380: 5a6b eb3b e40f 6d3c 2632 5e3c 074d f83a
00000390: 828d cb3b 5de1 a83b 5aa2 183c 2f5e 143b
000003a0: a9d8 6b3c 4802 693c 3235 1a3b 4721 233c
000003b0: 964b 893c 476d bb3b e4b9 073d 55f9 dd3c
000003c0: 931e 423b cb1e de3b 2a27 7f3c 5a61 923b
000003d0: 65be dc3b 910b d83c d90c 6d3b d051 773b
000003e0: dfdc 223c 4ff2 bd3b 11bb c43b fbe3 273c
000003f0: 5a60 f13c e9b6 e33b f77f e03c 4aac 553c

model.4.weight f4 [2, 256]
0.02102106 -0.018874398 -0.04145919 -0.034377955 -0.033748653 0.01267679 0.012410406 0.017031323
0.036044627 -0.015864389 -0.020708714 -0.037107117 0.014149073 -0.036010798 0.062123664 -0.02030158
0.01758741 -0.04103805 0.047869563 0.015541292 -0.059693683 0.013220308 0.011962056 -0.03759576
-0.023476057 0.009165062 -0.028741678 0.024615392 -0.046600197 -0.03714116 0.004315007 0.004408704
0.013875804 -0.02974116 -0.028414417 -0.03234027 -0.014496141 -0.03786984 -0.059360456 0.014089937
-0.025918426 -0.037187304 -0.030457804 -0.022822626 -0.05026723 -0.023619663 0.017654803 -0.04826557
-0.035962507 -0.029457428 0.012450768 -0.022019524 -0.026551055 -0.060733907 -0.022554796 0.005730829
-0.027793627 -0.044190545 0.024904128 0.015560436 0.021721598 0.038936593 -0.023988774 -0.019079529
0.013790014 -0.018203001 0.019419078 0.01647356 -0.024754813 0.017214313 -0.034118596 -0.037762
0.02664627 -0.0075429804 0.005238736 -0.045105964 0.0033091467 0.013713047 -0.033700436 0.025574211
-0.037119333 -0.035519954 -0.030199576 -0.04953443 -0.026392886 -0.041789092 -0.03229967 -0.027418748
0.019490082 0.006138605 -0.02443886 0.011955942 0.036782414 0.013656906 0.010038988 -0.028764412
-0.038689915 -0.03645551 -0.034927495 -0.057899818 -0.023149997 -0.02856881 -0.021778058 -0.045879863
0.011965001 0.012960135 -0.042415455 -0.0704011 -0.039840143 -0.037707385 -0.024156159 0.04954582
-0.035677906 0.011136129 -0.024109382 -0.03663373 -0.030229127 0.017546874 0.0096855685 0.0047562164
-0.019946638 -0.038116615 -0.039934736 0.01828982 -0.037602954 -0.021219572 -0.042474657 -0.025425402
-0.030768795 0.030679528 0.045839537 0.023352958 0.01846424 -0.043318465 0.022504415 0.06747772
-0.02957433 0.01621483 -0.059489343 0.0072303796 -0.05060279 0.032602604 -0.018982016 -0.023253331
-0.0415503 0.006572873 0.012396204 -0.03324308 0.021344401 -0.04302069 0.015210653 0.025465779
-0.032178 0.036636446 -0.022263968 0.041069567 -0.02169675 0.03882324 -0.042333722 -0.048616204
-0.04273968 0.034027882 0.004236121 0.011340887 -0.034118548 -0.036162943 -0.030287903 0.017587556
-0.050519425 0.011787311 -0.011622007 0.020758731 0.009672493 -0.028875541 -0.016860344 -0.02444781
0.035072163 -0.05219295 -0.034459963 0.009228073 -0.03269026 0.02485522 -0.036070827 0.015122268
-0.046088457 -0.041017085 -0.023467675 0.017576696 -0.0330761 -0.036969982 0.0015098747 -0.059904963
-0.025885185 0.043497864 -0.036387004 -0.021034852 0.017932905 0.024063699 -0.029731376 0.014805028
0.04000281 0.039514545 0.033957027 -0.023335084 0.0069262637 0.014078646 0.04645426 -0.022518141
0.003954482 0.011336325 -0.027479216 0.011744995 0.025033833 -0.035299774 0.0098681655 -0.035445075
-0.06324245 -0.033121444 0.011563592 -0.033931017 0.035999928 0.015360665 -0.02830552 0.030227682
0.04484821 -0.03809399 0.0087732915 0.0162415 0.0076501565 -0.024429642 0.012788006 0.020327369
-0.00958404 -0.037825007 0.026887715 -0.04261337 -0.008065278 0.01441141 -0.029968735 -0.022109156
0.02880807 0.028814457 -0.030826183 0.03226198 -0.06331345 -0.022018773 0.0326106 0.018615989
0.016643584 0.027872154 -0.04183128 -0.03642662 -0.023453861 0.00799301 -0.03326575 -0.037426926
00000000: 5c34 ac3c 7b9e 9abc 1dd1 29bd e6cf 0cbd
00000010: 073c 0abd 50b2 4f3c 0455 4b3c 4685 8b3c
00000020: 88a3 133d 09f6 81bc 52a5 a9bc a2fd 17bd
00000030: 83d1 673c 0f80 13bd 6275 7e3d 804f a6bc
00000040: 7913 903c 8417 28bd e012 443d e7a0 7e3c
00000050: 5d81 74bd fe99 583c 80fc 433c 03fe 19bd
00000060: dc50 c0bc 0e29 163c ab73 ebbc 38a6 c93c
00000070: d9df 3ebd 5421 18bd e764 8d3b e476 903b
00000080: 5757 633c bca3 f3bc 5ac5 e8bc 3b77 04bd
00000090: 3981 6dbc 681d 1bbd f323 73bd 7bd9 663c
000000a0: e152 d4bc b751 18bd a582 f9bc 84f6 babc
000000b0: 03e5 4dbd 067e c1bc cea0 903c 1eb2 45bd
000000c0: 6c4d 13bd b450 f1bc 4efe 4b3c 4a62 b4bc
000000d0: 9981 d9bc 1ec4 78bd d6c4 b8bc aec9 bb3b
000000e0: 76af e3bc 2501 35bd be03 cc3c 33f1 7e3c
000000f0: 7ef1 b13c fa7b 1f3d 1b84 c4bc ac4c 9cbc
00000100: 83ef 613c 761e 95bc c214 9f3c 8ff3 863c
00000110: 9bca cabc 0805 8d3c f1bf 0bbd 54ac 1abd
00000120: 4749 da3c 1b2b f7bb b4a9 ab3b 08c1 38bd
00000130: 45de 583b b0ac 603c 7809 0abd 0281 d13c
00000140: 710a 18bd 5f7d 11bd 1a65 f7bc 9de4 4abd
00000150: e535 d8bc 0a2b 2bbd a94c 04bd 489d e0bc
00000160: aaa9 9f3c 5a26 c93b 0134 c8bc dbe2 433c
00000170: 28a9 163d 37c1 5f3c 917a 243c 58a3 ebbc
00000180: 5179 1ebd 5f52 15bd 2210 0fbd 5c28 6dbd
00000190: 10a5 bdbc 2309 eabc e667 b2bc 86ec 3bbd
000001a0: da08 443c bf56 543c d4bb 2dbd 742e 90bd
000001b0: 6b2f 23bd 0f73 1abd 23e3 c5bc 8ff0 4a3d
000001c0: ff22 12bd 4f74 363c 0a81 c5bc 400d 16bd
000001d0: 13a3 f7bc 76be 8f3c 38b0 1e3c 09da 9b3b
000001e0: 2267 a3bc 2b20 1cbd 9b92 23bd 88d4 953c
000001f0: 8e05 1abd abd4 adbc e8f9 2dbd ef48 d0bc
00000200: d70e fcbc a253 fb3c 3dc2 3b3d b44e bf3c
00000210: 5142 973c b46e 31bd 2e5b b83c c231 8a3d
00000220: de45 f2bc f7d4 843c 19ab 73bd d2ec ec3b
00000230: df44 4fbd 4f8a 053d 2c80 9bbc c57d bebc
00000240: a630 2abd 4161 d73b 7319 4b3c e529 08bd
00000250: 74da ae3c 7736 30bd 1a36 793c 9c9d d03c
00000260: 14cd 03bd 1910 163d ed62 b6bc 9038 283d
00000270: 62bd b1bc 1e05 1f3d 2066 2dbd c921 47bd
00000280: cd0f 2fbd d260 0b3d 29cf 8a3b 21cf 393c
00000290: e4bf 0bbd 981f 14bd 561e f8bc c713 903c
000002a0: 75ed 4ebd 911f 413c 3b6a 3ebc 370e aa3c
000002b0: 6079 1e3c 668c ecbc b41e 8abc c646 c8bc
000002c0: d4a7 0f3d 46c8 55bd e425 0dbd 5831 173c
000002d0: 39e6 05bd 2d9d cb3c 01bf 13bd 64c3 773c
000002e0: 40c7 3cbd 8801 28bd 483f c0bc 01fd 8f3c
000002f0: ce7a 07bd d66d 17bd fde6 c53a e85e 75bd
00000300: 2b0d d4bc d12a 323d 8a0a 15bd 4851 acbc
00000310: 07e8 923c 3c21 c53c 378f f3bc ca90 723c
00000320: fdd9 233d 01da 213d 8616 0b3d 3829 bfbc
00000330: b6f5 e23b 1faa 663c d246 3e3d f777 b8bc
00000340: 9994 813b febb 393c 181c e1bc 146e 403c
00000350: c113 cd3c 7f96 10bd 16ae 213c db2e 11bd
00000360: 4285 81bd 5aaa 07bd 3875 3d3c 40fb 0abd
00000370: a974 133d 4cab 7b3c fae0 e7bc 0ba0 f73c
00000380: c2b2 373d 7208 1cbd dabd 0f3c e50c 853c
00000390: 2aae fa3b ac20 c8bc c984 513c 9585 a63c
000003a0: 6106 1dbc 65ee 1abd a043 dc3c 5b8b 2ebd
000003b0: 3a24 04bc d61d 6c3c fe80 f5bc 431e b5bc
000003c0: e7fe eb3c 4c0c ec3c 3187 fcbc 2325 043d
000003d0: 7baa 81bd b760 b4bc b192 053d 8f80 983c
000003e0: 2058 883c 2554 e43c 4757 2bbd 1434 15bd
000003f0: 5022 c0bc 1df5 023c ab41 08bd fa4c 19bd

model.4.bias f4 [2]
0.16943906 -0.10090051
00000000: 6f81 2d3e eda4 cebd
