analysis_code/results/derivative_importancethreeLayerModel_emu_corrCut_0.9.npy (npy, 436 bytes, 1 tensors)

array f4 [77]
00000000: e3b8 f33e 1932 373e 994b 1f3e d9e6 ebbd
00000010: 0f8a c4bd 23fd de3d b5b7 f8bd 75e7 7b3e
00000020: 4085 e6bc ddbc 9dbd 6d60 96bd 294b 1c3e
00000030: 634d 143e 772d acbd 3833 fe3d a2c5 fa3d
00000040: 504a 25bd 174b 2f3e 74ac 6fbc 8d41 05be
00000050: 74c5 463e f812 dfbb 36ff 063e 5d29 09be
00000060: 4a91 3b3e 035d fa3d 8b50 ccbc 519c 53be
00000070: 8118 a63d aa08 8abc b4a4 9a3d b166 d5bd
00000080: fe63 5ebe d07c 8cbe 021d 95bd ed40 1fbe
00000090: fcc0 52bd e9bb 0dbe eb84 d2bd a214 9e3d
000000a0: 0816 9ebd 98dc 94bd 7af4 be3d 0000 803f
000000b0: 0d14 a6bd abd6 eebd 80fe d63d 263b aa3d
000000c0: 216e c33d f9d5 aeba 2f55 1fbe 4324 47be
000000d0: 64cc e2bc bb03 583e 10c8 eabd 80bb a5be
000000e0: 6f0b cf3d 4f10 273e 6576 063e 2f9f 1bbe
000000f0: 9c90 893d 308f c33d ac00 31be 6136 9fbc
00000100: e997 54be 7fc6 28be 3caa fd3e 4f3a 29bf
00000110: ae4e c13e b763 273c 05d5 ce3d fd6e 183f
00000120: ef44 e0c0 aea2 3ebf 34c1 123e 3466 a63e
00000130: 145d 553f
0.47601995 0.17890204 0.15556182 -0.1151864 -0.09596645 0.10888126 -0.12144414 0.24600013
-0.02813971 -0.077020384 -0.073426105 0.15263046 0.14482646 -0.08407109 0.12412113 0.12244727
-0.040354073 0.17118488 -0.014628518 -0.13013287 0.1941126 -0.006807681 0.13183293 -0.13394685
0.18317142 0.12224772 -0.02494075 -0.20665099 0.081101425 -0.016849834 0.07550946 -0.104199775
-0.21717831 -0.27438974 -0.072809234 -0.15552111 -0.051453575 -0.13841213 -0.10279258 0.07718779
-0.07719046 -0.072686374 0.09323974 1.0 -0.08109293 -0.116620384 0.10497761 0.08312063
0.0954249 -0.0013338915 -0.15559839 -0.19447426 -0.027685352 0.21095173 -0.1146394 -0.32369614
0.10109603 0.16314815 0.13131101 -0.15197442 0.06717035 0.09548795 -0.17285413 -0.01943511
-0.20761074 -0.1648197 0.4954394 -0.66104597 0.3775534 0.010216645 0.10099224 0.59544355
-7.0084147 -0.7446698 0.14331514 0.3249985 0.8334515
