analysis_code/results/derivative_importancetwoLayerModel_weights_gpu_ee0.npy (npy, 448 bytes, 1 tensors)

array f4 [80]
0	0x3e08175c	0.13290161
1	0x3dcf113d	0.1011071
2	0x3e1c879b	0.15286104
3	0x3da5acda	0.080896094
4	0x3da3fe09	0.08007438
5	0x3debb693	0.11509433
6	0x3dd80c33	0.10549202
7	0xbd627213	-0.05528457
8	0xbd52b179	-0.051438782
9	0x3d839df5	0.06426612
10	0xbe22f9ed	-0.15915652
11	0x3cf6ca9a	0.030125905
12	0x3c5865ab	0.013207833
13	0xbcee5dc4	-0.029097445
14	0x3d1e123f	0.03859162
15	0x3dfa9722	0.122358575
16	0xbbffdbcc	-0.0078081843
17	0x3dbbc778	0.09168905
18	0x3dadae73	0.08480539
19	0x3dea22eb	0.11432441
20	0x3d53092a	0.05152241
21	0xbcd198a1	-0.025585474
22	0x3e59c9f4	0.21268445
23	0x3c7f5755	0.015584786
24	0x3dc31c77	0.095269136
25	0x3e03f1a1	0.12885143
26	0xbd9843ba	-0.07434793
27	0x3cafd2af	0.021462766
28	0x3e0d68cc	0.13809508
29	0xbdb3bcb9	-0.0877623
30	0x3d0f9ec4	0.03506352
31	0x3d914e07	0.07094961
32	0x3da7d669	0.08195192
33	0x3e436395	0.19080956
34	0x3e3e4140	0.18579578
35	0x3d21c813	0.039497446
36	0xbe1d5968	-0.15366137
37	0x3cf377a7	0.02972014
38	0xbd0b62b8	-0.034029692
39	0x3d88cb65	0.066794194
40	0xbd929cd0	-0.07158816
41	0xbcdb070c	-0.026736759
42	0xbd9f02b5	-0.07764188
43	0xbd58db90	-0.052943766
44	0xbdb33347	-0.08750015
45	0x3d9d15b0	0.07670152
46	0xbd969a89	-0.07353694
47	0x3cde9dd5	0.02717487
48	0x3d9157bc	0.07096812
49	0x3d3f178e	0.046653323
50	0x3c5f5d93	0.01363315
51	0xbdb67756	-0.0890948
52	0xbca4e206	-0.020127308
53	0xbbbd982f	-0.005785964
54	0x3dcf1895	0.101121105
55	0xbd195ed5	-0.037443954
56	0xbd5aaf5c	-0.053389892
57	0x3d03b059	0.0321506
58	0xbdb55fdd	-0.08856175
59	0xbe3ca27a	-0.18421355
60	0xbe2795e0	-0.16365767
61	0xbcc34148	-0.02383484
62	0xbd04ce48	-0.032423288
63	0x3d44dfda	0.048065044
64	0x3eb9d6f6	0.36296815
65	0xbd742d2a	-0.059613384
66	0x3ca261c2	0.019822005
67	0xbe04e330	-0.1297729
68	0xbe7e6bab	-0.2484576
69	0xbdaaf6c8	-0.08347851
70	0xbe02c1ba	-0.12769213
71	0xbd9351a8	-0.07193309
72	0xbee5f85e	-0.44916052
73	0xbea26c17	-0.3172309
74	0xbe0e8042	-0.13916114
75	0x3f800000	1.0
76	0x3e42c01f	0.19018601
77	0x3d0cb7af	0.03435486
78	0x3f13abda	0.576841
79	0x3f333198	0.6999755
