analysis_code/results/derivative_importancethreeLayerModel_ee_corrCut_0.9.npy (npy, 436 bytes, 1 tensors)

array f4 [77]
000000 5c 7e b2 3d e8 7a 50 3c ba 45 1a 3d bf bd dd 3c
       0.087155074 0.012724616 0.037664153 0.027068017
000010 10 41 9b bb 70 0a 02 bd f0 12 72 3a 82 e3 03 3e
       -0.0047379807 -0.031748235 0.0009234389 0.12879756
000020 ab 93 bc bc 6a d4 23 bd 28 22 e2 3d d6 07 f6 bc
       -0.023019632 -0.039997496 0.11041671 -0.030033033
000030 fe ac 83 3d d3 09 54 bd bf ba 42 3d b3 51 0d bd
       0.0642948 -0.05176718 0.047541376 -0.034501743
000040 85 b3 1f bd ca 94 a3 3b c0 1f 48 bc a3 5d 06 bd
       -0.038989563 0.0049921023 -0.012214601 -0.032804143
000050 04 ed 82 3d 20 c6 dd bc 4e 8a 1f 3d 60 aa b2 bb
       0.063928634 -0.027072012 0.038950257 -0.005452439
000060 ae e5 60 bd 38 2f fc bc 21 91 18 bd 7b aa 50 bb
       -0.05490654 -0.030784234 -0.03724778 -0.0031839896
000070 8b 1d f8 bc 6a 71 b7 bc 7d 4f 20 3c 98 56 08 3d
       -0.030287525 -0.022392947 0.0097845765 0.033285707
000080 ca 47 2b 3d 7e 82 01 3e 46 3c 8a 3c 88 29 8d 3d
       0.04181651 0.12647435 0.016874444 0.06892687
000090 c4 4d 3e 3d ca 3d b4 3c 18 9a 74 3c 2d 8c a7 bc
       0.04646088 0.02200212 0.014929317 -0.020452583
0000a0 dc e2 52 bc d8 cd 4f 3d 63 d8 30 3d 87 fb e9 be
       -0.01287147 0.050733417 0.043175112 -0.45699713
0000b0 4a 6f e9 bb 28 65 50 bd ab b2 da bb 85 b4 00 3d
       -0.0071238624 -0.05087772 -0.006674131 0.031422157
0000c0 c6 6c 8c bc b2 22 b4 bc 7e a3 26 3d ce 58 44 bd
       -0.017141711 -0.0219892 0.040683262 -0.047936253
0000d0 60 fd 01 bc 86 f4 4b 3d 25 ca 4d bd 74 66 06 bd
       -0.007933944 0.049793743 -0.05024161 -0.03281255
0000e0 00 ec d1 3c 61 13 01 bd 4b ea a8 3c 11 5c 47 bd
       0.025625229 -0.03151262 0.020619532 -0.048671786
0000f0 91 78 94 3c a3 2b 84 bc 93 e6 59 3c 24 fb 03 bc
       0.018123897 -0.016134089 0.013299602 -0.008055482
000100 bf 37 a0 3d 08 f3 86 3d c3 9c 57 bb 76 15 d1 3d
       0.07823133 0.06589323 -0.0032899834 0.102091715
000110 ea df 9a 3d 24 70 7f 3d 83 4e 2d bd 45 b6 9f 3d
       0.075622395 0.062362805 -0.042311203 0.07798437
000120 00 00 80 3f c9 65 1d 3f 62 f2 96 3c 1c a5 01 3c
       1.0 0.61483437 0.018426124 0.0079129
000130 f9 3a 0b be
       -0.13596715
