analysis_code/results/permutation_importancethreeLayerModel_ee_corrCut_0.9.npy (npy, 744 bytes, 1 tensors)

array f8 [77]
000000 24 98 9a 43 28 e5 81 3f 3c 60 2b 42 c5 e7 59 3f
       0.008737864077669917 0.0015811373092926703
000010 f7 92 7c 42 2c c1 64 bf 00 30 c6 1c a6 d0 15 bf
       -0.00253351826167358 -8.321775312064572e-05
000020 22 2c a5 c2 df 2d 42 bf 55 87 85 49 a2 c8 5c 3f
       -0.0005547850208044195 0.0017568192325474092
000030 1e a8 94 95 7c 5c 60 bf 62 5b 80 d5 22 a6 61 bf
       -0.0019972260748959544 -0.0021544151641238888
000040 9a c1 f7 a3 cf 44 3b bf 9a c7 02 c2 11 7b 3c 3f
       -0.00041608876560330634 0.00043458159963016276
000050 40 cf ee 9c 59 3d 63 bf 44 03 75 1c 3f f7 4a 3f
       -0.002348589921405436 0.0008229311141932723
000060 62 94 1c 91 8c cc 6b bf ef 4a 1e 0d b7 82 2f bf
       -0.0033934350439204656 -0.00024040684234857094
000070 11 49 13 ef 74 4c 3e bf cd 75 43 95 15 83 45 3f
       -0.0004623208506703428 0.0006564956079519402
000080 e6 f3 3d 86 f4 e7 54 3f c4 92 7c 42 2c c1 54 bf
       0.0012760055478502285 -0.001266759130836779
000090 ef 9d 08 6c d4 8e 62 3f ef 95 87 60 6e f7 65 bf
       0.002265372168284811 -0.002681460933888095
0000a0 5e 3b dc 58 2a 3d 58 bf 11 a7 94 95 7c 5c 30 bf
       -0.0014794267221451478 -0.0002496532593619797
0000b0 cd c5 02 c2 11 7b 5c bf bc af b5 ef 42 ff 33 bf
       -0.001738326398520551 -0.00030513176144241947
0000c0 ef 2e c6 1c a6 d0 15 bf 22 2f b0 e0 21 64 43 bf
       -8.321775312064202e-05 -0.0005917706888580491
0000d0 55 c5 02 c2 11 7b 4c bf 9a 0a 96 76 05 9a 4e bf
       -0.0008691631992602625 -0.0009338881183541148
0000e0 77 4b 13 ef 74 4c 4e 3f a6 61 96 11 a7 12 64 3f
       0.0009246417013407522 0.002450300508552955
0000f0 77 4b 13 ef 74 4c 4e 3f 66 ae df 50 7f a9 5f 3f
       0.0009246417013407522 0.0019325011558021465
000100 bc 1b b0 e0 21 64 f3 be 1a 02 75 1c 3f f7 5a bf
       -1.849283402679721e-05 -0.00164586222838648
000110 ef a8 94 95 7c 5c 40 3f 31 6b 07 93 1d 3b 7b 3f
       0.0004993065187240113 0.006648173832639868
000120 00 29 9a a4 9d f7 40 bf cd 7b 59 d1 99 ef 47 3f
       -0.0005177993527507863 0.0007304669440591993
000130 09 a8 94 95 7c 5c 50 bf bc 98 92 7e b0 2d 57 bf
       -0.0009986130374479726 -0.0014147018030512956
000140 33 86 85 49 a2 c8 4c bf e6 ad aa d1 00 c9 52 bf
       -0.0008784096162736732 -0.0011465557096624833
000150 00 b5 c0 0d 85 35 45 3f 2d b6 dc 79 29 e5 9e 3f
       0.0006472491909385314 0.030171058714748056
000160 00 be e1 67 4b d8 48 3f 5e ed 5c c9 ee 5b 7f 3f
       0.0007582061950994201 0.007656033287101264
000170 de 41 fd b2 f0 df 2b bf de e9 51 ab ac 25 5e bf
       -0.0002126675913083483 -0.0018400369856680292
000180 55 15 b0 e0 21 64 f3 be ef 36 b0 e0 21 64 13 3f
       -1.8492834026791655e-05 7.39713361072832e-05
000190 6f 7e 64 ef db 25 59 3f 1e 57 0a e8 fe 44 66 3f
       0.0015349052242256374 0.0027184466019417727
0001a0 66 f4 3d 86 f4 e7 44 3f 11 bf e1 67 4b d8 38 3f
       0.0006380027739251281 0.00037910309754972485
0001b0 ab 4b 13 ef 74 4c 4e 3f bc 3b d1 3a e8 06 27 3f
       0.0009246417013407578 0.00017568192325475944
0001c0 1a 45 fd b2 f0 df 5b 3f 91 9d 08 6c d4 8e 62 bf
       0.001701340730466966 -0.00226537216828477
0001d0 11 ff 69 fe fc c0 59 bf 40 61 96 11 a7 12 64 bf
       -0.0015718908922792189 -0.0024503005085529106
0001e0 66 2e a5 c2 df 2d 32 3f 22 f3 3d 86 f4 e7 54 bf
       0.0002773925104022412 -0.001276005547850186
0001f0 22 62 b0 e0 21 64 e3 3e 77 ba d6 49 09 a2 67 3f
       9.246417013429135e-06 0.0028848821081831027
000200 de b5 c0 0d 85 35 35 3f 66 32 c6 1c a6 d0 25 bf
       0.00032362459546927773 -0.00016643550624130808
000210 89 2c b0 e0 21 64 23 bf 33 68 17 1d 0d aa 40 bf
       -0.00014794267221449425 -0.0005085529357373775
000220 33 23 b9 e7 97 6b 5b bf 9a c1 ec 85 8d 0e 3a 3f
       -0.0016736014794267006 0.0003975959315765332
000230 22 b6 c0 0d 85 35 35 3f 89 39 d1 3a e8 06 47 3f
       0.0003236245954692814 0.0007027276930189767
000240 f1 ee c7 98 d0 86 99 3f 2b 6f 62 d8 0f f7 5f 3f
       0.024928340268146113 0.0019509939898289623
000250 11 37 d1 3a e8 06 37 bf ab b1 b5 ef 42 ff 53 3f
       -0.0003513638465094541 0.0012205270457697852
000260 62 c3 f7 a3 cf 44 6b 3f
       0.0033287101248266485
